IsaacGymEnvs/isaacgymenvs/runs/Bolt_18-15-12-34/nn/last_Bolt_ep_500_rew_0.02342995.pth (torch, 612432 bytes, 36 tensors)

value_mean_std.running_mean f8 [1]
000000 a3 51 34 ee 47 cb a6 3f
       0.04451966078537175

value_mean_std.running_var f8 [1]
000000 f1 26 81 d9 28 d4 59 3f
       0.001576461689199279

value_mean_std.count f8 []
000000 00 00 00 00 20 70 e7 40
       48001.0

running_mean_std.running_mean f8 [30]
000000 d8 b3 9e 91 79 11 bf bf 16 7b 35 6a fa e4 c8 3f
       -0.12136039548086275 0.19448785959226517
000010 da f7 79 95 63 c5 d6 bf 2d ba 56 99 ff a6 de bf
       -0.3557976684313623 -0.4789427754830367
000020 16 34 ab bd dc f5 ca bf cb 55 12 49 07 a9 a7 bf
       -0.21062812100572675 -0.04621145979869431
000030 3e 2e 14 ec 71 63 af 3f b1 ff 1b 83 14 35 b0 bf
       0.0613055802042166 -0.06330993843948708
000040 35 72 2c a9 16 e9 dd bf 88 36 c7 cb 63 03 b8 3f
       -0.4673515941701994 0.0938017246728241
000050 69 6f 2c 3a 72 b0 67 bf 27 5a c7 7e de ce 7b 3f
       -0.002891753292159228 0.006789082643499123
000060 ee c1 bb e9 99 c9 b4 bf 81 1f b5 1b 06 0b bb bf
       -0.08120119053251759 -0.105636960758714
000070 14 8c f1 6a ca dc bb 3f 0e ea 48 64 21 40 b9 3f
       0.10883774863172874 0.0986348028026571
000080 6d cc e3 2b 62 eb b5 bf 9e a9 21 8c 1d a8 b2 bf
       -0.08562291690377473 -0.07287773772410452
000090 3b 43 23 36 26 6f 60 bf 75 0c 70 4b f1 1e 70 bf
       -0.0020061250989801527 -0.003935759122216988
0000a0 f1 87 75 fd 71 d4 61 3f 00 4f 51 b1 e3 33 90 3f
       0.0021764971130986345 0.015822942445381294
0000b0 17 94 87 a1 f8 84 79 bf 7c 04 99 b6 fa b6 54 bf
       -0.006230326857324739 -0.0012643288013267908
0000c0 a9 d5 3e 1d 44 21 d0 bf bb ca 83 fc 8f 8a d3 bf
       -0.25203039985657455 -0.3053321805920565
0000d0 8b 08 62 79 a3 b8 d0 3f f5 3f 98 9e fd d1 d7 3f
       0.2612694440250684 0.37219181525961115
0000e0 ab 2b 41 a2 de f2 d5 bf f3 dc 55 4e 54 b0 d5 bf
       -0.3429485878484068 -0.3388872876161734

running_mean_std.running_var f8 [30]
000000 4e 33 15 b8 aa 1a ed 3f 50 8a ef 1e fd d8 f0 3f
       0.9095052333228553 1.0529757698465296
000010 1e 81 65 76 6e 71 f3 3f 10 c3 11 5b b4 aa fc 3f
       1.2151932358611428 1.7916759068868409
000020 15 fb 06 25 49 81 e8 3f 33 f7 93 70 33 45 cc 3f
       0.7657819483937113 0.22086184498760417
000030 15 79 c6 ad 1c 17 c2 3f fe e0 32 c2 0b e6 c4 3f
       0.14133032307740537 0.16327044470177293
000040 f6 3a ff 33 d2 39 df 3f 6e 11 4b c2 71 11 15 40
       0.4879041202338351 5.267035518485825
000050 0d 63 64 70 a4 a5 f5 3f 26 38 2a e2 70 4a 95 3f
       1.352940024406226 0.02079178219224089
000060 03 df 46 8f 16 33 b3 3f 67 a1 31 01 1b 8e b2 3f
       0.07499829290361153 0.07248085765025324
000070 53 ae 32 ee f5 93 b5 3f 66 b7 81 ea 16 d7 b5 3f
       0.08428895058994472 0.08531325555096955
000080 49 5a 61 06 de 92 b0 3f 01 92 4f 46 a3 e0 b6 3f
       0.06474101691979074 0.08936520067761224
000090 c6 64 ec 24 47 c1 be 3f b7 94 e1 d2 76 ba c1 3f
       0.1201366868157435 0.13850293442661663
0000a0 41 7b d9 b1 c0 58 c0 3f e7 83 5e e1 00 64 bf 3f
       0.12770851787623808 0.12261968137910594
0000b0 a6 23 17 40 4f 68 c0 3f ec 6f 23 a8 7e 16 bc 3f
       0.12818327550328695 0.10971824269239477
0000c0 5b 9a 4c ad 36 c0 e5 3f d9 84 5d ce 4e 0a e6 3f
       0.6797135720015136 0.6887582808086804
0000d0 ab 60 9c 2f 84 5c e7 3f 2e 00 4e 10 19 1e e5 3f
       0.7300434999370017 0.6599240606738073
0000e0 95 8f 71 02 a3 2b e3 3f 73 a1 5d 41 3e df e7 3f
       0.5990767524458415 0.746001365344496

running_mean_std.count f8 []
000000 00 00 00 00 40 70 d7 40
       24001.0

a2c_network.sigma f4 [6]
000000 f5 db 2b bd d7 95 4f be 70 c2 70 be 02 23 12 be
       -0.041957814 -0.20272003 -0.23511672 -0.14271167
000010 db 5b b7 bd d6 23 36 be
       -0.08953067 -0.17787108

a2c_network.actor_mlp.0.weight f4 [256, 30]
000000 8b fc 11 3e 21 16 01 be 17 83 a6 3d 08 2f 46 3c
       0.14256494 -0.12606098 0.08130472 0.012096174
000010 78 2f 17 bc 1a 7c c8 3d 64 4e a6 bc 08 dc 55 3e
       -0.009227626 0.097892955 -0.020301051 0.20884717
000020 b0 8e 5d 3d 87 6b 58 bd fc 80 08 bd cd f8 60 3d
       0.054091156 -0.05283692 -0.033326134 0.054924775
000030 d6 46 9f 3d ac 76 30 3e c1 be 06 3e 18 78 88 bc
       0.07777183 0.1723277 0.13158704 -0.016658828
000040 3d f3 05 3d 20 4f 10 3d da 96 cd 3d 17 1d b1 bd
       0.032702673 0.03523171 0.10038538 -0.086481266
000050 d6 f4 49 be 7d 4a b6 bd 7d 10 28 be 65 3e f4 3d
       -0.19722304 -0.08900926 -0.1641254 0.11925963
000060 1f e7 87 3d ee 06 64 3d 76 0b 98 bc 19 bd 12 3d
       0.0663588 0.05567067 -0.018560153 0.03582487
000070 fe f9 22 3e 42 1e 1b be db c6 4f 3b 3a c5 3c be
       0.15915677 -0.15148261 0.003170422 -0.18434611
000080 87 b6 ec b7 e7 dd 97 bd da 71 1a bd 48 40 d0 bc
       -2.8218388e-05 -0.074153714 -0.037706234 -0.025421277
000090 df 45 39 3e 6f 3d 03 be c5 40 07 be 47 2d f7 3c
       0.1809306 -0.12816404 -0.13208301 0.030172957
0000a0 34 96 0d 3e 8c 65 75 3d 45 a6 29 3e 64 7a 0a be
       0.13826829 0.059911296 0.16567333 -0.13523251
0000b0 6e f5 7e be f2 b1 a5 bd 6d fe 30 be 20 e9 72 3d
       -0.24898311 -0.08090581 -0.17284556 0.059304357
0000c0 ca ad 9e 3d 80 67 0d 3e c1 d3 4a be 4d cc b3 bd
       0.077479914 0.13809013 -0.1980734 -0.08779202
0000d0 87 8c f7 3d ca 7e 9e bd 40 fd e3 3d 5c 2f 02 bc
       0.1208735 -0.07739027 0.11132288 -0.007945862
0000e0 9b 15 01 3e a7 03 a4 bd a9 5b c5 bd 73 c8 e5 3d
       0.12605898 -0.08008509 -0.096366234 0.11219873
0000f0 a8 a9 b5 3c 59 ab ad bd 68 29 9e 3d 61 ae 4c 3e
       0.022175625 -0.084799476 0.07722741 0.19988395
000100 76 50 18 be cc d0 9f bd 92 d2 54 3e c4 0d 52 bd
       -0.14874443 -0.07803497 0.20783451 -0.05128266
000110 35 06 4f be 89 55 b3 bd a2 09 41 bd 30 d9 32 3d
       -0.20217212 -0.08756549 -0.047128327 0.043664157
000120 f6 fb ee bc 31 56 5d bd 8c d2 ae bd ba 87 08 be
       -0.029172879 -0.054037277 -0.085362524 -0.13333026
000130 97 bd 0a be 9e 57 c1 bd b5 75 81 be ee 14 1c be
       -0.13548885 -0.0944054 -0.25285116 -0.15242359
000140 6e 4e ec 3d d7 8d bb bc 2f a0 25 3c 50 68 0d be
       0.11538397 -0.022894783 0.0101089915 -0.13809323
000150 f3 51 25 be b4 28 4c bd 26 22 a9 3c 88 93 55 be
       -0.16144542 -0.049843505 0.020646166 -0.2085706
000160 ac 22 06 be f0 c1 52 bd 2d 07 f6 39 8f 4c 08 3d
       -0.13099164 -0.051454484 0.00046926123 0.033276137
000170 89 7d 40 3d be c7 5e be c4 79 ff bd 63 3b f6 bd
       0.04699472 -0.21755883 -0.12474397 -0.12023046
000180 1a a0 e8 bd 5d 5e f4 bd 85 4d cf 3d 1c fb a3 bd
       -0.11358662 -0.11932061 0.101222076 -0.0800688
000190 bd e8 d4 3d bb 22 01 3e c1 04 00 be 23 fa 60 3e
       0.10395954 0.12610905 -0.12501813 0.2197042
0001a0 9e 84 d0 bd c5 c6 de bd 52 f9 20 be 7a d1 fb bd
       -0.10181545 -0.10877756 -0.15720108 -0.12295814
0001b0 78 ee db 3c 4a 08 01 bc 73 d0 13 3e 32 e1 cd bd
       0.02684711 -0.007875511 0.14434986 -0.10052718
0001c0 cd 75 67 3d 30 25 bb bd 95 8c 7b bd d9 e4 b5 3d
       0.056508828 -0.09137952 -0.061413366 0.0888154
0001d0 b5 7e 5e 3d 2b 92 ed 3d 86 b2 48 3e 99 bb 0f be
       0.054320056 0.11600145 0.19599351 -0.14036407
0001e0 d6 91 e4 3d 2d 9d a6 bd d4 de 97 3d e9 d3 f0 bd
       0.111606285 -0.08135448 0.07415548 -0.11759169
0001f0 1d a1 28 3e 3b 7d 90 bd 2a ad 08 3e 2e 5c f2 3d
       0.1646771 -0.07055136 0.13347307 0.11833988
000200 61 ca 07 3e 0b 91 0a be 52 69 01 3e 77 5a 94 3d
       0.13260795 -0.13531892 0.12637833 0.07243817
000210 f8 79 f3 3c 39 b4 22 be 6f 7a b2 3d a4 b8 25 3d
       0.029721245 -0.15889062 0.087147586 0.04045929
000220 63 a8 18 be 97 b8 0b 3e 98 a5 02 3e 6d 0b a4 bd
       -0.14907984 0.13644634 0.12758482 -0.08009992
000230 52 21 46 bd fc 9a e0 bc f2 b3 14 3e bf a6 48 bc
       -0.04837162 -0.027417652 0.14521769 -0.012246787
000240 42 b5 48 bd 42 59 51 bd df a3 30 be a0 10 f2 3d
       -0.049000986 -0.051110514 -0.17250012 0.11819577
000250 2d 2a 49 3e 36 a3 29 be 57 15 c6 3c f3 8c 9f 3d
       0.19644995 -0.16566166 0.024180098 0.07790556
000260 dd 0d 3b 3c 63 cb a0 bd d6 92 d9 3d 50 bc 4f 3d
       0.0114168795 -0.07851293 0.1062371 0.0507167
000270 4d b2 84 3d d3 90 62 bd 95 3e 8b bc 2e a2 7f 3d
       0.06479321 -0.055313896 -0.016997615 0.062410526
000280 d8 1d 98 3d aa 70 d4 bd 26 ca 1f 3e ae 1a af 3d
       0.07427567 -0.103730515 0.15604457 0.085500106
000290 37 57 b0 bd 4b d4 81 3c 38 ce 0b bc cd 3b 75 bd
       -0.08610385 0.0158483 -0.008533053 -0.059871484
0002a0 64 a4 c3 3d c6 3a b5 3d 41 d6 16 be 5e 46 11 be
       0.095528394 0.08849101 -0.14730169 -0.14186999
0002b0 d2 21 fc 3d 20 51 ba 3d 74 a7 b1 bc d8 cf d4 bd
       0.12311138 0.090975046 -0.021686293 -0.103912055
0002c0 65 64 f4 bd 7d fb 14 be 87 ff 07 be 5b 2a 41 3d
       -0.11933211 -0.1454906 -0.1328107 0.047159534
0002d0 6c 0f 9a 3d 45 4e d0 3d 82 09 83 be 19 d5 f0 bd
       0.07522473 0.10171179 -0.2559319 -0.11759395
0002e0 89 56 1c bc 9d c5 82 3e dd 84 35 bd cc a2 76 bd
       -0.009542116 0.25541392 -0.04431616 -0.06021385
0002f0 8b 7d 45 3d cd 8d b1 bd 98 ef 56 be bc f9 1f 3e
       0.04821543 -0.086696245 -0.20989835 0.1562261
000300 d8 83 b4 bd 48 e6 c8 bc 2c 2f 15 be bf 5a e3 3d
       -0.0881421 -0.02452387 -0.14568776 0.11101293
000310 25 0e 45 3e 6d a1 21 3d dd c1 45 be 71 17 57 be
       0.19243677 0.03946059 -0.19312234 -0.21005036
000320 7a a6 d1 bd 61 8b 1f 3e c5 e0 39 3d 63 ef d1 3d
       -0.10236831 0.15580513 0.045380373 0.102507375
000330 75 19 ef 3d 00 f9 81 3d c3 64 c2 3b 97 23 41 be
       0.116747774 0.06346321 0.005932422 -0.18861233
000340 21 9d c0 bd f0 f5 1c be d2 f7 92 39 94 7d ba bd
       -0.0940497 -0.15328193 0.0002803193 -0.091059834
000350 a7 5f 96 bd c4 c0 c9 bd 22 44 41 3d ce 39 b3 bd
       -0.07342463 -0.0985122 0.047184117 -0.0875126
000360 f3 58 07 be 50 62 32 3e 14 9f 01 3d bc a1 e1 3d
       -0.13217525 0.17420316 0.03164585 0.110171765
000370 ab fb b0 bc f2 80 c2 3c 2d 3f 14 bd dc 3f 09 be
       -0.02160438 0.023743127 -0.03619306 -0.13403267
000380 cc c6 b1 bc 29 24 f8 bd 95 a2 ed 3d 5e 82 b9 bd
       -0.021701239 -0.12116272 0.11603276 -0.09058069
000390 0d b3 70 3d db 6d 1f bc 91 b4 ed 3d 7f f1 a2 bd
       0.058764506 -0.009730781 0.11606706 -0.07956218
0003a0 23 5c de 3d 8d fb 45 bd 11 57 65 3d 68 0c eb 3d
       0.108574174 -0.0483356 0.055991236 0.11476976
0003b0 40 33 23 bd f0 8b 64 3d da 96 4f bc 6e 74 01 be
       -0.039843798 0.055797517 -0.012670243 -0.1264207
0003c0 a9 03 f1 3d 26 48 54 be 18 e2 a4 3d cd 61 08 3e
       0.11768276 -0.20730647 0.080509365 0.13318558
0003d0 2b 38 18 3e cd 21 1c 3d f0 39 64 be 69 ac 99 3c
       0.14865176 0.038118172 -0.22287726 0.01875897
0003e0 28 93 4e 3e 53 e1 3f be 1d 46 ba bd 50 8a 36 bd
       0.20173323 -0.18738298 -0.09095404 -0.0445655
0003f0 f3 c6 d0 bd 14 60 bd bd 78 df d3 bd 94 46 80 3c
       -0.101941966 -0.09246841 -0.10345358 0.015658654

a2c_network.actor_mlp.0.bias f4 [256]
000000 9d fe 0f be 02 77 a8 3d 8d c4 0b 3e 00 fe e6 3d
       -0.14061971 0.08225824 0.13649197 0.112789154
000010 8a c8 c8 bd 24 79 d9 3c 31 78 0f 3c 7b b2 d7 bd
       -0.09803875 0.026547022 0.008756683 -0.10532089
000020 e5 94 a6 bd c0 75 f4 3d 08 d0 37 3e 2b 9e a0 b8
       -0.08133868 0.119365215 0.17950451 -7.6588556e-05
000030 96 da 03 bd fe 22 e5 bd 2e 6b d2 3d c0 bb 08 bd
       -0.03219088 -0.11188315 0.10274349 -0.033382177
000040 1c eb c7 3c c3 44 3f 3c f2 0e dd bd 57 bd 62 3d
       0.024404101 0.011674109 -0.10793866 0.05535635
000050 ed fb 7d 3d 95 58 b0 3d 2a 32 1f be a7 e5 41 3e
       0.062007833 0.08610646 -0.1554648 0.18935262
000060 ea 7e 8f bc 08 17 45 3b 32 ef 4a 3d 57 2d fe bc
       -0.017516572 0.0030073542 0.04954452 -0.03102748
000070 ac 19 38 3d 11 f2 c1 bd 10 93 27 bd 06 12 03 3e
       0.044946358 -0.09469999 -0.040911734 0.12799844
000080 06 e8 69 3d 9b 2b 9d 3c 2d 94 47 3d fc d6 2e 3e
       0.05710604 0.019185832 0.048725296 0.17074198
000090 8b b5 10 be 55 97 49 3e ca 88 be ba c0 73 01 be
       -0.14131753 0.19686635 -0.0014536616 -0.12641811
0000a0 44 77 0a be ab 32 41 bc 26 85 b4 bc 21 79 70 bd
       -0.13522059 -0.011791865 -0.022036146 -0.058709268
0000b0 87 e7 a4 bd 2b 11 7c bd 92 4e 37 3e a4 28 b3 3c
       -0.08051973 -0.06153981 0.17901066 0.021869965
0000c0 4e 46 5a 3e bc 62 b8 bd 8d 87 12 3c 15 ba 9d 3d
       0.21315882 -0.09003207 0.008943451 0.07701508
0000d0 1c 50 98 bd 07 df 22 bc 33 0a 3d bd c2 66 88 bd
       -0.07437155 -0.009940869 -0.046152305 -0.066602245
0000e0 de a3 23 3e be 34 79 bc 1e 06 ee 3c 2a 8b 97 3a
       0.15980479 -0.015210329 0.029055651 0.001156186
0000f0 3d 01 85 3c 3b f2 bc bd b9 95 45 3d d8 ad 09 be
       0.016235942 -0.09225889 0.04823849 -0.13445222
000100 bf 31 34 3c 5a 21 c5 bd 3e 4f 97 3d cd 89 e5 bd
       0.0109981885 -0.09625502 0.07388161 -0.11207924
000110 11 04 c4 3c cc f2 65 bd f4 dd 9b bd 96 89 d6 ba
       0.02392772 -0.056139752 -0.076106936 -0.0016367908
000120 f6 ff 03 3d 39 29 0b bd 6e 23 a7 3c 45 a5 8b 3d
       0.032226525 -0.03397486 0.020402636 0.06818632
000130 08 ca c9 3d 40 0c a2 bd 0a 31 2e 3d a9 d8 fa bd
       0.098529875 -0.07912493 0.042527236 -0.12248356
000140 c6 07 b1 bc 23 01 25 3d b8 94 6f bc 1b 19 91 bd
       -0.021610152 0.040284287 -0.01462286 -0.070848666
000150 87 2b 26 bd 1b 6d 8d 3d 1d 4d 1d 3e c6 64 b5 3c
       -0.040568855 0.06905576 0.15361448 0.02214278
000160 11 fc 8f 3d bc 0e 12 3b 9e 4f a0 3b 4c e4 4b 3d
       0.070305 0.0022286614 0.0048923036 0.049778268
000170 7e a3 c2 3c 28 75 48 3e ce e7 b9 3c 1c 7f 5b 3d
       0.0237596 0.19575942 0.02269354 0.053588018
000180 ca 27 17 3e c1 a2 71 bc 39 67 17 bd 5d ca ed bd
       0.14761272 -0.014748276 -0.036963675 -0.11610863
000190 02 da 9a 3a 26 32 f6 3d 34 2c 88 bd 5e 0f 89 bd
       0.0011814239 0.12021284 -0.06649056 -0.06692384
0001a0 b6 cc 31 bd 3f 82 af bd 17 b4 11 3d 6b bf ec bb
       -0.04340812 -0.08569764 0.035572138 -0.0072249672
0001b0 e0 63 de bd ec 4e c2 bd b7 21 d5 3c 91 a4 dc 3d
       -0.108588934 -0.094877094 0.026017053 0.10773576
0001c0 cd 48 0b be b2 27 0d 3e 3e 04 82 3d 62 0a b8 3d
       -0.1360199 0.13784674 0.063484654 0.08986355
0001d0 d0 04 8b bc 83 4c c9 3d 9c c4 68 3d ca 68 c2 bc
       -0.016970068 0.098290466 0.056828126 -0.023731608
0001e0 d0 82 32 be 21 44 3e bd 07 a7 16 3d fb 12 b5 bd
       -0.17432714 -0.04645169 0.036780383 -0.08841511
0001f0 5d 3e a0 bc dd 4d 1e 3d aa f8 76 be df 18 1e 3e
       -0.019560987 0.038648475 -0.24118295 0.15439175
000200 e3 0e 57 bd 20 36 8c 3c dd 2d ca bd 0c 06 00 3d
       -0.05250443 0.017115653 -0.09872029 0.031255767
000210 6a 32 dc 3c b4 72 2f be ba ec 86 3d b6 c5 88 bd
       0.026879508 -0.171336 0.06588121 -0.06678335
000220 15 95 57 3d b6 48 4d 3d 6d ba c3 3d 92 da b3 3c
       0.05263241 0.05011817 0.09557042 0.021954808
000230 5b d3 38 3e 3e 30 59 3d f5 1b 9f bd 59 aa 0f bd
       0.18049376 0.053024523 -0.07769004 -0.035074566
000240 2c 65 df 3d c2 84 a1 3c 02 83 63 bc c2 30 dc 3d
       0.10907969 0.019716624 -0.013886215 0.10751487
000250 f6 32 5d 3d 0e cd 66 bd 2d 65 d1 3d 2f b0 4e 3d
       0.05400368 -0.0563479 0.10224376 0.05046099
000260 83 b8 ac bd 9c ec ce bc c3 3e 87 3c 31 2c 00 be
       -0.0843363 -0.025259309 0.01650942 -0.12516858
000270 38 81 23 3d 07 a4 46 bd 19 8d 86 3c 28 20 2c bd
       0.039918154 -0.048496272 0.016424702 -0.042022854
000280 05 f2 b7 bd 88 ba 0a be 75 6e e7 bd 31 f5 19 bd
       -0.089817084 -0.13547719 -0.11300365 -0.03758735
000290 06 aa 5d 3d 4e 30 94 bd 98 f5 8c bb b7 6e 4d bb
       0.054117225 -0.07235776 -0.004301738 -0.0031346509
0002a0 23 7f 11 bd 57 8c 83 bd fa cb e5 bd 19 11 9d bd
       -0.035521638 -0.06423252 -0.11220546 -0.07669277
0002b0 20 78 32 bd 99 5a ee 3d bb 0b da bd 54 ae b0 bc
       -0.04357159 0.11638374 -0.10646769 -0.021567501
0002c0 56 52 c4 bd c3 2f 56 bd 28 a4 c5 bd af c6 8e 3d
       -0.09586017 -0.052291643 -0.09650451 0.0697149
0002d0 60 22 1e 3d fd 2b b9 3d fa 58 1c bd bb 55 0b be
       0.038607 0.09041593 -0.038170792 -0.13606922
0002e0 78 d6 b9 bc 22 9b 19 3e 85 74 86 bd 8e 5e c0 bd
       -0.022685274 0.15000585 -0.06565193 -0.09393035
0002f0 8d 46 b1 bd f9 14 23 3e 93 d9 24 3d 74 a3 04 be
       -0.086560346 0.15925969 0.040246557 -0.12952977
000300 ed be 93 3d f6 3e d5 3d ce 91 43 3d 1d b0 9c bd
       0.072141506 0.104123995 0.047746472 -0.076507784
000310 9e c8 1b 3d fa c5 ef 3d f4 ff 94 3c f7 50 9c 3d
       0.03803312 0.11707683 0.018188454 0.0763263
000320 08 fd 7b 3d 7b 51 dd 3d 19 6b 20 bd 9e c5 be 3d
       0.061520606 0.10806557 -0.039164636 0.09315036
000330 74 4d 18 3c 59 0c a9 3d e5 40 0c 3e 34 51 b7 3d
       0.00929581 0.08254308 0.1369663 0.08951035
000340 69 d4 06 be a0 66 35 bd 48 f7 c9 bd 01 39 ae bd
       -0.13166966 -0.044287324 -0.09861618 -0.085069664
000350 13 10 6f 3c 31 27 cb 3c c1 36 1e 3e f0 40 75 3d
       0.014591235 0.024798961 0.15450574 0.059876382
000360 46 f6 3f bd 3b c5 08 be 12 a6 1f be 3e 12 e7 bd
       -0.046865724 -0.13356487 -0.15590695 -0.11282776
000370 00 89 88 bb f9 0d 8b bd 9e b8 c4 bd 01 9a d4 3d
       -0.0041667223 -0.067897744 -0.096055254 0.103809364
000380 e0 43 ca bd f3 7b b1 bd 48 a9 be 3d 3f f1 85 3d
       -0.098762274 -0.086662196 0.093096316 0.06540155
000390 a4 2e 2c 3e 81 5d 94 bd 22 fb 21 be e0 75 e1 3c
       0.16814667 -0.07244397 -0.15818456 0.027522027
0003a0 22 a1 0c 3e 5d af a7 bd 36 16 0c 3d aa 29 d0 bd
       0.13733342 -0.08187745 0.03420087 -0.10164197
0003b0 23 ac 82 bd 41 78 23 bd 0d 62 5e bd cf 23 54 bd
       -0.06380489 -0.039909605 -0.054292727 -0.051791962
0003c0 68 c4 07 3d 52 9e 29 3c a9 af 55 3d f4 e3 e7 bd
       0.033146292 0.010352688 0.052169476 -0.113227755
0003d0 14 f3 0f 3e ae 42 c9 3d 5e 47 a3 ba c5 ac d4 3d
       0.1405757 0.09827171 -0.0012457182 0.10384516
0003e0 72 f9 0b 3e 0b 5a 98 3d 2b c3 fd bc d0 82 09 3e
       0.13669375 0.07439049 -0.030976852 0.13428807
0003f0 b3 52 d2 3d 2f 80 45 3d dc 7c 5e bd 01 bc fb bd
       0.1026968 0.04821795 -0.054318294 -0.12291718

a2c_network.actor_mlp.2.weight f4 [128, 256]
000000 1e 59 7c bc fd eb 4c bd 52 86 a5 bd d1 79 ef 3c
       -0.015402107 -0.050029743 -0.0808226 0.029232891
000010 24 72 c7 39 32 55 bc bd 8b cc 1c bd f9 36 11 bb
       0.0003804128 -0.09195937 -0.038281005 -0.002215801
000020 71 3c 97 bd fc a2 e0 3c 78 15 84 bc 32 96 79 bd
       -0.07384575 0.027421467 -0.016123518 -0.060934253
000030 27 c6 8f 3d 87 7c 89 3d 1e fb c0 bd 4a ca 26 3d
       0.070202164 0.06713205 -0.09422897 0.04072026
000040 3f 6b 63 bd 18 bb bf ba 3c a7 71 bc 3a e4 a7 3d
       -0.0555222 -0.0014627902 -0.014749344 0.08197828
000050 d6 ac a5 bd f1 4e 11 bd 68 42 50 bd 1b 8f 20 bd
       -0.080896065 -0.035475675 -0.05084458 -0.039198976
000060 31 8b 17 bc 2a 99 2f 3d e0 f3 ab bc 76 25 04 bc
       -0.009249494 0.042870678 -0.020990312 -0.008065572
000070 5f 98 5f bd be 3f 44 3c 62 c3 b0 3c 73 63 9d bd
       -0.05458867 0.011978088 0.02157754 -0.07684984
000080 4c 49 bc bd 3e 58 98 bc cd 6e cb bb 9b df ad bd
       -0.09193668 -0.018596765 -0.006208277 -0.08489915
000090 17 e1 c3 bc 5f 03 c9 3d 6e cf 62 3a 92 96 9a 3c
       -0.023911042 0.09815096 0.0008652125 0.018870626
0000a0 d0 b1 ab 3d c0 62 cb bd 8a 5d df 3a ab 02 2d 3d
       0.083835244 -0.099309444 0.0017041427 0.042238872
0000b0 0c 8e ba 3c 09 cb 91 bb bc f4 04 39 cd a7 00 bd
       0.022772811 -0.0044492525 0.00012679672 -0.031410027
0000c0 fe 3a 3e bd 03 27 36 3d b3 0d 8d bc b1 20 54 3d
       -0.046442978 0.0444708 -0.017218446 0.05178899
0000d0 35 6d 02 3e ea a4 db 3d 8d 32 b2 3d 27 dd 6e 3d
       0.12736972 0.10724814 0.08701048 0.058316376
0000e0 74 e1 74 bd 6a c7 b1 bc 17 09 a9 bc 86 3b b8 3c
       -0.05978532 -0.021701533 -0.020634217 0.02248932
0000f0 71 70 7c bd 1c 26 4f bd 44 41 8a bc fc 01 52 3b
       -0.06163067 -0.050573453 -0.016876824 0.003204464
000100 ba d2 90 3b 93 3e 7d 3d f9 c3 ac 3d 6d d2 22 bd
       0.004419652 0.061827254 0.08435816 -0.03975146
000110 47 83 87 bb 01 3d 0b 3d de f2 7d bd 97 51 d3 bb
       -0.0041355225 0.033993725 -0.061999194 -0.0064489353
000120 df 77 99 3d cc a1 7d bd b5 4a 99 bd f1 df 83 3d
       0.07493567 -0.06192188 -0.07484952 0.06439198
000130 38 8b c1 3c b8 ed df bd 1a 63 55 bd 8c 91 10 bc
       0.023625955 -0.10934013 -0.052096464 -0.008823764
000140 91 4a 98 bc 9e d4 e6 bd 6f b4 ed bc c5 ca 45 3d
       -0.018590244 -0.11271022 -0.029016702 0.04828908
000150 d1 d8 be bc ce 78 a0 bd 6e a9 48 bd aa 3f 4d bd
       -0.023296745 -0.07835542 -0.048989706 -0.050109543
000160 91 ba 25 bd bc 2f 09 bd e7 21 ab 3d 65 e5 28 3d
       -0.040461127 -0.03349279 0.08356076 0.041234393
000170 e5 c3 43 bd 1d 47 c8 3c 14 83 da 3c 20 d8 16 3d
       -0.04779424 0.024447972 0.026673831 0.036827207
000180 36 8c 0f bd 11 e2 7b 3c b8 1a 30 3d 00 65 cb 3c
       -0.035045825 0.015373723 0.04299423 0.024828434
000190 43 ff 9b bd ef 98 5a 3d ab 6c 4e 3d 17 a2 2e 3c
       -0.07617047 0.053368505 0.050396603 0.010658762
0001a0 20 b9 da bd eb 3c 82 bd b7 7b dc bd fa 9f c1 bc
       -0.10679841 -0.063592754 -0.10765784 -0.023635853
0001b0 98 74 a1 3c 0c 02 34 bd 6b 73 42 3d bf 35 8c 3d
       0.019708917 -0.043947265 0.047473352 0.06846189
0001c0 a0 7b c1 3d 3b fc ce 3b 62 a1 60 3c e9 5c b9 bd
       0.09447408 0.0063166893 0.013710352 -0.09050924
0001d0 b6 08 60 bd 8f 37 cb bc ba 68 eb 3c 6b ac a4 3b
       -0.054695807 -0.024806766 0.028736461 0.0050254366
0001e0 d7 16 7c 3d 4b c3 d3 bc 03 1a b9 bd 0f 9b 4e bd
       0.06154522 -0.025849959 -0.090381645 -0.050440844
0001f0 5b 24 fc 3c 60 d9 ce bd d5 a1 49 3d 15 e4 1a bd
       0.030779054 -0.10100055 0.0492266 -0.037815172
000200 79 01 a3 bd 11 c4 17 3a 91 38 b1 3c 9c 7f ca bd
       -0.07959265 0.0005789409 0.021633418 -0.09887621
000210 fa ec c3 bc 35 05 a4 bd 34 cd 35 bd 99 44 df 3d
       -0.02391671 -0.08008806 -0.04438515 0.10901756
000220 e9 3b a9 bd 84 a8 46 bd 4d b3 bb 3c e1 d6 a2 bd
       -0.0826338 -0.048500553 0.022912646 -0.07951141
000230 f5 fd 3e bd d6 3f 2d bd d4 d8 40 ba f9 e2 e8 bc
       -0.04662891 -0.042297207 -0.00073565287 -0.028428541
000240 af 5e bc bd 93 2a 6c 3b ea bd 02 bb fc 46 d7 bc
       -0.09197747 0.0036036118 -0.0019949623 -0.026278965
000250 8d 42 d5 bc 52 4c 3a 3c b5 28 50 3d 46 bb ce bd
       -0.02603271 0.011370735 0.05082007 -0.10094313
000260 b0 40 97 3d a1 a9 fd 3c 8d 68 68 bd b7 28 04 3d
       0.07385385 0.030964674 -0.056740332 0.03226539
000270 77 63 dc 3d 77 95 0e 3e 33 ae 0f 3d 31 a9 a1 3c
       0.10761159 0.13924204 0.03507824 0.019733997
000280 4a 89 b7 3c a1 f0 6b bb c9 0a 10 bd ac 32 ce 3b
       0.022404332 -0.003600158 -0.035166536 0.0062926617
000290 f9 16 a4 bd be 6c 78 3c 18 92 84 bd d4 9a 23 bd
       -0.08012194 0.015162645 -0.06473178 -0.039942577
0002a0 ec 4a 24 bd 29 03 26 3d 37 81 da bc 24 8b c2 3c
       -0.040110514 0.040530358 -0.026672943 0.023747988
0002b0 42 09 55 3d 58 ff 0c 3d d0 36 d3 bd 62 57 55 3c
       0.052010782 0.034423202 -0.10313189 0.013021322
0002c0 d2 dc dd bb ca 44 17 ba 4b 09 35 b9 2e ef 42 3d
       -0.0067707086 -0.0005770443 -0.00017264967 0.04759138
0002d0 9f ce 9c bd 29 7c 9f bd f4 46 87 bd 6f 27 04 3c
       -0.07656597 -0.077873535 -0.0660533 0.008066042
0002e0 3b 43 8d 3d 0d 55 31 bd 7b a6 1a 3b 86 31 36 3d
       0.06897589 -0.043294 0.0023597765 0.044480823
0002f0 cd 03 15 3d 9e c7 be 3c b8 86 a3 bd b6 e9 05 3d
       0.036380578 0.023288544 -0.0798468 0.032693587
000300 27 ec 7e 3c e5 4f b9 3b e7 e2 05 3d e8 cd d8 bc
       0.015559233 0.005655276 0.032687094 -0.026465371
000310 9e d1 ad bc 58 87 96 3d 6c a2 c8 bd 5b bb 1d bd
       -0.021218117 0.073500335 -0.097966045 -0.038508754
000320 18 bc f6 bb 9e b3 16 3d 34 01 a9 3c d1 06 71 bd
       -0.0075297467 0.03679239 0.020630457 -0.05884439
000330 b2 29 ab bd 8f 3f 60 bd 12 d1 19 bd 37 df 05 be
       -0.08357562 -0.054748114 -0.0375529 -0.13073431
000340 a1 78 ca bd 62 72 fd 3b fa 3a 5b 3c a6 4d 66 3c
       -0.098862894 0.0077345828 0.01338076 0.014056599
000350 19 d9 8d 3c f1 8a c3 bd be ca 9a 3d 9b c2 bb bc
       0.017315434 -0.09547985 0.07558201 -0.022919944
000360 39 05 82 3d 42 4c 40 3d bd 2f 99 bd 8b ff 10 bd
       0.063486524 0.046947725 -0.074798085 -0.035399955
000370 e2 20 a3 3c 87 b4 be bd 7e 7f 59 3d 2c 4a 34 3b
       0.01991314 -0.093117766 0.0531001 0.002751003
000380 ff 5c a4 bb ac 32 a6 bb f3 4f 4b 3c d1 6f 85 3b
       -0.005015969 -0.0050719585 0.012409198 0.0040721674
000390 0d 82 0e 3d 81 62 ad 3d 93 48 2f bd 59 17 10 bc
       0.034791995 0.08466054 -0.04279382 -0.008794629
0003a0 b7 db 32 bd fc b8 3e 3d 1f 0d 25 bd 68 82 9f bd
       -0.043666568 0.046563134 -0.040295716 -0.07788545
0003b0 46 42 48 3d e7 17 b6 bc a4 30 10 bc 13 47 25 bd
       0.04889133 -0.022228194 -0.008800659 -0.040350985
0003c0 51 0f 53 bd 62 86 12 be 13 08 28 3d 54 02 96 bd
       -0.05152828 -0.14309075 0.041023325 -0.07324663
0003d0 b0 79 8b 3d d2 e1 78 bd a5 47 4f bd a1 bd fb 3d
       0.068103194 -0.060762234 -0.050605435 0.12292028
0003e0 a8 fb 29 bd 34 dc 56 bb 6e 84 99 3d c2 d2 60 3d
       -0.041499764 -0.003278506 0.07495962 0.054888494
0003f0 f7 fa 1b bb 47 30 9e 3b 6e a5 5e bd 8f c2 a0 bd
       -0.002380071 0.0048275325 -0.054356985 -0.07849609

a2c_network.actor_mlp.2.bias f4 [128]
000000 94 62 21 3d a4 3c d4 bc a6 60 65 3d 82 a1 b4 bd
       0.039400652 -0.025907822 0.056000374 -0.08819868
000010 99 ec 46 3d 5b ea 4a bc dd 2a 83 3d 1f 48 15 be
       0.04856548 -0.012384976 0.0640466 -0.14578293
000020 6a 5b 5d bc 57 ca c7 3d 8a 7a 91 3d c7 13 0f bd
       -0.013510564 0.0975539 0.071034506 -0.03493097
000030 1c ec 3f bd ba e5 64 bd 82 38 75 3c 48 46 4a be
       -0.04685603 -0.055883147 0.014967086 -0.19753373
000040 0e c3 71 bd a4 cf 4c bd f2 54 c7 bd 99 c2 73 bd
       -0.05902391 -0.05000271 -0.09732999 -0.059511755
000050 5c f2 d9 3c 5f 4f 22 bd 75 b7 b0 bd 2b a6 32 bc
       0.026604824 -0.039626475 -0.08628742 -0.010903875
000060 cd df 1d 3d 4d b8 26 3e c9 78 7a bc 11 8c dc 3d
       0.03854351 0.16281243 -0.0152875865 0.10768903
000070 32 55 82 bd 7e 7c 95 bd ce ed 93 3d f9 3a 11 3d
       -0.06363906 -0.072991356 0.07223092 0.03545663
000080 07 de 3d bd dd 89 c4 bd e6 42 28 bd 8b 2e c7 bd
       -0.04635432 -0.09596608 -0.041079424 -0.09725674
000090 6a 81 82 bd 28 38 76 3d 4c 3b 80 bd 10 b8 14 bd
       -0.0637234 0.06011215 -0.0626131 -0.03630835
0000a0 37 01 d0 bd e6 24 ac bc 59 2f 0b bd ab 28 25 bd
       -0.10156482 -0.021013688 -0.0339807 -0.040321987
0000b0 8d ce dc 3c 0d b6 b6 3d 1c a9 84 3d 76 b1 99 bc
       0.02695396 0.08921442 0.064775676 -0.018761378
0000c0 df 4a 02 bc 40 f9 0e be 13 2c 00 3d ee 2e a5 3d
       -0.007952421 -0.13962269 0.031292032 0.08065592
0000d0 72 a0 b3 bd c4 c0 78 3c d9 64 9c bd 71 89 2f bd
       -0.08770837 0.015182678 -0.07636423 -0.042855684
0000e0 06 de 85 bd e8 fc a0 bc 3f f1 c9 3c f6 2c 2e bd
       -0.06536488 -0.019651845 0.024651168 -0.042523347
0000f0 ff 66 10 be cb 28 92 bd 26 9a 2d 3d b1 38 b9 3d
       -0.1410179 -0.07136687 0.042383336 0.09044016
000100 05 77 fa bb 96 3b b8 3c 42 43 c0 3d 25 c3 13 3d
       -0.0076435828 0.02248935 0.093878284 0.036074776
000110 aa 39 11 3e eb 9c 82 be 09 74 79 bd ad 0c c6 bd
       0.14182153 -0.25510344 -0.060901675 -0.096703865
000120 33 5c da 3c 84 c8 0b ba 38 30 01 bd 4b c8 f4 bd
       0.026655292 -0.00053323084 -0.031540126 -0.11952265
000130 11 fa f7 3d bf 80 0f be 28 c8 6e 3d 2e 3d 98 bd
       0.12108243 -0.14013956 0.058296353 -0.07433544
000140 81 8f 8d bd 74 db 81 3c 91 2f eb bd 0e e2 f7 bc
       -0.06912137 0.015851714 -0.11483682 -0.030259158
000150 59 b5 3c 3d a4 a9 89 bd c1 a5 d4 bd 51 f7 07 bd
       0.046071384 -0.067218095 -0.103831775 -0.033194844
000160 09 e3 a9 bd fc 38 a6 bd 7d 71 0b 3e 3e 2c 9a bd
       -0.08295257 -0.08116338 0.13617511 -0.0752797
000170 df e2 cd bb db e0 a4 bc 96 67 b9 3c ff 16 4b 3d
       -0.0062831487 -0.02012675 0.022632401 0.049582478
000180 56 bd e1 3c ad be c4 3d 06 c3 27 3d ef fa 84 bd
       0.027556103 0.09606681 0.040957473 -0.06493174
000190 ab 23 8a bd 1e 84 98 3d d0 b5 39 be 83 59 9a bd
       -0.067450844 0.07447074 -0.18135762 -0.07536604
0001a0 7f b3 31 3c 82 bb 1e bd 07 e6 f5 bc 57 80 bd 3c
       0.010846018 -0.03875304 -0.030016912 0.023132486
0001b0 3b a5 24 bd 35 f1 94 3d 4e 03 61 bd 90 9f f2 3d
       -0.04019664 0.07272569 -0.054934792 0.118468404
0001c0 e2 34 40 3e 6b dc 34 3d 0c d3 88 bd c4 72 29 bd
       0.18770173 0.04415552 -0.06680879 -0.041369215
0001d0 e2 ff 6e 3c f3 54 9a bb 34 70 d2 bd 5f e4 de 3d
       0.014587374 -0.004709834 -0.10275307 0.10883402
0001e0 af 9c cb 3d f8 44 d5 bd e7 13 bf bd 47 89 55 3c
       0.099419944 -0.10413545 -0.09329968 0.013033218
0001f0 b4 23 0a be 49 1c 96 bd aa fb 3b 3d 36 38 ee 3c
       -0.13490182 -0.07329614 0.045894302 0.029079538

a2c_network.actor_mlp.4.weight f4 [64, 128]
000000 43 68 c3 bb 0e 3d 48 bd d8 54 b0 3d 92 cc 18 3c
       -0.0059633567 -0.04888635 0.08609933 0.009326117
000010 eb ea 03 3c 68 00 de 3d e6 80 a2 3d ae 01 a8 bd
       0.008051614 0.10839921 0.07934742 -0.082034454
000020 16 c4 e3 bd 1a 11 95 3d f7 2f 24 3c 7e cb 16 3c
       -0.11121385 0.072786525 0.010021201 0.00920379
000030 0e 3e aa bc 4d 46 9f 3d c0 60 6d 3c 34 5b 78 bd
       -0.020781543 0.07777081 0.014488399 -0.060633853
000040 34 a3 39 3d 57 42 10 3d 18 f2 f7 bd aa 7d c6 3d
       0.04532166 0.035219517 -0.121067226 0.09691937
000050 15 a7 9a bb d9 29 f4 3c 33 af 8c bd 27 b5 68 bc
       -0.0047196248 0.02980511 -0.06869354 -0.014203346
000060 2f 0f 01 3d 40 f4 57 3d 52 6a 2b 3d bf a9 0a 3d
       0.03150862 0.05272317 0.04184944 0.03385329
000070 38 54 74 bd 80 7b 9a 3d fe 79 7c bd 67 14 01 bd
       -0.05965063 0.07543087 -0.06163978 -0.031513598
000080 c3 87 87 3c fe 57 2a bd 2c 43 45 bd 0f 91 b5 bd
       0.016544228 -0.041587822 -0.048159763 -0.08865558
000090 c3 47 d9 bd ef 3f 59 bd 60 dd c6 bd ca 29 b9 bd
       -0.106093906 -0.053039487 -0.09710193 -0.09041174
0000a0 ef 25 12 be ce 3f 63 3c 86 ec 3e 3d a5 25 dc 3d
       -0.14272283 0.013870193 0.046612285 0.107493676
0000b0 65 b7 44 bd 1b d0 8d bd 21 23 e7 bd 73 6e 84 bd
       -0.04802646 -0.069244586 -0.11285997 -0.06466379
0000c0 1b f2 d0 bc b2 e1 57 bd 1a 42 b3 3d b0 2d 48 bd
       -0.02550607 -0.052705474 0.08752842 -0.048871696
0000d0 bc 12 ac bc 19 31 db 3c 96 d9 b4 3c 94 4b 19 3d
       -0.021005027 0.02675681 0.02207641 0.037425593
0000e0 0b 02 5d bd 71 7c 6f bd 39 07 a4 bd bc f4 a1 bc
       -0.053957026 -0.058468286 -0.0800919 -0.019770019
0000f0 f2 5c 6b 3d cd 71 52 bc 50 d8 3e bd 1d a1 a8 3c
       0.057461686 -0.012844515 -0.04659301 0.020584637
000100 0e a9 d5 bc 7a 94 6d bc a2 3f 54 3d 81 ee 8a 3d
       -0.026081588 -0.014500732 0.051818497 0.06783772
000110 d5 59 3b bd fd 67 10 bc 5b c6 d1 bd 89 bd ad bd
       -0.045739967 -0.008813855 -0.102429114 -0.084834166
000120 fa ab 94 bb 48 12 55 3d 06 78 14 3d c2 8c aa bd
       -0.0045371028 0.052019387 0.036247276 -0.08327629
000130 92 3b 3e 3d f5 28 d0 bc 4e c1 72 bd cf 2c ad bd
       0.04644353 -0.025410155 -0.05926638 -0.08455812
000140 61 6e 18 bd a6 82 75 3d 73 98 d8 bc d4 38 64 3d
       -0.03721464 0.05993905 -0.026439881 0.055718258
000150 80 10 06 bd 01 43 0d bd 58 4e aa bd d7 a5 9a bc
       -0.03273058 -0.034487728 -0.08315724 -0.018877907
000160 37 50 19 3b 2e b7 af 3c 38 43 c0 bd 60 e3 10 bc
       0.002339376 0.021449652 -0.09387821 -0.008843273
000170 14 45 f1 bc f6 b5 0d bd 43 f4 16 bc 89 a5 5d 3c
       -0.029451884 -0.03459736 -0.00921351 0.013528236
000180 76 6e 91 bd 84 ed 82 3c c1 9f 1a 3d a1 a8 62 3d
       -0.07101147 0.015982397 0.03775001 0.0553366
000190 bb cf 9a bc 1f a4 08 3d db 13 72 3c 4b 4e 65 3d
       -0.018897882 0.033359643 0.014775242 0.05598287
0001a0 4c b3 a4 3d 9c 8b 21 3b c7 54 c3 bc 1e b4 bc 3d
       0.08042011 0.0024649864 -0.023844136 0.09214042
0001b0 6f ba b3 bd 98 e3 67 bc 14 98 28 bc c8 dd c5 bb
       -0.08775794 -0.014153384 -0.0102901645 -0.0060384013
0001c0 a9 2e e5 bc 5b fd 05 3d 85 b5 9d 3d 10 a6 1a 3d
       -0.02797635 0.03271232 0.07700638 0.037756026
0001d0 54 64 76 3c 71 a3 01 bd 42 7b a9 bd c9 4b 25 3d
       0.0150385685 -0.03165001 -0.08275463 0.040355477
0001e0 af af 92 3b 8a 89 9d bd b1 62 c3 3b 11 e4 7a 3d
       0.0044765095 -0.07692249 0.0059626927 0.061252657
0001f0 0e 6f d5 bb 14 11 95 bc d5 df f0 bc 84 ef 1b bd
       -0.006513483 -0.01819662 -0.029403606 -0.038070217
000200 06 ca b5 3d 35 05 7f bb ca 5b 80 3d 03 ec e4 3c
       0.088764235 -0.0038913016 0.062675074 0.02794457
000210 f3 02 86 3d d1 1d a0 3d d2 2b 38 bd 93 82 c6 bd
       0.06543531 0.07818187 -0.044963665 -0.09692874
000220 24 44 a6 bd 25 44 5b bd eb 7b 64 3d c9 cd 91 3b
       -0.081184655 -0.053531785 0.05578224 0.0044495803
000230 c3 6d 28 bd 79 65 82 3d 22 62 2e 3d 64 85 8c bd
       -0.041120302 0.063670106 0.042574055 -0.0686138
000240 b5 93 81 bc 9a c2 39 bd e2 a7 08 be 3e 36 5b 3d
       -0.015817503 -0.045351602 -0.13345292 0.053518526
000250 55 a6 d2 bc 3a 70 c3 3d 7b 9a e7 bd 3d ab 7e 3c
       -0.025714079 0.0954289 -0.11308762 0.015543756
000260 a7 8f c3 3d df 2e 60 3d 8c b5 e4 3c 8c b4 31 bd
       0.09548884 0.0547322 0.0279186 -0.043385074
000270 a1 03 97 bd ed e2 6a 3c 26 e1 5f 3b cd 08 07 3d
       -0.07373739 0.01433633 0.0034161299 0.032967377
000280 d8 3f e1 bd e3 d8 7c 3c cd 13 1f 3d 74 1b c0 bc
       -0.10998505 0.015432569 0.038837243 -0.02345059
000290 76 22 f0 3d 98 62 8a 3d 0a c7 fa 3b b8 10 aa 3c
       0.11725323 0.067570865 0.007653122 0.020759925
0002a0 a0 af 49 bc 37 03 af 3d 30 a7 9d bd 5e e1 45 bc
       -0.012309939 0.08545535 -0.07697904 -0.0120776575
0002b0 c6 30 3f 3d f9 a8 5a ba 97 52 4a be 68 4c 56 3c
       0.046677373 -0.0008341219 -0.19758068 0.01307974
0002c0 e5 f4 ec bc 85 e8 0a 3d a9 45 4b 3d 17 41 a5 3d
       -0.028925369 0.033913154 0.04962698 0.080690555
0002d0 e1 f6 30 bc fc 7f 04 3e b3 65 c1 3d 58 a8 9a bd
       -0.010801048 0.12939447 0.09443226 -0.0755164
0002e0 42 b1 2a bd 69 bc c2 bd 67 94 28 3d 2f 1e 5a bd
       -0.041672952 -0.09508593 0.041157153 -0.05325144
0002f0 65 6b 09 3e 9f 04 98 bd d9 4b 7f bd 5b bd b8 bc
       0.13419874 -0.074227564 -0.062328193 -0.02255123
000300 40 5b 3f bd eb 2b eb 3c 23 64 d5 3d 21 33 da 3d
       -0.046717882 0.028707465 0.1041949 0.10654283
000310 6d 01 84 3d 05 72 b5 bc 9c 55 37 3d a8 4c a8 3d
       0.064455844 -0.022149095 0.044759378 0.08217746
000320 b7 bd ef 3d 9b cb b6 3d d5 9d a3 3d 01 2d 9e 3a
       0.11706107 0.089255534 0.079890884 0.0012067856
000330 2c d8 04 3e b5 10 31 3b 8b 35 a2 3c 6a 5e 7d 3c
       0.12973088 0.0027018015 0.019800922 0.015464405
000340 a3 0d 09 3e 67 cb 74 bd 19 b8 d4 bd 53 49 bb bc
       0.13384108 -0.059764292 -0.10386676 -0.022862112
000350 79 aa 47 3d 5e 59 53 3d 83 05 15 3d 6c 64 fb bd
       0.04874656 0.0515989 0.03638221 -0.12275013
000360 cc 3e 0a 3d 89 4d 92 bc f4 e4 8d bd 1d 60 13 3e
       0.033751294 -0.017859237 -0.06928435 0.14392133
000370 b5 dc 09 be a8 a2 2b bc a8 0e 7b 3d 4c 5d 11 3d
       -0.134631 -0.010475792 0.061293274 0.035489365
000380 18 a3 d3 3d 71 23 c1 bb 83 10 68 bc 93 77 ac 3a
       0.10333842 -0.0058941175 -0.014164093 0.0013158194
000390 81 d7 e1 3c 85 b5 8d 3d cc 1f 89 3d 54 69 c1 bd
       0.02756858 0.06919388 0.06695518 -0.09443918
0003a0 13 89 af 3d ad 66 45 3d 27 af 6a bd b7 64 ae bb
       0.08571067 0.048193622 -0.057295945 -0.0053220647
0003b0 1e 62 1b be c9 5a bb bd 66 b7 01 bd 9c 65 cb 3d
       -0.15174147 -0.09148175 -0.031669043 0.0993149
0003c0 05 de 66 3b 48 ae 60 3d 40 4a 0f ba b2 31 a5 bd
       0.0035227549 0.054853708 -0.0005466081 -0.08066119
0003d0 97 75 88 3d 89 53 c0 3c a3 2a b2 3c b9 86 d9 3d
       0.066630535 0.023477333 0.021748846 0.106213994
0003e0 01 ed d7 3d a0 46 40 3d 0b cb a4 bd 58 3d c7 3c
       0.10543252 0.046942353 -0.0804654 0.024321243
0003f0 ba 35 da 3d d3 50 3d bd ce 63 8c 3d 4c 6a 79 bd
       0.10654779 -0.046219658 0.06854974 -0.06089239

a2c_network.actor_mlp.4.bias f4 [64]
000000 ec f5 a4 3d cc 59 00 bc 90 83 a2 bc a2 fd 84 3d
       0.080547184 -0.007833909 -0.019838125 0.06493689
000010 ea 22 91 3c c7 f2 00 3c ee bb d4 bd a3 b8 ce bc
       0.017716844 0.007870383 -0.10387407 -0.025234526
000020 c5 9d ad 3c 38 5d 06 bd 5b 22 b9 3c af fd 76 bd
       0.021193394 -0.032803744 0.02259939 -0.060300525
000030 b4 21 a5 bc c0 8d fb bd ef d8 36 bd 4b a7 de bd
       -0.020157672 -0.12282896 -0.044640478 -0.10871752
000040 49 15 2b bd d2 98 0e bd 34 50 a1 bc 49 5d 71 3d
       -0.041768346 -0.03481371 -0.019691564 0.058926854
000050 16 fa 44 bd c2 61 e5 3c 02 48 1d bb 2b 46 41 bd
       -0.048090063 0.028000716 -0.0023999219 -0.047186058
000060 c4 95 d9 3d a5 2e ce bc 28 74 a1 bd 64 85 aa 3d
       0.10624269 -0.025168726 -0.07883483 0.083262235
000070 55 be 26 3c a0 89 6e 3d d7 b4 1c 3d 35 6d cc bd
       0.010177215 0.05823672 0.0382584 -0.09981767
000080 ed 85 ce bc 0d 01 58 3c 6f 89 09 bc 58 d7 e7 3d
       -0.025210345 0.013183844 -0.008394583 0.113203704
000090 6e 00 42 bd 71 e7 0d be f7 f4 a1 bb 66 8e f7 bd
       -0.04736369 -0.13857819 -0.004942532 -0.12087707
0000a0 81 9c 5d bd b7 e6 cf 3d 32 91 7e bc af 60 35 3d
       -0.054104332 0.10151427 -0.015537547 0.044281658
0000b0 be 32 e0 bd 8c 8b f7 bc 0f 8f b3 bc 64 88 02 be
       -0.10947178 -0.030217908 -0.021918802 -0.12747341
0000c0 49 bc cb bb fa 77 24 be 76 79 bd 3d 9f a0 69 3d
       -0.0062175137 -0.16061392 0.092516825 0.057037946
0000d0 c4 57 8a bd c9 e3 41 3d 24 9f a3 bc d6 d3 57 bd
       -0.06755021 0.047336373 -0.019973345 -0.052692257
0000e0 28 71 3d bd 22 5e 20 3c e5 5e a3 bb 61 1e cb bd
       -0.046250492 0.009788068 -0.0049856775 -0.09917904
0000f0 f2 eb 27 3c be 44 2c 3d 7a ab 61 bc dc c2 c5 bd
       0.010249125 0.042057745 -0.013773793 -0.09656307

a2c_network.value.weight f4 [1, 64]
000000 50 7f be 3b a6 7e fd bc d0 48 33 3c 35 6b d6 3c
       0.0058135167 -0.03094418 0.010942653 0.026174167
000010 cb f4 bd bc 81 98 03 bb d5 38 2f bd 83 6f ce 3a
       -0.023188015 -0.0020079913 -0.04277881 0.0015749786
000020 8c 48 29 3c 54 c6 1b 3d b5 6e 0f bc d4 bf 7c bb
       0.010332238 0.038030937 -0.008754422 -0.0038566487
000030 32 a2 a8 bc 91 bb ac bc 00 37 96 3c e5 02 52 3c
       -0.020585153 -0.021085532 0.018336773 0.012818073
000040 ca bf bd 3c 6c c4 bd ba db 28 0d 3d 87 39 cf 3c
       0.023162741 -0.0014478094 0.03446279 0.025295986
000050 fa 6d 58 bc 98 18 cb 3c c7 e0 57 bd 03 18 42 3d
       -0.013209814 0.024792 -0.0527046 0.04738618
000060 f9 d7 8b 3c 82 8a 6a 3d 4f 4f 8e 3d 43 60 ab bc
       0.017070757 0.057260998 0.06948721 -0.020919925
000070 76 16 49 3c 70 9a aa bc e3 80 d8 3c 2a 42 17 3c
       0.0122734215 -0.020825595 0.026428645 0.009232083
000080 7d 39 b5 3c bd b8 9e 3c 56 f0 62 3d 3f ee 4f 3c
       0.02212214 0.0193752 0.055404983 0.01269108
000090 51 12 23 3b 8f ec 07 bc 0e e4 27 3d e3 b9 89 bb
       0.0024882744 -0.008296146 0.040988974 -0.0042030676
0000a0 70 3f 21 3d 8d 1f 64 bc 84 bc 00 3a 30 e6 ab 3c
       0.03936714 -0.013923538 0.00049109035 0.020983785
0000b0 56 5d 44 3b b5 30 21 bc 45 24 a9 3c b0 6c 8f bb
       0.002996286 -0.009838273 0.020647177 -0.00437697
0000c0 b0 43 d8 bc b0 f2 4c 3c 84 1c a2 bc 71 d0 d7 bc
       -0.026399463 0.012509033 -0.019788988 -0.02634451
0000d0 d4 c2 63 bb 1f 60 cb 3c 3c eb 0f bb 19 26 0c 3d
       -0.0034753578 0.024826108 -0.002196028 0.03421602
0000e0 b1 d5 ce bc 23 d4 dc 3c e8 43 99 3c f7 74 9a bc
       -0.02524838 0.026956623 0.018709138 -0.018854601
0000f0 5f 94 ab 3c 5c 93 35 3c 5b 1d 40 3d 68 c3 3d bd
       0.020944772 0.0110824965 0.046902996 -0.046328932

a2c_network.mu.weight f4 [6, 64]
000000 e5 d7 80 bc 3f 0f ab bc c8 f1 73 bd f3 b8 ac bc
       -0.015727947 -0.020881293 -0.059556752 -0.021084284
000010 02 db 60 bd 81 c8 c2 3c 35 1e d7 3c 5f 87 8e 3d
       -0.054896362 0.023777248 0.026259521 0.06959414
000020 d8 7a af bd 0d 1f b9 bc 9b d8 d8 bb b2 d9 bf 3d
       -0.085683525 -0.022597814 -0.0066176183 0.09367694
000030 2c bc b5 bd 37 bf ff 3c 1a 21 b0 3d 64 5c 9a 3d
       -0.088737816 0.031219108 0.086000636 0.07537153
000040 b8 7f b1 3d c1 2d 7e 3d 98 89 ad 3c ab e7 b4 3d
       0.086669385 0.062055353 0.021183774 0.0883325
000050 e0 a6 d6 3d a2 cb 6b 3b ac f8 42 be 3a e3 ad 3d
       0.10481048 0.003597953 -0.19040173 0.08490606
000060 c4 f1 3c bc 7d 88 05 be 47 f9 86 3c 36 6d 10 be
       -0.011532251 -0.13040347 0.016476287 -0.1410416
000070 17 0e f3 3c 65 93 51 bc 9c e0 b5 bd 7f cb b7 3d
       0.029669804 -0.012791489 -0.088807315 0.08974361
000080 46 ac 07 bc 79 98 3b bd 01 13 a9 bd 57 4f 89 bc
       -0.008280819 -0.045799706 -0.08255578 -0.016761465
000090 f6 85 b3 bc 5a fe 92 bc b6 94 57 bd 64 05 77 bd
       -0.021914463 -0.01794355 -0.052632056 -0.060307875
0000a0 01 4a 8a 3d 91 85 9a bd e3 53 07 3c 44 35 8d 3d
       0.067523964 -0.07545007 0.008259746 0.06894925
0000b0 c4 d8 9e 3d 71 02 3e 3d e5 d8 c4 bb 63 a9 8b 3d
       0.077561885 0.046389047 -0.006007301 0.06819417
0000c0 cd e0 24 3d c4 12 0f 3d 73 d0 97 bc c7 0a 32 3c
       0.04025345 0.034930006 -0.018532014 0.010866827
0000d0 f6 d9 25 3d f8 64 bc 3c ce cd 8d 3a 28 d5 81 bd
       0.040491067 0.022997364 0.0010818781 -0.063394845
0000e0 b8 6c 88 3d d2 5d e4 3d 94 cc fc 3d fa e7 6a 3d
       0.066613615 0.11150707 0.12343708 0.057350136
0000f0 a0 41 d7 3c e5 b8 88 bd d0 30 85 bd 30 44 b3 3d
       0.02627641 -0.06675891 -0.06503451 0.0875324
000100 a0 12 26 bc df d6 af 3c e8 26 d7 3d 5a 25 fa 3c
       -0.0101362765 0.021464763 0.10505468 0.030535389
000110 76 bf 8f bc 50 e9 f1 3b 64 0f 1c bd 45 e7 ed b8
       -0.01754735 0.0073825493 -0.038100615 -0.00011344118
000120 f6 c4 f1 bd a6 b1 0e 3e 9d d1 bc bd 4c eb 0c 3c
       -0.118051454 0.13934955 -0.09219668 0.008601021
000130 f2 bc 64 bd f8 00 a1 3d 04 d4 40 bd dd c1 9e bd
       -0.055844255 0.07861513 -0.047077194 -0.0775182
000140 ea 80 d1 bb 6d 3e 82 bd 9b af cc bd af 7a d7 3d
       -0.0063935416 -0.06359563 -0.099944316 0.10521447
000150 e0 a7 2c be 5f a1 f9 3a ed 4b 50 3d 3c 32 59 bc
       -0.16860914 0.0019045285 0.05085366 -0.013256606
000160 a7 94 a2 3c e5 fa c5 bc 0b 7c be bb 61 d3 4a bc
       0.019846274 -0.024167487 -0.005813127 -0.012379498
000170 fc 3b 29 bd 56 6a 8d bc f6 de 04 be 5d e0 23 bd
       -0.04131697 -0.017262619 -0.12975678 -0.04000889
000180 4c c4 3a bd 9b aa 34 3d f3 86 9e 3b 9d ba 38 bd
       -0.04559736 0.044108015 0.0048378645 -0.045099843
000190 8a 1c c7 bc 1b 70 19 3d b9 47 b1 bd a4 65 09 bd
       -0.0243056 0.037460428 -0.08656258 -0.033544198
0001a0 fb f8 f1 bb 6b 65 31 bc 32 4a 2c bd 0c b0 9c bd
       -0.007384417 -0.010827403 -0.042062946 -0.07650766
0001b0 e9 23 e8 3d 04 ba 04 bd 6e 49 f9 3d 67 ae 50 3d
       0.11334974 -0.03240396 0.12172209 0.050947573
0001c0 60 e4 ce 3d b9 7d f6 3d c8 a0 26 bd d0 8b cb 3d
       0.10102153 0.120356984 -0.040680677 0.099387765
0001d0 b5 76 17 bd 95 7b 03 bd 60 c0 03 bd 83 02 8e bc
       -0.036978442 -0.03210028 -0.032165885 -0.017335182
0001e0 7d 5b e8 3d 5a bf a0 bd 81 71 b6 3d 76 f0 ec 3d
       0.11345575 -0.078489974 0.08908368 0.11569302
0001f0 e4 6f 00 3d e4 69 97 bd de 7b 1f 3e a7 8a 0f be
       0.031356707 -0.07393244 0.15574595 -0.14017735
000200 e6 af 82 bd ef dc db ba 41 8f eb bd fe 6e 35 3e
       -0.06381206 -0.0016774217 -0.11501933 0.17718121
000210 16 30 16 bb dc fd 28 3d bd d6 01 3e 80 26 a3 bb
       -0.0022916845 0.041257724 0.12679572 -0.004978955
000220 cc 35 44 3e 7b 8b 28 bc 30 c0 87 3c c3 e6 cc 3c
       0.19161147 -0.010287161 0.016571134 0.02501238
000230 7d 3c 91 3c b8 b6 38 bd 03 38 04 3e 85 ac 47 3d
       0.017729038 -0.04509613 0.12911992 0.04874851
000240 a8 83 8a 3b e1 c6 b5 bc 51 9e 2b 3c 79 fb 17 bd
       0.0042271204 -0.02218956 0.010474757 -0.037105057
000250 ab b0 a4 bd 06 3e 18 be 97 ed 9e bd 57 bc 25 bd
       -0.08041509 -0.1486741 -0.077601604 -0.040462818
000260 fe 8c 14 3d 94 5c 9e bd c1 26 71 bd 6c b6 94 bd
       0.036267273 -0.077325016 -0.05887485 -0.07261357
000270 0f 7e 46 bc 92 3b de bc cd 9a f7 3d e6 be d7 3d
       -0.012115016 -0.027128015 0.12090073 0.10534458
000280 bb 4b 0c 3e be 4f fe 3d 2d bc e0 3d e0 d7 1d bc
       0.13700764 0.12417553 0.10973392 -0.009633988
000290 f9 26 4d 3d 44 5f 4f 3d 81 5d a4 3d 73 81 0a bd
       0.050085995 0.05062796 0.08025647 -0.03381486
0002a0 f0 cd 2c 3c bd d2 9c bd 6d 90 91 3d 11 e8 50 3d
       0.010547146 -0.07657383 0.07107625 0.051002566
0002b0 37 0d d5 3d 79 53 f9 bd 3d f6 b8 3d 7d 43 c5 3d
       0.10402911 -0.12174124 0.09031341 0.09632013
0002c0 15 10 68 bd 79 71 e2 bc aa b3 14 3d 39 95 a9 3d
       -0.056655962 -0.027641999 0.036304154 0.08280415
0002d0 04 32 76 bd 8a 5e 8c bd 34 5f 09 be 63 5e 03 3e
       -0.060106292 -0.068539694 -0.13415223 0.12828974
0002e0 4c b1 59 3d 62 36 04 3e f0 30 8d 3c 7a 86 6e bc
       0.0531476 0.1291137 0.01723525 -0.014558429
0002f0 e8 15 00 be 74 76 30 3e 1d 80 86 bd c2 0d 40 bc
       -0.12508357 0.17232686 -0.065674044 -0.01172203
000300 87 a9 93 3d f0 58 3f bd 83 17 21 bb 7f ae de 3d
       0.07210069 -0.046715677 -0.0024580664 0.10873126
000310 0d a2 31 3c 45 87 30 3d fa 8f 78 bc ac f6 99 3d
       0.010841859 0.043097753 -0.015171045 0.07517752
000320 34 73 0d 3e c5 fc 23 bc c1 12 b7 3d 1c d3 bb 3d
       0.13813478 -0.010008995 0.08939124 0.09171125
000330 28 3a 1d bb 60 c8 a9 bd b4 06 f1 bc 8e a3 91 3c
       -0.0023990963 -0.082901716 -0.029422142 0.017778184
000340 b2 e6 b6 bd 5b df e8 3d a8 18 9c bd 56 b0 72 3d
       -0.089307204 0.11370727 -0.0762189 0.0592502
000350 e7 d3 35 bd 9d 56 3d bd 46 39 2b bd 1c 74 99 bc
       -0.04439154 -0.04622518 -0.041802667 -0.018732123
000360 b0 4b 86 3d c6 85 a3 3c 4e 5b cd bd 2d 3c b2 3d
       0.06557405 0.01996125 -0.100271806 0.08702884
000370 24 4b 35 3d 82 89 bf 3d 72 4a 4d 3b 31 bb 00 bd
       0.044261113 0.093523994 0.003132489 -0.03142852
000380 19 15 60 3d 35 49 00 3d df d7 a5 3b 6e c4 04 3e
       0.05470762 0.031319816 0.005061134 0.12965557
000390 aa 43 43 bc e3 ea 24 be db be 8b 3d 56 12 a1 bd
       -0.011917988 -0.16105227 0.06823512 -0.078648254
0003a0 70 4d 5b bd b9 68 32 3d da fb ca 3d c7 0b 1f 3d
       -0.053540647 0.043556903 0.09911318 0.03882959
0003b0 f7 ef ad bd e8 cc 12 3e 6e 65 6c 3b 5e 1d 35 be
       -0.08493035 0.14335978 0.00360712 -0.17686984
0003c0 c5 4e c9 bc d8 1b 2e be c3 10 62 3d ca b2 78 3d
       -0.024573693 -0.17002809 0.055191766 0.06071738
0003d0 80 93 44 3c 0c d8 d7 3c 7c 72 8d 3d 83 98 83 39
       0.011998057 0.026348136 0.06906602 0.00025099897
0003e0 02 74 94 bd 29 40 ca 3d 1d 19 cb 3c ee 02 2d be
       -0.07248689 0.09875519 0.024792248 -0.16895649
0003f0 be 9b 35 bd 18 c3 f0 3d a2 2f 98 bc 88 27 f8 bc
       -0.04433798 0.11755961 -0.0185774 -0.030292287

a2c_network.mu.bias f4 [6]
000000 0c b8 43 bd 27 0a 4d 3c f6 bd 95 3c 91 75 05 3e
       -0.047782943 0.012514628 0.018279057 0.1303313
000010 2c 11 85 bd c7 b0 95 bd
       -0.06497416 -0.07309108

exp_avg f4 [6]
000000 59 7a 46 3c 49 ef 05 3c 64 09 83 3c 27 8e ac 3b
       0.012114131 0.008174726 0.015995689 0.0052659693
000010 bc de 97 3c 88 fc f7 bb
       0.018538825 -0.007567946

exp_avg_sq f4 [6]
000000 14 5e 9d 3a 4d 11 97 3a 3a 2a 8f 3a 72 e5 97 3a
       0.0012006187 0.0011525542 0.0010922619 0.0011588766
000010 af b4 a8 3a ed 1f 83 3a
       0.0012871231 0.0010004021
