IsaacGymEnvs/isaacgymenvs/runs/Bolt_18-15-12-34/nn/last_Bolt_ep_400_rew_0.0065809814.pth (torch, 612540 bytes, 36 tensors)

value_mean_std.running_mean f8 [1]
000000 4b e6 0f 6f 5b 4b aa 3f
       0.051356179530512046

value_mean_std.running_var f8 [1]
000000 a7 cd 39 cf 3e 2c 5a 3f
       0.0015974629758631427

value_mean_std.count f8 []
000000 00 00 00 00 20 c0 e2 40
       38401.0

running_mean_std.running_mean f8 [30]
000000 f3 e8 bd 04 ef c4 c2 bf f6 0b 85 15 99 ea cf 3f
       -0.146634938540792 0.24934686232344888
000010 37 44 02 d6 ae d7 da bf 6a aa 15 6d 52 4b e2 bf
       -0.41941424273779 -0.5716945772704325
000020 9d 8e 36 34 01 41 ce bf 65 8f fa d7 7f 01 ad bf
       -0.23635878610104025 -0.05665206443271024
000030 7f fd bb 74 30 81 b1 3f 14 e7 4a f2 81 24 b2 bf
       0.06837752199134249 -0.07086956181856535
000040 49 e7 40 6c 7a 25 d9 bf 0f 06 39 4b 6e c5 b4 3f
       -0.39291248866685585 0.08113755547039879
000050 51 f2 01 6e 15 f2 92 bf 63 d6 33 d0 06 1a 85 3f
       -0.018501601065951615 0.010303548077426677
000060 6d 53 8f 1a 0f 47 ba bf c7 a8 8d 9d 67 12 c0 bf
       -0.10264677427706 -0.12556166832957258
000070 c7 46 43 16 28 3b c0 3f 5f 6c 41 d5 f0 2a be 3f
       0.12680531584788055 0.11784272390780036
000080 39 bd 8f 13 b7 b2 b8 bf b8 bc b7 3b 6b f9 b5 bf
       -0.09647697665763112 -0.08583708007766944
000090 21 91 7b ec 99 0b 65 bf e5 08 66 d7 a8 72 76 bf
       -0.0025690084765860465 -0.005480441605302232
0000a0 6c 59 cc f9 b3 68 6c 3f c2 86 84 c8 44 39 93 3f
       0.00346789504545624 0.018773150194767003
0000b0 54 13 57 85 51 5c 7b bf 05 6a ef cb 12 bf 58 bf
       -0.006679838600977945 -0.001510399204326719
0000c0 59 00 e5 a8 c9 92 d1 bf 0c 00 fd c0 2d 21 d5 bf
       -0.27458421224219404 -0.3301500687266532
0000d0 f8 fc e5 fe 3c 93 d2 3f 51 50 79 95 db c1 d5 3f
       0.2902367104761221 0.33995713803347366
0000e0 a6 fb 45 3f f7 c1 d1 bf 0d 16 89 96 f5 b1 d0 bf
       -0.27746373347320696 -0.26086177540523253

running_mean_std.running_var f8 [30]
000000 90 ac 7b c6 48 a4 f0 3f b0 19 38 21 40 f9 f2 3f
       1.040108466457955 1.1858521745321973
000010 3c 88 00 d2 73 c2 f5 3f 19 06 7b 2e 9c 46 00 40
       1.3599737361150934 2.0344775801938906
000020 fd 70 9a 62 a6 af ec 3f 62 3e a3 50 24 79 d0 3f
       0.8964416433186951 0.2573939120747807
000030 b8 33 1d 0f c6 fe c4 3f 2c 38 67 00 7d 11 c8 3f
       0.16402507532111854 0.18803370017707388
000040 e9 9d a0 78 56 2d e0 3f 4c ae 45 0e b1 e5 14 40
       0.5055343967441647 5.2243082265882315
000050 e8 5a f9 dc ba 71 f5 3f 7a a9 d7 1b 11 eb 94 3f
       1.3402660972403115 0.02042795879780488
000060 7d 3c 54 98 4c 95 b6 3f 73 1b 72 c8 4b 5a b5 3f
       0.08821562499018572 0.0834090580338918
000070 f3 12 31 43 ce c8 b8 3f fa c0 37 9a ee 96 b9 3f
       0.09681405201360942 0.09995929017145846
000080 44 31 9f 42 49 fc b2 3f 7f b0 d8 fb 92 a3 ba 3f
       0.07416208149442577 0.10405844353289416
000090 76 b3 53 07 46 e3 c0 3f 40 7f 86 50 c5 b9 c3 3f
       0.13193583829652383 0.15410677368071823
0000a0 ee 3d 98 ea e7 eb c2 3f 6f f1 4c 0d e3 4b c1 3f
       0.1478242774469289 0.13512838506165845
0000b0 a8 4f ab 47 19 cf c2 3f 10 c9 f0 8f e6 0b c0 3f
       0.14694515227767835 0.12536317852352186
0000c0 d1 09 9c 92 ad f7 e5 3f 39 d6 19 cb d1 3d e5 3f
       0.6864841330973893 0.6637963263335173
0000d0 1d e0 22 7c 33 24 e7 3f ce c2 b5 8f 27 0e e6 3f
       0.7231690811668191 0.6892278487049113
0000e0 1a b2 6a aa 20 a9 e3 3f 79 b6 0d b0 fa af e8 3f
       0.6143954590275513 0.7714818419023707

running_mean_std.count f8 []
000000 00 00 00 00 40 c0 d2 40
       19201.0

a2c_network.sigma f4 [6]
000000 ba ad 77 bd 55 09 23 be d5 be 1f be 35 6e 03 be
       -0.060468413 -0.15921529 -0.1560014 -0.1283501
000010 1c 6b db bd 1b fe 09 be
       -0.10713789 -0.1347584

a2c_network.actor_mlp.0.weight f4 [256, 30]
000000 d3 ab 0a 3e 84 06 0a be b5 bc 9c 3d dd 56 d4 3b
       0.13542108 -0.13479048 0.076531805 0.0064800815
000010 e7 b9 00 b9 d3 85 e6 3d 97 dc 3b bc 8e d7 4b 3e
       -0.00012276285 0.11255994 -0.011466167 0.19906446
000020 82 dd 61 3d 85 55 3d bd 35 4c f3 bc 55 9f 58 3d
       0.055142887 -0.046224136 -0.029699424 0.052886326
000030 e0 da a0 3d e7 9c 2d 3e 51 c5 05 3e 73 4b 75 bc
       0.07854247 0.16954385 0.13063551 -0.014971602
000040 6d a0 19 3d 92 07 02 3d 1a dc 05 3e 8b 61 b3 bd
       0.03750651 0.0317455 0.13072243 -0.08758839
000050 61 a4 54 be 0e c0 b7 bd d5 7a 2d be 56 af ec 3d
       -0.2076583 -0.089721784 -0.16941388 0.1155688
000060 c0 88 40 3d 00 9c 67 3d 74 5d fb bc 20 87 00 3d
       0.047005415 0.056545258 -0.03068421 0.031378865
000070 18 b9 22 3e de d9 1b be 12 e7 21 bc b3 cc 31 be
       0.1589092 -0.15219828 -0.009881752 -0.17363243
000080 d1 5c ed 3c 33 c6 a8 bd 54 c2 22 bd 26 9f 4f bd
       0.028974922 -0.082409285 -0.039736107 -0.050688885
000090 a9 99 31 3e 3a cd ce bd 0d 75 0a be a0 8d f7 3c
       0.17343773 -0.100977376 -0.13521214 0.0302189
0000a0 f2 f0 0d 3e ff c0 7b 3d 0d 24 29 3e 1b ed f5 bd
       0.13861445 0.061463352 0.16517659 -0.12008115
0000b0 70 40 89 be 45 91 c8 bd 36 9f 34 be c6 24 90 3d
       -0.26806974 -0.09793333 -0.17638859 0.07038264
0000c0 33 2e 59 3d 82 af 1c 3e 54 2c 34 be fa 7a 73 bd
       0.053022575 0.15301326 -0.17595035 -0.05944345
0000d0 03 79 bb 3d d8 e1 c7 bd ec cc f7 3d 51 b6 bf 3b
       0.091539405 -0.09759873 0.120996326 0.005850591
0000e0 77 2c 00 3e 6a f9 9d bd 7b cf d6 bd c5 42 b9 3d
       0.12516962 -0.077135876 -0.104887925 0.090459384
0000f0 f6 31 22 3d 92 f9 bb bd 66 bb 9f 3d 7b 1c 53 3e
       0.039598428 -0.09178461 0.07799415 0.20616333
000100 67 7a 1a be ff 83 aa bd 26 33 52 3e 5a 39 0b bd
       -0.15085755 -0.083259575 0.20527324 -0.03399024
000110 19 c5 5c be ab 97 b5 bd f9 d9 56 bd cc 5f 52 3d
       -0.21559562 -0.08866819 -0.05245397 0.05136089
000120 8b 47 be bc ce 1b 50 bd e0 c4 b2 bd 64 35 0e be
       -0.023227474 -0.050807767 -0.08728957 -0.13887554
000130 70 a1 04 be 81 75 b6 bd 05 46 8b be d1 7d 19 be
       -0.12952209 -0.08909131 -0.27201858 -0.14989401
000140 11 55 ef 3d 68 e1 6a bc 28 f4 a5 3c ee 52 0a be
       0.11686147 -0.014335968 0.020258024 -0.13508198
000150 44 51 1b be 8a 94 35 bd 64 84 f7 3c 59 6f 48 be
       -0.15167719 -0.04433111 0.030214496 -0.19573726
000160 d4 22 07 be 26 08 7d bd 40 90 b4 3c cc 03 12 bb
       -0.1319688 -0.06177535 0.02204144 -0.0022280095
000170 41 82 fc 3c 44 73 5b be 34 ec 03 be 1d 4d d8 bd
       0.030823829 -0.21430689 -0.12883073 -0.10561583
000180 21 f4 df bd 9a e7 29 be 17 38 bc 3d 2b 23 b0 bd
       -0.10935236 -0.16592255 0.09190386 -0.08600458
000190 d0 1d 0a 3e 9c 38 ff 3d 99 b5 d5 bd 1a 69 60 3e
       0.13487935 0.12461969 -0.10435028 0.21915093
0001a0 f0 a5 a5 bd ef a5 da bd cd 03 2d be b1 9b 09 be
       -0.08088291 -0.106761806 -0.16895981 -0.13438298
0001b0 77 3d 2c 3d 79 c9 be bb 4d 3e 0b 3e 5d 6a e2 bd
       0.042050805 -0.0058223573 0.13597985 -0.110554434
0001c0 f3 51 87 3d 5a 8b a5 bd 15 2f 48 bd 11 e5 b7 3d
       0.066074274 -0.0808322 -0.048873026 0.08979238
0001d0 ab 0a 75 3d c4 2f e6 3d fa ab 34 3e c7 77 10 be
       0.059824627 0.11239579 0.17643729 -0.14108191
0001e0 cb 2c bd 3d fe b0 9b bd 22 fa 88 3d 8e 19 00 be
       0.09237059 -0.07602118 0.06688334 -0.12509748
0001f0 a8 09 33 3e ae 5c 5d bd 32 e6 1a 3e a2 f2 c1 3d
       0.17484152 -0.054043464 0.15126875 0.09470107
000200 66 80 15 3e f5 0f f7 bd af 26 f9 3d 7d 0d ab 3d
       0.14599761 -0.120635904 0.121655814 0.08352182
000210 21 44 10 3d c2 87 1f be 9f cc aa 3d 7d 60 2c 3d
       0.035221223 -0.15579131 0.083398096 0.042084206
000220 c4 8d 09 be ed 2e fd 3d 7f a2 08 3e 1a b0 bc bd
       -0.13432986 0.12362466 0.13343237 -0.09213276
000230 29 92 76 bd df a7 de bc e2 10 14 3e 41 ee df bc
       -0.060197983 -0.027179657 0.14459565 -0.027335288
000240 a5 89 8e bd 8e 3b 60 bd f4 d5 2d be eb a6 fd 3d
       -0.06959847 -0.054744296 -0.16976148 0.12385353
000250 3d c3 45 3e 78 ed 1a be 19 40 3c bb 85 76 d0 3d
       0.19312759 -0.1512965 -0.0028724729 0.10178856
000260 22 80 0e 3d 1f 79 a3 bd e2 f0 d2 3d cd 6d 16 3d
       0.034790166 -0.079820864 0.10299851 0.036725808
000270 23 57 9f 3d 3e c0 0c bd cc 56 cb bb 1b 0c c2 3d
       0.07780292 -0.034363024 -0.0062054154 0.09474965
000280 24 15 67 3d 1f 68 ac bd 6f b7 17 3e 22 12 bf 3d
       0.056416646 -0.08418297 0.14816068 0.093296304
000290 79 4b b8 bd dd 49 a6 3c 25 39 19 bb 98 0b 40 bd
       -0.0899877 0.020298893 -0.0023380008 -0.046886057
0002a0 c0 fc 6e 3d 22 aa bc 3d e1 8e 13 be 72 69 cb bd
       0.05834651 0.09212138 -0.14409973 -0.099322215
0002b0 2f be fd 3d 6a 8e ac 3d 9d de 07 bd c5 27 ca bd
       0.1238979 0.08425601 -0.033171285 -0.09870867
0002c0 42 56 db bd 36 a8 e9 bd 1c 10 f8 bd a7 3c 7a 3d
       -0.10709812 -0.11409037 -0.121124476 0.061093
0002d0 9b 23 a5 3d c3 49 bb 3d 4f 47 87 be 00 4a 00 be
       0.08063432 0.09144928 -0.26421592 -0.12528229
0002e0 39 f0 4b bc 6e 96 7f 3e ca 49 4f bd 96 1e a7 bd
       -0.01244741 0.24959728 -0.05060748 -0.08160131
0002f0 d3 02 4b 3d 2a 0d d0 bd 00 2d 45 be 0a b5 1d 3e
       0.04956324 -0.10158761 -0.19255447 0.15401092
000300 74 75 9d bd fe 75 c3 bc a6 b2 0a be f1 0a f1 3d
       -0.07688418 -0.023859974 -0.13544711 0.11769665
000310 f2 7f 2e 3e 74 83 00 3d b2 a6 25 be 9c 0d 5d be
       0.17040995 0.031375363 -0.1617687 -0.21587223
000320 90 97 e3 bd 9e e0 14 3e 40 a3 e1 3c f5 92 c5 3d
       -0.11112893 0.1453881 0.027543664 0.096471705
000330 41 11 cd 3d 5d 01 21 3d 20 e4 a1 3c 0f 5f 4d be
       0.100130565 0.03930794 0.019762099 -0.20055793
000340 ca 5d dd bd 24 be 2e be d8 b1 8a 3a a8 c4 00 be
       -0.108089045 -0.1706472 0.0010581566 -0.12575018
000350 00 19 92 bd 83 63 d0 bd 0f 01 0b 3d 38 86 8f bd
       -0.071336746 -0.1017523 0.033936556 -0.07008022
000360 e3 5e f5 bd 9b a7 11 3e e5 f7 02 3d 54 2e fb 3d
       -0.11980989 0.14224093 0.031974692 0.12264696
000370 b0 4d 91 bc 3b 20 0f 3c 83 58 78 bc 1e 58 0a be
       -0.01773724 0.008735712 -0.015157822 -0.13510177
000380 15 c1 9f bc 46 b4 f6 bd 95 0d e6 3d ac 99 be bd
       -0.019501248 -0.12046103 0.11233059 -0.09306654
000390 f0 2d f8 3d cd c6 6d bc 03 43 ea 3d ae 51 c7 bd
       0.12118137 -0.01451273 0.11438563 -0.09732376
0003a0 02 e2 e6 3d 3b 63 1a bd 6d b0 90 3d bc 5c e8 3d
       0.11273576 -0.03769229 0.070649005 0.11345813
0003b0 b7 0e 61 bd 52 58 02 3d a5 bd 91 bb 6c c4 06 be
       -0.054945674 0.03182251 -0.004447656 -0.13160866
0003c0 3b 3e 00 3e 11 bf 53 be 87 18 88 3d c9 82 0e 3e
       0.12523739 -0.20678355 0.06645303 0.13917078
0003d0 61 94 23 3e 1b df 40 3d 6a f7 62 be 95 09 47 3c
       0.15974571 0.04708777 -0.22164693 0.012148281
0003e0 73 86 47 3e 13 9b 4e be ca 01 94 bd cd f7 51 bd
       0.19484882 -0.20176344 -0.07226904 -0.051261712
0003f0 3c 8c b8 bd e8 e7 bb bd 78 83 d8 bd 78 bd 7c 3c
       -0.090111226 -0.09175092 -0.10571951 0.015426032

a2c_network.actor_mlp.0.bias f4 [256]
000000 27 4d 0d be 48 29 b7 3d 14 97 0d 3e b4 de 02 3e
       -0.13798963 0.08943421 0.13827163 0.12780267
000010 d2 45 d8 bd 2a 92 7e 3c aa 4f 58 3c 19 5e aa bd
       -0.10560192 0.015537778 0.013202587 -0.08318729
000020 96 a7 92 bd 24 9e e5 3d a3 11 34 3e a4 bc 65 3c
       -0.07160871 0.112118036 0.17584853 0.014022026
000030 f0 d4 b6 bc 74 1e b1 bd 46 c7 da 3d 13 a1 e2 bb
       -0.022318333 -0.086483866 0.1068254 -0.006916174
000040 d5 77 ab 3c 20 7e 27 3c 0e c3 b6 bd 37 d2 97 3d
       0.020931164 0.010222942 -0.089239225 0.07413142
000050 76 b4 8d 3d a9 b5 bd 3d a0 d0 19 be 1c 59 38 3e
       0.06919186 0.092631646 -0.1502099 0.18002743
000060 73 17 1b bb 81 37 96 3c d6 6a 45 3d 32 63 90 bc
       -0.00236651 0.018337013 0.04819759 -0.017625425
000070 6a c6 e1 3c b2 b5 c4 bd 0a ae c9 bc 53 69 d4 3d
       0.027560432 -0.09604968 -0.024619121 0.103716515
000080 2d b8 6a 3d 5b e7 ad 3c 0b c7 72 3d fe a7 1f 3e
       0.05730455 0.021228483 0.059271853 0.15591428
000090 4e c0 03 be 75 94 44 3e 82 72 21 bc 79 ff f1 bd
       -0.12866327 0.19197257 -0.009853961 -0.11816306
0000a0 2d 11 f8 bd 5c 62 b9 bb b0 c1 9f bc 8f 4c 5c bd
       -0.12112651 -0.0056574773 -0.019501537 -0.05378395
0000b0 ce 54 98 bd 78 b7 84 bd 69 98 2d 3e 78 a6 b9 3c
       -0.0743805 -0.064803064 0.16952671 0.022662386
0000c0 a5 ed 5f 3e 3d da b9 bd c6 16 c2 3c d1 a1 7c 3d
       0.21867998 -0.09074829 0.0236925 0.061677758
0000d0 e3 ef 80 bd 11 94 f2 3b 56 3a e5 bc e3 d3 4a bd
       -0.06295755 0.007402905 -0.027981918 -0.049518477
0000e0 0a 53 23 3e d7 2c e9 bb f1 35 1e 3d 7a 87 75 3c
       0.15949646 -0.007115941 0.03862566 0.014985913
0000f0 55 c9 a8 3b 1b 58 ad bd 63 4c 49 3d f1 63 f3 bd
       0.005150954 -0.084640704 0.049145114 -0.11884297
000100 a4 9f 13 3c 7d 5e a7 bd c7 67 9c 3d cd ff c1 bd
       0.009010229 -0.08172319 0.076369815 -0.09472618
000110 b1 d0 ef 3c 3a 43 9e bd 0f 58 7f bd 1b 55 01 3c
       0.029274317 -0.07727666 -0.06233984 0.007893826
000120 94 26 21 3d 14 04 22 bd 3f 20 4e 3c 36 1a 92 3d
       0.03934343 -0.03955467 0.01258093 0.071339056
000130 92 52 dd 3d 23 5f 88 bd 90 be 59 3d ac fa d4 bd
       0.10806765 -0.06658771 0.05316025 -0.10399374
000140 e9 13 c6 bc b3 d2 03 3d 4b 9c 9a bc 78 c7 77 bd
       -0.024179416 0.03218336 -0.018873354 -0.060492963
000150 4e a9 3f bd e7 45 62 3d 55 5b 07 3e b9 88 a2 3c
       -0.04679232 0.055242445 0.13218434 0.019840585
000160 29 39 a7 3d 59 9d b5 3a 57 d1 be 3b 1b a2 86 3d
       0.08165199 0.0013856097 0.005823295 0.06573888
000170 34 88 dc 3b ef ba 42 3e 93 3f a5 3c a6 9d 38 3d
       0.006730104 0.19016622 0.020171916 0.04507222
000180 cc 9d 0b 3e 81 a0 67 bb a0 86 00 bd a8 2d ec bd
       0.13634413 -0.003534347 -0.03137839 -0.11532146
000190 72 05 8c ba 36 06 04 3e 94 ce 6d bd cf 0f 3b bd
       -0.0010682775 0.12892994 -0.058058336 -0.045669373
0001a0 31 36 e5 bc c2 2e b7 bd 1a cc ef 3c ae 68 04 bb
       -0.027979942 -0.08944465 0.029272128 -0.0020203996
0001b0 68 44 be bd 5d a6 a9 bd 0c 58 ee 3c bc 04 c2 3d
       -0.09290391 -0.082836844 0.029094718 0.09473559
0001c0 37 59 f6 bd 16 f2 07 3e 68 14 90 3d 5b 69 a4 3d
       -0.12028735 0.13275942 0.07035142 0.080279075
0001d0 ec 07 02 bc ef da ab 3d 9a 43 64 3d 84 8d b8 bc
       -0.007936459 0.08391368 0.055728532 -0.022528417
0001e0 0a 37 2c be 22 92 1a bd 68 74 07 3d 2f 28 a8 bd
       -0.1681787 -0.03773702 0.033069998 -0.082107894
0001f0 b5 48 cb bb 49 6d 07 3d 25 c3 6c be 6a e0 0c 3e
       -0.0062037357 0.033063207 -0.23121317 0.13757482
000200 3e fc 6c bd a4 82 87 3c f0 65 bd bd 40 9b ba 3c
       -0.057857744 0.016541786 -0.09247959 0.022779107
000210 a6 2c c0 3c 61 2d 2b be b6 0a 90 3d 1b d0 47 bd
       0.02345879 -0.1671653 0.07033293 -0.04878245
000220 62 40 ed 3c 4f 33 82 3d 2e b5 c3 3d 1a cd 5a 3c
       0.028961364 0.063574426 0.09556042 0.013354564
000230 f3 7b 29 3e ba a7 75 3d 1d da b2 bd 5a 33 0e bd
       0.16551189 0.05997441 -0.08733008 -0.03471694
000240 90 e7 e3 3d 8e 72 d8 3c f2 29 05 bc 2f 77 cd 3d
       0.111281514 0.026421811 -0.008127676 0.10032498
000250 f1 cb 8b 3d b4 30 1a bd 1e 7a d3 3d 28 c1 f1 3c
       0.06826008 -0.037644103 0.103260264 0.02951105
000260 26 cb 6e bd 32 66 1c bd d7 42 70 3c a8 8c fd bd
       -0.058299206 -0.0381834 0.014664373 -0.12380344
000270 23 58 38 3d 2e 45 11 bd 2b 4e ef 3c 30 4b f6 bc
       0.04500593 -0.035466366 0.029212078 -0.03006515
000280 d2 6e d5 bd f4 37 fd bd 0e cd e6 bd d3 ee 0f bd
       -0.10421528 -0.12364188 -0.1126958 -0.03513987
000290 a8 72 61 3d 83 91 8f bd 06 3f 7c bc ad f9 61 bb
       0.055040985 -0.07010176 -0.015395885 -0.0034481094
0002a0 30 ee 16 bd ff 3b 6c bd ca 9d dd bd 8b ec 9d bd
       -0.036848247 -0.057674404 -0.108211115 -0.077111326
0002b0 fd d8 06 bd 32 82 ca 3d 8b e5 e4 bd 72 8d 70 bc
       -0.03292178 0.09888114 -0.11176594 -0.014682161
0002c0 16 52 9a bd 1a a6 49 bd 8e 70 b9 bd d8 29 82 3d
       -0.07535188 -0.049230672 -0.09054671 0.06355637
0002d0 dc e6 e6 3c bb 8f cf 3d b9 f0 1e bd 42 ae f7 bd
       0.028186254 0.10134836 -0.03880379 -0.12093784
0002e0 93 d3 c8 3b 1d 32 1c 3e df a8 9a bd 76 ca b5 bd
       0.0061287372 0.15253492 -0.07551741 -0.08876507
0002f0 c6 ad 91 bd ed 1b 1d 3e 5d 51 0c 3d 60 e0 03 be
       -0.07113223 0.15342684 0.03425728 -0.12878561
000300 19 89 9b 3d 97 c4 c5 3d 6c 64 5e 3d 99 9f 9d bd
       0.07594509 0.09656637 0.05429499 -0.076964565
000310 94 a6 3c 3d 9f 3e 03 3e 65 83 83 3c f2 8a 9a 3d
       0.0460573 0.12816857 0.016053865 0.07546033
000320 a7 a8 82 3d 78 67 af 3d 9e bf 29 bd d1 6e b8 3d
       0.06379824 0.08564657 -0.041442506 0.090055116
000330 bf a0 d1 3b 41 e0 9f 3d 7e 67 14 3e 8a a4 96 3d
       0.0063973363 0.07806445 0.14492604 0.07355602
000340 f8 6d ea bd 0c db 1d bd 4c cb b5 bd f2 7c 9d bd
       -0.11446756 -0.038538978 -0.088766664 -0.07689847
000350 8e a8 37 bb f3 b5 b4 3c 34 98 13 3e 5b 6f 54 3d
       -0.002802405 0.022059416 0.1441353 0.05186401
000360 ab 51 0e bd 15 f0 f0 bd 37 f5 1c be b2 7e c7 bd
       -0.034745853 -0.11764542 -0.15327917 -0.09740962
000370 f0 cc 3a bc af 0b 79 bd 8a ba a1 bd 33 a5 c4 3d
       -0.0114014 -0.060802158 -0.07896908 0.09601822
000380 fd f7 ce bd 75 6f a5 bd 05 47 bd 3d 1e 58 8d 3d
       -0.10105894 -0.08077899 0.092420615 0.06901573
000390 ec 99 2f 3e c3 d0 3e bd c3 6f 23 be 05 08 95 3c
       0.1714856 -0.04658581 -0.15960602 0.0181923
0003a0 99 8c 0e 3e 6b 42 85 bd 80 f4 0b 3d 4c 19 bc bd
       0.13920821 -0.06506809 0.03416872 -0.091845125
0003b0 5f 02 25 bd 50 42 13 bd ed 86 22 bd 51 3f 2e bd
       -0.040285464 -0.035951912 -0.039679457 -0.042540852
0003c0 9f 4e d0 3c f5 d0 8e 3b 6e d2 f3 3c bd 28 cf bd
       0.025428114 0.0043584057 0.029763427 -0.10115192
0003d0 bb ae 0e 3e df 4a bc 3d 60 bf 09 3b 6f 20 d2 3d
       0.13933842 0.09193968 0.002101861 0.102600925
0003e0 1e cb ef 3d 3e a1 88 3d da b3 30 bc 2a b1 09 3e
       0.117086634 0.066713795 -0.010785067 0.13446489
0003f0 ae 14 e7 3d 8c 39 48 3d 64 1c 70 bd bb 71 f8 bd
       0.11283241 0.048883006 -0.058620825 -0.12131067

a2c_network.actor_mlp.2.weight f4 [128, 256]
000000 23 b5 8e bc e4 48 da bc 03 98 54 bd e0 30 cd 3c
       -0.017420357 -0.026646085 -0.051902782 0.02504772
000010 97 02 d7 3b c5 5d 81 bd c1 3d 2b bd 5a 59 96 3c
       0.006561588 -0.06316713 -0.04180694 0.018353153
000020 33 bd 54 bd b0 ae 5e 3d 91 83 e5 bb 32 a1 48 bc
       -0.051938247 0.054365814 -0.0070042093 -0.012245463
000030 1d 38 a0 3d 8d 95 89 3d c6 21 4c bd dd 87 4f 3d
       0.07823203 0.06717978 -0.049836896 0.05066668
000040 56 8c e4 bc 07 a5 07 3c a7 27 ab 3a 68 e6 81 3d
       -0.027898949 0.008279092 0.0013058082 0.06342775
000050 f7 5b 13 bd ca cc 15 bc f4 20 2e bd b7 79 a9 bc
       -0.035976376 -0.009143064 -0.042511895 -0.020687921
000060 a8 e8 14 3b 9e 77 fd 3c 96 82 12 bc 99 40 1f bc
       0.0022721682 0.030940827 -0.008942267 -0.009719991
000070 25 d4 45 bd 5e 80 40 b5 6b 8f 06 3d ae b6 7a bd
       -0.04829802 -7.171237e-07 0.032851618 -0.061209373
000080 9a 54 8b bd 72 43 cf bc 95 4b 4c 3c 49 e5 8c bd
       -0.06803246 -0.025300715 0.012469192 -0.0687967
000090 20 0f 05 bd 6b 58 d6 3d b6 ac e3 bb e1 93 8c bc
       -0.032485127 0.10466083 -0.006948079 -0.017160358
0000a0 12 32 9a 3d d0 a3 01 be d8 49 0d 3c 05 94 37 3d
       0.075290814 -0.12660146 0.008623563 0.044818897
0000b0 be c5 23 3c b3 c9 3c 3c a6 61 e1 3a 50 be 36 bd
       0.009995876 0.011522698 0.0017195239 -0.04461509
0000c0 91 82 42 bd 45 39 00 3d b9 a1 38 3a a3 8e 56 3d
       -0.0474878 0.031304616 0.00070431415 0.052382123
0000d0 4a 74 e4 3d 3d 4f b3 3d ff c7 8f 3d 37 46 3e 3d
       0.11154993 0.08755348 0.07020568 0.04645368
0000e0 a5 60 37 bd 9b b2 7d bd 87 a9 12 3c d3 25 84 3c
       -0.0447699 -0.06193791 0.008951551 0.016131317
0000f0 9a c1 31 bd 99 2c 89 bd bd 96 93 bc b7 2b a2 3c
       -0.043397523 -0.066979595 -0.018016214 0.019796235
000100 38 67 6f ba c6 5a cb 3c ff 00 e5 3d b3 fb 39 bd
       -0.0009132507 0.024823558 0.111818306 -0.045406055
000110 70 f2 e8 bc 3b 6b c9 3c 58 58 fc bc 3c b1 88 3b
       -0.028435916 0.024587264 -0.030803844 0.0041715186
000120 e1 0f bc 3d 0a 64 5c bd ec b5 51 bd 0c cc cb 3d
       0.09182716 -0.053806342 -0.051198885 0.09951028
000130 16 6f f0 3c 20 4a d0 bd 8c 94 6a bd 1b 6b db bc
       0.029349845 -0.10170388 -0.05727057 -0.02678447
000140 5e ff 5e bd 1c 55 d1 bd de 33 51 bd 1c ad 98 3d
       -0.054442756 -0.102213115 -0.051074855 0.07454893
000150 ba 83 ae bc 97 9d a4 bd e4 c4 f4 bc 33 ed 52 bd
       -0.021303046 -0.080378704 -0.029879041 -0.051495742
000160 8b e9 0f bd ca 78 69 bc 21 96 7d 3d 56 c6 93 3d
       -0.035134833 -0.01424999 0.061910752 0.07215564
000170 18 fb 9c bd b0 d6 d6 3c 65 90 1d 3d a9 a9 67 3d
       -0.0766508 0.026225418 0.038467783 0.056558285
000180 2f 5d 7a bd 6b 62 8c 3b ae d6 5e 3d b3 f9 2a bb
       -0.061124023 0.0042841933 0.054403953 -0.0026088774
000190 97 cb 42 bd e9 94 fa 3c a9 82 83 3d dc 29 12 bc
       -0.04755744 0.030588584 0.06421406 -0.008921113
0001a0 ca 97 e6 bd 97 23 c3 bd 56 65 f0 bd ac b3 08 bd
       -0.1125942 -0.095282726 -0.11738078 -0.033374473
0001b0 3f 35 4f 3b df 2d 15 bd 85 24 a9 3d 81 9e ba 3d
       0.003161743 -0.0364207 0.08258919 0.091122635
0001c0 42 74 b2 3d 3d b4 7f 3c 61 a6 74 3d 02 e6 b0 bd
       0.08713581 0.015606937 0.059728984 -0.086376205
0001d0 20 ad 4a bd e9 b4 32 3c 36 cd 18 3d 17 f9 15 3d
       -0.04948151 0.01090739 0.03730508 0.036614504
0001e0 96 a0 71 3d 81 38 0d bd d7 15 a0 bd 9e 1c 9c bc
       0.058991037 -0.034477714 -0.078166656 -0.019056614
0001f0 4c d2 ef 3c 02 01 8a bd 3d a4 fb 3c fd cb 06 bd
       0.029275082 -0.067384735 0.030717963 -0.032909382
000200 ad 44 52 bd a9 d6 ea 3c 4b 5b d5 3b 71 05 97 bd
       -0.051335026 0.028666811 0.006511127 -0.07374085
000210 90 b7 cc bc c4 e0 be bd 14 d0 24 bd 26 36 02 3e
       -0.024989873 -0.093202144 -0.0402375 0.12715968
000220 38 7e a3 bd fb 64 15 bc f3 5d 3b 3d a2 dc b9 bd
       -0.07983059 -0.009118314 0.045743894 -0.090752855
000230 ae f4 02 bd 26 2c 02 bd f6 da 3e 3c ad 92 da 3b
       -0.031971626 -0.031780384 0.011648884 0.006670317
000240 c7 16 b3 bd 99 f2 f9 bb fc 78 19 3c b4 95 ff bc
       -0.08744579 -0.007627797 0.009367224 -0.031199314
000250 b8 64 76 3c 43 7f 22 3c 19 4a 8f 3d 2a 0b b8 bd
       0.015038662 0.009918037 0.06996555 -0.089865044
000260 1c bf a2 3d e9 f7 17 3d 00 7d 5c bd 17 4f cd 3c
       0.079466075 0.03710166 -0.053830147 0.025062127
000270 69 72 b1 3d 71 e0 12 3e c5 70 59 3d e1 6f ed 3b
       0.086644 0.1434343 0.05308606 0.007246003
000280 40 9d f8 3c 07 2c 83 bc 1c c7 07 bd e6 32 db ba
       0.03034842 -0.016012205 -0.03314887 -0.0016723543
000290 c1 7d 91 bd d6 ca 7f bc 4d f4 0a bd 3f 48 ca bd
       -0.07104064 -0.015612325 -0.03392439 -0.09877061
0002a0 82 ad 80 bc 7a 46 51 3b 0d 13 8a bc e9 7c e6 3c
       -0.015707735 0.0031932876 -0.016854787 0.028135734
0002b0 85 04 7e 3d e3 0f 41 3c d7 eb a3 bd 0f a6 b3 3a
       0.06201603 0.011783573 -0.08003967 0.0013706106
0002c0 d9 86 05 3d 0f d8 d5 3c b9 7b 4b 3c e8 5f b0 3d
       0.032599304 0.026104001 0.0124196345 0.08612043
0002d0 29 e5 12 bd d9 1c 7e bd c3 20 aa bd 79 63 21 bb
       -0.035863075 -0.06203923 -0.0830703 -0.002462594
0002e0 c5 da 91 3d 7d 22 35 bd a0 31 1f bc 48 85 61 3a
       0.07121805 -0.044222344 -0.009716421 0.00086029293
0002f0 1a e6 46 3d 10 87 aa 3c 3f bc 1d bd c7 58 2e 3d
       0.048559286 0.020816356 -0.038509604 0.042565133
000300 75 cc 12 bc 02 13 a6 3c 0b 23 b6 3c fe ce d5 bc
       -0.008959879 0.020272736 0.022233507 -0.026099678
000310 3c 33 8a 3c 9b 39 ac 3d 2c 02 7c bd 7e 9b db bc
       0.016870134 0.08409425 -0.06152551 -0.026807543
000320 fc 3d 26 bc d2 75 85 3d ee a8 09 3d 05 f6 02 bd
       -0.010146614 0.06516613 0.03360837 -0.031972904
000330 da d8 9d bd c3 26 f7 bc 66 b0 9f bc 52 7c fa bd
       -0.07707377 -0.03016985 -0.019493293 -0.122307435
000340 b6 24 ce bd 97 b7 c0 bc 1c fa 3c 3c e3 1b 81 b9
       -0.10065596 -0.023525042 0.01153424 -0.00024625575
000350 43 4a 5d 3d 69 43 e7 bd 80 6d 93 3d 81 ba 0e bc
       0.0540259 -0.11292154 0.0719862 -0.008711458
000360 c6 ed ba 3c 19 e6 5d 3d c9 7a 9d bd 86 2d 90 bc
       0.022818457 0.054174516 -0.07689435 -0.017599832
000370 50 dd a6 bc e1 e6 ad bd 51 73 1e 3d c0 57 0c 3d
       -0.020369202 -0.08491302 0.038684193 0.034263372
000380 ef 60 f7 bc 8c f9 4b bd 9a cd 30 3d 19 8d 0f 3d
       -0.030197589 -0.049798533 0.043164827 0.03504667
000390 c4 a6 2d 3d c0 05 c5 3d df da 19 bd 92 b9 04 3d
       0.04239537 0.09620237 -0.037562247 0.032403536
0003a0 ff 15 91 bd f4 92 37 3d fd 63 b8 bc 27 31 a3 bd
       -0.070842735 0.04481788 -0.022508616 -0.079683594
0003b0 e0 7e 1b 3d b0 2b 0a bc 64 c0 99 bc a0 42 2f bd
       0.037962794 -0.0084332675 -0.018768497 -0.042788148
0003c0 b5 f9 88 bd ef 2f ec bd 55 50 7f 3d cd 9f 7f bd
       -0.06688253 -0.1153258 0.06233247 -0.062408257
0003d0 09 ad be 3d 33 52 4d bb 60 c6 6e bd a7 3a 08 3e
       0.093103476 -0.0031329512 -0.058294654 0.13303624
0003e0 1a 84 01 bc bc 46 a5 bb f6 da 8f 3d ed 75 c4 3d
       -0.007905031 -0.0050438326 0.07024185 0.09592805
0003f0 1e 66 1c 3d 7f eb 27 3d 67 03 30 bd ac b5 8e bd
       0.038183324 0.04099607 -0.042971995 -0.06968245

a2c_network.actor_mlp.2.bias f4 [128]
000000 51 8a 8d 3d 4e 79 c8 bc 9a 58 84 3d 5c 4f 8b bd
       0.069111474 -0.024471905 0.06462212 -0.06802246
000010 00 e1 56 3d 9a 8f e2 bb 62 96 61 3d 63 db 0d be
       0.05246067 -0.0069140913 0.055075057 -0.1385322
000020 f1 be 6f ba c4 e8 c6 3d 0f c3 9c 3d e3 5f b9 bc
       -0.0009145579 0.09712365 0.07654392 -0.02262873
000030 6b 23 d2 bc 39 b8 56 bd 7c f1 d2 3c 6f 2c 3f be
       -0.025651654 -0.052421782 0.025749914 -0.18669294
000040 e5 03 5d bd 5a ba 46 bd 62 01 d5 bd 6e 20 8d bd
       -0.053958792 -0.048517562 -0.104006544 -0.06890951
000050 7e 28 f8 3c 01 63 06 bd 63 3b b2 bd fc a4 0a bb
       0.030292746 -0.03280926 -0.08702733 -0.0021155467
000060 39 4c 37 3d 12 70 18 3e dd 2d 57 bb 45 6b c6 3d
       0.044750426 0.14886501 -0.0032833733 0.09688429
000070 29 92 7e bd 5d cc 91 bd 39 20 9d 3d 9d 91 4a 3d
       -0.062151108 -0.07119057 0.076721616 0.049455274
000080 0a b8 50 bd b0 2b c9 bd 50 95 01 bd 2e b3 9c bd
       -0.050956763 -0.09822786 -0.031636536 -0.07651363
000090 ea 47 42 bd 4b 51 54 3d 2e 31 48 bd e2 cf 07 bc
       -0.047431864 0.05183534 -0.048875026 -0.008289309
0000a0 e2 1a c9 bd 34 38 4b b9 0b b8 59 bd 4e d5 50 bd
       -0.098195806 -0.00019380526 -0.053154033 -0.050984673
0000b0 d0 bf cf 3c 5a 2e bb 3d b0 4c 71 3d 06 9f 73 bc
       0.025360018 0.091397 0.058911026 -0.014869457
0000c0 02 28 81 bb 85 de 07 be ba 57 1b 3d e4 cd a2 3d
       -0.003941537 -0.13268478 0.03792546 0.07949427
0000d0 f3 5f a0 bd 6e 04 5d 3c 76 f0 4e bd c3 82 19 bd
       -0.07830801 0.013489826 -0.05052229 -0.03747822
0000e0 a9 52 b0 bd 4e cf 9e 39 52 24 dd 3c 08 be 1d bd
       -0.08609516 0.00030290562 0.026994858 -0.038511306
0000f0 56 98 01 be 17 1b 8b bd cc 72 23 3d da 6c b5 3d
       -0.12655768 -0.06792276 0.0399044 0.088586524
000100 30 b2 8e bb 24 3d 7d 3c 1b 89 d0 3d 54 3c 3c 3d
       -0.0043547377 0.015456472 0.10182401 0.04595597
000110 28 5f 11 3e af 32 60 be 6f e9 78 bd b8 ad ae bd
       0.14196455 -0.21894334 -0.060769495 -0.08529228
000120 16 d2 b6 3c 29 49 00 bc aa 07 d3 bc c9 5e c3 bd
       0.022316974 -0.007829943 -0.02576049 -0.09539563
000130 20 ac 03 3e 31 db 06 be b8 3e 5a 3d 16 09 8f bd
       0.12858629 -0.13169552 0.05328247 -0.06984155
000140 dd 36 8c bd 18 59 8f ba 08 ff 0c be bb d8 11 bd
       -0.06846402 -0.0010936586 -0.13769162 -0.03560708
000150 fe ee 24 3d cc d9 89 bd 6a 0b b2 bd 52 c6 02 bd
       0.040266983 -0.067309946 -0.08693583 -0.031927414
000160 b2 1a b4 bd f8 42 9d bd 13 81 06 3e a4 95 9b bd
       -0.08794154 -0.07678789 0.13135175 -0.07596901
000170 c5 05 2a bd f6 be 9b bb aa db e1 3c 44 11 5f 3d
       -0.04150941 -0.004752989 0.027570564 0.054459825
000180 38 75 3a 3d ed 48 bf 3d 5e 73 b2 3c 00 e5 64 bd
       0.045521945 0.09340081 0.021783527 -0.055882454
000190 9c 96 48 bd 6a f4 72 3d 78 27 2c be 2a 5f 99 bd
       -0.048971757 0.059315123 -0.16811931 -0.07488854
0001a0 59 ae 32 3c 42 fa 34 bd c3 24 08 bd 1e 88 5f 3c
       0.0109058255 -0.044183977 -0.033238184 0.013643293
0001b0 f5 0c 0f bd 7d 10 a2 3d 2e 12 48 bd 53 8d c7 3d
       -0.034924466 0.07913301 -0.048845463 0.09743752
0001c0 d7 3b 32 3e b2 8c 59 3d 80 45 9d bd 58 5d 25 bd
       0.1740564 0.053112693 -0.07679272 -0.040372223
0001d0 04 21 80 3c d6 e8 37 3c ea 75 ba bd b1 6c f0 3d
       0.015640743 0.011224946 -0.091045216 0.11739481
0001e0 ff 8c da 3d 71 3b cf bd eb de cf bd 18 00 f9 3a
       0.10671424 -0.101187594 -0.1014994 0.001899722
0001f0 7b 4c f1 bd b6 83 ac bd 3d dc 33 3d a3 93 39 3c
       -0.117821656 -0.08423559 0.043911207 0.011326703

a2c_network.actor_mlp.4.weight f4 [64, 128]
000000 d3 e1 77 bb 67 d8 47 bd af 17 b4 3d da 5f 2f 3b
       -0.003782381 -0.04879036 0.0879358 0.0026760013
000010 c4 a2 fb 3b b0 4b ae 3d d0 56 98 3d 7d 54 be bd
       0.0076793153 0.0851053 0.07438433 -0.092934586
000020 9e c8 db bd 5c ea a2 3d 74 5f 0e 3d e1 86 c9 3b
       -0.10731624 0.07954857 0.034759 0.006150112
000030 3f e4 bf bc 36 c9 81 3d 26 c1 24 3c 37 9e 7a bd
       -0.023424266 0.06337206 0.010055816 -0.06118604
000040 fb 02 76 3d 7d e9 80 3c 2c 8a 08 be 73 a5 cd 3d
       0.060061436 0.015736336 -0.13333958 0.100413226
000050 70 0c 9b 3a b7 77 d3 3b a9 3d 99 bd 3b a5 de bc
       0.0011829268 0.00645348 -0.07482464 -0.027178397
000060 70 7d cb 3c e8 72 55 3d 53 67 1e 3d 2d 5e 29 3d
       0.024840087 0.052111536 0.038672756 0.04134958
000070 3e 5f 4d bd 80 d1 b4 3d 82 e6 7c bd aa 68 44 bd
       -0.05013966 0.088290215 -0.061743267 -0.047951378
000080 e5 4e 26 bc 72 88 2a bb 3a 60 64 bd a6 40 a8 bd
       -0.010150646 -0.002602127 -0.05575583 -0.08215456
000090 c2 e7 b9 bd fc 96 1e bd e6 09 c5 bd a6 49 9f bd
       -0.090774074 -0.03871821 -0.096210286 -0.07777719
0000a0 5a 15 02 be 29 62 11 3b 63 aa f9 3c f3 67 5d 3d
       -0.12703457 0.0022183752 0.030476755 0.05405421
0000b0 09 f5 48 bd b4 06 8a bd 74 f5 ea bd 23 45 89 bd
       -0.04906181 -0.0673956 -0.11472598 -0.0670264
0000c0 5e af 02 bd 17 f8 82 bd 5c 07 bf 3d a2 d2 47 bd
       -0.031905524 -0.06394976 0.093275756 -0.04878486
0000d0 6f d4 9a bc c8 f6 fd 3c 18 ee f9 3c df 8f ce 3c
       -0.018900124 0.031001464 0.03050904 0.025215087
0000e0 1d 20 66 bd bb 02 71 bd 66 0f 9e bd 24 22 e1 bc
       -0.05618297 -0.058840495 -0.07717781 -0.0274821
0000f0 93 fa 59 3d fd 40 aa bc c7 bc 41 bd 1b 29 d6 3c
       0.05321748 -0.020782942 -0.047299173 0.026142647
000100 ba 88 ef bc ca 7a 10 bc 0a 11 41 3d d0 cd 44 3d
       -0.029240001 -0.008818338 0.04713539 0.04804784
000110 20 67 4d bd ab d0 2d bc 05 40 c7 bd 73 ac 9d bd
       -0.050147176 -0.010608832 -0.09729008 -0.07698908
000120 b6 01 0b bc 38 0b 01 3d 12 7c 27 3c 6f 51 a5 bd
       -0.008484295 0.03150484 0.010222452 -0.08072173
000130 19 d1 48 3d 75 b1 b2 bc 29 14 67 bd 96 84 ae bd
       0.049027536 -0.021813134 -0.05641571 -0.085213825
000140 75 75 ec bc 67 b7 77 3d d7 8b b3 bc 61 79 5c 3d
       -0.028864602 0.06047764 -0.021917267 0.053826693
000150 8e b2 db bc 68 28 54 bc bc f9 ab bd a5 47 13 bd
       -0.02681854 -0.012949087 -0.083972424 -0.035956997
000160 7f f9 d3 3b 10 29 34 3c a1 5e bf bd 03 fe c5 3b
       0.0064689512 0.010996118 -0.09344221 0.0060422434
000170 47 9f 1a bd 25 f5 1f bd 30 ba 1c bc 92 8a 1a bc
       -0.037749555 -0.039052147 -0.009565875 -0.009432452
000180 83 67 ab bd 44 7c 7c 3c c4 44 05 3d 76 bc 8f 3d
       -0.08369353 0.015410487 0.032536283 0.07018368
000190 2e 31 07 bd eb 6f 96 3c bc 82 39 3c 03 89 d9 3c
       -0.033005886 0.018363914 0.011322673 0.02655459
0001a0 f1 a8 c8 3d f0 ff 4e 3c 2c 67 08 bd a7 c9 ba 3d
       0.09797848 0.012634262 -0.033301517 0.091204934
0001b0 ae dd b2 bd b9 b3 bb 39 1c ad b0 bc b2 ac 8c ba
       -0.08733688 0.00035801323 -0.02156692 -0.001073262
0001c0 61 43 c9 bc 96 cf 5f 3d e1 7f b3 3d 48 2a 7d 3c
       -0.024568262 0.05464133 0.08764625 0.015451975
0001d0 0d 80 0a 3d 98 85 c4 bc 1a ab cc bd 34 22 28 3d
       0.033813525 -0.023989484 -0.099935725 0.041048244
0001e0 bd d9 15 bb a9 5a 37 bd 95 69 90 bc f8 23 44 3d
       -0.0022865378 -0.044764195 -0.01762847 0.047885865
0001f0 79 d6 db bb 33 66 83 bc 7e c4 87 bd b5 da f0 bc
       -0.0067089167 -0.016039943 -0.06629275 -0.029401163
000200 20 51 ba 3d ac 56 02 3d 3c dc 84 3d 64 92 32 3b
       0.090975046 0.031820938 0.06487319 0.00272479
000210 3b 9d 98 3d 20 bd de 3d ab 2f eb bc fd 7e d8 bd
       0.07451864 0.108759165 -0.028709253 -0.10571096
000220 13 dc 67 bd 37 aa 4c bd 76 2f 3d 3d a4 fe ec bb
       -0.056606364 -0.049967017 0.04618784 -0.007232504
000230 aa dc 76 bd e9 91 3a 3d 16 77 06 3d 89 db a9 bd
       -0.060269035 0.045549307 0.032828413 -0.08293826
000240 48 6b 9b bc d4 b1 88 bd 3f 09 0d be c6 e8 f5 3c
       -0.018972054 -0.06674543 -0.13773058 0.030018222
000250 41 59 b7 bc 6e ac b1 3d 15 3f db bd 86 79 a9 36
       -0.022381427 0.086754665 -0.10705391 5.0507397e-06
000260 cc 05 de 3d d2 78 93 3d c0 93 2d 3d a9 c2 b5 bc
       0.108409494 0.07200779 0.042377234 -0.022187548
000270 04 0f a4 bd 0d 44 aa 3c 5b 69 17 3d 2b ad 18 3d
       -0.080106765 0.020784402 0.03696571 0.03727452
000280 9b aa e8 bd 53 c1 84 3a 7e 21 ff 3c ba ee 03 bd
       -0.113606654 0.0010128416 0.0311439 -0.03221009
000290 ea 17 e4 3d 6d d3 97 3d 59 c7 90 bc 3f d0 9a 3c
       0.11137374 0.07413373 -0.017673181 0.018898128
0002a0 23 79 15 bc 8d 21 95 3d c3 16 74 bd 6d 77 ef 3b
       -0.0091231195 0.0728179 -0.05959202 0.007307938
0002b0 9e ff 30 3d 15 31 6d 3c 1a 42 34 be 50 28 63 3c
       0.043212526 0.014477034 -0.1760334 0.013864592
0002c0 e4 15 25 bd 7c ac 56 3c d2 0d 44 3d c3 d1 e0 3d
       -0.04030408 0.013102647 0.047864743 0.10977509
0002d0 cd 6c ef bc 72 5a 09 3e 52 f3 97 3d ea e1 96 bd
       -0.029226685 0.13413408 0.074194565 -0.073673084
0002e0 bf 6f e8 bc 3a 17 cf bd 4c 26 f1 3c 31 1c a2 bd
       -0.028373597 -0.10111852 0.029437207 -0.07915533
0002f0 e1 47 eb 3d f8 b8 8b bd 64 c5 3f bd 9f 0e ea 3b
       0.11488319 -0.06822389 -0.046819106 0.0071428563
000300 15 0b 67 bd fd 7f c9 3c 82 26 e6 3d fb 97 e6 3d
       -0.056407053 0.024597162 0.112378135 0.11259457
000310 f3 f3 ab 3d a9 cc 15 bd 17 77 18 3d 3d ad 88 3d
       0.08396139 -0.036572132 0.037222948 0.066736676
000320 03 20 d4 3d 63 a8 d3 3d b8 15 8e 3d 1b 55 76 bb
       0.10357668 0.103348516 0.06937736 -0.0037587348
000330 ff b2 0d 3e dc d4 e3 bb 2e 07 e2 3c 4a 7c 6e 3c
       0.13837813 -0.006952865 0.027591314 0.014556
000340 e7 b7 e8 3d 7e ac 90 bd 06 c5 ca bd 17 ac 84 bb
       0.113632016 -0.0706415 -0.099008605 -0.004048835
000350 88 d2 39 3d 92 7c 3a 3d ca 9b 13 3d ca c7 fc bd
       0.045366794 0.045528956 0.036037244 -0.12342794
000360 bc 3a 06 3d c3 58 09 bd 0a 8f 44 bd eb 81 06 3e
       0.032770857 -0.033531915 -0.047987975 0.13135497
000370 dc 5c c2 bd 62 8a aa bc 8a ab c2 3d c0 9f 73 3d
       -0.09490368 -0.02081794 0.09505375 0.05947852
000380 a6 79 01 3e b2 72 73 3c 58 07 a4 3c f7 c3 82 bb
       0.12644061 0.014858888 0.020023033 -0.003990646
000390 67 5e 60 3c e2 14 b6 3d 47 cd 5e 3d ba e8 ce bd
       0.013694382 0.08890702 0.054394986 -0.10102983
0003a0 e7 26 9e 3d 21 02 31 3d 54 69 29 bd 4b c8 be bb
       0.07722264 0.04321492 -0.041360214 -0.0058222166
0003b0 4f 3f e5 bd 68 bb 85 bd fe f2 13 bd 36 8f d3 3d
       -0.11193716 -0.065298855 -0.036120407 0.1033005
0003c0 ca c0 c3 3c e5 2b 5e 3d 6f 77 ae 3b a6 2d 9d bd
       0.02389564 0.05424108 0.005324296 -0.076747224
0003d0 44 3f 7f 3d bf eb d7 3c d7 a1 50 3b f7 0d 13 3e
       0.062316194 0.02635753 0.0031834745 0.14360796
0003e0 72 51 fc 3d 4b c9 18 3d 81 32 a0 bd b3 1d 44 3b
       0.12320222 0.037301343 -0.07822133 0.0029924929
0003f0 06 86 c6 3d 42 73 6f bd a2 e8 d5 3d fa 2b 7c bd
       0.09693532 -0.058459528 0.10444762 -0.061565377

a2c_network.actor_mlp.4.bias f4 [64]
000000 fe 76 9f 3d a9 34 5c 3c 07 27 2b bd b8 1b 8d 3d
       0.07786368 0.01344029 -0.041785266 0.068900526
000010 6c a8 d0 3c c2 ef 73 3c 5f 36 95 bd 77 61 9e bc
       0.025470935 0.014888706 -0.07285761 -0.019333584
000020 f4 76 0e 3d c0 bb 13 bd 76 9c 0a 3d 1d 86 2f bd
       0.03478141 -0.036067724 0.03384062 -0.04285251
000030 fc 0c 99 bb ff ba c3 bd 62 68 3e bd 11 42 c0 bd
       -0.0046707373 -0.09557151 -0.046486266 -0.09387601
000040 cf b5 1f bd 94 b3 e1 bc 06 da aa bc 69 22 31 3d
       -0.038991746 -0.02755145 -0.020855915 0.043245707
000050 9b 6e 1e bd 36 46 6d 3c 97 fb 09 bc 15 4b 7d bd
       -0.0386797 0.014482072 -0.0084218 -0.061839182
000060 d1 56 ce 3d 69 5c c9 bc 18 18 aa bd da 80 b4 3d
       0.10075153 -0.024580197 -0.08305377 0.08813639
000070 0e 7f 8a 3c 2d 48 70 3d 4c 33 3a 3d ce c6 a6 bd
       0.016906288 0.058662582 0.045459077 -0.08143388
000080 40 fd 3a bc 54 e7 b1 3c 63 ec 3b bc 83 a0 d9 3d
       -0.011412919 0.021716751 -0.011469933 0.10626318
000090 36 73 1e bd 27 70 f7 bd 46 24 0e bc cf bd d4 bd
       -0.038684092 -0.12081938 -0.00867564 -0.103877656
0000a0 5d 16 56 bd d8 9d c5 3d 13 8f 84 3b 16 1e 5d 3d
       -0.05226742 0.09649247 0.004045376 0.05398377
0000b0 db 11 dd bd 84 03 ac bc 77 17 dd bc 6c e8 f6 bd
       -0.10794421 -0.02099777 -0.026988728 -0.1205605
0000c0 2a bf 70 bc 80 bf 10 be 5e e7 df 3d 08 24 68 3d
       -0.014694015 -0.14135551 0.10932802 0.056674987
0000d0 37 c8 81 bd ae 77 ec 3c 53 f2 48 3b 44 32 4b bd
       -0.06337016 0.028865661 0.0030662015 -0.049608484
0000e0 77 07 3f bd 9a 64 a1 3c 34 99 b2 bc f4 d5 b8 bd
       -0.04663798 0.01970129 -0.021801569 -0.09025183
0000f0 54 f6 10 bc 6c 5b 57 3d 7d fc e1 bc 41 ab a9 bd
       -0.008847792 0.05257742 -0.027586216 -0.08284617

a2c_network.value.weight f4 [1, 64]
000000 29 3d b6 bb 4c 71 25 bd 0e ba 35 3c dc ef 81 bc
       -0.00556149 -0.04039125 0.011091722 -0.015861444
000010 63 66 0d bc 9a eb 1c 3c f4 c0 fe bc f2 a6 5f bc
       -0.008630368 0.009577656 -0.031097867 -0.013650643
000020 4b 40 2b 3b 89 b9 74 3d 8c e4 e0 3c 33 2f b4 3c
       0.002613085 0.059747253 0.02745273 0.021995163
000030 71 fb 2d bc 93 39 8e bc 05 86 86 3c 29 be 42 3c
       -0.01061903 -0.017361438 0.016421327 0.011886158
000040 4e 26 84 3c eb 8f 7e 3b b2 26 b0 ba 19 6f a6 3c
       0.016131546 0.0038843106 -0.0013439266 0.020316647
000050 97 ad 25 bd 7a 5a 63 3c fb 81 80 bd 23 d3 5f 3d
       -0.04044875 0.013876552 -0.06274792 0.054644715
000060 bd 28 8c bc 0a 9d 29 3d 0f 8d 9d 3d a1 3f 52 bd
       -0.01710927 0.04140953 0.076929204 -0.051330213
000070 61 b5 76 3b 44 19 86 bc b7 e8 8c bc 40 70 88 3c
       0.0037644731 -0.01636947 -0.01720081 0.016655087
000080 69 4d 2e bc 9d d0 02 bb 67 da d1 3c e3 4e 57 bc
       -0.010638573 -0.001996077 0.025616838 -0.013141367
000090 fc 1d dc bb fd dd cb 3b ce 80 63 3d ae d7 ba 3c
       -0.0067174416 0.0062215314 0.05554276 0.022807922
0000a0 99 61 1f 3c 82 85 e6 bc 28 8c 13 bc 1c b6 6a bc
       0.009727859 -0.028139833 -0.009005584 -0.014325645
0000b0 06 a0 a4 3c 73 a9 b6 bb d9 a8 8e 3c 57 8a 3d 3c
       0.020095836 -0.005574399 0.017414497 0.011568627
0000c0 fb 57 34 bd f2 8c 4c 3d de ed 12 bd 3d 48 01 bd
       -0.044029217 0.049939103 -0.03587138 -0.031563032
0000d0 ec 50 15 3d ea d5 04 3c 1a af 14 bc 39 b5 7c 3b
       0.036454126 0.008107642 -0.009074951 0.0038560166
0000e0 5c 54 05 bd f2 b8 08 3c 2a 5d 49 3c 89 be 57 bc
       -0.032551154 0.008344876 0.012290278 -0.013167986
0000f0 65 3d 24 3c 1d 4e 71 38 89 ce 8c 3d 0a 3f 85 bd
       0.010024403 5.7531626e-05 0.06875331 -0.06506164

a2c_network.mu.weight f4 [6, 64]
000000 eb 4a 0f 3c b7 19 2f bc 4c d2 a4 bd a3 ba bf bc
       0.008745889 -0.010687283 -0.080479234 -0.023404425
000010 76 6a 54 bd 7d d5 88 3b b9 0b 0e 3c 74 99 a0 3d
       -0.05185934 0.0041758404 0.008669787 0.07841769
000020 a4 17 b5 bd 5a ae cc bc f5 a2 26 bb 10 71 c4 3d
       -0.088424 -0.024985481 -0.002542672 0.095918775
000030 b0 3d c9 bd 90 6f 1e 3d b9 6e a3 3d d4 40 9e 3d
       -0.09826219 0.038680613 0.07980103 0.07727209
000040 0d 6b c4 3d 81 89 79 3d c5 63 84 3c 47 49 b8 3d
       0.09590731 0.06092215 0.016160855 0.089983515
000050 2c 62 c3 3d 51 0e 50 bb 38 05 2e be 69 af aa 3d
       0.09540209 -0.0031746814 -0.16994178 0.08334238
000060 0c e2 78 bc c2 16 08 be a0 8e 84 3c 38 99 dc bd
       -0.0151906125 -0.13289931 0.01618129 -0.10771412
000070 d6 19 52 3d 50 40 1e 3c ef 2b c7 bd f4 5c af 3d
       0.05129417 0.009658888 -0.097251765 0.08562651
000080 91 89 19 bc d7 2f 5f bd 72 ab bc bd 1a c7 ae bc
       -0.009371177 -0.054488983 -0.09212388 -0.021335173
000090 a1 5b 1d bd e5 bc 94 bc 81 81 79 bd 62 16 a3 bd
       -0.038417462 -0.018156478 -0.06091452 -0.079632536
0000a0 e8 48 f9 3c 67 ea af bd d6 8a 5d 3c 84 3d 8e 3d
       0.030430272 -0.085896306 0.013521871 0.06945327
0000b0 39 0f 92 3d 45 30 81 3d ef 37 28 bd 0e 9c 88 3d
       0.0713181 0.06308035 -0.041068967 0.0667039
0000c0 b0 87 e9 3c a5 57 0d 3d ee 94 fb bb d3 e7 e2 3b
       0.028507084 0.034507412 -0.007677666 0.0069246083
0000d0 98 11 3a 3d d9 05 d8 3c 61 dc 27 3c 8d 61 8f bd
       0.045426935 0.026369976 0.0102454135 -0.07001028
0000e0 21 64 51 3d 79 eb e0 3d 88 2b fc 3d 26 0e 62 3d
       0.05112088 0.10982413 0.123129904 0.055189274
0000f0 60 c7 c8 3c 02 12 86 bd 0c a6 8a bd f1 03 43 3d
       0.024509132 -0.065464035 -0.06769952 0.04761118
000100 4d 85 1c bd 1f fb 0a bc bd cf bd 3d ad 85 e3 3c
       -0.038213063 -0.0084827235 0.092681386 0.027773703
000110 e7 4d 45 bd 30 8f 00 bc ed 7b be bc c0 d2 b0 bb
       -0.048169997 -0.007846639 -0.023252452 -0.005396217
000120 36 a5 ff bd 88 32 28 3e bf cc 92 bd bf 88 fd 3c
       -0.12482683 0.16425526 -0.071679585 0.030948995
000130 5a d0 8c bd 7d f6 b2 3d d5 8a 9c bc 95 32 55 bd
       -0.068756774 0.0873842 -0.019109169 -0.052050192
000140 a8 48 a0 bb 18 3c 2e bd c9 ef dd bd 63 3e ce 3d
       -0.004891474 -0.04253778 -0.10836751 0.10070493
000150 c6 fc 34 be 44 92 0b bd 37 a9 d5 3c 19 10 f8 3b
       -0.1767455 -0.034075037 0.026081664 0.0075702784
000160 fc ab 42 bb cb 78 1d bc 16 b6 48 3c 62 81 1e bd
       -0.0029704561 -0.009611319 0.012250444 -0.038697608
000170 af a6 26 bd 50 bb 0e bd 63 c4 10 be 07 06 dd bc
       -0.040686306 -0.034846604 -0.14137416 -0.026980413
000180 21 8e 63 bd 98 82 29 3d b9 23 d6 3c a3 61 80 bd
       -0.055555467 0.04138431 0.02614008 -0.06268623
000190 8f 32 1a bd fb 22 16 3d b2 79 8e bd 14 2d ab bc
       -0.037645873 0.036654454 -0.06956805 -0.020895518
0001a0 36 ba 7d bc c6 b5 ab bc 48 3c 87 bc ea 5b 65 bd
       -0.015486291 -0.0209607 -0.016508237 -0.05599586
0001b0 b4 1f f5 3d 35 34 c0 bc 15 a2 f4 3d d3 83 4a 3d
       0.119689375 -0.023462394 0.11944977 0.049442124
0001c0 fb 6c be 3d 50 1b 0e 3e 9d 7d 83 bd 1d b2 96 3d
       0.0929813 0.13877606 -0.06420443 0.07358191
0001d0 99 e5 8e bc e1 1b ed bc 79 db 18 bd fb f8 9b bc
       -0.017443465 -0.028943958 -0.03731868 -0.019039622
0001e0 f5 f5 c5 3d c6 fa 93 bd 78 ba bf 3d 80 7d d1 3d
       0.09666053 -0.072255656 0.09361738 0.10229015
0001f0 46 a7 01 bb 74 d9 a7 bd 9a 9a 32 3e 78 9f 0c be
       -0.001978354 -0.08195773 0.17441788 -0.13732708
000200 92 af a9 bd 2e 4d 13 bc a2 cc 11 be d2 82 4b 3e
       -0.082854405 -0.008990569 -0.14238217 0.19874123
000210 f6 55 de bc 09 8d 6f 3d a7 11 fd 3d 88 e1 65 3c
       -0.027140599 0.05848411 0.123568825 0.014030822
000220 ae da 4d 3e 3a 28 0c bd 9f 83 b6 bb 52 69 2a 3c
       0.20102951 -0.03421805 -0.0055698897 0.010401087
000230 78 0b 8b bb 34 af 86 bd 7a 20 04 3e ed e6 28 3d
       -0.0042433105 -0.06576386 0.12903014 0.041235853
000240 3f d0 80 bc 59 9d 08 bd ec 21 30 3d 9b 68 db bc
       -0.0157243 -0.033353183 0.0430011 -0.026783278
000250 e2 a9 63 bd 95 63 2a be d3 75 b1 bd 7e 59 5b bd
       -0.055581935 -0.1663955 -0.08665051 -0.053552143
000260 2f 68 32 3d c2 fe bf bd 4f 6a a6 bd 59 ab a7 bd
       0.04355639 -0.09374763 -0.081257455 -0.08186979
000270 d7 ce c8 bc 99 1a 37 bd f4 10 12 3e 6e be c8 3d
       -0.024512691 -0.0447031 0.1426428 0.098019466
000280 ce 25 21 3e df 8e 14 3e 95 1e bd 3d d2 70 04 3c
       0.15737078 0.14507626 0.09234349 0.008083539
000290 81 7e 6f 3d ac 02 b6 3c 52 93 7e 3d fd e9 2c bd
       0.058470253 0.02221807 0.062152214 -0.042215336
0002a0 5e 8b 19 3d ca a0 67 bd b6 7d 9a 3d e3 29 8c 3d
       0.037486427 -0.056549825 0.07543509 0.06843927
0002b0 a0 45 aa 3d 4e 56 0d be 8e 17 a5 3d c3 ae 89 3d
       0.08314061 -0.13802454 0.08061133 0.06722786
0002c0 7b 51 0a bd 68 ab 67 bd df 0b 16 3d 12 99 95 3d
       -0.033769112 -0.05655995 0.036632415 0.073045865
0002d0 04 5b 4f bd e4 02 3f bd d0 67 16 be 4e 56 05 3e
       -0.05062391 -0.046633616 -0.14688039 0.13021204
0002e0 e3 03 8a 3d 1f f8 0a 3e a1 bf be 3b ba fa 26 bd
       0.067390226 0.13571213 0.005821184 -0.040766455
0002f0 a2 36 1c be 2f b9 40 3e 9e d1 b6 bd 0d 71 24 3c
       -0.15255216 0.18820642 -0.089267 0.010036719
000300 3d 08 68 3d 8b 93 87 bd ee d0 46 3c 4d 47 e3 3d
       0.05664848 -0.066199385 0.012134774 0.11097584
000310 0d db 06 3c 89 1a 59 3d 58 6b eb bc 90 ad ae 3d
       0.008230937 0.05300382 -0.028737709 0.08529198
000320 bb 3f 07 3e 13 ff 36 bc 65 78 c1 3d 44 95 b2 3d
       0.13207905 -0.011169213 0.094467916 0.087198764
000330 e5 41 0e 3c ad 5b b1 bd d2 1e 2f bd b0 e5 32 3c
       0.008682703 -0.08660064 -0.042754002 0.01091902
000340 7a 58 da bd e0 2e dc 3d 8f 3c 6b bd 97 fa 6f 3d
       -0.10661407 0.10751128 -0.0574308 0.05858859
000350 aa bf f3 bc 1b ed 82 bd 7b 0a 13 bd 15 0e cc bc
       -0.029754478 -0.063928805 -0.035898667 -0.024909059
000360 66 40 8c 3d 53 49 53 3c f6 4e d0 bd e2 6c c2 3d
       0.068482205 0.0128959 -0.101713106 0.09493424
000370 83 4d 21 3d 74 fe cb 3d dc 79 36 3c 90 a4 34 bd
       0.03938056 0.099606425 0.011137452 -0.04410225
000380 45 09 39 3d e7 80 9c 3c e5 45 ad 3a 85 1e 10 3e
       0.045174856 0.019104434 0.0013219683 0.14074142
000390 1c aa d0 bc bd b1 2a be 0f 36 8c 3d a1 5d 67 bd
       -0.02547174 -0.16669364 0.06846248 -0.056485776
0003a0 1c e5 81 bd 10 99 66 3d 71 21 c6 3d 05 80 99 3c
       -0.06342527 0.056298316 0.09674347 0.018737802
0003b0 e6 07 be bd 94 50 0e 3e 5e 09 9a bb d3 7c 35 be
       -0.0927885 0.13897926 -0.0047008237 -0.17723398
0003c0 6c e9 ae bc c8 3e 2f be 31 35 5b 3d df 3e 5a 3d
       -0.021351539 -0.17113793 0.053517524 0.053282615
0003d0 8d 84 57 3d a1 64 2c 3d 5c e7 7a 3d f3 95 a8 bb
       0.052616645 0.042088155 0.061255798 -0.0051448285
0003e0 2d 21 b9 bd 86 7c b1 3d b6 9f eb 3b 48 9b 34 be
       -0.09039531 0.08666329 0.00719067 -0.1763736
0003f0 ef 7e 79 bd 28 21 ed 3d 38 aa 90 bc 56 0f b7 bc
       -0.06091207 0.1157859 -0.017659292 -0.02234618

a2c_network.mu.bias f4 [6]
000000 52 d8 47 bd 08 e8 b4 bb 1f e6 0f 3d e1 e0 02 3e
       -0.048790284 -0.0055208243 0.03513157 0.12781097
000010 f2 cd 35 bd ea 32 7b bd
       -0.044385858 -0.061327852

exp_avg f4 [6]
000000 7c 9e e0 39 7f 1a 0f ba b6 17 8d bb c7 bf 75 3c
       0.0004284269 -0.00054589653 -0.004305805 0.014999337
000010 c2 5f 06 3c 55 4c 43 bc
       0.008201541 -0.011920054

exp_avg_sq f4 [6]
000000 78 a1 97 3a 99 28 a7 3a a5 f7 7e 3a 5c 53 8d 3a
       0.0011568507 0.0012753188 0.0009726233 0.0010782289
000010 d2 db a0 3a 30 46 92 3a
       0.0012272543 0.0011159834
