IsaacGymEnvs/isaacgymenvs/runs/Bolt_18-15-12-34/nn/last_Bolt_ep_200_rew_0.08870827.pth (torch, 612240 bytes, 36 tensors)

value_mean_std.running_mean f8 [1]
0	0x3faeba8c00836813	0.06001698976770355

value_mean_std.running_var f8 [1]
0	0x3f5c5f0d920c76a2	0.00173164677853014

value_mean_std.count f8 []
0	0x40d2c04000000000	19201.0

running_mean_std.running_mean f8 [30]
0	0xbfc69e31b405ddb6	-0.17670270242864
1	0x3fd1f96521fb40fa	0.2808468658304403
2	0xbfda92ebf3bdc44a	-0.41521738818034193
3	0xbfda9d706e37c7ed	-0.41585932506052253
4	0xbfca672194d830d8	-0.20627231376454946
5	0x3fa4275e2e4ab65e	0.03936285319410325
6	0x3fbf4223cf9da9e1	0.12210296458002957
7	0xbfb00e21d098d666	-0.06271563856793136
8	0xbfd766db73e6b900	-0.36565290754778346
9	0xbfc12e16397cc2a4	-0.13421895796775118
10	0xbf8bd527a7e70af4	-0.013590154468038552
11	0x3f8b3028c356f377	0.013275450192731004
12	0xbfb434d150c5f3e7	-0.07893093320849652
13	0xbfc0b4202bc6833b	-0.13049699914429333
14	0x3fbed5d9abde674c	0.12045059629454363
15	0x3fc6c21663cc7c49	0.1777980792330445
16	0xbfb7f29485656715	-0.09354522949925255
17	0xbfac5000dde90402	-0.055297877396249376
18	0x3f6875eeab05adec	0.0029859220014054524
19	0xbf8096fb5579743c	-0.008100474878285017
20	0x3f5c7298df34130f	0.001736306466058216
21	0x3f93fc2321502da7	0.019516514690662536
22	0xbf5c608fd571c651	-0.0017320065142282413
23	0x3f60a07026fef5cd	0.0020296278453020068
24	0xbfc3b7ae3618284f	-0.1540429844029085
25	0xbfd2566564086d00	-0.28652319687689953
26	0x3fcc3ea9b4e6b22f	0.22066232045234943
27	0x3fda6cd3a3775fd1	0.4128922554350512
28	0xbfcb1cc109b9c46b	-0.21181500410924356
29	0xbfbba63127952193	-0.10800463882799809

running_mean_std.running_var f8 [30]
0	0x3ff1672c665214cb	1.0876888272189713
1	0x3ff0a4384a152373	1.040092744240806
2	0x3ff382c1349f43cf	1.219422536425771
3	0x3ff9627525c66077	1.5865375018675232
4	0x3fe9281cf72ba7b6	0.7861466243314144
5	0x3fca5190eeb52336	0.20561420112269396
6	0x3fc63f99fabe6cc2	0.17381596320487885
7	0x3fc9c87d6fb94de1	0.20143096881166314
8	0x3fdf94cefc4777b0	0.4934575523055811
9	0x4014128962617ecf	5.018102204514164
10	0x3ff5239503bf1ab5	1.3211870333049494
11	0x3f950b159c86c8b0	0.020550096205348367
12	0x3fbe4fe687339ed6	0.11840668488332126
13	0x3fb6c4b9bff18868	0.08893929420585922
14	0x3fba624c65782edc	0.10306241490632878
15	0x3fb915a0be11e399	0.09798626556756886
16	0x3fb733ae607aa9b0	0.09063234191368141
17	0x3fbca227bff41ff5	0.11184929310195442
18	0x3fbf9a55f9e1c143	0.12344872809058409
19	0x3fc3dcaff3555ecf	0.15517234212415196
20	0x3fc57e8308d8ce28	0.167923335380338
21	0x3fc01c1e8a4946cb	0.1258581328607334
22	0x3fc39a4549cc90c8	0.15314546683760555
23	0x3fc0c571b7bd78f7	0.13102551910100832
24	0x3fe89989af0a0b8e	0.7687424105391629
25	0x3fe4b5b218872959	0.6471796492635732
26	0x3fe759b022443ecf	0.7296982449788291
27	0x3fe4256804261dad	0.6295662003548635
28	0x3fe51e7a1f308486	0.6599703416033129
29	0x3fe8552139350d19	0.7603918187454922

running_mean_std.count f8 []
0	0x40c2c08000000000	9601.0

a2c_network.sigma f4 [6]
0	0xbd41d06f	-0.04731792
1	0xbdfec620	-0.12440133
2	0xbe08d36d	-0.13361903
3	0xbde4afe4	-0.11166361
4	0xbd6a60ca	-0.05722121
5	0xbda6e9ee	-0.08150087

a2c_network.actor_mlp.0.weight f4 [256, 30]
0	0x3e11ff60	0.14257574
1	0xbde9fd8e	-0.11425315
2	0x3dc6c427	0.09705382
3	0xbc839eca	-0.016066927
4	0xbd3b4903	-0.045723926
5	0x3de07eed	0.10961709
6	0xbc570f74	-0.013126243
7	0x3e221113	0.15826826
8	0x3d39479d	0.04523431
9	0x3b47ea26	0.0030504554
10	0x3afeae6e	0.0019430646
11	0x3d129783	0.035789024
12	0x3dd2ae40	0.10287142
13	0x3e4c168d	0.19930477
14	0x3e0369b7	0.12833296
15	0xbd39e918	-0.04538831
16	0x3d7f11bc	0.062272772
17	0x3cd8f3e6	0.026483487
18	0x3dea626d	0.114445545
19	0xbd9eadbd	-0.07747982
20	0xbe4665b0	-0.19374728
21	0xbd7eb341	-0.06218267
22	0xbe1b1a78	-0.15146816
23	0x3dce21c1	0.10065032
24	0x3cf10ea2	0.029425923
25	0x3dbd9d3d	0.092585064
26	0x3cd6d92f	0.026226608
27	0xbb98f8c9	-0.0046683294
28	0x3e35632e	0.17713615
29	0xbe1dc2ca	-0.15406337
30	0xbd191369	-0.037372027
31	0xbe1b4e6f	-0.15166639
32	0x3d3e4e28	0.046461254
33	0xbdc96105	-0.09832958
34	0x3b4d48cd	0.003132391
35	0xbda8fb3a	-0.08251043
36	0x3e441666	0.1914917
37	0xbdeb4991	-0.11488641
38	0xbdf50d2b	-0.11965402
39	0xbda62ae5	-0.0811365
40	0x3e10e16a	0.14148489
41	0x3d9fbcb3	0.077996634
42	0x3e256825	0.16153009
43	0xbdd6ce7e	-0.10488604
44	0xbe956b90	-0.29183626
45	0xbdf27814	-0.11839309
46	0xbe26824a	-0.16260639
47	0x3d80e48d	0.062935926
48	0x3db7b309	0.08969695
49	0x3e08a960	0.13345861
50	0xbe30ef27	-0.1727873
51	0xbd80f0e0	-0.06295943
52	0x3dce84ca	0.10083921
53	0xbdad68bf	-0.08467244
54	0x3e008e3b	0.12554257
55	0x3b0a3d33	0.0021093606
56	0x3d832337	0.06403201
57	0xbda13eb8	-0.07873291
58	0xbdd877ba	-0.10569711
59	0x3daf6c4c	0.08565578
60	0x3c796cbd	0.015223679
61	0xbdd2a136	-0.10284655
62	0x3da68247	0.08130317
63	0x3e69011f	0.22754334
64	0xbe11afdc	-0.14227241
65	0xbda2ca03	-0.07948687
66	0x3e46255d	0.1935019
67	0xbc5379cf	-0.012907459
68	0xbe382260	-0.17981863
69	0xbdf7a126	-0.120912835
70	0xbd94bb4a	-0.07262285
71	0x3d9235bd	0.07139156
72	0xbd29a491	-0.04141671
73	0xbd47bd37	-0.048764434
74	0xbd5ff07f	-0.054672714
75	0xbe03a790	-0.12856889
76	0xbdf12db3	-0.117762946
77	0xbdb57951	-0.0886103
78	0xbe7c9e4a	-0.24669757
79	0xbe0a883b	-0.1352853
80	0x3e194c88	0.149706
81	0xbcaa5788	-0.020793691
82	0x3c97d4d2	0.018534098
83	0xbe0ae6e3	-0.13564639
84	0xbe1df6e7	-0.15426217
85	0xbd36c24c	-0.04461889
86	0x3d07d275	0.03315969
87	0xbe230d3f	-0.15923022
88	0xbdeeda05	-0.11662678
89	0xbd8b5cd6	-0.068048164
90	0x3b43e74f	0.002989251
91	0xbccf261e	-0.02528673
92	0x3d239ce5	0.03994455
93	0xbe1f1c4a	-0.15538135
94	0xbe4d6e18	-0.20061529
95	0xbddbc28d	-0.10730467
96	0xbd4e4118	-0.050355047
97	0xbe2f9ef7	-0.17150484
98	0x3e01b5cf	0.1266701
99	0xbd0a8de9	-0.033826742
100	0x3dd8d811	0.105880864
101	0x3e14987d	0.14511295
102	0xbe08bcbc	-0.13353246
103	0x3e45ff5c	0.19335693
104	0xbd88e809	-0.06684882
105	0xbdc57ad5	-0.09642569
106	0xbe29fdc9	-0.16600718
107	0xbe080308	-0.13282406
108	0x3d8163d3	0.06317868
109	0x3bd16e50	0.006391324
110	0x3dc539f8	0.09630197
111	0xbe34c786	-0.17654237
112	0x3d9a04ab	0.075204216
113	0xbda8ecf1	-0.08248318
114	0xbd679513	-0.056538653
115	0x3dded569	0.108805485
116	0x3d8acea9	0.067776985
117	0x3dbddd99	0.09270782
118	0x3e25a0b4	0.16174585
119	0xbdc28b5a	-0.094992355
120	0x3dc1d92d	0.09465251
121	0xbd109fb2	-0.035308547
122	0x3d526559	0.051366184
123	0xbe088464	-0.13331753
124	0x3e25e451	0.16200377
125	0xbdd01b45	-0.10161451
126	0x3de96675	0.11396495
127	0x3d351a36	0.04421445
128	0x3e107f33	0.14111023
129	0xbda80938	-0.08204883
130	0x3df18c61	0.11794353
131	0x3dac831d	0.084234454
132	0x3cccc987	0.02499844
133	0xbe2201df	-0.15821026
134	0x3d9317ad	0.0718225
135	0x3c8963c7	0.01677121
136	0xbe01efa9	-0.1268908
137	0x3de5dbff	0.112236015
138	0x3db017b3	0.0859827
139	0xbd6567b2	-0.056007095
140	0xbda7e132	-0.081972495
141	0xbd48f874	-0.04906507
142	0x3e054dcb	0.13017957
143	0xbd83fc46	-0.06444602
144	0xbdc5c8a3	-0.09657409
145	0xbc0c4922	-0.008562358
146	0xbe128a97	-0.1431068
147	0x3d55702a	0.05210892
148	0x3e2ee96a	0.17081228
149	0xbe2dfa03	-0.16989903
150	0xbb389ba0	-0.0028168932
151	0x3dcaa608	0.09894949
152	0x3d0929a6	0.033486985
153	0xbd8c8ec0	-0.06863165
154	0x3dcb593f	0.09929132
155	0x3d16f04a	0.03685025
156	0x3de14db7	0.11001151
157	0xbd22ad84	-0.03971626
158	0x3cebd759	0.02878921
159	0x3c3ad5d2	0.011403518
160	0xbbfff312	-0.0078109587
161	0xbd916c69	-0.07100756
162	0x3df6453d	0.12024925
163	0x3df6cbb7	0.12050574
164	0xbdb343ee	-0.08753191
165	0x3c237f95	0.009979148
166	0x3bb8b778	0.0056371056
167	0xbd696d06	-0.05698874
168	0x3d9bfff1	0.07617176
169	0x3dc3631c	0.09540388
170	0xbe106b46	-0.14103422
171	0xbdefe7ee	-0.11714159
172	0x3e02f329	0.1278807
173	0x3dc56c96	0.09639852
174	0xbcdab7d8	-0.026698992
175	0xbdbd78a3	-0.09251525
176	0xbe0b57b3	-0.13607673
177	0xbe2565ee	-0.16152164
178	0xbdcf0e8b	-0.10110196
179	0x3d7b93ca	0.06142024
180	0x3dd9a246	0.10626654
181	0x3da591f9	0.08084483
182	0xbe68f717	-0.22750507
183	0xbdfbfb35	-0.12303773
184	0x3b74d7c3	0.003736005
185	0x3e835855	0.2565333
186	0xbc5ce51d	-0.013482359
187	0xbdbefa50	-0.09325087
188	0x3dacc2a4	0.08435562
189	0xbd6df1c0	-0.05809188
190	0xbe482a2e	-0.1954734
191	0x3e134904	0.14383322
192	0xbd5d6144	-0.054047838
193	0xbc62c67d	-0.013841269
194	0xbe0ef552	-0.1396077
195	0x3ddaf4a6	0.10691194
196	0x3e2a2f7f	0.16619681
197	0x3cc93931	0.024563404
198	0xbe1ba14e	-0.15198252
199	0xbe7b130d	-0.24518986
200	0xbdc78c78	-0.09743589
201	0x3e07c825	0.13259943
202	0x3c40e925	0.011774336
203	0x3dbfdf10	0.09368718
204	0x3dd026a0	0.10163617
205	0x3c902ab9	0.017598497
206	0x3ce009ce	0.027348425
207	0xbe42e8c5	-0.19034107
208	0xbe0929d9	-0.1339487
209	0xbe42a4dd	-0.19008203
210	0x3c7770d7	0.015102587
211	0xbde4c788	-0.1117087
212	0xbda3537e	-0.07974909
213	0xbe0625a4	-0.13100296
214	0x3b1264d7	0.0022337937
215	0xbdf7e185	-0.12103561
216	0xbde57e0f	-0.112056844
217	0x3da1b9e4	0.07896784
218	0x3b3611f5	0.00277817
219	0x3dfab0fd	0.12240789
220	0xbc5b7d83	-0.013396624
221	0xbc73de70	-0.014884576
222	0xbcdb3461	-0.026758375
223	0xbe0400d7	-0.12890945
224	0xbd01dcdd	-0.031704772
225	0xbe160ecf	-0.14654087
226	0x3dffca45	0.12489752
227	0xbdfd0656	-0.12354724
228	0x3de0a914	0.10969749
229	0x3ca404c8	0.020021811
230	0x3e157c48	0.14598191
231	0xbdfd9c00	-0.1238327
232	0x3decd425	0.11563901
233	0xbd91f096	-0.07125966
234	0x3d16d6c4	0.03682591
235	0x3e032dc6	0.1281043
236	0xbd44c4fd	-0.048039425
237	0x3bcf5798	0.0063275807
238	0xbb32bc43	-0.0027272857
239	0xbe2bddf8	-0.16783893
240	0x3e0bd873	0.13656788
241	0xbe6b9f16	-0.23009905
242	0x3e149507	0.14509974
243	0x3e202a93	0.15641241
244	0x3e22c0b9	0.1589383
245	0x3d69a29b	0.05703984
246	0xbe48b980	-0.19602013
247	0x3ced2b92	0.02895144
248	0x3e52a17e	0.20569417
249	0xbe2b5055	-0.16729863
250	0xbd6043f9	-0.054752324
251	0xbd3a7d95	-0.04552992
252	0xbd82e482	-0.06391241
253	0xbdb4f321	-0.08835436
254	0xbdef3ff7	-0.11682122
255	0xbc1e2e53	-0.009654599

a2c_network.actor_mlp.0.bias f4 [256]
0	0xbdd513b2	-0.10404147
1	0x3daa56a0	0.08317304
2	0x3def1cfb	0.116754495
3	0x3d4099eb	0.047021788
4	0xbd4de20a	-0.050264396
5	0xbc717437	-0.01473718
6	0x3cde36ce	0.027125742
7	0xbd69166f	-0.05690616
8	0xbce45b20	-0.027875483
9	0x3d76d66e	0.06026309
10	0x3dc62747	0.0967546
11	0x3b8977d7	0.004195194
12	0xbcc62d89	-0.024191635
13	0xbd57fff3	-0.052734327
14	0x3de0ee08	0.10982901
15	0xbd1203ed	-0.035648275
16	0xbcca9f5b	-0.02473419
17	0x3d188dee	0.03724473
18	0xbd99e891	-0.07515062
19	0xbcbabccc	-0.022795103
20	0x3c675d1c	0.01412132
21	0x3d415c1f	0.047206994
22	0xbe03eaa9	-0.12882484
23	0x3e198d02	0.14995196
24	0x3c9a0dd8	0.01880543
25	0x3d1d9d9f	0.038480397
26	0x3d91be07	0.07116323
27	0xbd8e4ccf	-0.06948244
28	0x3d1154a9	0.03548113
29	0xbd8414a4	-0.064492494
30	0xbce0d0b6	-0.027443271
31	0x3dda6ee1	0.1066568
32	0xb96b097c	-0.0002241488
33	0x3d39e121	0.045380715
34	0x3d5f7b6a	0.054561056
35	0x3e0e73d2	0.1391137
36	0xbdb1df04	-0.08685115
37	0x3db0a562	0.08625294
38	0x3d796551	0.06088764
39	0xbdeab3ee	-0.114601
40	0xbdb2cf10	-0.087309
41	0xbcc19ee7	-0.02363534
42	0xbcf1585b	-0.029461076
43	0xbd449a7b	-0.047998887
44	0xbce4ffc4	-0.02795399
45	0xbd65deff	-0.05612087
46	0x3dd9f85d	0.10643075
47	0xbc66b413	-0.014081019
48	0x3e5e01bd	0.2168035
49	0xbdde4f26	-0.1085494
50	0xbce0bc1b	-0.027433446
51	0x3d4d9a26	0.050195836
52	0xbd680c6f	-0.056652483
53	0xbd2eb422	-0.042652257
54	0xbd9f9c19	-0.07793445
55	0xbdea462d	-0.11439166
56	0x3e2ebc05	0.17063911
57	0x3cff7fad	0.03118881
58	0x3cda1d11	0.026625188
59	0x3c034d2e	0.008014007
60	0x3c8e3a6b	0.01736184
61	0x3c81e04f	0.015854029
62	0x3d0b2cc7	0.03397825
63	0xbdc72542	-0.09723903
64	0xbd1501ba	-0.0363786
65	0xbd9f011b	-0.07763883
66	0x3d23fa4a	0.040033616
67	0xbdb66438	-0.08905834
68	0x3d15a92c	0.036538288
69	0xbd3e5e3b	-0.046476584
70	0xbcd0fc61	-0.025510969
71	0x3c6364fe	0.013879059
72	0xbca63356	-0.02028815
73	0xbd3c8a93	-0.046030592
74	0x3d1daea3	0.038496625
75	0x3d7e91ff	0.06215095
76	0x3c34344b	0.010998796
77	0xbd59165a	-0.05299983
78	0x3d4ccd0c	0.050000235
79	0xbdeaa574	-0.11457339
80	0x3cbfbe3b	0.023406139
81	0x3c543db1	0.0129541615
82	0x3b527cfa	0.003211795
83	0xbd70db9d	-0.05880319
84	0xbd3ff9ae	-0.046868972
85	0x3cedd7d2	0.029033575
86	0x3deece8b	0.11660489
87	0x3d3738e7	0.044732
88	0x3cf74465	0.03018398
89	0xbcb4223e	-0.021988984
90	0x3bb20ca4	0.005433636
91	0x3d6cb701	0.057791714
92	0x3ca14414	0.019685782
93	0x3e24bca6	0.16087589
94	0x3c553027	0.013011969
95	0x3ba13ed4	0.00492082
96	0x3d560ef5	0.052260358
97	0xbc8dd61d	-0.017314011
98	0x3c9bba55	0.019009748
99	0xbe0570e8	-0.13031352
100	0xbd4d680a	-0.050148048
101	0x3db9fae9	0.090810604
102	0xbcac9a37	-0.02106963
103	0xbcaae6ec	-0.020862065
104	0x3cb7ec55	0.02245156
105	0xbd85ca6a	-0.06532748
106	0x3cc9f3b6	0.024652343
107	0x3c222f71	0.009899006
108	0xbdf328a5	-0.11872987
109	0xbda7cf21	-0.081938036
110	0xbbe9b825	-0.0071325474
111	0x3dbb9309	0.09158904
112	0xbdaf3018	-0.08554095
113	0x3dae413b	0.085085355
114	0x3d1ed100	0.038773537
115	0x3cdd2258	0.026993915
116	0xbcd73ebb	-0.02627503
117	0x3d882818	0.06648272
118	0xbcb5345f	-0.022119699
119	0x3c208149	0.009796449
120	0xbdd5ca07	-0.10438924
121	0xbd58a9e7	-0.052896407
122	0x3d0fcce0	0.035107493
123	0xbc772f47	-0.015086955
124	0xbdb70e49	-0.089382716
125	0x3d286684	0.04111339
126	0xbe1d8506	-0.15382776
127	0x3dbda4f7	0.0925998
128	0xbd200977	-0.039071526
129	0x3c1b0cce	0.009463502
130	0xbd004102	-0.031311996
131	0x3d6b8afa	0.057505585
132	0x3aa4419f	0.0012531764
133	0xbd9bde47	-0.076107554
134	0x3d1c30b9	0.038132403
135	0xbbb2f2df	-0.0054610814
136	0x3cff3172	0.031151507
137	0x3d994973	0.074847125
138	0x3db168d6	0.08662574
139	0xbc204a52	-0.009783344
140	0x3e1e47b3	0.15457039
141	0x3db3b2bd	0.08774326
142	0xbda6c739	-0.081434675
143	0xbd824a40	-0.06361818
144	0x3da0994c	0.07841739
145	0xbc81f00b	-0.015861532
146	0xbd46dbd7	-0.0485495
147	0x3e0b6a8b	0.13614862
148	0x3ca1e0c7	0.019760503
149	0xbd0db970	-0.034600675
150	0x3db3be5f	0.08776545
151	0x3c23f3d1	0.010006861
152	0xbd97d758	-0.074141204
153	0x3d05d461	0.032673243
154	0xbc8be466	-0.017076682
155	0xbdd519cd	-0.10405312
156	0x3ca8b471	0.020593854
157	0xbda3d8cf	-0.08000337
158	0xbaf69244	-0.0018811901
159	0x3c892fc6	0.016746413
160	0xbd6a70d9	-0.057236526
161	0xbd9f2a03	-0.07771685
162	0xbda932aa	-0.082616165
163	0xbd582e78	-0.05277869
164	0x3b4334c8	0.0029786099
165	0xbd2e3b4a	-0.04253701
166	0x3d405ee9	0.046965513
167	0x3d4f20d6	0.050568424
168	0xbd1fa588	-0.038976222
169	0xbd41c699	-0.047308538
170	0xbdad753a	-0.08469625
171	0xbd262b03	-0.040568363
172	0xbc744325	-0.014908587
173	0x3da9c725	0.08289937
174	0xbc27c77b	-0.010240431
175	0xbcb4adb1	-0.022055479
176	0xbd92ec56	-0.07173984
177	0xbd25eba7	-0.04050794
178	0xbd8ac012	-0.06774916
179	0x3bcb6f45	0.0062083327
180	0x3d8d2cc6	0.068933055
181	0x3d5ff16b	0.054673593
182	0xbc138cfe	-0.009005783
183	0xbdbf878a	-0.09352024
184	0xbd7b5d37	-0.061368193
185	0x3d6eeb26	0.058329724
186	0xbdae2552	-0.08503212
187	0xbda77047	-0.08175712
188	0xbd6476c8	-0.05577734
189	0x3e02b56f	0.12764524
190	0x3d78f794	0.060782984
191	0xbde55a27	-0.11198836
192	0x3d8cf120	0.068819284
193	0x3da3deb1	0.080014594
194	0xbd31bb86	-0.043391727
195	0x3d01af5f	0.031661388
196	0x3d1ab31f	0.03776848
197	0x3ce4796e	0.027889933
198	0x3d14f33b	0.036364775
199	0x3d36be10	0.04461485
200	0x3d3b2c8e	0.045696788
201	0x3dfbc0fe	0.1229267
202	0xbc550857	-0.013002477
203	0x3daf67be	0.08564709
204	0x3d94fcbc	0.07274768
205	0x3dc515f0	0.09623325
206	0x3deaa4ea	0.11457236
207	0x3dfb999c	0.12285158
208	0xbd9affd8	-0.075683296
209	0xbd671eab	-0.05642573
210	0xbd40c5de	-0.0470637
211	0xbcd88a0f	-0.026433019
212	0xbccbda1f	-0.024884282
213	0x3ce59c9d	0.02802878
214	0x3dbc1a04	0.091846496
215	0x3c444419	0.011979126
216	0xbda006d2	-0.07813801
217	0xbd4717b5	-0.048606593
218	0xbd755e5a	-0.059904434
219	0xbda96d83	-0.08272841
220	0x3c77506e	0.0150948595
221	0x3c927319	0.017877148
222	0xbd5f860b	-0.054571193
223	0x3d948170	0.07251251
224	0xbd11b367	-0.035571482
225	0x3c94da0f	0.018170385
226	0x3d97a346	0.07404189
227	0x3d29ecf7	0.041485753
228	0x3e029a97	0.12754284
229	0xbcf982f2	-0.030457947
230	0xbd14b988	-0.03630975
231	0x3d51b5a0	0.0511986
232	0x3e085ef6	0.13317475
233	0xbd4a88ae	-0.049446754
234	0x3da59af0	0.080861926
235	0xbd0a01de	-0.033693187
236	0xbd756734	-0.059912875
237	0xbdb33640	-0.08750582
238	0xbd1b2f17	-0.037886705
239	0x39595f1b	0.00020730162
240	0x3d8f0d05	0.06984905
241	0x3cca32c2	0.024682406
242	0x3d93fdff	0.0722618
243	0xbd300198	-0.04297027
244	0x3dbca6f1	0.09211529
245	0x3d9833ec	0.07431778
246	0x3ce209b4	0.027592517
247	0xbb2935c6	-0.0025819405
248	0x3de88cac	0.11354956
249	0x3d2fe663	0.042944323
250	0xbc3f9da4	-0.011695299
251	0x3d64381b	0.05571757
252	0x3dd0d00f	0.10195934
253	0x3b21dcbb	0.0024698216
254	0xbb8bce6d	-0.004266551
255	0xbd720505	-0.05908682

a2c_network.actor_mlp.2.weight f4 [128, 256]
0	0xbb3bbb1a	-0.0028645457
1	0xbcaa6c99	-0.020803737
2	0xbd3cc7b9	-0.046088908
3	0xbd93e4e6	-0.07221393
4	0xbcc9942c	-0.024606787
5	0xbd564ae5	-0.05231752
6	0xbd81181f	-0.06303429
7	0xbbbdb00c	-0.0057888087
8	0xbd1f204c	-0.03884916
9	0x3d89b3b8	0.06723732
10	0xbc495d3b	-0.012290294
11	0x3c787329	0.015164175
12	0x3da2057c	0.07911202
13	0x3cf6af83	0.030112987
14	0xbd2026be	-0.039099447
15	0x3b94e04a	0.004543339
16	0xbd7c1ea0	-0.061552644
17	0x3c5de161	0.013542504
18	0x3c8f7f7c	0.017516844
19	0x3c955d17	0.018232865
20	0xbce28a10	-0.027653724
21	0x3bb7727a	0.0055983635
22	0xbb22aaf2	-0.002482113
23	0xbb0a6a75	-0.0021120582
24	0xbb825550	-0.003977455
25	0x3cabb8db	0.02096217
26	0x3c2700f1	0.010193096
27	0xbd9ce981	-0.07661725
28	0xbda9de20	-0.0829432
29	0x3aece38c	0.0018073185
30	0x3c94565e	0.01810759
31	0xbd0e4b33	-0.034739684
32	0xbd9d5c67	-0.0768364
33	0xbc91f10e	-0.01781514
34	0xbd44b8bd	-0.048027743
35	0xbd32b75b	-0.043631893
36	0xbc987aa2	-0.018613163
37	0x3d16d5eb	0.0368251
38	0x3a907651	0.0011021589
39	0xbcd6ee75	-0.026236752
40	0x3c82fc7d	0.015989536
41	0xbe1062b7	-0.14100157
42	0xbd9357a6	-0.07194452
43	0x3d63a39d	0.055575956
44	0xbc6170d8	-0.013759814
45	0x3cce57cb	0.025188347
46	0xbbca4c8a	-0.006173675
47	0xbcf32799	-0.029681968
48	0xbcba183d	-0.022716636
49	0xbd4fc538	-0.05072519
50	0xbd67f37b	-0.056628685
51	0x3d0be391	0.03415257
52	0x3d188be4	0.037242785
53	0x3d6b404c	0.057434365
54	0x3cb9ccad	0.022680605
55	0x3d18b28a	0.037279643
56	0xbd619d2f	-0.055081543
57	0xbd60827c	-0.05481194
58	0x3c97d73f	0.018535255
59	0x3b7cfb5c	0.003860197
60	0xbd115f94	-0.03549154
61	0xbd945010	-0.07241833
62	0xbd93c7d6	-0.0721585
63	0xbc1e8c3b	-0.009676988
64	0xbc9a882a	-0.018863756
65	0x3a8e1f29	0.0010843027
66	0x3d6cb0a4	0.057785645
67	0xbd0b11ac	-0.0339524
68	0xbcc37f5e	-0.023864444
69	0x3d131d97	0.03591689
70	0xbd8199c0	-0.063281536
71	0xbaa4f839	-0.0012586183
72	0x3db5b6e8	0.08872777
73	0xbd0f5b65	-0.03499927
74	0xbd6e6191	-0.058198515
75	0x3deabd34	0.11461869
76	0x3bc06479	0.0058713523
77	0xbdc533ae	-0.09628998
78	0xbda3a6c4	-0.079907924
79	0xb82d0961	-4.125515e-05
80	0xbd073b77	-0.033015694
81	0xbddfeec0	-0.1093421
82	0xbd83f4fb	-0.06443211
83	0x3d5bb51b	0.053639513
84	0xbd76333f	-0.060107466
85	0xbdbd40f8	-0.092409074
86	0xbd0d92f1	-0.034563962
87	0xbcd9fe6e	-0.02661058
88	0xbdb09afd	-0.08623312
89	0xbda3c401	-0.07996369
90	0x3d0a7072	0.033798642
91	0x3d5352b3	0.05159254
92	0xbd6ead5b	-0.058270793
93	0x3c4785b2	0.012177872
94	0x3d269b26	0.040675305
95	0x3d8346a1	0.06409956
96	0xbdb0d6e9	-0.08634741
97	0x3cc6fb85	0.024289856
98	0x3b03b53a	0.0020097033
99	0xbcb302da	-0.021851946
100	0xbd90c868	-0.070694745
101	0xbc87ee2c	-0.016593061
102	0x3d7b1679	0.06130073
103	0xbcd76b0a	-0.026296157
104	0xbe07bb83	-0.13255124
105	0xbdb8f951	-0.09031928
106	0xbdb0893d	-0.08619926
107	0xbd1166d9	-0.035498474
108	0xbcee70fa	-0.029106606
109	0xbd6bea87	-0.05759671
110	0x3d0116a4	0.031515732
111	0x3da09620	0.07841134
112	0x3dc0094d	0.09376774
113	0xbc0ed384	-0.008717421
114	0x3bfcea29	0.0077183438
115	0xbd897d29	-0.067133255
116	0xbd2abdc9	-0.0416849
117	0xbb90efc3	-0.004423113
118	0x3c816679	0.015795933
119	0x3cdadbe1	0.026716175
120	0x3c8c7bc6	0.017148864
121	0xbd712f68	-0.0588831
122	0xbd91bb26	-0.07115774
123	0x3bf23870	0.007391982
124	0xbd1a07e6	-0.03760519
125	0xbd90c17d	-0.07068155
126	0xbc6665ca	-0.014062354
127	0xbcfc1d4f	-0.030775694
128	0xbb0fb7f3	-0.002192971
129	0xbcb466ff	-0.022021769
130	0x3c3f45db	0.01167437
131	0xbd5d70a6	-0.054062508
132	0xbbd3ddac	-0.0064656343
133	0xbd75017b	-0.059815865
134	0xbcd41ee0	-0.025893629
135	0x3dc219ec	0.094776005
136	0xbcc8aad1	-0.024495514
137	0xbcb24f8b	-0.021766445
138	0x3ca97e74	0.02069018
139	0xbdb57874	-0.08860865
140	0xbda6c27f	-0.08142566
141	0xbb938adb	-0.004502637
142	0x3c866217	0.016404195
143	0x3814f492	3.5513724e-05
144	0xbd1dddcc	-0.0385416
145	0xbce493ef	-0.027902571
146	0x3d20afc1	0.039230112
147	0x3b99ad3d	0.004689841
148	0xbc9aa7b8	-0.018878803
149	0x3d3781bc	0.04480146
150	0x3d879e20	0.06621957
151	0xbda014dd	-0.07816479
152	0x3d1e187b	0.038597565
153	0x3d3a5ead	0.045500446
154	0xbb77eacf	-0.0037829166
155	0x3d4fc9d4	0.050729588
156	0x3d376686	0.04477551
157	0x3da825a8	0.08210307
158	0x3db7f026	0.089813516
159	0x3ceabf3a	0.028655637
160	0x3d510f84	0.051040187
161	0xbcafb7ce	-0.02144995
162	0xbc5f95ed	-0.013646585
163	0x3c82ad95	0.015951911
164	0xbd498b9f	-0.04920542
165	0xbd1e9790	-0.03871876
166	0xbd306c32	-0.043071933
167	0xbd08e548	-0.033421785
168	0xbb20def6	-0.0024546958
169	0x3d495075	0.049148995
170	0xbd199b13	-0.037501406
171	0x3ca11f53	0.019668257
172	0x3d6bf7da	0.057609417
173	0xbd3ac723	-0.045600068
174	0xbd410fc7	-0.047134187
175	0x3cfdc900	0.030979633
176	0xbcdd0f4c	-0.026984833
177	0x3cfd96f0	0.030955762
178	0xbd3488ce	-0.04407578
179	0x3daf55dc	0.08561298
180	0xbce9d16b	-0.028542241
181	0xbd8d9cb0	-0.069146514
182	0xbd00349d	-0.031300176
183	0xbd06e6b1	-0.03293485
184	0x3bad4083	0.0052872314
185	0xbd4b5a7a	-0.049646832
186	0x3c42adfd	0.011882302
187	0x3b8aa60a	0.004231219
188	0x3d38cc88	0.04511693
189	0x3cfe3528	0.031031206
190	0xbc7b3ca3	-0.015334281
191	0x3baf32c0	0.005346626
192	0x3be46778	0.0069703422
193	0xba221762	-0.0006183294
194	0xbd45efc5	-0.048324365
195	0xbd1ed192	-0.03877408
196	0x3ce230e3	0.027611202
197	0x3d77ae12	0.06046874
198	0xbd851cd3	-0.064996384
199	0xbd1b32e7	-0.03789034
200	0xbd3c5962	-0.04598368
201	0x3cd59498	0.026071832
202	0x3d2605c2	0.040532835
203	0xbca0263a	-0.019549478
204	0xbd66e776	-0.056373082
205	0xbd2576cd	-0.0403965
206	0xbc90b7a5	-0.017665694
207	0xbd8055b6	-0.06266348
208	0xbdbf300d	-0.09335337
209	0xbd28c674	-0.041204885
210	0x3b8c7999	0.0042869565
211	0xbcc25deb	-0.023726424
212	0x3d697466	0.05699577
213	0xbdd56831	-0.104202636
214	0x3d3c84a4	0.046024933
215	0xbd8fa543	-0.07013943
216	0xbc85d165	-0.016335199
217	0x3d2d6339	0.042330954
218	0xbd0f6a4e	-0.03501349
219	0xbd34badc	-0.044123515
220	0xbd10ac3d	-0.03532051
221	0xbd6b6222	-0.057466634
222	0x3d213cf9	0.03936479
223	0xbc829963	-0.015942281
224	0xbd68beeb	-0.0568227
225	0xbda10595	-0.07862393
226	0x3be8e481	0.007107318
227	0x3cc14d4b	0.023596426
228	0x3d19681b	0.0374528
229	0x3d6447bd	0.055732477
230	0xbd173633	-0.036916923
231	0x3d1542c1	0.036440615
232	0xbd72a7c1	-0.059242014
233	0xbb57ee3f	-0.0032948402
234	0xbb45983f	-0.003015056
235	0xbd84b5c1	-0.06479979
236	0xbcacba09	-0.021084802
237	0xbd2aa9fd	-0.04166602
238	0xbb99bd7f	-0.004691779
239	0xbbe7681a	-0.0070619704
240	0xbd46449f	-0.048405286
241	0xbd90e541	-0.07074977
242	0x3d53030c	0.051516578
243	0xbd5aca33	-0.05341549
244	0x3c9cc1bb	0.019135347
245	0xbc284e13	-0.010272521
246	0xbd68da33	-0.056848716
247	0x3daea57e	0.08527659
248	0x3ccc3777	0.024928791
249	0xbcf0dac6	-0.029401194
250	0x3d2a4c14	0.04157646
251	0x3da242ae	0.079228744
252	0x3d1dd80c	0.038536116
253	0x3c9585e4	0.01825232
254	0xbca9ad02	-0.02071238
255	0xbb61ccbf	-0.0034454314

a2c_network.actor_mlp.2.bias f4 [128]
0	0x3c132fe8	0.00898359
1	0xbcf6d2e9	-0.030129867
2	0xbb5fbf19	-0.0034141003
3	0x3b964339	0.0045856503
4	0x3cac7407	0.02105142
5	0xbcc72750	-0.024310738
6	0x3dbd3641	0.09238864
7	0xbdc8b23d	-0.09799621
8	0xbcaa8562	-0.020815555
9	0x3d1a3005	0.03764345
10	0x3d100e21	0.035169724
11	0xbc8a9954	-0.016918816
12	0xbcd6e69e	-0.026233014
13	0xbcda82d4	-0.026673712
14	0x3d4c52bb	0.049883585
15	0xbe0535ad	-0.13008757
16	0xbca861f8	-0.020554528
17	0xbcc8f2f3	-0.02452991
18	0xbdadfc2f	-0.08495366
19	0xbcf8ea8e	-0.030385282
20	0xbca4bf37	-0.02011071
21	0xbc7ad2b0	-0.015309021
22	0xbdf385c9	-0.11890752
23	0x3c63479f	0.013872056
24	0x3c46d38e	0.0121353995
25	0x3da989c7	0.08278232
26	0xbd833979	-0.064074464
27	0x3e00dec2	0.12584975
28	0x3b6544db	0.0034983668
29	0xbd0052ad	-0.031328846
30	0x3d703525	0.058644433
31	0x3d2b60b7	0.04184028
32	0xbcfe6177	-0.031052334
33	0xbe083fbf	-0.13305567
34	0xbbc8c816	-0.0061273677
35	0xbd757e49	-0.059934888
36	0xbd978dad	-0.074000694
37	0x3d2e44ee	0.042546205
38	0x3ccb0839	0.024784194
39	0xbd13b231	-0.03605861
40	0xbdbb9343	-0.09158947
41	0xbc9c1832	-0.019054506
42	0x3b90f7f1	0.004424088
43	0xbd903625	-0.07041577
44	0xbc19cdc4	-0.009387437
45	0x3de8f22a	0.11374314
46	0x3d83f2f1	0.06442822
47	0xbc910736	-0.017703634
48	0x3d2ee709	0.0427008
49	0xbdb28a63	-0.087178014
50	0x3d369d8d	0.044583846
51	0xbc18fb51	-0.009337262
52	0xbccd89b2	-0.025090072
53	0x3cb966eb	0.022632083
54	0xbd60d784	-0.05489303
55	0xbd9f8d12	-0.07790579
56	0xbda39d0c	-0.07988939
57	0xbae09243	-0.0017133433
58	0x3d750fe0	0.059829593
59	0xbcb098af	-0.02155718
60	0xbda5c931	-0.08095015
61	0xbd8dfd20	-0.069330454
62	0x3c2fcb8a	0.01072968
63	0x3bf1c91d	0.007378711
64	0xbd36172c	-0.044455692
65	0x3d215a79	0.039392922
66	0x3c0ffdba	0.0087885205
67	0x3d4cb000	0.049972534
68	0x3d81c87b	0.06337067
69	0xbe2aa67d	-0.16665073
70	0xbd5ec2db	-0.054385047
71	0xbdadaca3	-0.084801935
72	0x3d075a91	0.033045355
73	0xbbe7db33	-0.007075691
74	0xbd442d46	-0.04789474
75	0xbd9e653d	-0.077341534
76	0x3cef332d	0.029199207
77	0xbdaffc18	-0.08593005
78	0xbbd46b33	-0.0064825057
79	0xbdc0c381	-0.094122894
80	0xbd5df5a5	-0.054189343
81	0x3d18037d	0.0371127
82	0xbd8beb02	-0.068319336
83	0xbd411625	-0.04714026
84	0x3d7f2f4f	0.062300976
85	0xbdf3f91b	-0.119127475
86	0xbdabcce3	-0.083886884
87	0x3ccda4f2	0.025103066
88	0xbdc041e4	-0.09387568
89	0xbc4463e7	-0.011986709
90	0x3db67b73	0.08910265
91	0xbd8e6b34	-0.06954041
92	0xbb88d1bf	-0.0041753943
93	0xbd0031b0	-0.031297386
94	0x3c7acd78	0.015307777
95	0x3d67530d	0.056475688
96	0xbb464c22	-0.003025778
97	0x3df23fe1	0.1182859
98	0xbc492474	-0.0122767575
99	0xbd1c3392	-0.03813512
100	0xbc0aeedc	-0.0084798
101	0x3c701bb3	0.0146550415
102	0xbe059bd2	-0.13047722
103	0xbc96e6f4	-0.018420674
104	0x3cb4a9dc	0.022053652
105	0xbc6fa3e3	-0.014626476
106	0xbc6c9309	-0.014439353
107	0x3d042cd4	0.032269314
108	0xbd9f423d	-0.07776306
109	0x3cf17cc7	0.029478444
110	0xbd393a59	-0.04522166
111	0x3dbc54d5	0.09195868
112	0x3da368a5	0.07978944
113	0x3d7c56d8	0.06160626
114	0xbd6fc88b	-0.058540862
115	0xbcbd0131	-0.023071857
116	0xbd5904d0	-0.052983105
117	0xbaaea01d	-0.0013322864
118	0xbcce6dc5	-0.025198827
119	0x3d44c23d	0.048036803
120	0xbc1656c6	-0.009175962
121	0xbdfbdc49	-0.122978754
122	0xbdb96d9e	-0.09054111
123	0xbc2c4259	-0.010513865
124	0xbda74b32	-0.08168639
125	0xbd3dab39	-0.04630587
126	0x3d400ec9	0.0468891
127	0x3c79b823	0.0152416555

a2c_network.actor_mlp.4.weight f4 [64, 128]
0	0x3d298d80	0.04139471
1	0xbd32166d	-0.04347842
2	0x3db2da7b	0.08733078
3	0x3c9992a5	0.018746683
4	0x3ca7095c	0.020390205
5	0x3d6bca73	0.057566117
6	0x3da4cdf8	0.08047098
7	0xbd98a6fa	-0.07453723
8	0xbdb0425c	-0.08606407
9	0x3d793d35	0.060849387
10	0x3d9993a4	0.07498863
11	0x3d357965	0.044305224
12	0x3ca2b15c	0.019859962
13	0x3d6ab4fa	0.0573015
14	0x3beaa471	0.007160716
15	0xbd1568bd	-0.03647684
16	0x3d24cfa8	0.0402371
17	0xbc95bc78	-0.018278345
18	0xbdda8d0b	-0.10671433
19	0x3d87d4a6	0.06632356
20	0x3cb72878	0.022358164
21	0x3c29ba29	0.010359325
22	0xbd326e5d	-0.043562282
23	0xbd8086ed	-0.06275735
24	0xbc2b5f28	-0.010459699
25	0x3d87bc32	0.06627692
26	0x3ce41cb6	0.027845722
27	0x3d9862ea	0.07440741
28	0xbdabe14f	-0.083925836
29	0x3d62e5ea	0.055395044
30	0xbd2fa6c9	-0.042883668
31	0xbd2f6fd4	-0.042831257
32	0xb994f33a	-0.00028409978
33	0xbd40854e	-0.04700213
34	0xbd57317e	-0.052537434
35	0xbda579fc	-0.08079907
36	0xbdc4f2d9	-0.09616632
37	0xbd52ea15	-0.05149277
38	0xbd66d331	-0.05635375
39	0xbd7e1554	-0.06203206
40	0xbdb2101b	-0.08694478
41	0xb99795bb	-0.00028912522
42	0x3ba90a88	0.005158726
43	0x3d24225e	0.040071838
44	0xbdc3c379	-0.09558768
45	0xbcf68ccf	-0.03009644
46	0xbdde1d00	-0.10845375
47	0xbc47f602	-0.012204649
48	0xbd57518b	-0.052568
49	0xbdcad009	-0.09902961
50	0x3dee33fe	0.116310105
51	0xbd850709	-0.064954825
52	0xbd46e5ad	-0.04855888
53	0x3b91ff0e	0.0044554537
54	0x3d937ce0	0.072015524
55	0x3d03bc02	0.03216172
56	0xbd215413	-0.03938682
57	0xbd78e191	-0.060761992
58	0xbdcb567f	-0.09928607
59	0x3ced710e	0.028984573
60	0x3da5f3f7	0.08103173
61	0x3bf9498c	0.0076076444
62	0xbd953a14	-0.07286468
63	0x3c295135	0.010334303
64	0xbcc03ba1	-0.023465933
65	0xbd126cf4	-0.035748437
66	0x3c855fb4	0.016280986
67	0x3d86979d	0.06571887
68	0xbd3a3e53	-0.045469593
69	0x3ca92636	0.020648103
70	0xbd897102	-0.06711008
71	0xbda35178	-0.07974523
72	0xbc61953d	-0.013768491
73	0x3a618b42	0.000860382
74	0xbb5a0a90	-0.0033270456
75	0xbce7d77b	-0.028300991
76	0x3d8b8248	0.068119586
77	0xbcaf3c9a	-0.021391202
78	0xbd119bcf	-0.03554898
79	0xbde2b600	-0.1106987
80	0xbd607148	-0.054795533
81	0x3da1e250	0.07904494
82	0xbd3db354	-0.0463136
83	0x3d5b379c	0.05351983
84	0xbcdddc03	-0.027082449
85	0xbaf59ea5	-0.0018739296
86	0xbd60b7a8	-0.05486265
87	0xbcecb208	-0.028893486
88	0xbd1680e1	-0.036744002
89	0xba8b229b	-0.0010615172
90	0xbd7243b5	-0.0591466
91	0xbcbe7911	-0.023251088
92	0xbc8df4a0	-0.01732856
93	0xbd28bf20	-0.041197896
94	0xbcf3e44c	-0.029771946
95	0x3c843076	0.01613639
96	0xbdc622a7	-0.09674578
97	0x3d40f2e9	0.047106657
98	0xbbbc72ee	-0.0057510054
99	0x3dc0e312	0.0941831
100	0xbd1e7337	-0.038684096
101	0xbcf9bba3	-0.03048498
102	0x3a986d7a	0.0011629306
103	0x3cf57b4f	0.029966025
104	0x3da8a9c5	0.08235506
105	0x3d378f0a	0.044814147
106	0xbd2ac139	-0.041688178
107	0x3d8d64b1	0.06903971
108	0xbd8ae4a9	-0.06781895
109	0x3d197130	0.03746146
110	0x3c17f8eb	0.009275655
111	0xbc85be4a	-0.016326088
112	0xbc4db312	-0.012554901
113	0x3dc9f615	0.098613895
114	0x3d514a53	0.05109627
115	0x3c2c1c7e	0.01050484
116	0x3c9e4037	0.01931773
117	0xbd382fbe	-0.044967405
118	0xbdb76ea0	-0.08956647
119	0x3b8f5ced	0.0043750913
120	0x3c35489e	0.011064677
121	0xbd894104	-0.06701854
122	0x3bf256a3	0.007395582
123	0x3c7a57ed	0.015279752
124	0x3bc41be2	0.005984769
125	0xbd34825f	-0.044069644
126	0xbdd10188	-0.1020537
127	0xbd0048db	-0.03131948
128	0x3dab36d3	0.08360066
129	0x3bd87446	0.0066056577
130	0x3d4e85f5	0.05042072
131	0x3be58cad	0.0070052953
132	0xbb529a15	-0.0032135297
133	0x3daa033d	0.08301399
134	0xbd67d6af	-0.056601223
135	0xbd64633f	-0.05575871
136	0xbd8bc0b6	-0.06823866
137	0xbdc27684	-0.09495261
138	0x3d37e078	0.044891804
139	0xbc51aa78	-0.012796991
140	0xbd4e8019	-0.050415132
141	0x3d4f153e	0.050557368
142	0xbbc4f5fd	-0.0060107694
143	0x3c3b9e9b	0.011451389
144	0x3bd20b8b	0.0064100674
145	0xbd7d8635	-0.061895568
146	0xbd68a930	-0.056801975
147	0xbbce1e40	-0.006290227
148	0xbc1223ac	-0.008919638
149	0x3d5233b2	0.05131883
150	0xbdabb053	-0.083832406
151	0xbd6726ad	-0.05643337
152	0x3d4faeed	0.05070393
153	0xbd282585	-0.041051406
154	0x3c7185a8	0.014741339
155	0xbd9bf448	-0.07614952
156	0xbd37b22f	-0.044847663
157	0x3d17e0a2	0.03707946
158	0x3d0f8cd6	0.03504642
159	0xbcc8d4ee	-0.024515595
160	0xbd9f68d7	-0.077836685
161	0x3d12bb1f	0.035822984
162	0x3c6334fb	0.013867612
163	0x3c717840	0.0147381425
164	0x3e023b77	0.12717997
165	0x3d5803c7	0.052737977
166	0x3c039446	0.008030957
167	0x3cc8f02e	0.02452859
168	0x3d58e34d	0.052951146
169	0x3d7ecf5f	0.062209483
170	0xbd2ba2c1	-0.04190326
171	0xbcd5c803	-0.02609635
172	0xbc87c7fa	-0.016574848
173	0xbd41b3ae	-0.047290497
174	0xbe1e98c8	-0.15487969
175	0x3d821d23	0.06353214
176	0xbd05a3a5	-0.032626767
177	0x3ba56962	0.005047963
178	0x383f2c5a	4.5579254e-05
179	0x3d4a16bc	0.049338087
180	0xbd22e377	-0.03976771
181	0x3dbfc70f	0.09364139
182	0x3d8ae417	0.06781786
183	0xbd3359d6	-0.043786846
184	0x3ca71357	0.020394964
185	0xbe006257	-0.12537514
186	0xbc8309fc	-0.015995972
187	0xbbab51aa	-0.005228241
188	0x3e15bf7f	0.14623831
189	0x3ab2cd25	0.001364146
190	0xbdd9b37a	-0.106299356
191	0xbccde636	-0.025134187
192	0xbd5ff478	-0.054676503
193	0xbcb0401e	-0.021514948
194	0x3d9ab92f	0.07554852
195	0x3d97471c	0.0738661
196	0x3d80ead1	0.06294788
197	0x3d6935e0	0.056936145
198	0x3d49c979	0.049264405
199	0x3ddb4bab	0.10707792
200	0x3dc05c62	0.093926206
201	0x3da94e79	0.082669206
202	0x3caf914e	0.021431591
203	0x3d4a768e	0.04942947
204	0x3d9068f5	0.07051269
205	0x3cd27b70	0.025693625
206	0xbb28da87	-0.0025765018
207	0xbcd96f01	-0.026542189
208	0x3dd14594	0.10218349
209	0xbdd5f4c1	-0.10447074
210	0xbd5f40b0	-0.05450505
211	0x3ccdb371	0.025109978
212	0x3b8228ea	0.0039721625
213	0x3d8cefae	0.06881653
214	0x3cf67aab	0.03008779
215	0xbd9f4f45	-0.07778791
216	0x3d0891b2	0.03334207
217	0xbbc4bd5f	-0.00600402
218	0xbddc5e91	-0.107602246
219	0x3de03c25	0.10948972
220	0xbdbe4869	-0.09291155
221	0xbd38b54a	-0.045094766
222	0x3cd1170a	0.025523681
223	0x3ca1637f	0.019700764
224	0x3d968073	0.073487185
225	0xbc4d5633	-0.0125327585
226	0xbc76ee96	-0.015071532
227	0xbbc1b99f	-0.0059120203
228	0x3d84dd94	0.06487575
229	0x3c8fb194	0.01754073
230	0x3d31931c	0.043353185
231	0xbd8103f7	-0.06299584
232	0x3d59d32e	0.053179912
233	0x3dd27d91	0.10277856
234	0xbda6ae99	-0.081387706
235	0xbc5bfa86	-0.013426429
236	0xbdc1d9d2	-0.09465374
237	0xbde6a5a5	-0.11262063
238	0x3c11021e	0.008850602
239	0x3d6d069f	0.057867642
240	0xbd4a6674	-0.049414113
241	0x3c3057f5	0.010763158
242	0xbb95e365	-0.0045742267
243	0xbdc5f784	-0.096663505
244	0x3d17374c	0.03691797
245	0xbced41d5	-0.028962055
246	0x3cb4f919	0.022091435
247	0x3dbda840	0.09260607
248	0x3d398421	0.045292024
249	0x3d5f75bc	0.05455564
250	0xbd0f9004	-0.035049453
251	0xbd24cc61	-0.040233973
252	0x3df17e15	0.11791626
253	0xbd3dceb3	-0.0463397
254	0x3da94871	0.0826577
255	0xbdaf50f8	-0.085603654

a2c_network.actor_mlp.4.bias f4 [64]
0	0x3d8bedf1	0.06832493
1	0xbd8e550f	-0.069498174
2	0xbd812cee	-0.06307398
3	0x3d83dc48	0.064385
4	0x3cfa000d	0.030517602
5	0x3d4012a1	0.046892766
6	0xbda1250b	-0.078683935
7	0xbb8cad96	-0.004293154
8	0x3d5305e7	0.0515193
9	0x3d634f50	0.05549556
10	0x3dca29cb	0.098712526
11	0x3c5a2c42	0.013316216
12	0x3cb28219	0.021790551
13	0xbdf2a96c	-0.11848721
14	0xbd0db316	-0.034594618
15	0xbd2a48e5	-0.041573424
16	0xbd570247	-0.052492406
17	0x3caa359e	0.02077752
18	0xbcc07b30	-0.02349624
19	0x3d666141	0.056245092
20	0xbde263ad	-0.11054168
21	0xbb77d0df	-0.0037813706
22	0xbd7b0fc2	-0.061294325
23	0x3c9e0005	0.019287119
24	0x3d9261f6	0.07147591
25	0x3d07d9e7	0.033166792
26	0xbb052d1d	-0.002032108
27	0x3d7eb235	0.06218167
28	0x3d1d6adb	0.038431983
29	0x3daadb9e	0.0834267
30	0xba81b4c0	-0.0009895787
31	0xbd647caa	-0.05578295
32	0xbc891a87	-0.016736282
33	0x3d0673d1	0.032825295
34	0x3d21cdd1	0.039502922
35	0x3db5418f	0.08850395
36	0xbd2b683a	-0.041847445
37	0xbe0baa4d	-0.13639183
38	0x3d6149f2	0.05500216
39	0xbcdbc3e6	-0.02682681
40	0xbd2fcdff	-0.042921063
41	0x3d95970b	0.073042
42	0x3c8ecd60	0.017431915
43	0x3ce58e1a	0.02802186
44	0xbd9004a4	-0.07032135
45	0xba131276	-0.0005610356
46	0x3c98ba68	0.018643573
47	0xbdd65c80	-0.10466862
48	0xbd83c727	-0.0643447
49	0xbda4cb0e	-0.08046542
50	0x3d77683f	0.06040215
51	0x3caeaaf3	0.02132175
52	0xbc0eca68	-0.00871525
53	0xbb651862	-0.003495716
54	0x3c8431f8	0.016137108
55	0xbcf44d49	-0.029822009
56	0xbd9b7125	-0.0758994
57	0x3d3010dd	0.042984832
58	0xbc61b8ec	-0.013776999
59	0xbdf84d46	-0.12124114
60	0xbc60bb8b	-0.013716589
61	0x3da61e75	0.08111278
62	0x3d6780a2	0.05651916
63	0xbdce3c57	-0.10070103

a2c_network.value.weight f4 [1, 64]
0	0x3d33235e	0.0437349
1	0xbccd4ff2	-0.025062535
2	0xbd1a2963	-0.037637126
3	0x3d11f61c	0.0356351
4	0x3d574a5a	0.05256114
5	0x3d79fb06	0.06103041
6	0xbd948f84	-0.07253936
7	0x3be47570	0.0069720075
8	0x3d1c9d9a	0.038236238
9	0x3cc0a7b4	0.023517467
10	0x3d5a7041	0.05332971
11	0x3bb90e6f	0.0056474726
12	0x3d231752	0.03981716
13	0xbd0a8298	-0.03381595
14	0xbcaafc75	-0.020872334
15	0x3c2c8859	0.010530555
16	0xbcc41cfc	-0.023939602
17	0x3cc5494d	0.024082804
18	0x3c613485	0.013745432
19	0x3d451a8c	0.04812102
20	0xbd7f796c	-0.062371656
21	0xbad4ba37	-0.0016229813
22	0xbd1b7214	-0.03795059
23	0x3c999153	0.018746054
24	0x3ca06dd0	0.019583613
25	0x3d4da463	0.0502056
26	0x3da1ad71	0.078944094
27	0x3b5fe9c6	0.003416644
28	0x3d2dd235	0.042436797
29	0x3d6148ec	0.055001184
30	0x3cb05324	0.02152402
31	0xbc0bd933	-0.008535671
32	0x3ccf0c81	0.025274517
33	0x3bede6d5	0.0072601833
34	0xb8230d79	-3.8874776e-05
35	0x3d534ee6	0.051588915
36	0xbc8be0a3	-0.017074889
37	0xbd0fc1aa	-0.0350968
38	0x3daba376	0.08380787
39	0x3c7776a9	0.015103974
40	0xbc6802f7	-0.014160863
41	0x3d519caa	0.051174797
42	0x3c5dd7d2	0.013540225
43	0xbc175ac0	-0.009237945
44	0xbc8f462e	-0.017489519
45	0x3bd0d2e1	0.006372795
46	0x3b3341fd	0.0027352565
47	0xbc5b78f0	-0.013395533
48	0xbc95a3f1	-0.01826665
49	0xbb58553b	-0.0033009786
50	0x3cb41897	0.021984382
51	0xbce74cc6	-0.02823485
52	0x3c94d85b	0.018169573
53	0x3c88b69b	0.016688636
54	0x3cbacd81	0.02280307
55	0xba06e053	-0.0005145121
56	0xbb0321c5	-0.0020009142
57	0x3c6ab377	0.014325014
58	0xbc9b18fd	-0.018932814
59	0xbd13b463	-0.036060702
60	0xbc4193c5	-0.011815016
61	0x3d59ab2b	0.053141754
62	0x3d3278e9	0.04357234
63	0xbdf42895	-0.11921803

a2c_network.mu.weight f4 [6, 64]
0	0x3c0bd6f0	0.008535132
1	0x3b8e748a	0.0043473886
2	0xbc803c0f	-0.015653638
3	0xbda5dbb5	-0.080985464
4	0xbd17e1e9	-0.03708068
5	0xbbf0e42f	-0.0073514204
6	0x3da48fa4	0.0803521
7	0x3d1df714	0.03856571
8	0xbdf3d7c3	-0.11906388
9	0xbc742389	-0.01490105
10	0xbbfc04b7	-0.0076909917
11	0x3dfe4920	0.12416291
12	0xbd4a9fc1	-0.04946876
13	0x3cecde09	0.028914468
14	0x3d84354a	0.064554766
15	0x3d944ce5	0.07241229
16	0x3dd1580e	0.10221873
17	0x3dc440c0	0.095826626
18	0x3d06e212	0.03293044
19	0x3d86d148	0.06582886
20	0x3e146bc9	0.14494242
21	0x3d4308fc	0.04761599
22	0xbe35fdd2	-0.17772606
23	0x3de2dfcf	0.11077844
24	0xbd5b18e2	-0.053490527
25	0xbdad82c1	-0.08472205
26	0x3d3326c9	0.04373816
27	0xbdc13d22	-0.09435488
28	0x3d4bbca5	0.049740452
29	0x3d2ad309	0.041705165
30	0xbd8fe2e7	-0.070257
31	0x3d53ead3	0.051737618
32	0xbd185ca4	-0.037197724
33	0xbdf0b269	-0.11752779
34	0xbd93d9d7	-0.07219284
35	0xbc301d16	-0.010749122
36	0xbce8004e	-0.028320458
37	0xbc7a8280	-0.015289903
38	0xbd847952	-0.064684525
39	0xbd20aca5	-0.039227147
40	0x3d05473d	0.03253864
41	0xbdc75598	-0.097331226
42	0xbc4c2217	-0.0124592995
43	0x3ce0aad1	0.027425202
44	0x3d9d1839	0.07670636
45	0x3dbe0684	0.092785865
46	0xbd883831	-0.06651343
47	0x3dc550f5	0.09634582
48	0xbcf1e623	-0.029528683
49	0x3d25c48e	0.040470652
50	0xbc9297f0	-0.017894715
51	0xbc4d86e9	-0.012544372
52	0x3d34b869	0.04412118
53	0x3d291c10	0.041286528
54	0x3d62762d	0.055288482
55	0xbd8b163f	-0.067913525
56	0x3a8e6e87	0.001086668
57	0x3d9db431	0.077003844
58	0x3df8474a	0.12122972
59	0x3d7135c1	0.058889154
60	0x3d973f12	0.073850766
61	0xbdd67263	-0.10471036
62	0xbda67882	-0.08128454
63	0x3ddb1f61	0.106993444
64	0xbd8a87a9	-0.06764156
65	0x3a312cb1	0.00067586737
66	0x3d8f605e	0.070008025
67	0x3d0ab3e8	0.03386298
68	0xbd414832	-0.04718799
69	0xbc93d12a	-0.018044073
70	0xbcd08d62	-0.025458042
71	0xbd173a35	-0.036920745
72	0xbded5f48	-0.11590439
73	0x3e123212	0.14276913
74	0xbd9a108c	-0.07522687
75	0x3cbea102	0.023270134
76	0xbd935651	-0.07194198
77	0x3d8380c6	0.06421046
78	0x3c4997c6	0.012304252
79	0xbd6fbbbe	-0.058528654
80	0x3c2405ec	0.0100111775
81	0xbd099c20	-0.033596158
82	0xbdad0338	-0.084478796
83	0x3dca2671	0.09870613
84	0xbe20bbb7	-0.15696608
85	0x3c6eb9a0	0.014570624
86	0x3d3ae404	0.04562761
87	0x3cf99d81	0.030470612
88	0x3cba6245	0.022751937
89	0xb880669b	-6.1226274e-05
90	0x3d25b160	0.04045236
91	0xbccf37b0	-0.025295109
92	0xbd49f84d	-0.049309064
93	0xbd344428	-0.04401031
94	0xbdfaf3e0	-0.12253547
95	0xbc59c4f1	-0.013291583
96	0xbd64ae97	-0.055830564
97	0x3d845bb8	0.064628065
98	0x3d3efb5a	0.046626426
99	0xbdc0afe3	-0.09408548
100	0xba359c66	-0.0006927907
101	0x3d41db35	0.047328193
102	0xbda3612d	-0.07977519
103	0xbcda904c	-0.026680134
104	0x3cddb939	0.02706586
105	0xbcbb4cbe	-0.022863742
106	0xbcb1baeb	-0.021695575
107	0xbd852cb8	-0.0650267
108	0x3dfd7cf6	0.1237735
109	0xbcc4cede	-0.024024423
110	0x3e18c9fc	0.14920801
111	0x3d8c849d	0.068612315
112	0x3d614271	0.054995004
113	0x3de90b52	0.11379112
114	0xbd223213	-0.039598536
115	0x3de6116c	0.11233792
116	0xbd30f0ff	-0.04319858
117	0xbd0c4355	-0.0342439
118	0xbd295364	-0.041339293
119	0x3d1a97ec	0.03774254
120	0x3d8fd34c	0.070227236
121	0xbd88bb1e	-0.06676315
122	0x3df2c249	0.11853463
123	0x3df8018d	0.12109671
124	0x3cd87167	0.026421262
125	0xbd848cac	-0.064721435
126	0x3e23d004	0.1599732
127	0xbe00c137	-0.12573706
128	0xbd726210	-0.05917555
129	0x3cd92f6e	0.026511874
130	0xbe0b9e38	-0.13634574
131	0x3e32ee25	0.17473657
132	0xbd1869c4	-0.03721024
133	0x3d5f75aa	0.054555573
134	0x3dd1bf96	0.1024162
135	0x3d4c0c59	0.049816463
136	0x3e3abf77	0.182371
137	0x3c1ddc4e	0.009635044
138	0xbb77342b	-0.0037720304
139	0x3d15e75c	0.036597595
140	0xbcecb6b1	-0.028895708
141	0xbce843ff	-0.028352736
142	0x3dcfcf62	0.10146977
143	0x3d52e495	0.051487524
144	0x3c90b1b8	0.017662868
145	0xbcb99250	-0.022652775
146	0x3d65609d	0.05600034
147	0x3cb0d249	0.021584647
148	0xbd79e87f	-0.06101274
149	0xbe07b315	-0.13251908
150	0xbd7bf48d	-0.06151252
151	0xbceb5591	-0.028727325
152	0x3cdf4209	0.027253168
153	0xbd997e26	-0.07494764
154	0xbd52428b	-0.05133299
155	0xbd54280d	-0.051796008
156	0xbca14be9	-0.019689517
157	0xbd271ee7	-0.040800955
158	0x3da5e785	0.081007995
159	0x3db301d5	0.08740584
160	0x3e0a71ac	0.13519925
161	0x3e1b8f91	0.15191485
162	0x3d8ad994	0.06779781
163	0xbc1be944	-0.009516064
164	0x3d18d490	0.03731209
165	0x3d3e2e61	0.04643095
166	0x3d311d5c	0.04324089
167	0xbcfbedca	-0.030753035
168	0x3d8ffc69	0.07030565
169	0xbdbbaa01	-0.09163285
170	0x3d6aab33	0.057292175
171	0x3d4a1787	0.049338844
172	0x3df2db6d	0.118582584
173	0xbe0d18a6	-0.13778934
174	0x3df79a58	0.120899856
175	0x3dce0f9c	0.10061571
176	0xbd810921	-0.06300569
177	0xbbe45478	-0.0069680773
178	0x3ca3368f	0.019923477
179	0x3de5a91f	0.11213898
180	0xbc8a0d91	-0.016852172
181	0xbd5d143e	-0.053974383
182	0xbe04e38c	-0.12977427
183	0x3de10ceb	0.10988792
184	0x3da9caa2	0.08290602
185	0x3dd899ac	0.105761856
186	0x3d4939bc	0.049127325
187	0xbbee4e3c	-0.00727251
188	0xbddf1f7e	-0.108946785
189	0x3e2873dd	0.16450448
190	0xbd3d642f	-0.04623812
191	0x3bd4c2b6	0.006492938
192	0x3d44a830	0.04801196
193	0xbdb1bb34	-0.08678284
194	0x3d9ba6ec	0.07600197
195	0x3df50c55	0.11965243
196	0x3c7c7f45	0.015411203
197	0x3d2457cf	0.040122803
198	0x3c912bbd	0.017721051
199	0x3dc2cb30	0.09511411
200	0x3e079667	0.13240968
201	0xbc256e0a	-0.010097036
202	0x3deab3cd	0.114600755
203	0x3dd0f680	0.10203266
204	0x3bccb10f	0.006246693
205	0xbdae4c6d	-0.08510671
206	0x3c442a3f	0.011972963
207	0x3cde106f	0.027107446
208	0xbda118dd	-0.078660704
209	0x3e06fa62	0.13181451
210	0xbdc6e801	-0.0971222
211	0x3dc5738c	0.096411794
212	0xbca9f197	-0.020745082
213	0xbd944cb0	-0.072411895
214	0xbca61e0f	-0.020278005
215	0xbcab1911	-0.020885976
216	0x3d815061	0.06314159
217	0x3c076f71	0.008266316
218	0xbde27892	-0.11058153
219	0x3db39cb6	0.087701246
220	0x3da69cc2	0.08135368
221	0x3e007a1c	0.12546581
222	0x3c2c4484	0.010514382
223	0x3b76cc01	0.0037658217
224	0x3d5a5b1c	0.053309545
225	0x3cb221c5	0.021744618
226	0x3c82919b	0.01593857
227	0x3e17594a	0.14780155
228	0xbd34a7c9	-0.044105325
229	0xbe18daa7	-0.14927159
230	0x3d63d8ff	0.055626865
231	0xbd88c8af	-0.06678902
232	0xbd85c809	-0.06532294
233	0x3d42edf9	0.04759023
234	0x3e046f72	0.12933138
235	0x3d82432d	0.06360469
236	0xbd85f2eb	-0.065404736
237	0x3e2147a5	0.15749986
238	0x3c21ec6d	0.009883028
239	0xbe1ff67f	-0.15621375
240	0xbba07541	-0.0048967903
241	0xbe20ec6f	-0.15715192
242	0x3c88c7ca	0.01669683
243	0x3d31d6f7	0.043417897
244	0x3d3d0f1a	0.04615698
245	0x3d01f81f	0.031730767
246	0x3d900235	0.07031671
247	0xbb3462ac	-0.0027524633
248	0xbdc9cf2e	-0.098539695
249	0x3dff4113	0.12463584
250	0x3d5f1164	0.054459944
251	0xbe2ecca1	-0.17070247
252	0xbd925006	-0.071441695
253	0x3df280b3	0.11840954
254	0xbcf1632b	-0.029466232
255	0x3cae3a63	0.021268075

a2c_network.mu.bias f4 [6]
0	0xbd5267ce	-0.051368527
1	0x3cebc3b6	0.028779846
2	0x3cd9fb72	0.026609156
3	0x3e013e52	0.1262143
4	0xbce3624d	-0.027756834
5	0xbc42b08c	-0.011882912

exp_avg f4 [6]
0	0x3c12372c	0.008924287
1	0x3ba1bd56	0.0049359007
2	0x3b7b9c92	0.0038392884
3	0xbc81ace6	-0.015829515
4	0x3c2f1527	0.010686195
5	0xbc0e0234	-0.008667517

exp_avg_sq f4 [6]
0	0x3ab83eb3	0.0014056772
1	0x3aba2537	0.0014201765
2	0x3aa28799	0.001240003
3	0x3aa486a9	0.0012552339
4	0x3aa1b78d	0.0012338028
5	0x3a95f684	0.0011441265
