IsaacGymEnvs/isaacgymenvs/runs/Bolt_18-15-12-34/nn/last_Bolt_ep_350_rew_0.03156958.pth (torch, 612432 bytes, 36 tensors)

value_mean_std.running_mean f8 [1]
0.055979173662516986
00000000: 7975 4660 4da9 ac3f

value_mean_std.running_var f8 [1]
0.0015650254159051962
00000000: fd5f a33e 31a4 593f

value_mean_std.count f8 []
33601.0
00000000: 0000 0000 2068 e040

running_mean_std.running_mean f8 [30]
-0.156988360873548 0.27223525759774847 -0.4521796215851315 -0.5837120113830159 -0.2458214575147514 -0.042514247269335836 0.07971522871864535 -0.07201039395834158
-0.34572445964020015 0.07170606486804854 -0.020566343431011287 0.011558421011567382 -0.10525897383198964 -0.12995088976822255 0.13131436372572602 0.1333808532354644
-0.09684121793646086 -0.08522983126339635 -0.002196004430973902 -0.00628192159865808 0.004307065803763178 0.020741975341866063 -0.006358746482788521 -0.0012632439340206502
-0.2305157172290364 -0.29082767735186893 0.25423503154963606 0.3236683890082485 -0.2317322955323956 -0.1877299037144855
00000000: fefa e6d1 3118 c4bf 6cd4 0c6e 4d6c d13f
00000010: 080d a8cb 82f0 dcbf 9284 e5cf c4ad e2bf
00000020: 1528 57d8 1377 cfbf c08e 456b 6dc4 a5bf
00000030: 51f9 569c 3768 b43f 5ced 05ef 456f b2bf
00000040: 5e3e e57b 5920 d6bf c07a 8823 545b b23f
00000050: 05ed bcf1 570f 95bf 1697 e701 f1ab 873f
00000060: d50a 388a 40f2 babf bcff d112 3ba2 c0bf
00000070: ac38 d9b8 e8ce c03f e289 47b1 9f12 c13f
00000080: e220 f107 96ca b8bf a17d eb49 9fd1 b5bf
00000090: 0c1c d0e6 5afd 61bf 3307 287d 12bb 79bf
000000a0: 0e58 4d2c 49a4 713f 01b3 fd66 623d 953f
000000b0: d67d fe02 a10b 7abf c215 8bd8 6db2 54bf
000000c0: 9839 5bfd 8981 cdbf dfdd bfb0 eb9c d2bf
000000d0: ad34 8002 6345 d03f 1386 629e fbb6 d43f
000000e0: f48b 5e63 67a9 cdbf 40ac 7792 8807 c8bf

running_mean_std.running_var f8 [30]
1.102440477320898 1.228056587411147 1.42817571870494 2.1064951083022305 0.9358270149259024 0.26107064549976283 0.17572925478497753 0.2038439455238659
0.5124224332922235 5.216942741983835 1.3500085416835417 0.0203536320530255 0.09658506400172719 0.08995129269609349 0.103322108370066 0.10644511997145642
0.079654004683366 0.11239219395377353 0.14169191311300067 0.16640634676336802 0.16215865612230942 0.1430928128713374 0.16118028424103178 0.13736189137113813
0.7107931370250345 0.6822086273361284 0.7359546261131684 0.6980917460389297 0.630139636802767 0.7882701333459413
00000000: 0414 3ea0 98a3 f13f 8517 09aa 1ea6 f33f
00000010: d676 4cc8 ced9 f63f 89bc 7a1b 1ada 0040
00000020: e33d fa7e 4bf2 ed3f 6b7e 17a7 61b5 d03f
00000030: 3e3f 20d5 4b7e c63f 319d c1f3 8e17 ca3f
00000040: 4942 17bb c365 e03f 57b3 f73c 26de 1440
00000050: 999f 7d8e a299 f53f 751a 1720 95d7 943f
00000060: 6163 2b7b ccb9 b83f 51d6 5c44 0c07 b73f
00000070: 3438 6754 5173 ba3f aea0 18c5 fc3f bb3f
00000080: ee48 1c71 3464 b43f f06d 5b1d bcc5 bc3f
00000090: 14c9 76ea f522 c23f 2e06 999c cd4c c53f
000000a0: 2981 6766 9dc1 c43f fa9a c983 dd50 c23f
000000b0: aba0 c938 8ea1 c43f 62ef 930f 1395 c13f
000000c0: f7cc b73f d1be e63f aba5 ee2f a7d4 e53f
000000d0: f4de 4fb7 f08c e73f 1d08 5b80 c456 e63f
000000e0: 0266 7f99 1a2a e43f d14c 6449 8239 e93f

running_mean_std.count f8 []
16801.0
00000000: 0000 0000 4068 d040

a2c_network.sigma f4 [6]
-0.041116137 -0.1589276 -0.15632524 -0.15092944 -0.10434701 -0.13906153
00000000: 6569 28bd ebbd 22be b913 20be 3f8d 1abe
00000010: e3b3 d5bd 2566 0ebe

a2c_network.actor_mlp.0.weight f4 [256, 30]
0.15098406 -0.13352 0.08455176 0.008920786 0.010762514 0.10375388 -0.018442659 0.18882082
0.04507372 -0.04390675 -0.022933442 0.03236371 0.08733993 0.18472159 0.12104513 -0.018627338
0.025528511 0.03140515 0.1227912 -0.08710491 -0.20705968 -0.08081076 -0.18355691 0.112634175
0.028159684 0.046175465 -0.039066862 0.02547755 0.14200953 -0.15216447 -0.023989528 -0.15770155
0.027380073 -0.079580806 -0.042702574 -0.045686685 0.18368 -0.10380369 -0.13742617 0.018185345
0.14091168 0.069105454 0.15766142 -0.11635307 -0.2722462 -0.110606246 -0.16347325 0.07358161
0.033502623 0.1550001 -0.1787911 -0.05102004 0.10174152 -0.09305178 0.10655305 0.0019118659
0.11860294 -0.06884735 -0.08464802 0.08177568 0.01216112 -0.08315358 0.07068245 0.19879943
-0.15935056 -0.07534352 0.21968716 -0.023709072 -0.199954 -0.09708928 -0.05554248 0.056450296
-0.031883907 -0.0683197 -0.08128149 -0.13745224 -0.11154237 -0.08848939 -0.2709098 -0.14403027
0.11097018 -0.019094665 0.023826193 -0.13739568 -0.15009068 -0.040921867 0.042476345 -0.1917518
-0.10817443 -0.06045183 -0.006326851 0.005040519 0.037887078 -0.22007884 -0.12970468 -0.10908619
-0.09120383 -0.17694855 0.11093154 -0.08462163 0.11492184 0.12379027 -0.10427905 0.21402012
-0.07041829 -0.10867722 -0.16687079 -0.14241974 0.061097898 0.0025590302 0.1393337 -0.12313142
0.06488246 -0.075339794 -0.0697312 0.10178455 0.08053306 0.10398588 0.1638965 -0.13776165
0.10278143 -0.08891236 0.08475724 -0.1146915 0.18141915 -0.046143923 0.14562397 0.09332863
0.13177058 -0.09692641 0.11562229 0.070245706 0.042789564 -0.1460821 0.079742745 0.051835146
-0.1409645 0.12126579 0.14428619 -0.09990984 -0.044648837 -0.028272582 0.14570127 -0.035539594
-0.06230464 -0.055295724 -0.16014753 0.13416879 0.16466849 -0.16089308 -0.009985467 0.11391952
0.02646825 -0.07921243 0.10585882 0.033121906 0.078998126 -0.043244485 -0.012287352 0.08070833
0.02053707 -0.084265396 0.14118992 0.1018374 -0.09542629 0.0010601135 0.003455805 -0.047695775
0.03674022 0.102399066 -0.14514244 -0.08463055 0.11311648 0.08091621 -0.048021756 -0.11127586
-0.1101116 -0.1287307 -0.11702536 0.053507924 0.08814837 0.08785867 -0.2631052 -0.12894006
-0.011830823 0.26302958 -0.038996186 -0.08168904 0.052959684 -0.09775621 -0.19473949 0.14700872
-0.07131299 -0.023492815 -0.13460213 0.116265416 0.17799813 0.034124378 -0.15627997 -0.20883906
-0.11731394 0.14678468 0.029597221 0.099227466 0.10201627 0.0470158 0.01684131 -0.20915219
-0.12041345 -0.16045533 -0.0012311337 -0.1392983 -0.05387845 -0.09209614 0.041716855 -0.0694739
-0.127173 0.13234848 0.019381605 0.1549509 -0.009691431 -0.0127608655 -0.020053413 -0.13640867
-0.02317778 -0.12679385 0.108436 -0.10843468 0.11913386 -0.02419728 0.111943945 -0.091024294
0.12493232 -0.043305986 0.028967807 0.086312644 -0.066523835 0.045071285 -0.011783775 -0.16023228
0.13861018 -0.2192144 0.06765615 0.14142986 0.16470984 0.051861685 -0.22675216 0.013672396
0.1857591 -0.19859229 -0.056636922 -0.06341504 -0.07609037 -0.08377868 -0.09710197 0.015671447
00000000: 919b 1a3e 78b9 08be 7929 ad3d 7d28 123c
00000010: 4155 303c ea7c d43d 0f15 97bc 3f5a 413e
00000020: 399f 383d 90d7 33bd eade bbbc cf8f 043d
00000030: 47df b23d a827 3d3e 82e6 f73d 5c98 98bc
00000040: 2b21 d13c b0a2 003d f479 fb3d 0f64 b2bd
00000050: 7407 54be 1d80 a5bd 58f6 3bbe bfac e63d
00000060: 23af e63c 7c22 3d3d 9304 20bd 4cb6 d03c
00000070: f26a 113e 01d1 1bbe b085 c4bc 847c 21be
00000080: 2d4c e03c 43fb a2bd e5e8 2ebd f621 3bbd
00000090: 9c16 3c3e 0797 d4bd 72b9 0cbe 6ff9 943c
000000a0: 274b 103e 2987 8d3d ff71 213e 854a eebd
000000b0: db63 8bbe 8785 e2bd 8865 27be f5b1 963d
000000c0: 0c3a 093d 59b8 1e3e 0415 37be 64fa 50bd
000000d0: dc5d d03d ee91 bebd 7c38 da3d 9397 fa3a
000000e0: 19e6 f23d d7ff 8cbd f15b adbd 027a a73d
000000f0: 6f3f 473c 6d4c aabd f6c1 903d 1492 4b3e
00000100: cb2c 23be b44d 9abd acf5 603e 8739 c2bc
00000110: bec0 4cbe bfd6 c6bd 8380 63bd 6d38 673d
00000120: b398 02bd 33eb 8bbd e976 a6bd 48c0 0cbe
00000130: 5370 e4bd ed39 b5bd b0b4 8abe ac7c 13be
00000140: 5544 e33d 6a6c 9cbc 262f c33c 74b1 0cbe
00000150: 5fb1 19be b09d 27bd adfb 2d3d 955a 44be
00000160: 8e8a ddbd 579c 77bd 7951 cfbb f02a a53b
00000170: 7b2f 1b3d 595c 61be 4ed1 04be 9568 dfbd
00000180: 13c9 babd 0032 35be 1330 e33d 1b4e adbd
00000190: 245c eb3d c185 fd3d 4190 d5bd 1728 5b3e
000001a0: 7737 90bd 2a92 debd 2de0 2abe 7bd6 11be
000001b0: ca41 7a3d 67b5 273b 7ead 0e3e 532c fcbd
000001c0: 18e1 843d c04b 9abd 3bcf 8ebd 6b74 d03d
000001d0: 84ee a43d 8df6 d43d 7cd4 273e 6411 0dbe
000001e0: 127f d23d af17 b6bd 3495 ad3d 61e3 eabd
000001f0: f1c5 393e 6901 3dbd 731e 153e 1523 bf3d
00000200: deee 063e 5b81 c6bd 61cb ec3d fbdc 8f3d
00000210: 1c44 2f3d 8c96 15be 2a50 a33d 1751 543d
00000220: ff58 10be 335a f83d c2bf 133e 889d ccbd
00000230: b3e1 36bd e79b e7bc b732 153e f791 11bd
00000240: 2633 7fbd c57d 62bd b7fd 23be 8b63 093e
00000250: db9e 283e 28c1 24be 169a 23bc a34e e93d
00000260: f2d3 d83c 203a a2bd 82cc d83d d6aa 073d
00000270: c5c9 a13d 2121 31bd e450 49bc 694a a53d
00000280: 5c3d a83c 5693 acbd 1794 103e 2090 d03d
00000290: dc6e c3bd 82f3 8a3a c97a 623b a55c 43bd
000002a0: ea7c 163d 9ab6 d13d 38a0 14be c852 adbd
000002b0: 9da9 e73d 66b7 a53d 76b2 44bd 99e4 e3bd
000002c0: 3182 e1bd fbd1 03be feaa efbd 202b 5b3d
000002d0: 2287 b43d 3fef b33d bab5 86be dd08 04be
000002e0: 11d6 41bc d0ab 863e 77ba 1fbd 954c a7bd
000002f0: 41ec 583d 6834 c8bd ca69 47be 7489 163e
00000300: 8b0c 92bd 0174 c0bc 24d5 09be 901c ee3d
00000310: 2445 363e 01c6 0b3d db07 20be e8d9 55be
00000320: 4a42 f0bd b94e 163e df75 f23c c537 cb3d
00000330: e8ed d03d a493 403d c9f6 893c fe2b 56be
00000340: 549b f6bd 674e 24be fe5d a1ba 37a4 0ebe
00000350: a6af 5cbd e79c bcbd 4bdf 2a3d 5548 8ebd
00000360: a439 02be 5c86 073e 2cc6 9e3c 73ab 1e3e
00000370: cfc8 1ebc f312 51bc 0e47 a4bc b7ae 0bbe
00000380: 54df bdbc 3fd6 01be b213 de3d 0013 debd
00000390: 74fc f33d 6039 c6bc de42 e53d f26a babd
000003a0: 84dc ff3d 9e61 31bd e54d ed3c afc4 b03d
000003b0: a63d 88bd ab9c 383d bc10 41bc ee13 24be
000003c0: d4ef 0d3e bd79 60be 4f8f 8a3d fdd2 103e
000003d0: b2a9 283e eb6c 543d b831 68be 2f02 603c
000003e0: a237 3e3e c75b 4bbe 1efc 67bd bfdf 81bd
000003f0: 45d5 9bbd 2894 abbd 66dd c6bd 6861 803c

a2c_network.actor_mlp.0.bias f4 [256]
-0.13570707 0.08948213 0.13061167 0.12415258 -0.09179784 0.012612406 0.004592509 -0.051767077
-0.06743064 0.10028252 0.16989574 0.014013981 -0.020769069 -0.074161574 0.09537555 -0.015619408
0.015504405 0.016075127 -0.085380405 0.06299523 0.05701129 0.08510164 -0.13654937 0.17099084
-0.0015146759 0.02621348 0.05001363 -0.0072918357 0.029338067 -0.09547865 -0.03070017 0.103294656
0.040406477 0.048321847 0.05051451 0.14511646 -0.11582733 0.18634625 0.008224624 -0.09535182
-0.10827428 -0.011378027 -0.009533164 -0.052186314 -0.071735635 -0.061821815 0.16529223 0.014908211
0.20236038 -0.07512201 0.006964451 0.055936053 -0.051783066 0.018494865 -0.021544414 -0.06668088
0.16286188 -0.017391164 0.028432066 0.013969078 0.002420139 -0.078635305 0.04899185 -0.09454515
-0.012054903 -0.088006526 0.077821955 -0.09857798 0.03334902 -0.076556005 -0.052454982 0.013101407
0.047178704 -0.044654556 0.020639088 0.07575212 0.08692861 -0.07669139 0.047334064 -0.10118715
-0.022669265 0.033338543 -0.017034966 -0.0580109 -0.048112087 0.057151884 0.12798247 0.021732373
0.06909762 -0.0061531845 0.01135303 0.052941784 0.00903751 0.17902796 0.030736472 0.033421025
0.11822463 0.00015918516 -0.01877763 -0.11716821 -0.0052326126 0.11545684 -0.05640506 -0.038863834
-0.030301739 -0.07686027 0.0127612315 0.008152483 -0.09685791 -0.076613754 0.023214294 0.09719375
-0.102144614 0.13152239 0.048538007 0.08069305 -0.006470412 0.094002664 0.052554235 -0.02303624
-0.15233733 -0.04167582 0.024908008 -0.07318422 -0.007496435 0.03070276 -0.22797135 0.13203382
-0.045726568 0.023616089 -0.08680653 0.02283573 0.023999538 -0.15718387 0.061761267 -0.047870047
0.025436455 0.053399485 0.10071532 0.017256957 0.16212225 0.05558694 -0.06869396 -0.04311332
0.10798886 0.018752053 -0.007181233 0.09149478 0.056275934 -0.046854153 0.10136586 0.03112097
-0.071540385 -0.034996994 0.011505384 -0.10956103 0.047831036 -0.05633713 0.031730026 -0.014848112
-0.09696173 -0.09980453 -0.09971884 -0.02867554 0.03931414 -0.06471939 -0.008798825 -0.012327201
-0.034229413 -0.06954186 -0.09370596 -0.073995754 -0.03020736 0.09583986 -0.09835465 -0.025200896
-0.05456298 -0.039453715 -0.08381493 0.067534134 0.03031735 0.084653676 -0.046658993 -0.116635576
-0.0036250378 0.13124186 -0.07300721 -0.10649726 -0.056270797 0.14002694 0.022361834 -0.12212622
0.051237404 0.0841106 0.04920234 -0.06317261 0.03360664 0.106779546 0.026081655 0.07937344
0.06760142 0.0802888 -0.027971841 0.08716467 0.005260407 0.079862446 0.13247667 0.06835767
-0.1120699 -0.047832217 -0.08455224 -0.059140533 0.019846883 0.019302856 0.15171711 0.05405982
-0.046305962 -0.11184842 -0.14724654 -0.09848866 -0.010599549 -0.04499927 -0.0833731 0.09477028
-0.08089811 -0.050427355 0.090864 0.0603246 0.16864322 -0.044797286 -0.15567988 0.02586807
0.13472497 -0.075675026 0.033516202 -0.099783294 -0.039739855 -0.035940174 -0.03652475 -0.036098246
0.027001748 0.0024147192 0.03915981 -0.0780863 0.13381985 0.10101482 -0.010596588 0.09504899
0.11675141 0.0698662 -0.024749326 0.1221321 0.10494447 0.055709843 -0.07837348 -0.1215448
00000000: cbf6 0abe 6842 b73d 11bf 053e b543 fe3d
00000010: 8200 bcbd 44a4 4e3c c27c 963b b709 54bd
00000020: 1319 8abd ec60 cd3d 26f9 2d3e e69a 653c
00000030: e523 aabc 06e2 97bd 4254 c33d 8ce8 7fbc
00000040: 3006 7e3c fcaf 833c ecdb aebd a503 813d
00000050: ac84 693d c549 ae3d 99d3 0bbe 3918 2f3e
00000060: 1788 c6ba a7bd d63c 18db 4c3d 5af0 eebb
00000070: 6356 f03c 4f8a c3bd ec7e fbbc 268c d33d
00000080: 4381 253d 21ed 453d 4ee8 4e3d 6999 143e
00000090: e136 edbd 8dd1 3e3e 93c0 063c d147 c3bd
000000a0: e8be ddbd e76a 3abc fd30 1cbc 51c1 55bd
000000b0: 22ea 92bd df38 7dbd 5e42 293e 9241 743c
000000c0: 8f37 4f3e 92d9 99bd 0d36 e43b 341d 653d
000000d0: 7b1a 54bd 8b82 973c e97d b0bc fc8f 88bd
000000e0: 44c5 263e ea77 8ebc 5dea e83c 8fde 643c
000000f0: 329b 1e3b 8c0b a1bd aeab 483d e3a0 c1bd
00000100: ee81 45bc c43c b4bd 1e61 9f3d 41e3 c9bd
00000110: fb98 083d 65c9 9cbd 09db 56bd 49a7 563c
00000120: 753e 413d b2e7 36bd 4e13 a93c ed23 9b3d
00000130: a107 b23d 6010 9dbd 5de1 413d 353b cfbd
00000140: e5b4 b9bc ff8d 083d ea8c 8bbc d69c 6dbd
00000150: 2e11 45bd 1818 6a3d d60d 033e 1708 b23c
00000160: 0e83 8d3d a7a0 c9bb 0f02 3a3c 7cd9 583d
00000170: 1012 143c 1b53 373e 0ecb fb3c 7ce4 083d
00000180: c11f f23d f1ea 2639 8bd3 99bc e3f5 efbd
00000190: 5676 abbb a374 ec3d fe08 67bd af2f 1fbd
000001a0: 5a3b f8bc eb68 9dbd 7c14 513c fe91 053c
000001b0: 715d c6bd ace7 9cbd e72b be3c 840d c73d
000001c0: 3231 d1bd cead 063e cacf 463d 6642 a53d
000001d0: c005 d4bb 7884 c03d 1c43 573d 7fb6 bcbc
000001e0: 51fe 1bbe 44b4 2abd e10b cc3c 9ce1 95bd
000001f0: a8a4 f5bb 5b84 fb3c 5271 69be e033 073e
00000200: c84b 3bbd 8776 c13c 9fc7 b1bd ff11 bb3c
00000210: ae9a c43c cff4 20be 62f9 7c3d 6213 44bd
00000220: 1d60 d03c 6bb9 5a3d d543 ce3d 765e 8d3c
00000230: 6003 263e 22af 633d 6baf 8cbd 9897 30bd
00000240: 4329 dd3d e89d 993c 8c50 ebbb 9d61 bb3d
00000250: 9881 663d 24ea 3fbd e798 cf3d 68f1 fe3c
00000260: c483 92bd 0259 0fbd 1481 3c3c 8961 e0bd
00000270: 7aea 433d c3c1 66bd 58f7 013d 7f45 73bc
00000280: df93 c6bd 5166 ccbd 6439 ccbd f7e8 eabc
00000290: dd07 213d 998b 84bd f228 10bc 07f8 49bc
000002a0: 2434 0cbd f66b 8ebd e9e8 bfbd 168b 97bd
000002b0: 6d75 f7bc b047 c43d 2a6e c9bd 1c72 cebc
000002c0: 6e7d 5fbd 389a 21bd 29a7 abbd 564f 8a3d
000002d0: 175c f83c e85e ad3d 801d 3fbd a2de eebd
000002e0: 0b92 6dbb 4464 063e ce84 95bd 3c1b dabd
000002f0: 357c 66bd 3963 0f3e 2a30 b73c 501d fabd
00000300: 50de 513d 2e42 ac3d 6588 493d a460 81bd
00000310: 1ea7 093d 3caf da3d 32a9 d53c 8b8e a23d
00000320: 9d72 8a3d 746e a43d 3425 e5bc 6483 b23d
00000330: 7e5f ac3b ec8e a33d f7a7 073e 1bff 8b3d
00000340: e784 e5bd b7eb 43bd ba29 adbd 583d 72bd
00000350: ee95 a23c 0621 9e3c bb5b 1b3e d46d 5d3d
00000360: 52ab 3dbd c910 e5bd ccc7 16be 6cb4 c9bd
00000370: bba9 2dbc 2851 38bd 84bf aabd ec16 c23d
00000380: e9ad a5bd ea8c 4ebd e816 ba3d ee16 773d
00000390: cfb0 2c3e 5c7d 37bd 8c6a 1fbe 46e9 d33c
000003a0: 58f5 093e 82fb 9abd 4948 093d 2f5b ccbd
000003b0: 42c6 22bd 0136 13bd fa9a 15bd c1db 13bd
000003c0: c532 dd3c 4440 1e3b 0966 203d b6eb 9fbd
000003d0: 1208 093e dce0 ce3d 509d 2dbc 0ba9 c23d
000003e0: 5d1b ef3d 0316 8f3d 19bf cabc 6520 fa3d
000003f0: 20ed d63d 0130 643d 4682 a0bd 7bec f8bd

a2c_network.actor_mlp.2.weight f4 [128, 256]
-0.02066794 -0.03568573 -0.055003915 0.026250245 0.025845574 -0.056285955 -0.046793867 0.033505823
-0.053678297 0.05117265 -0.0069217556 -0.020334063 0.079837844 0.057526376 -0.05139146 0.03643923
-0.03539055 0.015842205 -0.016122341 0.061596166 -0.04944032 -0.019847082 -0.03008487 -0.009871648
-0.003827665 0.032795377 0.00028270303 0.0008860542 -0.046171 -0.010047548 0.024048604 -0.027146775
-0.086130306 -0.0036129477 -0.0053466195 -0.05870089 -0.01660062 0.10190159 0.021624735 -0.010972304
0.09733602 -0.12586962 0.0037350152 0.045382615 0.008693618 0.009515539 0.0076296837 -0.048595905
-0.052191526 0.038619872 -0.024888018 0.05978026 0.10326366 0.09512829 0.06815319 0.03269869
-0.034201697 -0.06537755 -0.0071307467 0.016653635 -0.039562047 -0.06946495 -0.007363931 0.036107086
-0.011350734 0.012466872 0.10797505 -0.05086339 -0.0038076853 0.033087753 -0.03377504 0.01584958
0.1020862 -0.05535661 -0.032467883 0.09625113 0.0032718065 -0.1149565 -0.05793377 -0.018892411
-0.034087464 -0.09910735 -0.03904918 0.08442232 -0.03438614 -0.05687957 -0.01854846 -0.040481742
-0.045515355 -0.027550653 0.06832036 0.056677535 -0.06657159 0.018302118 0.054647177 0.049108915
-0.060026072 0.011757544 0.039027423 0.001853971 -0.053553317 0.03131353 0.06917539 -0.0052150046
-0.11003113 -0.071433 -0.10165924 -0.014386892 0.008709901 -0.04980047 0.072909646 0.116552904
0.106843024 0.02440094 0.030753044 -0.07433448 -0.04492727 0.018969662 0.045762327 0.037864897
0.06530269 -0.0147831645 -0.091294184 -0.015404052 0.037679438 -0.07982579 0.026618464 -0.030136118
-0.044212338 0.026685974 0.008097763 -0.08154618 -0.030435162 -0.09218023 -0.061160192 0.11168299
-0.06315913 -0.02021573 0.04841558 -0.06892721 -0.036741238 -0.039286125 0.013040082 0.0076631806
-0.08087366 -0.007756065 0.016432816 -0.014202676 -0.02034141 -0.0059664547 0.07209298 -0.06516402
0.06242688 0.031438608 -0.051843848 0.03664798 0.08906313 0.11912044 0.045780245 0.026495721
0.03017921 -0.0233208 -0.010492098 0.0008360953 -0.07618316 -0.0034718742 -0.024252629 -0.08818678
0.009164716 -0.0059319516 -0.011393379 0.0348823 0.057386238 0.016117584 -0.09179447 -0.0034486656
0.021578964 0.058910683 -0.0041314936 0.0846141 -0.02236317 -0.076385014 -0.081252776 0.003577098
0.06748361 -0.046801064 0.021232689 -0.0014002033 0.058113497 0.021964973 -0.062082723 0.040496007
-0.029991737 0.021732906 0.032304134 -0.03690433 -0.0056494917 0.06582548 -0.065876335 -0.02904815
-0.00031465647 0.071482114 0.038635314 -0.030464754 -0.06986308 -0.022727188 -0.035737976 -0.1087056
-0.10339284 -0.01704164 0.016118327 0.024255149 0.069933206 -0.10267819 0.081230596 0.00772452
0.024270026 0.043491602 -0.084189475 -0.033406187 -0.009055049 -0.09219217 0.031129314 0.029979317
-0.016085992 -0.034493618 0.047266264 0.030164242 0.04829369 0.084836505 -0.040839568 0.04202085
-0.049732972 0.033915337 -0.025012003 -0.097588606 0.036253635 -0.015226491 -0.011248974 -0.036172513
-0.052474502 -0.12487018 0.06580614 -0.050632283 0.084195346 0.0062878635 -0.06576788 0.13741389
0.022913335 0.011986591 0.062223267 0.07751708 0.029156541 0.04408587 -0.047123775 -0.06276691
00000000: d04f a9bc 332b 12bd c94b 61bd c10a d73c
00000010: 19ba d33c 1a8c 66bd edaa 3fbd 673d 093d
00000020: c6dd 5bbd 6a9a 513d e5cf e2bb 9f93 a6bc
00000030: 0682 a33d c7a0 6b3d da7f 52bd 4d41 153d
00000040: aef5 10bd 83c7 813c 0013 84bc 434c 7c3d
00000050: ef81 4abd 5996 a2bc 8c74 f6bc b1bc 21bc
00000060: 90d9 7abb 7254 063d c237 9439 1746 683a
00000070: cd1d 3dbd 799e 24bc 9401 c53c ea62 debc
00000080: 1665 b0bd 34c7 6cbb b232 afbb 5870 70bd
00000090: 06fe 87bc c8b1 d03d 5b26 b13c 2ec5 33bc
000000a0: 1b58 c73d f7e3 00be 28c7 743b 1fe3 393d
000000b0: ad6f 0e3c 10e7 1b3c 6d02 fa3b 800c 47bd
000000c0: c8c6 55bd df2f 1e3d f5e1 cbbc 25dc 743d
000000d0: e67b d33d 9fd2 c23d e693 8b3d 10ef 053d
000000e0: 1417 0cbd aae4 85bd 0aa9 e9bb 346d 883c
000000f0: d00b 22bd a443 8ebd 214d f1bb 06e5 133d
00000100: 6ef8 39bc da41 4c3c 0622 dd3d 2156 50bd
00000110: 5c8a 79bb 0687 073d b257 0abd fad6 813c
00000120: 9212 d13d 9dbd 62bd 0bfd 04bd 501f c53d
00000130: ce6b 563b 506e ebbd f64b 6dbd 42c4 9abc
00000140: 4c9f 0bbd cbf8 cabd 08f2 1fbd 9ce5 ac3d
00000150: 7bd8 0cbd 8dfa 68bd f1f2 97bc 2fd0 25bd
00000160: 4f6e 3abd e8b1 e1bc 8beb 8b3d b426 683d
00000170: b056 88bd 53ee 953c b8d5 5f3d 6e26 493d
00000180: e6dd 75bd b7a2 403c 38db 1f3d f200 f33a
00000190: b95a 5bbd 9e42 003d d4ab 8d3d a1e2 aabb
000001a0: 0058 e1bd 774b 92bd b832 d0bd 00b7 6bbc
000001b0: f9b3 0e3c 94fb 4bbd a751 953d 4ab3 ee3d
000001c0: 84d0 da3d 7be4 c73c cfed fb3c ad3c 98bd
000001d0: a805 38bd 4466 9b3c 4771 3b3d 3918 1b3d
000001e0: 6bbd 853d 1635 72bc 72f8 babd 4761 7cbc
000001f0: c155 1a3d b47b a3bd f70e da3c 05e0 f6bc
00000200: ff17 35bd 8b9c da3c 7bac 043c af01 a7bd
00000210: 2953 f9bc fdc8 bcbd 1c83 7abd 0dba e43d
00000220: 9359 81bd 759b a5bc 6a4f 463d b629 8dbd
00000230: fb7d 16bd 7dea 20bd 11a6 553c 6b1b fb3b
00000240: 17a1 a5bd 9726 febb 1d9e 863c 57b2 68bc
00000250: 07a3 a6bc 4082 c3bb 7ca5 933d b774 85bd
00000260: 54b3 7f3d c5c5 003d 375a 54bd 311c 163d
00000270: bb66 b63d 6bf5 f33d 1184 3b3d 8e0d d93c
00000280: 643a f73c 430b bfbc 0ce7 2bbc 682d 5b3a
00000290: eb05 9cbd 6288 63bb 73ad c6bc 459b b4bd
000002a0: 9b27 163c d160 c2bb 4cab 3abc bee0 0e3d
000002b0: d50d 6b3d 0609 843c bdfe bbbd 0203 62bb
000002c0: 5ec6 b03c 544c 713d 7b61 87bb 284a ad3d
000002d0: f732 b7bc bf6f 9cbd db67 a6bd bf6d 6a3b
000002e0: d934 8a3d 79b2 3fbd 2df0 ad3c 0787 b7ba
000002f0: 6b08 6e3d e3ef b33c 744a 7ebd 24df 253d
00000300: 3bb1 f5bc 3509 b23c 5751 043d ff28 17bd
00000310: 5f1f b9bb 82cf 863d 2cea 86bd 63f6 edbc
00000320: 7af8 a4b9 3765 923d 1040 1e3d 3891 f9bc
00000330: 6014 8fbd 5e2e babc fc61 12bd 0ba1 debd
00000340: a0bf d3bd e99a 8bbc 950a 843c bcb2 c63c
00000350: 2439 8f3d f148 d2bd 3a5c a63d f81d fd3b
00000360: efd1 c63c 4024 323d 886b acbd edd4 08bd
00000370: a15b 14bc 40cf bcbd e702 ff3c 2f97 f53c
00000380: c5c6 83bc 2e49 0dbd 459a 413d 001b f73c
00000390: 9bcf 453d c3be ad3d 6447 27bd 0e1e 2c3d
000003a0: cdb4 4bbd cfea 0a3d f9e5 ccbc 89dc c7bd
000003b0: b17e 143d 8878 79bc 9e4d 38bc a129 14bd
000003c0: 81ef 56bd f0bb ffbd 5fc5 863d cc63 4fbd
000003d0: 9c6e ac3d 6c0a ce3b 4fb1 86bd 3ab6 0c3e
000003e0: bfb4 bb3c 6863 443c d3dd 7e3d 46c1 9e3d
000003f0: b3d9 ee3c 6393 343d dc04 41bd f08b 80bd

a2c_network.actor_mlp.2.bias f4 [128]
0.07975229 -0.022914868 0.06964808 -0.06543092 0.04247598 0.0044136527 0.075800486 -0.121108115
-0.0022465556 0.08062215 0.08084341 -0.0070383535 -0.030772809 -0.041013476 0.027670426 -0.1779473
-0.055084117 -0.04108813 -0.08101831 -0.06548873 0.03428979 -0.03334603 -0.07197361 -0.005401335
0.04344391 0.148772 -0.010716929 0.09907845 -0.06962736 -0.06184852 0.067972615 0.04682369
-0.03250588 -0.08517758 -0.025847904 -0.07139485 -0.038488217 0.04104109 -0.036202304 -0.00017534265
-0.08488867 0.005343738 -0.04416961 -0.05280536 0.035862587 0.096401766 0.065216206 0.0025405234
-0.0014051467 -0.12321727 0.025937103 0.08143691 -0.07863103 0.0067793704 -0.05250827 -0.020932194
-0.07267647 0.00082193967 0.042197105 -0.02953798 -0.115517445 -0.057352867 0.033613812 0.08247512
-0.018206416 0.007052849 0.10351793 0.03609162 0.1420182 -0.20037848 -0.044014223 -0.08301744
0.024952102 -0.009292386 -0.0255947 -0.06253623 0.13170332 -0.13055734 0.05364996 -0.05103055
-0.055682976 0.011593172 -0.13474603 -0.02277963 0.042513628 -0.05982978 -0.08678455 -0.002898974
-0.0766454 -0.06553841 0.1313069 -0.060342595 -0.040810145 -0.008451584 0.027187377 0.05597006
0.04146359 0.09667433 0.026432406 -0.06986774 -0.036107115 0.056312997 -0.16178294 -0.060694307
-0.0037714334 -0.025119388 -0.033150118 0.018367233 -0.03361967 0.083102025 -0.024401506 0.08726055
0.16591927 0.05891771 -0.07502818 -0.026625318 0.0025501158 0.0045862542 -0.082291566 0.10354428
0.08944359 -0.0926826 -0.08773418 0.00619791 -0.11207034 -0.07441466 0.051949706 0.025290905
00000000: 2b55 a33d f6b7 bbbc a7a3 8e3d a500 86bd
00000010: 4bfb 2d3d 67a0 903b 493d 9b3d 8807 f8bd
00000020: f33a 13bb 3a1d a53d 3b91 a53d fda1 e6bb
00000030: 4217 fcbc bffd 27bd 17ad e23c d137 36be
00000040: e29f 61bd 074c 28bd edec a5bd f51e 86bd
00000050: 7373 0c3d d995 08bd e666 93bd affd b0bb
00000060: 3ef2 313d b057 183e 0f96 2fbc a4e9 ca3d
00000070: ca98 8ebd e054 7dbd 3a35 8b3d 33ca 3f3d
00000080: e324 05bd 9571 aebd fcbe d3bc 7737 92bd
00000090: d2a5 1dbd b41a 283d de48 14bd 2fdc 37b9
000000a0: 1cda adbd 861a af3b 31eb 34bd 6f4a 58bd
000000b0: a6e4 123d 4a6e c53d 1390 853d e97e 263b
000000c0: e62c b8ba 5659 fcbd 0c7a d43c 65c8 a63d
000000d0: 4e09 a1bd 7b25 de3b e912 57bd fe79 abbc
000000e0: 67d7 94bd 7077 573a dfd6 2c3d a2f9 f1bc
000000f0: 6994 ecbd d7ea 6abd a3ae 093d b7e8 a83d
00000100: 9f25 95bc 961b e73b 3501 d43d ced4 133d
00000110: 386d 113e 0430 4dbe 4248 34bd 0c05 aabd
00000120: 5a68 cc3c 173f 18bc faab d1bc ff12 80bd
00000130: 3cdd 063e d3b0 05be 0fc0 5b3d 6905 51bd
00000140: d513 64bd 4af1 3d3c ddfa 09be 599c babc
00000150: c522 2e3d 1210 75bd 19bc b1bd b7fc 3dbb
00000160: 43f8 9cbd 0039 86bd 5175 063e cc29 77bd
00000170: 8a28 27bd 8378 0abc 10b8 de3c dd40 653d
00000180: bad5 293d 31fd c53d c688 d83c d116 8fbd
00000190: 0ee5 13bd 75a8 663d 6daa 25be 989a 78bd
000001a0: 272a 77bb 2dc7 cdbc 6bc8 07bd e176 963c
000001b0: c7b4 09bd 6531 aa3d abe5 c7bc a9b5 b23d
000001c0: bee6 293e b253 713d 60a8 99bd 571d dabc
000001d0: d81f 273b 4a48 963b 7b88 a8bd 060f d43d
000001e0: 332e b73d 60d0 bdbd faad b3bd d617 cb3b
000001f0: 2285 e5bd b766 98bd 37c9 543d df2e cf3c

a2c_network.actor_mlp.4.weight f4 [64, 128]
0.01149513 -0.067642994 0.0712998 0.00483463 -0.0076267044 0.07725164 0.075570606 -0.07242115
-0.10160157 0.05935696 0.0576713 0.02103915 -0.009669404 0.077715464 0.008939374 -0.03935942
0.04536621 -0.005981195 -0.10562228 0.0678767 0.023684975 0.0032160927 -0.044421036 -0.04649879
-0.00939616 0.029227711 0.015790507 0.035974864 -0.047256254 0.08169004 -0.04313181 -0.04555786
0.005242554 -0.04054107 -0.051444188 -0.062592305 -0.08900027 -0.053924605 -0.07294482 -0.04899457
-0.09587426 -0.009470673 0.030489145 0.056113094 -0.09370321 -0.064118974 -0.106157176 -0.039968718
-0.027264856 -0.06626738 0.07812012 -0.05880736 -0.032194063 7.4201824e-05 0.04991743 0.06050235
-0.02490813 -0.06632108 -0.08444659 -0.0012971539 0.066557 0.013159838 -0.07687575 0.015490307
-0.04072992 -0.012950097 0.023108676 0.047474977 -0.04614625 0.021585874 -0.07905812 -0.069689006
-0.025285726 0.016786477 0.009356221 -0.052168954 0.029732341 -0.013152105 -0.052513756 -0.08265101
-0.03356935 0.04442097 -0.039345536 0.06408886 -0.04108534 0.0041228766 -0.081922434 -0.012755485
-0.018809337 0.023171226 -0.096566014 -0.010725028 -0.05453667 -0.047019225 -0.022843692 -0.006849836
-0.09005404 0.022182193 0.001295021 0.060162235 -0.020646049 -0.017917791 0.01722283 0.04333797
0.09748951 0.033440657 -0.04755108 0.067638375 -0.07098653 0.009038056 0.0064839134 -0.011977331
-0.04037242 0.050350726 0.07883712 0.014190633 0.04385613 -0.046137355 -0.087660514 0.0071232985
-0.021240825 -0.06302579 0.0021617962 0.0288804 0.008684267 -0.028827645 -0.07409124 -0.037206538
0.0656164 0.031181868 0.0716961 -0.00012696578 0.068286344 0.11197954 -0.036106717 -0.08541195
-0.065615445 -0.038146053 0.043794017 -0.013497794 -0.07754378 0.05597564 0.019641256 -0.063449726
-0.011020202 -0.053746153 -0.11661806 0.046579745 -0.0085771205 0.081416376 -0.093162335 0.0074726576
0.09112736 0.059749935 0.040580917 -0.043912195 -0.06351433 0.040108386 0.012646034 0.039583165
-0.09683031 0.027337402 0.028808044 -0.032471586 0.10653712 0.08385999 -0.015193565 0.01319257
0.019918842 0.08305403 -0.0573695 0.008026278 0.045216363 -0.010257187 -0.17500389 0.014797517
-0.039769404 0.022723023 0.033831496 0.095122196 -0.022444282 0.1263455 0.066473775 -0.05485937
0.015362249 -0.10771766 0.019439489 -0.05519135 0.119393654 -0.036707792 -0.047247823 0.00066295645
-0.058091644 0.023192491 0.11350165 0.09555746 0.08391034 -0.013280431 0.03691042 0.06493803
0.11066003 0.111117214 0.07660032 0.01809625 0.12518445 0.005577775 0.037124943 0.021511246
0.12726055 -0.0565457 -0.09085243 0.006432065 0.03425078 0.06352466 0.018644558 -0.12336639
0.056659933 -0.018087968 -0.06301805 0.14754228 -0.0939708 -0.023843728 0.06884403 0.03795862
0.10203078 -0.007629985 0.012667024 -0.011820698 0.018974626 0.08579223 0.06701575 -0.08585464
0.07726287 0.056079317 -0.03688108 0.010700729 -0.12802564 -0.085506015 -0.020201625 0.097094044
0.011051039 0.027650312 0.012700484 -0.07355236 0.07090232 0.03382726 -0.0010254716 0.1083413
0.11476615 0.054487158 -0.05070006 0.030824946 0.10995928 -0.03828133 0.09494812 -0.04344691
00000000: 1256 3c3c 6988 8abd a105 923d d16b 9e3b
00000010: 6fe9 f9bb 1c36 9e3d c3c4 9a3d 8a51 94bd
00000020: 7c14 d0bd 4920 733d be38 6c3d 4c5a ac3c
00000030: 6b6c 1ebc 4929 9f3d 7476 123c 5837 21bd
00000040: ebd1 393d e6fd c3bb 7e50 d8bd f002 8b3d
00000050: fe06 c23c 15c5 523b d5f2 35bd 8475 3ebd
00000060: 5af2 19bc f46e ef3c 185b 813c 615a 133d
00000070: c68f 41bd 1c4d a73d fbaa 30bd e19a 3abd
00000080: bbc9 ab3b 650e 26bd 24b7 52bd 6530 80bd
00000090: c645 b6bd 0ce0 5cbd 1864 95bd 88ae 48bd
000000a0: b959 c4bd e22a 1bbc 5fc4 f93c d8d6 653d
000000b0: 78e7 bfbd cf50 83bd ef68 d9bd 3db6 23bd
000000c0: 8c5a dfbc 31b7 87bd 71fd 9f3d fcdf 70bd
000000d0: ecdd 03bd cd9c 9b38 3876 4c3d 50d1 773d
000000e0: 220c ccbc 59d3 87bd 55f2 acbd 4305 aaba
000000f0: 094f 883d 5c9c 573c 0971 9dbd 0ecb 7d3c
00000100: 6bd4 26bd a52c 54bc 684e bd3c 1f75 423d
00000110: da03 3dbd dcd4 b03c 39e9 a1bd 1cb9 8ebd
00000120: 0324 cfbc cb83 893c d64a 193c 1daf 55bd
00000130: 3d91 f33c ed7b 57bc aa18 57bd ef44 a9bd
00000140: 0480 09bd c3f2 353d c928 21bd 0541 833d
00000150: 1a49 28bd 3219 873b f3c6 a7bd 62fc 50bc
00000160: 0a16 9abc 95d1 bd3c 67c4 c5bd 07b8 2fbc
00000170: d861 5fbd 3b97 40bd b222 bbbc 9774 e0bb
00000180: 416e b8bd 6eb7 b53c b2bd a93a ad6c 763d
00000190: e721 a9bc 55c8 92bc e416 8d3c 2883 313d
000001a0: 95a8 c73d 12f9 083d ecc4 42bd fd85 8a3d
000001b0: 6361 91bd 5b14 143c 0277 d43b 913c 44bc
000001c0: 8d5d 25bd 903c 4e3d 5b75 a13d d47f 683c
000001d0: 7ca2 333d 86fa 3cbd 5b87 b3bd 8f6a e93b
000001e0: 3d01 aebc aa13 81bd ecac 0d3b 9796 ec3c
000001f0: 7548 0e3c f427 ecbc 26bd 97bd e265 18bd
00000200: e461 863d 1e71 ff3c 68d5 923d 1e22 05b9
00000210: b6d9 8b3d 8755 e53d a3e4 13bd 76ec aebd
00000220: 6461 86bd 093f 1cbd 5b61 333d da25 5dbc
00000230: 46cf 9ebd b646 653d b3e6 a03c eef1 81bd
00000240: 148e 34bc ed24 5cbd 73d5 eebd 67ca 3e3d
00000250: 0d87 0cbc a1bd a63d e5cb bebd 32dd f43b
00000260: fba0 ba3d 59bc 743d 2d38 263d 46dd 33bd
00000270: cd13 82bd b148 243d 5031 4f3c f521 223d
00000280: f84e c6bd b0f2 df3c d9fe eb3c ed00 05bd
00000290: 2230 da3d c9be ab3d 6eee 78bc a625 583c
000002a0: d72c a33c 3b18 aa3d 48fc 6abd a680 033c
000002b0: cb34 393d c30d 28bc 3834 33be 4971 723c
000002c0: 3ee5 22bd a225 ba3c e592 0a3d 6dcf c23d
000002d0: 12dd b7bc b760 013e 6723 883d 38b4 60bd
000002e0: f1b1 7b3c 149b dcbd 903f 9f3c 5310 62bd
000002f0: a984 f43d e95a 16bd ef86 41bd 41ca 2d3a
00000300: 81f1 6dbd 2efe bd3c 8e73 e83d a1b3 c33d
00000310: 2fd9 ab3d 2a96 59bc 612f 173d 3bfe 843d
00000320: baa1 e23d 6c91 e33d a1e0 9c3d 963e 943c
00000330: 5a30 003e c5c5 b63b 5310 183d 5a38 b03c
00000340: 9750 023e 779c 67bd d710 babd 12c4 d23b
00000350: 8c4a 0c3d 3819 823d 79bc 983c 85a7 fcbd
00000360: 3f14 683d 382d 94bc 9b0f 81bd 5315 173e
00000370: c373 c0bd ec53 c3bc 19fe 8c3d 7f7a 1b3d
00000380: 83f5 d03d f404 fabb 5989 4f3c 9aab 41bc
00000390: ad70 9b3c d6b3 af3d 8e3f 893d 8fd4 afbd
000003a0: ff3b 9e3d 6db3 653d 9e10 17bd 1c52 2f3c
000003b0: 2719 03be c71d afbd e17d a5bc 3ed9 c63d
000003c0: 6b0f 353c e882 e23c b115 503c 9fa2 96bd
000003d0: 3c35 913d 748e 0a3d 1e69 86ba 0be2 dd3d
000003e0: 840a eb3d ed2d 5f3d deaa 4fbd 9984 fc3c
000003f0: 5532 e13d e2cc 1cbd 2974 c23d 63f5 31bd

a2c_network.actor_mlp.4.bias f4 [64]
0.06490293 0.0046928898 -0.03167744 0.064141646 0.034071952 0.008570392 -0.068057686 -0.04585732
0.027021848 -0.03642317 0.031328265 -0.045815878 0.0023517103 -0.08764791 -0.043628816 -0.09341659
-0.044966668 -0.022366805 -0.023119662 0.020562569 -0.046456143 0.0176371 -0.019311793 -0.06649463
0.0780145 -0.026279086 -0.0719534 0.0792819 0.007958465 0.050029587 0.048452172 -0.07617554
-0.016702918 0.029500809 -0.006784421 0.09716657 -0.031493083 -0.09017673 -0.004719399 -0.09347041
-0.05148901 0.101193756 0.006679468 0.047533996 -0.092142045 -0.017250812 -0.021063147 -0.099690795
-0.023466902 -0.124051936 0.09118922 0.041117802 -0.06916948 0.008088223 -0.0033691502 -0.043588184
-0.04327695 0.011709952 -0.024781888 -0.078902274 -0.012819228 0.04964339 -0.026978262 -0.0790561
00000000: d4eb 843d d0c6 993b 34c0 01bd b25c 833d
00000010: 088f 0b3d d46a 0c3c d461 8bbd e3d4 3bbd
00000020: ec5c dd3c 7630 15bd 1152 003d 6ea9 3bbd
00000030: 271f 1a3b bf80 b3bd 21b4 32bd 3251 bfbd
00000040: f82e 38bd 973a b7bc 7265 bdbc d572 a83c
00000050: cc48 3ebd ae7b 903c c433 9ebc 562e 88bd
00000060: 11c6 9f3d 3d47 d7bc 4e5c 93bd 8c5e a23d
00000070: 3964 023c d3eb 4c3d c975 463d ec01 9cbd
00000080: 8fd4 88bc aeab f13c d94f debb 44ff c63d
00000090: e4fe 00bd 94ae b8bd 30a5 9abb 6a6d bfbd
000000a0: 24e6 52bd ac3e cf3d 70df da3b 02b3 423d
000000b0: f8b4 bcbd 9351 8dbc 9f8c acbc b02a ccbd
000000c0: a93d c0bc f10e febd 6ac1 ba3d 246b 283d
000000d0: baa8 8dbd 7784 043c f6cc 5cbb 8689 32bd
000000e0: 2c43 31bd 19db 3f3c 6303 cbbc 8497 a1bd
000000f0: bd07 52bc de56 4b3d 8401 ddbc 2ae8 a1bd

a2c_network.value.weight f4 [1, 64]
-0.0009070283 -0.0066927527 -0.022846201 -0.012468797 0.01588773 0.022404568 -0.05380105 0.007956872
0.008854259 0.048024062 0.0345275 0.011503308 0.014407574 -0.027404472 -0.0036779533 0.001505886
-0.0032996358 -0.003677499 0.022255044 0.016144518 -0.030765243 0.0022783345 -0.053235993 0.0439555
-0.008260666 0.033641756 0.076076224 -0.0554654 0.0024035547 -0.010258735 0.0014811566 0.019013649
-0.0098188855 -0.006231339 -0.0013411071 -0.0040508853 0.006979894 0.015529129 0.06201235 0.0333709
0.033303067 -0.021553408 -0.015857473 -0.027245192 0.012230781 -0.01631001 -0.0030150893 0.01069339
-0.05003083 0.04036783 0.0004126879 -0.011026531 0.043878168 0.01049898 -0.017930321 0.020895358
-0.027470993 0.009401358 -0.0066690706 -0.005388082 -0.0030261972 0.009267543 0.059723977 -0.087979935
00000000: a4c5 6dba e14e dbbb f527 bbbc ed49 4cbc
00000010: fc26 823c c989 b73c 7d5e 5cbd 8a5d 023c
00000020: 7411 113c e1b4 443d b56c 0d3d 5f78 3c3c
00000030: bf0d 6c3c 587f e0bc d109 71bb 2661 c53a
00000040: b43e 58bb 3202 71bb 3650 b63c 8241 843c
00000050: 6407 fcbc 1c50 153b fc0d 5abd af0a 343d
00000060: bf57 07bc f0cb 093d dacd 9b3d b02f 63bd
00000070: f584 1d3b 4114 28bc 5e23 c23a 83c2 9b3c
00000080: 64df 20bc 4330 ccbb 16c8 afba 4abd 84bb
00000090: 98b7 e43b e36d 7e3c a900 7e3d edaf 083d
000000a0: cc68 083d c690 b0bc 88e7 81bc 4f31 dfbc
000000b0: 9d63 483c 929c 85bc ce98 45bb 5433 2f3c
000000c0: 21ed 4cbd bd58 253d 085e d839 a0a8 34bc
000000d0: 98b9 333d ea03 2c3c 9ce2 92bc be2c ab3c
000000e0: d90a e1bc 2708 1a3c 3888 dabb 828e b0bb
000000f0: 2a53 46bb e5d6 173c 21a1 743d d32e b4bd

a2c_network.mu.weight f4 [6, 64]
0.0022053728 -0.035919864 -0.069792405 -0.035872605 -0.077012345 0.004157646 0.035718974 0.05060354
-0.081043035 0.0007306931 0.011981799 0.120573714 -0.10034844 0.055702496 0.1048445 0.10350671
0.11036234 0.08732832 0.003966896 0.097958736 0.07481296 -0.0156050585 -0.17850423 0.10408126
-0.043503154 -0.10644932 0.034617513 -0.09259178 0.059649643 0.0043493696 -0.11754855 0.10055843
-0.002754564 -0.06934209 -0.065488555 -0.033678316 -0.060995158 -0.028889747 -0.05378554 -0.07176155
0.028579423 -0.11857093 0.041500885 0.08827125 0.08383064 0.08675314 -0.031947237 0.06800087
0.00021413692 0.05373911 -0.031954557 -0.010890311 0.04206309 -0.004025875 0.03797613 -0.06174551
0.030011903 0.121011026 0.1495853 0.05113126 0.026278578 -0.06562505 -0.040160775 0.05656083
-0.049060512 0.00567784 0.070255876 0.036687784 -0.05419899 -0.011969596 -0.032828905 -0.011826809
-0.11378239 0.16352215 -0.06734374 0.027660165 -0.07929121 0.08493666 -0.015164809 -0.05325503
0.005712563 -0.04919419 -0.11945298 0.10531539 -0.1943011 -0.02874947 0.047060765 0.019756097
0.009361302 -0.017146492 0.014766902 -0.04170337 -0.04718102 -0.050505653 -0.13736367 -0.022156376
-0.04626044 0.057978474 0.020451535 -0.079066046 -0.028362608 0.053736832 -0.065771334 -0.016334468
-0.010930341 -0.040108502 -0.016965946 -0.061284207 0.1284809 -0.031823482 0.13299187 0.06430511
0.07664255 0.14727727 -0.062419064 0.09317213 -0.021831946 -0.05129702 -0.04999027 0.0020991438
0.09031901 -0.06805943 0.09795446 0.12980151 0.0012781786 -0.06837029 0.17571549 -0.13924213
-0.065899216 0.010055133 -0.15718843 0.19648163 -0.022906782 0.05294951 0.121079355 0.014318353
0.19189763 -0.034715157 -0.019170808 0.008406633 -0.018666169 -0.056605887 0.11923552 0.039181642
-0.0016458012 -0.0377862 0.042139642 -0.008028385 -0.0642045 -0.13532516 -0.0701378 -0.058277775
0.0706829 -0.10051216 -0.08263073 -0.07625939 -0.018127596 -0.04701511 0.1352081 0.09285205
0.15362367 0.15054528 0.082414046 0.0032742203 0.06501378 0.042229857 0.043131903 -0.038557578
0.043707147 -0.05745492 0.06998646 0.06467104 0.097382575 -0.13844606 0.10287463 0.07811128
-0.022578208 -0.05017269 0.046644136 0.09382834 -0.06695949 -0.044044297 -0.14970607 0.13251399
0.08219352 0.12739523 0.025653481 -0.014330155 -0.12597975 0.18130623 -0.09003068 0.0113856895
0.039095744 -0.09424529 0.018833764 0.113883674 -0.02334737 0.045876548 -0.0004859547 0.08570202
0.13370344 0.0036946528 0.102882504 0.10280947 0.0021672554 -0.08629236 -0.023033205 0.02472678
-0.10080737 0.119700596 -0.07944514 0.06514701 -0.0471737 -0.08322396 -0.058761314 -0.010411146
0.040713254 0.02378906 -0.0904523 0.08322517 0.037533756 0.102750756 -0.00078645884 -0.03430575
0.05089736 0.018792126 0.02854784 0.12972827 -0.04654154 -0.17277205 0.06100806 -0.04926758
-0.074381836 0.035872757 0.12410838 0.028030595 -0.09036832 0.14288431 -0.005360945 -0.18351811
-0.04685239 -0.16181718 0.028661624 0.023141606 0.045931492 0.0227417 0.06464306 -0.011968182
-0.11423534 0.0975477 0.02223715 -0.18857256 -0.06887886 0.11684745 -0.0017668077 0.011361445
00000000: 0488 103b b520 13bd 52ef 8ebd 27ef 12bd
00000010: a6b8 9dbd dd3c 883b 0f4e 123d a845 4f3d
00000020: e4f9 a5bd fc8b 3f3a 4f4f 443c 5aef f63d
00000030: 7c83 cdbd 4d28 643d b7b8 d63d 53fb d33d
00000040: a705 e23d 31d9 b23d bcfc 813b 979e c83d
00000050: 8a37 993d 5cac 7fbc d0c9 36be 8e28 d53d
00000060: 5d30 32bd 1a02 dabd 18cb 0d3d c2a0 bdbd
00000070: 2f53 743d 2885 8e3b 4bbd f0bd 94f1 cd3d
00000080: ea85 34bb 3a03 8ebd dd1e 86bd 46f2 09bd
00000090: 0fd6 79bd 31aa ecbc 3a4e 5cbd b8f7 92bd
000000a0: 651f ea3c 51d5 f2bd d5fc 293d 8fc7 b43d
000000b0: 66af ab3d a1ab b13d 1bdb 02bd 0a44 8b3d
000000c0: f189 6039 8a1d 5c3d c8e2 02bd 466d 32bc
000000d0: 594a 2c3d 7deb 83bb dc8c 1b3d dce8 7cbd
000000e0: 86db f53c a1d4 f73d e42c 193e 036f 513d
000000f0: 2c46 d73c 6d66 86bd a07f 24bd 54ac 673d
00000100: adf3 48bd 2d0d ba3b 50e2 8f3d ee45 163d
00000110: c3ff 5dbd 201c 44bc 9a77 06bd 3bc5 41bc
00000120: be06 e9bd 5a72 273e 84eb 89bd 9297 e23c
00000130: 6e63 a2bd 46f3 ad3d d275 78bc f221 5abd
00000140: 7430 bb3b d97f 49bd c4a3 f4bd 98af d73d
00000150: def6 46be 0284 ebbc cac2 403d 8ad7 a13c
00000160: 2560 193c cd76 8cbc e0f0 713c 27d1 2abd
00000170: e340 41bd 04df 4ebd 10a9 0cbe 4a81 b5bc
00000180: 967b 3dbd d67a 6d3d fa89 a73c 61ed a1bd
00000190: b358 e8bc 271b 5c3d 1fb3 86bd ddcf 85bc
000001a0: 2c15 33bc d048 24bd 2bfc 8abc 2605 7bbd
000001b0: 7f90 033e 5759 02bd 052f 083e 66b2 833d
000001c0: c5f6 9c3d dacf 163e 22ab 7fbd 08d1 be3d
000001d0: e9d8 b2bc d31c 52bd 99c2 4cbd ca91 093b
000001e0: 2cf9 b83d be62 8bbd 599c c83d b0ea 043e
000001f0: 8f88 a73a b905 8cbd c3ee 333e 7d95 0ebe
00000200: 2bf6 86bd 49be 243c 01f6 20be 7b32 493e
00000210: 01a7 bbbc 96e1 583d 74f8 f73d 8697 6a3c
00000220: d080 443e 7b31 0ebd 190c 9dbc f9bb 093c
00000230: cbe9 98bc 93db 67bd c131 f43d ee7c 203d
00000240: edb7 d7ba b4c5 1abd 9e9a 2c3d 7d89 03bc
00000250: a67d 83bd ae92 0abe 68a4 8fbd adb4 6ebd
00000260: 32c2 903d 52d9 cdbd 4d3a a9bd e22d 9cbd
00000270: 5380 94bc ea92 40bd fe73 0a3e 3729 be3d
00000280: 864f 1d3e 8b28 1a3e b2c8 a83d 4d94 563b
00000290: f225 853d 37f9 2c3d 14ab 303d 8dee 1dbd
000002a0: 4406 333d da55 6bbd 1055 8f3d 4072 843d
000002b0: 8470 c73d cec4 0dbe efaf d23d cff8 9f3d
000002c0: eff5 b8bc e181 4dbd ec0d 3f3d 1329 c03d
000002d0: 0f22 89bd cb67 34bd 8c4c 19be bfb1 073e
000002e0: 1455 a83d e573 023e 4027 d23c 07c9 6abc
000002f0: d600 01be 57a8 393e 0162 b8bd 0b8b 3a3c
00000300: dc22 203d ad03 c1bd 4449 9a3c d83b e93d
00000310: fc42 bfbc 0ce9 3b3d bcc7 feb9 8a84 af3d
00000320: 8ee9 083e fd21 723b 10b4 d23d c58d d23d
00000330: 8308 0e3b 0dba b0bd 22b0 bcbc d18f ca3c
00000340: 1874 cebd 9625 f53d 22b4 a2bd cc6b 853d
00000350: 3639 41bd 5371 aabd b4af 70bd 8393 2abc
00000360: f1c2 263d 46e1 c23c 0e3f b9bd f571 aa3d
00000370: ffbc 193d fd6e d23d 5c2a 4eba 3084 0cbd
00000380: c079 503d f2f1 993c 29dd e93c 7dd7 043e
00000390: 58a2 3ebd 28eb 30be 96e3 793d cdcc 49bd
000003a0: 8155 98bd 50ef 123d 892c fe3d 6ba0 e53c
000003b0: 0713 b9bd 4450 123e deaa afbb 2cec 3bbe
000003c0: 4be8 3fbd 67b3 25be c8cb ea3c 7793 bd3c
000003d0: a922 3c3d cd4c ba3c 9563 843d 3216 44bc
000003e0: 38f4 e9bd 17c7 c73d af2a b63c 2a19 41be
000003f0: 5c10 8dbd b74d ef3d 3b94 e7ba 5b25 3a3c

a2c_network.mu.bias f4 [6]
-0.06690858 -0.006433981 0.03641355 0.11062228 -0.02319008 -0.062112916
00000000: 5e07 89bd 25d4 d2bb 6026 153d ef8d e23d
00000010: 1ff9 bdbc 1d6a 7ebd

exp_avg f4 [6]
-0.013822265 -0.014946253 -0.0060703573 0.0024413436 0.0010072546 0.0029929522
00000000: c876 62bc 21e1 74bc d9e9 c6bb f3fe 1f3b
00000010: db05 843a 6825 443b

exp_avg_sq f4 [6]
0.00088097126 0.0007806215 0.00071343454 0.0008322567 0.0008933805 0.0007905403
00000000: fbf0 663a 9fa2 4c3a c805 3b3a cd2b 5a3a
00000010: c031 6a3a 433c 4f3a

exp_avg f4 [256, 30]
0.0012703005 0.0011815963 -3.3964618e-05 -0.00070191675 0.0012598715 -0.000635186 -0.00075248105 -0.0009830191
-0.0010072681 -0.000255054 -0.00093582657 -0.00019299761 0.00027052086 0.00055745663 -0.00012399816 -0.00041977759
-0.0012160435 -0.0007883444 -0.00035583222 -0.00040968077 -0.0001301971 0.0014403653 -0.00097618974 -0.001612382
-0.00015482698 0.00050592475 0.00027543138 0.00016163413 -0.0013494194 -0.0009776473 -0.0006634576 -0.0007635269
-0.00014710246 0.00038522214 -0.0006390024 0.0003894355 0.00024299994 0.0008329843 6.16121e-05 0.00020668382
0.00042791912 -0.00018614405 -0.00011459898 -0.00041733633 0.0002904545 0.0006368273 0.00044143407 0.00046404672
0.0002457385 0.00017407007 0.0004020576 -0.0005878286 8.343742e-05 0.0010480096 0.00021736101 -0.00034998942
0.00027752508 0.00033576798 0.00030915727 0.00063391443 -0.0014732892 -0.0017291805 0.00011139749 0.0005665018
-0.0020408991 0.0005879477 0.0008319862 0.0015856057 0.00047263774 0.00032520265 0.001204786 -0.0007328483
-0.00029864896 -0.0008342382 0.00022115427 0.0007539047 0.0019913851 0.0010119812 0.0018401964 0.0011591401
0.0008066002 -0.0027774519 0.0008759678 0.0026482553 0.0008490185 -0.00021284843 -0.00020632679 -0.0005524731
0.0017732214 0.0017321581 -0.00033121504 -0.000439023 2.413638e-07 -0.00014601412 -0.00012552395 4.5377255e-05
0.00012259261 0.0003458938 9.606364e-05 -0.00034359036 0.00035016108 0.00055846275 -0.00018135124 -7.3961935e-05
0.00047580485 0.00037048815 -0.00017514131 0.00062183844 0.0002197486 -0.00040383387 0.00093419984 0.00024154023
-4.4915814e-05 0.0006673531 -0.00012817848 -0.00018769644 0.00075364945 0.00039144483 -0.00012877742 0.0009686045
0.0009616669 0.0015854201 0.0006378035 -0.0007412938 0.0020165166 -0.00081735646 -0.00092172314 -0.0014834396
-0.00020256502 0.00043595015 -0.0013799634 0.0001991545 0.00031621873 0.000836745 -0.00064525416 -0.0012029614
-0.0013106436 -0.0012042846 -0.0019629279 -0.001478821 -0.0005232265 0.0027894105 -0.00029921916 -0.0031902322
-0.00064536085 0.00036136285 -0.0003530186 -9.827091e-05 -0.000936255 -0.001927834 -0.00012171745 -0.00039909413
-0.000125277 0.0001383396 3.286295e-05 -3.0229638e-05 -0.0002722091 0.0005193949 -0.00058728736 7.105494e-05
-9.926795e-05 -0.00033709346 -9.54333e-05 -4.5146822e-05 0.0003088049 0.00039224097 0.00012798765 0.0002233321
-9.4859555e-05 0.00012461966 0.00077342696 0.0004391581 -0.00017546958 0.00021193209 -7.5973585e-05 7.138703e-05
0.0006026942 0.00044993844 -6.078497e-05 0.00036994123 0.00032461298 0.00042067023 4.7230147e-05 -0.00033966848
-1.4499033e-05 -0.00018015053 0.00017624402 -0.00042809255 0.00052214117 -0.00036680998 0.00027126083 0.00062975445
0.00012130326 0.00016337408 1.3910531e-05 -8.75353e-05 0.00051117054 0.0006653086 0.00180262 0.0013340896
-0.00029457355 -0.0016506785 -0.00027405238 0.0010801678 0.0006379402 0.000481424 -0.00013712197 -0.0005887242
0.00016555969 0.0008896809 0.000114132425 -8.8712135e-05 -0.00035083512 -0.00013444287 8.256866e-05 -1.6731994e-05
-0.00025405636 4.5767854e-05 -0.00050455896 2.4926283e-05 -0.00036746723 -0.00019746956 3.875819e-05 -0.000164222
0.00035707053 0.0001895621 -0.00034174096 -0.00016730363 -0.00018338456 -0.0003935011 -3.118881e-05 0.0006160424
0.00045571398 -0.00019540697 -1.4986023e-07 -0.00019690757 0.00022957212 0.0003482292 -3.063824e-05 -0.00018309311
0.0010105537 0.0012320229 -0.00021838822 -0.00035333153 0.0007968232 -0.00024760092 -0.0001104915 -0.0010869236
0.00049901765 -0.0006864856 0.00012434147 0.0010672364 0.00010061549 0.0005908604 -0.00039223547 -0.0006995543
00000000: 3680 a63a cbdf 9a3a 3b75 0eb8 d600 38ba
00000010: 4622 a53a 9c82 26ba 2642 45ba a6d8 80ba
00000020: 4f06 84ba c5b8 85b9 4252 75ba 675f 4ab9
00000030: b2d4 8d39 4822 123a 8105 02b9 9815 dcb9
00000040: a663 9fba e6a8 4eba fe8e bab9 6cca d6b9
00000050: 8585 08b9 a4ca bc3a fce6 7fba 9056 d3ba
00000060: 0d59 22b9 09a0 043a c667 9039 557c 2939
00000070: 00df b0ba 6624 80ba e3eb 2dba 6c27 48ba
00000080: 843f 1ab9 a4f7 c939 ba82 27ba 262d cc39
00000090: cdcd 7e39 a15c 5a3a bf35 8138 44b9 5839
000000a0: 555a e039 aa2f 43b9 dc54 f0b8 efcd dab9
000000b0: 2548 9839 c2f0 263a 4770 e739 4c4b f339
000000c0: 77d6 8039 9486 3639 42cb d239 8218 1aba
000000d0: 20fb ae38 5e5d 893a 67eb 6339 c97e b7b9
000000e0: c980 9139 040a b039 6316 a239 472d 263a
000000f0: 621b c1ba aba5 e2ba 129e e938 4b81 143a
00000100: 9bc0 05bb 8120 1a3a a619 5a3a 19d4 cf3a
00000110: 5dcc f739 f67f aa39 e9e9 9d3a 9e1c 40ba
00000120: fc93 9cb9 c7b0 5aba a6e5 6739 b0a1 453a
00000130: e681 023b 74a4 843a bf32 f13a 4aee 973a
00000140: 0672 533a e905 36bb 34a1 653a 5a8e 2d3b
00000150: ab90 5e3a 1130 5fb9 6d59 58b9 d8d3 10ba
00000160: 706b e83a 9509 e33a eea6 adb9 ab2c e6b9
00000170: ca94 8134 5e1b 19b9 149f 03b9 7553 3e38
00000180: 348c 0039 1459 b539 c675 c938 eb23 b4b9
00000190: d395 b739 cd65 123a 1a29 3eb9 031c 9bb8
000001a0: 7275 f939 143e c239 23a6 37b9 df02 233a
000001b0: 516c 6639 aab9 d3b9 17e5 743a f645 7d39
000001c0: fd63 3cb8 4ff1 2e3a a667 06b9 61d0 44b9
000001d0: 8f90 453a d63a cd39 6d08 07b9 f3e9 7d3a
000001e0: 6018 7c3a dfcd cf3a 4532 273a 6353 42ba
000001f0: 8927 043b dd43 56ba cb9f 71ba f96f c2ba
00000200: a267 54b9 3d90 e439 e3df b4ba 21d4 5039
00000210: 29ca a539 0259 5b3a 4626 29ba b0ac 9dba
00000220: e7c9 abba 16d9 9dba 77a4 00bb 00d5 c1ba
00000230: 2329 09ba 8bce 363b 84e0 9cb9 3713 51bb
00000240: 6f2d 29ba 4d75 bd39 5b15 b9b9 cb16 ceb8
00000250: 026f 75ba 60af fcba 8f42 ffb8 823d d1b9
00000260: ca5c 03b9 410f 1139 53d6 0938 a795 fdb7
00000270: 49b7 8eb9 0028 083a 30f4 19ba 5503 9538
00000280: 132e d0b8 ebbb b0b9 5d23 c8b8 085c 3db8
00000290: 18e7 a139 b1a5 cd39 6c34 0639 412e 6a39
000002a0: 56ef c6b8 56ac 0239 cebf 4a3a cd3e e639
000002b0: 42fe 37b9 163a 5e39 0254 9fb8 9fb5 9538
000002c0: 20fe 1d3a b7e5 eb39 5df3 7eb8 acf4 c139
000002d0: d130 aa39 678d dc39 fc18 4638 8815 b2b9
000002e0: df40 73b7 cae6 3cb9 25ce 3839 9c71 e0b9
000002f0: 4de0 083a 6750 c0b9 0338 8e39 1b16 253a
00000300: 3164 fe38 654f 2b39 4761 6937 2893 b7b8
00000310: 1300 063a 1b68 2e3a e445 ec3a 9edc ae3a
00000320: fe70 9ab9 945b d8ba b0ae 8fb9 6b94 8d3a
00000330: 713b 273a a367 fc39 66c8 0fb9 9d54 1aba
00000340: 179a 2d39 7939 693a 615a ef38 f70a bab8
00000350: 4bf0 b7b9 3cf9 0cb9 b628 ad38 af5b 8cb7
00000360: de32 85b9 dcf6 3f38 6144 04ba c918 d137
00000370: 9ea8 c0b9 d50f 4fb9 4a90 2238 0233 2cb9
00000380: 3235 bb39 30c5 4639 b22b b3b9 3a6e 2fb9
00000390: eb4a 40b9 d34e ceb9 bbd0 02b8 e87d 213a
000003a0: e5ec ee39 29e6 4cb9 44e9 20b4 f978 4eb9
000003b0: 4cb9 7039 8892 b639 8f81 00b8 affc 3fb9
000003c0: 8e74 843a d47b a13a 24ff 64b9 5b3f b9b9
000003d0: e6e1 503a 6fd0 81b9 acb7 e7b8 1b77 8eba
000003e0: 82d0 023a 45f5 33ba a961 0239 83e2 8b3a
000003f0: 8801 d338 f8e3 1a3a f4a4 cdb9 4b62 37ba
