IsaacGymEnvs/isaacgymenvs/runs/Bolt_18-16-44-54/nn/last_Bolt_ep_850_rew_0.4563457.pth (torch, 612378 bytes, 36 tensors)

value_mean_std.running_mean f8 [1]
000000 6f d0 a7 d3 60 33 c9 3f
       0.19688043913595574

value_mean_std.running_var f8 [1]
000000 6b cc 14 ba ca 3a 8c 3f
       0.013784011653660685

value_mean_std.count f8 []
000000 00 00 00 00 01 ec 33 41
       1305601.0

running_mean_std.running_mean f8 [30]
000000 3b 20 1d 41 4e 95 ec 3f f5 92 0d ca f6 40 a0 3f
       0.8932257911446934 0.031745636143375146
000010 5d 9c ed ec 95 ca d9 bf ca 52 c1 50 cb fc 78 3f
       -0.4029898465873368 0.006100458336807344
000020 28 23 e9 7b d5 8a d6 3f 8c ab a5 45 96 f9 64 3f
       0.352223750120674 0.0025604186059146657
000030 c7 f7 36 99 3f 0b bf bf 17 5d dd 82 5b a1 94 bf
       -0.12126538744538982 -0.020146779882762447
000040 78 07 4a 9a b6 24 ec bf c8 6d 6d fc 95 ff 0f 40
       -0.8794816029987791 3.9997977944273977
000050 00 00 00 00 00 00 00 00 00 00 00 00 00 00 00 00
       0.0 0.0
000060 1d cf 4b b7 d7 7d d9 3f 77 f4 17 63 c7 54 dc 3f
       0.39830582523357966 0.44267449071032366
000070 ed 70 01 2d 9c fc d8 bf d1 05 94 8d 7c c2 d8 bf
       -0.39041809458809845 -0.38687051607129513
000080 49 41 3b 53 38 b3 db 3f 14 7b 86 f1 4f d7 d9 bf
       0.4328137219245219 -0.4037666185994777
000090 f3 59 e3 dc 1f 10 83 3f 8a 5e 31 fc 60 b6 84 3f
       0.009308098724813063 0.010113485046687094
0000a0 ea ad 73 b8 56 94 83 3f c3 f7 da 1f 05 8c 8a bf
       0.00956027746584361 -0.012962379488609238
0000b0 d1 16 06 d8 6c ea 79 3f 7f 63 33 20 f9 f4 7d 3f
       0.0063270808899511125 0.007313702724069836
0000c0 19 76 e4 4e 34 d6 e9 3f db ee f0 54 20 6d ec 3f
       0.8073979893558231 0.8883210810667735
0000d0 2e b6 e4 88 c9 f3 e6 bf 8a 85 96 51 7b 36 e9 bf
       -0.7172591851901353 -0.7879005998149051
0000e0 6a 91 2e c4 e8 97 eb 3f 2c 5c 0b 78 e5 0b e8 bf
       0.8622936088254793 -0.7514521927468016

running_mean_std.running_var f8 [30]
000000 0d fe 39 71 b6 ca f9 3f 89 8d 39 7c 28 32 c7 3f
       1.61199039677729 0.18121820512451972
000010 6a fc 30 02 61 79 e8 3f f7 78 78 aa ee 55 d3 3f
       0.764816765098556 0.3021198906661903
000020 7f 34 13 a9 31 27 db 3f e8 3c 14 86 40 80 ab 3f
       0.4242672110675087 0.053712860457489076
000030 93 2a bf c3 69 76 bd 3f e5 63 10 bc 22 b5 97 3f
       0.11508809117291667 0.02315191529132567
000040 2f 7a 3c 56 82 18 b3 3f 35 b0 31 d8 07 bf 4a 3f
       0.07459272961975992 0.0008162296584379782
000050 4f c2 fd 51 4a b3 b9 3e 4f c2 fd 51 4a b3 b9 3e
       1.5318603984981613e-06 1.5318603984981613e-06
000060 f2 e7 93 6e f6 24 a5 3f 92 11 dc c9 37 98 98 3f
       0.04129762744737765 0.02401816529801832
000070 e7 be 62 b7 71 0e b5 3f 2e 46 a2 31 d1 7c ac 3f
       0.08225165106955111 0.05563977938539853
000080 40 5f 3a 94 8a 7d 9e 3f 3b 18 59 d6 96 2a b5 3f
       0.029775777146453963 0.08268110974413016
000090 3e 45 8c a2 d4 db a5 3f 6f 27 16 e3 8b 5a 98 3f
       0.042692799417759705 0.023782907233488467
0000a0 b1 73 fe 31 4c d5 aa 3f 9c ef 07 4f 0a c1 a8 3f
       0.05240858183171982 0.048347780368174414
0000b0 de b2 3d 6d e6 45 9f 3f fd 0c 24 57 10 ee a6 3f
       0.03054008523706641 0.04478503288012268
0000c0 fd 05 37 cd 0d db ce 3f f6 74 c2 7e 5f 86 c4 3f
       0.24105999489079002 0.16035073937829453
0000d0 7e df 52 a0 1c ab d6 3f de 4b 96 d6 3d 58 d2 3f
       0.35419383675206706 0.2866358371331311
0000e0 01 58 f7 26 49 22 ca 3f bc 24 9b 7e f4 e2 d4 3f
       0.2041713180794318 0.3263522373568539

running_mean_std.count f8 []
000000 00 00 00 00 02 ec 23 41
       652801.0

a2c_network.sigma f4 [6]
000000 b1 07 60 bf ce d9 82 bf 2a 2c 96 bf 3c 17 56 bf
       -0.87511736 -1.0222719 -1.1732228 -0.836292
000010 cb 3c 6f bf 13 91 7f bf
       -0.9345214 -0.9983074

a2c_network.actor_mlp.0.weight f4 [256, 30]
000000 0a 91 7d 3e 95 de 40 be cf 29 02 3e aa 52 98 3d
       0.2476236 -0.18834908 0.12711261 0.07437642
000010 d9 ab 86 bd b1 05 40 3e 9c 37 90 3d 46 ce 2c 3e
       -0.06575746 0.18752171 0.07041857 0.16875562
000020 b8 e9 72 bd e5 7d 4f 3c 95 ed 48 3d 61 cb 4a bd
       -0.059304923 0.012664293 0.0490547 -0.049510363
000030 9c f7 c4 3d 19 7c 73 3e c5 54 71 3d e9 14 e2 bd
       0.0961754 0.23777808 0.058918733 -0.110391445
000040 84 f2 27 3e db e4 88 bc e2 75 00 3e d6 b2 ca 3c
       0.16401106 -0.01671069 0.12544969 0.024743479
000050 96 b6 3d be ca 1f 0a bd 5d aa 04 be 58 8f 26 3e
       -0.18526682 -0.033721723 -0.12955613 0.16265619
000060 85 c0 89 3d 29 8f ec 3d 7d ab a8 bc 30 1b fe bc
       0.06726173 0.11550743 -0.020589584 -0.031018823
000070 73 33 2e 3e c6 ae e2 bd a7 2a 75 3d f4 40 14 be
       0.17011814 -0.11068492 0.05985513 -0.14477903
000080 1b 05 36 3d 36 e7 93 bc 40 28 df 3d 3c 1a e2 bd
       0.044438463 -0.018054586 0.10896349 -0.1104016
000090 34 89 04 3e 59 36 22 bd f4 0b 5e be c3 da 57 bd
       0.12942964 -0.03960261 -0.21684247 -0.05269886
0000a0 fc 27 28 3e 90 36 79 3d 9f c9 f9 3d 6f 29 6a be
       0.16421503 0.06084305 0.12196659 -0.22867368
0000b0 c2 18 0d be 98 be ac bd c6 e5 31 be f8 75 a2 3d
       -0.13778976 -0.084347904 -0.17372808 0.07932657
0000c0 ad ad 5a 3b 82 cd 30 3e 8c 96 29 be fe 64 0f be
       0.003336768 0.17265895 -0.16561335 -0.14003369
0000d0 67 6c d7 3d 4c 5f 99 bd 90 5a 13 3d 8a 9c ac bd
       0.10518723 -0.074888796 0.03597504 -0.08428295
0000e0 81 0d 01 3e 28 64 9b bd ed 33 0d be 5d 6a cc 3c
       0.12602808 -0.07587463 -0.1378934 0.024953062
0000f0 4e 5b 4a bd e0 99 bf bd 15 2f 3d 3e ea 56 2f 3e
       -0.04940348 -0.09355521 0.18474992 0.17122999
000100 c3 f6 86 be 83 0f 39 be 6a 99 a2 3e c6 18 d3 bd
       -0.2636014 -0.18072324 0.3175767 -0.103074595
000110 d1 c7 c6 3d 34 a3 6a be d3 20 d6 bd 24 cf 3a 3d
       0.09706081 -0.2291382 -0.104554795 0.0456077
000120 56 bc 12 3d ca ed 1d be c3 e9 e2 bd 93 95 eb bd
       0.035824142 -0.1542274 -0.11079743 -0.115031384
000130 27 e1 df bd 80 8c f7 bd e0 25 c3 bd d8 25 84 be
       -0.10931616 -0.12087345 -0.095287085 -0.25810122
000140 46 65 ab 3d d4 d4 b3 3d 3f 0d 72 3c 65 5c 68 be
       0.08368926 0.08780828 0.014773666 -0.22691496
000150 6b 01 d2 bd 55 fe b2 bd 25 23 e4 bc 2e 8e 15 be
       -0.10254177 -0.08739916 -0.02784879 -0.14605018
000160 51 90 5b bd 05 5d 9f bd 22 e5 4e bd 35 02 91 bd
       -0.053604428 -0.07781414 -0.050511487 -0.07080499
000170 ff 30 8b bd e1 bf 6d be e6 1f ff bd 76 5c ef bd
       -0.06796455 -0.23217727 -0.12457256 -0.116875574
000180 3a 0d fe bd 5e 48 42 be 72 cd 8c 3e 9a d4 4e bd
       -0.124048665 -0.18972918 0.27500492 -0.05049572
000190 37 db 20 3e 2e 02 69 3d 88 09 31 be a7 a4 3f 3e
       0.15708624 0.056886844 -0.17288792 0.18715154
0001a0 6a 79 7a bc 8c 66 d4 bd 93 a9 0e be b1 78 30 be
       -0.015287736 -0.10371122 -0.13931875 -0.1723354
0001b0 be bf 1a bb fe 24 e0 bd 52 45 a6 3d 09 f6 47 be
       -0.0023612822 -0.10944556 0.081186906 -0.19527449
0001c0 12 8e 0f 3e 40 3e f2 bd 21 f5 0e bd 5e 24 6a 3d
       0.1401904 -0.118282795 -0.034901742 0.05716359
0001d0 21 df dd 3d 0b 5c d4 3d 2e 08 1f 3e 00 9f a7 bd
       0.10833574 0.10369118 0.15530464 -0.08184624
0001e0 d1 a5 41 3d d5 61 04 be aa ff b2 bd 96 01 06 be
       0.047277275 -0.12927945 -0.0874017 -0.13086542
0001f0 48 be 68 3e 0b 23 29 be 22 56 85 3d 27 e0 94 3d
       0.22728837 -0.16517274 0.06510569 0.07269316
000200 27 ee b6 3d 10 53 e6 bd 15 ef 29 3e a8 55 24 3d
       0.08932143 -0.11246312 0.16595109 0.04012075
000210 ae 4c e4 3c 80 c8 30 be c0 55 44 3d e2 22 7a bd
       0.027868595 -0.17263985 0.04793334 -0.061068423
000220 dc 49 38 be b8 48 6a 3e 46 f9 eb bc 52 f5 0f bd
       -0.17996925 0.22879303 -0.028805386 -0.035146065
000230 62 7d 0f bd 5c db a3 bd 16 a6 f9 3d 11 ca f9 bc
       -0.035031684 -0.08000824 0.121898815 -0.03049186
000240 7d 4b 07 be 60 77 13 bb e5 4f d8 bd 06 52 28 3d
       -0.1321239 -0.0022501573 -0.10562114 0.04109385
000250 5a 05 a8 3d d0 ef 19 be 2f bd d6 3d 6a 34 d9 3d
       0.08204146 -0.15032887 0.10485303 0.106057
000260 cc ee 49 3b 19 33 19 bd 5e f3 a3 3d 44 83 a4 3d
       0.00308125 -0.037402246 0.08005403 0.080328494
000270 63 32 0d 3d 63 1b db bb 42 5c 96 be c4 03 c1 3d
       0.03447188 -0.0066866144 -0.29367262 0.09424546
000280 2d 1b 04 bd 30 da 5e bd c5 f8 38 3e e3 d7 31 3e
       -0.03225248 -0.0544073 0.18063648 0.1736751
000290 8c b8 9a b9 bc 25 5a bc 1b be 51 3d c4 f8 6c bd
       -0.00029510667 -0.013314661 0.05120669 -0.05785443
0002a0 72 e8 04 3d ff 79 b9 3d 3a 55 25 be fb 75 01 bd
       0.03244824 0.09056472 -0.16145793 -0.031606656
0002b0 c8 f4 65 3e 3b 52 a6 3d d4 f4 d5 3c a1 f1 10 be
       0.22456658 0.08121153 0.02611772 -0.14154674
0002c0 75 10 da bd 5b 17 02 be d0 94 d3 bc 5a 09 68 3c
       -0.1064767 -0.12704222 -0.025827795 0.014162386
0002d0 b0 d5 4c 3d 0e dd 01 3e c6 54 67 be ec 71 fd bd
       0.050008476 0.12681982 -0.22590932 -0.123752445
0002e0 10 9f 32 bd a8 d6 eb 3d d4 7e 4c 3c 73 a6 18 bd
       -0.043608725 0.11515552 0.01248141 -0.037268113
0002f0 fb e4 26 3e 2b c3 41 bd 41 04 f2 bd ef 74 08 3e
       0.16298287 -0.047305267 -0.118172176 0.13325857
000300 f4 93 0a be 71 1a c1 3c 28 1b da bd 56 4f 5f 3d
       -0.13533002 0.023572179 -0.10649711 0.05451902
000310 b4 7b 08 3e 70 5a 07 3e c9 0e 9d bd f8 50 84 be
       0.13328439 0.13218093 -0.07668836 -0.25843024
000320 2a a2 88 bd bc 07 1e 3e ac 60 a2 bd 20 f5 ce 3d
       -0.06671555 0.15432638 -0.07928595 0.10105348
000330 4c 8b e6 3d 19 ce 83 3d 2d 82 05 3e 41 cb 1a be
       0.112570375 0.064357944 0.1303794 -0.15116598
000340 93 bc 6e be ba 66 15 be ec e2 1c 3e 79 2f b7 bd
       -0.23314123 -0.14589968 0.15320939 -0.089446016
000350 51 a2 6f bd a8 d6 89 bd e6 b1 a1 3c 15 38 ea bd
       -0.058504406 -0.067303956 0.019738149 -0.11436478
000360 3c d4 01 be 5f 0e fd 3d bc e3 6a be a6 46 6c 3e
       -0.12678617 0.12356257 -0.22938436 0.23073825
000370 90 e8 6f bd 10 25 09 be e0 3f 53 bd 67 05 3d 3d
       -0.0585714 -0.13393044 -0.051574588 0.04614773
000380 b0 c5 6d bd 1d bd 4c be 80 c7 3f 3e 8b ad fe bd
       -0.058049858 -0.19994016 0.18728447 -0.124354444
000390 dc 69 dd 3d 8d 30 12 3e a1 4b 0a 3e 68 11 a3 bd
       0.10811207 0.14276333 0.13505413 -0.07962304
0003a0 b1 b1 0e 3e 7d 55 93 bd 3d d2 9f 3d c2 07 66 3e
       0.13934971 -0.0719404 0.07803772 0.22463897
0003b0 31 e7 09 bd 38 b0 38 3c e1 5b 29 bd 9e de 22 be
       -0.033667747 0.011272483 -0.04134739 -0.15905234
0003c0 3c 70 3a 3e 28 08 61 be 01 96 f8 3d 4d 7f 84 3e
       0.18206877 -0.21975768 0.12137986 0.25878373
0003d0 36 99 33 3e aa 63 d4 3c 0a 65 0c be a5 a8 fc 3d
       0.17538914 0.02592643 -0.13710418 0.12336854
0003e0 7b 3f ed 3c 37 f7 b1 bd 6a be 29 bd c0 24 e0 bd
       0.028960934 -0.086897306 -0.04144136 -0.109445095
0003f0 04 aa 86 ba 5c 87 b4 bd 10 66 0c be 84 77 0a bd
       -0.0010274057 -0.0881488 -0.13710809 -0.033805385

a2c_network.actor_mlp.0.bias f4 [256]
000000 57 84 a3 3d 95 41 b1 3d df 74 b4 bd 71 53 c4 bc
       0.07984226 0.08655087 -0.08811354 -0.02396557
000010 91 50 3b ba 46 9e b7 3d d3 d5 45 3d 46 42 21 3e
       -0.0007145489 0.08965735 0.04829962 0.15747938
000020 eb 52 2c 3e cf bb bb bd 28 00 20 bc 56 13 7b 3d
       0.16828506 -0.09166681 -0.009765662 0.061297737
000030 de b4 9d 3d e0 11 09 3e b8 ef 40 3e 57 1d b2 bd
       0.07700513 0.13385725 0.18841445 -0.086970024
000040 d8 6b 0b be 2a af 9d b9 05 20 b5 3d 73 4a 5d bd
       -0.13615358 -0.0003007588 0.08843998 -0.05402608
000050 5e 6d cf 3d 14 3b ff 3c d4 ee af 3d 77 04 29 3c
       0.10128282 0.0311561 0.08590475 0.010316006
000060 12 eb 53 3e 2c 0b 82 3d 44 33 ba bd aa d7 d5 bd
       0.20695141 0.06349787 -0.090918094 -0.10441525
000070 31 d5 8f 3c c4 8f ca 3b ab 2b 17 3e bf 36 57 bb
       0.017557712 0.006181689 0.14762752 -0.0032839028
000080 0f 42 a7 bd 9d 32 63 be 0d 5e 48 3e 3e ac 0d 3d
       -0.081668966 -0.22187276 0.19567128 0.03458809
000090 5a b4 76 3c 5b 50 9e 3c 6a 49 01 bc 86 7f d6 bd
       0.015057648 0.019325426 -0.007891038 -0.10473542
0000a0 02 51 35 3d e3 2b dd 3d ca 1b 12 bd 72 dc cc bd
       0.04426671 0.10799386 -0.035671033 -0.10002984
0000b0 96 03 dd 3c d4 d7 98 bd bd 8e 7f 3d 4e d7 8d bc
       0.026979249 -0.07463041 0.062391985 -0.01731458
0000c0 47 a2 9b 3d 1c ea bc bd 4d dc 48 3d a3 84 15 be
       0.07599311 -0.0922434 0.04903822 -0.14601378
0000d0 27 ca ff bd cb 67 7f bd a0 40 b7 bd 22 46 00 3e
       -0.124897294 -0.062354844 -0.08947873 0.12526754
0000e0 b3 ea 0a be 1c 2c 0e 3d 38 66 a0 3d 38 95 13 bd
       -0.13566093 0.034710035 0.07831997 -0.036030978
0000f0 4f bb a1 3d 30 a4 06 3d 0f 7c 85 bd 33 5d 69 bd
       0.078970544 0.032871425 -0.06517803 -0.056973647
000100 d3 a0 2f ba f7 ef 74 bd de 62 45 3d 00 bb 02 bd
       -0.0006699685 -0.05979916 0.04818999 -0.03191662
000110 41 a3 4b bc d7 d7 8e 3d 33 f7 14 3d 41 f7 21 3d
       -0.0124290595 0.06974762 0.03636856 0.03954244
000120 99 9e b9 bd 8b e1 36 bd c5 62 48 3e 64 94 39 be
       -0.09063453 -0.04464869 0.19568928 -0.18123013
000130 9f 46 6f bd af e2 09 3e 03 1d b6 3d 75 8a 06 3e
       -0.05841696 0.13465379 0.08892252 0.13138755
000140 03 02 0d 3d c1 88 8c bd 26 8a 49 bd 3f 5b 07 bb
       0.034425747 -0.06862021 -0.049204014 -0.0020653752
000150 9c c5 a6 bd 4a ce 70 bb f4 6e 37 be 35 29 7a bc
       -0.0814316 -0.0036744052 -0.17913419 -0.015268614
000160 16 11 b8 bd e4 ea 17 3d d4 c8 1b bd 6f ba cb 3c
       -0.08987634 0.037089244 -0.03803332 0.024869172
000170 75 d3 81 bd 23 48 6d bc 8b 72 67 3d f4 f4 ee 3d
       -0.0633916 -0.014482531 0.05650572 0.11667815
000180 ed 9e 79 bc cc b9 e4 3d 85 e0 d2 bd 79 1c c9 bd
       -0.015235645 0.111682504 -0.1029673 -0.09819884
000190 52 0f c3 bd 7f 4c 88 bd b4 8b 24 3e 98 e2 6c 3e
       -0.095244065 -0.066552155 0.16068918 0.23133314
0001a0 4b 9e 49 bd 53 ec 1a be 4c 8b 0f 3e e8 64 fa bb
       -0.049223226 -0.15129213 0.14017981 -0.0076414235
0001b0 ed 55 ea 3d 3e 40 42 3d cf 1b c4 3c c4 43 fa bc
       0.1144217 0.047424547 0.023939041 -0.030549891
0001c0 fe 3b 66 3c 26 91 c8 bc be 16 96 3c 4e 9c c1 bd
       0.014052389 -0.024483275 0.018321391 -0.09453641
0001d0 4e bb 11 bd 96 2f 3e bd 4e 4b 9e bc c0 65 d1 3c
       -0.03557902 -0.0464321 -0.019323017 0.025561213
0001e0 cc 85 57 bc a5 55 6f 3b ac f7 59 3d 7a 14 e8 3d
       -0.013154458 0.0036519554 0.053214714 0.113320306
0001f0 b9 bd ae 3d a3 1f 73 3d 0c ad 4c 3e 77 d9 53 3d
       0.085322805 0.059356343 0.19987887 0.051721063
000200 9a eb ce bd 2d 6f 40 bc 7d 52 30 3d 89 73 32 3d
       -0.10103531 -0.011745256 0.043047417 0.043567214
000210 21 d3 fd bd 2b 0a 0f 3e 0d fd 98 bc e5 96 a3 3d
       -0.12393785 0.13968723 -0.018675352 0.07987765
000220 11 7b 05 3d bb b1 91 3d a1 49 0a 3e 5c 2a 8b 3d
       0.03258807 0.071139775 0.1350465 0.06795189
000230 4e 01 7c bd 63 8c ed 3d 72 79 51 bc 05 72 fc bd
       -0.06152468 0.11599042 -0.0127853025 -0.12326435
000240 6a db 2c 3b d9 5e 24 3c e3 a5 61 bd 6f 58 1e 3e
       0.0026375898 0.010032379 -0.055089843 0.15463422
000250 aa 4a bd 3d 89 f5 91 be 8b 5e cc 3d 73 80 a0 bd
       0.09242757 -0.2850764 0.0997897 -0.07837
000260 75 d0 d7 bc cd 8b 49 3e b2 e1 8a 3d dc bf 66 3c
       -0.026344517 0.19682236 0.06781329 0.014083829
000270 d1 d0 eb bd ec 9b 92 bd 86 4c ca bd 7e fa d2 3d
       -0.11514438 -0.07158646 -0.09877877 0.10301684
000280 5c d9 11 3e 4f 42 b0 3d 3d 2c df bd f3 a8 a8 bd
       0.14243072 0.08606397 -0.1089711 -0.082353495
000290 78 ed 53 be 5e ee f6 bd 48 64 96 3c d7 82 83 bb
       -0.20696056 -0.12057184 0.018358365 -0.0040134
0002a0 67 63 ce bd 3c 61 ee 3d 90 60 8f 3d f3 20 81 bd
       -0.10077553 0.1163964 0.0700084 -0.06305113
0002b0 c8 86 25 3d de 35 20 bd 82 6e f4 3d ad f8 66 be
       0.04041174 -0.03911387 0.1193514 -0.225558
0002c0 63 24 43 3d a8 14 ff bd 35 0d fb bd 8b c6 4b 3d
       0.047642123 -0.12455112 -0.122583784 0.049749892
0002d0 b1 50 4c 3e a4 9f 26 3e c4 e7 58 bd bb 6b 62 3b
       0.19952656 0.16271836 -0.052955404 0.0034549076
0002e0 1a d8 4b 3e 21 90 18 bd 20 af 98 bc 51 1a 2c be
       0.19906655 -0.037246827 -0.018638194 -0.16806914
0002f0 6c 88 06 be 03 8b 70 bb 3d b0 8c 3d bc 54 51 bd
       -0.13137978 -0.0036703951 0.06869552 -0.0511062
000300 13 e5 82 bd 24 cc 14 3e 12 9a 43 3c 3a 7d 03 3e
       -0.06391349 0.14530998 0.011938589 0.12840739
000310 96 30 a8 3d 1a 8f 2d bc 24 64 25 bd 81 50 42 be
       0.08212392 -0.0105932 -0.040378705 -0.18976022
000320 05 f6 99 3d c9 e5 b5 3d bc 9b e2 bd ba a4 6d bd
       0.075176276 0.08881719 -0.1106486 -0.058018424
000330 ed 17 92 bd 85 f4 02 be f7 8f 4a 3d 1f 11 cf bd
       -0.0713347 -0.1278859 0.0494537 -0.101106875
000340 12 87 0e 3e 1f c5 0e 3e 30 06 22 bd f1 00 74 bd
       0.13918713 0.13942383 -0.039556682 -0.05957121
000350 bc 90 28 bd dd 86 9f bd a9 87 b5 bd 73 ff 9d bc
       -0.041153654 -0.07789395 -0.08863766 -0.019286847
000360 b9 43 c5 3d 12 a1 98 3d 7e e2 ab 3d 9a 4d 3e 3d
       0.09632058 0.07452597 0.08392809 0.046460725
000370 31 b1 04 bb 9d 02 80 bd 9b 17 08 3e f9 98 a2 3d
       -0.0020247216 -0.062504984 0.13290255 0.079393335
000380 4f 32 4a bd 5e e2 61 bd 83 80 d5 3d bd a2 8a 3d
       -0.049364384 -0.05514752 0.10424902 0.06769321
000390 61 93 8e bd 96 b9 8b 3d e6 2d c7 3d e1 a2 0d 3e
       -0.06961704 0.06822507 0.09725551 0.13831665
0003a0 6c 3b 9e 3c 05 a1 4c 3b 75 8c 5d bc 8a a4 77 3e
       0.019315444 0.0031223905 -0.013522257 0.2418386
0003b0 7e 27 6f 3c 0e 48 30 bb fe 7c 45 bd b4 36 5d 3a
       0.014596818 -0.0026898417 -0.048214905 0.00084386324
0003c0 92 ec b2 3c 87 f2 7a bd a7 df 8d bd ec 0d 9f 3d
       0.021841321 -0.06126645 -0.06927424 0.07766327
0003d0 a1 18 85 bd 92 75 51 3d 8e ba 81 bc ae 03 8a 3d
       -0.06498838 0.051137514 -0.015836027 0.06738983
0003e0 21 7a c2 bd 84 8a 0d be 8c af a0 3c 5c 79 11 bd
       -0.094959505 -0.13822371 0.019614957 -0.035516128
0003f0 97 51 c9 bd 28 45 fe bc 1f 39 d5 3d a4 6c 91 3d
       -0.09830015 -0.031038836 0.104112856 0.071008

a2c_network.actor_mlp.2.weight f4 [128, 256]
000000 c3 83 e4 3c b8 78 2e bd 2c 2e 90 bd 6c bc 14 3d
       0.02789486 -0.042595595 -0.070400566 0.036312506
000010 cc 7c 5a 3d bc 8a 49 bc 0d 72 72 bc 5b ce 1e bd
       0.05334167 -0.012301143 -0.0147977 -0.038771015
000020 d4 34 cd bd e2 27 89 3d b1 3a e0 3a 33 2f f0 bc
       -0.10019842 0.0669706 0.0017107335 -0.029319381
000030 bc ae 01 3d 12 06 24 bd 32 ec bb bd 6f 7f b1 3d
       0.03166078 -0.04004485 -0.0917591 0.08666884
000040 8b 47 2b bc 16 80 55 3d d2 cf a9 bd d2 56 b3 3c
       -0.010454069 0.052124105 -0.08291592 0.021891985
000050 06 8f 53 be 32 95 29 bc 57 f9 a7 bd b8 41 95 bd
       -0.20660028 -0.010350512 -0.08201855 -0.072879255
000060 fe af b5 bd 11 fc 5d bd 6b 93 5d 3b 52 f0 b0 3c
       -0.088714585 -0.054195467 0.0033809792 0.021598969
000070 36 c9 26 bc 10 2b 1e 3d 58 bb 83 3d bb 88 af 3b
       -0.010179808 0.038615286 0.06432217 0.0053568757
000080 f7 b5 1d 3d 4d 17 8c 3d f2 45 26 bd f1 7e 3c bd
       0.038503613 0.06840382 -0.04059405 -0.0460195
000090 74 9f d4 bd a3 ea 63 3d 74 b0 89 3d 02 ee 18 bd
       -0.10381976 0.05564369 0.06723109 -0.037336357
0000a0 f7 87 3b 3d a7 7a 2a bd 82 dc e4 3c 1b 30 57 3b
       0.045783963 -0.041620877 0.027937178 0.003283507
0000b0 82 dc 62 3c 5b 81 38 3d 1f 30 76 bd 56 0f 4e bd
       0.0138465185 0.045045238 -0.060104486 -0.050307594
0000c0 f2 8c 51 bd 2e 69 58 3d 87 19 80 bd d2 9f d3 3d
       -0.051159807 0.052834682 -0.06254869 0.10333218
0000d0 98 30 79 3d da ca 12 3d b5 f6 aa 3d f7 28 c8 bd
       0.06083736 0.035837986 0.08347837 -0.097734384
0000e0 7e 92 0a 3e d8 81 8d ba 93 77 4f bc 3a 66 27 3b
       0.13532445 -0.0010796143 -0.012662786 0.002554311
0000f0 a3 9b 15 bc a4 ea 89 bd 05 63 e7 3d 23 79 9f 3d
       -0.009131345 -0.06734207 0.11298183 0.07786777
000100 a9 ef cf bd 87 37 60 bd 81 16 88 3d d0 b8 9a 3c
       -0.101531334 -0.054740455 0.06644917 0.018886954
000110 29 55 0d bd 3f d8 97 3d fa 82 74 bd 64 97 65 bd
       -0.034505043 0.074142925 -0.05969522 -0.05605258
000120 13 7e ad 3c 81 ae da 3c 85 d5 42 bd fe 8a 81 3d
       0.021178281 0.026694538 -0.04756691 0.06325339
000130 31 17 75 bc d2 99 87 bd 4e 79 61 bd f8 fa 60 bd
       -0.014959143 -0.06621136 -0.055047326 -0.054926842
000140 84 c7 24 bc 03 c9 13 bd 3e a2 a4 ba 95 18 a0 bc
       -0.010057334 -0.03608037 -0.0012560559 -0.019542972
000150 36 8c 3f bd 08 b2 fb bc 7e 60 cd 3d 4e 60 b3 bd
       -0.046764575 -0.03072454 0.1002817 -0.08758603
000160 fb b0 d3 bc b4 60 ca bc 57 f7 0b 3e 46 22 a1 3c
       -0.025841227 -0.024704315 0.13668571 0.019669663
000170 13 fa 19 bd 09 b3 39 3d 2b fe b1 3a b9 63 f6 3c
       -0.037592005 0.045336757 0.0013579776 0.030076848
000180 79 f8 f7 bd 41 39 4e bd fa 61 80 3d cc 90 66 3d
       -0.12107939 -0.05034757 0.062686875 0.056290433
000190 c0 b2 21 bd 15 a4 9a 3d 51 e3 ce bc d5 7e 85 bd
       -0.03947711 0.075508274 -0.025254877 -0.06518332
0001a0 d1 84 9e bd 22 2d 26 3d bd b8 03 bd 25 65 71 bd
       -0.077401765 0.040570386 -0.032158602 -0.05893435
0001b0 e4 0b cc bd 8e e5 38 be 45 58 a4 3d 95 27 43 3c
       -0.099632055 -0.18056318 0.080246486 0.011911293
0001c0 49 d1 0c 3d 1c 6c cf 3d 09 5f e8 3b 3b dd 9e 3d
       0.034379277 0.10128042 0.007091407 0.0775704
0001d0 3c 91 96 bd 24 1b 87 bd eb 93 06 bc 27 97 74 3d
       -0.0735192 -0.065969735 -0.008213977 0.059714463
0001e0 fc c5 a8 3d 58 03 c9 3c 67 f1 47 bd 5b 42 aa bd
       0.082408875 0.024537727 -0.048814204 -0.083134376
0001f0 9f 9a f8 ba ea 09 1b bd 21 4e 90 bc 16 cf 82 bd
       -0.0018966979 -0.03785125 -0.01761538 -0.06387155
000200 16 72 72 bd d1 88 a4 3c 6f b9 4b 3d 32 76 f0 bd
       -0.059190832 0.02008477 0.04973739 -0.11741294
000210 ae 9d b0 bc 4b e4 d1 bd 7a c6 2e bd 1d c5 3f bb
       -0.021559563 -0.102486216 -0.04266975 -0.0029261776
000220 43 21 21 bd ce cd 13 bd 0d 94 c9 bc fd 0a 74 bd
       -0.03933836 -0.036084943 -0.024606729 -0.05958079
000230 0e 69 75 bc c7 2d b8 bd 58 2d 35 bc f8 18 a1 bb
       -0.01497866 -0.08993106 -0.011058174 -0.0049163066
000240 ba a0 ef bd ee e9 82 bd 9c ff 25 bd 0b a5 56 3c
       -0.11700578 -0.06392275 -0.04052697 0.013100873
000250 50 63 7a bd 5e 4c 8a 3c 02 dc 11 3d 47 57 0f 3d
       -0.061129868 0.016882118 0.035610206 0.034995344
000260 4e 01 91 3d 99 8d 12 3d fc 57 21 bd 3b 5d 73 3c
       0.07080327 0.03577957 -0.03939055 0.014853771
000270 82 ba d5 3d f1 70 53 3d 31 c6 23 3c 76 b4 0a 3d
       0.10435964 0.05162138 0.009995983 0.033863507
000280 a1 57 80 3d 59 eb 78 bd 14 fc ae 3d fb 2b 9a 3c
       0.06266714 -0.06077132 0.08544174 0.0188198
000290 a6 35 ec bc 94 17 5b 3d 2b df 2e 3b a0 a3 2e ba
       -0.028834175 0.053489283 0.0026683311 -0.0006661955
0002a0 13 56 8d 3d 61 d2 99 bc aa 81 9f 3c e2 17 7a 3d
       0.06901183 -0.018777074 0.019471008 0.061057933
0002b0 2b 1c 9b bc 76 ef 1f 3b 0c 9b 02 bd 71 d0 e3 3c
       -0.01893433 0.0024404204 -0.031886145 0.027809354
0002c0 b5 dc 11 bd 3f 8a a3 3d d8 56 8d 3c 51 c4 12 bd
       -0.035610873 0.07985353 0.017253324 -0.035831753
0002d0 69 1b 2b 3d 8a 18 13 be b7 eb 32 3d cb 5c e0 bb
       0.041774187 -0.1436483 0.043681826 -0.0068469993
0002e0 15 59 cf bd 49 f0 15 bd 44 08 bf 39 ca ac 53 3d
       -0.10124413 -0.036606107 0.00036436517 0.051678456
0002f0 ee 73 47 3c 89 e2 e6 bd d2 68 4a bd 8f dc ab 3c
       0.012173636 -0.11273677 -0.04941637 0.020979194
000300 bb b5 3e 3d 4f 24 d9 3d 3c cb 27 bd f5 e7 cb 3c
       0.04656003 0.106026284 -0.040965304 0.02489088
000310 d6 bf bc bc ed 1b 19 3c b2 9b b7 bd 7c 00 05 bd
       -0.023040693 0.009345037 -0.089652434 -0.032471165
000320 ea c1 1f bd 1a 15 0e 3e 57 34 0f 3e fd 79 7d bd
       -0.03900329 0.13875237 0.1398481 -0.061883915
000330 5e 71 70 3d 86 37 1e bc d6 7f d7 bb 23 13 f5 3b
       0.058701865 -0.0096567925 -0.0065765185 0.007479088
000340 f3 9a 9e bd 91 4a 79 bd 9a c9 25 3d 48 75 bb 3c
       -0.07744398 -0.060862128 0.040475465 0.022883072
000350 3b 86 54 3b eb 4d 87 bd ff 72 bd 3d 0b 44 a9 3c
       0.003242864 -0.066066585 0.092504494 0.020662328
000360 7f 68 ed bc 9f 08 38 3d 93 f1 38 3a b5 25 4e bd
       -0.028980492 0.044930097 0.00070550403 -0.05032893
000370 be 4e 87 3c 10 e0 60 3d c9 97 1e bc d9 ef 8e bd
       0.01651704 0.054901183 -0.009679743 -0.06979341
000380 22 b1 cb bd ba 03 c1 3c 87 dd 93 bc 4d 06 85 bd
       -0.09945895 0.023561347 -0.018049968 -0.064953424
000390 53 59 55 3d d3 db f8 3b 4c 53 03 3d 3b cf 96 bc
       0.05208714 0.0075945645 0.03206186 -0.018409362
0003a0 e3 9b 82 bd 31 da 26 bb a6 d7 a4 3d 89 88 0e be
       -0.06377389 -0.0025459642 0.08048944 -0.13919272
0003b0 4e 8b f9 bc d4 34 ff bd cb d1 70 bb 67 4d ae bd
       -0.030461933 -0.12461248 -0.003674614 -0.08510857
0003c0 b2 e9 35 bd e0 3f 97 bd fc 40 aa 3c ec c6 9a bd
       -0.044412322 -0.0738523 0.02078294 -0.075574726
0003d0 21 08 b2 3d 33 9c 3f bc 62 82 c0 bd 62 08 c2 3d
       0.08692957 -0.011694956 -0.093998685 0.09474255
0003e0 02 d2 9e 3d 92 f0 b1 bc 34 e3 a1 3b dd b5 a2 bc
       0.077548996 -0.021721158 0.004940415 -0.01986211
0003f0 ec a6 06 3d ae 0c ee bc 08 d3 17 bd d7 4e c5 bd
       0.032874033 -0.02905878 -0.03706649 -0.09634178

a2c_network.actor_mlp.2.bias f4 [128]
000000 10 02 67 be 1f f6 ba bd 7a 20 7b be 5f 42 f4 3d
       -0.2255938 -0.09128975 -0.24524108 0.11926722
000010 05 7f c7 bd dd 08 1e be 64 07 70 3c 00 43 b6 3d
       -0.09741024 -0.15433069 0.0146502 0.08899498
000020 15 4d 18 bd e0 88 60 bd ed 19 d4 bb e6 02 af bd
       -0.037182886 -0.054818034 -0.006472817 -0.08545475
000030 bc d8 a2 bd 31 24 ca bd ab 16 29 bc 0f 7d 88 be
       -0.07951495 -0.09870184 -0.010320346 -0.26657912
000040 83 c6 b8 bd a4 cc d0 bd 86 02 6f be 88 56 a6 3c
       -0.09022238 -0.10195282 -0.23340806 0.020304933
000050 de 0a 9d bd 8e 05 af 3b be d7 51 3d 0e 6e 1c 3e
       -0.076680884 0.0053412383 0.05123114 0.15276358
000060 42 26 56 be 4f c7 22 3c 82 a3 ed 3b 65 dc c8 bc
       -0.20913032 0.009935214 0.0072521577 -0.024519155
000070 fb ea 0b be 62 b3 8b bd fa 46 4f 3c fb 0e 81 3d
       -0.13663857 -0.06821324 0.0126511995 0.063016854
000080 84 03 8d bd 34 8b 06 3e 59 e0 d0 3d a6 7e ed bc
       -0.06885436 0.1313904 0.10199041 -0.028991055
000090 73 e9 e4 3c 80 66 fa 3d da bf f7 3c 98 ff a7 bd
       0.027943349 0.122265816 0.03024285 -0.082030475
0000a0 73 15 0e be b4 6f b4 bd b7 8c a5 3c 1d e2 21 3d
       -0.1387537 -0.08810368 0.0202087 0.03952228
0000b0 50 f2 23 3e ef 5f 4f bd 8b 8e b2 3d 5b 4c 80 bd
       0.16010404 -0.0506286 0.08718594 -0.06264564
0000c0 1b fd 2a bd 34 ed 30 bb 69 f5 de 3d ea 14 b1 3d
       -0.041745286 -0.0026996853 0.10886652 0.08646567
0000d0 a6 1c 19 3d 1d 0c 00 3e 51 04 c2 bd ba 1a 16 be
       0.037380837 0.12504621 -0.094734795 -0.14658633
0000e0 a6 9f 42 bd eb eb 28 3e 07 7b 5b 3d f3 f8 70 bd
       -0.047515534 0.16496246 0.053584125 -0.058831166
0000f0 f5 72 3f be 47 c4 44 be 1d 7d 24 bd cc b3 b1 bd
       -0.18696196 -0.19215499 -0.04015838 -0.08676872
000100 41 03 fd bd 9a 3c c0 bd 49 2d 30 be 86 a8 f0 bd
       -0.12354136 -0.09386559 -0.17204775 -0.11750893
000110 d7 c8 66 be fc 38 43 bd 51 40 42 be 00 03 88 bc
       -0.22537552 -0.047661766 -0.18969847 -0.016602993
000120 f5 81 ec bd 9f a3 3f 3d 4b f7 a1 bd ed 16 f6 bd
       -0.11548225 0.0467869 -0.079084955 -0.120160915
000130 96 4c b7 3c a9 4b 17 3d 49 91 dc b7 1a 09 b5 3d
       0.022375386 0.03693739 -2.6293697e-05 0.088396266
000140 9e 8c 42 bc 50 07 12 bb 9c 93 ea 3c cf f0 97 be
       -0.011874346 -0.002228219 0.028634839 -0.2967591
000150 c2 55 28 3e c8 6b 71 be d0 d1 d0 bd bb 77 16 3d
       0.16438964 -0.23576272 -0.101962686 0.036735278
000160 91 af 4f be e5 a6 12 3d bf 7e a2 bd 88 56 54 3d
       -0.20281817 0.035803694 -0.07934331 0.051840335
000170 fd f3 71 3d 29 ec 3e 3d 0f aa b5 bb 04 90 8e 3d
       0.059070576 0.04661194 -0.005543954 0.069610626
000180 ec db 01 3d 14 33 88 3d 88 2f 88 bc 48 d9 07 be
       0.031703874 0.066503674 -0.016624227 -0.1326648
000190 c5 79 d7 bc 6c 7f d9 bd 06 f3 6a 3d 51 07 c9 bd
       -0.026303181 -0.10620007 0.05736067 -0.098158486
0001a0 59 b7 73 3d 4a db 1a be ba 79 21 be e4 ed 60 3d
       0.059501026 -0.15122715 -0.15769091 0.05491437
0001b0 03 49 ad bd 9d e1 13 3d d4 d6 3f bd 94 af 23 3d
       -0.084611915 0.036103833 -0.046835735 0.039962366
0001c0 1f 80 f1 3b d0 97 9e bd 4e 55 e0 3d 2a fb a9 bd
       0.0073700096 -0.077438 0.109537706 -0.08299859
0001d0 15 1b 68 bd db 69 c0 3d f1 5d 4d bd c5 11 7b bc
       -0.056666452 0.0939519 -0.050138418 -0.015324061
0001e0 07 c0 37 bd 48 b3 d0 bd 1c c2 9e bc a7 00 e5 3b
       -0.044860866 -0.10190445 -0.019379668 0.006988603
0001f0 f0 df a0 3c 5b 77 fb 3d 60 d9 af 3d dd b3 ae 3d
       0.019638032 0.122786246 0.08586383 0.085304

a2c_network.actor_mlp.4.weight f4 [64, 128]
000000 8a e8 e6 bc 6f 5e 43 be e4 f1 95 3d a1 20 ec bd
       -0.028187055 -0.19078992 0.073215276 -0.11529661
000010 9c af a0 bb b6 cc 3d 3d 34 19 c2 3d 5e 40 5a be
       -0.004903747 0.046337806 0.09477463 -0.21313617
000020 59 5f dd bd 24 82 b5 3d cc a0 d5 3b 49 c8 c1 3d
       -0.10809202 0.08862713 0.0065194126 0.094620295
000030 13 83 cd 3c 43 e1 bc 3d a9 46 ac b9 f1 c5 83 bd
       0.025086915 0.09222653 -0.00032859042 -0.06434239
000040 c7 98 8e 3d 02 ba dd 3c 05 a7 cc bd 81 43 c8 bc
       0.06962734 0.027066234 -0.09992794 -0.02444625
000050 65 6e 51 3d c1 43 11 be c8 a7 de bd df 01 b1 bd
       0.05113067 -0.14186002 -0.108718455 -0.08642935
000060 ba ad 35 3d 1a 1f b3 3c 7c 44 0e 3e 36 db 3e bd
       0.04435513 0.021865416 0.13893312 -0.046595775
000070 38 86 d1 bd 55 9a 7c bd 7e e8 13 bc f9 c6 8d bc
       -0.10230678 -0.06167062 -0.009027598 -0.017306792
000080 74 91 4b 3d 04 df 48 bd ef fc 71 bd 63 72 17 be
       0.04969926 -0.04904081 -0.059079107 -0.14789729
000090 0a 5a fc bd 89 16 db 3c 28 93 c6 bd 64 16 ee bd
       -0.12321861 0.026744144 -0.096960366 -0.116253644
0000a0 21 76 85 bd 32 88 88 bc 91 2b 78 3d fd 02 0f 3d
       -0.06516672 -0.016666505 0.060588423 0.03491496
0000b0 e5 fa f3 bd 40 06 ea bc 78 da 7c be 84 ed c3 bb
       -0.11913089 -0.028567433 -0.24692714 -0.005979242
0000c0 a0 7c 6b bd 53 b0 c4 bd 3f 70 a9 3d 4e cb 65 be
       -0.0574919 -0.09603944 0.08273362 -0.22440836
0000d0 e7 37 82 bd 44 ef 7e bd 04 e2 1e 3c bf 61 6c bc
       -0.06358319 -0.0622399 0.009697441 -0.014427601
0000e0 fd de 19 bd 6b 65 56 bd 3a 00 20 be 37 c4 ff bc
       -0.037566174 -0.052342813 -0.15625086 -0.031221492
0000f0 37 8d d5 3d d2 69 53 bd aa 09 a9 bd 74 25 cb 3d
       0.10427325 -0.05161459 -0.082537964 0.09919253
000100 5f 87 c5 bd a0 fb 37 bd f5 d1 b7 3d 27 73 cf 3d
       -0.096449606 -0.044917703 0.08975593 0.101293854
000110 f5 72 b5 bd 2f db 54 bd d1 a0 0d be 04 46 25 be
       -0.08859817 -0.051966842 -0.13830878 -0.1613999
000120 e8 9e 44 be fb 0c a8 bd 10 53 e5 3c d0 cf a9 bd
       -0.19201243 -0.08205601 0.027993709 -0.0829159
000130 be 8b a5 3d 0b b5 bc bc cd 35 b5 bd 55 97 e6 bd
       0.08083294 -0.023035547 -0.08848152 -0.11259333
000140 d1 4f 70 bb 53 12 8b bb c7 0e 53 be b6 b4 95 3d
       -0.0036668668 -0.004244128 -0.20611106 0.073098585
000150 ba 20 bb bc 86 ef f3 bc 62 dc b8 bd 35 2d 15 be
       -0.022842754 -0.0297773 -0.0902641 -0.14568026
000160 6b bf 9f bd 26 06 36 3d 10 ef 81 bd f2 66 9d 3d
       -0.07800182 0.044439457 -0.06344426 0.07685651
000170 21 e7 af bd 10 af 74 3b a8 b5 98 bd bf 1b 0e bd
       -0.08589006 0.003733579 -0.07456523 -0.03469443
000180 b7 e1 cc bd 69 d3 23 bc 1d df ab bc 0c e2 9b bc
       -0.10003989 -0.009999135 -0.020980412 -0.019028686
000190 0a a6 a2 bd fc ce c6 3c ea 58 2b 3c 5d 92 fc 3d
       -0.07941826 0.02426862 0.0104582105 0.12332604
0001a0 20 aa e7 bb 3f aa 1b bd f0 36 45 be 20 d7 03 3e
       -0.007069841 -0.038004156 -0.19259238 0.12875032
0001b0 ea 8b 23 be e7 65 7a 3d c8 1d b4 3d 49 cc 33 bd
       -0.15971342 0.061132338 0.08794743 -0.043895993
0001c0 7e b1 3e bd ad f7 c9 3c 56 3e ce 3d 4e d5 02 bd
       -0.04655599 0.024654234 0.100704834 -0.031941704
0001d0 45 ab 84 3d 7d 67 39 be c0 6e d0 bd f2 f4 78 3d
       0.064779796 -0.18105884 -0.10177374 0.060780473
0001e0 e9 ba 93 3d cd 98 96 bd b8 ea c5 bc 38 62 bd 3b
       0.07213385 -0.07353363 -0.024159774 0.005779531
0001f0 35 1b 26 3d ec 7a 95 bd 92 6a 04 be fa ab 7e bd
       0.04055329 -0.07298836 -0.12931278 -0.06217573
000200 42 1e 6b 3d f5 97 2d 3d 7d bf 77 3d b9 69 19 3a
       0.057401903 0.042381246 0.06048535 0.0005852241
000210 d3 00 8b 3c bc b1 53 3d 13 6c f1 bb a3 60 e3 bc
       0.016968166 0.051683173 -0.00736762 -0.02775604
000220 4f f1 0d bd 3f 06 8b bc 8d 21 a3 3d 6c 51 1e bc
       -0.034653958 -0.016970752 0.07965384 -0.009662967
000230 f1 91 7f bd ab b6 93 3c a9 d6 98 bc 74 f7 3e 3c
       -0.06239504 0.018031439 -0.018657045 0.011655677
000240 07 e8 b9 3d 69 de d0 bc a7 b1 1e bd 40 1c af bb
       0.09077459 -0.025496678 -0.03874364 -0.005343944
000250 6d 1f 79 3c 5c 52 08 3d 5c 07 ba bc 73 45 8b 3c
       0.015205246 0.03328167 -0.022708587 0.01700089
000260 44 90 14 bd 33 87 40 bd 69 ff a8 3c e9 0b e8 3a
       -0.036270395 -0.047003936 0.020629602 0.0017703745
000270 37 6d d4 3b b8 bd c2 bd 3d 6c 37 3c 79 f7 21 bd
       0.006482746 -0.09508842 0.01119524 -0.03954265
000280 e1 59 2b 3c af 13 86 3c 74 ba 1c 3c ae 22 61 bd
       0.0104584405 0.016366808 0.009565938 -0.054964714
000290 67 b5 43 ba fb b1 0a 3e bd 9d 7d bd 8d ce 56 3d
       -0.0007465691 0.13544457 -0.06191801 0.052443076
0002a0 95 56 04 3e b8 d5 52 3d d6 d6 a0 bd e7 7b d9 bc
       0.12923653 0.05147335 -0.07853477 -0.026548339
0002b0 87 33 7c bc d7 86 db bc 33 8d a2 bd 5b c2 68 3d
       -0.015393144 -0.026797695 -0.07937088 0.056825977
0002c0 33 a0 bc bd 64 17 13 3c 33 5f 42 bd b4 21 24 3d
       -0.09210243 0.008977745 -0.04745407 0.040071204
0002d0 34 75 8f bd b6 2b 00 3d 37 0f 7a 3d 27 b7 c5 bd
       -0.070047766 0.031291686 0.061049666 -0.09654074
0002e0 18 c6 57 3d 0b e3 d2 bc 20 99 bb bc c4 7f 7b 3c
       0.05267915 -0.025743028 -0.022900164 0.015350286
0002f0 17 ff 14 3e 1c 3e 61 bd c9 a1 2a bd 8b e7 3a 3d
       0.14550434 -0.054990873 -0.041658197 0.045630973
000300 16 65 05 3c 23 29 20 bd 9b 82 cf 3d 6d 8b e1 3d
       0.008141777 -0.03910173 0.10132333 0.110129215
000310 87 cd 8e 3d 69 e9 1f bd cc 9d e8 3d 9c a0 87 3d
       0.06972795 -0.039040957 0.11358222 0.06622431
000320 3a ea 07 3e 33 2d 46 3d 57 0d 4c 3c 96 21 82 3d
       0.13272944 0.04838295 0.012454352 0.06354062
000330 ae 87 a1 3c 8c 48 16 3d 1c 6c 0b bd d5 37 e9 bd
       0.019718017 0.03669028 -0.034038648 -0.11387602
000340 85 52 a9 3d 7a 4e 92 bc e3 d4 ca bd a8 21 d5 bc
       0.082676925 -0.017859686 -0.09903886 -0.026017025
000350 a5 cd 3e bc b5 b2 60 3d bf f3 45 bc 8d 0c 1d bd
       -0.011645709 0.05485793 -0.012082039 -0.038342047
000360 aa 47 d6 3d 61 06 a8 bc b5 32 f6 bc 14 9d 0e 3e
       0.104628876 -0.020510854 -0.030053476 0.13927108
000370 79 0b a0 bd 2d ec 8e bc 4d 53 5d 3d ed d6 20 3d
       -0.07814688 -0.017446602 0.05403452 0.03926747
000380 23 1a 9c 3c 52 69 93 bd 19 80 89 bd 63 ad 97 bc
       0.019055432 -0.07197823 -0.06713886 -0.018515294
000390 21 9d 4a 3d 22 39 a6 3d 02 c4 bc bb 5d 41 6e bc
       0.049466256 0.08116366 -0.0057606706 -0.014541951
0003a0 37 8c 71 3d 4f b3 ba bc 62 8e 5b bd 81 82 3d bd
       0.05897161 -0.02279058 -0.053602584 -0.046267036
0003b0 7b a0 1d be bc 75 a2 3a 3f e8 f8 3c ab 04 a8 3d
       -0.1539325 0.0012394707 0.030384181 0.08204015
0003c0 74 22 1c 3d 86 2a 0a 3d 00 09 96 bc 90 02 88 bd
       0.038118795 0.03373196 -0.018314838 -0.06641114
0003d0 d6 17 e8 3c 0f 55 e9 bc ce e2 76 3d 6a 36 ac 3d
       0.028331678 -0.028482942 0.06027489 0.08408816
0003e0 95 97 a7 3d 7a 24 66 bd c3 2f c5 bc b0 13 8e bc
       0.08183209 -0.05618713 -0.024070626 -0.017343372
0003f0 67 91 fc 3d 43 24 a5 bc 9f eb d6 3d 15 46 79 bd
       0.12332421 -0.020158892 0.1049416 -0.06085785

a2c_network.actor_mlp.4.bias f4 [64]
000000 56 b3 19 bd 63 ab 5d bd a8 66 76 bd 0f f4 b5 bd
       -0.037524544 -0.054118525 -0.060156494 -0.08884441
000010 9e ed 8f bd 27 8c bb bb 1f 8f 63 bd 9c 55 5f bd
       -0.07027744 -0.0057234946 -0.055556413 -0.054525003
000020 3c c3 4f be 36 cd c5 3d a6 c5 2f be 1b 18 53 bd
       -0.2028932 0.096582815 -0.1716524 -0.05153666
000030 d2 b2 a4 bc 16 79 9c bb 01 04 05 be 8e 6b 0b bd
       -0.0201048 -0.0047751768 -0.12989809 -0.03403812
000040 97 51 d6 bc db ad 30 be c0 32 af bd 07 3f fc 3c
       -0.026161952 -0.1725382 -0.08554602 0.030791773
000050 c4 39 1a be ae 39 28 bd 03 1a d4 bd b7 71 3b bd
       -0.15061098 -0.041070633 -0.10356524 -0.045762744
000060 df 4c 62 bd 9a a2 a5 bc 93 c7 7c 3d bf 27 3c be
       -0.05524909 -0.020219136 0.061713766 -0.18374537
000070 d7 1a 4c bc 2b c6 a2 bc 2e 4b 16 be 3d d4 34 be
       -0.012457571 -0.019869884 -0.14677116 -0.17659087
000080 7b 56 56 be b5 50 3e bc 50 f6 ac bd 47 05 3f be
       -0.20931427 -0.011615922 -0.08445418 -0.18654357
000090 8c eb db bd 60 56 de 3a ab ae 07 bd 75 bd ac bc
       -0.107382864 0.0016962998 -0.03312556 -0.021086434
0000a0 6c 7c 71 3c b0 0d 22 3c ff ee 9e bd 6c 29 1f be
       0.014739137 0.009890959 -0.07760429 -0.15543145
0000b0 09 dd 50 bd c5 e2 8c bd bb be 9f 3c 89 fc 92 3d
       -0.050992046 -0.0687919 0.019500127 0.071770735
0000c0 b2 0d 81 3d 0e 6f c8 3d 17 d9 26 bd 44 78 84 bd
       0.0630144 0.09786807 -0.040734377 -0.06468251
0000d0 6f c5 ae bc 7e ff 10 be 1e 8a d9 bd 87 12 a8 bd
       -0.021334378 -0.14159963 -0.10622047 -0.08206659
0000e0 ea 88 ce 3a 94 59 64 be 9a ef 55 3c c0 e1 53 3c
       0.0015757356 -0.22299796 0.013057614 0.012932241
0000f0 04 e7 28 bb 1c a3 cd bd 9e 18 8d 3d 97 2c c4 bd
       -0.0025772462 -0.10040876 0.06889461 -0.09578817

a2c_network.value.weight f4 [1, 64]
000000 4c 9c c5 3d c3 0e 25 3d 70 d9 24 be 2d 9a 40 bc
       0.09648952 0.04029728 -0.16098571 -0.011755508
000010 26 33 64 bc 11 61 7d 3d 5e c3 d4 bc 63 a8 a9 bd
       -0.01392821 0.061860148 -0.025972065 -0.0828407
000020 03 09 2e bd 58 0f e5 3d 3e bb 3d bc f9 31 97 3d
       -0.042489063 0.11184567 -0.011580287 0.073825784
000030 7a 11 ef 3d 88 41 61 bd 14 9a 60 3a ab c0 42 bd
       0.11673255 -0.054994136 0.00085678813 -0.047547024
000040 01 20 cc 3d 0e 84 56 3a 74 98 8e 3d e9 59 10 3e
       0.09967042 0.000818313 0.06962672 0.14096798
000050 a8 45 05 be 9d f2 74 bb 3e 75 8f be 7b e8 d7 3d
       -0.13014853 -0.0037376054 -0.28019136 0.10542389
000060 63 16 b7 bd 7e e3 ce 3c 17 50 28 3d b9 e3 a2 3a
       -0.08939817 0.025254961 0.041092005 0.0012427486
000070 96 43 0f 3d cc 79 e5 3d e5 5f 67 bd df be db bc
       0.034976564 0.112048715 -0.056487937 -0.026824413
000080 3f 45 fb bc 4a 66 8d bb 99 68 1f 3d ef bd 86 bc
       -0.030672668 -0.0043151723 0.03891811 -0.01644799
000090 9b fe 10 3d a9 a1 42 3d 1a 5c c7 3d 94 34 c6 3d
       0.03539906 0.047517452 0.09734364 0.09677997
0000a0 be 48 29 3c e8 5b cf 3d d5 b8 81 bd 2c 9c b4 3d
       0.0103322845 0.101249516 -0.06334082 0.0881885
0000b0 7e 6f 24 3c c5 16 05 be e5 15 65 3c 7c bd 58 bc
       0.010036347 -0.12996967 0.013982271 -0.01322877
0000c0 97 dc 30 3d dc 5f 1d 3d b8 2b 02 3d 10 ab a7 bd
       0.04317912 0.038421497 0.031779975 -0.081869245
0000d0 18 b1 ab 3d d4 36 9d bc 18 fc 44 3c 80 44 d0 bd
       0.08383387 -0.019191183 0.012022994 -0.10169315
0000e0 77 49 c9 bc 2f 15 9e 3c 6f 2d c7 bd a0 32 2e be
       -0.024571164 0.01929721 -0.09725463 -0.170115
0000f0 78 aa de 3d 5e 7c 25 3d b1 fa 0a bd 3f df 29 be
       0.10872358 0.04040181 -0.033930484 -0.16589068

a2c_network.mu.weight f4 [6, 64]
000000 29 da 88 bd 36 ed 28 3b 19 53 d6 bb 1f 57 a4 bd
       -0.06682236 0.0025776154 -0.0065406677 -0.080244295
000010 da ca 85 bd 0d c5 84 3c 46 9d c9 3d 6d f9 e9 3c
       -0.065328315 0.016207242 0.09844451 0.028561318
000020 31 a5 13 be 56 37 5a bb 5c 53 d4 bd 3a c2 8a 3d
       -0.14418484 -0.0033297143 -0.10367462 0.06775327
000030 e1 6b 46 bd cb af 9b 3c d1 17 93 3d f8 89 58 3d
       -0.048442725 0.019004723 0.07182277 0.052865952
000040 00 97 8a 3d 5c d6 cd 38 a1 b7 5a 3c d5 f2 18 3e
       0.06767082 9.815089e-05 0.013349445 0.14936383
000050 1e 88 39 3d b1 fb ca 3b 3f cd 18 be 70 af c1 3d
       0.045295827 0.0061945547 -0.14922045 0.0945729
000060 54 fe 68 bc 69 5f 1e bd ba dd ee 3d fd a8 0f be
       -0.014220793 -0.03866521 0.11663385 -0.14029308
000070 94 79 80 3d 0e 43 21 3d 22 61 ad bd 6d 42 4f 3d
       0.06273189 0.03937059 -0.08465792 0.050600458
000080 ea 04 4a bd 79 d8 bb bd 8f 79 b8 bd 73 4b e0 bd
       -0.049321093 -0.09172148 -0.090075605 -0.10951891
000090 ce 02 53 bc e9 ff 2c bd 3c d8 2c be 54 c8 da bc
       -0.012879087 -0.042236242 -0.16879362 -0.026706852
0000a0 70 d5 a1 3c 5c 6e 2c bd 6f e7 37 bd da 25 e2 bb
       0.019755095 -0.042097434 -0.044898447 -0.006901485
0000b0 86 bb b1 3c 5f ac d8 3b 4f e4 48 bc d8 f5 bb 3d
       0.021695863 0.006612345 -0.012261464 0.0917775
0000c0 b4 20 27 3d 8a 6c 3d 3d de 5c 7b 3c be 7d 47 bd
       0.040802673 0.04624609 0.0153419655 -0.0487039
0000d0 e1 f1 36 3d 48 c4 9a bc d1 82 c0 3c 5f 51 51 bd
       0.044664267 -0.018892422 0.023499878 -0.051102992
0000e0 b3 4c 51 bd a5 f4 41 3c c2 86 2b 3d 6d 70 6c bc
       -0.051098537 0.011838113 0.041876562 -0.014431101
0000f0 c3 9f 96 3d 4b a9 a7 bd d2 2c 69 3c 3d ae aa 3d
       0.07354691 -0.08186587 0.014231877 0.083340146
000100 6f 59 c1 bd 42 89 33 3b 14 0e 13 3d 07 11 8a 3d
       -0.09440886 0.0027395044 0.035902098 0.06741529
000110 48 d4 36 bd a6 19 8a 3d 97 e8 d6 bc 42 83 99 bd
       -0.04463604 0.06743173 -0.026233954 -0.074957386
000120 2b 2e d2 bd 4f b8 0a 3e ce 99 dd bd 5d de 84 bc
       -0.10262712 0.1354687 -0.108203515 -0.016219312
000130 2e 19 d8 3c 3d 8c 55 3c 81 ce d2 bc e9 28 f9 3b
       0.026379194 0.013033924 -0.025733234 0.007603754
000140 68 6d 31 3a 88 d6 ed bc 95 4a e0 bd 58 fd f3 3d
       0.0006768317 -0.02903296 -0.109517254 0.11913556
000150 12 ff 0a be e1 50 4e 3d 32 79 8d 3d 07 24 81 3d
       -0.13573864 0.0503701 0.06907882 0.063057
000160 34 18 50 3d 95 2e 80 3d 60 0f 6c 3d 76 15 88 bd
       0.050804332 0.06258885 0.05763185 -0.06644718
000170 32 95 4b bd a1 f7 15 bd 85 b5 b2 bd 6d f8 bc bc
       -0.04970283 -0.03661311 -0.08726028 -0.023067677
000180 f1 4b 03 be e4 6c c2 3c c9 9d 3e 3d 99 ce 97 bd
       -0.12821938 0.023733564 0.046537194 -0.07412452
000190 c6 42 e1 bd 68 6a f8 bc d6 96 b8 bd ab d5 36 3c
       -0.10999064 -0.030324176 -0.09013145 0.011159341
0001a0 d0 4c 4b 3d 4a 0d 82 3d 3f de 98 bc 70 3e 67 bd
       0.0496338 0.06350191 -0.018660663 -0.05645603
0001b0 62 58 a9 3d 78 b3 32 3a 27 ea 44 3d ae c3 02 3d
       0.08268811 0.0006816904 0.048074868 0.031924896
0001c0 86 01 af 3c 89 4c da 3d 25 d5 73 bd ec b7 e0 3d
       0.021363031 0.10659129 -0.059529442 0.1097258
0001d0 00 4c 51 bd 19 fd b6 bd d4 90 fa bd 3d a8 12 bd
       -0.05109787 -0.08934993 -0.12234655 -0.035804976
0001e0 53 54 62 3d 4f 5d a4 bd 68 65 ca 3d d7 7a ac 3c
       0.0552562 -0.0802561 0.09882623 0.021054668
0001f0 58 9a af bc 08 2d aa bd a9 93 c1 3b ef c3 72 bd
       -0.021435902 -0.0830937 0.005907495 -0.059268888
000200 89 ff 96 bd 06 5d 7f bb 21 1a 98 bc ec 8d 94 3d
       -0.07372958 -0.0038965358 -0.018567147 0.07253632
000210 e3 db ce bd f9 67 16 3d 5e 0a 72 3d c2 a1 2e 3d
       -0.10100534 0.03672025 0.05909192 0.042634733
000220 85 88 fb 3d 7f ff a2 bc aa 41 1d 3d bd 72 b8 3d
       0.122818984 -0.01989722 0.0383927 0.090062596
000230 16 65 a8 bd d8 cd 8e bc 78 01 d1 3d 60 74 cc b8
       -0.082224056 -0.017432138 0.10205358 -9.7491546e-05
000240 a9 32 bd 3d fb 71 08 3e 28 f4 96 3c d2 66 52 bc
       0.09238178 0.1332473 0.01842697 -0.012841897
000250 49 c9 6c 3d 61 86 2f bd e5 66 7d bd 61 b4 72 3d
       0.057809148 -0.042852763 -0.061865706 0.059254054
000260 8b d1 80 bb 0d 08 4c bd ac ce c7 bd cb a0 5e 3d
       -0.0039312295 -0.049812365 -0.097562164 0.054352563
000270 78 f1 73 bc aa da 51 3b 30 4a 50 3d 68 34 82 3d
       -0.014889114 0.0032021203 0.050852 0.06357652
000280 31 91 b8 3d fd 46 26 3c cd e0 ba 3d bd 63 a7 3c
       0.09012068 0.010148761 0.091249086 0.020433301
000290 65 4b a9 3d fd d6 dd 3a 23 fb 33 3b 97 0f 23 bd
       0.082663335 0.0016925033 0.0027462922 -0.03980979
0002a0 08 5b bc bc dd 5e 0f be 67 5b 2e 3c f5 5c 5d 3d
       -0.022992626 -0.14001031 0.010641909 0.05404373
0002b0 89 48 f5 3d c9 5c 98 bd 64 a4 c5 3c 8a ff f9 3c
       0.119767256 -0.07439572 0.02412624 0.030517358
0002c0 22 94 9e bd 88 a5 30 bd 51 d6 c2 bc 0d 65 ca 3d
       -0.07743098 -0.043126613 -0.023783835 0.09882555
0002d0 b0 4f c3 3c 79 26 a9 bc 35 31 61 bc d2 65 04 3d
       0.023841709 -0.020648228 -0.013744642 0.032323666
0002e0 f0 28 cb 3c 3e be 28 3e 15 f0 d5 3d a9 33 18 bd
       0.024799794 0.16478822 0.10446183 -0.037158642
0002f0 d2 4d b0 bd e2 b9 b3 3d 58 bf 82 bd db 25 b4 3d
       -0.08608593 0.08775689 -0.06384152 0.08796283
000300 34 20 4c 3d 41 93 49 bc 40 ed d8 3b fc 70 b9 3d
       0.0498354 -0.0123031745 0.0066200793 0.09054753
000310 3f 5a 4c bd 8a a1 21 3c fb d8 cf 3c bd ba db bc
       -0.049890753 0.009865174 0.025372019 -0.026822442
000320 13 38 00 3e 0e f8 b8 3c c3 18 73 3d 16 22 df 3d
       0.1252139 0.02257922 0.059349786 0.10895173
000330 d7 01 f8 bc 0c f4 8f bd c4 ab bd 3c b1 8f 4f bc
       -0.030274315 -0.0702897 0.023153193 -0.012668536
000340 c3 cd 80 ba d1 b8 f1 3d 86 e6 ba bd d3 d5 36 3d
       -0.0009826947 0.11802829 -0.09126 0.044637512
000350 2d c9 50 bb df ee e8 bc fa 13 79 bc 51 7e f4 3c
       -0.0031858191 -0.028434215 -0.015202517 0.029845389
000360 b0 b3 34 3a f8 64 5c bc 5a 23 d8 bd e7 c9 b9 3d
       0.00068932306 -0.013451807 -0.10553618 0.09071713
000370 de f2 7c 3d 4e 46 b2 3d e4 a4 3e bd 64 b4 01 3d
       0.061755054 0.08704816 -0.04654397 0.031666175
000380 cd b4 9d 3c 9a 52 4d 3d bb 57 42 3c 25 e8 c1 3d
       0.019251252 0.050127603 0.011861737 0.09468106
000390 2f 80 5c bd 64 e1 9d bd a0 bb cf 3c 53 ca 4d bd
       -0.053833183 -0.077090055 0.025358021 -0.05024178
0003a0 c8 66 40 bd e3 56 b1 bc 69 d2 d6 3d fe e5 99 3d
       -0.04697302 -0.021647876 0.10489351 0.07514571
0003b0 17 f3 36 bc f4 09 d5 3d c6 5c 8a bd 1a 3e 11 be
       -0.011166356 0.10402289 -0.067559764 -0.14183846
0003c0 0d c2 93 bd d9 7f ee bd 3a 07 ac 3b cd 50 bb 3d
       -0.072147466 -0.11645479 0.005249885 0.09146271
0003d0 da f3 c0 3d 2c 2c de bc bc 0d 13 3c 2b 24 31 bd
       0.09421511 -0.027120672 0.0089754425 -0.043247383
0003e0 e7 ee ad bb 3e e8 01 3e 6f 24 22 3d dc ac f5 bd
       -0.0053080204 0.1268625 0.039585527 -0.11995861
0003f0 35 40 0c 3d 81 d7 c9 3d 0b 5a 68 bd bc 53 48 bc
       0.03424092 0.09855557 -0.056726497 -0.012226995

a2c_network.mu.bias f4 [6]
000000 c2 6a 95 3c c9 db d3 3d 5b 2d a6 bc 18 b2 5f bd
       0.018239383 0.10344655 -0.020285299 -0.054613203
000010 fe 48 92 3d 8b 21 f6 bc
       0.071428284 -0.030045291

exp_avg f4 [6]
000000 6f ea 24 3c 8a 01 ed 3b 0a 99 6a 3b 52 17 d1 3b
       0.010065659 0.0072328495 0.0035796785 0.006380954
000010 26 cf cb 3a 9e 1e 8c bb
       0.0015549406 -0.004276111

exp_avg_sq f4 [6]
000000 ba a5 9f 39 7a ce a8 39 67 a3 91 39 40 90 ab 39
       0.0003045032 0.00032197294 0.000277783 0.00032723136
000010 fd d2 ab 39 53 d0 8c 39
       0.0003277286 0.00026858094
