IsaacGymEnvs/isaacgymenvs/runs/Bolt_18-16-44-54/nn/last_Bolt_ep_800_rew_0.45385367.pth (torch, 612432 bytes, 36 tensors)

value_mean_std.running_mean f8 [1]
000000 95 c0 20 e5 0d c8 c8 3f
       0.193605172041775

value_mean_std.running_var f8 [1]
000000 c5 44 f8 29 a0 ef 8b 3f
       0.01364064338761962

value_mean_std.count f8 []
000000 00 00 00 00 01 c0 32 41
       1228801.0

running_mean_std.running_mean f8 [30]
000000 91 d5 05 ee 32 11 ed 3f 10 2b 96 2c a8 3a a0 3f
       0.9083494805224054 0.03169751686353639
000010 27 e1 b5 61 51 58 da bf 40 68 3c 2e 90 14 81 3f
       -0.41164049665487074 0.008340002451905915
000020 d4 c7 8a ae a8 0a d7 3f e4 93 df 75 30 9a 65 3f
       0.36002556843879785 0.0026369997494719456
000030 b2 76 d0 e7 62 02 c0 bf 1b 1d 51 0f f4 4e 93 bf
       -0.12507282561357652 -0.01885587066160808
000040 5f 27 8a cf 44 12 ec bf 96 f9 34 5c 8f ff 0f 40
       -0.8772300771245048 3.999785156599681
000050 00 00 00 00 00 00 00 00 00 00 00 00 00 00 00 00
       0.0 0.0
000060 52 4c bb ec a0 60 d9 3f eb 6b b8 0c 07 31 dc 3f
       0.3965227424461705 0.4404924034330963
000070 f2 60 d6 ba 5e 8b d8 bf f8 17 c0 1e ec b2 d8 bf
       -0.38350647207108957 -0.38592055323567775
000080 3b ba b5 dd f0 99 db 3f 21 c2 f3 43 04 61 d9 bf
       0.431270805848644 -0.3965464271159665
000090 45 96 56 be 60 da 82 3f 50 32 94 68 2e de 84 3f
       0.009205585297262018 0.010189402166838196
0000a0 d6 0c 9c 86 15 b7 84 3f 9a 6d 40 3c 6b c4 8a bf
       0.010114830179651351 -0.013069951797709579
0000b0 a1 35 b8 88 d3 a8 7a 3f a8 1b 23 de 19 fb 7f 3f
       0.006508661560940794 0.007807827993196272
0000c0 63 2b 7f c8 33 ba e9 3f 4f 5c d1 7e 5d 4a ec 3f
       0.803979770274378 0.8840777851973004
0000d0 71 92 d9 fa b7 88 e6 bf e9 8d 63 55 27 30 e9 bf
       -0.7041892909442834 -0.7871281306983607
0000e0 81 c7 0a 92 0b 80 eb 3f 13 29 4e df f1 9d e7 bf
       0.8593805172333618 -0.7380303727561873

running_mean_std.running_var f8 [30]
000000 2c 8f 51 c0 a5 af f9 3f f7 a8 60 09 f4 13 c8 3f
       1.6053826820797878 0.18810892541780053
000010 37 14 93 e1 cc 90 e8 3f 7d 4b f2 54 74 ec d3 3f
       0.7676758199455723 0.3113070325427357
000020 0f 81 10 e3 bd cb db 3f 16 d9 22 9d 70 ce ac 3f
       0.4343104093004663 0.05626251142659748
000030 58 ad 16 e6 0b 87 bd 3f 81 c1 c5 33 af 56 98 3f
       0.1153418957462028 0.02376817468160786
000040 b2 5b 97 27 b2 a9 b3 3f aa 46 63 53 f2 6a 4c 3f
       0.07680810419638709 0.0008672412139054304
000050 5b fb 40 cb 7e 4e bb 3e 5b fb 40 cb 7e 4e bb 3e
       1.6276015175756533e-06 1.6276015175756533e-06
000060 3b d8 c0 ef 29 08 a5 3f 4e 43 4d a5 37 92 99 3f
       0.041077909962425406 0.024971837486478514
000070 89 35 2f b1 9c aa b5 3f 2b be d8 af 8b 00 ac 3f
       0.08463458371917033 0.05469166299405644
000080 04 bd 8c 54 f1 e4 9e 3f c8 c0 47 1b f3 e8 b5 3f
       0.030170222077853928 0.08558577934286682
000090 7d ed 18 ba 35 53 a6 3f ed d0 95 f0 9b 4e 99 3f
       0.04360359093376596 0.024713932570606657
0000a0 26 66 3c 60 30 a2 ab 3f 09 7a 40 6f 2c 0f a9 3f
       0.0539717786288743 0.04894389017157514
0000b0 21 35 16 88 f1 07 a0 3f 25 78 91 aa 21 dd a7 3f
       0.03131060396399677 0.04660897452480154
0000c0 0c 4d 33 f8 c4 04 cf 3f 9b 59 4a bf e3 30 c5 3f
       0.24233305091056712 0.1655544933352758
0000d0 d7 ac 4f a4 2d 7b d7 3f b4 5c af 6a 32 29 d2 3f
       0.36689320608156833 0.28376446169336167
0000e0 18 e6 e2 e3 4b 80 ca 3f 92 42 26 b4 ef cd d5 3f
       0.20704029681455505 0.3406943568489079

running_mean_std.count f8 []
000000 00 00 00 00 02 c0 22 41
       614401.0

a2c_network.sigma f4 [6]
000000 d3 10 5b bf 94 84 7e bf 85 ab 94 bf 82 ac 52 bf
       -0.85572547 -0.9942105 -1.1614844 -0.82294476
000010 9b be 70 bf c5 c1 7e bf
       -0.9404084 -0.9951442

a2c_network.actor_mlp.0.weight f4 [256, 30]
000000 70 b3 7b 3e 96 83 46 be 5f e9 01 3e 5e 3b 9f 3d
       0.24580169 -0.19386134 0.1268668 0.07774995
000010 71 b4 88 bd 88 ac 51 3e 06 51 99 3d 70 37 34 3e
       -0.066750415 0.20475972 0.07486157 0.17599273
000020 f2 68 5f bd e8 45 1e 3c 95 ed 48 3d 61 cb 4a bd
       -0.054543443 0.009660222 0.0490547 -0.049510363
000030 8b 16 c3 3d ae c5 6e 3e 5a be 82 3d db 20 d8 bd
       0.09525784 0.23317596 0.06383963 -0.10553142
000040 f5 3a 1b 3e f9 f1 49 bc f3 06 05 3e 3a bf bd 3c
       0.15159209 -0.012325757 0.12990932 0.023162473
000050 13 b2 43 be 29 81 0f bd 86 e3 03 be a6 bf 21 3e
       -0.19110899 -0.035035286 -0.12879762 0.15795764
000060 ef 1a 88 3d 09 1a e1 3d 22 7d 3d bc a6 42 b8 bc
       0.06645762 0.10991294 -0.0115654785 -0.022492718
000070 52 01 22 3e 79 6a d8 bd c8 42 79 3d f1 8e 11 be
       0.15820816 -0.10567183 0.060854703 -0.14214684
000080 e5 2a 2a 3d a0 6e 96 bc ce 38 db 3d 99 2e f4 bd
       0.041544814 -0.018363297 0.10704194 -0.1192295
000090 0c 7a 01 3e 6e 35 51 bd 98 38 62 be f6 73 5e bd
       0.12644213 -0.051076345 -0.22091901 -0.054309808
0000a0 fc 27 28 3e 90 36 79 3d 26 b5 f3 3d 70 00 69 be
       0.16421503 0.06084305 0.11899786 -0.22754073
0000b0 fd 2a 0f be 81 33 ad bd db c3 2f be f6 75 a7 3d
       -0.13981242 -0.08457089 -0.17164557 0.08176796
0000c0 41 e4 37 bb 87 16 3a 3e 07 67 23 be b7 1a 0c be
       -0.0028059634 0.18172656 -0.1595727 -0.13682066
0000d0 7a 06 dd 3d ae bb 9d bd 92 2e 00 3d a2 f2 ad bd
       0.10792251 -0.07701813 0.031294413 -0.08493544
0000e0 33 ca 02 3e fb cf 98 bd 67 db 0c be 91 50 ee 3c
       0.12772445 -0.07461544 -0.1375557 0.029091151
0000f0 05 41 3c bd 1b 7c b9 bd c4 0d 39 3e d6 6b 36 3e
       -0.045960445 -0.09056874 0.18071657 0.17814574
000100 31 04 85 be bd bb 3a be bb 10 a0 3e 77 bd d9 bd
       -0.2597976 -0.18235679 0.31262764 -0.10631841
000110 b1 2f b8 3d 56 fd 69 be d3 20 d6 bd 24 cf 3a 3d
       0.089934714 -0.22850546 -0.104554795 0.0456077
000120 c6 9f 09 3d eb ee 21 be b9 dd e0 bd ab b2 ed bd
       0.033599637 -0.15813796 -0.1097979 -0.11606344
000130 a4 6b e1 bd ed 75 f5 bd 26 03 dc bd 62 9e 80 be
       -0.11006859 -0.11985383 -0.10742788 -0.25120836
000140 ce 17 a3 3d 0e 9a b8 3d d2 43 73 3c 37 43 71 be
       0.07963525 0.090137586 0.014847713 -0.23560797
000150 4b 20 da bd e1 3c be bd 48 bf dd bc eb bb 13 be
       -0.10650691 -0.092889555 -0.02706875 -0.14427154
000160 64 d5 63 bd e0 19 9a bd f4 56 53 bd 0f e4 93 bd
       -0.055623427 -0.075244665 -0.051596597 -0.07221233
000170 f2 c7 87 bd 4d 95 6d be 90 a4 ff bd a9 73 f9 bd
       -0.066299334 -0.23201485 -0.1248256 -0.121802635
000180 2d 54 00 be 37 e6 40 be 58 31 8d 3e 1e c8 44 bd
       -0.1253211 -0.1883782 0.2757671 -0.04804241
000190 37 db 20 3e 2e 02 69 3d 02 c0 2d be 59 f1 43 3e
       0.15708624 0.056886844 -0.16967776 0.19135036
0001a0 f5 25 7e bc 28 46 d6 bd 11 00 0b be a4 3f 32 be
       -0.015511979 -0.104626 -0.13574244 -0.1740709
0001b0 18 61 8d 3b f8 78 e5 bd 90 99 9e 3d 90 7a 4c be
       0.004314553 -0.112047136 0.077441335 -0.19968629
0001c0 e3 ac 0e 3e 86 17 df bd 39 c7 f1 bc 04 1f 86 3d
       0.13933139 -0.108931586 -0.029513942 0.065488845
0001d0 4d f9 d5 3d 20 59 cd 3d ef 24 23 3e 0f 91 ac bd
       0.10447941 0.10026765 0.15932058 -0.08426105
0001e0 26 fb 3d 3d 4d 08 fb bd 78 cb b3 bd df 30 08 be
       0.046382092 -0.122574426 -0.08779043 -0.13299893
0001f0 85 69 65 3e 9c 0d 35 be 82 09 8a 3d 3b c5 84 3d
       0.22403534 -0.17680973 0.06740095 0.06482931
000200 bd e5 ae 3d e5 88 e9 bd 15 ef 29 3e a8 55 24 3d
       0.08539913 -0.11403064 0.16595109 0.04012075
000210 a3 48 da 3c 7a d7 2a be 55 cd 35 3d 54 8c 77 bd
       0.026645964 -0.1668376 0.044385273 -0.06043656
000220 3e 61 30 be 31 29 6b 3e 8f 38 f3 bc 17 4b bc bc
       -0.17224595 0.22964932 -0.029690055 -0.022985024
000230 cc a8 03 bd 09 bc a0 bd 7f 85 07 3e 06 15 fc bc
       -0.0321434 -0.07848365 0.13234518 -0.030771744
000240 7c d9 07 be 16 1c de ba 3a 95 e7 bd 5c 21 16 3d
       -0.13266557 -0.0016945626 -0.113077596 0.036652908
000250 85 77 b8 3d b5 89 17 be e3 eb d2 3d f9 dd d2 3d
       0.090071715 -0.14798625 0.10298898 0.10296244
000260 25 b3 17 3b 68 0d 2a bd 94 61 a0 3d 9d 67 b0 3d
       0.002314755 -0.04151669 0.078311116 0.08613513
000270 0b ef 0b 3d 97 11 77 bc 0e ab 94 be 46 47 b7 3d
       0.034163516 -0.015079877 -0.29036754 0.08949141
000280 2d 1b 04 bd 30 da 5e bd 83 e4 38 3e 90 25 2d 3e
       -0.03225248 -0.0544073 0.1805592 0.1690886
000290 a6 25 70 bb 6a b2 85 bc a1 96 41 3d 76 66 6b bd
       -0.0036643534 -0.016320426 0.04726279 -0.05747076
0002a0 13 c8 e1 3c ac e3 bf 3d 55 ca 22 be f4 00 dc bc
       0.027561223 0.09369597 -0.15897496 -0.026855923
0002b0 17 a5 68 3e 76 6f 9d 3d b5 78 c2 3c 1b 39 0f be
       0.22719227 0.07687275 0.023739198 -0.13986628
0002c0 67 5c cc bd 5c ae fb bd a2 8b d0 bc 4c e4 8b 3c
       -0.09978562 -0.12289116 -0.025457207 0.017076634
0002d0 29 a5 61 3d 7c 5f 06 3e fb 1b 65 be 35 62 01 be
       0.05508915 0.13122362 -0.22373955 -0.1263512
0002e0 28 94 1c bd fc c2 dd 3d 17 3b fc 3b 71 89 f1 bc
       -0.03822723 0.10828206 0.0076974737 -0.029484482
0002f0 b4 11 28 3e 2a 08 38 bd 41 04 f2 bd ef 74 08 3e
       0.16413003 -0.04492966 -0.118172176 0.13325857
000300 59 12 02 be 33 4b ec 3c d9 34 ee bd d7 ef 32 3d
       -0.12702312 0.028844452 -0.11631174 0.04368576
000310 71 4d 0d 3e 95 f1 00 3e a1 cd ae bd 6b 3e 81 be
       0.13799073 0.12592156 -0.08535314 -0.25242934
000320 4f 0b 9c bd ab 31 1e 3e f2 19 a4 bd 90 62 ca 3d
       -0.076193444 0.15448634 -0.08012761 0.098820806
000330 25 0f f1 3d 3d 88 90 3d 44 d5 02 3e 61 77 20 be
       0.11770467 0.070572354 0.12776667 -0.1567054
000340 cc 54 68 be 8b fb 14 be cb 61 19 3e 9f 62 c2 bd
       -0.22688597 -0.14549081 0.14978711 -0.09491467
000350 94 4f 6f bd 18 6a 93 bd de 3c 86 3c 09 ea e2 bd
       -0.0584255 -0.0719797 0.016386446 -0.11079795
000360 cf 74 00 be 79 c3 e9 3d 1e 5b 67 be b4 e5 68 3e
       -0.12544559 0.114142366 -0.22593352 0.22743875
000370 90 e8 6f bd 10 25 09 be 18 b5 4d bd 08 c3 26 3d
       -0.0585714 -0.13393044 -0.050221533 0.04071334
000380 e5 a7 78 bd 36 5d 4e be d4 2f 38 3e 3a e2 fa bd
       -0.06070699 -0.20152745 0.17986995 -0.122501805
000390 c5 d6 d9 3d 94 38 14 3e 82 68 08 3e fd 0c 99 bd
       0.10636667 0.14474708 0.13321117 -0.074731804
0003a0 5e 2a 11 3e a0 aa 9b bd bc cb 9c 3d ef 36 66 3e
       0.14176318 -0.076009035 0.07656047 0.22481893
0003b0 84 0c f2 bc 5b d6 7f 3c a4 17 46 bd 20 d0 1f be
       -0.029546984 0.015615071 -0.04836239 -0.15606737
0003c0 31 88 35 3e 52 10 66 be 5e 33 fb 3d a4 a5 81 3e
       0.17727734 -0.22467163 0.12265657 0.25321686
0003d0 c1 4d 30 3e 24 78 de 3c e9 32 03 be 33 01 ef 3d
       0.17217161 0.027156897 -0.1281239 0.116701506
0003e0 12 3a e5 3c b3 f9 bd bd 6a be 29 bd c0 24 e0 bd
       0.027981792 -0.09276142 -0.04144136 -0.109445095
0003f0 89 43 fd bb 21 30 ae bd 5a dc 08 be 82 ce d8 bc
       -0.007728998 -0.085052736 -0.13365307 -0.026465658

a2c_network.actor_mlp.0.bias f4 [256]
000000 76 37 9d 3d 91 e3 ad 3d 0b 22 b3 bd e0 c9 af bc
       0.07676594 0.084906705 -0.087467276 -0.021458566
000010 95 5f 18 bb 99 aa ad 3d f1 d1 4f 3d bb cd 1d 3e
       -0.002325033 0.084798045 0.050737325 0.15410511
000020 ed 31 26 3e 63 dd b0 bd 38 b4 59 bc 7a aa 73 3d
       0.16229983 -0.08635976 -0.013287596 0.05948875
000030 24 a4 95 3d bd 03 03 3e 10 99 3b 3e f0 46 ad bd
       0.07306698 0.12794395 0.18320107 -0.08460796
000040 d2 07 05 be bb 00 57 3b 7d 39 aa 3d f8 5c 4c bd
       -0.12991264 0.0032806832 0.08311746 -0.04989335
000050 0a 8a cc 3d 6b c9 0d 3d 6d fa ac 3d 30 df 17 3c
       0.09987266 0.034615915 0.084462024 0.009269521
000060 ea 5a 4d 3e c5 03 83 3d 48 e8 b2 bd 5e ff ce bd
       0.20054212 0.06397203 -0.087357104 -0.10107301
000070 c2 2c bc 3c 82 79 8c 3b 79 45 0e 3e 19 bf 00 3b
       0.022970561 0.004286946 0.13893689 0.0019645153
000080 23 d8 9d bd cb 55 60 be 93 a7 44 3e ee ab 15 3d
       -0.077072404 -0.21907727 0.1920455 0.036540918
000090 56 3d 89 3c 12 1f b4 3c b1 70 e3 bb 16 db cd bd
       0.01675288 0.021987472 -0.006940924 -0.10051553
0000a0 a2 d6 23 3d 2a 2a d6 3d 72 59 31 bd da 98 c9 bd
       0.03999961 0.10457261 -0.043298192 -0.09843607
0000b0 5a da db 3c 13 79 9a bd dc db 84 3d e0 17 93 bc
       0.026837517 -0.07542624 0.06487247 -0.01795572
0000c0 c4 af a5 3d 8a 71 c8 bd 08 d0 33 3d 4f 85 12 be
       0.08090165 -0.09787281 0.043899566 -0.14308666
0000d0 a9 67 f5 bd 4a b3 65 bd 36 de ae bd 33 7f f7 3d
       -0.11982662 -0.056079186 -0.08538477 0.12084808
0000e0 d1 1e 0a be aa 28 1a 3d d7 63 96 3d ca 2f 05 bd
       -0.13488318 0.037636437 0.07343262 -0.03251628
0000f0 c2 75 a5 3d c6 32 0b 3d 44 0f 84 bd 2b fe 4f bd
       0.08079101 0.03398397 -0.06448224 -0.050779503
000100 75 31 e6 3b 9b e2 86 bd 46 5f 3f 3d 72 75 0a bd
       0.0070249387 -0.0658619 0.04672172 -0.03380341
000110 3a 62 2a bc 3e 65 82 3d 69 99 e9 3c 65 5f 28 3d
       -0.010399396 0.06366967 0.028515534 0.0411066
000120 4a a5 b0 bd b5 38 36 bd 13 33 47 3e 96 e9 39 be
       -0.086252764 -0.044487674 0.19453077 -0.18155512
000130 1d 18 85 bd 72 ac 04 3e e8 84 a6 3d 5a e3 04 3e
       -0.0649874 0.12956408 0.081308186 0.12977353
000140 c1 88 0e 3d 17 6f 94 bd 43 0b 34 bd 37 4f 93 b9
       0.034798387 -0.07247751 -0.043956053 -0.00028097045
000150 7b 5e b2 bd 32 4e 75 b7 ca 85 34 be fc 75 04 bc
       -0.08709427 -1.4621344e-05 -0.17629161 -0.00808477
000160 c1 c5 b0 bd 9d 3b 00 3d 3a e2 17 bd 07 59 8c 3c
       -0.086314686 0.03130685 -0.03708098 0.017132295
000170 c0 84 5e bd 47 17 3c bc 69 bf 60 3d 32 66 ec 3d
       -0.05432582 -0.011480159 0.054870043 0.1154293
000180 7e 29 82 bb 3b 56 da 3d 3b e0 cc bd 5f fd cb bd
       -0.0039722314 0.106609784 -0.10003706 -0.09960436
000190 ee dd d2 bd 00 d1 80 bd 13 c6 16 3e 9e 32 6b 3e
       -0.10296236 -0.062898636 0.14723997 0.22968528
0001a0 cc 86 43 bd 16 32 18 be 69 8c 09 3e 74 b2 f5 bb
       -0.047735974 -0.14862856 0.13432468 -0.00749808
0001b0 28 ec e6 3d 0a 59 46 3d 31 a7 93 3c 2f 27 e8 bc
       0.11275512 0.048424758 0.018024059 -0.028338997
0001c0 27 95 64 3c 11 26 d4 bc cb 76 7f 3c 2f 8e bd bd
       0.013951576 -0.025897058 0.015592287 -0.09255635
0001d0 05 4a 08 bd db 6c 39 bd fc 5e 8a bc 57 b9 ae 3c
       -0.033273716 -0.04526983 -0.016890995 0.021328611
0001e0 e3 c2 64 bc 01 1e a3 3b 6b 5a 63 3d e2 39 d8 3d
       -0.01396248 0.004977942 0.05550615 0.10557915
0001f0 6a b2 ad 3d 08 0e 6f 3d 49 7f 47 3e 07 6c 4c 3d
       0.084812954 0.05836299 0.19482149 0.04990771
000200 d8 da c4 bd 55 3e dc bb fb 1d 35 3d 31 07 2b 3d
       -0.09612054 -0.0067212977 0.044218045 0.041754905
000210 cf 14 fd bd 22 87 0e 3e 68 8d 4a bc 62 7d 8f 3d
       -0.123574845 0.13918737 -0.012362815 0.07006337
000220 7e 91 1f 3d f2 e3 77 3d ef ee 08 3e 3f 27 84 3d
       0.03895711 0.06052012 0.13372396 0.06452798
000230 67 42 6f bd 53 24 e9 3d 83 2d 73 bc 31 b0 f5 bd
       -0.058412936 0.113838814 -0.014842394 -0.119964965
000240 70 b5 10 3b 47 23 17 3c 52 d5 67 bd d4 a3 1e 3e
       0.0022080801 0.009224719 -0.056599922 0.15492183
000250 72 c9 b8 3d b8 99 90 be c1 b4 c3 3d 97 9c 99 bd
       0.09022798 -0.28242278 0.095559604 -0.0750057
000260 f3 3c c8 bc 45 3a 42 3e 1e 12 83 3d ac 58 4f 3c
       -0.024443125 0.1896754 0.0639994 0.012655418
000270 e2 bb e8 bd f9 f8 9c bd 2e b6 cc bd 5c 3f c9 3d
       -0.11363961 -0.07664675 -0.099956855 0.09826538
000280 3b 30 0a 3e f5 3d a9 3d 85 28 dd bd d0 ce a7 bd
       0.13494961 0.082637705 -0.10798744 -0.08193743
000290 a1 b5 52 be f8 17 ef bd 66 c5 5c 3c 8c 22 90 3b
       -0.20577098 -0.116744936 0.013474798 0.0043986496
0002a0 ec bc c7 bd e0 5d ee 3d c9 51 8e 3d 4a b5 7a bd
       -0.09752831 0.11638999 0.06949193 -0.061208047
0002b0 e0 6f 2e 3d 6e 9c 19 bd 95 67 e1 3d 7b 55 62 be
       0.04258716 -0.0375027 0.11006085 -0.2210292
0002c0 ce 84 27 3d ee 5c f1 bd a6 12 02 be 3e e4 44 3d
       0.040898137 -0.11785303 -0.12702426 0.04806923
0002d0 49 92 47 3e 1b ea 23 3e e7 30 36 bd c7 05 79 ba
       0.19489397 0.16007273 -0.04448023 -0.0009499457
0002e0 d8 dc 44 3e 63 65 08 bd fc d6 83 bc 55 e7 24 be
       0.1922487 -0.033299815 -0.016093723 -0.16103871
0002f0 ef d4 05 be 58 d2 e1 ba f3 ff 98 3d 8f c2 40 bd
       -0.13069509 -0.0017228825 0.074706934 -0.047060546
000300 68 e8 63 bd 8d 28 11 3e 61 48 23 3c ba 36 f2 3d
       -0.05564156 0.14175625 0.009965987 0.118268445
000310 86 a7 a1 3d 0d ef 7c bc fa 17 20 bd 00 c1 3f be
       0.07893281 -0.0154378535 -0.039085366 -0.18725967
000320 af 0f 92 3d 28 75 aa 3d 37 4d e0 bd e9 7c 6c bd
       0.07131898 0.08323127 -0.109522276 -0.05773631
000330 18 f1 8b bd 78 e6 fc bd dc 02 43 3d e5 2c bd bd
       -0.06833094 -0.12348646 0.04761015 -0.092370786
000340 ff 4b 07 3e b6 85 09 3e b2 66 1b bd 8e 92 64 bd
       0.13212584 0.13429913 -0.037939735 -0.055803828
000350 48 da 24 bd 7f 30 8e bd b1 a6 a4 bd 10 19 87 bc
       -0.04024723 -0.06942844 -0.08039606 -0.016491443
000360 eb f2 bb 3d 6c 4d 8e 3d 3e 7c a1 3d 6d fe 3d 3d
       0.09177192 0.06948361 0.078850254 0.046385217
000370 a5 a7 bf 3b 17 e2 7b bd 4e ca 07 3e b9 13 98 3d
       0.005848842 -0.061494913 0.13260767 0.07425637
000380 b5 f9 31 bd 0c 08 6c bd bd 4c d8 3d 72 8c 8c 3d
       -0.04345103 -0.05762486 0.10561512 0.06862725
000390 db 2a 96 bd b6 3f 7b 3d b5 74 b8 3d 11 1b 0a 3e
       -0.07332393 0.061340056 0.09006635 0.13486888
0003a0 0d c3 c3 3c 05 a3 7c b9 c6 15 f1 bb 25 2e 74 3e
       0.023896718 -0.00024093322 -0.007357332 0.23845728
0003b0 3f d3 92 3c 40 79 61 bb 04 2d 35 bd 3a b9 4d 3b
       0.017922996 -0.0034404546 -0.044232383 0.0031390921
0003c0 b1 ef ef 3c d6 02 78 bd 1a 4d 86 bd aa 04 94 3d
       0.029289098 -0.06054958 -0.06557675 0.07227452
0003d0 20 c7 8d bd 24 f4 49 3d 95 b8 29 bc aa 12 7c 3d
       -0.06922746 0.049305096 -0.010358949 0.061541237
0003e0 e1 de b7 bd a7 cc 08 be 33 55 a2 3c b1 46 13 bd
       -0.08978058 -0.13359319 0.019816017 -0.03595609
0003f0 b5 c1 bd bd 06 36 05 bd cb 04 d0 3d 69 1d 8d 3d
       -0.09265462 -0.032522224 0.10157164 0.06890375

a2c_network.actor_mlp.2.weight f4 [128, 256]
000000 dd ac bb 3c 4b 06 59 bd 9b a1 97 bd f5 0e 3b 3d
       0.022909576 -0.052984517 -0.07403871 0.04566856
000010 cf 4f 74 3d 93 9c be bc 8a 81 c9 bc cb 93 1e bd
       0.059646424 -0.02326802 -0.024597902 -0.038715165
000020 41 39 c7 bd d9 13 88 3d c6 fa 3f bb b9 9c f6 bc
       -0.09727717 0.06644411 -0.002929376 -0.030104028
000030 20 1d fa 3c b7 2e 0f bd 33 53 ba bd fb af a4 3d
       0.030531466 -0.03495666 -0.090979 0.08041378
000040 b5 ee 54 bc 89 1b 3c 3d f7 fe b8 bd 16 d2 8a 3c
       -0.012996365 0.045924697 -0.09033006 0.01694588
000050 de 6d 5e be d6 d9 aa bc 8f 46 c0 bd e8 f7 73 bd
       -0.21721599 -0.020855825 -0.09388458 -0.059562594
000060 95 d0 bc bd 5e 12 80 bd af e7 70 3c 26 76 0d 3d
       -0.09219471 -0.06253503 0.014703675 0.034536503
000070 3b e2 27 bc 04 5c 0a 3d 12 6d 81 3d e1 68 48 3c
       -0.010246809 0.03377916 0.06319632 0.012232036
000080 c3 cd 16 3d f1 9a 5b 3d d4 e2 12 bd 9a 0b 2a bd
       0.036817323 0.05361456 -0.03586085 -0.04151497
000090 fa 3d e1 bd 91 2e 71 3d e8 b1 8d 3d 4f 00 05 bd
       -0.10998149 0.0588823 0.069186985 -0.032470997
0000a0 04 5b 60 3d 08 96 16 bd 30 7a f4 3c 95 cb b8 3b
       0.0547743 -0.036764175 0.02984342 0.0056395032
0000b0 52 79 5a 3c 32 91 35 3d 8f 0a 68 bd 3e db 69 bd
       0.013334589 0.044327922 -0.056650694 -0.05709385
0000c0 a2 84 46 bd e1 b2 92 3d ee bc 93 bd 45 b7 e7 3d
       -0.048466332 0.07163025 -0.0721377 0.11314253
0000d0 55 f2 88 3d a2 6f 00 3d 09 9e a6 3d a6 e7 e3 bd
       0.06686846 0.03135646 0.081356116 -0.11128168
0000e0 b5 d4 14 3e f4 ed 03 3c 09 52 b1 bc e0 6e ec 3b
       0.14534266 0.008052338 -0.021645563 0.007215366
0000f0 72 65 49 bb 33 81 7b bd 30 38 ef 3d d8 f4 9d 3d
       -0.0030730632 -0.06140251 0.11680639 0.07712716
000100 a7 33 d3 bd b9 99 70 bd f0 d0 73 3d 7f 8b 7e 3c
       -0.10312586 -0.05874035 0.05952543 0.015536188
000110 3e 1b f6 bc ee ce 95 3d 46 b9 64 bd 56 ce 5b bd
       -0.030042287 0.07314859 -0.055840753 -0.053663574
000120 3b a0 e0 3c 6d 04 aa 3c 9a 1a 53 bd fa b0 37 3d
       0.027420154 0.020754064 -0.05153904 0.044846512
000130 b2 e5 b8 bc 83 29 82 bd 3d 3f 40 bd 92 95 74 bd
       -0.022570465 -0.06355574 -0.04693531 -0.059712954
000140 46 c7 13 bc 37 2e e4 bc 75 50 01 bc e8 24 70 bc
       -0.009019678 -0.027854068 -0.007892718 -0.014657237
000150 cb c5 40 bd 06 8b 91 bc e0 3a ea 3d 3f 10 c0 bd
       -0.04706363 -0.017766487 0.11437011 -0.09378099
000160 f4 74 f0 bc 83 3d fd bc 11 2b 14 3e 71 bb b3 3c
       -0.029352643 -0.03091312 0.14469554 0.021939965
000170 5e de 40 bd 88 1b 64 3d 18 df a3 3b 24 62 22 3d
       -0.047087066 0.05569032 0.00500096 0.039644375
000180 7f be 00 be 35 b5 4a bd 6a f7 81 3d 71 88 60 3d
       -0.12572668 -0.04948922 0.063460186 0.05481762
000190 e1 b8 fa bc 62 71 91 3d 61 79 9e bc 59 15 9a bd
       -0.030605735 0.07101704 -0.019344987 -0.07523603
0001a0 29 6a 8d bd eb 4e 4f 3d c5 69 0f bd 92 0c 55 bd
       -0.06905014 0.05061237 -0.03501298 -0.05201394
0001b0 4d d6 b8 bd 48 b1 47 be e6 4d 9f 3d a6 c4 b0 3c
       -0.0902525 -0.19501221 0.0777853 0.021578144
0001c0 eb 41 17 3d 82 e2 c5 3d f8 56 4c 3a d9 56 91 3d
       0.0369281 0.096623436 0.0007794942 0.07096643
0001d0 6a 83 9d bd 30 2c 72 bd 9e 19 b3 bb 50 8d 7f 3d
       -0.07691081 -0.05912417 -0.0054657003 0.062390625
0001e0 b3 59 ce 3d a8 4e bd 3c 74 0a 77 bd 37 06 8d bd
       0.100757025 0.023108795 -0.060312703 -0.06885951
0001f0 9b f7 ac 3b d6 20 3e bd 86 93 38 ba b1 a3 76 bd
       0.0052785403 -0.046418034 -0.00070410257 -0.060214702
000200 1a f3 82 bd f7 97 e2 3b df 05 42 3d 61 68 de bd
       -0.06394024 0.0069150883 0.04736888 -0.108597524
000210 bb f3 ce bc 73 3c c5 bd 54 4f 79 bd 61 e4 20 bc
       -0.025262704 -0.096306704 -0.06086667 -0.009820075
000220 72 f4 3b bd 2c 19 8f bc 22 36 85 bc 91 ef 71 bd
       -0.045887418 -0.017468058 -0.016261164 -0.05906636
000230 0b 66 b0 bb 61 9f ba bd fb 5d 47 ba 34 2c d3 bb
       -0.005383258 -0.0911243 -0.0007605252 -0.0064444784
000240 72 6a 07 be 30 b1 81 bd ed d9 63 bd f4 48 6a 3c
       -0.132242 -0.06332624 -0.055627752 0.01429962
000250 e3 88 90 bd 0b 49 1c 3c be 63 dc 3c df c9 e5 3c
       -0.07057359 0.009538899 0.02690303 0.028050361
000260 7e f2 86 3d 89 41 3c 3d 81 d8 5e bd 37 12 6f 3c
       0.065892205 0.045960937 -0.054405693 0.014591745
000270 94 58 dd 3d a1 e1 2e 3d 62 18 6e bb d1 18 d0 3c
       0.108079106 0.042695645 -0.0036330451 0.025402458
000280 78 95 63 3d 89 21 88 bd 11 f6 9d 3d ab 21 67 3c
       0.055562466 -0.06647021 0.07712949 0.014107148
000290 2b 26 28 bd 45 a2 6d 3d f2 d0 34 3c 26 32 20 bc
       -0.041052025 0.05801608 0.011036145 -0.009777581
0002a0 62 1e a7 3d ec ce de bc 93 4f db 3c a7 e5 8a 3d
       0.08160092 -0.027198277 0.026771342 0.06782084
0002b0 aa 95 00 bd 29 2e 1b 3c b3 2f 08 bd a4 03 d9 3c
       -0.03139273 0.009471455 -0.033248615 0.026490994
0002c0 ed d1 ef bc 73 13 a0 3d 6f 3a a3 3c f8 ae 40 bd
       -0.029274905 0.0781621 0.019925324 -0.047041863
0002d0 5f 83 58 3d 53 46 1f be a8 f2 15 3d f7 4a 07 3b
       0.05285966 -0.1555417 0.03660837 0.0020644048
0002e0 7b 8a bc bd 51 db 20 bd 40 0a bd bb fa fb 60 3d
       -0.092061006 -0.039271656 -0.005769044 0.054927804
0002f0 8b f9 9c 3c ab 9a cc bd 6f 7a 1a bd c9 c8 a3 3c
       0.01916196 -0.09990438 -0.037714418 0.019993203
000300 f7 73 0e 3d c9 72 d0 3d c0 d1 ff bc 2c 0b ff 3c
       0.03477856 0.101781435 -0.031227946 0.031133257
000310 6a b3 f3 bc c0 66 a7 bb 29 35 c2 bd bc dc 17 bd
       -0.029748637 -0.0051086843 -0.09482796 -0.037075743
000320 55 b5 01 bd f5 d5 1e 3e 95 69 0b 3e c8 56 86 bd
       -0.031667072 0.15511306 0.13614495 -0.06559521
000330 91 2d 7e 3d f1 ba 96 bb 63 5c b0 bc 06 22 cc 3b
       0.062055174 -0.004599922 -0.021528428 0.006229642
000340 3c 4f a2 bd 85 a7 7f bd a3 fb 2f 3d 89 17 dd 3c
       -0.07925269 -0.06241562 0.04296459 0.026988761
000350 64 73 b4 3b cb de 89 bd 09 3c c1 3d 26 3d e9 3c
       0.0055069197 -0.067319475 0.09435279 0.02847154
000360 f5 e0 d2 bc 0e 01 53 3d 2b fd 5a bc 2d df 4e bd
       -0.025742033 0.051514678 -0.013366024 -0.050505806
000370 9d 02 9e 3c 05 f7 6a 3d 98 2d a4 bc ca 08 66 bd
       0.019288355 0.057364482 -0.020041272 -0.056160726
000380 79 89 bc bd da a3 02 3d cf 74 24 bc 06 e0 7d bd
       -0.09205908 0.031894542 -0.010037615 -0.061981224
000390 a3 73 62 3d 1b 7e 99 3c 5f 9c 2a 3d c0 86 63 bc
       0.05528606 0.01873689 0.041653033 -0.013887107
0003a0 e9 a9 63 bd de 2f 87 bb 01 0b 9f 3d 8a ab 15 be
       -0.05558196 -0.0041255793 0.07765771 -0.14616218
0003b0 6c 89 1c bd 96 39 03 be c1 45 0e bc b9 d8 b6 bd
       -0.038216993 -0.12814936 -0.008683623 -0.08928055
0003c0 cb 28 2c bd e0 c8 87 bd 07 c0 b9 3c 88 81 82 bd
       -0.04203109 -0.06630111 0.022674574 -0.063723624
0003d0 fa 2a ce 3d 90 25 89 ba 37 a4 a7 bd 04 47 be 3d
       0.10066791 -0.0010463465 -0.08185618 0.09290889
0003e0 77 e9 a2 3d 20 f9 8d bc 6a 3e 8e 3c bf 07 08 bd
       0.07954686 -0.017330706 0.017363746 -0.033210512
0003f0 0a d8 0a 3d 12 9e e1 bc 25 2e 31 bd f0 5b c8 bd
       0.033897437 -0.027541194 -0.043256897 -0.09783161

a2c_network.actor_mlp.2.bias f4 [128]
000000 54 ae 5d be 89 28 bc bd 55 82 76 be 8d b6 e0 3d
       -0.21648532 -0.09187419 -0.24073155 0.10972319
000010 e8 2c c8 bd 36 ca 19 be 89 0e 8d 3c eb 06 ac 3d
       -0.0977419 -0.15018544 0.017218845 0.08399757
000020 fa 1c 24 bd ae 27 57 bd 4c 1b 51 bc eb 7f af bd
       -0.040066697 -0.052528076 -0.012762856 -0.0856932
000030 8d 08 a0 bd 8e ac c0 bd a5 81 3e bc ee 53 85 be
       -0.07814131 -0.09407912 -0.011627589 -0.26040596
000040 e6 fe be bd f7 e9 c0 bd 92 46 69 be 84 e7 5e 3c
       -0.09325962 -0.09419625 -0.22780827 0.013605002
000050 87 11 9a bd 6a 4a a1 3b 8b 84 4e 3d 65 01 1b 3e
       -0.07522874 0.004922201 0.05041937 0.1513725
000060 8b 17 54 be aa 90 4c 3b 51 80 3d 3c 6b 93 d2 bc
       -0.20712106 0.0031214156 0.011566238 -0.02570506
000070 87 a0 07 be ab 87 8a bd 1e 10 05 3c 17 ca 81 3d
       -0.1324483 -0.06764158 0.008121518 0.06337374
000080 32 52 8c bd b2 3b 07 3e ac 32 ca 3d 76 f0 e0 bc
       -0.06851615 0.13206366 0.09872946 -0.02745841
000090 84 43 93 3c 74 31 f0 3d d5 e9 bb 3c 11 bc a7 bd
       0.01797653 0.117281824 0.022938648 -0.08190168
0000a0 5e e7 0f be 77 c5 b2 bd 07 36 c5 3c 43 0f 17 3d
       -0.14053103 -0.0872907 0.024073614 0.03687979
0000b0 eb c6 1f 3e ac 2c 51 bd 3d ef aa 3d 18 35 7f bd
       0.15603225 -0.051067993 0.08346412 -0.062306494
0000c0 94 8d 4c bd 29 e5 2d bc 9e 63 dd 3d ab 51 ab 3d
       -0.049939707 -0.010613718 0.10810016 0.08365186
0000d0 be 90 19 3d b2 b3 00 3e 2f d3 b5 bd 9f 94 13 be
       0.037491553 0.12568548 -0.08878171 -0.14412163
0000e0 9c bb 39 bd 19 81 1a 3e 04 b6 47 3d 44 be 75 bd
       -0.045344934 0.1508831 0.048757568 -0.059995905
0000f0 d4 d7 3e be 99 b7 44 be 36 f4 27 bd 14 f6 b5 bd
       -0.1863702 -0.19210662 -0.041004382 -0.08884826
000100 a3 2d f6 bd 50 eb b9 bd 4f 7a 30 be 43 e4 ed bd
       -0.12020423 -0.090780854 -0.17234157 -0.11615803
000110 4d 18 65 be e7 ce 5a bd 0f 70 44 be bd c3 8e bc
       -0.22372551 -0.053419974 -0.19183372 -0.01742732
000120 2c 7d ea bd ac f9 39 3d 9c f7 a1 bd d1 7f fb bd
       -0.11449656 0.04540412 -0.07908556 -0.122802384
000130 a8 e2 ca 3c fd 8d 16 3d ed 40 81 3a f6 65 b4 3d
       0.024766281 0.036756504 0.0009861268 0.0880851
000140 9f e5 4e bc ac 3a 81 ba ff b8 ec 3c 2b 87 93 be
       -0.012627988 -0.0009859405 0.028896807 -0.28814062
000150 8d d3 2c 3e 96 eb 67 be 54 b8 d5 bd 5d f3 01 3d
       0.16877575 -0.22648463 -0.104355484 0.03172623
000160 36 fe 4d be 74 ef 0b 3d 25 6e a9 bd 3c 31 51 3d
       -0.20116505 0.034163907 -0.082729615 0.051072344
000170 88 49 74 3d e2 27 4d 3d 3d 52 11 bc 30 d5 82 3d
       0.059640437 0.050086863 -0.008869705 0.063883185
000180 9b e6 e8 3c bf c8 70 3d 52 e7 53 bc cc 28 09 be
       0.028430274 0.058785196 -0.012933569 -0.13394469
000190 e7 97 13 bd d3 f5 d9 bd 02 23 59 3d f4 e1 c6 bd
       -0.036033537 -0.106425904 0.0530119 -0.09711066
0001a0 27 cb 67 3d 9e a9 18 be 1b d0 21 be 8a 09 67 3d
       0.056590226 -0.14908454 -0.15802042 0.05640558
0001b0 51 5a b7 bd 23 33 1f 3d e3 81 28 bd df 3f 2c 3d
       -0.08952773 0.038867127 -0.041139495 0.0420531
0001c0 a2 33 fe 3b f6 d9 9b bd 77 d7 e4 3d 01 80 a9 bd
       0.00775762 -0.07609932 0.11173909 -0.08276368
0001d0 c6 9b 6a bd 38 91 c0 3d 47 0c 45 bd 73 d8 56 bc
       -0.057277463 0.09402698 -0.04810741 -0.013113129
0001e0 d4 c8 2e bd fc c5 d0 bd 61 8c a9 bc 5e 49 02 3c
       -0.042671993 -0.101940125 -0.02069682 0.007952062
0001f0 af 4c 64 3c 1d ce f9 3d cc c4 9d 3d 8d 74 9d 3d
       0.013934298 0.12197516 0.07703552 0.07688246

a2c_network.actor_mlp.4.weight f4 [64, 128]
000000 7c 77 ce bc 17 d9 3d be c5 08 95 3d 55 73 f1 bd
       -0.025203459 -0.18539844 0.07277063 -0.11789576
000010 76 df db bb 41 bd 51 3d a1 27 b5 3d 27 bd 5b be
       -0.006709988 0.051205877 0.08845449 -0.21458875
000020 fc 40 ec bd 90 26 a8 3d f2 25 8d 3c d4 2c c2 3d
       -0.11535832 0.0821048 0.017230008 0.094812065
000030 6a 5a 24 3d 2f e4 c2 3d 35 0c 8a bb b0 ef 80 bd
       0.040125288 0.09516179 -0.004212881 -0.06295717
000040 a7 5d 90 3d 7b 69 be 3c c9 da bd bd ac f0 ac bc
       0.07049113 0.023243656 -0.092702456 -0.021110855
000050 59 f0 48 3d f1 a1 0d be 31 d8 f0 bd 6c e7 a9 bd
       0.04905734 -0.13831307 -0.11759985 -0.08296093
000060 30 27 fb 3c 85 5a 0a 3d 08 20 0b 3e 61 5f 49 bd
       0.030658334 0.033777732 0.13586438 -0.049163226
000070 5b 38 d1 bd c4 98 7c bd b5 06 8e bb 77 e6 b0 bc
       -0.10215827 -0.061669126 -0.0043342956 -0.02159427
000080 12 30 6c 3d 77 b8 42 bd b2 82 7c bd cf 3d 14 be
       0.05766303 -0.0475392 -0.06164808 -0.14476703
000090 1d 72 d7 bd 9f 50 ed 3c 14 df c8 bd 01 33 ef bd
       -0.10519812 0.028969107 -0.09808174 -0.1167965
0000a0 d2 be 90 bd b0 ad 96 bc 12 62 5d 3d a5 6b ef 3c
       -0.07067646 -0.018393368 0.054048605 0.029226134
0000b0 18 25 f2 bd 0f ee cf bc 28 3b 75 be f5 d1 09 bc
       -0.11823481 -0.02538207 -0.23948348 -0.008411874
0000c0 9b f4 42 bd 95 81 b1 bd f8 07 a8 3d 44 2e 5f be
       -0.047596555 -0.08667294 0.08204645 -0.21794993
0000d0 72 f0 72 bd 3d c5 6f bd 96 47 0a 3c 2f b5 5e bc
       -0.059311338 -0.05853771 0.008439919 -0.013593002
0000e0 c6 75 02 bd 21 66 47 bd 61 ce 13 be f7 3c e2 bc
       -0.0318506 -0.048681382 -0.14434196 -0.02761696
0000f0 6b 8d d8 3d 7e 0d 39 bd 11 ea ab bd e4 d2 bf 3d
       0.10573848 -0.045178883 -0.08394254 0.09366396
000100 2b c5 c4 bd 49 c3 4b bd fe cb bb 3d 56 38 c7 3d
       -0.09607919 -0.049746785 0.09169768 0.09727542
000110 5b bd ac bd 1f f8 53 bd e5 59 07 be 7f 5a 26 be
       -0.08434554 -0.0517503 -0.13217886 -0.16245459
000120 47 b7 3e be 00 dd 99 bd 06 e6 09 3d d9 9e a3 bd
       -0.18624602 -0.075128555 0.033666633 -0.07989282
000130 d0 49 9b 3d 35 ec 0e bd 1b 47 ae bd 8f ba ed bd
       0.07582438 -0.034893233 -0.08509656 -0.11607849
000140 ac ee 8a b9 48 ba 37 bb a0 34 53 be 88 cc 9b 3d
       -0.00026499236 -0.0028034616 -0.20625544 0.076073706
000150 b2 91 dd bc 49 1f 05 bd e0 67 9e bd f1 80 10 be
       -0.027047012 -0.03250054 -0.07734656 -0.14111687
000160 06 47 97 bd cd 98 2a 3d 47 1d 87 bd 88 b1 a0 3d
       -0.073865935 0.04164963 -0.06597381 0.078463614
000170 4d a0 b4 bd c1 1a 52 ba 25 14 8d bd 4d 38 07 bd
       -0.088196374 -0.0008014851 -0.06888608 -0.033012677
000180 db d2 ca bd 56 ec 7f bb 2f fc 87 bc 63 44 4d bc
       -0.09903499 -0.003905078 -0.016599743 -0.012528512
000190 e5 a2 86 bd 18 33 ad 3c 84 79 0c 3c e0 2f fa 3d
       -0.065740384 0.021142527 0.008573893 0.12216163
0001a0 0c 7d 60 bb 7c 72 ee bc 8e 5c 46 be 68 6f 05 3e
       -0.0034254221 -0.029107325 -0.19371244 0.1303078
0001b0 e9 d0 22 be 6d 2d 7b 3d be 8d b5 3d 50 7b 48 bd
       -0.15900005 0.06132262 0.08864926 -0.048945725
0001c0 27 c8 15 bd 7f da 05 3d 7c 8f ca 3d 9f a1 e5 bc
       -0.036567833 0.032679077 0.09890649 -0.028031169
0001d0 6f 01 74 3d 68 24 3b be 1d 1a cf bd 9e 03 77 3d
       0.05957168 -0.18275607 -0.101124026 0.060306184
0001e0 79 e9 9b 3d fb 8f 95 bd e0 4a 6f bc 73 55 26 3c
       0.07612891 -0.07302853 -0.014605254 0.010152209
0001f0 9b cf 36 3d 14 21 98 bd 71 61 f1 bd aa 16 85 bd
       0.04463158 -0.07428184 -0.117861636 -0.064984635
000200 a3 a8 7b 3d 35 06 0b 3d f9 09 66 3d e8 24 35 3a
       0.06144012 0.033941466 0.056161854 0.00069101015
000210 0d da 8d 3c 7f be 7c 3d 9f 23 8a bb 2f 9e 0b bd
       0.017315889 0.06170511 -0.004215672 -0.034086403
000220 1f 29 f7 bc db 9b 5e bc be 97 90 3d 53 09 6e bc
       -0.030170975 -0.0135869635 0.070601925 -0.01452859
000230 c1 ac 99 bd 0f 84 b1 3c 67 68 86 bc fc fa 34 3c
       -0.07503653 0.021669416 -0.016407205 0.011046167
000240 f5 c1 b5 3d 1d 15 c6 bc c2 6c 42 bd 35 04 23 bc
       0.08874885 -0.02417999 -0.047467 -0.0099497335
000250 50 13 84 3c e7 f9 19 3d f6 01 ac bc 4a f4 6f 3c
       0.01612249 0.03759184 -0.020997029 0.014645645
000260 0a 0f d9 bc 5e eb 5f bd 3e 68 ca 3c 42 52 df b9
       -0.026496429 -0.054667823 0.02470791 -0.0004259516
000270 63 08 9c 3b 44 7f ba bd 40 61 30 3c e0 7f 0c bd
       0.004761742 -0.09106305 0.010765374 -0.03430164
000280 48 98 ac 3a 08 62 a2 3c db 74 70 3c 9b bc 57 bd
       0.0013167942 0.019822136 0.014676298 -0.052670103
000290 94 c1 94 bb 80 4e 08 3e f7 a8 84 bd c3 e5 48 3d
       -0.004539678 0.13311195 -0.0647754 0.049047243
0002a0 31 81 01 3e c9 0d 67 3d a6 37 93 bd aa b2 1a bd
       0.12646939 0.05640963 -0.071883485 -0.037768044
0002b0 4d 3e 61 bc 73 15 be bc 40 c1 a9 bd a8 4f 71 3d
       -0.013747764 -0.023203587 -0.08288813 0.058913857
0002c0 9a c7 cd bd 22 f2 1c bb 4d 11 35 bd 5a be 25 3d
       -0.100478366 -0.0023948033 -0.044205952 0.040464737
0002d0 67 7d 96 bd d7 4f f5 3c 23 59 81 3d 66 84 c6 bd
       -0.07348137 0.029945297 0.063158296 -0.09693222
0002e0 b2 60 55 3d 50 33 04 bd 53 3a f5 bc 75 eb 76 3c
       0.05209417 -0.032275498 -0.029935038 0.015070786
0002f0 da ef 0d 3e 6e 3d 65 bd 4b 5e 2a bd ec 7b 2d 3d
       0.13861027 -0.055966787 -0.04159383 0.04235451
000300 d8 4e a2 3b 6b 59 21 bd 02 b4 db 3d 43 3a e7 3d
       0.0049532466 -0.039391916 0.10727693 0.112904094
000310 60 8f 84 3d b8 31 54 bd 4d 57 da 3d 02 bb 85 3d
       0.06472659 -0.051805228 0.106611826 0.065298095
000320 38 39 08 3e ce 35 54 3d ba 52 68 3c fd 31 70 3d
       0.13303077 0.051809125 0.01417988 0.058641423
000330 cc 82 d3 3c 84 05 21 3d b7 8a eb bc 05 ac df bd
       0.025819205 0.0393119 -0.028752668 -0.10921482
000340 be 6a a7 3d 73 6a 8e bc 71 45 c2 bd 24 60 e8 bc
       0.08174656 -0.017384743 -0.09485901 -0.028366156
000350 99 d5 b9 bb 57 e7 43 3d e5 5d bb bc bf ac 38 bd
       -0.005671215 0.047828045 -0.02287192 -0.04508662
000360 7b 94 d2 3d 22 ae 8b bc 08 23 b6 bc a4 d6 09 3e
       0.10282227 -0.017050806 -0.022233501 0.13460785
000370 f0 d6 a0 bd b4 ca 08 bc 7d be 60 3d aa 42 30 3d
       -0.07853496 -0.008349109 0.054869164 0.043032326
000380 80 5e 7e 3c 00 94 ac bd 1c 91 95 bd d5 11 a8 bc
       0.01552546 -0.08426666 -0.07303068 -0.020516315
000390 3c 8d 12 3d eb 75 bc 3d c4 56 6a 3a 53 eb 5a bc
       0.035779223 0.092021786 0.00089393207 -0.01336177
0003a0 32 68 4d 3d a6 5d dc bc ea a7 6b bd eb ba 59 bd
       0.050148197 -0.026900124 -0.057533182 -0.053156774
0003b0 64 b1 23 be ff 8b 12 3c 65 86 ea 3c 7d 20 a3 3d
       -0.15985638 0.0089445105 0.028628537 0.07965181
0003c0 a2 70 21 3d af ba d1 3c 58 94 b0 bc 5d 82 90 bd
       0.039414056 0.025601713 -0.02155511 -0.07056115
0003d0 02 77 c4 3c a8 92 be bc 33 45 7e 3d 57 f0 c1 3d
       0.023982529 -0.02326329 0.062077712 0.09469669
0003e0 4b 36 a4 3d c0 31 69 bd 1a 6f d7 bc 0a bf c2 bc
       0.08018168 -0.05693221 -0.026298095 -0.023772735
0003f0 2f 94 e5 3d 77 d1 90 bc 00 c4 c5 3d 24 67 80 bd
       0.112099044 -0.017678006 0.09656525 -0.062696725

a2c_network.actor_mlp.4.bias f4 [64]
000000 dd a1 13 bd 09 6d 52 bd 67 c9 56 bd c4 70 b5 bd
       -0.036043037 -0.051373515 -0.052438166 -0.08859399
000010 46 d6 8b bd 9f 28 92 bb 86 ea 4c bd 8f 82 48 bd
       -0.06827979 -0.004460409 -0.050028346 -0.048952635
000020 6b 16 4b be 32 cd c5 3d 19 d0 2d be f7 82 58 bd
       -0.1983277 0.096582785 -0.16973914 -0.052859273
000030 28 4c e1 bc ea 94 29 bb b5 54 fc bd e6 23 09 bd
       -0.027502134 -0.0025876113 -0.12320844 -0.0334815
000040 08 46 d8 bc 28 e0 2d be e7 d9 97 bd da 63 f8 3c
       -0.026400581 -0.1698004 -0.074146084 0.03032105
000050 39 5e 13 be 93 a0 3d bd 66 9f d4 bd d8 ce 3d bd
       -0.14391412 -0.046295714 -0.10381965 -0.04633984
000060 db 86 6b bd d5 06 a6 bc b5 f4 7f 3d 16 96 32 be
       -0.057501655 -0.02026693 0.06248923 -0.17440066
000070 fa c7 77 bc 50 18 a8 bc 1b 79 13 be 69 fb 2e be
       -0.015123362 -0.020519406 -0.14401667 -0.17088093
000080 dc 8c 52 be f9 ba 45 bc 21 49 aa bd 3b e5 39 be
       -0.20561546 -0.012068504 -0.083147295 -0.1815385
000090 65 55 cd bd b6 de b1 3b 1c 03 e2 bc 4e d9 b2 bc
       -0.10026053 0.0054281605 -0.027589373 -0.021832135
0000a0 de dc 0f 3c 33 db 0c 3c a7 9b 8e bd 00 18 1a be
       0.008780686 0.008597183 -0.06963282 -0.15048218
0000b0 39 63 3c bd dc 5e 91 bd 37 1a a1 3c ee 81 97 3d
       -0.045993064 -0.07098171 0.01966582 0.07397829
0000c0 fe a1 80 3d 6f 80 c8 3d 65 e7 21 bd 8a b9 83 bd
       0.062808976 0.09790122 -0.039527316 -0.06431873
0000d0 b9 c2 a1 bc ba ee 0a be a9 fe dd bd 24 4a 9c bd
       -0.019746171 -0.1356763 -0.10839588 -0.07631329
0000e0 ef bd a0 3b a4 fc 63 be ee f5 6f 3c 7c 32 48 3c
       0.0049054543 -0.22264344 0.014646037 0.012219068
0000f0 b3 d9 f9 39 ef 83 c7 bd 5b ae 8d 3d 5c 51 c6 bd
       0.0004765518 -0.09741961 0.06918021 -0.09683487

a2c_network.value.weight f4 [1, 64]
000000 08 82 bc 3d e6 61 26 3d 4c 6d 1e be a4 ca 59 bc
       0.09204489 0.040620707 -0.15471381 -0.013292942
000010 b8 45 6c bc f5 9a 82 3d 4a 25 fc bc e1 bb 9a bd
       -0.014420919 0.06377212 -0.0307795 -0.07555366
000020 49 a9 2e bd c7 7a e6 3d 1b 59 49 bc b7 b5 9b 3d
       -0.04264191 0.11253887 -0.012289311 0.07603019
000030 78 49 ec 3d e9 0d 65 bd b5 47 2d bb 0c bf 40 bd
       0.115374506 -0.05592147 -0.0026440446 -0.047057196
000040 18 bc ca 3d 91 c0 0a 3b d9 f1 81 3d 3b f7 0e 3e
       0.09899157 0.0021171907 0.06344957 0.13961498
000050 28 eb 04 be 35 b2 9d 3b 11 48 8a be 38 d0 d8 3d
       -0.1298033 0.0048125037 -0.27008107 0.105865896
000060 f6 4e bb bd b7 31 ae 3c 9c 4b 29 3d ee 5e b9 3a
       -0.0914592 0.02126394 0.041331872 0.0014142671
000070 43 f6 1b 3d bc d6 d1 3d cc ba 70 bd 4c 35 df bc
       0.03807665 0.102460355 -0.058771893 -0.027247094
000080 d1 07 00 bd 78 2b 98 bb 3d df 1c 3d cf c1 53 bc
       -0.031257454 -0.0046438538 0.038298834 -0.012924626
000090 d9 5b 10 3d 24 37 3d 3d 57 9d c9 3d 1d c9 b9 3d
       0.035243843 0.046195164 0.09844463 0.090715624
0000a0 39 2d e4 3b 6c 82 d5 3d a9 d0 82 bd ad ef a9 3d
       0.006963399 0.104252666 -0.06387455 0.08297668
0000b0 d1 55 03 3c bb 09 0e be 0f d3 89 3c 2c 6f 8a bc
       0.008016066 -0.138709 0.016824273 -0.016898714
0000c0 34 48 26 3d 87 46 28 3d d3 49 16 3d 66 2d a7 bd
       0.040596202 0.041082885 0.036691498 -0.08162956
0000d0 cc 53 ad 3d 4f 92 b0 bc 29 f8 72 3a 0e 4a cf bd
       0.084632486 -0.02155414 0.0009268546 -0.10121547
0000e0 95 1b df bc 78 a8 aa 3c 6e 64 cf bd 2e f1 2a be
       -0.027234832 0.020832285 -0.10126577 -0.16693565
0000f0 4e db cf 3d 75 79 1e 3d 4a d7 0a bd 42 16 28 be
       0.10149251 0.03869005 -0.033896722 -0.1641474

a2c_network.mu.weight f4 [6, 64]
000000 4d 33 80 bd 47 8e 5d 3b 9b e7 ec bb ad 87 ab bd
       -0.06259785 0.0033806728 -0.007229758 -0.083754875
000010 5f 58 88 bd 19 f2 a2 3b 32 56 c5 3d c6 70 03 3d
       -0.066574804 0.004972708 0.09635581 0.03208997
000020 89 13 15 be b9 89 00 bc 88 67 d8 bd a6 cc 8b 3d
       -0.14558233 -0.007845336 -0.10566622 0.06826143
000030 82 0a 5d bd e0 bf 6a 3c 95 a4 90 3d 7d b5 4c 3d
       -0.0539651 0.014327973 0.070626415 0.04997777
000040 78 61 88 3d fc 60 11 bb 9e 5a 91 3c f3 bb 17 3e
       0.06659216 -0.0022183051 0.017743405 0.1481779
000050 67 81 22 3d 3b f0 15 bb 89 db 16 be 25 2b c5 3d
       0.03967419 -0.0022878784 -0.14732184 0.0962737
000060 e2 20 87 bc 77 9b 2a bd 51 88 eb 3d 6c aa 11 be
       -0.016495172 -0.04165217 0.1150061 -0.14225167
000070 97 32 5f 3d d3 32 13 3d ea 01 ad bd 20 10 4a 3d
       0.054491606 0.03593714 -0.08447631 0.049331784
000080 9d 80 4e bd 40 e2 c5 bd 1e c5 bb bd 32 d9 e7 bd
       -0.050415624 -0.096622944 -0.091684565 -0.113207236
000090 3c d3 22 bc 16 2d 20 bd 38 fc 2d be 4b cf df bc
       -0.0099380575 -0.039105497 -0.16990745 -0.027320525
0000a0 83 6c 60 3c fd 20 42 bd 5f 56 40 bd 8d f4 e2 bb
       0.013697746 -0.04739474 -0.04695737 -0.0069261254
0000b0 a0 df a8 3c 8e 9d 4d 3c fa 0d 54 bc 7e 0b bb 3d
       0.020614445 0.012549771 -0.012942785 0.09133051
0000c0 a9 e5 18 3d 05 e0 3d 3d fd 03 7f 3c 04 d2 4d bd
       0.037328396 0.04635622 0.015564916 -0.050249115
0000d0 75 46 34 3d f8 1c b8 bc 31 91 c1 3c 6c 9f 54 bd
       0.044012506 -0.02247475 0.023628803 -0.05190985
0000e0 62 34 67 bd 42 97 18 3c 14 68 2b 3d 1f ca 78 bb
       -0.05644644 0.009313406 0.041847304 -0.003796227
0000f0 76 68 96 3d 41 7e a4 bd d9 1d 52 3c 9f 6e af 3d
       0.07344143 -0.080318935 0.012824499 0.08566021
000100 b4 86 c7 bd 54 f9 a8 3b 0d 54 04 3d 71 ce 8f 3d
       -0.097424895 0.0051566754 0.03230672 0.070217974
000110 6c 9c 38 bd e2 12 8c 3d 21 e2 b2 bc b0 48 9f bd
       -0.04507105 0.06839539 -0.021836342 -0.07777536
000120 2a 7f cf bd 83 34 0b 3e 03 37 da bd 97 27 52 bc
       -0.101316765 0.1359425 -0.10655024 -0.012826822
000130 7b d7 d1 3c f0 7f e0 3b fc f0 ea bc 9e b4 23 3c
       0.025615444 0.006851189 -0.028679363 0.009991793
000140 4e 7b 62 39 e8 a7 e3 bc 87 a8 e5 bd 67 b1 f5 3d
       0.00021598974 -0.027790025 -0.11213785 0.119967274
000150 d1 7e 0e be bf e0 45 3d 9c ec 8c 3d db 83 82 3d
       -0.13915564 0.048310038 0.06881067 0.06372806
000160 13 24 51 3d 56 30 83 3d 75 b7 70 3d 27 5a 85 bd
       0.051059794 0.06405704 0.05876871 -0.06511336
000170 2f 20 39 bd 4f 27 e3 bc e7 92 b0 bd 8c cf b7 bc
       -0.04519671 -0.027728705 -0.086217694 -0.022437833
000180 7d 04 02 be de ea aa 3c f3 96 45 3d 77 30 97 bd
       -0.12697025 0.020863947 0.04823966 -0.07382291
000190 1c ab dd bd 88 79 06 bd d3 c8 bf bd 61 7f 9a 3c
       -0.10823652 -0.032830745 -0.09364476 0.018859567
0001a0 ac 45 43 3d d1 7e 89 3d d8 ef 9a bc 89 69 63 bd
       0.047673866 0.067136414 -0.018913195 -0.055520568
0001b0 e4 82 ad 3d 92 f5 aa ba 0e 10 26 3d 66 02 06 3d
       0.08472231 -0.0013043156 0.040542655 0.03271713
0001c0 08 10 c6 3c 94 b3 db 3d 5f 01 77 bd 8b 70 e3 3d
       0.024177566 0.10727611 -0.060304042 0.1110545
0001d0 66 f4 47 bd 78 1e b6 bd 9c 04 ea bd 13 4d 11 bd
       -0.04881706 -0.0889253 -0.114266604 -0.035473894
0001e0 27 06 60 3d bc 2f 9f bd e7 e4 c7 3d ee 74 89 3c
       0.054693367 -0.077727765 0.097604565 0.01677939
0001f0 67 2e e2 bc 80 b2 b7 bd 2a 63 d0 3b e8 84 7a bd
       -0.027610017 -0.08969593 0.0063594775 -0.061161906
000200 fa 92 a2 bd ca 2b 3d bb 78 a8 6b bc 10 cb 9a 3d
       -0.0793819 -0.0028865212 -0.014383428 0.07558262
000210 9e 57 dd bd 0a ad 08 3d 45 4a 66 3d bc b9 7c 3d
       -0.10807727 0.033368148 0.056223173 0.061700568
000220 88 3e f5 3d cd 8a 9e bc 5f 38 0e 3d 95 68 b9 3d
       0.119748175 -0.019353295 0.03472173 0.090531506
000230 35 b3 96 bd 0f a9 94 bc f5 ce d9 3d cc 3b ba 3a
       -0.073584 -0.01814702 0.10635177 0.0014208495
000240 24 cb b5 3d 22 eb 04 3e 15 67 53 3c ab 2a 41 bc
       0.088766366 0.12980321 0.012902995 -0.011789958
000250 f1 68 79 3d 87 53 06 bd 96 2e 6f bd b2 d1 65 3d
       0.060891096 -0.0327945 -0.058394037 0.056108184
000260 a2 2f 00 bc 77 57 52 bd 56 12 c2 bd 9f df 52 3d
       -0.007823857 -0.051352944 -0.094761536 0.051482793
000270 d4 8d be bc ff ca 93 bb 71 19 3e 3d b7 e6 7d 3d
       -0.023260988 -0.004510283 0.04641098 0.061987605
000280 6c 9a b2 3d cf 4e 0f 3c e9 48 bc 3d b2 e7 96 3c
       0.0872086 0.008746817 0.09193594 0.018421028
000290 8c 7a ab 3d 84 17 37 3b 9e c4 9a 3b 79 1f 32 bd
       0.08372983 0.00279376 0.0047231456 -0.043487046
0002a0 08 29 3c bc e5 d0 0a be 3e 1c 3a 3c b0 14 65 3d
       -0.011484392 -0.1355625 0.0113592725 0.055927932
0002b0 14 cb f8 3d 54 db 9c bd 51 d6 d9 3c f8 1b f9 3c
       0.12148109 -0.07659021 0.026591452 0.030408844
0002c0 61 39 9b bd e6 a7 22 bd 8e 58 a3 bc a7 c2 c4 3d
       -0.075793035 -0.0397109 -0.019939687 0.096074395
0002d0 04 54 b3 3c a1 2e f5 bc 8c 24 a0 bc 92 16 dd 3c
       0.021890648 -0.029929461 -0.019548677 0.026988301
0002e0 b1 f4 bb 3c d6 bd 24 3e d0 96 c9 3d bb 3d 27 bd
       0.022943826 0.16088042 0.09843218 -0.040830355
0002f0 71 ed ae bd 86 7c bd 3d 8a 26 84 bd 70 b0 c0 3d
       -0.08541382 0.092522666 -0.06452663 0.09408653
000300 8f 53 40 3d b4 6d da bb f6 e4 98 3c 29 91 b8 3d
       0.046954688 -0.0066659097 0.018663865 0.09012062
000310 4e 34 4a bd 0c 2b 2e 3c 95 ce cd 3c 6f e8 0c bd
       -0.049366288 0.01063038 0.02512292 -0.034401353
000320 0a 5b 01 3e 45 97 e5 3c d9 9c 75 3d f4 8b d6 3d
       0.12632385 0.028026232 0.059964035 0.10475913
000330 f9 a9 b6 bc ea 5a 82 bd cc e0 ad 3c 03 17 f5 bb
       -0.022297846 -0.06364997 0.021225356 -0.00747955
000340 9e 76 93 b9 f0 c7 f1 3d ce b9 bf bd f0 38 30 3d
       -0.00028126402 0.11805713 -0.09361611 0.04302305
000350 a1 a1 db bb ea 54 d6 bc aa 44 fa ba aa 3a fd 3c
       -0.0067026173 -0.026163537 -0.001909395 0.030911762
000360 dd 29 21 3b f6 c0 12 bc d5 5f db bd 4a d6 bb 3d
       0.0024591603 -0.008957138 -0.10711638 0.09171732
000370 c3 8a 8c 3d 9f 25 b4 3d a1 44 3f bd 5c 75 02 3d
       0.06862404 0.08796238 -0.04669631 0.031850204
000380 24 f4 a8 3c f0 0d 56 3d 13 b4 23 3c 1d 84 c3 3d
       0.020624228 0.052259386 0.0099916635 0.09546683
000390 e2 e4 6f bd a0 34 99 bd db 1f da 3c b7 8f 35 bd
       -0.05856789 -0.074807405 0.026626518 -0.04432651
0003a0 d3 d5 1f bd 3e 7b 9c bc ef db d9 3d d9 d9 9a 3d
       -0.039022278 -0.019101735 0.10637652 0.075610824
0003b0 3b 0f 3d bc bc 43 da 3d 3e c6 8b bd 7a ac 0f be
       -0.011539276 0.106574506 -0.06824921 -0.14030638
0003c0 8e 27 8c bd 01 03 f4 bd 00 99 5e 3b 80 43 bd 3d
       -0.06843482 -0.119146354 0.0033965707 0.0924139
0003d0 42 4d b9 3d 85 38 cc bc 40 47 1a 3c 3c 7a 2e bd
       0.09047939 -0.024929294 0.009416401 -0.04259704
0003e0 6a 42 b7 bb d9 d6 01 3e ec b6 20 3d e4 90 f8 bd
       -0.005592634 0.12679614 0.039236948 -0.12137011
0003f0 71 86 09 3d 06 37 c7 3d 21 a9 64 bd 4b cc e6 bb
       0.03357548 0.09727292 -0.055825356 -0.0070433966

a2c_network.mu.bias f4 [6]
000000 47 b2 9f 3c 15 69 d0 3d 76 51 8c bc 80 12 66 bd
       0.019494189 0.10176293 -0.017128687 -0.056169987
000010 72 42 94 3d 87 4a f0 bc
       0.07239236 -0.029332412

exp_avg f4 [6]
000000 11 e8 c4 3b 09 f8 8e 3b bd 49 bf 3b 7c 3d 13 ba
       0.00600911 0.004363064 0.0058376477 -0.0005616767
000010 57 65 38 3c e1 3a c2 3b
       0.01125463 0.005927429

exp_avg_sq f4 [6]
000000 4a b6 c7 39 2c c7 b3 39 89 e9 a5 39 81 01 dc 39
       0.00038092054 0.00034289935 0.0003164525 0.0004196279
000010 12 08 d2 39 27 f3 ba 39
       0.00040060334 0.00035657847
