IsaacGymEnvs/isaacgymenvs/runs/Bolt_18-16-44-54/nn/last_Bolt_ep_400_rew_0.3948706.pth (torch, 612378 bytes, 36 tensors)

value_mean_std.running_mean f8 [1]
0	0x3fc2a2c4eecafe70	0.14559232387363208

value_mean_std.running_var f8 [1]
0	0x3f87c06a7311ad0b	0.0115974727979933

value_mean_std.count f8 []
0	0x4122c00200000000	614401.0

running_mean_std.running_mean f8 [30]
0	0x3fed4354cc32b5bc	0.9144691456073626
1	0x3fa3853c6221e42f	0.03812588403611305
2	0xbfdd5309e2184aab	-0.45819327430323636
3	0x3f823dae9ad0d4ae	0.008906711673356629
4	0x3fda27ee3d3faeb5	0.4086871717579286
5	0x3f354de514ea6fe5	0.0003250774652003837
6	0xbfbf86da96e45ab3	-0.1231514566792196
7	0xbf8441ccc0f2662b	-0.009891128195067619
8	0xbfea9be4a25532b8	-0.8315299196779824
9	0x400fff1eb881fac6	3.999570313898718
10	0x0000000000000000	0.0
11	0x0000000000000000	0.0
12	0x3fd63162c122943b	0.3467642675480566
13	0x3fd9bf0387675aa1	0.4022835562040346
14	0xbfd0b21d5ca2cf32	-0.2608712582252678
15	0xbfd66f347812088a	-0.3505374119341772
16	0x3fd8d176a8a0d537	0.3877846380958831
17	0xbfd0f93cf7b94972	-0.2652122897317418
18	0x3f7e62acf7240f91	0.007418323179312029
19	0x3f879626035d54a2	0.01151685426490651
20	0x3f92055dfadddef9	0.017598598896682003
21	0xbf85257aaf9b6d48	-0.010325392231087208
22	0x3f7b2c5483a8f4f2	0.006634073385211924
23	0x3f90e11c705fb168	0.016483730658295143
24	0x3fe686660cce11b0	0.7039060831162285
25	0x3fea2022a32354b5	0.8164227663316043
26	0xbfde19a820648be5	-0.47031596339564735
27	0xbfe6cce69e0b8732	-0.7125123106781983
28	0x3fe8e13fd363283c	0.7774962547930566
29	0xbfdf46d545a220e6	-0.48869830894592636

running_mean_std.running_var f8 [30]
0	0x3ffbe6b0f328bd63	1.743821096268072
1	0x3fd69f883038e730	0.3534870596810036
2	0x3fee789570d2ede6	0.9522196963875416
3	0x3fe149c5e283eb48	0.5402554916503073
4	0x3fe3afa895b8b118	0.6151926922080149
5	0x3fbb30c7f068a731	0.10621308917384621
6	0x3fc061e2430bb2c6	0.12798717759814887
7	0x3fa6ba54474dfc57	0.04439032907884471
8	0x3fbf72878bc90b25	0.12284133112647717
9	0x3f5c6a8c2c10364d	0.0017343872898466673
10	0x3ecb4e7be19a7a77	3.2551977369865253e-06
11	0x3ecb4e7be19a7a77	3.2551977369865253e-06
12	0x3fa9decaf947cd24	0.050527899675126414
13	0x3fa3dc75c712a616	0.038791351843723884
14	0x3fbd1f6c0875f1f4	0.11376071173248886
15	0x3facdbc311239bf0	0.05636415085046298
16	0x3fa65218b1b806dd	0.04359509629649747
17	0x3fbf2037333873de	0.12158532143116882
18	0x3faf19bb2bb590b5	0.06074318798599291
19	0x3fa490c80c959a57	0.04016709474199292
20	0x3fb64ce89a08fe06	0.08711103211043544
21	0x3fb0650c4a688e48	0.06404187027561037
22	0x3fab2f0fa01e81ea	0.05309342221812925
23	0x3fb3e57a4734ad48	0.07772030104086014
24	0x3fd46a24113bb811	0.3189783256810879
25	0x3fce4599e1195f0c	0.236499056731866
26	0x3fe1c517f2169802	0.5553092697416562
27	0x3fd4ed7055188266	0.3269921141636928
28	0x3fd2a4cd3d9a8b77	0.2913086988066235
29	0x3fe16d8cf009822f	0.5446228683686679

running_mean_std.count f8 []
0	0x4112c00400000000	307201.0

a2c_network.sigma f4 [6]
0	0xbf2479df	-0.6424846
1	0xbf33fcb2	-0.7030746
2	0xbf5982a0	-0.8496494
3	0xbf2074b0	-0.6267805
4	0xbf26dcac	-0.6518047
5	0xbf3f2211	-0.74661356

a2c_network.actor_mlp.0.weight f4 [256, 30]
0	0x3e6f6430	0.23378062
1	0xbe4907bf	-0.19631861
2	0x3e19a39f	0.15003823
3	0x3df9b478	0.12192625
4	0xbd379ec5	-0.04482915
5	0x3e61b35e	0.2204108
6	0x3da88f9c	0.08230516
7	0x3e2e2583	0.17006497
8	0xbd049c55	-0.032375652
9	0xbc3dc58d	-0.011582744
10	0x3d48ed95	0.0490547
11	0xbd4acb61	-0.049510363
12	0x3d9db093	0.076996945
13	0x3e5fd9aa	0.21860376
14	0x3d8fd2b5	0.07022611
15	0xbdd1eff1	-0.10250843
16	0x3e081b98	0.13291776
17	0xbbe2e1bf	-0.0069238837
18	0x3d9c9fc4	0.076476604
19	0xbd3d0c2a	-0.04615418
20	0xbe50bf41	-0.20385458
21	0xbca66ec1	-0.020316483
22	0xbe35139d	-0.17683263
23	0x3e236e1b	0.1595997
24	0x3cda1d92	0.026625428
25	0x3de02c32	0.109459296
26	0x3b8a126f	0.0042136232
27	0xbb832d32	-0.0040031904
28	0x3e159640	0.14608097
29	0xbdbeb7bf	-0.093123905
30	0x3d63268e	0.05545669
31	0xbe172c49	-0.14762987
32	0x3cdef0cf	0.027214436
33	0xbcee04d0	-0.02905503
34	0x3dd0e2ec	0.10199532
35	0xbdbca7d0	-0.09211695
36	0x3dfbe012	0.122985974
37	0xbda1b083	-0.07894995
38	0xbe640091	-0.22265841
39	0xbd79bffb	-0.060974102
40	0x3e2827fc	0.16421503
41	0x3d793690	0.06084305
42	0x3e02cc58	0.12773263
43	0xbe53069c	-0.2060799
44	0xbe198f15	-0.14995988
45	0xbdc2ec28	-0.095176995
46	0xbe21cc04	-0.15800482
47	0x3db8f665	0.09031371
48	0x3cb53865	0.022121618
49	0x3e4b6a67	0.19864808
50	0xbe24a897	-0.16079937
51	0xbe0f8607	-0.14015971
52	0x3dd4d092	0.10391344
53	0xbd98d8e4	-0.074632436
54	0x3d5d5c2b	0.054042976
55	0xbd909aa5	-0.07060746
56	0x3dff7fd5	0.12475554
57	0xbdc7b55b	-0.09751388
58	0xbe08743d	-0.13325591
59	0x3d2b35f5	0.041799504
60	0xbd095338	-0.03352663
61	0xbde57b5c	-0.112051696
62	0x3e39bd67	0.18138658
63	0x3e34c9f7	0.17655168
64	0xbe99f1ad	-0.30067196
65	0xbe29d755	-0.16586049
66	0x3ea3ea3d	0.32014647
67	0xbe076b3b	-0.13224499
68	0x3d42d99b	0.047570806
69	0xbe5836d2	-0.21114662
70	0xbdd620d3	-0.104554795
71	0x3d3acf24	0.0456077
72	0x3cfed17c	0.03110575
73	0xbdfe6469	-0.124214955
74	0xbdfb361e	-0.122661814
75	0xbda383b3	-0.07984104
76	0xbde08cfa	-0.10964389
77	0xbe071693	-0.13192205
78	0xbda9de47	-0.08294349
79	0xbe61e78f	-0.22060989
80	0x3dc9713f	0.09836053
81	0x3d8dfcb0	0.06932962
82	0xba9fabb4	-0.0012181909
83	0xbe40f72e	-0.18844292
84	0xbda70d26	-0.08156805
85	0xbd92b583	-0.07163527
86	0xbd0c5892	-0.034264155
87	0xbe0d00d8	-0.13769853
88	0xbd6df821	-0.058097962
89	0xbda13161	-0.078707464
90	0xbd20ddcb	-0.03927402
91	0xbd3df011	-0.046371523
92	0xbd7aedd2	-0.06126196
93	0xbe74f97a	-0.23923293
94	0xbe0616c2	-0.13094619
95	0xbe2a2823	-0.16616873
96	0xbe076b05	-0.13224418
97	0xbe368728	-0.17824996
98	0x3e8f0004	0.279297
99	0xbd0ac03f	-0.033874746
100	0x3e20db37	0.15708624
101	0x3d69022e	0.056886844
102	0xbe2a2c6e	-0.16618511
103	0x3e339e8c	0.1754095
104	0xbc1683c2	-0.009186687
105	0xbddef405	-0.10886387
106	0xbe0daeaf	-0.13836168
107	0xbe3d8587	-0.18507968
108	0x3c3f2240	0.011665881
109	0xbdb643e4	-0.08899668
110	0x3d9ca808	0.07649237
111	0xbe5d8b15	-0.21635087
112	0x3e1ce269	0.15320744
113	0xbde4e5c3	-0.11176636
114	0xbd07bc7b	-0.033138733
115	0x3d428464	0.04748954
116	0x3dc54654	0.09632555
117	0x3dbf1c9e	0.0933163
118	0x3e25986f	0.1617143
119	0xbde4726e	-0.11154638
120	0x3d71ca34	0.059030727
121	0xbe097b0f	-0.1342585
122	0xbddcfb4e	-0.1079012
123	0xbe22df39	-0.15905465
124	0x3e6b9d71	0.23009278
125	0xbe324b61	-0.17411567
126	0x3d451586	0.04811623
127	0x3d4323b1	0.04764146
128	0x3dbf04ef	0.09327113
129	0xbdb90e1f	-0.090358965
130	0x3e29ef15	0.16595109
131	0x3d2455a8	0.04012075
132	0x3d3674c9	0.04454497
133	0xbe1a9929	-0.15097488
134	0x3d377636	0.04479047
135	0xbd855e22	-0.06512095
136	0xbe1893c6	-0.14900121
137	0x3e63fef9	0.22265233
138	0x3c335dc6	0.01094765
139	0xbb5bdbda	-0.003354779
140	0xbd3b5a6f	-0.04574054
141	0xbda7d481	-0.08194829
142	0x3e172c81	0.1476307
143	0xbd1575a0	-0.03648913
144	0xbdccca5a	-0.09999533
145	0x3be46b00	0.006970763
146	0xbdf17267	-0.11789399
147	0x3ce8b65f	0.028407274
148	0x3dd8bb13	0.105825566
149	0xbe1eecf5	-0.1552008
150	0x3da7437c	0.081671685
151	0x3de3c807	0.111221366
152	0x3be6366a	0.0070255296
153	0xbce816e6	-0.028331231
154	0x3d8cedda	0.06881304
155	0x3dbb0e0c	0.091335386
156	0x3d270527	0.040776398
157	0xbcfdd1bc	-0.030983798
158	0xbe89cff5	-0.2691647
159	0x3d829bce	0.06377374
160	0xbd041b2d	-0.03225248
161	0xbd5eda30	-0.0544073
162	0x3e25fc7c	0.16209596
163	0x3e1d9d30	0.15391994
164	0xba9eff9d	-0.0012130622
165	0xbc2b2241	-0.0104451785
166	0x3ca6c30f	0.020356683
167	0xbd197569	-0.037465487
168	0x3c1c4128	0.009537019
169	0x3ddacfb8	0.106841505
170	0xbe1a2621	-0.15053608
171	0xbcc6d56b	-0.024271687
172	0x3e5147e7	0.20437585
173	0x3da625e7	0.08112698
174	0xba177939	-0.00057782565
175	0xbe0c33f6	-0.13691697
176	0xbda8d822	-0.08244349
177	0xbdea0fab	-0.1142877
178	0xbd3ad321	-0.045611504
179	0x3d2a727c	0.041613087
180	0x3d7d1122	0.061783917
181	0x3e30d211	0.17267634
182	0xbe5608cb	-0.20901792
183	0xbdf85623	-0.12125804
184	0xbd2ae37b	-0.04172085
185	0x3dc496bf	0.09599065
186	0x3aaf4669	0.0013372424
187	0xbceb0b02	-0.028691772
188	0x3e22f839	0.15915002
189	0xbd359ffb	-0.044342022
190	0xbdf20441	-0.118172176
191	0x3e0874ef	0.13325857
192	0xbe20154c	-0.15633124
193	0x3c91520e	0.017739322
194	0xbdf81201	-0.12112809
195	0x3d82e7d3	0.06391873
196	0x3e079070	0.13238692
197	0x3dde464e	0.10853253
198	0xbe04cb0d	-0.12968083
199	0xbe86ca3f	-0.26326177
200	0xbd9b31ad	-0.07577834
201	0x3e102ab4	0.1407879
202	0xbd675665	-0.056478877
203	0x3ddc030a	0.10742767
204	0x3d93e5b5	0.072215475
205	0x3d6f775f	0.05846345
206	0x3de9d5b4	0.11417714
207	0xbe106d48	-0.14104187
208	0xbe572be2	-0.21012834
209	0xbe1a561a	-0.15071908
210	0x3e037251	0.12836577
211	0xbdbeffd2	-0.093261376
212	0xbd34dc78	-0.044155568
213	0xbcbfbd94	-0.023405828
214	0x3c8f23c3	0.017473107
215	0xbdd64297	-0.1046192
216	0xbdfddd35	-0.123957075
217	0x3dcbede6	0.09957485
218	0xbe4143db	-0.18873541
219	0x3e561b06	0.20908746
220	0xbd6fe890	-0.0585714
221	0xbe092510	-0.13393044
222	0xbd79425a	-0.060854293
223	0x3cd29b6b	0.025708875
224	0xbd86b9af	-0.06578385
225	0xbe54f849	-0.20797838
226	0x3e2068d0	0.15664983
227	0xbddf3059	-0.108978935
228	0x3d942947	0.072344355
229	0x3e021ee2	0.12707093
230	0x3df956b0	0.121747375
231	0xbda1434b	-0.07874163
232	0x3dcbbac3	0.09947731
233	0xbd814b35	-0.06313173
234	0x3d3a4c1b	0.045482736
235	0x3e74723d	0.23871703
236	0xbcc28511	-0.023745092
237	0x3c214f68	0.009845592
238	0xbd85cf11	-0.065336354
239	0xbe0d388e	-0.13791105
240	0x3e39e649	0.18154253
241	0xbe8da1be	-0.27662462
242	0x3dc92e84	0.09823325
243	0x3e905802	0.28192145
244	0x3e42f7a7	0.19039784
245	0x3d6c3f48	0.057677537
246	0xbe0da0d1	-0.13830878
247	0x3da1920d	0.07889185
248	0x3d02db64	0.03194751
249	0xbdea94fd	-0.114541985
250	0xbd29be6a	-0.04144136
251	0xbde024c0	-0.109445095
252	0x3acb7492	0.0015522412
253	0xbdb6c09a	-0.089234546
254	0xbe07fab8	-0.13279235
255	0xbd0b8bda	-0.03406892

a2c_network.actor_mlp.0.bias f4 [256]
0	0x3d60144c	0.054706857
1	0x3d9fc8c4	0.07801965
2	0xbd8e40bc	-0.06945941
3	0xbbde6e87	-0.006788078
4	0x3cb615a0	0.022227108
5	0x3d6e8b03	0.05823804
6	0x3d528680	0.0513978
7	0x3e0a56b1	0.13509633
8	0x3e0f1852	0.13974121
9	0xbda4322f	-0.08017384
10	0xbc74fcbe	-0.014952837
11	0x3d49478d	0.0491405
12	0x3d50277e	0.050818913
13	0x3dc61774	0.09672442
14	0x3e19e792	0.15029743
15	0xbd197b5e	-0.037471168
16	0xbdb5fe2d	-0.08886371
17	0x3bd359ac	0.0064498987
18	0x3d51f9f1	0.051263753
19	0xbd0386cf	-0.032110985
20	0x3dadab5b	0.08479949
21	0x3d1b9357	0.03798231
22	0x3d8b8d5e	0.06814073
23	0xbbd772aa	-0.0065749483
24	0x3e20b8bf	0.15695475
25	0x3d967795	0.07347027
26	0xbd953ee6	-0.072873875
27	0xbd6d4bc0	-0.05793357
28	0x3c7e6fe5	0.015529607
29	0xbc97b07b	-0.01851677
30	0x3de4195a	0.11137648
31	0x3aeb0230	0.0017929729
32	0xbd8007b1	-0.06251467
33	0xbe3d0420	-0.18458605
34	0x3e1b7848	0.15182602
35	0x3ccfb539	0.025354968
36	0x3cec5281	0.028847935
37	0x3cee38d1	0.029079827
38	0xba104f26	-0.0005504958
39	0xbd7d0d7a	-0.06178043
40	0x3d2240ab	0.039612453
41	0x3daa9fdd	0.08331273
42	0xbda16e6c	-0.078823894
43	0xbd906ebb	-0.0705237
44	0x3c00a7bf	0.007852494
45	0xbd974b3d	-0.073873974
46	0x3d2c9761	0.042136554
47	0xbc52c1d7	-0.012863598
48	0x3d950431	0.0727619
49	0xbda05cc3	-0.07830193
50	0x3d0259c8	0.031823903
51	0xbdf6e405	-0.1205521
52	0xbdd75819	-0.1051485
53	0xbd050805	-0.03247835
54	0xbd0fed0c	-0.035138175
55	0x3dc092d3	0.094030045
56	0xbdcad431	-0.099037535
57	0x3c887f63	0.016662305
58	0x3d5f3567	0.054494288
59	0xbced0986	-0.028935205
60	0x3d8d938b	0.06912907
61	0x3d16e1dc	0.03683649
62	0xbcfcc26f	-0.030854432
63	0xbd2387fa	-0.0399246
64	0x3ca85a08	0.020550743
65	0xbd56a2f4	-0.052401498
66	0x3d160edb	0.03663526
67	0xbbfc09d8	-0.007691603
68	0xbc84055b	-0.016115835
69	0x3d44e7d2	0.048072644
70	0xbc6a655a	-0.014306391
71	0x3d13001c	0.035888776
72	0xbd797bb1	-0.060908977
73	0xbc9ebb8e	-0.019376542
74	0x3e1dc459	0.15406932
75	0xbe1daee3	-0.15398745
76	0xbd6a48f4	-0.05719848
77	0x3dd5552c	0.10416636
78	0x3d6a89ed	0.057260443
79	0x3de9ee54	0.114224106
80	0x3d3bfc2a	0.04589478
81	0xbd200c5f	-0.039074298
82	0xbcbff877	-0.023433907
83	0xbb260094	-0.0025329934
84	0xbd7f7f15	-0.062377054
85	0x3c8de01a	0.017318774
86	0xbe173edd	-0.14770074
87	0xbc88ab96	-0.016683381
88	0xbd832ef7	-0.06405442
89	0x3cc663d6	0.024217527
90	0xbc61721b	-0.013760115
91	0xba52807f	-0.00080300117
92	0xbd0cd033	-0.03437824
93	0x3ba70cad	0.0050979466
94	0x3cf1fce7	0.029539539
95	0x3db1cfdc	0.08682224
96	0xbbc3d264	-0.0059760083
97	0x3d9782dd	0.07398007
98	0xbd8d4232	-0.068973914
99	0xbdb3a664	-0.08771971
100	0xbdbd61f2	-0.09247197
101	0xbd0da5a8	-0.03458181
102	0x3dd2b071	0.1028756
103	0x3e4b7719	0.19869651
104	0xbd232c93	-0.03983743
105	0xbe055732	-0.13021544
106	0x3dbeefc0	0.093230724
107	0xbbb3a8af	-0.005482755
108	0x3dc28af2	0.09499158
109	0x3d4485a3	0.04797901
110	0x3c662a71	0.014048205
111	0xbcc3a4ac	-0.023882233
112	0x3c784f4d	0.0151556255
113	0xbc854537	-0.016268356
114	0x3a8b9aab	0.0010650953
115	0xbd99acde	-0.07503675
116	0xbcdf10a8	-0.027229622
117	0xbd20bb70	-0.039241254
118	0xbca891a3	-0.020577257
119	0x3cb91d0a	0.022596855
120	0x3b75b468	0.0037491564
121	0x3c71cc48	0.014758177
122	0x3cb46a40	0.02202332
123	0x3d96e543	0.07367947
124	0x3d8b2963	0.06795003
125	0x3cd6d000	0.026222229
126	0x3e24a3db	0.16078131
127	0x3c25649b	0.010094787
128	0xbda8599d	-0.082202174
129	0xbbbbebdc	-0.0057349037
130	0x3d21fe5b	0.039549213
131	0x3c9bb0f7	0.019005282
132	0xbddd04df	-0.10791945
133	0x3de98be9	0.11403639
134	0xbc95551a	-0.018229056
135	0x3d655f02	0.05599881
136	0x3cd7c16b	0.026337346
137	0x3d57ee13	0.05271728
138	0x3dd90512	0.1059667
139	0x3d0b00bd	0.03393625
140	0xbd494c47	-0.04914501
141	0x3dacb0ab	0.08432134
142	0xbc8f5c9b	-0.017500212
143	0xbde0bf4a	-0.109739855
144	0x3c1bb817	0.00950434
145	0x3d2127b3	0.0393445
146	0xbd3fc93c	-0.04682277
147	0x3e135edd	0.14391656
148	0x3d8e1f98	0.0693962
149	0xbe81d23d	-0.25355712
150	0x3d8e174c	0.06938037
151	0xbd74cb18	-0.059763998
152	0xbbd285ed	-0.0064246566
153	0x3e263ebc	0.16234869
154	0x3d4add78	0.049527615
155	0x3a08818c	0.0005207292
156	0xbd7cc3f0	-0.061710298
157	0xbd567d6c	-0.052365705
158	0xbda4d9c8	-0.08049351
159	0x3d8804b5	0.06641523
160	0x3dd77fe6	0.105224416
161	0x3d7d6860	0.061867118
162	0xbda2786b	-0.07933124
163	0xbd396f53	-0.045272183
164	0xbe1d9d50	-0.15392041
165	0xbdc14450	-0.09436858
166	0x3c63e913	0.01391055
167	0x3c5a73b9	0.0133332545
168	0xbd7f1045	-0.062271375
169	0x3da80aa0	0.082051516
170	0x3d460513	0.048344683
171	0xbd3fb573	-0.046803903
172	0x3cc24793	0.02371577
173	0xbcb5b375	-0.022180298
174	0x3d95898d	0.07301626
175	0xbe298266	-0.1655365
176	0x3c8df849	0.017330306
177	0xbdce7026	-0.10079984
178	0xbdcad449	-0.099037714
179	0x3cc56831	0.024097534
180	0x3e2ae8c8	0.16690361
181	0x3e0ac665	0.13552244
182	0xbcbfec73	-0.023428177
183	0xbcb9ce9b	-0.022681525
184	0x3e37d15b	0.17950957
185	0xbc2c355e	-0.010510771
186	0xbc29e565	-0.010369633
187	0xbe00e27b	-0.12586395
188	0xbddba994	-0.10725704
189	0xbcbf0576	-0.023318034
190	0x3d4d6355	0.05014356
191	0xbd21d826	-0.039512776
192	0xbbb0a75c	-0.0053910445
193	0x3dc96c67	0.09835129
194	0x3cb8a3b8	0.022539005
195	0x3dd1b3d2	0.10239376
196	0x3d521292	0.05128724
197	0xbcc11f9b	-0.023574641
198	0xbcf01a9b	-0.029309561
199	0xbe11e6a0	-0.14248133
200	0x3db6f5c4	0.08933595
201	0x3d5b0ce7	0.0534791
202	0xbd992615	-0.07477967
203	0xbd6d347b	-0.057911377
204	0xbd5efae4	-0.054438487
205	0xbdd18117	-0.102297
206	0x3cf62d22	0.030050818
207	0xbda76fbf	-0.08175611
208	0x3dc3e8c9	0.095658846
209	0x3dc7d92e	0.097582206
210	0xbd05c51a	-0.032658674
211	0xbceec3da	-0.029146124
212	0xbd32a29a	-0.0436121
213	0xbd88b41b	-0.066749774
214	0xbd94a3a4	-0.072577745
215	0xbcf4c32a	-0.029878218
216	0x3d61b8e9	0.055107985
217	0x3d316297	0.043306913
218	0x3d4218a7	0.04738679
219	0x3ccd5270	0.025063723
220	0x3c062e3a	0.008189732
221	0xbd175335	-0.036944587
222	0x3dde250f	0.10846912
223	0x3d690713	0.056891512
224	0xbcba4d8d	-0.022742057
225	0xbd780df1	-0.06056017
226	0x3dbc87aa	0.09205563
227	0x3d9fbfb2	0.07800235
228	0xbd0de392	-0.034640856
229	0x3d3c651c	0.045994863
230	0x3d61805b	0.05505405
231	0x3dca9d91	0.09893335
232	0x3cc29436	0.023752313
233	0xb9b1b202	-0.00033892697
234	0xbc22f6d1	-0.009946541
235	0x3e55f0c0	0.2089262
236	0x3c80c81d	0.015720421
237	0x3c741592	0.014897721
238	0xbd3275c7	-0.043569352
239	0x3b4a84a1	0.0030901807
240	0x3cf2a52f	0.029619781
241	0xbd71afe3	-0.05900563
242	0xbd24f9df	-0.04027736
243	0x3d8a10c7	0.06741481
244	0xbd89fc42	-0.067375675
245	0x3c8c03b3	0.017091608
246	0xbc2b3d8f	-0.010451688
247	0x3d5fa452	0.054600067
248	0xbd878705	-0.0661755
249	0xbddd1ddb	-0.1079671
250	0x3c8bf55b	0.017084768
251	0xbd48c0a8	-0.049011856
252	0xbd9787ca	-0.073989466
253	0xbce61966	-0.028088283
254	0x3d8ef3d6	0.06980102
255	0x3d503f50	0.05084163

a2c_network.actor_mlp.2.weight f4 [128, 256]
0	0x3d3e1c1e	0.046413533
1	0xbd265fbc	-0.040618643
2	0xbdbbaef7	-0.09164231
3	0x3d3276eb	0.04357044
4	0x3d34b3a6	0.04411664
5	0xbc048629	-0.008088627
6	0xbac6a2a1	-0.0015154668
7	0xbcac836d	-0.021058762
8	0xbda834a0	-0.082131624
9	0x3d9ec634	0.07752648
10	0x3c40c416	0.0117655005
11	0xbd6645a8	-0.056218773
12	0x3d38a5dd	0.045080055
13	0xbd24e7cd	-0.040260125
14	0xbddde734	-0.10835114
15	0x3dc7d0df	0.09756636
16	0xbcbf2b7a	-0.02333616
17	0x3cf9c8cc	0.030491255
18	0xbe146fb6	-0.1449574
19	0x3c02cef3	0.007983911
20	0xbe54cbc0	-0.2078085
21	0xbcc20eed	-0.023688758
22	0xbdcf789a	-0.10130425
23	0xbd561089	-0.052261863
24	0xbdbbcf64	-0.09170416
25	0xbdb0afa9	-0.086272545
26	0xbc430b81	-0.011904598
27	0x3cc707c3	0.024295693
28	0x3cd973a1	0.026544394
29	0x3d65c779	0.056098435
30	0x3da0992e	0.07841717
31	0x3ad1ae60	0.0015997402
32	0x3ce18de8	0.027533486
33	0x3c8ff4cc	0.017572783
34	0xbcc4ab3f	-0.024007438
35	0xbd67c20f	-0.056581553
36	0xbdf065a7	-0.11738139
37	0x3d89a9ba	0.06721826
38	0x3d8354b6	0.06412642
39	0xbd20b0f0	-0.03923124
40	0x3d739ec3	0.05947758
41	0xbc9d813e	-0.019226667
42	0x3d56987d	0.052391518
43	0x3af0c40d	0.0018368975
44	0x3b6937a5	0.0035586145
45	0x3d876e1f	0.06612801
46	0xbd851d17	-0.06499689
47	0xbda45920	-0.08024812
48	0xbd0e8a89	-0.034800086
49	0x3dc0d6cc	0.09415969
50	0xbd60283b	-0.054725867
51	0x3df63c39	0.12023205
52	0x3d4c1324	0.04982294
53	0x3c7d6be7	0.01546762
54	0x3d8f01d6	0.06982772
55	0xbdc56b28	-0.09639579
56	0x3e203dc9	0.15648569
57	0x3ce71a91	0.02821091
58	0xbc3bb268	-0.01145611
59	0xbb86be46	-0.004112038
60	0x3ca32b65	0.019918153
61	0xbce7ec18	-0.02831082
62	0x3de39701	0.11112786
63	0x3db1a97f	0.08674907
64	0xbe03d0df	-0.12872647
65	0xbd2dab88	-0.042399913
66	0x3cc34b67	0.023839666
67	0x3c2c4e30	0.010516688
68	0xbd239432	-0.039936252
69	0x3dc89118	0.097932994
70	0xbd184905	-0.03717901
71	0xbd3e86c4	-0.04651524
72	0xbaa304ae	-0.0012437308
73	0x3d270fc7	0.04078653
74	0xbd6fd47a	-0.058552243
75	0x3cd49df8	0.025954232
76	0xbb364f86	-0.0027818396
77	0xbd1d1900	-0.03835392
78	0xbcf71e1e	-0.030165728
79	0xbd87fdb5	-0.06640188
80	0xbca2cb34	-0.019872285
81	0xba4dd53f	-0.00078519055
82	0xbd03fb7e	-0.032222264
83	0x3c8ca51d	0.017168576
84	0xbcafad95	-0.021445075
85	0x3cb7e650	0.022448689
86	0x3def5a44	0.11687139
87	0xbdb209fa	-0.08693309
88	0xbd0c86eb	-0.034308355
89	0xbc1b188a	-0.0094663
90	0x3e0f2be9	0.13981594
91	0x3cce51d4	0.025185503
92	0xbd598061	-0.053100947
93	0x3da17800	0.07884216
94	0xbb8ca4c6	-0.0042921035
95	0x3d22ef1b	0.03977881
96	0xbdff1420	-0.124550104
97	0xbd013e2c	-0.031553432
98	0x3da595a6	0.08085184
99	0x3da4ed52	0.08053078
100	0xbc650cc6	-0.013980096
101	0x3d72d947	0.059289243
102	0xbc84cd26	-0.016211104
103	0xbd7410ed	-0.059586454
104	0xbd8e22bf	-0.06940221
105	0x3cead031	0.028663727
106	0xbcd248da	-0.025669504
107	0xbd1db827	-0.0385057
108	0xbdbb69ec	-0.09151062
109	0xbe561849	-0.20907702
110	0x3db55d8f	0.088557355
111	0x3cd1a100	0.025589466
112	0x3cd5159c	0.02601128
113	0x3df6c0d4	0.12048498
114	0x3c50960b	0.0127310855
115	0x3da5c378	0.08093923
116	0xbdbd0cbb	-0.09230944
117	0xbd9dad03	-0.07699015
118	0x3c248f7e	0.010043977
119	0x3dab1505	0.083536185
120	0x3dd3279c	0.10310289
121	0x3d21e9f8	0.03952977
122	0xbd4f169e	-0.05055868
123	0xbd6c8cce	-0.05775147
124	0x3cb81010	0.022468597
125	0xbd4c3416	-0.04985436
126	0x3c3734c9	0.011182019
127	0xbd7dd549	-0.061970983
128	0xbd92ac60	-0.07161784
129	0x3bcd5862	0.0062666396
130	0x3d974bf8	0.07387537
131	0xbde5bf46	-0.11218123
132	0xbd0a978a	-0.033835925
133	0xbdc7ef1d	-0.09762404
134	0xbd68dfe3	-0.05685414
135	0xb8c0780e	-9.1776354e-05
136	0xbd3985fd	-0.045293797
137	0xbad51489	-0.001625673
138	0xbce64aa6	-0.028111767
139	0xbd849f26	-0.06475668
140	0x3cd635d4	0.026148714
141	0xbd9efe59	-0.07763357
142	0xbd087982	-0.033319004
143	0x3c7b25b2	0.0153288115
144	0xbe0f0068	-0.13964999
145	0xbd1594aa	-0.03651873
146	0xbd86305a	-0.06552191
147	0xbb79bb22	-0.0038105925
148	0xbd602cb1	-0.05473012
149	0xbb5b128b	-0.00334278
150	0x3d3a6034	0.045501903
151	0x3d2379ac	0.039910957
152	0x3d95dc6a	0.07317431
153	0x3d7883d7	0.060672607
154	0xbd84ed77	-0.06490605
155	0x3bfb4c59	0.0076690135
156	0x3db5dd5b	0.08880111
157	0x3d1e2e38	0.038618296
158	0xbcbfa3d9	-0.023393558
159	0x3c666a9a	0.014063502
160	0x3d8fc9cb	0.07020911
161	0xbda499d3	-0.08037152
162	0x3d8e986c	0.06962666
163	0x3cb2a4c7	0.021807088
164	0xbd1b8102	-0.03796483
165	0x3d5459de	0.051843517
166	0x3cd61bd9	0.026136326
167	0x3c208592	0.009797471
168	0x3d9e1b29	0.07720024
169	0x39b45879	0.00034398193
170	0x3d670cee	0.056408815
171	0x3dacd4b6	0.08439009
172	0xbd39b18c	-0.045335338
173	0x3c8889e6	0.016667318
174	0xbc5fef97	-0.0136679625
175	0x3ca92354	0.020646729
176	0xbcc42496	-0.023943227
177	0x3d95bb57	0.07311123
178	0x3d0e484d	0.03473692
179	0xbd4a89b9	-0.04944775
180	0x3d665269	0.056230936
181	0xbe160c2f	-0.14653085
182	0x3cab1c83	0.020887619
183	0xbc3b13ac	-0.011418264
184	0xbdc590d6	-0.09646766
185	0xbd300ef7	-0.04298302
186	0x3c5e57db	0.013570751
187	0x3d712f3f	0.058882948
188	0x3b353a94	0.0027653323
189	0xbde0e943	-0.10981991
190	0xbd499b48	-0.049220353
191	0x3d43c7c0	0.04779792
192	0x3d077aa9	0.033075962
193	0x3df125dd	0.117748
194	0xbc92f164	-0.01793737
195	0x3d6f2ad8	0.05839047
196	0xbc1cfd35	-0.009581854
197	0xbc6c7ca0	-0.01443401
198	0xbdbcd59c	-0.0922043
199	0xbd21d8ac	-0.039513275
200	0xbd01484c	-0.03156309
201	0x3e12f810	0.14352441
202	0x3dda8b47	0.10671096
203	0xbdaee210	-0.08539212
204	0x3d9aec55	0.07564608
205	0xbcaad9fc	-0.020855896
206	0xbd605a54	-0.054773644
207	0x3b1f60c0	0.0024319142
208	0xbd776ba5	-0.060405392
209	0xbd568fa7	-0.05238309
210	0x3d6654f8	0.056233376
211	0x3c36b16f	0.011150702
212	0x3d47373b	0.048636656
213	0xbd6e50d1	-0.05818254
214	0x3dc81a1e	0.097706065
215	0x3d1b21ea	0.03787414
216	0xbc06aa47	-0.008219308
217	0x3d5beaa4	0.053690568
218	0xbc9a5fbd	-0.01884448
219	0xbd1c46bc	-0.038153395
220	0x3ce4cd78	0.027930006
221	0x3db37547	0.08762603
222	0xbb194933	-0.0023389577
223	0xbcdef997	-0.027218623
224	0xbdc94e3f	-0.098293774
225	0x3d2a507d	0.041580666
226	0xbd27794d	-0.040887166
227	0xbd915fa3	-0.070983194
228	0x3d8be8e0	0.06831527
229	0x3cee1d77	0.029066784
230	0x3d2f329c	0.042772874
231	0xbcc53f19	-0.024077939
232	0xbd391cda	-0.04519353
233	0xb9da15f2	-0.0004159655
234	0x3d7aa2ef	0.06119054
235	0xbe0f0882	-0.13968089
236	0xbd00ab4d	-0.031413365
237	0xbdf2e196	-0.11859433
238	0xbcc0106e	-0.023445334
239	0xbdaa8dd2	-0.08327831
240	0x3b2da15f	0.002649389
241	0xbd802659	-0.06257314
242	0x3cd0f1fd	0.025506014
243	0xbd9516bc	-0.07279727
244	0x3dd97c7e	0.10619448
245	0xbc6c6be4	-0.01443002
246	0xbdb5e421	-0.08881403
247	0x3dedc1af	0.11609208
248	0x3da0ed4c	0.07857761
249	0xbcf6659a	-0.030077744
250	0x3d25c147	0.040467527
251	0xbd691419	-0.056903932
252	0x3cf122f5	0.029435614
253	0xbce3ead1	-0.02782193
254	0xbcd6e3ed	-0.02623173
255	0xbdbbe7ad	-0.09175048

a2c_network.actor_mlp.2.bias f4 [128]
0	0xbe3c7876	-0.18405327
1	0xbd9ebe10	-0.07751095
2	0xbe4f0008	-0.20214856
3	0x3dbc4a0e	0.09193812
4	0xbd9f0a2a	-0.077656105
5	0xbe06b45b	-0.13154738
6	0x3c8cfba1	0.01720983
7	0x3d88ee39	0.06686062
8	0xbd71f7fe	-0.059074394
9	0xbd522423	-0.051303994
10	0xbc886df9	-0.016654002
11	0xbd53b185	-0.051682968
12	0xbd3cd064	-0.046097174
13	0xbd8cd1dc	-0.06875965
14	0xbbb66330	-0.0055660233
15	0xbe54446e	-0.20729229
16	0xbd9bed4a	-0.07613619
17	0xbdb4b3e9	-0.08823378
18	0xbe3c91e1	-0.18415023
19	0x3c4963c7	0.012291855
20	0xbd57ef5b	-0.0527185
21	0x3b851f85	0.0040625953
22	0x3d0ae70d	0.033911753
23	0x3e065cd1	0.13121344
24	0xbe3cabe0	-0.1842494
25	0xbb362334	-0.0027791979
26	0x3c9b115d	0.018929178
27	0xbd494d1b	-0.0491458
28	0xbdda56eb	-0.106611095
29	0xbd450229	-0.048097763
30	0x3cb74ffa	0.022377003
31	0x3d5f92ea	0.054583468
32	0xbd0c0020	-0.034179807
33	0x3ddfbf8c	0.109252065
34	0x3d91934e	0.07108174
35	0xbcb23d70	-0.021757811
36	0xbb37b953	-0.0028034046
37	0x3da07ad7	0.0783593
38	0x3cf1a9d9	0.029499935
39	0xbd5fa1d3	-0.054597687
40	0xbddcbef3	-0.10778608
41	0xbda4a8b9	-0.08039994
42	0x3c99eddd	0.01879018
43	0x3d37e748	0.0448983
44	0x3e03c0cf	0.1286652
45	0xbd014a0d	-0.03156476
46	0x3d8ecd4b	0.0697275
47	0xbd68a0c0	-0.05679393
48	0xbd2d25f0	-0.04227251
49	0xbc22ea77	-0.009943596
50	0x3dbd4f19	0.09243602
51	0x3d87d561	0.06632496
52	0x3ce60284	0.028077371
53	0x3de74b47	0.11293655
54	0xbd99f799	-0.07517929
55	0xbdc2ff96	-0.095214054
56	0xbc73df2a	-0.014884749
57	0x3df13c4d	0.117790796
58	0x3cb73771	0.022365304
59	0xbd2e68fa	-0.042580582
60	0xbe1dc68c	-0.15407771
61	0xbe26df25	-0.1629606
62	0xbd032b6f	-0.032023843
63	0xbd93a1df	-0.07208609
64	0xbdc1db6c	-0.094656795
65	0xbd91e4c1	-0.071237095
66	0xbe20515b	-0.15656035
67	0xbdd50f82	-0.104033485
68	0xbe3d81c4	-0.18506533
69	0xbd1b0255	-0.03784402
70	0xbe38ea1b	-0.18058054
71	0xbc87c2db	-0.016572407
72	0xbdf34ce4	-0.118799
73	0x3d0a55fd	0.03377341
74	0xbd52c69f	-0.05145895
75	0xbdaf3131	-0.085543044
76	0x3ce7d448	0.028299466
77	0x3cdb99e5	0.026806781
78	0xba56c804	-0.0008193257
79	0x3db7b1ca	0.089694574
80	0xba0e3b82	-0.00054257375
81	0xbc39c7dd	-0.011339155
82	0x3ccd5635	0.02506552
83	0xbe800a17	-0.25007698
84	0x3e12bcff	0.14329909
85	0xbe405934	-0.18784028
86	0xbd9fd5b6	-0.07804434
87	0x3c231aff	0.009955167
88	0xbe3cc41a	-0.18434182
89	0x3cd32694	0.025775231
90	0xbdb86aad	-0.09004722
91	0x3d2c4a38	0.042062968
92	0x3d2cfaa7	0.04223123
93	0x3d142208	0.036165267
94	0xbca3d001	-0.019996645
95	0x3cd2250b	0.02565243
96	0x3c5bff94	0.013427634
97	0x3d7adefe	0.06124782
98	0xbc208504	-0.009797338
99	0xbde3e3d2	-0.11127438
100	0xbd3d6199	-0.046235655
101	0xbdb9f2bd	-0.09079502
102	0x3d2f9218	0.042863935
103	0xbdb11433	-0.08646431
104	0x3d5a5a4a	0.053308763
105	0xbe0932a3	-0.13398223
106	0xbe1bfa3d	-0.15232177
107	0x3d82efff	0.06393432
108	0xbd469d23	-0.0484897
109	0x3d117817	0.035514917
110	0xbd27d28d	-0.04097228
111	0x3cd14136	0.02554379
112	0xbb9ef751	-0.0048512598
113	0xbd8c069c	-0.06837198
114	0x3dd4eff8	0.10397333
115	0xbd7f8262	-0.062380202
116	0xbcc0c909	-0.023533361
117	0x3d9bc86c	0.07606587
118	0xbd240211	-0.040041033
119	0xbc853e5c	-0.016265087
120	0xbd106ee5	-0.035262007
121	0xbdacbbb1	-0.08434237
122	0xbc7de13e	-0.015495596
123	0x3c65308d	0.013988626
124	0x3c40c7b0	0.011766359
125	0x3dccb4ff	0.0999546
126	0x3d833b61	0.0640781
127	0x3d7fa0fa	0.06240938

a2c_network.actor_mlp.4.weight f4 [64, 128]
0	0xbd0473f7	-0.032337155
1	0xbe1a4209	-0.15064253
2	0x3dafc0cc	0.08581695
3	0xbdddf3dd	-0.10837529
4	0x3ca2a107	0.019852174
5	0x3d98e837	0.074661665
6	0x3dbfede7	0.09371548
7	0xbe440f12	-0.19146374
8	0xbdcd9df1	-0.100398906
9	0x3de13470	0.1099633
10	0x3d38a30a	0.04507736
11	0x3df82095	0.121155895
12	0x3d79ae6c	0.060957357
13	0x3dc43ecd	0.09582291
14	0xbcd6bca1	-0.026212992
15	0xbd580829	-0.052742157
16	0x3db94eaa	0.09048207
17	0x3d8f105b	0.069855414
18	0xbd730806	-0.059333824
19	0xbc9697e4	-0.018382974
20	0x3db597e9	0.08866865
21	0xbdea0a4c	-0.11427745
22	0xbdf841df	-0.12121939
23	0xbdc5324f	-0.09628736
24	0x3d3b8141	0.045777563
25	0x3d653e48	0.0559676
26	0x3e0f40a3	0.139895
27	0xbca8b070	-0.020591944
28	0xbda685cb	-0.08130988
29	0xbd60180d	-0.054710437
30	0xbc23833d	-0.00998002
31	0xbc9a7f9b	-0.018859675
32	0x3db3a7c9	0.08772237
33	0xbd5371a2	-0.05162204
34	0xbd69e1e6	-0.0571002
35	0xbe018bc3	-0.12650971
36	0xbdb257d7	-0.0870816
37	0x3cbc2669	0.022967534
38	0xbdb55f41	-0.08856059
39	0xbdb77102	-0.089571014
40	0xbc85e787	-0.016345752
41	0xbb9743fd	-0.004616259
42	0x3d9841e2	0.07434441
43	0x3d16ce87	0.036818054
44	0xbdfd53c3	-0.12369492
45	0xbd4f1f75	-0.05056711
46	0xbe4e3847	-0.20138656
47	0x3b26d824	0.002545842
48	0xbcd9a3b8	-0.026567325
49	0xbdb0a089	-0.0862437
50	0x3da099fe	0.07841872
51	0xbe3965fb	-0.18105309
52	0xbd6d0040	-0.057861567
53	0xbd6889f6	-0.056772195
54	0x3c8ec325	0.017427037
55	0xba3f6639	-0.0007301304
56	0xbce824d9	-0.028337883
57	0xbd4678cc	-0.048455045
58	0xbe22f5b7	-0.15914045
59	0xbcdb7fc2	-0.026794318
60	0x3df4ff8f	0.119628064
61	0xbd6368ee	-0.05551999
62	0xbda21503	-0.07914164
63	0x3df760c9	0.12079007
64	0xbd402be7	-0.04691687
65	0xbd65e4ea	-0.056126513
66	0x3dce7b9f	0.100821726
67	0x3d9989dd	0.074969985
68	0xbd866c25	-0.06563596
69	0xbd7f7683	-0.06236888
70	0xbdc70ec2	-0.09719612
71	0xbe0711c4	-0.13190371
72	0xbe1f9522	-0.15584233
73	0xbd495176	-0.049149953
74	0x3ba36066	0.004985857
75	0xbd9c01d8	-0.07617539
76	0x3d950771	0.0727681
77	0xbd0ca69a	-0.03433857
78	0xbda1dfc7	-0.0790401
79	0xbdefa00c	-0.117004484
80	0x3c68453e	0.014176665
81	0xbbb0515e	-0.0053807935
82	0xbe4d3a3a	-0.20041743
83	0x3d91739b	0.07102128
84	0xbd220378	-0.03955409
85	0xbd2fbd7d	-0.04290532
86	0xbd43f676	-0.047842465
87	0xbdfaad52	-0.122400895
88	0xbd045df2	-0.032316156
89	0x3d9bff9e	0.076171145
90	0xbd5e9f88	-0.05435136
91	0x3d8de33b	0.069281064
92	0xbdb604f7	-0.08887666
93	0xbc60929d	-0.01370683
94	0xbd372b88	-0.04471925
95	0xbce7bd5d	-0.028288538
96	0xbdf136b1	-0.1177801
97	0xbc394961	-0.011308999
98	0xbb7a739b	-0.003821588
99	0x3c8e8790	0.017398626
100	0xbd6ada31	-0.05733699
101	0x3cad7f45	0.02117885
102	0xbc985f29	-0.018600063
103	0x3e1e7dd0	0.15477681
104	0xba831479	-0.0010000608
105	0xbcf93732	-0.030421827
106	0xbe14ddd2	-0.14537743
107	0x3e0aa102	0.13537982
108	0xbe2b999b	-0.16757815
109	0x3d810bc2	0.06301071
110	0x3dcae8a9	0.09907658
111	0xbd53803c	-0.051635966
112	0xbd5a3292	-0.053270884
113	0x3d3c9bf7	0.046047177
114	0x3dd03f22	0.10168292
115	0xbb67f6f6	-0.0035395003
116	0x3dba99ff	0.09111404
117	0xbe3aec0d	-0.18254109
118	0xbe0c0ff3	-0.13677959
119	0x3dc7a131	0.09747542
120	0x3da5ec53	0.08101716
121	0xbda68241	-0.08130313
122	0xbbd0afb2	-0.0063686008
123	0x3cd943e3	0.026521629
124	0x3d0dbef9	0.034605954
125	0xbdcf56f0	-0.10124004
126	0xbdf7687c	-0.12080476
127	0xbd37dad7	-0.044886436
128	0x3d558117	0.052125063
129	0x3d36ec36	0.044658862
130	0x3d225e0e	0.03964048
131	0x3c41bf94	0.011825461
132	0x3c34010e	0.01098658
133	0x3cef1414	0.029184379
134	0xbc8a7c6e	-0.016905036
135	0xbd50d462	-0.050983794
136	0xbcfe3bd5	-0.03103439
137	0xbd14e133	-0.03634758
138	0x3d28316c	0.041062757
139	0xbba8fb70	-0.005156927
140	0xbd8fd927	-0.070238404
141	0x3cf32973	0.02968285
142	0xbcaec736	-0.021335226
143	0xbbe558b8	-0.0069991015
144	0x3d8ab8a8	0.06773502
145	0xbcc9a021	-0.024612488
146	0xbd7ee3f7	-0.062229123
147	0xbd9a6237	-0.07538264
148	0x3cd1c90f	0.025608568
149	0x3d702a54	0.058634117
150	0xbd412fd6	-0.04716476
151	0xbc4ffc7c	-0.012694474
152	0x3bc45005	0.0059909844
153	0xbe0eace4	-0.1393314
154	0x3d750a40	0.05982423
155	0xbd0c1942	-0.034203775
156	0xba4a6a25	-0.0007721505
157	0xbd0172e1	-0.031603698
158	0xbc01eea4	-0.0079304315
159	0x3b112d27	0.0022152157
160	0x3bfb4235	0.0076678046
161	0x3d1b740c	0.037952468
162	0x3d20d3f8	0.03926465
163	0xbbfe0758	-0.0077523403
164	0xbc31ad8b	-0.0108445985
165	0x3db8d868	0.09025651
166	0xbd391452	-0.045185395
167	0x3d0015df	0.031270858
168	0x3e0f62bf	0.14002512
169	0x3d30ff71	0.043212358
170	0xbc895564	-0.01676435
171	0xbd06a9c8	-0.03287676
172	0xbcc0b8b3	-0.023525571
173	0xbce28daf	-0.02765545
174	0xbdd70b87	-0.105002455
175	0x3d79fd61	0.061032657
176	0xbe030b66	-0.12797317
177	0xbd1dd806	-0.038536094
178	0xbc58c1b8	-0.01322978
179	0x3d1503bc	0.036380515
180	0xbdc96039	-0.09832806
181	0x3d844753	0.064589165
182	0x3d82aea4	0.06380966
183	0xbdf975c2	-0.12180664
184	0x3cfb70d6	0.030693453
185	0xbd737c47	-0.059444692
186	0xbd80479e	-0.0626366
187	0x3c3f9033	0.011692095
188	0x3e1b1c2a	0.15147462
189	0xbd55e14a	-0.052216806
190	0xbd49f7db	-0.04930864
191	0x3d98994f	0.07451116
192	0x3b78ffd9	0.0037994294
193	0xbd486fd3	-0.04893477
194	0x3da30e2b	0.07961687
195	0x3db215c4	0.08695558
196	0x3d33928e	0.043840937
197	0xbd65a1d6	-0.056062542
198	0x3e04af05	0.1295739
199	0x3d7d7928	0.06188312
200	0x3e0ff3f5	0.14057906
201	0x3d61e128	0.055146366
202	0xbc97b9ea	-0.018521268
203	0x3d2ce31f	0.042208787
204	0x3cfa1914	0.030529536
205	0x3d3c4ac7	0.04596975
206	0xbc9f7f6b	-0.019469937
207	0xbdc24a1d	-0.09486792
208	0x3d584c02	0.05280686
209	0xbd3eedab	-0.046613377
210	0xbd945f7d	-0.072447754
211	0xbd524071	-0.051330987
212	0x3c2ee2fc	0.0106742345
213	0x3d23af74	0.039962247
214	0x3ada0863	0.001663458
215	0xbdb4051f	-0.08790039
216	0x3e042dc4	0.12908083
217	0x3c0d969a	0.008641863
218	0xbd36834a	-0.0445588
219	0x3e06c611	0.13161494
220	0xbdc3513b	-0.09536978
221	0x3c2a1b13	0.010382432
222	0x3d431700	0.047629356
223	0x3c9fa8a9	0.019489603
224	0x3d059bea	0.032619394
225	0xbda37b74	-0.07982531
226	0xbd415008	-0.047195464
227	0xbcc0e407	-0.023546232
228	0xbd726e05	-0.059186954
229	0x3d9686b5	0.07349912
230	0xbc5767b0	-0.01314728
231	0x3c4a9a8f	0.012365951
232	0x3d27efa9	0.041000042
233	0xbcb98bfd	-0.02264976
234	0xbce48f5c	-0.02790039
235	0xbd01a3f2	-0.03165049
236	0xbe2189c6	-0.15775213
237	0x3cc63a9d	0.02419787
238	0x3d0eaccb	0.034832757
239	0x3d9efc45	0.0776296
240	0xbc64b187	-0.013958341
241	0x3c879eb1	0.016555162
242	0x3ca3fd3c	0.020018212
243	0xbda80f5b	-0.08206054
244	0x3d631848	0.05544308
245	0x39941416	0.00028243725
246	0x3d26ca9e	0.040720575
247	0x3e248ddd	0.16069742
248	0x3dd27198	0.102755725
249	0xbd8423fd	-0.06452177
250	0xbd2fb22b	-0.042894524
251	0xbd13415d	-0.035951007
252	0x3ddc2055	0.10748354
253	0xbd564e6c	-0.052320883
254	0x3d3ea253	0.046541523
255	0xbd8cc9cd	-0.06874428

a2c_network.actor_mlp.4.bias f4 [64]
0	0xbd39053d	-0.04517101
1	0xbd190a32	-0.03736324
2	0xbd8b6983	-0.06807234
3	0xbd9a8a1f	-0.07545876
4	0xbd826e1b	-0.06368657
5	0xbbf10104	-0.0073548574
6	0xbca2f6ea	-0.019893128
7	0xbd2bd9eb	-0.04195587
8	0xbe15a2f5	-0.14612944
9	0x3daf1a51	0.08549941
10	0xbe0fcec9	-0.14043726
11	0xbcd88fab	-0.026435694
12	0xbcf3a49e	-0.029741582
13	0x3b7ca928	0.0038552973
14	0xbdbd0a18	-0.09230441
15	0xbcabfaee	-0.020993676
16	0x3ce3fd5a	0.027830768
17	0xbdb89611	-0.09012998
18	0xbd84e625	-0.06489209
19	0x3c86747b	0.016412964
20	0xbe0317ec	-0.12802094
21	0xbd035b5b	-0.032069545
22	0xbdb5530b	-0.0885373
23	0xbcacb7f2	-0.021083806
24	0xbd4c8a61	-0.049936656
25	0xbc8f41c2	-0.01748741
26	0x3d605c61	0.0547756
27	0xbde6a375	-0.11261646
28	0xbc964fdd	-0.018348629
29	0xbc92cdc4	-0.017920382
30	0xbe04a315	-0.12952836
31	0xbdeadf2b	-0.11468347
32	0xbe0cf788	-0.137663
33	0xbbb115c8	-0.005404208
34	0xbd78d68d	-0.060751487
35	0xbe2f165e	-0.17098376
36	0xbdacba0a	-0.08433922
37	0x3c759c79	0.014990919
38	0xbd2ccc35	-0.042186935
39	0x3b96f123	0.0046063825
40	0xbb105003	-0.0022020347
41	0x3b04340b	0.0020172622
42	0xbd826060	-0.06366038
43	0xbdcc88e6	-0.09987049
44	0xbc223a0d	-0.009901536
45	0xbd92ac1a	-0.07161732
46	0x3cc40fea	0.02393337
47	0x3d97f13f	0.07419061
48	0x3d6f43d1	0.058414284
49	0x3daa0da7	0.08303385
50	0xbcff3491	-0.031152995
51	0xbcf93970	-0.030422896
52	0x3b251833	0.0025191426
53	0xbdf92601	-0.12165452
54	0xbdc44575	-0.095835604
55	0xbd4ea48c	-0.050449893
56	0xbb18135c	-0.0023204898
57	0xbe0e3458	-0.13887155
58	0x3c7bc048	0.015365668
59	0x3b9853b0	0.004648648
60	0xbc8acd5c	-0.016943626
61	0xbdb32d52	-0.087488785
62	0x3d5ddeb9	0.054167483
63	0xbda82bae	-0.08211456

a2c_network.value.weight f4 [1, 64]
0	0x3df87540	0.12131739
1	0x3d5b2790	0.053504527
2	0xbdf40067	-0.11914139
3	0xbd17462d	-0.03693216
4	0x3cb11243	0.021615153
5	0x3de1791f	0.1100943
6	0xbd258141	-0.04040647
7	0xbdf9b64d	-0.12192974
8	0xbd3fed51	-0.046857182
9	0x3e005dd2	0.1253579
10	0xbcb84fe2	-0.022499029
11	0x3da75eb0	0.08172357
12	0x3dbd3e7e	0.09240435
13	0xbd43fb6f	-0.047847208
14	0xbcbe4d80	-0.023230314
15	0xbd18749c	-0.037220582
16	0x3e03a599	0.12856139
17	0xbb47239a	-0.003038621
18	0x3da41b6f	0.08013045
19	0x3e18c333	0.14918213
20	0xbddf3ccf	-0.1090027
21	0x3d1a8406	0.037723564
22	0xbe59cf45	-0.21270473
23	0x3df9a367	0.1218937
24	0xbd7afa16	-0.061273657
25	0x3d2dea08	0.042459518
26	0x3d69cc2e	0.057079487
27	0xba7d5a36	-0.00096646266
28	0x3d884679	0.066540666
29	0x3e06f785	0.13180359
30	0xbd9111ac	-0.07083449
31	0xbd06fdbb	-0.03295682
32	0xbd268c9f	-0.04066145
33	0xbc06b95f	-0.008222907
34	0x3cfab093	0.030601775
35	0xbd0357e7	-0.032066252
36	0x3d1d379b	0.038383108
37	0x3c935baf	0.017988054
38	0x3dcabb56	0.09899013
39	0x3df7c64b	0.12098368
40	0x3c8e282e	0.017353144
41	0x3e093399	0.13398589
42	0xbd85aff4	-0.06527701
43	0x3d418ce6	0.04725351
44	0xbca8fa93	-0.020627296
45	0xbe1fb328	-0.15595686
46	0x3c497958	0.012296997
47	0xbcde7ed7	-0.027160091
48	0x3d109df3	0.035306882
49	0x3d5ff558	0.054677337
50	0x3ce99c20	0.028516829
51	0xbd9a50e5	-0.07534961
52	0x3dbcb1c5	0.09213594
53	0xbc9a0e89	-0.018805759
54	0xba8e9d2d	-0.0010880582
55	0xbdc592d8	-0.09647149
56	0x3d25ee55	0.040510494
57	0x3cb450d5	0.0220112
58	0xbd8c24d9	-0.06842966
59	0xbe04eaf9	-0.1298026
60	0x3dcb044d	0.0991293
61	0x3d0132ec	0.031542704
62	0xbd041dc9	-0.032254968
63	0xbe1fc1de	-0.15601298

a2c_network.mu.weight f4 [6, 64]
0	0xbd8cf7e7	-0.06883221
1	0x3af7f0a5	0.0018916322
2	0xbc65bd5f	-0.0140222
3	0xbdad150d	-0.08451281
4	0xbd8f493c	-0.0699639
5	0x3ccbb3db	0.024866035
6	0x3dcd3398	0.10019606
7	0x3d148a3e	0.03626465
8	0xbe0ac1b6	-0.13550457
9	0xbc986c94	-0.018606462
10	0xbde4da28	-0.111744225
11	0x3d87aa17	0.06624239
12	0xbd1c834a	-0.038211145
13	0x3c8ebbbd	0.017423505
14	0x3d913abe	0.07091282
15	0x3d8123a4	0.06305626
16	0x3d740b87	0.059581306
17	0x3c527c37	0.012846998
18	0x3c379597	0.011205099
19	0x3e21d5ea	0.15804258
20	0x3d500d12	0.050793715
21	0x3cece1b8	0.028916225
22	0xbe16ba71	-0.14719559
23	0x3e00655a	0.12538663
24	0xbc9b4dc9	-0.01895799
25	0xbd1402a8	-0.036135346
26	0x3df042e9	0.11731512
27	0xbe0aa086	-0.13537797
28	0x3d8ac99f	0.067767374
29	0x3d63ec0c	0.055645034
30	0xbd99ab6c	-0.07503399
31	0x3d62f2bc	0.05540727
32	0xbd54d590	-0.05196148
33	0xbdafee12	-0.0859033
34	0xbd9e8cbc	-0.07741687
35	0xbdc2c5cc	-0.09510383
36	0xbc192a39	-0.009348446
37	0xbd19c705	-0.037543315
38	0xbe0c3571	-0.13692261
39	0xbcb817af	-0.02247223
40	0x3cf38fce	0.029731657
41	0xbd19d947	-0.037560727
42	0xbd3a7c0a	-0.04552845
43	0x3af3cebc	0.001860104
44	0x3d1e5591	0.03865582
45	0x3c2a1e4d	0.010383201
46	0xbca83773	-0.020534253
47	0x3db7ed54	0.089808136
48	0x3cd57047	0.026054515
49	0x3d42fa74	0.047602132
50	0x3d1a4b2a	0.03766934
51	0xbd1b2347	-0.03787544
52	0x3d4bf01e	0.04978954
53	0xbd118bb3	-0.03553362
54	0x3be683f6	0.007034774
55	0xbd9f3bce	-0.07775079
56	0xbd74273f	-0.05960774
57	0x3c90a2ce	0.017655756
58	0x3d315de5	0.043302435
59	0xbb081f56	-0.002077063
60	0x3d79ff45	0.06103446
61	0xbda91416	-0.08255784
62	0x3c43744c	0.011929583
63	0x3dbb307a	0.091401055
64	0xbdd5098b	-0.10402211
65	0xbb83d24e	-0.004022873
66	0x3ba01f33	0.0048865317
67	0x3d9f338b	0.07773503
68	0xbd63d27c	-0.055620655
69	0x3d5b08a3	0.053475033
70	0xbcb8d0c3	-0.022560483
71	0xbd8c4ab4	-0.06850186
72	0xbdc8ec96	-0.0981075
73	0x3e004521	0.1252637
74	0xbdcde5a6	-0.100535676
75	0xbc2bf731	-0.010495947
76	0xbca78432	-0.020448778
77	0xbb35b715	-0.0027727534
78	0xbcfaec72	-0.030630324
79	0x3bcd4d5e	0.0062653264
80	0xb9bf106e	-0.000364426
81	0xbce5a773	-0.028033948
82	0xbdf37b67	-0.118887715
83	0x3e01192d	0.1260726
84	0xbe1115bd	-0.14168449
85	0x3d316cb6	0.043316565
86	0x3c808153	0.015686667
87	0x3d7bdae1	0.061488036
88	0x3d5b533d	0.05354618
89	0x3d621ba5	0.055202145
90	0x3d7b5420	0.061359525
91	0xbd740f0b	-0.05958466
92	0xbd5c09a6	-0.05372014
93	0xbc90a9a2	-0.017659012
94	0xbdb12bd8	-0.08650941
95	0xbcad3ae1	-0.02114624
96	0xbe0d1503	-0.13777547
97	0x3c7c5a33	0.015402365
98	0x3d5090aa	0.050919212
99	0xbdaa8d54	-0.083277375
100	0xbdd31290	-0.10306275
101	0xbce6e0c8	-0.028183356
102	0xbdc1560b	-0.094402395
103	0x3cc4d568	0.024027541
104	0x3cf7fe76	0.030272704
105	0x3d39b3b7	0.045337405
106	0xbd14d2cb	-0.03633384
107	0xbd53a496	-0.051670633
108	0x3db3c5fb	0.08777996
109	0xbc666547	-0.014062232
110	0x3d83746a	0.064186886
111	0x3d40b365	0.047046084
112	0x3c76ae41	0.015056194
113	0x3dd8844e	0.1057211
114	0xbd80634b	-0.06268939
115	0x3df25863	0.11833265
116	0xbd4d4fce	-0.050124936
117	0xbdbcba63	-0.09215238
118	0xbddb43e5	-0.10706309
119	0xbd161ae4	-0.03664674
120	0x3d38753f	0.04503369
121	0xbd9125d2	-0.07087292
122	0x3ddffd94	0.10937038
123	0x3c6450cc	0.013935279
124	0xbcd712e7	-0.02625413
125	0xbdb8448a	-0.08997448
126	0x3c57c646	0.013169831
127	0xbd99b669	-0.07505495
128	0xbdab9bb6	-0.08379309
129	0x3ca60e77	0.02027057
130	0x3c8bdcc0	0.017073035
131	0x3d980d39	0.07424397
132	0xbde19dda	-0.11016436
133	0x3d742789	0.059608016
134	0x3d7c1dd5	0.061551888
135	0x3d79f960	0.06102884
136	0x3de588d3	0.11207738
137	0x3c3ac1f4	0.011398781
138	0x3cfae909	0.030628698
139	0x3dbb7000	0.09152222
140	0xbda58de7	-0.08083706
141	0xbbb0812c	-0.0053864922
142	0x3db6bd0c	0.089227766
143	0x3d08de4c	0.033415124
144	0x3db4890e	0.088152036
145	0x3dfec70b	0.12440308
146	0x3c60a965	0.013712262
147	0xbc78cbbe	-0.015185295
148	0x3d95db44	0.07317212
149	0xbd8fe78a	-0.070265844
150	0xbd10d23b	-0.03535674
151	0x3d48b5e1	0.04900158
152	0xbd8df6cb	-0.06931838
153	0xbd682b38	-0.05668184
154	0xbdadf0ce	-0.084931955
155	0x3d1ff844	0.039055124
156	0x3c344bfe	0.011004446
157	0xbcaabf4c	-0.02084317
158	0x3d4f7786	0.050651096
159	0x3d75dbb9	0.060023997
160	0x3dab386f	0.08360373
161	0x3cabdccb	0.020979306
162	0x3daa1b71	0.08306015
163	0x3cecbecb	0.02889957
164	0x3dcf85d1	0.10132945
165	0x3c9eaf9b	0.019370845
166	0x3c9f0a91	0.019414218
167	0xbd1a41b4	-0.037660316
168	0x3cb5ade9	0.022177653
169	0xbe12f661	-0.14351799
170	0x3ced26ad	0.028949106
171	0x3d3b412c	0.04571645
172	0x3dfe2221	0.12408853
173	0xbdee9212	-0.116489545
174	0x3d5cf63e	0.053945772
175	0x3d7049f3	0.058664273
176	0xbda740b7	-0.0816664
177	0xbd4d4585	-0.050115127
178	0x3c4b8321	0.0124214
179	0x3dc09f8a	0.0940543
180	0x3d090eef	0.033461507
181	0xbd2067ef	-0.03916162
182	0xbcc71f70	-0.024306983
183	0x3c8f8932	0.017521475
184	0x3d225563	0.039632212
185	0x3e1c5e44	0.15270334
186	0x3dde7e09	0.10863883
187	0xbd313c9d	-0.043270696
188	0xbddd4647	-0.1080442
189	0x3daaec17	0.08345812
190	0xbd903e94	-0.07043186
191	0x3dcfe52d	0.10151134
192	0x3d4a986b	0.049461763
193	0xbc5eee5e	-0.013606636
194	0x3ce197ce	0.027538206
195	0x3da47b22	0.08031298
196	0xbd74d7b2	-0.059776016
197	0xbb5827ac	-0.003298263
198	0x3cd9c24c	0.026581906
199	0xba789e3f	-0.000948403
200	0x3e03ca77	0.12870203
201	0x3c009453	0.007847863
202	0x3d89fab3	0.0673727
203	0x3dcbf91c	0.09959623
204	0xbc5c67db	-0.013452495
205	0xbdae8662	-0.08521725
206	0x3d0e6b8c	0.034770533
207	0xbc2111d6	-0.009830913
208	0xbcede445	-0.029039511
209	0x3dfcd6b2	0.123456374
210	0xbdc64f76	-0.09683125
211	0x3d54e62b	0.051977318
212	0xbcb0c3e5	-0.021577785
213	0xba05cceb	-0.00051040825
214	0x3c04abd6	0.0080976095
215	0x3d4adc81	0.049526695
216	0x3c97d9d7	0.018536491
217	0xbc6a1f2f	-0.014289661
218	0xbde7e0ef	-0.113221996
219	0x3dc8b9df	0.09801077
220	0x3d5e5aef	0.05428594
221	0x3dd72eb0	0.10506952
222	0xbc70a6d5	-0.014688213
223	0x3d1f8381	0.03894377
224	0x3c8a6ac8	0.01689662
225	0x3d08d1dc	0.033403262
226	0x3c399312	0.011326568
227	0x3dc558e4	0.09636095
228	0xbd851772	-0.064986125
229	0xbdc504b8	-0.09620041
230	0x3ceaaa7f	0.028645752
231	0xbda09aad	-0.07842002
232	0xbd20d467	-0.039265063
233	0xbc4ea6a8	-0.012612976
234	0x3dcdc085	0.10046486
235	0x3db293f4	0.08719626
236	0xbc037336	-0.008023074
237	0x3e047b22	0.12937596
238	0xbd8e45ac	-0.069468826
239	0xbe237ff9	-0.15966786
240	0xbdb0785f	-0.08616709
241	0xbde6244a	-0.1123739
242	0xbc6f9af3	-0.014624345
243	0x3dcf4f5c	0.101225585
244	0x3d87eef1	0.06637371
245	0xbd2979bb	-0.041375857
246	0xba64b8c3	-0.00087250414
247	0xbd0c15f4	-0.034200624
248	0xbd37bb1d	-0.04485618
249	0x3e06fa37	0.13181387
250	0x3d23baf2	0.039973207
251	0xbdff4272	-0.12463845
252	0x3cfb8497	0.030702872
253	0x3dffbb2b	0.12486871
254	0xbd8afb6e	-0.06786238
255	0xbba507ae	-0.005036316

a2c_network.mu.bias f4 [6]
0	0x3c5b0de0	0.013370007
1	0x3dc3a27f	0.09552478
2	0xbb3e02f4	-0.002899346
3	0xbd62bd52	-0.05535633
4	0x3d7a9bff	0.061183926
5	0xbc8a964d	-0.016917372

exp_avg f4 [6]
0	0xbc3242b1	-0.010880158
1	0xbc1d787b	-0.009611244
2	0x3a6431f7	0.0008704955
3	0xbbc6f3a6	-0.0060715256
4	0x3c5a7c74	0.013335336
5	0xbafc6424	-0.0019255918

exp_avg_sq f4 [6]
0	0x3a22d7ca	0.00062119646
1	0x3a29c8c2	0.00064767536
2	0x3a167d0d	0.000574068
3	0x3a1ad1a6	0.0005905874
4	0x3a1e16f5	0.00060306425
5	0x3a130fa9	0.00056099385
