IsaacGymEnvs/isaacgymenvs/runs/Bolt_18-17-16-17/nn/last_Bolt_ep_650_rew_0.26350042.pth (torch, 612432 bytes, 36 tensors)

value_mean_std.running_mean f8 [1]
0.11531334246169345
00000000: 1059 aada 2c85 bd3f

value_mean_std.running_var f8 [1]
0.007164105565355625
00000000: 7d92 bbf1 1b58 7d3f

value_mean_std.count f8 []
998401.0
00000000: 0000 0000 0278 2e41

running_mean_std.running_mean f8 [30]
0.4699686348415208 0.16450688998641727 -0.24001778641676919 -0.23877834939512 0.9788286497326081 0.0715747280169718 -0.043722981756939984 -0.040290299839420826
-0.5820951280666841 1.4881221127641278 0.5123306319277913 0.024995266612596885 -0.25685695985180534 0.1925510028149698 0.24562857063068227 0.26276708636192114
0.28953082923519147 0.20884951694970516 0.021704614761124563 -0.012460566679604568 -0.02113138212886414 -0.010182239709695784 -0.0015138172451128978 -0.022377781938993462
-0.483265323733395 0.3710220956018097 0.44738083455211336 0.5098303719804873 0.5971959094262898 0.3829675484657876
00000000: f790 3253 f713 de3f a0aa 3ad0 8f0e c53f
00000010: a825 8f1f e7b8 cebf 248c d2f8 4990 cebf
00000020: 17a9 df75 9052 ef3f ad90 0dac b852 b23f
00000030: 3d96 75d1 db62 a6bf a60c 5020 eea0 a4bf
00000040: 87a2 46f6 85a0 e2bf f16b ec21 59cf f73f
00000050: d7cd 9b35 0365 e03f 62a5 9ff2 5b98 993f
00000060: 3410 942c 5870 d0bf 8b7e f3e1 82a5 c83f
00000070: 8237 e9ca c170 cf3f 2cf0 980a 2dd1 d03f
00000080: 1cee af50 ac87 d23f 02cd 8aba 94bb ca3f
00000090: 3005 490a bc39 963f 2d3a 07f3 ec84 89bf
000000a0: 06a8 a60c 77a3 95bf 80e7 6c14 6dda 84bf
000000b0: e915 d5e3 68cd 58bf 4b09 5786 33ea 96bf
000000c0: 3f73 2eae d1ed debf 8b00 ad75 d3be d73f
000000d0: 7d8b 5039 e3a1 dc3f 183d c5c8 8750 e03f
000000e0: fe4e 8998 3a1c e33f 26c0 0552 8a82 d83f

running_mean_std.running_var f8 [30]
0.5274695384230144 0.1648498797382047 0.4730893600133088 0.9939927399799671 3.0183894192490537 0.31568381131948337 0.20121761914924552 0.06804586382100283
0.39319964699368765 0.08290931649387873 0.08466471370415488 0.00021082133977373685 0.11687193964626211 0.10591997137474168 0.08763342914789687 0.10209172621372804
0.0757132545814011 0.11819537373020786 0.07231768437087238 0.0943199782742985 0.09500428120742509 0.08790261554265992 0.07988901713181226 0.07747643293941059
0.6360026798761993 0.6320479433534539 0.5413958130788794 0.5876953288334557 0.46442408020923104 0.6788192567558482
00000000: ce37 25cc 07e1 e03f ced0 1c05 cd19 c53f
00000010: 50ef 5598 1847 de3f cc9c d5dc c9ce ef3f
00000020: 0f23 125a a925 0840 ad9a 5fdf 2934 d43f
00000030: c4ff cfba 7fc1 c93f 3e41 bd27 746b b13f
00000040: 99be 28da 2e2a d93f ecfa df82 8b39 b53f
00000050: 5a0b 7c30 96ac b53f 00d8 ed84 fda1 2b3f
00000060: d2cc 99c6 51eb bd3f c43a 0c3d 921d bb3f
00000070: 32ff 39f8 246f b63f c5b7 47f1 ae22 ba3f
00000080: d803 4da0 f161 b33f 8ab1 b550 0d42 be3f
00000090: e09b 4b69 6983 b23f c02b 0ca6 5a25 b83f
000000a0: 9710 c458 3352 b83f f313 fd2a c980 b63f
000000b0: 0e06 e44b 9b73 b43f 4c7d afd9 7ed5 b33f
000000c0: 8092 c74a 225a e43f efa0 c69b bc39 e43f
000000d0: 08af eb4f 1d53 e13f c840 2b6f 66ce e23f
000000e0: 494e fec6 1fb9 dd3f 262a 7529 e3b8 e53f

running_mean_std.count f8 []
499201.0
00000000: 0000 0000 0478 1e41

a2c_network.sigma f4 [6]
-0.5041777 -0.80127084 -0.53582865 -0.5654241 -0.5038206 -0.3871502
00000000: ca11 01bf 1620 4dbf 112c 09bf a2bf 10bf
00000010: 63fa 00bf 8d38 c6be

a2c_network.actor_mlp.0.weight f4 [256, 30]
0.27313772 -0.285173 0.112790935 0.13297868 0.0626342 0.17954461 0.022322314 0.23898558
0.012622358 -0.09580675 0.12749618 0.00583646 0.06820823 0.20949933 0.097200155 -0.04919377
0.09411138 -0.032920852 0.11186461 -0.14323245 -0.19315507 -0.021481672 -0.24359517 0.10127683
0.0057958914 0.09688282 0.0634648 0.03043051 0.091814965 -0.1767419 0.18101227 -0.10783947
0.20096456 -0.05093509 0.10550318 -0.014837171 0.04387633 -0.13050729 -0.21789505 -0.16684274
0.110141225 0.11369781 0.1507605 -0.17181839 -0.1834789 -0.09258746 -0.13513309 0.00788258
0.08631538 0.12712555 -0.09605981 -0.17446952 0.12179249 -0.04667751 0.09107672 -0.100455634
0.1370097 -0.088404834 -0.112332344 0.022020185 0.11759527 -0.021211706 0.1882336 0.17798789
-0.1320871 -0.086063236 0.13595602 -0.11172972 -0.07819579 -0.13971539 -0.11279694 0.06619299
0.03219222 -0.11482381 -0.017022574 -0.11698849 -0.12599082 -0.14373668 -0.035172135 -0.115698546
0.23245646 0.04300458 0.14373435 -0.1833727 -0.07539853 -0.05519903 0.076689534 -0.18779159
0.0059392033 -0.1031573 0.017776418 0.032289106 -0.0742397 -0.2267781 -0.084554225 -0.16911936
-0.080211945 -0.14759956 0.1994071 -0.08473149 0.17280476 0.05670753 -0.15818474 0.047771614
-0.055624887 -0.04302529 -0.1513775 -0.2024542 0.017215714 -0.023411315 0.08159647 -0.1672579
0.20870972 -0.122353874 -0.016410582 0.00055456185 0.10154978 0.15908015 0.15214133 -0.1335137
0.16884625 -0.02605968 -0.135012 -0.14153075 0.23918499 -0.15807872 0.040041346 0.04373626
-0.006887008 -0.17182851 0.19425072 0.015745053 0.076601066 -0.15118921 0.06825786 -0.041677624
-0.104737304 0.15167107 -0.0039605675 -0.014186009 -0.06385315 -0.020130023 0.077557966 -0.02975208
-0.07957855 -0.028016673 -0.11487935 0.0827374 0.08519934 -0.21131194 0.111403316 0.09892178
-0.014733006 -0.0009616099 0.0953229 0.108721696 0.120580375 -0.056866534 -0.22603993 -0.017482301
-0.04904025 -0.0066618873 0.110153325 0.17143981 -0.011489062 0.035115346 0.051613834 0.0030013104
0.079819925 -0.018547583 -0.14652221 -0.112468086 0.06839511 0.07829235 -0.012862493 -0.1305296
-0.113392845 -0.08669773 -0.062002033 0.07221478 0.16168693 0.1206968 -0.23033692 -0.03294327
-0.09241166 0.34911284 0.07019185 -0.17743896 0.1668523 0.010136463 -0.17821606 0.11233051
-0.12333867 -0.038122255 -0.21417557 0.1687663 0.10697578 0.13913086 -0.15957506 -0.20367622
-0.15076753 0.02795712 0.06402387 0.14866227 0.038776394 0.03218841 -0.060863078 -0.0914516
-0.1647721 -0.12563553 0.27476338 -0.17180623 0.012583065 -0.060531072 0.09795587 -0.19687034
-0.17333992 -0.024358956 -0.13061169 0.030440183 0.07673422 -0.08704898 -0.053387467 -0.064895876
-0.06660141 -0.05439471 0.06141987 -0.11867489 0.12781538 0.063640215 0.07416933 -0.13890974
0.09529224 -0.006861512 0.08179007 0.15067801 -0.031583413 0.07325158 -0.095848344 -0.10011758
0.28060582 -0.33854243 0.13185115 0.3892284 0.2626122 -0.08376333 -0.24295823 0.103818536
0.21120252 -0.22845878 0.057410978 -0.11599182 -0.016707372 -0.052295323 -0.018517906 -0.020452587
00000000: b5d8 8b3e 3202 92be effe e63d 902b 083e
00000010: 5c46 803d 8bda 373e 49dd b63c a3b8 743e
00000020: 02ce 4e3c 5436 c4bd 5c8e 023e c63f bf3b
00000030: c2b0 8b3d fe86 563e e010 c73d 687f 49bd
00000040: 78bd c03d 04d8 06bd 4619 e53d 87ab 12be
00000050: 71ca 45be 55fa afbc 0371 79be 3a6a cf3d
00000060: 76eb bd3b 806a c63d d5f9 813d 6849 f93c
00000070: 7c09 bc3d d4fb 34be 485b 393e f1da dcbd
00000080: a7c9 4d3e 50a1 50bd 0d12 d83d 9b17 73bc
00000090: abb7 333d b4a3 05be e11f 5fbe d3d8 2abe
000000a0: b991 e13d 66da e83d f660 1a3e 29f1 2fbe
000000b0: e5e1 3bbe 7f9e bdbd 5460 0abe f025 013c
000000c0: 1ec6 b03d 332d 023e 01bb c4bd 23a8 32be
000000d0: 576e f93d eb30 3fbd 6e86 ba3d afbb cdbd
000000e0: 454c 0c3e 980d b5bd 800e e6bd ad63 b43c
000000f0: cad5 f03d 2cc4 adbc 4fc0 403e 7542 363e
00000100: d741 07be ec41 b0bd 0e38 0b3e 8dd2 e4bd
00000110: 1d25 a0bd 8d11 0fbe 1502 e7bd 3190 873d
00000120: fddb 033d bf28 ebbd ed72 8bbc a997 efbd
00000130: bd03 01be b52f 13be a810 10bd 5cf3 ecbd
00000140: 1109 6e3e 9225 303d 192f 133e 0ec6 3bbe
00000150: 8b6a 9abd 6118 62bd 670f 9d3d 704c 40be
00000160: a69d c23b 2244 d3bd da9f 913c 9541 043d
00000170: fc0a 98bd 8538 68be c42a adbd a02d 2dbe
00000180: 2946 a4bd 5724 17be 6031 4c3e b487 adbd
00000190: bbf3 303e 2846 683d 2efb 21be 2bac 433d
000001a0: ecd6 63bd 493b 30bd b402 1bbe 2750 4fbe
000001b0: f807 8d3c 16c9 bfbc 0d1c a73d a845 2bbe
000001c0: 00b8 553e ab94 fabd 7c6f 86bc 0460 113a
000001d0: 55f9 cf3d e8e5 223e f0ca 1b3e d1b7 08be
000001e0: 08e6 2c3e 1c7b d5bc 9640 0abe 70ed 10be
000001f0: e9ec 743e 63df 21be 6502 243d cb24 333d
00000200: 69ac e1bb d0f3 2fbe a9e9 463e c5fb 803c
00000210: 05e1 9c3d 58d1 1abe c7ca 8b3d 28b6 2abd
00000220: 8380 d6bd a94f 1b3e a6c7 81bb 6f6c 68bc
00000230: 71c5 82bd b8e7 a4bc b6d6 9e3d a2ba f3bc
00000240: 14fa a2bd 3983 e5bc dd45 ebbd 3a72 a93d
00000250: fe7c ae3d 2862 58be 6c27 e43d 8197 ca3d
00000260: b562 71bc 8c14 7cba a738 c33d 7ba9 de3d
00000270: d8f2 f63d e2ec 68bd 0377 67be 0b37 8fbc
00000280: 6ede 48bd f64b dabb 1198 e13d eb8d 2f3e
00000290: 9e3c 3cbc 1cd5 0f3d 0769 533d a2b1 443b
000002a0: a178 a33d 1af1 97bc eb09 16be ab55 e6bd
000002b0: bc12 8c3d bd57 a03d 35bd 52bc 8da9 05be
000002c0: 823a e8bd 948e b1bd d8f5 7dbd 58e5 933d
000002d0: 4291 253e e22f f73d 71dd 6bbe 86ef 06bd
000002e0: 5342 bdbd ebbe b23e bfc0 8f3d 8fb2 35be
000002f0: 54db 2a3e 6813 263c 457e 36be 8a0d e63d
00000300: fc98 fcbd 1526 1cbd d750 5bbe 13d1 2c3e
00000310: 1e16 db3d 5278 0e3e a567 23be 8090 50be
00000320: ce62 1abe 5506 e53c f21e 833d ec3a 183e
00000330: ffd3 1e3d ffd7 033d 904b 79bd fa4a bbbd
00000340: 04ba 28be 9aa6 00be c9ad 8c3e f9ed 2fbe
00000350: 3329 4e3c 6eef 77bd 169d c83d 6198 49be
00000360: 0580 31be 6f8c c7bc 12bf 05be b15d f93c
00000370: d526 9d3d bc46 b2bd d1ac 5abd 21e8 84bd
00000380: 5266 88bd fdcc 5ebd 6793 7b3d d20b f3bd
00000390: 09e2 023e cd55 823d 17e6 973d 5b3e 0ebe
000003a0: 9428 c33d 89d6 e0bb 8d81 a73d 564b 1a3e
000003b0: 9c5d 01bd ed04 963d 234c c4bd 720a cdbd
000003c0: 91ab 8f3e 6f55 adbe fd03 073e f248 c73e
000003d0: 1b75 863e 1c8c abbd 0bca 78be d09e d43d
000003e0: 7945 583e 19f1 69be c627 6b3d 1f8d edbd
000003f0: e6dd 88bc 9f33 56bd ddb2 97bc 2f8c a7bc

a2c_network.actor_mlp.0.bias f4 [256]
0.021400176 -0.12842922 -0.053522017 -0.043649893 -0.0056945076 0.01982162 0.068839 0.01787757
-0.009945776 -0.1429978 -0.038254865 0.04813651 -0.09228623 0.058223277 0.114390925 0.045269508
-0.082994446 -0.07624079 0.013122697 0.07897226 -0.06181047 0.0093711065 0.040643692 0.05149931
0.14004147 -0.010143259 -0.023675364 -0.016774567 0.004902392 0.008628598 0.026766056 -0.062547654
-0.02515371 -0.20127748 0.026299182 -0.031469673 -0.028184662 -0.05132652 -0.055537242 -0.03868542
0.028375605 0.052035376 -0.02914473 -0.07485734 0.016813042 -0.0404099 -0.05318783 0.007859577
0.022537474 -0.08317147 -0.001706288 0.100035146 -0.04585191 -0.044256553 -0.014355767 0.029446347
-0.061871722 0.057804648 0.04008941 0.0040331036 0.021666054 0.019560296 0.037038837 -0.04568521
-0.09819049 -0.09876779 0.054224327 -0.038422376 0.060379017 0.05756832 0.044481114 -0.027444098
0.0036403397 -0.0922091 -0.058302637 -0.0030697577 -0.08799581 0.036043517 0.09163536 -0.090118796
0.03268295 -0.060848646 -0.041576456 0.011113777 -0.063342154 -0.040219583 -0.092376985 -0.06385849
0.03397469 -0.005149815 0.006173251 0.08869121 -0.04229562 0.086664274 0.09907845 0.01470931
-0.013265883 0.07882204 -0.0122987125 -0.09696415 0.0077272374 -0.024810813 0.05149526 -0.12863307
0.011787654 -0.095500596 0.07644762 -0.035156805 0.037785035 -0.0791419 -0.029909726 -0.030957377
0.08519942 -0.033972576 0.016155519 -0.019305239 -0.021727737 -0.061482742 -0.007534891 0.028735448
-0.019252934 -0.015571922 -0.016135663 -0.0058359182 -0.0016925137 -0.02330268 0.0346141 -0.0068498505
-0.0042883395 -0.14745754 -0.06777155 0.056590136 -0.11068838 0.042364705 0.036239576 0.085272014
0.08123985 0.069187604 -0.021477483 0.03730991 -0.01829363 0.0273609 -0.00071503734 -0.08327661
0.056483474 0.09190522 0.105821006 0.0014711401 0.00025857182 -0.044906348 0.050728727 0.031905312
-0.0017953565 -0.041458454 0.024943862 -0.047419474 0.074650325 -0.09054202 -0.16608103 -0.07173111
0.047134485 0.008200282 -0.038561255 0.031863417 0.009296507 -0.058373727 -0.03268868 -0.01481914
-0.0676797 -0.053047854 -0.032135896 -0.0429441 -0.028178561 -0.057952397 0.070980616 -0.037129704
0.032397266 0.05255558 -0.14437395 0.028439466 0.102422364 0.059712466 -0.0105642965 0.05408609
0.074158564 -0.017282419 -0.07552627 -0.09355884 0.00487142 -0.004663603 0.0076189814 -0.095346235
-0.051854618 0.058591772 0.00095955713 -0.06851416 -0.02362507 -0.020037884 -0.009319687 -0.1253701
0.08165224 0.035067946 -0.047742873 -0.010316796 0.017761888 -0.116162844 -0.09185051 -0.041667063
0.03995552 0.011008833 -0.013393988 -0.048729993 -0.062315237 -0.03882704 -0.049270663 -0.0661483
0.005204015 -0.027997868 0.06477848 0.021321293 0.03168749 -0.01891431 -0.0025066552 0.009288366
-0.048748933 -0.07892401 0.043850243 0.09282336 -0.106764466 0.05046675 -0.0077066105 0.04116497
-0.0034930913 -0.006440018 0.036835063 0.18174994 -0.0114798285 -0.02949479 -0.044916946 0.030558074
-0.0036455698 -0.05420014 -0.053439554 -0.08074829 -0.05357389 0.026977343 -0.0024564066 0.012426781
0.014241912 -0.033018213 0.038182054 0.016912218 -0.031836152 -0.06564741 0.04485109 -0.12662168
00000000: 6c4f af3c f382 03be e739 5bbd 3bca 32bd
00000010: fe98 babb f360 a23c 76fb 8c3d fb73 923c
00000020: 9cf3 22bc 046e 12be 22b1 1cbd ca2a 453d
00000030: 9000 bdbd 887b 6e3d ca45 ea3d 856c 393d
00000040: fef8 a9bd 2224 9cbd 9500 573c 35bc a13d
00000050: fa2c 7dbd 4589 193c 007a 263d f1f0 523d
00000060: 0867 0f3e e92f 26bc d6f2 c1bc d16a 89bc
00000070: 3fa4 a03b f75e 0d3c 7d44 db3c fc18 80bd
00000080: 270f cebc af1b 4ebe 6271 d73c 58e6 00bd
00000090: 85e3 e6bc c23b 52bd 057b 63bd 9a74 1ebd
000000a0: f573 e83c 0c23 553d eec0 eebc ce4e 99bd
000000b0: 81bb 893c da84 25bd 7bdb 59bd 75c5 003c
000000c0: 82a0 b83c ce55 aabd 86a5 dfba 3adf cc3d
000000d0: 36cf 3bbd 5c46 35bd 7334 6bbc 7739 f13c
000000e0: 346d 7dbd 91c4 6c3d cb34 243d 2028 843b
000000f0: 027d b13c ea3c a03c 09b6 173d 6a20 3bbd
00000100: 1818 c9bd c446 cabd 541a 5e3d c860 1dbd
00000110: fd4f 773d c2cc 6b3d d431 363d 72d2 e0bc
00000120: c492 6e3b 20d8 bcbd bfce 6ebd fd2d 49bb
00000130: 2637 b4bd 5ea2 133d 52ab bb3d 3490 b8bd
00000140: 8fde 053d 6e3c 79bd 134c 2abd 8f16 363c
00000150: 88b9 81bd 4abd 24bd 2530 bdbd 3dc8 82bd
00000160: 0b29 0b3d c8bf a8bb fc48 ca3b bda3 b53d
00000170: 2c3e 2dbd 0a7d b13d a4e9 ca3d 51ff 703c
00000180: 2559 59bc 736d a13d 8a80 49bc 2495 c6bd
00000190: c434 fd3b 0c40 cbbc b2ec 523d 63b8 03be
000001a0: 0121 413c d195 c3bd 9290 9c3d 9500 10bd
000001b0: 7bc4 1a3d 2615 a2bd 3e05 f5bc 539a fdbc
000001c0: 097d ae3d d426 0bbd 9458 843c 0526 9ebc
000001d0: 5efe b1bc 54d5 7bbd 3fe7 f6bb 9a66 eb3c
000001e0: 54b8 9dbc 6021 7fbc f02e 84bc 3b3b bfbb
000001f0: 56d7 ddba 43e5 bebc 84c7 0d3d b674 e0bb
00000200: 3385 8cbb 1cff 16be cfcb 8abd 0fcb 673d
00000210: 97b0 e2bd 9d86 2d3d f36f 143d 18a3 ae3d
00000220: 1461 a63d 3bb2 8d3d 8cf1 afbc 47d2 183d
00000230: 86dc 95bc f723 e03c 5871 3bba ed8c aabd
00000240: 375b 673d ce38 bc3d afb8 d83d 45d3 c03a
00000250: ec90 8739 b8ef 37bd edc8 4f3d 25af 023d
00000260: 2b52 ebba 57d0 29bd 1257 cc3c ec3a 42bd
00000270: 45e2 983d 186e b9bd 2511 2abe c3e7 92bd
00000280: 1710 413d 7a5a 063c 68f2 1dbd 3783 023d
00000290: 6050 183c 4a19 6fbd 91e4 05bd facb 72bc
000002a0: a89b 8abd b548 59bd eea0 03bd 27e6 2fbd
000002b0: bad6 e6bc 7e5f 6dbd 495e 913d 5115 18bd
000002c0: ffb2 043d 8544 573d c4d6 13be e2f9 e83c
000002d0: d1c2 d13d 0f95 743d df15 2dbc 6089 5d3d
000002e0: 72e0 973d dc93 8dbc 84ad 9abd c79b bfbd
000002f0: 6fa0 9f3b 23d1 98bb a6a8 f93b e344 c3bd
00000300: 8265 54bd edfd 6f3d ca8a 7b3a 2751 8cbd
00000310: 5d89 c1bc 7d26 a4bc 9ab1 18bc 0561 00be
00000320: 4a39 a73d 68a3 0f3d 088e 43bd c707 29bc
00000330: 6181 913c c9e6 edbd 1f1c bcbd 15ab 2abd
00000340: 66a8 233d 645e 343c 7572 5bbc 1a99 47bd
00000350: 433e 7fbd 1a09 1fbd 09d0 49bd c378 87bd
00000360: 7186 aa3b c95b e5bc 94aa 843d fea9 ae3c
00000370: beca 013d 2ff2 9abc b246 24bb 3b2e 183c
00000380: f6ac 47bd e9a2 a1bd 509c 333d 2c1a be3d
00000390: 54a7 dabd 39b6 4e3d bc87 fcbb 999c 283d
000003a0: 59ec 64bb c906 d3bb 5de0 163d a81c 3a3e
000003b0: e415 3cbc 0f9f f1bc d5fa 37bd ed54 fa3c
000003c0: 83ea 6ebb f700 5ebd 6fe3 5abd 5c5f a5bd
000003d0: 4c70 5bbd 97ff dc3c aafb 20bb b299 4b3c
000003e0: e956 693c 1b3e 07bd c964 1c3d 7e8b 8a3c
000003f0: a066 02bd 2672 86bd c7b5 373d 1da9 01be

a2c_network.actor_mlp.2.weight f4 [128, 256]
-0.053674914 -0.09826539 -0.08956393 0.022232272 -0.107605234 -0.06947928 -0.13701649 0.04882596
-0.1019109 -0.0551732 0.080074385 -0.038377073 0.074194424 -0.025638226 -0.16428328 0.04701664
0.0035731534 -0.02190829 -0.09779446 0.12245258 0.05211265 0.045820467 -0.07574751 0.015689882
0.031228801 -0.022625469 -0.02213367 -0.048457116 0.049701955 0.044249076 0.045880027 -0.13239673
0.031834565 -0.052308287 0.024580538 -0.09084858 -0.08514714 0.08482991 -0.19552286 -0.004890889
0.1140971 -0.058048826 -0.0063750586 0.14275123 -0.0014931189 -0.05149045 0.024377791 0.031977747
-0.20083049 0.11458994 0.07562157 0.10909398 0.1451259 -0.016518738 0.13318995 0.06493753
0.0658253 -0.0918426 -0.09086259 0.028084556 -0.018299164 -0.20382965 -0.028001396 0.08526078
-0.06634498 -0.027855115 0.091621764 -0.04180516 -0.013854092 0.048140507 -0.05589997 -0.14021228
0.087726474 -0.059148874 -0.06547065 0.055082783 0.09425717 -0.06353294 -0.032566037 -0.0148203885
-0.1663852 -0.072148286 -0.02941572 -0.15123297 -0.020107135 0.054453664 -0.005924963 -0.10843323
-0.03456164 -0.102686904 0.11610524 0.16155785 -0.11698218 -0.0221373 0.090822704 -0.0070917895
-0.07008215 -0.07296126 -0.045132093 0.12704177 0.027808832 0.08664915 0.018339222 -0.033588916
-0.16562411 -0.022003703 -0.05964915 -0.16344337 0.13219021 -0.0941169 -0.0043147355 -0.08271829
0.072502166 0.10469584 0.00086018007 -0.12386192 -0.014431598 -0.002336697 0.07807772 0.037049826
-0.017554898 -0.023028955 -0.02665558 -0.15165628 0.046746075 -0.031328965 0.07357982 -0.035814397
-0.08289382 -0.00803868 0.04849537 -0.15815602 0.08694541 -0.03360284 -0.035568006 0.050114125
-0.14121725 -0.030877905 0.064244345 0.0135154985 -0.14835718 -0.1296765 0.1196241 -0.039686207
-0.01746498 0.027497428 0.017028816 -0.013947348 -0.007987457 0.06242093 0.021109175 -0.08331534
0.19841734 -0.030218022 -0.07741724 0.1604252 0.08581341 0.09988929 0.029902006 0.009290749
-0.0014584395 -0.06908558 0.078046106 0.025176719 -0.04314306 -0.010844017 -0.17389652 -0.07720061
-0.038586833 -0.04589678 -0.03212977 -0.09759486 0.05480973 -0.029762203 -0.14964312 0.13475193
-0.03760549 -0.0506813 -0.024210542 0.06787186 0.14065512 -0.043084763 0.013411381 -0.03153478
0.06287484 0.08750224 0.05915175 0.009093122 0.061093602 -0.034157954 -0.16441803 -0.11262362
0.030198602 -0.009115636 0.09687283 -0.10827762 -0.05870964 0.08159559 -0.03649139 0.015547609
0.028217414 0.023277896 0.032015692 0.03239043 -0.15418899 -0.0529257 -0.034844644 -0.09697007
-0.053697944 0.021276282 -0.17690128 -0.0067010983 0.032007128 -0.11367836 0.06033975 -0.030482892
0.18603459 0.14898464 -0.034826018 -0.1572301 -0.07631438 -0.18145034 0.028758718 0.034737255
-0.04040925 0.003727603 0.06400277 0.049211852 -0.08763402 0.09193425 -0.117242195 0.014708416
-0.18819031 0.10338797 0.06765849 -0.16306742 -0.019620927 0.18364763 0.042203203 -0.013144279
-0.054801553 -0.11907121 0.012944378 0.0028763607 0.11458969 -0.036287744 -0.1883807 0.19147211
-0.07006886 0.016279688 -0.093107454 0.04858497 0.036868062 -0.083577886 -0.07239681 -0.12596448
00000000: 3ada 5bbd 5d3f c9bd 4b6d b7bd 7420 b63c
00000010: 2260 dcbd 274b 8ebd 0d4e 0cbe bbfd 473d
00000020: a9b6 d0bd 4bfd 61bd 0afe a33d 4731 1dbd
00000030: 3ff3 973d 4207 d2bc e039 28be 8594 403d
00000040: 912b 6a3b 0479 b3bc 7648 c8bd 6bc8 fa3d
00000050: 1374 553d 3eae 3b3d 8321 9bbd 1188 803c
00000060: 8bd3 ff3c 0c59 b9bc ac51 b5bc f87a 46bd
00000070: 4794 4b3d 853e 353d b2ec 3b3d 0293 07be
00000080: f664 023d 3741 56bd 205d c93c d20e babd
00000090: a061 aebd 4ebb ad3d 2537 48be c043 a0bb
000000a0: beab e93d 9bc4 6dbd dee5 d0bb 612d 123e
000000b0: c2b4 c3ba a6e7 52bd efb3 c73c 19fb 023d
000000c0: 82a6 4dbe 21ae ea3d 7bdf 9a3d aa6c df3d
000000d0: e29b 143e 4e52 87bc f262 083e f8fd 843d
000000e0: 6acf 863d f917 bcbd 2a16 babd 9511 e63c
000000f0: 21e8 95bc b8b8 50be 2f63 e5bc 349d ae3d
00000100: e0df 87bd 6930 e4bc 31a4 bb3d e33b 2bbd
00000110: 46fc 62bc fb2e 453d 5ef7 64bd cf93 0fbe
00000120: f0a9 b33d 1746 72bd 7a15 86bd 7c9e 613d
00000130: e709 c13d 8f1d 82bd f763 05bd 37d1 72bc
00000140: e260 2abe 7bc2 93bd 3cf9 f0bc d1dc 1abe
00000150: b8b7 a4bc ce0a 5f3d 3126 c2bb 3e12 debd
00000160: 8290 0dbd 834d d2bd 96c8 ed3d 6c6f 253e
00000170: 5a94 efbd 4859 b5bc 4101 ba3d 3e62 e8bb
00000180: 3b87 8fbd b76c 95bd 6edc 38bd 3d17 023e
00000190: 59cf e33c 1c75 b13d 233c 963c 8894 09bd
000001a0: 5e99 29be 1c41 b4bc ab52 74bd b35d 27be
000001b0: df5c 073e 5cc0 c0bd a062 8dbb 3568 a9bd
000001c0: 047c 943d c66a d63d b57d 613a 51ab fdbd
000001d0: 8272 6cbc 4523 19bb 36e7 9f3d 8fc1 173d
000001e0: 4acf 8fbc 38a7 bcbc ce5c dabc c94b 1bbe
000001f0: d078 3f3d cd52 00bd 04b1 963d 1eb2 12bd
00000200: 3cc4 a9bd abb4 03bc 15a3 463d a7f3 21be
00000210: 6f10 b23d 22a3 09bd c2af 11bd 7844 4d3d
00000220: 419b 10be a9f3 fcbc 8a92 833d 1c70 5d3c
00000230: f2ea 17be ebc9 04be 7bfd f43d 018e 22bd
00000240: b812 8fbc 4942 e13c 0480 8b3c 6b83 64bc
00000250: d3dd 02bc 17ad 7f3d 26ed ac3c 3ca1 aabd
00000260: ea2d 4b3e c98b f7bc ee8c 9ebd 8146 243e
00000270: f1be af3d c292 cc3d 0df5 f43c 3a38 183c
00000280: 1c29 bfba be7c 8dbd a3d6 9f3d 683f ce3c
00000290: c7b6 30bd 1bab 31bc ee11 32be 5a1b 9ebd
000002a0: 3a0d 1ebd 43fe 3bbd 819a 03bd d0df c7bd
000002b0: 2b80 603d ddcf f3bc 0c3c 19be 69fc 093e
000002c0: 3708 1abd 3297 4fbd 3055 c6bc 6700 8b3d
000002d0: e507 103e a679 30bd 69bb 5b3c 9d2a 01bd
000002e0: 86c4 803d 6034 b33d 1b49 723d 51fb 143c
000002f0: 493d 7a3d 36e9 0bbd 335d 28be 36a7 e6bd
00000300: 0f63 f73c c059 15bc 4365 c63d a8c0 ddbd
00000310: 8579 70bd 971b a73d ff77 15bd 66bb 7e3c
00000320: 3528 e73c 49b1 be3c e322 033d d4ab 043d
00000330: b8e3 1dbe 9ec8 58bd 42b9 0ebd 3e98 c6bd
00000340: 60f2 5bbd 994b ae3c 9c25 35be e394 dbbb
00000350: e819 033d 33d0 e8bd d026 773d 42b7 f9bc
00000360: da7f 3e3e 6e8f 183e baa5 0ebd ed00 21be
00000370: b74a 9cbd 1ece 39be 6797 eb3c a748 0e3d
00000380: 2b84 25bd cd4a 743b e213 833d 5e92 493d
00000390: 7779 b3bd 0648 bc3d ad1c f0bd 91fb 703c
000003a0: f6b4 40be 12bd d33d 8990 8a3d 25fb 26be
000003b0: 11bc a0bc 200e 3c3e 44dd 2c3d 1a5b 57bc
000003c0: 9877 60bd 9bdb f3bd a814 543c 5381 3c3b
000003d0: 00ae ea3d 75a2 14bd dfe6 40be 4411 443e
000003e0: 4380 8fbd fb5c 853c 1faf bebd 0901 473d
000003f0: f702 173d e22a abbd c744 94bd d5fc 00be

a2c_network.actor_mlp.2.bias f4 [128]
-0.022003558 -0.122574136 -0.062853426 0.19636321 -0.10803247 -0.013630904 -0.056114152 -0.042073105
0.039641373 -0.085580595 0.034414243 -0.049199767 -0.094243735 -0.13009652 0.09790582 -0.15626356
0.06553624 0.023289863 -0.21833296 -0.07909392 -0.087629974 -0.13127631 0.08612171 -0.043945525
-0.11538348 -0.02541316 0.037949868 0.105597 0.017803498 -0.14181237 -0.031810317 -0.013810935
-0.062060717 0.008843168 0.0018105153 0.026371809 0.074284986 -0.08068819 0.027493535 0.03533893
0.053840514 -0.050349426 -0.10325858 -0.11985153 -0.009546965 -0.08508462 0.058407977 -0.11257412
0.0066614226 -0.062538125 -0.009213005 -0.013909182 -0.101391576 0.09365839 -0.03804835 -0.043719478
0.053143788 0.12625758 -0.04319963 -0.0027269584 -0.1895803 0.0007720317 0.057457536 -0.11012577
-0.11619114 -0.020324102 -0.0829145 0.02271169 -0.18852885 -0.025323316 -0.015956718 0.07232881
-0.081703395 0.034780525 -0.06728589 -0.031296376 0.06072566 0.010740474 -0.005853852 0.041136187
-0.015122155 0.039003517 -0.040018734 -0.2219957 0.0073353886 -0.045790832 -0.058788262 0.07849303
-0.10993071 -0.031053176 -0.09167934 -0.10871156 -0.0026489906 0.095199116 -0.07253645 -0.029872974
0.0044147465 0.006569205 -0.019316649 -0.1364234 0.00043285827 -0.109442785 -0.01944357 -0.09276798
-0.021224532 -0.02332702 0.040078018 -0.03153384 -0.068720095 -0.10085067 -0.034058727 -0.021884527
-0.031700753 -0.12352783 0.036884908 0.06885409 -0.042734344 -0.079488456 -0.13388695 0.03218173
-0.0034131624 -0.13270979 -0.055521652 -0.04833618 0.00085081364 0.10641151 0.038486503 0.08471464
00000000: ce40 b4bc 2608 fbbd 4cb9 80bd 7013 493e
00000010: 2140 ddbd 2854 5fbc f4d7 65bd d954 2cbd
00000020: fe5e 223d e144 afbd f3f5 0c3d b285 49bd
00000030: dc02 c1bd 0638 05be d982 c83d 8e03 20be
00000040: dd37 863d 62ca be3c ad92 5fbe fefb a1bd
00000050: 5877 b3bd 4c6d 06be 9460 b03d 3900 34bd
00000060: 2d4e ecbd 422f d0bc 5271 1b3d 3d43 d83d
00000070: a4d8 913c 4337 11be 894b 02bd 4347 62bc
00000080: 6133 7ebd efe2 103c d04e ed3a b109 d83c
00000090: ba22 983d da3f a5bd 1f3a e13c 8ebf 103d
000000a0: df87 5c3d 333b 4ebd 3c79 d3bd b874 f5bd
000000b0: e06a 1cbc d840 aebd 343d 6f3d 438d e6bd
000000c0: 1048 da3b fd13 80bd 25f2 16bc 56e3 63bc
000000d0: 63a6 cfbd f8cf bf3d 96d8 1bbd 3213 33bd
000000e0: 4dad 593d ab49 013e 18f2 30bd c5b6 32bb
000000f0: 5721 42be 2c62 4a3a 9858 6b3d 9f89 e1bd
00000100: 9ff5 edbd bb7e a6bc 14cf a9bd de0d ba3c
00000110: b50d 41be d872 cfbc aab7 82bc 2121 943d
00000120: 1c54 a7bd 0676 0e3d 2fcd 89bd a130 00bd
00000130: 78bb 783d d0f8 2f3c abd1 bfbb 6b7e 283d
00000140: eac2 77bc 27c2 1f3d afea 23bd d752 63be
00000150: b35d f03b 2b8f 3bbd f6cb 70bd f4c0 a03d
00000160: 5a23 e1bd 3b63 febc 61c2 bbbd 2ba4 debd
00000170: b09a 2dbb c1f7 c23d fe8d 94bd 2bb8 f4bc
00000180: 94a9 903b 7c42 d73b f33d 9ebc 93b2 0bbe
00000190: 41f1 e239 8a23 e0bd 1f48 9fbc 24fd bdbd
000001a0: 12df adbc 4f18 bfbc d928 243d a129 01bd
000001b0: 1fbd 8cbd cc8a cebd 2a81 0bbd 2e47 b3bc
000001c0: a6d8 01bd 29fc fcbd a114 173d 6003 8d3d
000001d0: 350a 2fbd d8ca a2bd a919 09be fdd0 033d
000001e0: 5daf 5fbb 13e5 07be ac6a 63bd 29fc 45bd
000001f0: 2309 5f3a 47ee d93d 06a4 1d3d df7e ad3d

a2c_network.actor_mlp.4.weight f4 [64, 128]
-0.029360814 -0.0851777 0.06665492 -0.18992144 -0.0635454 0.051383164 0.091368824 -0.010810876
-0.13106254 0.086163126 0.007741718 -0.0030942787 0.05471198 0.030936724 -0.07570778 -0.03202547
0.06135364 -0.04868415 -0.10648629 -0.02572625 -0.032208942 -0.016428392 -0.096009694 -0.11083593
0.09169772 0.018552365 0.1083917 0.033469927 -0.030875962 0.14920686 -0.020558566 -0.15864155
-0.019005515 -0.08353568 -0.020460539 -0.18096815 -0.059854753 -0.13191405 -0.050748497 -0.15857759
-0.13312875 -0.032393575 0.078768015 -0.024945468 -0.14262392 -0.043178476 -0.18531945 -0.09289109
-0.040054403 -0.05678392 0.051831793 -0.18339479 -0.025478734 -0.05296127 0.05408732 0.027505038
0.02184748 0.01689775 -0.09902034 0.008381753 0.010278087 -0.09896766 -0.1584921 0.0017442746
-0.05993378 -0.06298806 0.1746006 0.10546449 -0.029781196 0.0022652533 -0.08146747 -0.13837834
-0.08959575 -0.0051328186 -0.03157966 -0.08523907 0.01726325 -0.13331896 -0.0019894708 -0.121943034
-0.022901457 0.114376746 -0.09839209 0.056709893 -0.06307828 -0.060476676 -0.10873391 -0.0484724
0.072464086 -0.0072676567 -0.010683738 0.07264608 -0.095805906 -0.059851173 -0.09896113 0.034441445
-0.03197553 -0.04704141 -0.019049572 0.03673135 -0.1011409 0.0050016856 -0.0174644 0.09513361
-0.0084550185 0.023000313 -0.049376875 0.005298421 -0.07707549 0.072311774 0.00685931 -0.025739916
-0.059819054 0.034849323 0.021395545 0.087740384 0.06785187 -0.0014453818 -0.14381184 -0.031744845
-0.03778393 0.08176019 0.02158127 0.016962416 -0.03529856 -0.026079176 -0.16986135 -0.094736665
0.0065731416 -0.04139434 0.016897418 -0.06368455 0.06849922 0.029122245 -0.086006805 -0.038998444
-0.030183453 -0.06361051 0.030799057 0.0061275475 -0.15169536 0.15434246 -0.02885903 0.008117725
0.010579919 -0.12609626 -0.1582552 -0.0806431 -0.039435852 0.17692433 -0.110068694 -0.029180307
-0.040118624 -0.07688553 0.024734193 -0.17418662 -0.03986226 -0.009409069 -0.1224799 -0.09243944
0.019488713 0.024968922 -0.052958593 -0.100278534 0.11714858 -0.058071468 -0.011137356 -0.0049420763
0.013371992 -0.011337611 -0.0278431 -0.06946189 -0.101376764 0.032521162 -0.12638436 0.03203746
-0.06717042 -0.013737867 0.025537888 -0.0379281 -0.008069592 0.061573602 0.072586484 -0.09499663
0.03307579 -0.16447416 0.028429898 -0.030585364 0.17827182 -0.011385748 -0.14529525 0.085463315
0.033268027 -0.0014819183 0.16159669 0.089939654 0.07890186 0.07948072 0.098483436 -0.033474326
0.028288255 0.026926653 -0.024678476 0.056899544 0.027606463 -0.05398401 -0.017266413 -0.10309819
0.1330367 -0.066119656 -0.13372469 0.027511088 -0.08573646 -0.025295224 -0.07250541 -0.15449661
-0.027718319 -0.0133829 -0.08140402 0.15402305 -0.1284939 -0.101024486 0.12135237 0.06189644
0.05982197 -0.0862506 -0.07839215 -0.053523857 -0.066270344 0.10753678 0.047334913 0.017640663
0.024673963 -0.021086363 -0.14495784 -0.08476725 -0.14321357 -0.040829565 -0.035336953 -0.0903906
-0.0069638873 -0.034191042 -0.048996594 -0.067551315 -0.046933938 0.01668826 0.03788457 0.0522747
0.058330506 0.0101041645 0.011205789 -0.06972692 0.05859013 0.021650644 0.0785652 -0.15769877
00000000: 1786 f0bc a571 aebd 6082 883d c47a 42be
00000010: 1724 82bd 2777 523d 941f bb3d 1a20 31bc
00000020: 4235 06be 4b76 b03d 3dae fd3b 62c9 4abb
00000030: ab19 603d 036f fd3c ae0c 9bbd 242d 03bd
00000040: f44d 7b3d 0869 47bd 7c15 dabd dbbf d2bc
00000050: 86ed 03bd d694 86bc bba0 c4bd f3fd e2bd
00000060: 04cc bb3d 21fb 973c 78fc dd3d c317 093d
00000070: 96ef fcbc afc9 183e 706a a8bc ee72 22be
00000080: 74b1 9bbc c114 abbd dc9c a7bc b74f 39be
00000090: 422a 75bd 7a14 07be a8dd 4fbd 2a62 22be
000000a0: e752 08be 20af 04bd 2051 a13d 705a ccbc
000000b0: 010c 12be eadb 30bd 62c4 3dbe af3d bebd
000000c0: 1610 24bd 4196 68bd 934d 543d d8cb 3bbe
000000d0: c7b8 d0bc ebed 58bd aa8a 5d3d 3f52 e13c
000000e0: 7df9 b23c 266d 8a3c 2dcb cabd 9f53 093c
000000f0: 6c65 283c 8eaf cabd c14b 22be 25a0 e43a
00000100: 207d 75bd e2ff 80bd 80ca 323e c4fd d73d
00000110: b2f7 f3bc a574 143b 6bd8 a6bd 0db3 0dbe
00000120: fa7d b7bd 3431 a8bb ac59 01bd d291 aebd
00000130: a96b 8d3c c484 08be c861 02bb 45bd f9bd
00000140: d69b bbbc 5b3e ea3d cb81 c9bd a248 683d
00000150: 2f2f 81bd 64b6 77bd e2af debd ff8a 46bd
00000160: 0d68 943d 8625 eebb d80a 2fbc 78c7 943d
00000170: e335 c4bd 8126 75bd 22ac cabd 7912 0d3d
00000180: c6f8 02bd 7eae 40bd d90d 9cbc 9d73 163d
00000190: f622 cfbd 2ee5 a33b 8011 8fbc 69d5 c23d
000001a0: eb86 0abc 276b bc3c 683f 4abd 609e ad3b
000001b0: c1d9 9dbd 3218 943d 10c4 e03b 84dc d2bc
000001c0: d304 75bd 2abe 0e3d b645 af3c 3bb1 b33d
000001d0: ecf5 8a3d f772 bdba 6943 13be e206 02bd
000001e0: 52c3 1abd e371 a73d 34cb b03c c4f4 8a3c
000001f0: 3995 10bd ffa3 d5bc 22f0 2dbe 4c05 c2bd
00000200: 8263 d73b 1d8d 29bd 746c 8a3c 0c6d 82bd
00000210: 5249 8c3d c691 ee3c 5624 b0bd d5bc 1fbd
00000220: 4a43 f7bc 3a46 82bd 4e4e fc3c 98c9 c83b
00000230: 0756 1bbe f30b 1e3e c669 ecbc 3500 053c
00000240: 6657 2d3c 611f 01be a70d 22be 3628 a5bd
00000250: 7d87 21bd a72b 353e b26b e1bd 8a0b efbc
00000260: 6d53 24bd 2976 9dbd 5d9f ca3c fa5d 32be
00000270: 9c46 23bd 7f28 1abc bed6 fabd e450 bdbd
00000280: cba6 9f3c a08b cc3c 1ceb 58bd d55e cdbd
00000290: 98eb ef3d 59dc 6dbd 7579 36bc 24f1 a1bb
000002a0: 3316 5b3c 63c1 39bc 3617 e4bc 0942 8ebd
000002b0: 9f9e cfbd e934 053d e76a 01be b639 033d
000002c0: a590 89bd ca14 61bc d534 d13c 7f5a 1bbd
000002d0: 5236 04bc 9a34 7c3d 39a8 943d 988d c2bd
000002e0: 7b7a 073d ea6b 28be d1e5 e83c 288e fabc
000002f0: e38c 363e 4a8b 3abc 47c8 14be 6407 af3d
00000300: 0e44 083d ed3c c2ba 9a79 253e 4832 b83d
00000310: 4c97 a13d cac6 a23d afb1 c93d 601c 09bd
00000320: c5bc e73c 4995 dc3c 842a cabc 7f0f 693d
00000330: f326 e23c 561e 5dbd 4b72 8dbc 2525 d3bd
00000340: c63a 083e be69 87bd 20ef 08be ef5e e13c
00000350: 9996 afbd ee37 cfbc b77d 94bd 5c34 1ebe
00000360: 8711 e3bc f343 5bbc 27b7 a6bd 38b8 1d3e
00000370: e893 03be ede5 cebd 9787 f83d 1f87 7d3d
00000380: e207 753d 28a4 b0bd 108c a0bd d53b 5bbd
00000390: bfb8 87bd 3e3c dc3d 41e2 413d 2783 903c
000003a0: 0d21 ca3c 4fbd acbc d46f 14be 749a adbd
000003b0: 94a6 12be e73c 27bd 7bbd 10bd b51e b9bd
000003c0: 5231 e4bb e80b 0cbd a7b0 48bd 5858 8abd
000003d0: cd3d 40bd d1b5 883c da2c 1b3d ff1d 563d
000003e0: f8eb 6e3d f08b 253c 7c98 373c fdcc 8ebd
000003f0: 34fc 6f3d b15c b13c cbe6 a03d c97b 21be

a2c_network.actor_mlp.4.bias f4 [64]
-0.08796107 -0.07752706 -0.097587556 0.030348128 -0.17646666 0.01803156 0.02295679 -0.09219648
-0.019961763 0.028412782 -0.028359562 0.032312147 -0.05915486 0.004244366 -0.118304886 -0.051013835
-0.054195102 -0.120195314 -0.19704798 0.019106502 -0.14634958 -0.054509744 -0.03615445 -0.076629706
0.015590259 0.027956208 0.0146737425 0.062175926 0.019144295 0.009231045 -0.15584761 -0.18341513
-0.07190878 0.021470662 -0.08213615 -0.04853106 -0.11484136 0.07816145 0.07833812 0.044805627
-0.09421168 0.05697982 -0.017547287 -0.001545876 -0.07250509 -0.08508935 -0.06412484 -0.06717321
0.039388187 0.020400038 -0.026117258 0.018132336 0.036852214 -0.22257948 -0.09858708 -0.0817624
0.030832456 -0.09315439 -0.038874082 -0.103008844 -0.0462881 0.09138974 0.085236505 -0.093188584
00000000: ef24 b4bd 82c6 9ebd fcdb c7bd a39c f83c
00000010: adb3 34be ecb6 933c e10f bc3c 82d1 bcbd
00000020: da86 a3bc ecc1 e83c 5052 e8bc be59 043d
00000030: 5e4c 72bd 5314 8b3b d549 f2bd e2f3 50bd
00000040: affb 5dbd f628 f6bd f2c6 49be 3d85 9c3c
00000050: aadc 15be 9c45 5fbd b016 14bd 09f0 9cbd
00000060: 496e 7f3c 6b04 e53c 236a 703c 2fac 7e3d
00000070: 7fd4 9c3c cf3d 173c 8496 1fbe 2dd1 3bbe
00000080: e944 93bd 3ee3 af3c ff36 a8bd 81c8 46bd
00000090: f231 ebbd 1c13 a03d bc6f a03d 1b86 373d
000000a0: 0ef2 c0bd ac63 693d 54bf 8fbc fe9e caba
000000b0: 8c7d 94bd 5343 aebd e253 83bd 1c92 89bd
000000c0: 8255 213d fb1d a73c dcf3 d5bc 448a 943c
000000d0: 59f2 163d e0eb 63be 06e8 c9bd 0c73 a7bd
000000e0: 5994 fc3c bbc7 bebd 6e3a 1fbd 4df6 d2bd
000000f0: 9798 3dbd 8b2a bb3d 7a90 ae3d a8d9 bebd

a2c_network.value.weight f4 [1, 64]
0.012617323 0.0593813 -0.08960701 -0.032817006 0.05979109 0.121532775 -0.00030522884 -0.111988336
0.08066023 0.103646114 0.0062868097 0.0093638105 0.12211069 -0.052386247 -0.056514103 -0.03810215
0.05387964 -0.01446523 -0.02602396 0.054276034 -0.048893157 0.07323695 -0.10047818 0.12185685
-0.043536216 0.06925824 0.090697475 0.0026502982 0.07120806 0.061518576 0.07464595 0.07253619
-0.06605847 -0.032066032 0.08938044 -0.011909174 -0.0030695512 0.0063098506 0.141594 0.10496846
0.047640283 0.112459674 -0.09597902 0.06262747 -0.028348818 -0.09936196 -0.073972635 -0.016784923
0.014138255 0.0043458985 0.09803644 -0.036370102 0.047858804 -0.027744759 0.051545408 -0.08611514
-0.020721024 0.02167476 0.00041668498 -0.11526713 0.03402726 -0.011590013 0.015787952 -0.0936524
00000000: e3b8 4e3c ce39 733d e183 b7bd 206b 06bd
00000010: 81e7 743d 2de6 f83d 1f07 a0b9 245a e5bd
00000020: 3131 a53d 6a44 d43d 9501 ce3b ab6a 193c
00000030: 2b15 fa3d f692 56bd 557b 67bd 0011 1cbd
00000040: e6b0 5c3d 92ff 6cbc 3330 d5bc 8c50 5e3d
00000050: 3144 48bd 41fd 953d 81c7 cdbd 1690 f93d
00000060: 0853 32bd 44d7 8d3d 99bf b93d a0b0 2d3b
00000070: 88d5 913d e7fa 7b3d fadf 983d db8d 943d
00000080: aa49 87bd ac57 03bd 180d b73d b21e 43bc
00000090: 862a 49bb ddc2 ce3b 04fe 103e b4f9 d63d
000000a0: 7522 433d 4251 e63d a690 c4bd d542 803d
000000b0: c83b e8bc 497e cbbd f77e 97bd 8980 89bc
000000c0: 24a4 673c 0a68 8e3b 54c7 c83d d1f8 14bd
000000d0: 9807 443d fa48 e3bc 4721 533d 225d b0bd
000000e0: 23bf a9bc 448f b13c 8376 da39 2c11 ecbd
000000f0: 2b60 0b3d 0ae4 3dbc bc55 813c d4cc bfbd

a2c_network.mu.weight f4 [6, 64]
0.0013088176 -0.024949733 0.030262697 -0.072485626 -0.03920394 0.006246704 0.053597767 0.03956614
-0.08030858 -0.08775938 -0.041225936 0.07093358 -0.10806156 0.027447354 0.06731939 0.038680106
0.11795187 -0.0021424363 0.07489475 0.115865424 0.115500025 0.03150445 -0.08203353 0.022491597
-0.059708565 -0.1141651 0.13184242 -0.14196739 -0.019448293 -0.023912948 -0.06412638 0.15563613
0.027415717 -0.06137388 -0.014866092 -0.067767866 -0.033907074 -0.11006033 -0.08307329 -0.18069257
-0.006500198 -0.18233931 0.017511107 -0.01936275 0.21299222 0.04819387 -0.04546644 0.078030676
-0.046410907 0.02744769 -0.09330684 -0.012696255 0.008172487 0.041782577 0.030625995 0.0069774245
-0.12470536 0.041580256 0.12504458 0.070164084 0.08238371 -0.1019927 -0.10622845 0.18266052
-0.12593587 0.0002560843 -0.036630195 0.005309286 -0.13820922 0.078324646 0.003248392 -0.106518716
-0.07244065 0.15638237 -0.06008273 0.03309411 -0.059472576 0.017821949 0.021585103 -0.060569495
0.033359777 -0.13284454 -0.084762484 0.097143985 -0.19230287 0.029659634 -0.004439226 0.031110682
0.10097503 -0.00032523856 0.012339853 0.004123314 -0.032309625 -0.024216535 -0.13837805 -0.10910587
-0.12688723 0.05326466 -0.037648655 -0.05974499 -0.0897452 0.015190346 -0.02127519 0.011350093
0.01859914 0.06901039 -0.04334727 -0.044231545 0.08028488 -0.047387198 -0.043205902 0.04207371
0.035808813 0.06810693 -0.072679415 0.1159698 -0.059249565 -0.114831455 -0.17235897 -0.110253304
-0.0016212153 -0.022860926 0.09474504 0.0013848965 0.0083430465 0.017070761 0.04921828 -0.087924026
-0.11435417 0.016462918 -0.054569416 0.101673014 -0.04218667 0.14731155 0.12529345 0.07520347
0.11100061 -0.018529817 0.02680208 0.023640921 0.0034957703 -0.028200055 0.09469898 0.00746224
0.1276052 0.06744446 -0.032390594 -0.0032504678 -0.04666706 -0.06800844 -0.08804632 0.040822204
-0.003300405 -0.067915015 -0.08718513 -0.030999603 0.025514262 0.06592183 0.05689198 0.05910034
0.10041316 0.015900262 0.070016325 0.0049053826 -0.050177682 -0.013901287 -0.019648308 0.06559551
0.08308517 -0.040635422 0.0043978114 0.08397039 0.11701721 -0.115082204 -0.015351108 0.07707995
-0.012255593 -0.07723919 0.073017366 0.117523365 -0.001493337 -0.10185761 -0.10551879 -0.0018997046
0.040323466 0.03983029 0.116765656 -0.07269038 -0.14495718 0.07987137 -0.030693116 0.014578142
0.030165108 -0.11343241 -0.014022838 0.06677465 -0.0008178371 0.073462844 0.0465188 0.05604303
0.049268287 0.029515276 -0.019559193 0.071061924 -0.056140505 -0.07329088 -0.03451821 -0.035808533
-0.1143989 0.0137304915 -0.1639099 0.07708747 -0.12183948 -0.019783659 -0.017118236 0.09971248
0.068291925 0.06850272 -0.039995644 0.09574274 0.095994785 0.10929583 0.012577592 -0.071707085
-0.05275915 -0.01660033 -0.01733949 0.07528389 -0.09477423 -0.06723439 0.06031573 0.004493393
-0.016742604 0.058859296 0.06450909 0.09869626 -0.0520048 0.02397402 -0.042349868 -0.18290706
0.064233996 -0.0889416 0.054470878 0.073200345 0.022647938 -0.11460959 0.037264086 -0.070227064
-0.038601544 0.060624283 -0.056750312 -0.13074794 0.037375595 0.06889945 -0.017411392 -0.00044904117
00000000: a28c ab3a 6263 ccbc 7ae9 f73c 5873 94bd
00000010: 5094 20bd 27b1 cc3b 5589 5b3d 1b10 223d
00000020: d378 a4bd 31bb b3bd 87dc 28bd a045 913d
00000030: 614f ddbd 46d9 e03c c0de 893d 086f 1e3d
00000040: c090 f13d 1e68 0cbb 6b62 993d da4a ed3d
00000050: 478b ec3d cf0a 013d 3201 a8bd 4c40 b83c
00000060: f890 74bd 64cf e9bd b301 073e e65f 11be
00000070: 0752 9fbc 16e5 c3bc b154 83bd 145f 1f3e
00000080: ed96 e03c 2d63 7bbd e990 73bc e1c9 8abd
00000090: 25e2 0abd 4f67 e1bd 5422 aabd 7907 39be
000000a0: 9dff d4bb 28b7 3abe 7473 8f3c a19e 9ebc
000000b0: a21a 5a3e ef66 453d 053b 3abd 8cce 9f3d
000000c0: 5d19 3ebd fad9 e03c a817 bfbd f403 50bc
000000d0: e5e5 053c 3524 2b3d 5ee3 fa3c e1a2 e43b
000000e0: 8665 ffbd 0f50 2a3d b00b 003e 30b2 8f3d
000000f0: cab8 a83d 8ce1 d0bd 4d8e d9bd 5c0b 3b3e
00000100: 55f5 00be 0e43 8639 8b09 16bd 85f9 ad3b
00000110: b886 0dbe ac68 a03d f9e2 543b 7c26 dabd
00000120: c35b 94bd b322 203e 4f19 76bd b18d 073d
00000130: 8499 73bd 56ff 913c 3ed3 b03c b817 78bd
00000140: 43a4 083d 6608 08be f497 adbd 6df3 c63d
00000150: 0beb 44be c3f8 f23c ed76 91bb d4db fe3c
00000160: ffcb ce3d c884 aab9 182d 4a3c dd1c 873b
00000170: 1957 04bd c161 c6bc fab2 0dbe e672 dfbd
00000180: baee 01be 0b2c 5a3d 7a35 1abd 2ab7 74bd
00000190: 55cc b7bd eee0 783c 4f49 aebc bef5 393c
000001a0: 395d 983c 5255 8d3d e88c 31bd 232c 35bd
000001b0: 666c a43d 1419 42bd acf8 30bd 7c55 2c3d
000001c0: 43ac 123d a57b 8b3d f2d8 94bd 9381 ed3d
000001d0: acaf 72bd c12c ebbd df7e 30be 7ccc e1bd
000001e0: f57e d4ba d646 bbbc b009 c23d 6a85 b53a
000001f0: 46b1 083c fbd7 8b3c 1b99 493d 8311 b4bd
00000200: 8532 eabd 3edd 863c 2e84 5fbd f139 d03d
00000210: eecb 2cbd d7d8 163e ed4c 003e 4704 9a3d
00000220: 4a54 e33d d8cb 97bc 0990 db3c 9baa c13c
00000230: 4b19 653b cd03 e7bc 8af1 c13d ce85 f43b
00000240: f0aa 023e 5220 8a3d 00ac 04bd cd05 55bb
00000250: f625 3fbd 0248 8bbd a151 b4bd 2f35 273d
00000260: 9c4b 58bb 0717 8bbd 1e8e b2bd e1f2 fdbc
00000270: 4903 d13c 0602 873d 9107 693d 3313 723d
00000280: 6aa5 cd3d 4441 823c b864 8f3d 55bd a03b
00000290: 1d87 4dbd 39c2 63bc 7df5 a0bc f056 863d
000002a0: 8f28 aa3d 5471 26bd 841b 903b abf8 ab3d
000002b0: b8a6 ef3d 38b0 ebbd 3783 7bbc 18dc 9d3d
000002c0: afcb 48bc 952f 9ebd 218a 953d 17b0 f03d
000002d0: 13bc c3ba b99a d0bd 3c1a d8bd 82ff f8ba
000002e0: 382a 253d 1625 233d d522 ef3d b2de 94bd
000002f0: a86f 14be 9a93 a33d 2170 fbbc 29d9 6e3c
00000300: d11c f73c 404f e8bd 0cc0 65bc 26c1 883d
00000310: 1e64 56ba b073 963d 7f8a 3e3d 608d 653d
00000320: 8bcd 493d 05ca f13c 9a3a a0bc ea88 913d
00000330: 96f3 65bd 8719 96bd f762 0dbd f8ab 12bd
00000340: f849 eabd dbf5 603c ffd7 27be 09e0 9d3d
00000350: fa86 f9bd 5711 a2bc 8b3b 8cbc 0f36 cc3d
00000360: a3dc 8b3d 274b 8c3d 79d2 23bd c514 c43d
00000370: ea98 c43d 7ed6 df3d 3f12 4e3c 2adb 92bd
00000380: fa19 58bd 6afd 87bc 8c0b 8ebc 712e 9a3d
00000390: fe18 c2bd 2fb2 89bd a00d 773d 503d 933b
000003a0: c927 89bc 7216 713d 571d 843d 4421 ca3d
000003b0: fc02 55bd 2a65 c43c 0e77 2dbd fd4b 3bbe
000003c0: 1d8d 833d 0327 b6bd db1c 5f3d 10ea 953d
000003d0: 2b88 b93c 6fb8 eabd 3aa2 183d 35d3 8fbd
000003e0: a71c 1ebd 2b51 783d 0473 68bd cae2 05be
000003f0: 2717 193d 281b 8d3d 56a2 8ebc 496d ebb9

a2c_network.mu.bias f4 [6]
-0.099928886 0.13803282 0.054836202 0.098583184 0.13416249 0.035140883
00000000: 84a7 ccbd 7a58 0d3e ed9b 603d fbe5 c93d
00000010: e461 093e e3ef 0f3d

exp_avg f4 [6]
0.0027696192 0.00047419115 0.011342571 -0.0015428651 0.006734262 0.008274612
00000000: 8082 353b dc9c f839 31d6 393c f639 caba
00000010: 16ab dc3b 3d92 073c

exp_avg_sq f4 [6]
0.00035712525 0.00036056255 0.00039163197 0.0004166212 0.00035229378 0.0003253044
00000000: 8a3c bb39 e309 bd39 f453 cd39 f36d da39
00000010: 12b4 b839 9e8d aa39

exp_avg f4 [256, 30]
-0.0005619308 0.000119118034 0.0004197364 0.0005362839 -0.00072458107 -0.00014252643 0.0002699395 0.0006268509
0.0008399189 -0.00039675136 -0.00061690033 0.00196151 0.0011234775 -0.00013701117 -0.0009572157 -0.0011552091
-0.00023823962 -0.0007585136 0.00069356535 0.0008267878 0.00042079683 -0.00044355346 0.0001063147 0.00050542905
0.0012849342 0.00022001575 -0.00065403944 -0.0011063743 -0.00026808967 -0.0007241441 -0.0015244011 -0.00038372105
0.0005839334 0.00084325316 0.00035634215 0.0006120509 -0.00040525588 0.00019681621 0.0008604153 -4.9383754e-05
-0.0008297006 0.001031961 0.00089092314 1.27552485e-05 -0.00034092474 -0.00092417444 -0.00035574156 -0.00013243801
0.000769681 9.050412e-05 0.001343351 -0.0018464922 0.00015092663 0.001423939 0.0011124333 0.00010483639
0.0003825151 -0.0014857042 -0.00020703797 0.00028244694 -0.00058752415 -1.678412e-05 0.00030892686 0.00019971987
0.00033531655 4.5488472e-05 0.00013892993 -0.00026067128 0.0010823237 -0.00011961676 -3.1216114e-05 0.0012225232
0.0010105949 -0.00013257943 -0.0001859252 -0.0011881392 -0.00029448688 -0.0005308212 0.00062605407 0.00010834893
0.0011923435 -0.0010535755 5.3821645e-05 0.00076153874 0.0011034039 7.3928044e-05 0.00038702885 -0.0011598379
-9.129868e-05 -0.00014257313 -0.0005797634 0.00036461963 -0.00025051503 0.00018242006 -0.00022616702 -0.00012473347
0.00077262195 -4.59312e-05 6.563413e-05 -0.0006009963 0.00031835903 0.0011592889 7.0959875e-05 0.00032674862
0.00058783987 -0.00018793222 0.0005406298 0.0006417399 0.00019324898 0.00036880083 0.0006048944 -0.00043583635
0.00015735619 0.00035694492 5.607894e-05 0.00042561808 0.0007109305 -0.00026058353 0.00041159426 0.0006824071
-0.0006546602 2.948803e-05 0.0007230576 0.0003148457 0.00025469673 -9.412297e-05 -0.00044554067 0.0006018549
0.00036142138 -0.00015802146 -0.0003601894 0.0004659731 0.0002913797 -0.0005304976 -0.00039977283 -0.00036677555
-0.0004940908 -0.00014057902 0.00050544995 -1.1026936e-05 0.0001518267 -0.00043838588 -0.00034755675 9.354688e-05
0.0004085803 -0.00046062298 -0.00024736678 -0.00044870583 -0.0006694057 -0.00016444958 0.00016207997 -0.00019748493
-0.00044564897 -0.000100161094 0.00026693498 4.1996303e-05 6.490107e-05 -0.00024944707 0.00012637969 -7.7900884e-05
9.2470465e-05 2.9053572e-05 0.00026592953 -0.00022725885 -0.00061709253 -0.000259685 -0.00022341577 -0.00053703383
-0.000383506 0.00046520005 -0.0007921527 0.000254513 0.0006644323 6.684144e-05 9.124134e-05 0.00015617792
-0.0005436817 -0.0001618454 0.0003099336 -0.00023237636 0.00024197227 -9.1423455e-05 -0.00042946625 -0.00051014806
-0.00035069647 -0.0002986315 0.00027703587 2.3580855e-05 -0.0004465553 -0.0008032594 0.00052239135 -0.00091158925
-0.0006214435 0.00028399754 0.00051919336 0.0008451141 0.0005641171 3.469938e-06 -0.00088672194 -0.0003806236
-0.00027924584 0.001453934 0.0004412844 -0.00118822 -0.0008449435 6.425968e-05 0.00045484732 0.001252908
0.00066819123 -0.00021477845 -0.0007409935 -0.00020587555 4.5269047e-08 0.00056798983 -0.00033229621 0.0001310399
-4.232555e-05 0.00033016744 5.957908e-05 -0.00025142106 -0.00035337984 0.0007449565 0.00035567125 0.0001333739
-0.0004475657 -0.00039810498 -1.3977786e-05 4.9067705e-05 0.00013711074 0.0006858152 0.0005527547 -0.00048425992
0.00055393676 0.0009785161 0.00041421998 0.000531407 -0.00015152073 -0.0006526084 0.00023032365 0.00022260437
-0.0006341169 5.673311e-05 0.00093825615 0.0005113213 0.00080680486 0.00041701875 -0.001254024 0.0004470105
0.00075812987 0.0001979671 -0.001187948 0.0013992289 0.00085975317 -0.0011258081 -0.0008123746 -0.0007878583
00000000: 8a4e 13ba 02cf f938 1110 dc39 6795 0c3a
00000010: d0f1 3dba 2673 15b9 ab86 8d39 4053 243a
00000020: 012e 5c3a 1103 d0b9 7bb7 21ba ad8c 003b
00000030: a641 933a a8aa 0fb9 a9ed 7aba 636a 97ba
00000040: f6cf 79b9 fcd6 46ba 62d0 353a cabc 583a
00000050: 659e dc39 bd8c e8b9 45f5 de38 c57e 043a
00000060: 3d6b a83a 07b4 6639 d873 2bba c303 91ba
00000070: 638e 8cb9 7dd4 3dba 6ace c7ba 2b2e c9b9
00000080: 1b13 193a c30d 5d3a 6fd3 ba39 0a72 203a
00000090: 8678 d4b9 7360 4e39 7e8d 613a 6721 4fb8
000000a0: 4480 59ba dd42 873a d78c 693a 60ff 5537
000000b0: 25be b2b9 4c44 72ba d382 bab9 0fdf 0ab9
000000c0: 6bc4 493a 08cd bd38 6113 b03a ff05 f2ba
000000d0: 0f42 1e39 77a3 ba3a 11cf 913a 9cdb db38
000000e0: 4f8c c839 f6bb c2ba 5518 59b9 6315 9439
000000f0: 1404 1aba a0cb 8cb7 76f7 a139 e56b 5139
00000100: 6dcd af39 e0ca 3e38 b8ad 1139 b5aa 88b9
00000110: c2dc 8d3a c2da fab8 0cee 02b8 123d a03a
00000120: f075 843a 0505 0bb9 eaf4 42b9 56bb 9bba
00000130: 5c65 9ab9 cf26 0bba c71d 243a 6439 e338
00000140: 6948 9c3a 2118 8aba 8dbe 6138 00a2 473a
00000150: 17a0 903a d109 9b38 22ea ca39 b405 98ba
00000160: 9b77 bfb8 af7f 15b9 43fb 17ba 6b2a bf39
00000170: 8f57 83b9 0348 3f39 3f27 6db9 e3ca 02b9
00000180: c889 4a3a 40a6 40b8 0ea5 8938 2e8c 1dba
00000190: 6de9 a639 48f3 973a 4bd0 9438 754f ab39
000001a0: 4419 1a3a ac0f 45b9 0db9 0d3a 703a 283a
000001b0: e1a2 4a39 9c5b c139 c791 1e3a f780 e4b9
000001c0: fbff 2439 5624 bb39 4e36 6b38 7e25 df39
000001d0: bd5d 3a3a ee9e 88b9 3fcb d739 91e3 323a
000001e0: 819d 2bba 105d f737 938b 3d3a e011 a539
000001f0: d188 8539 e263 c5b8 7597 e9b9 ccc5 1d3a
00000200: 287d bd39 90b2 25b9 ced7 bcb9 da4d f439
00000210: 52c4 9839 1711 0bba 9a98 d1b9 c84b c0b9
00000220: df85 01ba 6568 13b9 2c80 043a 5400 39b7
00000230: ab33 1f39 28d7 e5b9 4738 b6b9 992e c438
00000240: b836 d639 c57f f1b9 02b1 81b9 4740 ebb9
00000250: 0e7b 2fba 1970 2cb9 03f4 2939 f513 4fb9
00000260: fea5 e9b9 940d d2b8 68f3 8b39 3025 3038
00000270: 7f1b 8838 38c8 82b9 ca84 0439 b85e a3b8
00000280: b4ec c138 12b8 f337 756c 8b39 554c 6eb9
00000290: 61c4 21ba 5526 88b9 b744 6ab9 bbc7 0cba
000002a0: 4e11 c9b9 18e6 f339 78a8 4fba 2870 8539
000002b0: 4c2d 2e3a 3a2d 8c38 d258 bf38 b1c3 2339
000002c0: dc85 0eba 0bb5 29b9 957e a239 0eaa 73b9
000002d0: f0b9 7d39 98ba bfb8 fc29 e1b9 75bb 05ba
000002e0: afdd b7b9 a491 9cb9 203f 9139 80cf c537
000002f0: a31f eab9 d391 52ba 17f1 083a b8f7 6eba
00000300: 5ee8 22ba 81e5 9439 7a1a 083a a68a 5d3a
00000310: 42e1 133a 15dd 6836 e772 68ba 6f8e c7b9
00000320: be67 92b9 ee91 be3a 315c e739 0cbe 9bba
00000330: 337f 5dba 27c3 8638 9378 ee39 9e38 a43a
00000340: 8e29 2f3a 2736 61b9 3b3f 42ba 4ce0 57b9
00000350: d86d 4233 27e5 143a 0b38 aeb9 c167 0939
00000360: b786 31b8 531a ad39 8de4 7938 2ad1 83b9
00000370: d745 b9b9 2f49 433a 6379 ba39 49da 0b39
00000380: 40a7 eab9 bfb8 d0b9 2282 6ab7 0cce 4d38
00000390: 62c5 0f39 47c8 333a bde6 103a 44e4 fdb9
000003a0: 1136 113a 8d41 803a aa2b d939 1f4e 0b3a
000003b0: 89e1 1eb9 cf13 2bba 0983 7139 e86a 6939
000003c0: dd3a 26ba b7f4 6d38 4ef5 753a 310a 063a
000003d0: c27f 533a 4fa3 da39 105e a4ba bc5c ea39
000003e0: 3cbd 463a 6495 4f39 ecb4 9bba 5566 b73a
000003f0: 0f61 613a da8f 93ba 89f5 54ba 4788 4eba
