IsaacGymEnvs/isaacgymenvs/runs/Bolt_18-17-16-17/nn/last_Bolt_ep_950_rew_0.26437944.pth (torch, 612432 bytes, 36 tensors)

value_mean_std.running_mean f8 [1]
000000 cb 45 09 8a 3d 5b c0 3f
       0.12778443565416206

value_mean_std.running_var f8 [1]
000000 d2 ee 0e cc 61 cc 80 3f
       0.008202327766290738

value_mean_std.count f8 []
000000 00 00 00 00 01 44 36 41
       1459201.0

running_mean_std.running_mean f8 [30]
000000 14 a0 d5 3f 57 04 df 3f 48 9a 34 12 e4 75 c8 3f
       0.48463994249186837 0.19109774483622943
000010 0b 73 61 5d 02 e8 d0 bf fc 14 07 29 e6 0c cd bf
       -0.26416072005467645 -0.2269561481790915
000020 b8 8d f1 f4 52 0b ef 3f ea 06 40 b2 15 e2 af 3f
       0.9701323303274227 0.06227176476387604
000030 96 17 11 37 59 20 9d bf 1a 53 58 23 f7 c2 a6 bf
       -0.028443712221153904 -0.04445621782739391
000040 47 5a 72 ee dd e6 e2 bf f3 c1 32 ec 52 c7 f7 3f
       -0.5906819970285334 1.4861630655760762
000050 bb 33 9a 4b d9 66 e0 3f 71 61 ce 67 a4 9e 99 3f
       0.512554786358684 0.025019234500719138
000060 d1 72 c6 35 b8 ec d0 bf 2a 34 b3 d5 84 d7 ca 3f
       -0.2644482159756026 0.20970211443491965
000070 24 72 0d 6f 03 4c d0 3f 49 d3 02 8c 69 d1 d0 3f
       0.25463949055645885 0.2627815120024946
000080 fb b3 91 52 d6 52 d3 3f 79 24 04 e2 60 2a cd 3f
       0.30193098128694346 0.22785578762003292
000090 49 5b 7d ed 1b ce 94 3f 02 e6 a1 9d ad e0 87 bf
       0.020317493791789407 -0.011659008381900374
0000a0 f8 aa 46 c4 6c a7 98 bf ec 38 24 5e 86 51 89 bf
       -0.024076175193537858 -0.012362527606935868
0000b0 40 bc 17 43 a6 37 74 bf 05 b2 c6 74 24 c0 9b bf
       -0.004935883961919407 -0.027100152614069745
0000c0 53 46 d3 eb db e2 df bf 25 eb 43 1f a6 f5 d9 3f
       -0.4982213786107412 0.40561821988346686
0000d0 0d 68 98 08 be 49 dd 3f 89 76 ac 90 2d 3b e0 3f
       0.4576258739413113 0.5072238755853543
0000e0 00 e7 b0 14 7f b4 e3 3f fc 30 6d 83 a8 3f da 3f
       0.6157832531091287 0.41013539156553214

running_mean_std.running_var f8 [30]
000000 10 6e d6 05 f9 ce e0 3f 3c 39 c0 a3 a9 35 c4 3f
       0.5252652277008014 0.15788765426300155
000010 76 46 04 a4 9e 28 df 3f f5 57 0d 16 f3 cf ec 3f
       0.4868542291379535 0.900384467192224
000020 6c 43 d5 1f 12 0c 0a 40 c9 e1 24 27 13 dd d3 3f
       3.25589394445017 0.3103683359400092
000030 a5 37 0a eb e1 bf c9 3f 3d 6b b4 09 73 68 ae 3f
       0.20116828896101172 0.0593906354281075
000040 55 88 0f 53 52 1f d9 3f 85 1c 62 bc 47 2b b5 3f
       0.3925367175235171 0.08269165372085936
000050 aa d6 03 30 44 9d b5 3f 0b f2 90 32 d5 97 2b 3f
       0.08443094417801925 0.00021051862248268357
000060 69 ca 65 08 90 c2 be 3f da 04 bf 43 de 11 bb 3f
       0.12015629010219588 0.10574139741858649
000070 f2 2d d5 57 af 83 b6 3f a8 c4 d9 97 7c 5c bb 3f
       0.0879468526301748 0.10687998492518835
000080 bb cf 3b 62 39 82 b3 3f 96 57 cf 80 c8 6a be 3f
       0.07620581291467847 0.11881688256047904
000090 e8 48 c0 07 8a 36 b1 3f 2d 39 38 70 76 e9 b6 3f
       0.06723845185505051 0.08949985732781292
0000a0 40 51 31 f1 60 01 b7 3f 1c a7 ee 96 e3 74 b5 3f
       0.08986478699199996 0.08381483492726399
0000b0 5e e7 c0 fc 53 b3 b3 3f 71 ea d5 4e a2 ca b3 3f
       0.07695507927647102 0.07731069969842409
0000c0 ed 5e 34 e5 a6 75 e4 3f a9 9b b3 fc f8 c9 e3 3f
       0.6393618084575486 0.6184048591211325
0000d0 81 a6 a0 35 4e 16 e1 3f a7 48 d2 a0 1a 44 e3 3f
       0.5339728400624183 0.6020634785693532
0000e0 23 08 7b ae de e2 dd 3f dd 40 a0 ba 63 c9 e5 3f
       0.46697203673477555 0.6808336873091566

running_mean_std.count f8 []
000000 00 00 00 00 02 44 26 41
       729601.0

a2c_network.sigma f4 [6]
000000 8c 39 1c bf 6d 4f 78 bf e9 6e 42 bf 37 75 35 bf
       -0.6102531 -0.96996194 -0.75950485 -0.7088198
000010 6d d5 16 bf 03 9f f8 be
       -0.5891941 -0.48558816

a2c_network.actor_mlp.0.weight f4 [256, 30]
000000 29 8f 8c 3e 64 80 86 be a2 19 dd 3d 92 70 fb 3d
       0.27452973 -0.2626983 0.10795905 0.122773305
000010 1a cc 97 3d e2 e7 1f 3e 11 b2 b1 3c 1e 49 7f 3e
       0.07411976 0.156158 0.021691354 0.24930236
000020 de 89 fc 3b af 88 01 be f4 ed 01 3e 29 5f 98 3b
       0.0077068647 -0.12649797 0.12688428 0.004650016
000030 82 df 90 3d b4 27 50 3e 46 cc c6 3d 30 c6 1e bd
       0.07073881 0.20327646 0.09706931 -0.038763225
000040 ac 3b e0 3d 29 6c 08 bd 5c ad d8 3d 64 fa 1f be
       0.109488815 -0.033306275 0.10579941 -0.1562286
000050 24 41 3d be 89 6b a1 bb 5b ed 74 be f9 94 d9 3d
       -0.1848188 -0.0049261493 -0.23918669 0.106241174
000060 53 34 ea ba e6 ab ac 3d 00 92 8e 3d b0 f0 30 3d
       -0.0017868377 0.084312245 0.06961441 0.043198287
000070 3d ec da 3d 74 b8 2a be 09 76 38 3e 52 72 df bd
       0.1068959 -0.16671926 0.18013777 -0.10910477
000080 5f b0 53 3e fd 6f 04 bd 19 09 02 3e 38 c4 81 bc
       0.20672749 -0.032333363 0.12698783 -0.015840635
000090 b7 13 12 3d 3b 79 12 be 7d 11 56 be 64 04 2c be
       0.035663333 -0.14304058 -0.20905109 -0.1679855
0000a0 24 d7 fb 3d 04 eb fb 3d 55 27 1a 3e 82 7a 3a be
       0.12296894 0.12300685 0.15054066 -0.18210796
0000b0 3d ec 47 be c2 a4 b4 bd 4d ce 17 be b0 0c 04 3c
       -0.19523712 -0.088204876 -0.14824791 0.008059666
0000c0 63 bc ae 3d ed 5f ea 3d 73 77 b0 bd 1d 09 2b be
       0.08532026 0.11444078 -0.08616533 -0.16702695
0000d0 25 49 09 3e ce 71 a4 bd f3 4d ba 3d 95 fd f4 bd
       0.13406809 -0.08029519 0.09096899 -0.119624294
0000e0 12 bf 05 3e 63 5d af bd 67 b5 f9 bd 33 9c a2 3b
       0.13061169 -0.08562734 -0.12192803 0.004962468
0000f0 a6 a7 d5 3d 98 28 71 bc 45 15 3f 3e fc ad 57 3e
       0.10432367 -0.014719151 0.18660457 0.21062464
000100 4f 02 e4 bd 85 aa a6 bd f0 27 20 3e e7 84 eb bd
       -0.11133253 -0.08137993 0.15640235 -0.114999585
000110 f2 f7 87 bd a7 cc 16 be 1e d9 ed bd 0a d6 a4 3d
       -0.06639089 -0.14726506 -0.116136774 0.08048637
000120 98 af 10 3d 0a ce 0b be 8d 13 14 bc 2c 59 eb bd
       0.03532371 -0.13652816 -0.009037864 -0.114916176
000130 9e 5f 0b be f8 98 06 be a8 fe 39 bd 1c c9 07 be
       -0.13610694 -0.1314429 -0.045408875 -0.13260311
000140 aa e0 80 3e 48 6f 63 3d b3 1a 09 3e ad 9d 3e be
       0.25171405 0.055526048 0.13389091 -0.18614836
000150 04 da 93 bd d0 8c ac bd a7 4b ae 3d 5c 5b 3a be
       -0.072193176 -0.08425295 0.08510523 -0.18198913
000160 04 eb e4 bb 9b 49 cf bd 71 ca 7f 3b 6c bc 10 3d
       -0.006986024 -0.10121461 0.0039030577 0.035335943
000170 53 5e c8 bd ab d6 6f be a0 87 bc bd ef 8f 3a be
       -0.09783616 -0.23421733 -0.09205556 -0.18218969
000180 90 90 a6 bd 4b 22 01 be c6 a3 46 3e 28 7d ab bd
       -0.08133042 -0.12610738 0.19398412 -0.08373481
000190 21 33 19 3e e8 d8 3c 3d 11 90 25 be 55 35 35 3d
       0.1496091 0.046105295 -0.16168238 0.044240315
0001a0 45 19 4c bd 53 1d 22 bd 68 63 25 be cc 3f 4b be
       -0.049828786 -0.039578747 -0.16151202 -0.19848555
0001b0 c5 ff a7 3c fa c4 10 bd da ab d3 3d e8 b9 27 be
       0.020507703 -0.0353441 0.103355125 -0.16379511
0001c0 1d 6e 5d 3e 46 0e c5 bd 86 78 a4 bc ab 4f 07 bc
       0.21624036 -0.09621863 -0.020077001 -0.00825874
0001d0 c7 b7 e4 3d fa 35 26 3e 74 56 09 3e 7f 89 00 be
       0.11167865 0.16231528 0.13411885 -0.1255245
0001e0 39 b4 30 3e 82 90 c5 3b 6c 4e 11 be a4 b0 19 be
       0.1725625 0.0060291896 -0.14190072 -0.1500879
0001f0 87 ae 84 3e b7 a4 1c be 48 87 0a 3d 19 f1 6a 3d
       0.25914404 -0.15297209 0.03382042 0.057358835
000200 28 a7 e9 3b d7 d3 4f be 02 5f 41 3e 07 8d 27 3d
       0.0071305223 -0.20295654 0.18883899 0.04090598
000210 94 09 b4 3d 64 73 29 be 1d 83 7c 3d 20 de 38 bd
       0.087908894 -0.16547924 0.061648477 -0.04513371
000220 b7 c1 e7 bd 45 0b 1d 3e 96 28 82 3c 14 b1 8a bc
       -0.11316245 0.1533633 0.015888494 -0.01693014
000230 bc 50 63 bd af 5c db bb 63 4f d6 3d c5 f7 eb bc
       -0.055496916 -0.0066943984 0.104643606 -0.02880467
000240 3a c4 92 bd d6 33 20 bd 33 4a e3 bd f9 b9 9f 3d
       -0.071663335 -0.039111935 -0.11098137 0.07799143
000250 b2 03 b3 3d 96 2b 52 be 94 70 e7 3d 84 b0 dd 3d
       0.08740939 -0.20524439 0.113007694 0.10824683
000260 15 08 9f bb ab 8e 6d bc 27 0b e2 3d 13 54 cb 3d
       -0.0048532584 -0.014499347 0.110372834 0.09928145
000270 26 07 f4 3d f0 03 3e bd fc 9d 5d be 35 42 19 bc
       0.11915426 -0.046390474 -0.21642298 -0.009354164
000280 f2 82 78 bd 4d b7 3f bd ab ae 07 3e 59 83 2a 3e
       -0.060671754 -0.04680567 0.13250224 0.16651668
000290 c7 48 fd bc be 6a bd 3c c1 2e 63 3d df b4 67 bc
       -0.030918492 0.023122188 0.05546451 -0.014142244
0002a0 b6 c1 ec 3d 1a 82 00 bd 1f ad 1f be 6a 1a 07 be
       0.11560385 -0.031374075 -0.15593384 -0.1319367
0002b0 e2 af 6b 3d d5 45 82 3d 2b 0e c0 3b 0c f1 09 be
       0.05754078 0.06360976 0.005861064 -0.13470858
0002c0 21 6f ee bd f0 78 c1 bd 19 8f 71 bd fc 4f 93 3d
       -0.1164229 -0.09446895 -0.05897436 0.0719299
0002d0 ff af 2e 3e 95 fc e4 3d ab 14 69 be 60 d1 85 bc
       0.17059325 0.11180989 -0.2276179 -0.01633519
0002e0 d7 b0 a4 bd 16 4f ca 3e 33 ad 97 3d 1b dd 3b be
       -0.08041542 0.39513463 0.07406082 -0.18346064
0002f0 18 31 3d 3e 0a 82 73 3d 49 e2 49 be 22 0f 6a 3d
       0.18475759 0.059450187 -0.19715227 0.057143338
000300 1b 98 e0 bd 17 0e 1c bd 6b db 7b be 65 d3 1d 3e
       -0.10966512 -0.038099375 -0.2459542 0.15412672
000310 aa b7 d2 3d 0d 8d e9 3d e8 46 ff bd 92 f9 4f be
       0.102889374 0.114038564 -0.12464696 -0.20310047
000320 3e 90 24 be 0e 9c 2e bc e5 57 5d 3d 79 3f 05 3e
       -0.16070649 -0.0106573235 0.0540389 0.13012494
000330 a3 1a 55 3d 53 74 0e 3d 94 85 ac bd 57 c6 dd bd
       0.052027356 0.034778904 -0.084239155 -0.10828846
000340 ce ae 2c be fb c8 0f be f9 d7 89 3e e9 69 33 be
       -0.16863558 -0.14041512 0.26922587 -0.1752087
000350 2d aa 6b 3c b7 ea 9b bd 22 c2 c9 3d 55 d7 55 be
       0.014383835 -0.07613128 0.09851481 -0.20882924
000360 81 8f 44 be 3b e8 b3 bc 89 ec 04 be c5 39 0c 3d
       -0.19195367 -0.021961322 -0.12980856 0.03423478
000370 bc 79 94 3d f1 d0 89 bd 24 ec 85 bd 1f e2 92 bd
       0.072497815 -0.067293055 -0.06539181 -0.071720354
000380 d8 7d 8a bd c4 18 3f bd ff 5b 35 3d c5 e7 0b be
       -0.06762284 -0.046654478 0.044277187 -0.13662632
000390 4c f0 ce 3d 85 0a 6c 3d 44 d0 e0 3d ab e8 10 be
       0.10104427 0.05762722 0.109772235 -0.14151256
0003a0 45 ed cd 3d 2d 25 69 bc cc de 85 3d 1e e3 09 3e
       0.10055021 -0.014230055 0.06536636 0.13465545
0003b0 ec 25 9b bc de a6 85 3d bd 3a ed bd 83 04 f9 bd
       -0.018938981 0.06525968 -0.11583469 -0.12159064
0003c0 d4 29 95 3e a6 5b b3 be e6 2a 01 3e db 91 bb 3e
       0.29133475 -0.3503086 0.1261402 0.36634716
0003d0 c1 5e 83 3e a2 a2 b9 bd 76 65 74 be 69 16 b7 3d
       0.2565823 -0.09064223 -0.2386683 0.08939821
0003e0 02 f3 6c 3e d2 79 74 be e1 97 8e 3d d0 c2 c1 bd
       0.23139575 -0.23874596 0.06962562 -0.09460986
0003f0 a5 d8 54 bc 9c 4e 54 bd 33 a2 b7 bc 7d 8a c6 bc
       -0.012991105 -0.05183278 -0.02241621 -0.024235958

a2c_network.actor_mlp.0.bias f4 [256]
000000 1b 28 80 3c de 5c 04 be 99 b7 25 bd ff 4c 43 bd
       0.015644124 -0.12926051 -0.040458295 -0.04768085
000010 7f d7 9d bb e2 f8 da 3c a5 ba a2 3d c2 cd c6 3c
       -0.004816949 0.026730005 0.07945756 0.024268035
000020 81 5b 81 bc 9d af 12 be 43 7d 29 bd 13 fa 4f 3d
       -0.015790703 -0.14324804 -0.041379225 0.0507756
000030 4f 6c bd bd 1c ab 81 3d b0 40 e0 3d fd 7d 46 3d
       -0.09249174 0.06331465 0.10949838 0.048459996
000040 cc 7e b6 bd 9f 6b b5 bd 61 3c 00 3a e6 59 a4 3d
       -0.08910903 -0.08858418 0.00048918097 0.08024959
000050 fd 86 59 bd 16 eb 2b bc 2f ac 2c 3d 64 7b 79 3d
       -0.05310725 -0.010493061 0.042156395 0.06090869
000060 7a 0b 20 3e 67 26 5b bc 46 3b c9 bc bd 8e e1 bb
       0.15629378 -0.013375855 -0.024564397 -0.006883471
000070 1c 7b 1a 3c e2 99 27 3b 59 c4 c1 3c f1 63 91 bd
       0.009428766 0.00255739 0.023653196 -0.070991404
000080 ed 0b 22 bd e6 30 61 be e3 99 ab 3c 66 a9 02 bd
       -0.039562155 -0.2199131 0.020947402 -0.031899832
000090 51 8d 26 bd 08 20 55 bd da 7d 72 bd 98 21 0a bd
       -0.040662114 -0.0520325 -0.059202053 -0.033723444
0000a0 cf 5a d7 3c 8a 28 65 3d c4 66 f6 bc bd e7 8a bd
       0.026288418 0.055946864 -0.0300783 -0.06782482
0000b0 aa 5a 53 3c 3a 98 4d bd e0 68 6f bd fb 1b 3f 3c
       0.012900034 -0.050194003 -0.058449626 0.011664386
0000c0 c7 9b fb 3c 80 1d 9e bd f2 ba 75 3b 79 40 e0 3d
       0.030713929 -0.077204704 0.0037495461 0.10949797
0000d0 98 49 02 bd 5d fa 45 bd 75 43 59 bc 3c 49 39 3d
       -0.031808466 -0.04833447 -0.013260712 0.045235857
0000e0 71 00 6d bd 7e 9d 7c 3d bc 3c 21 3d 40 8c ff ba
       -0.05786175 0.061673634 0.03936456 -0.0019496754
0000f0 4e aa 19 3c e9 64 d0 3c 61 f1 13 3d be 73 3d bd
       0.009378983 0.025438743 0.03611887 -0.04625296
000100 af 03 e2 bd 25 a1 c8 bd f4 71 78 3d 75 a7 60 bd
       -0.11035859 -0.09796361 0.06065555 -0.0548472
000110 8b b4 84 3d d8 7a 88 3d fa 0a 1c 3d 9f f6 f7 bc
       0.06479748 0.066640556 0.038096406 -0.030268965
000120 61 9e bd 3b ae 38 c4 bd 97 da 98 bd 40 1d d0 3b
       0.0057867025 -0.09581123 -0.07463568 0.006351143
000130 58 35 c4 bd e5 63 27 3d 83 62 e8 3d db 79 a6 bd
       -0.09580487 0.04086675 0.113469146 -0.08128711
000140 c8 04 dd 3c e8 99 42 bd 1d 1c 88 bd 35 eb 49 bb
       0.026979819 -0.047510058 -0.06645987 -0.003081036
000150 67 b4 80 bd 64 f2 13 bd 07 6e b7 bd bb 3a 8a bd
       -0.06284409 -0.036119834 -0.08956533 -0.06749483
000160 a4 09 a3 3c 0c 63 64 bc 3f d9 09 3c a4 5f c9 3d
       0.019902058 -0.01393963 0.008413612 0.09832695
000170 30 1a 84 bd 2a 7b b6 3d c4 89 d7 3d 8b 64 b1 3c
       -0.06450307 0.089102104 0.105243236 0.021654388
000180 73 7d fc bc 16 db 97 3d 16 ab 1a bc 9a 82 b5 bd
       -0.030821538 0.07414834 -0.009440204 -0.08862801
000190 7b 0e e6 3b 62 a2 5f bc 42 14 6e 3d f6 d8 06 be
       0.007020769 -0.013649555 0.058124788 -0.13168702
0001a0 c9 67 6c b9 38 98 be bd 3e c3 a7 3d dc 30 29 bd
       -0.00022545377 -0.09306377 0.08191536 -0.04130636
0001b0 8f 34 28 3d 2d 58 d0 bd 33 89 9a bc fe 56 21 bd
       0.04106575 -0.10173068 -0.01886425 -0.039389603
0001c0 d3 e5 be 3d fb ff 16 bd 6a a4 76 3b 47 81 ae bc
       0.09321179 -0.036865216 0.003763462 -0.021301879
0001d0 a5 53 3f bc e8 2c 71 bd 11 ea b3 ba 65 eb fc 3c
       -0.011677657 -0.058880717 -0.0013726373 0.030873964
0001e0 76 01 ba bc 45 45 c7 bc 4f 3b 29 bd 79 84 73 3b
       -0.022705775 -0.024325022 -0.041316327 0.0037157817
0001f0 eb 00 02 3b 5e d6 12 bd 68 06 29 3d 6d 97 46 3b
       0.0019836973 -0.035848968 0.041265875 0.003030266
000200 89 d2 cc bc 0c ed 28 be d2 aa 98 bd b7 6d 6b 3d
       -0.025002735 -0.16496676 -0.074544564 0.05747768
000210 63 6b dd bd a1 65 5a 3d 26 d8 09 3d ca 73 c0 3d
       -0.10811498 0.053319577 0.0336534 0.09397085
000220 a5 23 ab 3d 65 6f 88 3d 64 c8 ee bc f7 c6 34 3d
       0.08356408 0.06661872 -0.029148288 0.04413506
000230 46 3e c5 bc 21 56 03 3d 13 a9 e6 3b 91 9f a1 bd
       -0.024077546 0.03206456 0.007039198 -0.07891763
000240 f4 e7 80 3d 34 f2 c8 3d 2a 73 fb 3d 25 ec ba 3c
       0.062942415 0.098118216 0.12277825 0.02281768
000250 e4 e1 4b ba 42 2f 42 bd 50 aa 6e 3d 09 b8 06 3d
       -0.0007777496 -0.04740835 0.05826789 0.032890353
000260 1c e3 42 bc 3a b6 14 bd f7 04 fb 3c cb b2 3e bd
       -0.011894967 -0.036306597 0.030642016 -0.04655723
000270 30 38 b2 3d 20 a8 a7 bd 30 00 2d be 00 e0 97 bd
       0.08702123 -0.08186364 -0.16894603 -0.074157715
000280 3b 9c 73 3d 32 b5 8a 3c a2 53 4e bd b0 e4 e6 3c
       0.059475165 0.016932104 -0.050372727 0.028185219
000290 e7 71 03 3c 5a 4f 88 bd f7 42 ff bc 67 4b 02 bd
       0.008022762 -0.0665576 -0.031159861 -0.03181019
0002a0 5f 2d ac bd 02 83 83 bd 60 2b 14 bd b5 b8 27 bd
       -0.08407091 -0.06421472 -0.036174178 -0.040947635
0002b0 47 c9 10 bd aa 92 6f bd 85 e2 af 3d bb 3d c9 bc
       -0.035348203 -0.05848948 0.08588127 -0.024565568
0002c0 0a 46 2e 3d bb 8d 52 3d c8 6c 14 be 5e aa 0a 3d
       0.042547263 0.051404696 -0.14494622 0.03385388
0002d0 84 b7 e4 3d 1b 8b 55 3d 75 70 b1 bc e3 7e 67 3d
       0.11167815 0.052134614 -0.021660069 0.056517493
0002e0 2d 8f b6 3d ef 0f bf bc 96 f9 b1 bd 47 fb b8 bd
       0.08914027 -0.023323027 -0.08690183 -0.09032302
0002f0 11 74 8a 3c b9 93 85 3a ba 7e 26 bc a6 48 b8 bd
       0.016901048 0.001019112 -0.01016205 -0.089982316
000300 ac 76 7d bd 8e 7a 8a 3d a0 1c 31 3c 2d cc 63 bd
       -0.061880752 0.06761657 0.010810047 -0.05561464
000310 c7 e4 01 bd 47 33 41 bc f2 40 5e bc bb ac 05 be
       -0.03171232 -0.011792011 -0.013565289 -0.13054173
000320 d9 2f ba 3d 06 c5 28 3d 24 4e 88 bd e1 96 2a bc
       0.090911575 0.04120352 -0.06655529 -0.010411949
000330 fd ef 8b 3c 59 79 f5 bd 86 81 ed bd 9f 6b 70 bd
       0.017082209 -0.11986036 -0.1159697 -0.058696385
000340 dd 9e 27 3d f9 24 ba 3c 0d 8f ba bc fe d0 6e bd
       0.04092299 0.022722708 -0.02277329 -0.05830478
000350 4c 84 6c bd 51 d7 35 bd 51 82 7c bd 95 08 85 bd
       -0.057743356 -0.044394795 -0.061647717 -0.064957775
000360 15 80 81 3c ad d0 b8 bc 76 e7 8b 3d 68 24 d3 3c
       0.015808145 -0.022560442 0.06831257 0.025774196
000370 ce 26 1d 3d 5c e8 ca bc 6b da 46 bc 5f 09 8b 3c
       0.038367085 -0.024769 -0.012137036 0.016972242
000380 3c 4d 5a bd c3 14 95 bd a8 64 8a 3d ad e4 ce 3d
       -0.053296313 -0.072793506 0.0675748 0.1010221
000390 23 9f d6 bd ba e0 8d 3d 95 61 42 ba 49 30 4c 3d
       -0.10479572 0.06927629 -0.00074150536 0.049850736
0003a0 44 75 c5 bb 0d fe 3e bc be ec 02 3d 53 5c 45 3e
       -0.006025942 -0.01165725 0.031964056 0.192735
0003b0 7a bf a7 bc 2e b9 00 bd 3a 88 2e bd ef cb 81 3c
       -0.020477045 -0.0314266 -0.042610385 0.015844313
0003c0 fb d2 1f bc 8a 49 35 bd af 08 86 bd 9c 64 93 bd
       -0.0097548915 -0.044259585 -0.06544625 -0.07196924
0003d0 8c d5 25 bd e1 08 e8 3c fa 66 99 bc cd 41 a2 3c
       -0.040486857 0.028324546 -0.01872586 0.019806767
0003e0 fb eb 30 3b 3e 46 02 bd e3 0a 0f 3d db 2f a7 3c
       0.0026996124 -0.03180527 0.03492249 0.020408561
0003f0 a8 48 06 bd 5a 27 8b bd 8e 13 27 3d d6 55 06 be
       -0.032784134 -0.06794615 0.040790133 -0.13118681

a2c_network.actor_mlp.2.weight f4 [128, 256]
000000 49 80 69 bd ef 07 f2 bd c0 01 c5 bd 85 a9 47 3d
       -0.057007108 -0.118179195 -0.096194744 0.04874565
000010 4d 4b 08 be b6 7a c5 bd af 4c 2f be 71 66 37 3d
       -0.13309975 -0.09642546 -0.17119096 0.04477543
000020 d0 16 ff bd 5c 72 67 bd fe a0 8f 3d b9 d8 e0 bc
       -0.12455523 -0.056505546 0.07013129 -0.027447091
000030 a7 74 61 3d 80 e7 69 bd 13 48 4a be 52 6e 40 3d
       0.05504289 -0.05710554 -0.19754057 0.04698021
000040 e9 02 af 3c 9a b9 5a bd 8e 9e d4 bd a0 71 13 3e
       0.021363692 -0.05339966 -0.103818044 0.14398813
000050 a2 aa 8d 3d 49 19 e5 3c 25 70 b9 bd 78 c4 f0 3c
       0.06917311 0.027966158 -0.09054593 0.029390559
000060 b2 a1 80 3c af b6 b3 bc d4 ba 49 bc 48 4a 03 bd
       0.015702102 -0.021937696 -0.01231261 -0.032053262
000070 05 16 74 3d d3 84 fa 3c b7 66 57 3c 58 79 13 be
       0.059591312 0.030580914 0.013147048 -0.14401758
000080 7f 67 ce 3c 5e 95 59 bd 13 18 82 3c 85 c2 b3 bd
       0.025195835 -0.053120963 0.01588062 -0.08777336
000090 df 28 b8 bd a6 56 a8 3d b7 f1 7c be 72 e5 2a 3a
       -0.089921705 0.08219652 -0.24701582 0.00065191754
0000a0 a1 12 e9 3d d9 98 5e bd 58 d9 02 bd 8f 0a 19 3e
       0.11380506 -0.054344986 -0.031945556 0.14945434
0000b0 5d 40 f0 3b f4 84 76 bd 0c c9 2d 3d 81 b9 66 3d
       0.0073318915 -0.060185388 0.04242806 0.056329254
0000c0 88 86 74 be b6 eb db 3d 08 d5 9c 3d 4c 29 e5 3d
       -0.23879445 0.10738318 0.0765782 0.111895174
0000d0 bd c7 31 3e 35 d3 1b bc 55 dc 07 3e fd 45 8b 3d
       0.1736135 -0.009510805 0.13267644 0.068004586
0000e0 4d 64 16 3d 96 81 b7 bd 64 a6 bb bd c9 a7 ed 3c
       0.036716748 -0.089602634 -0.09162596 0.02901067
0000f0 58 de 3e bd 80 d4 66 be 62 8f 03 bd e9 5c a4 3d
       -0.046598762 -0.22542 -0.032119162 0.08025534
000100 e3 ae 3f bd 03 98 3d bd dc 60 e3 3d b6 f5 52 bd
       -0.046797644 -0.046287548 0.11102459 -0.05150386
000110 ed f6 01 bd 43 15 4f 3d f0 5e 9a bd 7a 2b 1d be
       -0.031729627 0.050557386 -0.07537639 -0.15348616
000120 38 88 b4 3d 70 fe 92 bd 59 7f a5 bd d6 51 99 3d
       0.08815044 -0.07177436 -0.0808093 0.07486312
000130 bf 7a d9 3d f7 83 7a bd ec dc d3 bc 64 e5 18 bd
       0.10619115 -0.061161008 -0.02586218 -0.03732814
000140 8c 96 3c be 54 fa e0 bd 6f 31 39 bd e8 64 42 be
       -0.18416804 -0.10985246 -0.04521316 -0.18983805
000150 78 4d 12 bd 4d 0d 94 3d 92 b8 a7 bc af 22 f9 bd
       -0.03571841 0.072290994 -0.020473752 -0.121648185
000160 2a 2c 97 bc ce 42 d4 bd 1e 75 c6 3d e7 e8 2d 3e
       -0.018453676 -0.103643045 0.09690307 0.16983376
000170 81 75 fe bd be 55 a0 bc ea b2 a3 3d 9c 20 05 bc
       -0.12424756 -0.019572135 0.079931095 -0.00812545
000180 97 44 46 bd e0 87 de bd 75 10 79 bd 13 2f 03 3e
       -0.048405256 -0.1086576 -0.06080671 0.12810926
000190 fe 47 90 3c fc b2 b2 3d a4 13 ef 3b f6 4c 1d bd
       0.017612454 0.08725545 0.0072960425 -0.038403474
0001a0 25 99 3b be 65 a7 6b bc 16 57 b0 bd 52 6c 37 be
       -0.18320139 -0.014383172 -0.0861036 -0.17912415
0001b0 04 d6 24 3e 77 e6 90 bd bc 41 b6 bc 0b aa d1 bd
       0.16097265 -0.07075208 -0.022248141 -0.10237511
0001c0 0f 65 b7 3d 07 f0 ba 3d 29 be 01 ba d9 28 1b be
       0.08954822 0.09127813 -0.00049492955 -0.15152301
0001d0 f5 b7 a5 bc 85 89 88 bc d6 33 b8 3d 0c fb 25 ba
       -0.02022932 -0.016667137 0.08994262 -0.00063316594
0001e0 6c dd 60 bd dc 66 12 bd 3b 6b d3 bc d2 b4 25 be
       -0.054898664 -0.035742626 -0.025807967 -0.16182259
0001f0 75 9d 76 3d 04 7b fb bc ff 91 8a 3d a9 d3 4f bd
       0.060208756 -0.030698307 0.06766128 -0.050738964
000200 00 5c c6 bd fc 6f 4e 3b 50 4c ed 3c 72 34 31 be
       -0.09685516 0.0031499853 0.028967053 -0.17305163
000210 30 14 ed 3d ef e0 4c bd 48 b3 92 bc 0c 3a 0d 3d
       0.11576116 -0.0500192 -0.017907754 0.034479186
000220 c0 bd 20 be 4b 75 a8 bc 94 65 86 3d 8c f3 21 3d
       -0.15697384 -0.020563742 0.06562343 0.039538905
000230 ea 62 22 be 1e 2d 0a be 49 a8 12 3e 8c 1f 79 bd
       -0.15858045 -0.13493773 0.14322008 -0.0608211
000240 5f 2e 5c bb 4d 14 12 3d b2 4f 25 3d 3d 1d 49 bd
       -0.0033596975 0.03566389 0.040359206 -0.04910015
000250 a3 fc 0c bc 41 25 9e 3d ba ce da 3b 95 92 ba bd
       -0.008605155 0.07721949 0.0066774758 -0.091099896
000260 c4 d2 38 3e a0 ef 5f bd ad 65 97 bd a5 d5 2c 3e
       0.1804915 -0.054671884 -0.0739244 0.16878374
000270 0b b7 c8 3d 6c 80 02 3e 14 99 c5 3c bf d9 37 bc
       0.09800538 0.12744302 0.024120845 -0.011221348
000280 be d4 ed bc 57 80 8d bd 7f cb 82 3d cd b8 87 3b
       -0.029032107 -0.069092445 0.0638647 0.004141903
000290 93 e8 7d bd 4a 7c 8e bb ed 42 48 be ff f5 e1 bd
       -0.06198938 -0.0043483125 -0.1955678 -0.11033248
0002a0 65 fc 8d bd 5c f3 45 bd 09 b8 39 bd 06 dc dd bd
       -0.06932906 -0.04832779 -0.045341525 -0.10832982
0002b0 48 ae 8a 3d bb 79 fb bc 51 bf 35 be 78 69 17 3e
       0.06771523 -0.030697694 -0.17748763 0.14786327
0002c0 88 2b 11 bd 71 3e 73 bd 88 99 34 bd c6 23 d1 3d
       -0.035441905 -0.05938572 -0.04409173 0.10211901
0002d0 47 44 f4 3d 84 19 84 bd 42 8a 4a bc 9a 54 a4 bc
       0.11927085 -0.06450179 -0.012362065 -0.020059872
0002e0 f4 11 76 3d c6 2a a4 3d 80 57 75 3d 2b 70 1d 3d
       0.060075715 0.08015971 0.0598979 0.03843705
0002f0 5f 31 a8 3d ac f8 a9 bc ef 10 2b be 73 9a de bd
       0.08212542 -0.020748459 -0.16705678 -0.108693026
000300 58 d9 a2 3c 89 06 14 bd cc 40 da 3d 85 ae 23 be
       0.019879028 -0.036139045 0.1065689 -0.15984543
000310 66 86 ad bd b8 fa df 3d 3e 86 64 bd 3a b0 c8 3c
       -0.084729 0.10936493 -0.055792086 0.024498094
000320 c3 1f ba 3c 09 c2 03 3d 9a 1b 3b 3c 25 19 56 3d
       0.022720223 0.03216747 0.011420155 0.052270073
000330 0b 46 42 be 07 02 83 bd e6 08 e7 bc 6b f9 cc bd
       -0.18972032 -0.06396871 -0.028202485 -0.1000851
000340 6e cc 67 bd fb 64 87 3c c9 07 57 be 06 db 52 bc
       -0.056591444 0.016527643 -0.20999064 -0.012869602
000350 ef 65 21 3d 28 f6 d3 bd e3 25 94 3d e1 aa b7 bc
       0.039403852 -0.10349685 0.07233789 -0.022420349
000360 e7 2e 50 3e 47 97 1a 3e 5f d2 88 bd c9 83 22 be
       0.20330392 0.1509677 -0.0668075 -0.15870585
000370 2b c1 a0 bd a5 7e 77 be 4a 59 09 3c 9b cc 58 3d
       -0.07849344 -0.24169405 0.008383105 0.052929502
000380 66 da 85 bc 43 5c 62 bc bc c8 99 3d ed 7d 68 3d
       -0.016339492 -0.013815942 0.0750899 0.056760717
000390 c3 cb e1 bd 53 db de 3d fd 9f 13 be 7d 4d 8e bc
       -0.110251926 0.108816765 -0.144165 -0.017370934
0003a0 c0 f3 4b be c6 84 de 3d ad 73 85 3d 89 dd 30 be
       -0.19917202 0.10865168 0.06516204 -0.17272009
0003b0 99 b4 d3 bc 1b 54 5d 3e 45 2e 82 3d 9a d0 ed bc
       -0.025842952 0.21614115 0.063564815 -0.029030133
0003c0 ea 99 70 bd 0a 9f f7 bd 9f 94 8a 3c 4d a2 2c bb
       -0.058740534 -0.12090881 0.016916571 -0.0026341856
0003d0 20 ea 22 3e 24 ee 15 bd 43 4b 36 be 41 01 4d 3e
       0.15909624 -0.03660406 -0.17802148 0.2002001
0003e0 38 77 d3 bd eb 20 1a 3d 34 ee df bd 30 d6 7a 3d
       -0.103254735 0.03762905 -0.109341055 0.06123942
0003f0 9a 0d 6e 3d cc b8 d1 bd 8a 40 bd bd de 46 10 be
       0.05811844 -0.10240325 -0.092408255 -0.14089534

a2c_network.actor_mlp.2.bias f4 [128]
000000 57 60 a7 bc b0 61 df bd 90 c5 7b bd 4c 09 59 3e
       -0.02043168 -0.10907304 -0.061467707 0.21194953
000010 27 d7 d1 bd 5e f1 37 bc e2 fc 5a bd 3f 1b 3b bd
       -0.10246115 -0.01122698 -0.053463824 -0.04568028
000020 8d e2 20 3d 5f 53 b8 bd 01 22 17 3d ca 53 83 bd
       0.039278556 -0.09000277 0.036897663 -0.06412466
000030 4a 38 f1 bd f8 92 04 be 01 5a a7 3d 13 d0 31 be
       -0.117783144 -0.12946689 0.08171464 -0.1736453
000040 d5 05 61 3d 4d f7 97 3c 0f 3c 63 be e6 b5 9c bd
       0.054937202 0.01855054 -0.2219088 -0.07651882
000050 56 bb cf bd e2 94 17 be 1c e8 bf 3d 2d a9 3f bd
       -0.10143153 -0.14802888 0.09370443 -0.046792198
000060 67 7b 0f be f6 4f fd bc 03 94 32 3d 89 c9 cd 3d
       -0.14011918 -0.030921917 0.043598186 0.100482054
000070 31 10 88 bb 50 86 24 be 29 11 27 bd 96 77 05 bc
       -0.004152321 -0.16066861 -0.04078785 -0.008146187
000080 7a 45 8f bd e3 3d 82 3b 92 3c 65 bb 37 50 07 3d
       -0.069956735 0.0039746626 -0.003497873 0.033035483
000090 6e bd 86 3d 88 c3 a4 bd 59 27 8d 3c d3 9b 0f 3d
       0.065790996 -0.08045107 0.017230676 0.035060715
0000a0 a9 fb 2d 3d 53 fd 96 bd c8 5a e7 bd fa c6 e9 bd
       0.04247633 -0.073725365 -0.11296612 -0.11414905
0000b0 78 1e 3d bc 5b c7 ba bd de 3c 88 3d 1a e6 db bd
       -0.011542909 -0.09120055 0.066522345 -0.10737248
0000c0 e3 3a f6 3b 4c d4 a5 bd 6f 5d dc bc 8c fb d5 bc
       0.007514344 -0.08097133 -0.026900021 -0.026120923
0000d0 47 a8 e9 bd 58 c8 ef 3d 98 78 3e bd 01 67 69 bd
       -0.114090495 0.117081344 -0.046501726 -0.056982998
0000e0 e2 92 f7 3c ee 10 ef 3d d5 f8 1b bd d7 2f 28 bc
       0.030221406 0.11673151 -0.0380791 -0.010265312
0000f0 3b db 48 be a9 5f 1b 3c 01 48 6d 3d 8c 0e e1 bd
       -0.1961488 0.009483256 0.057929996 -0.10989103
000100 00 35 06 be 68 bc 05 bd e9 fc d2 bd 35 68 06 bb
       -0.13106155 -0.03265038 -0.10302145 -0.002050889
000110 de 1c 43 be c6 42 1b bd 17 58 63 bc 6f 5b ac 3d
       -0.1905398 -0.037905477 -0.013875983 0.08415877
000120 d5 7a 92 bd cd 1a 07 3d b9 67 8e bd 88 d8 c9 bc
       -0.071523346 0.032984544 -0.06953377 -0.024639383
000130 ea 6b 4e 3d 36 0d 41 3c ad dd 8b bc 27 0b 2a 3d
       0.050395884 0.011782935 -0.017073477 0.041514542
000140 8e 1a a2 bc 76 15 38 3d ca 30 27 bd 9a cf 6d be
       -0.019788053 0.04494234 -0.040818013 -0.23223725
000150 17 0d 7e 3c a2 ba 27 bd 9f 92 41 bd af 69 c0 3d
       0.015506051 -0.04094947 -0.04725897 0.093951575
000160 09 f4 fe bd 33 09 8a bb 88 a3 eb bd c7 cf f6 bd
       -0.1244889 -0.0042125224 -0.115058005 -0.12051349
000170 e8 84 92 bb 1a 60 a9 3d a3 03 7d bd 5b 54 49 bd
       -0.00447141 0.08270283 -0.061771046 -0.049152713
000180 3c 1e 3a 3b b2 dc 88 3c 76 1d 8a bc 3b b9 0e be
       0.0028399369 0.016706798 -0.016859751 -0.13937847
000190 14 72 93 3c 74 82 d9 bd 24 f3 9e bb c8 13 d9 bd
       0.017998733 -0.10620585 -0.004850762 -0.10599476
0001a0 54 aa f9 bc 7d bb 01 bd 2d f5 33 3d 12 3a 03 bd
       -0.030476727 -0.031672943 0.04393499 -0.032037802
0001b0 af 64 5d bd 39 fe d6 bd ef 02 36 bd 5a 63 c3 bc
       -0.054051097 -0.10497708 -0.04443639 -0.023851085
0001c0 ca 8c 1c bd f3 36 11 be 07 ca 26 3d 03 ac 78 3d
       -0.038220204 -0.14181118 0.040720012 0.06071092
0001d0 ce 15 37 bd 3d 26 b5 bd 11 42 08 be ec 19 d0 3c
       -0.04469853 -0.08845184 -0.13306452 0.025402986
0001e0 76 e5 34 3b 79 40 0f be 87 64 c9 bc ab 77 3c bd
       0.002760259 -0.13989438 -0.024584068 -0.04601256
0001f0 cc 76 01 bc 52 4c d2 3d 9d 2b 38 3d c6 01 a6 3d
       -0.007901859 0.10268463 0.044963468 0.08105807

a2c_network.actor_mlp.4.weight f4 [64, 128]
000000 0c 82 06 bd f0 45 93 bd b5 bb 7d 3d c8 2f 5c be
       -0.032838866 -0.07191074 0.06194659 -0.21502602
000010 42 d9 2b bd b6 45 56 3d d6 08 aa 3d 17 f1 8e bb
       -0.04195524 0.052312575 0.083024666 -0.0043622362
000020 0f cc e4 bd 54 36 d5 3d 95 8c 83 39 8a d1 32 3c
       -0.111717336 0.10410753 0.0002509101 0.010914216
000030 33 dd 06 3d fc 62 3d 3d 1f 63 ce bd d0 e4 24 bd
       0.032925796 0.046236977 -0.100774996 -0.040257275
000040 1c 0f 49 3d bb 28 4b bd 21 9f fa bd e8 df 9b bc
       0.049086675 -0.04959939 -0.12237383 -0.019027665
000050 09 d3 c8 bc 2b f6 01 bd 4d f0 aa bd dc 62 e0 bd
       -0.024514692 -0.031728905 -0.08346615 -0.10956356
000060 09 70 d2 3d 0c 85 0c 3d c3 18 08 3e ca 31 7b 3c
       0.10275275 0.03430657 0.13290696 0.015331695
000070 30 0f 23 bd d6 8f 0a 3e 82 2e ae bc 60 b8 35 be
       -0.039809406 0.13531432 -0.021262411 -0.17746115
000080 d1 d8 01 bd 59 af d7 bd 0b b7 92 bc 8f 60 49 be
       -0.031700913 -0.10531492 -0.017909547 -0.1966574
000090 74 c7 94 bd 37 91 f4 bd f2 06 92 bd 89 1d 23 be
       -0.07264605 -0.1194176 -0.07130231 -0.15929236
0000a0 88 8a 07 be d4 94 d5 bc 14 07 8a 3d c1 03 e8 bc
       -0.13236439 -0.026071943 0.06739631 -0.028322103
0000b0 49 5f fe bd 90 4a 46 bd 89 51 4a be 86 49 92 bd
       -0.12420518 -0.048410952 -0.19757666 -0.0714293
0000c0 3b ce d4 bc 79 29 61 bd e7 5a 59 3d 69 d0 56 be
       -0.025977245 -0.054971192 0.053065207 -0.2097794
0000d0 67 eb 10 bd 2f 95 41 bd 21 e0 8b 3d 92 f9 ef 3c
       -0.035380747 -0.047261413 0.068298586 0.02929381
0000e0 76 69 7c 3c e3 19 e4 3c 4d 55 c6 bd f4 c6 da 3c
       0.015406003 0.027844375 -0.096842386 0.026706196
0000f0 29 5b a0 3c ee b5 d7 bd c2 47 38 be 29 ce 29 3c
       0.019574719 -0.10532747 -0.17996123 0.010364094
000100 42 1f 86 bd 75 21 47 bd a8 27 2d 3e 31 4c dd 3d
       -0.06548931 -0.04861589 0.16909659 0.10805548
000110 3d 39 34 bd 6b 42 39 bc fe 18 80 bd 68 d2 28 be
       -0.0439999 -0.011307339 -0.06254767 -0.16486514
000120 11 54 a8 bd 0e c4 4e 3c 9d 8f 65 bd 0c 5d a3 bd
       -0.082191594 0.012619985 -0.056045163 -0.07976732
000130 65 d1 a0 3c bf cf 18 be c0 5e 3b bc 02 23 15 be
       0.019631097 -0.14922999 -0.011436164 -0.14564136
000140 d0 23 ad ba 44 18 12 3e e5 36 e9 bd 0b 58 68 3d
       -0.0013209525 0.14267069 -0.113874234 0.05672459
000150 0b 20 50 bd 6a 66 86 bd fb 69 01 be 20 b2 83 bd
       -0.05081181 -0.06562503 -0.12638085 -0.06430459
000160 ea c8 a1 3d 0a 2b 1c bc fb 29 ab 3b fe d4 60 3d
       0.078996494 -0.009531746 0.0052235103 0.054890625
000170 9e 45 bb bd 51 ca 56 bd 6c f2 d2 bd c8 19 17 3d
       -0.09144138 -0.052439038 -0.103001446 0.03688982
000180 f4 7a b7 bc a9 81 f7 bc 2c f1 8f ba 0c a8 79 3d
       -0.022397496 -0.030213194 -0.0010981909 0.060951278
000190 11 93 f4 bd 20 38 c0 bb dd 08 f1 bc 9d 8b c4 3d
       -0.11942113 -0.0058660656 -0.029423172 0.095969416
0001a0 82 e4 d9 bb 42 87 e6 3c 1d 28 70 bd 08 f9 b7 bb
       -0.0066495547 0.028140668 -0.058632005 -0.0056144036
0001b0 95 d4 b2 bd 8a 39 ab 3d 3a 2a 85 bc ce 64 11 bd
       -0.08731953 0.08360584 -0.016255487 -0.035496525
0001c0 92 e9 cf bc 38 1b 9b 3c 91 e6 90 3c 51 ba c0 3d
       -0.02537993 0.018933877 0.017688068 0.09410537
0001d0 69 c6 88 3d 3c b6 8c 3b b3 dc 04 be 46 46 4f bd
       0.06678469 0.004294185 -0.12974815 -0.050604127
0001e0 a7 8d 04 bd 32 7f bb 3d 0a 28 05 3d 56 12 81 3c
       -0.032361653 0.0915512 0.032508887 0.015755814
0001f0 49 98 68 bd a7 86 d2 bc d8 f7 2c be 73 b8 e6 bd
       -0.056785855 -0.025698973 -0.1689142 -0.1126565
000200 53 96 ff bc a9 8b 95 bd f4 45 8b 3c b6 dd 76 bd
       -0.03119961 -0.07302029 0.01700113 -0.060270034
000210 51 05 83 3d 1c 6a 0a 3d 39 89 90 bd 18 38 38 bd
       0.063974984 0.0337926 -0.07057423 -0.04497537
000220 41 f4 28 bd ab 59 88 bd d3 21 ef 3c 5d e6 21 bb
       -0.041248564 -0.06657728 0.029190933 -0.0024703958
000230 e3 a9 2a be fa c5 0a 3e 9f e0 5a bd 8b e6 57 3c
       -0.16666369 0.13552085 -0.05343687 0.013177524
000240 46 c6 43 3b 4d bd a5 bd 15 c6 31 be 34 00 ab bd
       0.002987282 -0.08092747 -0.17360719 -0.08349648
000250 47 2e e4 bc b8 16 2f 3e df a9 f7 bd 96 c8 ec bb
       -0.027854098 0.1709851 -0.12092947 -0.00722606
000260 b1 61 05 bd 50 a1 5c bd f6 d5 fe 3b cd 10 33 be
       -0.03256387 -0.053864777 0.007776971 -0.17486878
000270 bb d3 89 bd d2 78 ff bc 59 48 a0 bd 61 73 cd bd
       -0.067298375 -0.031185541 -0.07826299 -0.100317724
000280 97 69 1d 3c 06 a8 e0 3c 8f 9d 72 bd 0c d5 d5 bd
       0.009607694 0.02742387 -0.05923229 -0.10441026
000290 f0 4d d3 3d 54 b6 22 bd c6 1d 8b bc da 4f 83 ba
       0.103176 -0.039724663 -0.01698197 -0.0010018304
0002a0 84 47 ad 3c cf 4d cc 3c 20 63 88 bd c0 c8 81 bd
       0.021152265 0.024939446 -0.066595316 -0.06337118
0002b0 38 06 c0 bd 43 a4 2a 3d fc 5c 0c be d9 53 8a 3c
       -0.09376186 0.04166056 -0.13707346 0.016885685
0002c0 65 a0 5d bd 6f 85 ed bc 22 7f 5c 3c ea c7 72 bd
       -0.054108042 -0.02899429 0.013458045 -0.059272684
0002d0 ae 7d a5 bb 97 b3 1a 3d 9f ce 8f 3d 99 65 ba bd
       -0.0050503826 0.037768926 0.07021832 -0.091014095
0002e0 cf 24 b3 3b 6b 73 52 be 86 56 ea 3c 48 2d 26 bd
       0.0054670344 -0.20551841 0.02860571 -0.040570527
0002f0 1a 10 13 3e 73 ec 2d 3a d8 af 1c be f2 9c 9f 3d
       0.14361611 0.000663466 -0.15301454 0.07793607
000300 6f 05 c2 3c 6d d4 a0 bc 32 87 2e 3e bc 2d a0 3d
       0.023684232 -0.019632543 0.1704376 0.07821223
000310 5d 55 be 3d 0e 14 97 3d b0 35 77 3d 19 62 f1 bc
       0.092936255 0.07376872 0.060353935 -0.029465722
000320 d8 c8 95 bc 22 2d 48 3c e8 47 30 bd 18 a4 d9 3c
       -0.018284246 0.012217792 -0.043037325 0.026567504
000330 69 a9 0f 3d c4 b8 47 bd c4 83 4d bb 07 ce 09 be
       0.03507367 -0.04876019 -0.0031359056 -0.134575
000340 5c 74 f4 3d 15 b6 a6 bd c3 d2 0b be 1d d6 cb 3c
       0.11936256 -0.08140198 -0.13654618 0.02488237
000350 a7 a5 c7 bd a5 20 16 bd be 53 84 bd d9 cf 0b be
       -0.097483926 -0.036652226 -0.06461285 -0.13653506
000360 fd c9 4b bd 90 bd bc 3c 60 f4 a9 bd 1b 75 0d 3e
       -0.049753178 0.02303961 -0.08298564 0.13814203
000370 63 58 16 be 4b 8b 8d bd 6f 1f fc 3d cc 5b 41 3d
       -0.14682154 -0.06911334 0.12310683 0.047206685
000380 e6 2a 36 3d e8 25 ae bd e7 61 c3 bd ea 36 6b bd
       0.044474505 -0.08503324 -0.09540158 -0.057425417
000390 ad 7b a0 bd 61 6d fd 3d e5 03 12 3c 52 9c b9 3b
       -0.07836089 0.12374378 0.008912061 0.005664387
0003a0 a4 23 20 3d e2 ad 13 bd 04 c3 2b be 6c 25 76 bd
       0.03909649 -0.0360545 -0.16773611 -0.060094282
0003b0 8b 02 53 be 8b 0c 96 bd a7 e9 93 bc 9e e9 89 bd
       -0.20606439 -0.07326611 -0.01805575 -0.06734012
0003c0 0e 31 c0 bc 4f 29 4c bd 7b 23 ab bd cb 36 a8 bd
       -0.023460891 -0.049844082 -0.08356377 -0.08213576
0003d0 e4 83 db bc 36 57 95 bc 73 b2 75 3d 8c 8c 85 3d
       -0.026796289 -0.018230062 0.059984636 0.06520948
0003e0 f5 c1 a1 3c 26 3d 89 bc 48 f8 c6 3c fd a5 b8 bd
       0.019745806 -0.01675279 0.024288312 -0.09016035
0003f0 e0 35 73 3d 24 36 9e bc e3 9c b2 3d 5a 5f 3f be
       0.05937755 -0.019312926 0.0872133 -0.18688717

a2c_network.actor_mlp.4.bias f4 [64]
000000 7e 51 b4 bd ff 35 a3 bd 26 b5 e0 bd c6 7c d5 3c
       -0.08804606 -0.07969283 -0.10972051 0.026060473
000010 e4 64 41 be 76 8d aa 3c 65 09 01 3d cd 79 b8 bd
       -0.18886143 0.020819407 0.0315031 -0.09007607
000020 e3 f7 1d bd 61 92 07 3d ca ba 18 bd d2 ed f6 3c
       -0.03856648 0.033098582 -0.03728751 0.030142698
000030 88 15 83 bd 83 48 24 3c a8 d7 f0 bd 17 7f 70 bd
       -0.06400591 0.010027054 -0.11759883 -0.058714952
000040 4f 59 5f bd 51 f3 fd bd f8 6d 54 be fb 77 90 3c
       -0.05452853 -0.123999245 -0.20745075 0.017635336
000050 93 18 2d be 9c 42 63 bd 07 e4 20 bd f3 57 cf bd
       -0.16903906 -0.055483446 -0.039279964 -0.10124197
000060 7c 70 5f 3c f3 04 99 3c 02 44 91 3c b9 8f 56 3d
       0.013637658 0.018679118 0.017732624 0.05238316
000070 14 7a 6e 3c 03 53 eb bb 27 a5 26 be f1 06 31 be
       0.014555473 -0.0071815266 -0.16273938 -0.17287804
000080 e4 ff ab bd 14 97 b5 3c 94 33 a7 bd 34 4a 62 bd
       -0.08398417 0.022166766 -0.081641346 -0.055246547
000090 2d 1f e7 bd 5a d2 a2 3d d0 fd 86 3d 93 b6 52 3d
       -0.11285243 0.079502776 0.0659138 0.051443648
0000a0 43 28 a3 bd 7f a2 81 3d 00 dd d2 bb fa 31 b3 ba
       -0.07966664 0.06329822 -0.0064350367 -0.001367151
0000b0 4f de 82 bd 08 d3 bb bd 5d 46 a7 bd 7c d1 5a bd
       -0.06390058 -0.091711104 -0.081677176 -0.053422436
0000c0 98 67 34 3c 3e 42 61 3c 08 67 14 bd f7 a7 56 3c
       0.011011027 0.0137487035 -0.03623107 0.013101569
0000d0 20 b1 15 3d 5e 2f 75 be f4 dd ee bd 96 9c ad bd
       0.036545873 -0.2394385 -0.11663428 -0.08477132
0000e0 b4 43 db 3c e1 a0 cb bd b1 dd 14 bd b1 8d da bd
       0.026765682 -0.099427946 -0.036344234 -0.10671557
0000f0 13 5a 6b bd 16 f6 c0 3d 23 f1 9b 3d 44 8d d0 bd
       -0.05745895 0.09421937 0.076143526 -0.10183194

a2c_network.value.weight f4 [1, 64]
000000 2c bd 6b 3c ec 54 84 3d 3f 02 b8 bd 3f 7d ee bc
       0.014388364 0.0646151 -0.089848034 -0.029112456
000010 2b cd 8e 3d 9c f6 04 3e 92 cc 36 bb 8b 7d bb bd
       0.069727264 0.12984699 -0.002789293 -0.09154805
000020 78 ed d7 3d e5 99 f7 3d d1 53 9b 3c 2c e9 4e 3b
       0.105433404 0.120899 0.018960865 0.0031572087
000030 b5 24 ea 3d a3 28 24 bd 41 14 49 bd c9 d1 2b bd
       0.114327826 -0.040077817 -0.04909158 -0.041948114
000040 d4 1a 3e 3d fb 8f 12 bc 36 89 14 bd 00 c8 0d 3d
       0.046412304 -0.00894546 -0.036263667 0.034614563
000050 66 fa 50 bd f1 57 95 3d 33 c1 af bd 0f 6e ec 3d
       -0.05102005 0.07292164 -0.08581772 0.115444295
000060 7f 1b 16 bd 4d a3 a4 3d 86 9e aa 3d 15 05 bd 3b
       -0.036647316 0.0803896 0.08331017 0.005768428
000070 8d 8a 90 3d 33 80 8f 3d 59 61 8e 3d 82 41 8f 3d
       0.070576765 0.07006874 0.06952161 0.069949165
000080 75 42 88 bd d7 b1 d2 bc 37 52 a7 3d 74 9f 90 3b
       -0.06653301 -0.025719566 0.08169978 0.0044135395
000090 85 3b 85 3a 87 d1 11 3c 5f 8e 09 3e d6 d5 ee 3d
       0.0010164833 0.008900053 0.13433217 0.1166188
0000a0 f8 fe 95 3d ab de f1 3d 0b 95 c1 bd 2e 5a 99 3d
       0.07324022 0.11810049 -0.09452256 0.074879035
0000b0 e9 4b b4 bc b9 e5 d3 bd 92 ec 53 bd d7 1e 8b bc
       -0.022008853 -0.103465505 -0.051739283 -0.016982479
0000c0 25 21 0a 3d 0a 98 c1 bb 61 eb ea 3d 03 c5 e3 bc
       0.033723015 -0.005908017 0.11470676 -0.027803903
0000d0 aa 07 2b 3d d7 f3 03 bd 00 83 5a 3d 2e 53 cd bd
       0.041755356 -0.032214966 0.053347588 -0.10025631
0000e0 87 b3 3a bc 1d 31 ae 3c 27 19 e3 3b d2 6d f3 bd
       -0.011395342 0.021263653 0.0069304886 -0.11886181
0000f0 da 06 14 3d 2f 36 d9 bb 8f cf e3 3c f6 18 b0 bd
       0.036139347 -0.0066287736 0.027808933 -0.08598511

a2c_network.mu.weight f4 [6, 64]
000000 aa a0 81 3c 04 33 56 bb 1b 2d 33 3d 59 7b e2 bd
       0.01582368 -0.0032684216 0.043744188 -0.11058683
000010 b6 a8 31 bd 1d 24 97 ba 12 c1 2b 3d ef 10 1b 3d
       -0.043373786 -0.0011531148 0.041932173 0.037857946
000020 30 c2 bc bd fb be af bd d2 ec 29 bd 1d 25 9a 3d
       -0.09216726 -0.085813485 -0.041485615 0.0752661
000030 41 1f e7 bd 52 c3 01 3d d8 43 8d 3d 17 93 ed 3c
       -0.11285258 0.031680413 0.06897706 0.029000802
000040 85 75 ea 3d e7 5e 96 bc 4a 01 8d 3d e1 28 d0 3d
       0.11448196 -0.0183558 0.068850115 0.10164047
000050 34 75 fc 3d b1 fe 3b 3d 1c 30 89 bd c6 b8 2c 3b
       0.12327042 0.04589719 -0.06698629 0.002635525
000060 25 4d 98 bd 94 8f af bd 51 80 0e 3e e5 30 03 be
       -0.07436589 -0.08572307 0.13916136 -0.1281162
000070 aa 9f fc bc 9e 33 c5 bc 16 d0 a4 bd 86 85 25 3e
       -0.030837853 -0.024072465 -0.08047502 0.16164216
000080 47 c9 73 3c a9 db 7a bd b5 6e b3 bc 61 87 b7 bd
       0.014879531 -0.06124464 -0.021903375 -0.08961368
000090 a8 ca 34 bd ae 6b b1 bd 45 36 aa bd fa 6a 3a be
       -0.04413858 -0.086631164 -0.08311132 -0.18204871
0000a0 23 43 17 bd 41 b3 37 be a7 a7 a1 3b 34 6e 0b bd
       -0.03692926 -0.17939474 0.004933316 -0.034040645
0000b0 0c b0 52 3e 02 ee 6e 3d da 2e 0d bd c1 1c 9f 3d
       0.20574969 0.05833245 -0.03446851 0.07769156
0000c0 22 74 6c bd b5 41 e7 3c 5b 2d de bd ee 25 cc bc
       -0.05772794 0.028229574 -0.108484946 -0.02492043
0000d0 06 34 13 bc f4 d6 1d 3d 6b fa 0b 3d 29 49 45 bc
       -0.008984571 0.038535073 0.034174364 -0.0120413685
0000e0 d7 56 f3 bd 1c 8b 11 3d 21 f9 f5 3d d0 b8 be 3d
       -0.11881798 0.035533056 0.12010408 0.09312594
0000f0 0f 55 af 3d 51 a5 b8 bd 2f 23 ab bd 9a 8f 2c 3e
       0.085611455 -0.090159066 -0.0835632 0.16851655
000100 77 c6 f6 bd 13 15 64 bc e8 02 16 bd 4f 75 03 3b
       -0.12049573 -0.01392104 -0.036623865 0.0020058935
000110 fb ce 07 be 50 e5 b0 3d d9 dc 47 3c c8 48 d3 bd
       -0.1326255 0.08637488 0.01219865 -0.10316616
000120 7a 53 74 bd ce f0 1e 3e fd 6e 4c bd cb 77 2e 3d
       -0.059649922 0.15521547 -0.049910534 0.042594712
000130 bc 55 81 bd 7d bc be 3c c6 4c fc 3c c4 3f 46 bd
       -0.06315181 0.023283238 0.030798327 -0.048400655
000140 f3 f2 c7 3c 3d 8e 01 be d3 16 a6 bd 6b a0 d7 3d
       0.02440784 -0.12651916 -0.08109822 0.10528644
000150 cf 3a 4b be 71 e1 37 3d 6a 6b 08 3c c1 a2 3b 3d
       -0.19846652 0.044892732 0.008326391 0.04580951
000160 de a8 c7 3d 70 fd c8 3b 9f 40 bb 3c 24 e9 33 3c
       0.09749006 0.0061337277 0.022857962 0.010980878
000170 4b 79 90 bc ca 1e e8 bc 9c 21 16 be 9d db dd bd
       -0.017635962 -0.028334994 -0.14661258 -0.108329035
000180 6f 82 02 be da a8 55 3d a6 2d a5 bd ea 5b 8a bd
       -0.12745069 0.052162983 -0.080653474 -0.067558125
000190 e9 9e a8 bd a2 68 c8 3c 09 c4 4b bc fe fa be 3c
       -0.08233435 0.024463955 -0.012436875 0.023313042
0001a0 3d 8e c6 3c e5 14 8b 3d 50 39 2b bd c8 3c 00 bd
       0.024237746 0.06791095 -0.041802704 -0.031307966
0001b0 29 41 a3 3d f8 88 21 bd 26 32 4e bd aa 3c d2 3c
       0.07971413 -0.039437264 -0.050340794 0.025663693
0001c0 32 7c e4 3c d6 c3 6e 3d d9 97 bb bd 0f 3a e5 3d
       0.027891252 0.058292232 -0.09159822 0.111927144
0001d0 dc 4b 27 bd 9a 05 d5 bd 50 b5 0e be 9c 19 d2 bd
       -0.04084383 -0.10401459 -0.13936353 -0.10258791
0001e0 da ec 7a bb aa 28 ac bc fc 75 b6 3d 29 8c af bb
       -0.0038288147 -0.021015484 0.089092225 -0.0053572846
0001f0 b4 98 3c 3c b9 8c 48 3c f9 9b 75 3d 78 cb ce bd
       0.011511017 0.012240582 0.0599632 -0.10097402
000200 64 0e 04 be ee 81 1c 3d f9 9f a5 bd 9b 37 eb 3d
       -0.12896115 0.038209848 -0.08087153 0.11485215
000210 90 00 ca bc ab de 17 3e 00 fb f2 3d 20 1e e5 3d
       -0.024658471 0.14831035 0.11864281 0.111873865
000220 00 f2 ed 3d eb 4e d1 bc 18 c6 9d 3c ad 6e 88 3c
       0.116184235 -0.025550326 0.019259498 0.016654337
000230 4b 76 22 3b f7 20 e1 bc a7 cc dc 3d a0 7c a5 3c
       0.0024789746 -0.02748154 0.10781222 0.020201027
000240 f2 5c f8 3d a9 09 c5 3d dc fd b2 bc 2b 0f 6a bc
       0.12127103 0.09620983 -0.021849565 -0.014285843
000250 77 3e 95 bd 88 d4 e5 bd 6c 43 c5 bd f5 bc 41 3d
       -0.07287305 -0.11222178 -0.09632 0.047299344
000260 60 5b 66 3b 73 f6 b5 bd 94 58 af bd 9f c0 d0 bc
       0.0035149679 -0.08884897 -0.08561817 -0.025482474
000270 cc f4 38 3c 24 80 8d 3d 0e 52 90 3d f8 b2 f7 3c
       0.011288833 0.069092065 0.07046901 0.030236706
000280 37 d1 ba 3d c7 08 ca 3c 47 a2 c0 3d 9f a7 2b bc
       0.09121936 0.024662388 0.09405952 -0.010476976
000290 e7 3e 11 bd 34 f1 c3 bc 0b d3 86 bc 12 fa 60 3d
       -0.03546038 -0.023918726 -0.016458055 0.054925986
0002a0 1d e6 e9 3d 45 fe 5c bd e3 95 9a bc 48 e1 a0 3d
       0.11420844 -0.053953428 -0.0188703 0.07855469
0002b0 86 e9 d2 3d 5e cf e5 bd fd c9 0d bd 65 0e bc 3d
       0.10298447 -0.11221193 -0.03461646 0.09182433
0002c0 a7 b9 7c bc 2e 8b 84 bd 28 ac 98 3d 5e 8e 06 3e
       -0.015425122 -0.06471859 0.07454711 0.13140246
0002d0 98 f3 3a bb f3 18 b4 bd b7 81 e1 bd 48 d5 19 3c
       -0.002852654 -0.08793821 -0.11011069 0.009389229
0002e0 15 c3 4b 3d 7e bf bd 3c 66 07 f2 3d 84 e9 82 bd
       0.04974659 0.0231626 0.118178174 -0.06392196
0002f0 ff 15 1f be 49 83 b0 3d 63 c7 44 bd 68 9f a1 3c
       -0.15535735 0.08618791 -0.048041712 0.019729331
000300 45 6e 27 3d f4 5e c8 bd bf 9f 7f 3c ac 97 3d 3d
       0.040876646 -0.09783736 0.015602051 0.046287224
000310 1e 45 73 3c 2e 2d 9f 3d 5c eb 3f 3d 09 a0 ac 3c
       0.014848022 0.07772289 0.046855316 0.021072404
000320 32 a4 93 3d 10 a8 7c 3d f4 14 b2 bc ab ff 80 3d
       0.07209052 0.061683714 -0.021738507 0.06298765
000330 41 da fd bc 5c 98 ad bd f8 8f 11 bd 5a f1 12 bd
       -0.03098786 -0.08476326 -0.03553769 -0.035874702
000340 1f dd db bd 7d 60 56 3a 18 a2 1d be 82 06 b8 3d
       -0.10735535 0.000817783 -0.15393865 0.08985616
000350 a8 95 ed bd 80 3d 60 bb 6d 4f dc 3b 8f 89 e4 3d
       -0.1160081 -0.0034216344 0.0067233355 0.1115905
000360 c5 39 8c 3d 35 a8 c1 3d a3 02 0e bd ce 48 b0 3d
       0.06846956 0.09455911 -0.034670483 0.086076364
000370 e9 fb e2 3d 2d c2 cc 3d 94 b9 f6 3c 12 d6 61 bd
       0.11083204 0.099979736 0.030117787 -0.055135794
000380 c6 b0 31 bd f4 46 d8 bc a8 23 8d bb e9 5a 45 3d
       -0.043381475 -0.02640102 -0.004307229 0.0481824
000390 7c a4 b8 bd 30 a3 ad bd 3c 50 8c 3d 03 1e 76 bb
       -0.09015748 -0.08478391 0.06851241 -0.003755451
0003a0 f8 59 bb bc d1 46 43 3d 6b 77 8d 3d 52 7c fb 3d
       -0.022870049 0.047674958 0.06907543 0.122795716
0003b0 01 a8 70 bd 06 62 ba 3c 0b 1e 9c bc b5 d6 38 be
       -0.05875397 0.02275182 -0.019057294 -0.18050654
0003c0 33 ea 8a 3d 50 ec b7 bd 48 b4 35 3d e6 c3 a8 3d
       0.06782951 -0.0898062 0.044361383 0.0824049
0003d0 56 4e 0d 3c 40 89 d5 bd 40 1f 5a 3c 72 cf 81 bd
       0.008624634 -0.10426569 0.013313115 -0.06338395
0003e0 b0 a5 58 bd 0b bb 99 3d bb 18 96 bd 92 99 f0 bd
       -0.052892387 0.07506379 -0.07328936 -0.11748041
0003f0 d2 4b 2f 3d a5 55 85 3d 40 6a 33 bd 70 01 77 39
       0.042796917 0.06510476 -0.0438025 0.00023556291

a2c_network.mu.bias f4 [6]
000000 2e 86 ca bd 30 75 0f 3e ef ad 52 3d 47 1f b8 3d
       -0.09888874 0.14009547 0.051435407 0.08990341
000010 a8 e5 11 3e c2 62 15 3d
       0.14247763 0.036471136

exp_avg f4 [6]
000000 36 07 70 3b f1 71 05 bc 82 6b e3 3b 18 cd 82 3c
       0.0036625392 -0.0081448415 0.006940306 0.015966937
000010 52 19 d2 3a 83 bd f0 3a
       0.0016029275 0.0018367026

exp_avg_sq f4 [6]
000000 17 c0 89 39 0c c1 8a 39 a6 33 91 39 72 30 94 39
       0.00026273794 0.00026465242 0.00027695036 0.00028264854
000010 64 1e 8c 39 8a ed 85 39
       0.00026725524 0.00025544717
