IsaacGymEnvs/isaacgymenvs/runs/Bolt_18-17-16-17/nn/last_Bolt_ep_400_rew_0.23868497.pth (torch, 612432 bytes, 36 tensors)

value_mean_std.running_mean f8 [1]
0	0x3fb8e2700ead387b	0.0972051654655121

value_mean_std.running_var f8 [1]
0	0x3f7861530dd308fa	0.005952190808957031

value_mean_std.count f8 []
0	0x4122c00200000000	614401.0

running_mean_std.running_mean f8 [30]
0	0x3fdbd7bc9cd4e1ea	0.4350425273474047
1	0x3fc1406f956c49f1	0.1347789268116482
2	0xbfc892511a5df391	-0.19196523463679374
3	0xbfce3c89b23dee6d	-0.23622246936053007
4	0x3fed8c4d5d5be545	0.9233767341058089
5	0x3fa8d0fc02088810	0.04846942448445202
6	0xbfb0e06adb8b1202	-0.06592433795874089
7	0xbfa1acef34b4ff0d	-0.03452250975032998
8	0xbfe1df9a389690f1	-0.5585452180135048
9	0x3ff7e84d17373bd7	1.494214144407797
10	0x3fe0574eb547f4a0	0.5106576481481575
11	0x3f998dc2e5974688	0.02495483900367515
12	0xbfccd74cdc137176	-0.22532044168373105
13	0x3fc45a85bc897831	0.15901252466113783
14	0x3fccedcba44c1392	0.22600694200823718
15	0x3fcfba90e68ef460	0.24788104303107428
16	0x3fd128038c062822	0.26806725191329595
17	0x3fc6247218c19456	0.17298723419949863
18	0x3f97724a5231517b	0.02289692045845147
19	0xbf8ab7764d887800	-0.01304523872482477
20	0xbf86efecf1fa09d0	-0.011199809202712269
21	0xbf7eb32d51ae0316	-0.007495095279296723
22	0x3f7170821d3a527e	0.004257686861497077
23	0xbf919d30c533919a	-0.017201196705075007
24	0xbfda83cf8c86042d	-0.41429508898733297
25	0x3fd3b0aba70ced5f	0.3076581126549253
26	0x3fdbaf7eabc0debf	0.4325863530425344
27	0x3fdf301056cb8713	0.48730858303143626
28	0x3fe1f4d2f1ff7a6d	0.5611357428095524
29	0x3fd4c162c2560d2b	0.32430333116663473

running_mean_std.running_var f8 [30]
0	0x3fe1736186de22e7	0.5453345903525503
1	0x3fc8f88d0101e840	0.19508516835395717
2	0x3fde1c1ca7d590f1	0.47046581640303403
3	0x3ff392dc8574e0b0	1.2233548367640132
4	0x40058ac4805a0126	2.692757609125823
5	0x3fd2b9a2ce89f897	0.2925803200704506
6	0x3fc9ea7e98ed09d0	0.20246870486341928
7	0x3fb5e97e559b0572	0.08559407796839993
8	0x3fd98fb65b5fcbff	0.3993965046240077
9	0x3fb5706862337d01	0.08374645612228805
10	0x3fb5d83c68ee0891	0.08533074914706364
11	0x3f2bdf6de2e29eb8	0.00021265236268174447
12	0x3fbeb207628291fc	0.11990400462179446
13	0x3fbb573b4e5f214f	0.10679979956978979
14	0x3fb4df6038c1b9dd	0.08153344522154478
15	0x3fb8fca7c30899f9	0.09760521422922598
16	0x3fb24ee1f8311a41	0.0715161543786076
17	0x3fbda4347ac66b97	0.11578681943357903
18	0x3fb40b204419d9b2	0.07829476988431486
19	0x3fba49ad2c678f3e	0.10268671354384382
20	0x3fbafa9aedb2950c	0.10538643172420253
21	0x3fb8a07e6eebcfba	0.09619894226108175
22	0x3fb6f1ebaedf1f86	0.08962891597104602
23	0x3fb5d7f96ddd170b	0.08532675678460692
24	0x3fe5419bd290e4d0	0.664258872281744
25	0x3fe4eab10a8bb40d	0.6536488729449289
26	0x3fe0d85077531e4d	0.5264055567321947
27	0x3fe26bc7ff567ee2	0.5756568896358341
28	0x3fdd5a76e3b40a1e	0.4586465095200384
29	0x3fe59df4e4a65269	0.6755318132223468

running_mean_std.count f8 []
0	0x4112c00400000000	307201.0

a2c_network.sigma f4 [6]
0	0xbed45646	-0.4147207
1	0xbf0a4796	-0.5401548
2	0xbeb82e8f	-0.3597302
3	0xbee808f1	-0.45319322
4	0xbee4bd82	-0.44675833
5	0xbe87d4da	-0.2652958

a2c_network.actor_mlp.0.weight f4 [256, 30]
0	0x3e83a9e1	0.25715545
1	0xbe917ae9	-0.28414086
2	0x3de3c44b	0.11121424
3	0x3dfee577	0.12446111
4	0x3d989ca1	0.074517496
5	0x3e37c58e	0.17946455
6	0x3cc33010	0.023826629
7	0x3e7e9253	0.24860506
8	0x3cb7a3ee	0.022417035
9	0xbdc874f3	-0.09787931
10	0x3debc072	0.115113154
11	0x3c1ca211	0.009560124
12	0x3d758fa6	0.059951447
13	0x3e3d064b	0.18459432
14	0x3dc9d052	0.09854187
15	0xbd37c654	-0.044866875
16	0x3dc1154e	0.09427892
17	0xbcfa25c7	-0.030535592
18	0x3deb69d2	0.11494793
19	0xbe1cf789	-0.15328802
20	0xbe509c46	-0.20372114
21	0xbcf738b2	-0.030178402
22	0xbe735270	-0.23761916
23	0x3de25239	0.11050839
24	0xbb45933b	-0.003014757
25	0x3d8b4fb6	0.06802313
26	0x3d6bf0c4	0.05760266
27	0x3cf1948b	0.029489776
28	0x3dc2e68e	0.09516631
29	0xbe304c27	-0.1721655
30	0x3e2de4b6	0.16981778
31	0xbe0d28dc	-0.13785118
32	0x3e458ace	0.19291231
33	0xbd824103	-0.06360056
34	0x3ddcd3a0	0.10782552
35	0xbc2c4ae6	-0.010515904
36	0x3d1cd8cb	0.038292687
37	0xbe00f18e	-0.12592146
38	0xbe4c8c5c	-0.19975418
39	0xbe17aad8	-0.14811265
40	0x3dd83634	0.105572134
41	0x3dbbdc64	0.091728956
42	0x3e12376b	0.14278953
43	0xbe5e1a0b	-0.21689622
44	0xbe49979b	-0.19686739
45	0xbde85954	-0.11345163
46	0xbe0a4bf7	-0.13505541
47	0xbc8c4f2a	-0.017127592
48	0x3d323598	0.043508142
49	0x3e06287c	0.13101381
50	0xbdbba07a	-0.09161468
51	0xbe238287	-0.15967761
52	0x3dc2a8b5	0.095048346
53	0xbd852ecb	-0.06503066
54	0x3d94dffa	0.07269283
55	0xbe0847bc	-0.13308614
56	0x3df20711	0.11817754
57	0xbdcd023c	-0.10010192
58	0xbdfbdc11	-0.12297834
59	0xbb74affd	-0.0037336343
60	0x3dd33a6b	0.10313877
61	0xbd7ad486	-0.061237834
62	0x3e2f07e0	0.17092848
63	0x3e3b3c66	0.18284759
64	0xbdfdc0e7	-0.12390309
65	0xbdc7a44a	-0.097481325
66	0x3e0ca052	0.13733032
67	0xbdeb2b0e	-0.114828214
68	0xbd805d37	-0.06267779
69	0xbe1134b2	-0.14180258
70	0xbe0fe696	-0.14052805
71	0x3cfbe527	0.030748917
72	0x3cd7afad	0.026328886
73	0xbe076d0d	-0.13225193
74	0xbc6639aa	-0.014051834
75	0xbdff8e10	-0.12478268
76	0xbe05b7c6	-0.13058385
77	0xbe17a6ac	-0.14809674
78	0xbd56cad2	-0.05243952
79	0xbe11ea16	-0.14249453
80	0x3e79391d	0.24338193
81	0x3d4ce5de	0.050023906
82	0x3db0c3e0	0.0863111
83	0xbe38803b	-0.18017666
84	0xbda534a6	-0.080666825
85	0xbdaea4c4	-0.0852752
86	0x3d92c837	0.07167094
87	0xbe431033	-0.19049148
88	0xbd00aaf3	-0.03141303
89	0xbdc918f6	-0.09819214
90	0x3c8095b4	0.015696384
91	0x3d292794	0.04129751
92	0xbdb522aa	-0.08844502
93	0xbe6767ea	-0.22598234
94	0xbdbc6c05	-0.092002906
95	0xbe1ad13b	-0.15118878
96	0xbd326ea5	-0.04356255
97	0xbe359a06	-0.17734537
98	0x3e4cf9bf	0.20017146
99	0xbdb83d40	-0.089960575
100	0x3e4d617a	0.20056716
101	0x3dabeb91	0.0839454
102	0xbe2b93fb	-0.16755669
103	0x3d7c2736	0.061560832
104	0xbd57b072	-0.052658506
105	0xbd14a676	-0.036291562
106	0xbe2003a0	-0.15626383
107	0xbe38d19c	-0.1804871
108	0x3cac9c07	0.021070493
109	0xbca5fdc0	-0.020262599
110	0x3dae7857	0.08519047
111	0xbe246e0c	-0.16057605
112	0x3e43191c	0.19052547
113	0xbddb3201	-0.10702897
114	0xbc78e8ca	-0.01519222
115	0x3ac048c1	0.001467012
116	0x3de6bfc2	0.11267044
117	0x3e28d43c	0.16487211
118	0x3e170d23	0.14751105
119	0xbde6faf2	-0.11278333
120	0x3e1cb87a	0.15304747
121	0xbd113c31	-0.035457794
122	0xbe06e54c	-0.13173407
123	0xbe24de03	-0.16100316
124	0x3e641a29	0.22275604
125	0xbe168615	-0.14699586
126	0x3d085c1e	0.033290975
127	0x3d65e15d	0.056123126
128	0xb9f552d6	-0.0004679176
129	0xbe3dab10	-0.18522286
130	0x3e5e82d4	0.21729594
131	0x3ceafd97	0.028685374
132	0x3d8e47f8	0.06947321
133	0xbe1fff7f	-0.15624808
134	0x3d81f6e7	0.06345921
135	0xbd3163ea	-0.043308176
136	0xbdd2192f	-0.1025871
137	0x3e249a43	0.16074471
138	0xbc63e5a1	-0.013909728
139	0xbce59058	-0.02802293
140	0xbd79c141	-0.060975317
141	0xbbda6f91	-0.006666132
142	0x3d8bc67e	0.06824969
143	0xbcdef562	-0.027216617
144	0xbdaf71b1	-0.08566607
145	0xbd1f59a7	-0.03890386
146	0xbdf7c80f	-0.12098705
147	0x3dac8bd2	0.08425106
148	0x3db9b511	0.09067739
149	0xbe500b6d	-0.20316859
150	0x3dcd6cea	0.10030539
151	0x3d7d6c23	0.061870705
152	0x3c0e7bd0	0.008696511
153	0xbd13d167	-0.036088374
154	0x3dc928e5	0.09822253
155	0x3e03ebe2	0.12882951
156	0x3dc84343	0.09778454
157	0xbd3aa92f	-0.045571502
158	0xbe4a1f9d	-0.19738622
159	0xbd003c1e	-0.031307332
160	0xbd6e331d	-0.058154214
161	0xbcf6f9b9	-0.030148374
162	0x3dde220b	0.10846337
163	0x3e2fedc6	0.17180547
164	0xbc3ffc63	-0.0117178885
165	0x3cf98413	0.030458486
166	0x3d2ef610	0.042715132
167	0x3c214637	0.009843401
168	0x3db50efe	0.0884075
169	0xbd0d0b09	-0.034434352
170	0xbe23e2e5	-0.16004522
171	0xbe0655f6	-0.13118729
172	0x3d9a28ff	0.07527351
173	0x3d611524	0.054951802
174	0xbc731b4d	-0.014838052
175	0xbe06c0b3	-0.13159446
176	0xbdf1015c	-0.117678374
177	0xbdcda703	-0.100416206
178	0xbda0796e	-0.07835661
179	0x3d899ddd	0.06719563
180	0x3e23cd60	0.15996313
181	0x3ddb36aa	0.10703786
182	0xbe5df0cf	-0.21673892
183	0xbd9bc037	-0.076050214
184	0xbdd3386d	-0.10313497
185	0x3eae219d	0.3401002
186	0x3d909d0b	0.070612036
187	0xbe150723	-0.14553504
188	0x3e23467f	0.15944861
189	0xbc72fcf4	-0.014830817
190	0xbe2791fb	-0.16364281
191	0x3de13559	0.109965034
192	0xbdf47357	-0.11936062
193	0xbcb472bd	-0.022027368
194	0xbe689727	-0.2271391
195	0x3e2ca632	0.16860273
196	0x3db4e5e0	0.08832908
197	0x3e0e3c1f	0.13890122
198	0xbe187408	-0.14888012
199	0xbe53a776	-0.2066935
200	0xbe185fde	-0.1488032
201	0x3cbb25df	0.022845207
202	0x3d8c649c	0.06855127
203	0x3e12a98c	0.1432249
204	0x3d2a2a4f	0.041544255
205	0x3d465817	0.048423853
206	0xbd63b4a0	-0.05559218
207	0xbdd5f770	-0.104475856
208	0xbe3ee201	-0.18640901
209	0xbe04f134	-0.12982637
210	0x3e77c445	0.24195965
211	0xbe341ba0	-0.17588663
212	0x3cc0c311	0.023530515
213	0xbd56a734	-0.05240555
214	0x3df682a3	0.12036636
215	0xbe3b1699	-0.18270339
216	0xbe36cc90	-0.17851472
217	0xbb560dc2	-0.003266201
218	0xbdd78ff0	-0.10525501
219	0x3d5a5424	0.0533029
220	0x3d77dc81	0.060513023
221	0xbd9a4cf6	-0.075342104
222	0xbcd509a8	-0.026005581
223	0xbdcec109	-0.10095412
224	0xbda45a27	-0.08025008
225	0xbdbc9b83	-0.09209349
226	0x3d583d3a	0.052792765
227	0xbe0a9ff8	-0.13537586
228	0x3e07df95	0.13268884
229	0x3d55d58f	0.05220562
230	0x3d993d70	0.074824214
231	0xbe135372	-0.143873
232	0x3db4aabf	0.0882163
233	0xbc13088d	-0.008974207
234	0x3de45aaa	0.11150105
235	0x3df6a206	0.12042622
236	0xbd51a65d	-0.051184047
237	0x3d3af4fe	0.0456438
238	0xbdc6d584	-0.097086936
239	0xbdf6ca09	-0.12050254
240	0x3e8c826f	0.27443263
241	0xbead2a45	-0.33821312
242	0x3e06a695	0.13149484
243	0x3ecc69dc	0.39924514
244	0x3e829640	0.25505257
245	0xbda84cb3	-0.08217754
246	0xbe7af899	-0.24508895
247	0x3ddbb64e	0.10728131
248	0x3e50f23d	0.20404907
249	0xbe58c1bb	-0.21167652
250	0x3d4dc913	0.050240587
251	0xbdb549d9	-0.08851976
252	0xbca0d4a0	-0.019632638
253	0xbd85068b	-0.064953886
254	0xbc525de8	-0.012839772
255	0xbce4ce93	-0.027930534

a2c_network.actor_mlp.0.bias f4 [256]
0	0x3bab40d5	0.0052262344
1	0xbd9e9266	-0.07742767
2	0xbc8e2de6	-0.01735587
3	0xbcc54fa5	-0.024085829
4	0xbbb41de9	-0.0054967296
5	0x3cc9afb0	0.024619907
6	0x3d80f39b	0.06296464
7	0x3d0a30e7	0.033738043
8	0x3be088a6	0.0068522273
9	0xbe0f3684	-0.1398564
10	0xbda08c3f	-0.0783925
11	0x3d22e0d1	0.039765183
12	0xbd604ebc	-0.054762587
13	0x3d3c8fd6	0.04603561
14	0x3de72c27	0.11287718
15	0x3d1b7905	0.03795721
16	0xbd90cb88	-0.070700705
17	0xbd849379	-0.06473441
18	0xbbeca19d	-0.0072214142
19	0x3d5596c6	0.052145742
20	0xbd21d3ce	-0.039508633
21	0x3c67bca9	0.014144101
22	0x3c8e4856	0.017368477
23	0x3d47dc5c	0.048794135
24	0x3dbcb96c	0.09215054
25	0x3b671f1e	0.003526635
26	0xbd32e9a7	-0.04367986
27	0xbd02aa28	-0.031900555
28	0xba6763b8	-0.000882681
29	0x3b0e87fd	0.0021748536
30	0x3d2ce31a	0.04220877
31	0xbcf30324	-0.029664584
32	0xbd2b7057	-0.041855182
33	0xbe445b2b	-0.19175403
34	0x3c97311b	0.018456032
35	0xbd1c7bc6	-0.038203977
36	0xbcd42e22	-0.025900904
37	0xbd468d9c	-0.048474893
38	0xbd6b1a9e	-0.05739843
39	0xbd0c6efe	-0.034285538
40	0xbb96603a	-0.004589108
41	0x3cfe8703	0.031070238
42	0xbd1f26ab	-0.038855236
43	0xbd61d430	-0.055134
44	0x3c0415cf	0.00806184
45	0xbd1b0a4b	-0.037851613
46	0xbd568f89	-0.05238298
47	0x3c505d3a	0.012717539
48	0x3d1a3e1d	0.037656892
49	0xbda28973	-0.079363726
50	0xbb97cdd8	-0.004632693
51	0x3d72dc12	0.059291907
52	0xbd694bfc	-0.05695723
53	0xbc7e6850	-0.0155278
54	0xbbeeccd3	-0.0072876005
55	0x3cf72d79	0.03017305
56	0xbd82b7ed	-0.06382737
57	0x3d0eb1db	0.034837585
58	0x3c9cd7db	0.019145897
59	0x3c45ef59	0.012080991
60	0x3d13b1e0	0.036058307
61	0x3d342e68	0.04398957
62	0x3ccbc06a	0.024872024
63	0xbd3d518e	-0.046220355
64	0xbdbd752d	-0.09250865
65	0xbd81671f	-0.06318497
66	0x3d446dfa	0.047956444
67	0xbd1aa137	-0.037751403
68	0x3d18c6ea	0.037299074
69	0x3ca0d2ec	0.019631825
70	0x3d0d3c61	0.03448141
71	0xbd1bea15	-0.038065035
72	0xbb0d1f65	-0.0021533605
73	0xbdaf76a3	-0.0856755
74	0xbc967a23	-0.018368786
75	0xbc3e5b35	-0.011618425
76	0xbd9cbe57	-0.07653492
77	0x3cb7fc94	0.022459306
78	0x3d9180e1	0.0710466
79	0xbd8a3cb1	-0.06749857
80	0x3d05c03c	0.032654032
81	0xbd3028cf	-0.043007668
82	0xbc96cb20	-0.018407404
83	0x3b71510a	0.0036821985
84	0xbd29e9de	-0.0414828
85	0xbd142c27	-0.03617492
86	0xbd991b56	-0.07475917
87	0xbd04f752	-0.032462426
88	0x3cc946dd	0.024569923
89	0xbc696e48	-0.0142474845
90	0x3ad7cb37	0.0016463761
91	0x3d7df6b0	0.062002838
92	0xbcd2bff0	-0.025726289
93	0x3db45dd0	0.08806956
94	0x3dc78da8	0.09743816
95	0x3c7db886	0.015485888
96	0xbc593fe4	-0.013259862
97	0x3d89a2ff	0.06720542
98	0xbb673777	-0.0035280862
99	0xbdb05290	-0.086094975
100	0xbafbca25	-0.0019210024
101	0xbca765b4	-0.020434238
102	0x3d0c4b5e	0.034251563
103	0xbdfc06fd	-0.123060204
104	0x3c39bedd	0.011337009
105	0xbdb06ed7	-0.08614891
106	0x3d5317a1	0.051536206
107	0xbd1663dc	-0.036716327
108	0x3c8d0560	0.017214477
109	0xbda9025d	-0.08252404
110	0xbd0691b5	-0.0328538
111	0xbc91fe44	-0.017821439
112	0x3d59b722	0.053153165
113	0xbd13f48b	-0.036121886
114	0xbb967889	-0.0045920056
115	0xbcc3d67f	-0.02390599
116	0xbc016ec2	-0.007899942
117	0xbd23b343	-0.03996588
118	0x3af85222	0.0018945376
119	0x3c9baf7c	0.019004576
120	0xbc96def0	-0.018416852
121	0xbc67a835	-0.014139225
122	0xbc14d0e4	-0.0090830065
123	0xbb96c6d0	-0.004601337
124	0xbd02da95	-0.031946737
125	0xbb377709	-0.0027994534
126	0x3d083405	0.033252735
127	0x3cb3cc80	0.0219481
128	0x3baae704	0.0052155275
129	0xbe01e904	-0.12686545
130	0xbd7bd00c	-0.061477706
131	0x3d318460	0.043339133
132	0xbde866df	-0.11347746
133	0x3d64b6c9	0.05583838
134	0x3d4e61bf	0.050386187
135	0x3d9d638f	0.07685005
136	0x3d95d197	0.07315367
137	0x3d5bdac1	0.053675417
138	0xbcbaeca3	-0.022817915
139	0x3ceac5f1	0.028658839
140	0xbbd9f6b2	-0.006651723
141	0x3c88ca53	0.016698038
142	0xbab6a42a	-0.0013934423
143	0xbda0f228	-0.07858688
144	0x3d28c15d	0.04120003
145	0x3da4d01e	0.08047508
146	0x3dd508ec	0.10402092
147	0x3a9632a4	0.0011459184
148	0xbb88d216	-0.004175435
149	0xbcf0a558	-0.029375717
150	0x3cc7f662	0.024409477
151	0x3d30b5d7	0.043142166
152	0xbc401c50	-0.0117255
153	0xbd676d4b	-0.056500714
154	0x3c98d493	0.01865605
155	0xbd3dfa60	-0.046381354
156	0x3d838afc	0.064229935
157	0xbdc9117c	-0.09817788
158	0xbe2898fa	-0.16464606
159	0xbd9c0e11	-0.076198705
160	0x3d03312c	0.032029316
161	0xbadffa1d	-0.0017088089
162	0xbd0235cc	-0.031789586
163	0x3d0f107e	0.034927838
164	0x3bba760c	0.005690342
165	0xbd45d519	-0.04829893
166	0xbd2488fd	-0.040169705
167	0xbc071229	-0.008244076
168	0xbd66d74f	-0.056357678
169	0xbd89106a	-0.06692584
170	0xbd2a3b79	-0.041560624
171	0xbd3a5a3c	-0.04549621
172	0xbd0f048d	-0.03491645
173	0xbd4e69bb	-0.0503938
174	0x3d8458ff	0.06462287
175	0xbcee2154	-0.029068626
176	0x3cfe20fb	0.031021586
177	0x3d25d360	0.040484786
178	0xbe0d2494	-0.13783485
179	0x3cd81e7a	0.02638172
180	0x3db94376	0.0904607
181	0x3d9eddad	0.07757125
182	0x3c0aec7f	0.008479237
183	0x3d4d56d3	0.05013163
184	0x3d7f441e	0.06232082
185	0xbc9946d1	-0.018710526
186	0xbd7cf3b9	-0.06175587
187	0xbdbe6e11	-0.09298337
188	0xb9f5fe21	-0.00046919382
189	0x3c3bfad7	0.011473379
190	0x3c506db5	0.012721469
191	0xbda8bcb2	-0.08239116
192	0xbcd011c7	-0.025399102
193	0x3d656087	0.05600026
194	0xbc1030df	-0.008800714
195	0xbd4e50a1	-0.050369862
196	0xbcd2e737	-0.025745017
197	0xbc55eb27	-0.013056553
198	0x3b889452	0.004168072
199	0xbdc7ae90	-0.09750092
200	0x3dc03c92	0.09386553
201	0x3ce928a9	0.028461771
202	0xbd28b05e	-0.04118382
203	0xbc599007	-0.013278968
204	0x3c8ff36c	0.017572127
205	0xbdbadfc4	-0.09124711
206	0xbd54381e	-0.05181133
207	0xbceaaf11	-0.028647931
208	0x3c676310	0.014122739
209	0x3b228aaa	0.0024801889
210	0xbcbbf9c5	-0.022946248
211	0xbd29aed4	-0.041426495
212	0xbd2de689	-0.042456184
213	0xbd1b6242	-0.037935503
214	0xbd37ce50	-0.04487449
215	0xbd9c78e2	-0.07640244
216	0xbcc7506c	-0.02433034
217	0xba9b7945	-0.0011861703
218	0x3d8544dd	0.06507275
219	0x3b1f8183	0.002433867
220	0x3d16308f	0.036667403
221	0xbc6c3735	-0.014417459
222	0xbb68d06d	-0.0035524622
223	0x3b8c13d4	0.0042748246
224	0xbd0f62db	-0.035006385
225	0xbd7a759b	-0.061147314
226	0x3cb69429	0.022287445
227	0x3da1e35a	0.07904692
228	0xbdc3f6fe	-0.095685944
229	0x3ce6ecb2	0.028189037
230	0xbc4e4f5f	-0.012592166
231	0x3d3c7225	0.046007294
232	0xbb0162e3	-0.001974278
233	0x3903cffb	0.00012570612
234	0x3d459169	0.048234377
235	0x3e26be0a	0.16283432
236	0xbc0af77e	-0.008481858
237	0xbcdf5b5d	-0.027265245
238	0xbce2b5ec	-0.027674638
239	0x3cd2a36d	0.025712693
240	0x3c2f638e	0.010704888
241	0xbd6128c0	-0.054970503
242	0xbd1a0799	-0.037604902
243	0xbda336f1	-0.079694636
244	0xbd98a894	-0.07454029
245	0xbb8e44a3	-0.004341678
246	0xbc497922	-0.012296947
247	0xbbf0ea27	-0.007352132
248	0x3c72295c	0.014780369
249	0xbd1fa501	-0.03897572
250	0x3cfc0649	0.030764716
251	0x3b9dd66e	0.004816822
252	0xbd489cfb	-0.048977833
253	0xbd86dfc3	-0.06585648
254	0x3cf6663f	0.030078052
255	0xbdc770fb	-0.09738346

a2c_network.actor_mlp.2.weight f4 [128, 256]
0	0xbdaa3a24	-0.08311871
1	0xbdbb95a3	-0.091594
2	0xbd8d4ac2	-0.068990245
3	0xbc032561	-0.008004517
4	0xbdf9dbf2	-0.12200154
5	0xbd91b671	-0.07114876
6	0xbe15c25b	-0.14624922
7	0x3d43a2ae	0.047762565
8	0xbdc5f735	-0.096662916
9	0xbd8db440	-0.069191456
10	0x3d82f092	0.063935414
11	0xbd844c24	-0.06459835
12	0x3db66cfb	0.08907505
13	0xbcce7a9a	-0.025204945
14	0xbe0b479e	-0.13601539
15	0x3d80958f	0.06278526
16	0x3c80d35e	0.015725788
17	0x3c184177	0.009292952
18	0xbddec65b	-0.10877677
19	0x3ddacf87	0.10684114
20	0x3d4d2a20	0.050089
21	0x3d6d4beb	0.05793373
22	0xbcc5c9a0	-0.024143994
23	0xbb0d6e03	-0.0021580465
24	0x3d4959de	0.04915797
25	0x3af414da	0.0018621937
26	0xbcdf9ddc	-0.027296953
27	0xbd901dc2	-0.07036926
28	0x3d5b87db	0.05359636
29	0x3d18db65	0.037318606
30	0x3d7de73a	0.061988093
31	0xbdc9feeb	-0.09863075
32	0x3c3a89d8	0.011385404
33	0xbd70fb5c	-0.058833465
34	0xbb252c63	-0.0025203458
35	0xbdf39fb5	-0.11895696
36	0xbd28aae1	-0.041178588
37	0x3dc2f1ff	0.09518813
38	0xbe163f2d	-0.14672537
39	0xba2024e8	-0.0006109015
40	0x3deed27a	0.11661239
41	0xbdc07750	-0.09397757
42	0xbb8f0f5f	-0.004365846
43	0x3e12f585	0.14351471
44	0x3c3771df	0.011196583
45	0xbdb7d3db	-0.08975955
46	0x3cab210f	0.020889787
47	0x3c60a61e	0.01371148
48	0xbe0fd182	-0.14044765
49	0x3de3e2b9	0.11127228
50	0x3d8dca63	0.06923368
51	0x3dad0fe5	0.08450297
52	0x3e0b09a5	0.13577898
53	0xbc00a662	-0.007852169
54	0x3e0ec21a	0.13941231
55	0x3d9e2398	0.07721633
56	0x3d9296c4	0.071576625
57	0xbdcdf2ee	-0.10056101
58	0xbdf9192f	-0.121630065
59	0x3cdf93cf	0.02729216
60	0xbcf433d6	-0.029809874
61	0xbe25ee6c	-0.16204232
62	0xbcabb90b	-0.020962259
63	0x3dfcc7b2	0.12342776
64	0xbd593931	-0.053033058
65	0xbca0f020	-0.01964575
66	0x3dbaf702	0.09129144
67	0xbcf2821d	-0.029603058
68	0x3bdd36e1	0.006750927
69	0x3d0d0094	0.03442438
70	0xbd833b2e	-0.06407772
71	0xbdff53b1	-0.12467135
72	0x3da27822	0.0793307
73	0xbd2ec1d8	-0.042665333
74	0xbd325941	-0.04354215
75	0x3d42ff61	0.04760683
76	0x3db0a548	0.08625275
77	0xbd9c157f	-0.076212876
78	0xbd7a631e	-0.06112968
79	0x3c8ea444	0.017412312
80	0xbe144135	-0.14478
81	0xbd61c8be	-0.055123083
82	0xbcb054de	-0.021524843
83	0xbdeac6ee	-0.11463724
84	0xbc87cf17	-0.01657824
85	0x3d748880	0.05970049
86	0xbd830d8a	-0.06399067
87	0xbdce011c	-0.10058805
88	0xbcfcd78d	-0.030864501
89	0xbdb86981	-0.09004498
90	0x3e19194a	0.14951053
91	0x3e19c036	0.15014729
92	0xbdc6e362	-0.097113386
93	0xbc953897	-0.01821546
94	0x3dc24908	0.09486586
95	0xbb69c762	-0.003567182
96	0xbdb2f4ef	-0.087381236
97	0xbd3fcd85	-0.046826858
98	0xbdb22119	-0.08697719
99	0x3dd9f827	0.106430344
100	0xbc4398a2	-0.011938246
101	0x3dc5b50b	0.09653672
102	0x3c376986	0.011194592
103	0xbd12d6dd	-0.03584944
104	0xbe19445d	-0.14967485
105	0xbd0373a2	-0.032092698
106	0xbd8d034b	-0.06885394
107	0xbe1bf910	-0.15231729
108	0x3de08bb4	0.10964146
109	0xbdedf86a	-0.11619647
110	0xbbaeef77	-0.005338605
111	0xbd84bb84	-0.06481078
112	0x3da612ca	0.081090525
113	0x3ddd89dc	0.1081731
114	0xbc91a1cf	-0.017777352
115	0xbe00baf8	-0.12571323
116	0x3c3dbcee	0.011580689
117	0x3bec0cae	0.00720366
118	0x3d84e24c	0.06488475
119	0x3d0d01fb	0.034425717
120	0x3b2e765c	0.002662084
121	0xbc17af8b	-0.009258161
122	0xbd717136	-0.058945857
123	0xbe195d21	-0.14976932
124	0x3d2a180a	0.04152683
125	0xbd23d9aa	-0.040002503
126	0x3d88beeb	0.0667704
127	0xbd508286	-0.050905727
128	0xbd60d9c2	-0.05489517
129	0xbc0c76c8	-0.0085732415
130	0x3db5e428	0.08881408
131	0xbe33ef1b	-0.1757168
132	0x3d73f747	0.059561994
133	0xbc274a01	-0.010210515
134	0xbccb0d27	-0.024786545
135	0x3d25db41	0.0404923
136	0xbe051588	-0.12996495
137	0xbd059a2d	-0.032617737
138	0x3d887f3a	0.066648915
139	0xbc4eb26a	-0.012615779
140	0xbe272fdf	-0.16326855
141	0xbe06eea3	-0.1317697
142	0x3d9435da	0.07236834
143	0xbcf29367	-0.029611303
144	0xbd1d6012	-0.038421698
145	0x3cfd8bdc	0.03095048
146	0x3bda2d9b	0.0066582686
147	0x3c4187cc	0.011812162
148	0xbcd77f3e	-0.026305791
149	0x3d2cb530	0.04216498
150	0x3cc03e73	0.023467278
151	0xbd82a10d	-0.06378374
152	0x3e3ce5d6	0.1844705
153	0xbce9b4bb	-0.028528562
154	0xbdaa9dc5	-0.083308734
155	0x3e2ad1f7	0.16681658
156	0x3d8f5a4f	0.06999647
157	0x3dc6ad6b	0.097010456
158	0x3d1b32ba	0.037890173
159	0x3d7dd633	0.061971854
160	0xbb7b3cbd	-0.0038335763
161	0xbd552708	-0.052039176
162	0x3de7a88d	0.113114454
163	0x3d07c2af	0.03314465
164	0xbd110c09	-0.03541187
165	0xba979402	-0.0011564496
166	0xbe2e9c67	-0.1705185
167	0xbd28dcd2	-0.041226216
168	0xbc454c0f	-0.01204206
169	0xbd35be9b	-0.04437123
170	0xbcc1c9ca	-0.02365579
171	0xbddb3fa5	-0.107054986
172	0x3da99cd0	0.08281863
173	0xbd2c1860	-0.042015433
174	0xbe254b0d	-0.16141911
175	0x3e1bc57e	0.15212056
176	0xbd62ddd2	-0.055387326
177	0xbcf03c0d	-0.02932551
178	0xbc80df1a	-0.015731383
179	0x3d89e949	0.06733949
180	0x3e0f2b42	0.13981345
181	0xbc8bd196	-0.017067712
182	0x3d124e7c	0.03571938
183	0xbd48479e	-0.048896424
184	0x3d730353	0.059329342
185	0x3dc5264b	0.096264444
186	0x3dadd53d	0.084879376
187	0x3be91c55	0.007113973
188	0x3d458e3a	0.04823134
189	0xbc61d243	-0.01378304
190	0xbe275906	-0.16342553
191	0xbddd3aa1	-0.10802198
192	0x3d67cf23	0.056594025
193	0xbcc99e30	-0.024611562
194	0x3dd89cc2	0.10576774
195	0xbd8f1236	-0.06985895
196	0xbd85a3ba	-0.06525369
197	0x3da9dc7e	0.08294009
198	0xbcc719ee	-0.024304356
199	0x3d14a1a3	0.03628696
200	0x3d163bec	0.03667824
201	0xbb10b1be	-0.00220786
202	0x3d4da540	0.050206423
203	0xbc43773f	-0.011930286
204	0xbdfb13c3	-0.122596286
205	0xbd18bac5	-0.037287492
206	0xbca89d02	-0.02058268
207	0xbd9c136f	-0.07620894
208	0xbd801f1a	-0.06255932
209	0x3cd9a5db	0.026568344
210	0xbe17b0f4	-0.14813596
211	0x3cba8ca7	0.022772146
212	0x3d460248	0.04834202
213	0xbdfa9e2c	-0.122372
214	0x3d8be38f	0.06830513
215	0xbd77b177	-0.060471978
216	0x3e21fb4f	0.15818523
217	0x3e0b77ce	0.1361992
218	0xbb57c109	-0.0032921454
219	0xbe2d073a	-0.16897288
220	0xbd66b06f	-0.056320604
221	0xbe2ca482	-0.1685963
222	0x3da75662	0.08170773
223	0x3ccdb997	0.02511291
224	0xbcbedb4d	-0.02329793
225	0x3c36c4cc	0.0111553185
226	0x3d9579dd	0.07298634
227	0x3d991ad1	0.07475818
228	0xbd8d8a85	-0.06911186
229	0x3db5bdd1	0.08874095
230	0xbde89dd4	-0.11358228
231	0x3cd62c4d	0.026144171
232	0xbe17a21e	-0.14807937
233	0x3dc7e40d	0.09760294
234	0x3d7edb8e	0.062221102
235	0xbe2897ee	-0.16464207
236	0x3baaf6b2	0.0052173967
237	0x3e3bcfb2	0.18340948
238	0x3d359f6d	0.044341493
239	0xbb09429d	-0.0020944246
240	0xbcab0cdc	-0.020880155
241	0xbddd99c1	-0.10820342
242	0x3d0ca3e9	0.034336004
243	0x3bdba0e1	0.006702528
244	0x3db3e690	0.08784211
245	0xbd116904	-0.03550054
246	0xbe3f2bde	-0.18669078
247	0x3e533774	0.20626622
248	0xbcc1fb9c	-0.023679547
249	0xbc334d91	-0.010943786
250	0xbda081a8	-0.0783723
251	0x3d43ff1f	0.047850724
252	0xbc91b106	-0.017784607
253	0xbd83bb1a	-0.06432171
254	0xbd7971f9	-0.06089971
255	0xbdb56aab	-0.08858236

a2c_network.actor_mlp.2.bias f4 [128]
0	0xbce688d6	-0.02814142
1	0xbddb9e35	-0.10723535
2	0xbd985a84	-0.074391395
3	0x3e32395d	0.17404695
4	0xbdabc512	-0.083871976
5	0xba73bd02	-0.0009297879
6	0xbd233d7a	-0.03985355
7	0xbcd021ff	-0.025406836
8	0x3d5fb334	0.05461426
9	0xbd99aa74	-0.075032145
10	0x3d11fb48	0.03564003
11	0xbc3eff0f	-0.01165749
12	0xbd9ac422	-0.075569406
13	0xbddeb0da	-0.108735755
14	0x3dbd1c93	0.09233966
15	0xbe037cac	-0.12840527
16	0x3d91ea63	0.07124784
17	0x3b59ce58	0.0033234563
18	0xbe4a52b8	-0.19758117
19	0xbdbc928d	-0.0920764
20	0xbdc38890	-0.095475316
21	0xbdf8f887	-0.12156778
22	0x3da7a97f	0.08186626
23	0xbd0de64c	-0.034643456
24	0xbe03e92c	-0.12881917
25	0xbccaa4e4	-0.02473683
26	0x3ca82dab	0.020529589
27	0x3d9fd757	0.07804745
28	0x3c859320	0.016305506
29	0xbe0de017	-0.13855015
30	0xbc9c83d6	-0.019105833
31	0xbcea7b2a	-0.028623182
32	0xbd72d52f	-0.05928534
33	0x3b9b1035	0.0047321566
34	0x3c70e5f6	0.014703264
35	0x3cc29056	0.023750465
36	0x3d9e4abe	0.077291
37	0xbd8f4b9c	-0.06996843
38	0x3c42e7cb	0.011896084
39	0x3cbf287d	0.023334736
40	0x3d71c1d2	0.059022732
41	0xbcd54149	-0.026032107
42	0xbdd26b00	-0.10274315
43	0xbdf64ae8	-0.12026006
44	0xbc767478	-0.015042417
45	0xbd9c6d4e	-0.07638036
46	0x3d3e0a60	0.046396613
47	0xbd83614d	-0.06415043
48	0xbd01adbb	-0.031659823
49	0xbd4c2144	-0.049836412
50	0xb9e82e91	-0.00044285183
51	0xbc6b0697	-0.014344833
52	0xbd81aa29	-0.063312836
53	0x3de73af0	0.11290538
54	0xbca40e38	-0.020026311
55	0xbcf59b85	-0.029981384
56	0x3d50461d	0.050848115
57	0x3e093d88	0.13402379
58	0xbd2fdfab	-0.042937916
59	0x3c2495d3	0.0100454865
60	0xbe411af3	-0.18857937
61	0xbb2ce006	-0.0026378646
62	0x3d47a20a	0.048738517
63	0xbdb79bf2	-0.08965291
64	0xbdceedbd	-0.10103939
65	0x3b697fc9	0.0035629144
66	0xbd94e779	-0.072707124
67	0x3cac5749	0.021037715
68	0xbe3db4a2	-0.18525937
69	0x3b0ca386	0.0021459772
70	0xbca2838c	-0.019838117
71	0x3d8e3abf	0.06944799
72	0xbd98cf84	-0.074614555
73	0x3cfa7cbc	0.030577056
74	0xbd8a0ec1	-0.06741095
75	0xbb576292	-0.003286515
76	0x3cdb16c9	0.026744263
77	0x3c2e05d3	0.010621506
78	0xbcf015c3	-0.029307252
79	0x3d4e8e9c	0.05042897
80	0x3bce3434	0.006292844
81	0x3c738725	0.014863764
82	0xbd3cb547	-0.046071317
83	0xbe696192	-0.22791126
84	0x3c9dfc9d	0.019285494
85	0xbd4636b7	-0.048392024
86	0xbd90bd41	-0.07067347
87	0x3d656260	0.05600202
88	0xbde03d5c	-0.10949203
89	0xbcf66c05	-0.030080805
90	0xbdc35927	-0.09538489
91	0xbdd24f34	-0.10269013
92	0xbc97319b	-0.01845627
93	0x3da8b6b5	0.082379736
94	0xbd57cda3	-0.052686345
95	0xbc5c455d	-0.013444272
96	0x3c8e5241	0.017373206
97	0xbb6fdd9a	-0.003660059
98	0xbcdaa615	-0.026690522
99	0xbe080492	-0.13282993
100	0xbc300a5b	-0.010744656
101	0xbdc0bdbc	-0.09411189
102	0xbc40a06a	-0.011756996
103	0xbd9cdbdb	-0.076591216
104	0x3b830cd4	0.003999332
105	0xbd010e4c	-0.031507775
106	0x3cf1b712	0.02950624
107	0xbd38d8ef	-0.04512876
108	0xbd8f86ff	-0.0700817
109	0xbdaa6ef9	-0.083219476
110	0xbcd4b7d3	-0.02596656
111	0xbd12593b	-0.035729628
112	0xbd2e1549	-0.042500768
113	0xbe0989ad	-0.13431425
114	0x3ce533a8	0.027978733
115	0x3d3f894b	0.046761792
116	0xbd8dd359	-0.06925077
117	0xbd6985be	-0.057012312
118	0xbdf0726f	-0.117405765
119	0x3bb01e35	0.0053746947
120	0xbc0efc28	-0.008727111
121	0xbe096cc3	-0.13420396
122	0xbd96a639	-0.07355923
123	0xbd24eba5	-0.04026379
124	0x39d8e30a	0.00041367888
125	0x3de36386	0.11102967
126	0x3cfdcf09	0.030982511
127	0x3d7708fe	0.06031131

a2c_network.actor_mlp.4.weight f4 [64, 128]
0	0xbcda4b05	-0.0266471
1	0xbd881bf3	-0.06645956
2	0x3d9e1df7	0.07720559
3	0xbe376d7a	-0.17912856
4	0xbd7a557c	-0.06111668
5	0x3d6a0fbe	0.05714392
6	0x3dba718a	0.09103687
7	0x3addc71c	0.0016920301
8	0xbdfb1458	-0.1225974
9	0x3daa4d17	0.08315485
10	0x3cce2084	0.025161989
11	0xbc44b007	-0.012004859
12	0x3d81a20a	0.063297346
13	0x3d0b0918	0.03394422
14	0xbd82d3ea	-0.06388076
15	0xbd0c2de2	-0.034223445
16	0x3cc0768a	0.023494024
17	0xbd22e88b	-0.03977255
18	0xbdaca516	-0.08429925
19	0xbc429c38	-0.011878066
20	0xbcff33fd	-0.03115272
21	0xbcaaddd6	-0.020857733
22	0xbdaf322e	-0.08554493
23	0xbdccfb1e	-0.10008834
24	0x3d83cb3b	0.064352475
25	0x3c9f74d5	0.01946489
26	0x3dbfa797	0.09358137
27	0x3cfb708a	0.030693311
28	0xbcc64cfc	-0.02420663
29	0x3e1d36bd	0.15352912
30	0xbb71e485	-0.003690989
31	0xbe11c0e9	-0.14233746
32	0xbd123abf	-0.035700556
33	0xbd7dffea	-0.062011637
34	0xbc77854f	-0.015107467
35	0xbe257941	-0.16159536
36	0xbd9b0c00	-0.07570648
37	0xbdbf21c4	-0.09332612
38	0xbdd62a7b	-0.10457321
39	0xbe13cc6b	-0.14433448
40	0xbddbd054	-0.10733095
41	0xbd2f63b1	-0.042819683
42	0x3d9683fd	0.073493935
43	0x3c473a86	0.012159949
44	0xbe18078f	-0.14846633
45	0xbd3bdd61	-0.04586542
46	0xbe292f18	-0.16521871
47	0xbd9d63b1	-0.0768503
48	0xbcad2ea0	-0.021140397
49	0xbd63b4b5	-0.055592258
50	0x3d24deb1	0.040251438
51	0xbe23fa00	-0.16013336
52	0xbd16663f	-0.036718603
53	0xbd53f1a8	-0.051744133
54	0x3d1df08a	0.038559474
55	0x3d6667d0	0.056251347
56	0xb91d1274	-0.00014979561
57	0xbbc1873a	-0.005906013
58	0xbdd87f4f	-0.10571157
59	0x3bcf7415	0.0063309767
60	0x3aa790ab	0.0012784203
61	0xbda4fd5c	-0.08056137
62	0xbe212cae	-0.157397
63	0xbbaf7037	-0.005353953
64	0xbdb29d95	-0.08721463
65	0xbda12fb0	-0.07870424
66	0x3e000016	0.12500033
67	0x3dbc0c97	0.09182089
68	0xbca0809b	-0.019592574
69	0xbc55665b	-0.013024892
70	0xbdbd051f	-0.092294924
71	0xbdf426c3	-0.11921456
72	0xbdd59213	-0.10428252
73	0x3b2e0719	0.0026554524
74	0xbd0f4711	-0.034979884
75	0xbdac81a5	-0.08423165
76	0x39686d51	0.00022165968
77	0xbdf6a10d	-0.12042437
78	0x3c386951	0.011255578
79	0xbe0565c4	-0.13027102
80	0xbcbccb2f	-0.023046104
81	0x3dd45375	0.10367481
82	0xbdbea4aa	-0.09308751
83	0x3d91f50b	0.07126816
84	0xbd9ceea6	-0.07662706
85	0xbd412b78	-0.047160596
86	0xbdbd2109	-0.092348166
87	0xbd421801	-0.047386173
88	0x3d4ed0a4	0.050491944
89	0x3c14eb97	0.009089372
90	0xbd0d4c87	-0.03449681
91	0x3d214489	0.039372
92	0xbdcf9872	-0.101364985
93	0xbd9e995e	-0.07744096
94	0xbddb3505	-0.10703472
95	0x3cc31865	0.023815343
96	0xbcef5c9d	-0.029218966
97	0xbc83ae48	-0.016074315
98	0xbd21f996	-0.039544664
99	0x3c9799d2	0.018505964
100	0xbda49633	-0.08036461
101	0xbc8304d5	-0.015993515
102	0xbcc7f4f2	-0.024408791
103	0x3d973765	0.073836125
104	0xbc3b3088	-0.011425145
105	0x3d227770	0.039664686
106	0xbd25ddeb	-0.04049484
107	0x3c4a96d8	0.0123650655
108	0xbd90d399	-0.07071609
109	0x3d83913d	0.064241864
110	0x3c877c47	0.016538752
111	0xbc4c45ae	-0.012467785
112	0xbd52f7fc	-0.051506028
113	0x3ae5a14f	0.0017519387
114	0x3cc45d37	0.02397023
115	0x3d566c6a	0.052349485
116	0x3da8547a	0.082192376
117	0x3c39d0b6	0.0113412645
118	0xbde60e59	-0.11233205
119	0xbd0d177a	-0.034446217
120	0xbd4126e5	-0.047156233
121	0x3d74900e	0.059707694
122	0xbcbc557f	-0.022989986
123	0x3c968bf7	0.018377287
124	0xbd1b9729	-0.037985954
125	0xbd1fd08c	-0.039017245
126	0xbe21f00d	-0.15814228
127	0xbda401aa	-0.0800813
128	0x3c306e49	0.0107684815
129	0xbce0f21a	-0.027459193
130	0x3c32e4c2	0.010918798
131	0xbd44ec36	-0.04807683
132	0x3d877c9b	0.066155635
133	0x3d2098dc	0.039208278
134	0xbd847f70	-0.06469619
135	0xbccd4c76	-0.025060873
136	0xbceea44f	-0.029131083
137	0xbdd2509c	-0.10269281
138	0x3d08ff97	0.033446874
139	0x3c2066ed	0.009790164
140	0xbe241fe7	-0.16027795
141	0x3e1eb60c	0.15499133
142	0xbd099901	-0.03359318
143	0x3a96540e	0.0011469142
144	0xbc5ed046	-0.013599461
145	0xbde459d3	-0.11149945
146	0xbdf45a3f	-0.119312756
147	0xbdaa8a16	-0.08327119
148	0xbd42f16c	-0.04759352
149	0x3e35f55b	0.17769377
150	0xbdc8151e	-0.09769653
151	0xbc922d2e	-0.017843809
152	0xbd1f141a	-0.03883753
153	0xbd9e8cb9	-0.077416845
154	0x3d363fcb	0.04449443
155	0xbe4756c2	-0.19466689
156	0xbd399131	-0.04530448
157	0xbcfbcab5	-0.030736307
158	0xbdd2d243	-0.102940105
159	0xbdc96849	-0.09834344
160	0x3bf6f699	0.007536721
161	0x3d03b783	0.032157432
162	0xbd16e026	-0.03683486
163	0xbda0c085	-0.0784922
164	0x3dea6156	0.114443466
165	0xbd387b70	-0.045039594
166	0xbd2017c0	-0.03908515
167	0x3c12e7c2	0.008966388
168	0xbaede40a	-0.0018149626
169	0x3bdb2f75	0.006689007
170	0xbcc7b04b	-0.024376055
171	0xbd3ae64e	-0.045629792
172	0xbda7bb50	-0.08190024
173	0x3c8eec2b	0.017446598
174	0xbdec5c8b	-0.11541089
175	0x3d43e05a	0.04782138
176	0xbdd584c0	-0.10425711
177	0xbc8734fb	-0.016504755
178	0x3d03f2b7	0.032213893
179	0xbc47defc	-0.01219916
180	0xbc24019c	-0.010010149
181	0x3d8da635	0.06916467
182	0x3d844a4d	0.06459484
183	0xbdc038c3	-0.093858264
184	0x3d170771	0.03687233
185	0xbe1ed913	-0.15512495
186	0x3c82ba17	0.015957875
187	0xbd63dae9	-0.05562869
188	0x3e2b7477	0.16743647
189	0x3a45241c	0.00075203343
190	0xbe112eca	-0.14178005
191	0x3daf94d8	0.085733116
192	0x3c456349	0.012047597
193	0x3b2b660c	0.0026153354
194	0x3dec1e74	0.11529246
195	0x3dcc2ef8	0.09969896
196	0x3d66bf68	0.056334883
197	0x3d847fc3	0.06469681
198	0x3dad65f4	0.08466712
199	0xbcc0ad0f	-0.02352002
200	0x3cdfa36c	0.027299605
201	0x3cce6278	0.025193438
202	0xbcfe1a9f	-0.031018553
203	0x3d65a3c6	0.05606439
204	0x3c940beb	0.01807209
205	0xbd3604fd	-0.04443835
206	0xbd8e062d	-0.06934772
207	0xbdb5be0e	-0.08874141
208	0x3e174949	0.1477405
209	0xbd72436a	-0.059146322
210	0xbde2a13c	-0.11065909
211	0x3ca97ab0	0.020688385
212	0xbd6569cf	-0.05600911
213	0x3c06e9d8	0.008234464
214	0xbd37b57d	-0.044850815
215	0xbe1c3258	-0.1525358
216	0xbc5d2ca6	-0.013499415
217	0x3836893b	4.3519987e-05
218	0xbd976b66	-0.073935315
219	0x3ded9478	0.11600584
220	0xbdfc6865	-0.12324599
221	0xbd9eb666	-0.077496335
222	0x3deaeb86	0.11470704
223	0x3da2db55	0.079519905
224	0x3daa7cbc	0.083245724
225	0xbda23b59	-0.07921476
226	0xbd8481b9	-0.06470055
227	0xbd54f287	-0.051989105
228	0xbd37f902	-0.044915207
229	0x3ddb21fc	0.106998414
230	0x3d333373	0.043750238
231	0x3d3171e3	0.0433215
232	0x3d2108fb	0.039315205
233	0xbc9d6b8b	-0.01921632
234	0xbe168eda	-0.14702931
235	0xbdf10abe	-0.11769627
236	0xbdddd6e8	-0.10832006
237	0xbd356f3d	-0.04429554
238	0xbcee7a38	-0.029111013
239	0xbda4f6fd	-0.08054922
240	0xbc156674	-0.009118665
241	0xbd21d8ee	-0.03951352
242	0xbd0b4193	-0.033998083
243	0xbd4b2e8b	-0.049604934
244	0xbd0666aa	-0.03281275
245	0x3cf84b17	0.030309243
246	0x3cdb30ed	0.026756728
247	0x3d5a7308	0.05333236
248	0x3d839973	0.064257525
249	0x3be143aa	0.0068745213
250	0x3cb2e777	0.021838887
251	0xbd735bd7	-0.059413757
252	0x3d4920cd	0.049103547
253	0x3cd6b621	0.026209893
254	0x3d9bb070	0.07602012
255	0xbe14ab93	-0.14518575

a2c_network.actor_mlp.4.bias f4 [64]
0	0xbdc600da	-0.09668131
1	0xbd7d5e90	-0.06185776
2	0xbdeb4cdf	-0.114892714
3	0x3d0cfbe9	0.034419928
4	0xbe34f0de	-0.17670009
5	0x3ccf3b0d	0.025296712
6	0x3cf65780	0.03007102
7	0xbd9beb0f	-0.07613193
8	0x3b1b3fb5	0.0023689095
9	0x3d3186b7	0.043341365
10	0xbc812ae7	-0.015767528
11	0x3d24b02e	0.04020708
12	0xbd4659dd	-0.048425544
13	0xbc536124	-0.012901578
14	0xbddb5cdf	-0.10711073
15	0xbd4447f2	-0.047920175
16	0xbd3032d9	-0.043017242
17	0xbdca0ee8	-0.098661244
18	0xbe38a4e6	-0.18031654
19	0x3ce98f7e	0.028510805
20	0xbe1ec478	-0.15504634
21	0xbd5c93ff	-0.053852078
22	0xbd3bcd0d	-0.04584985
23	0xbd067323	-0.032824647
24	0x3c1d357d	0.009595272
25	0x3d20df90	0.039275706
26	0x3abd4693	0.0014440588
27	0x3d69cc6d	0.05707972
28	0x3cf7ccc0	0.030249
29	0x3c22038c	0.009888541
30	0xbe160124	-0.14648873
31	0xbe2e656e	-0.1703088
32	0xbda5b718	-0.08091563
33	0x3cad54ae	0.021158542
34	0xbd72c996	-0.05927428
35	0xbd4ea621	-0.0504514
36	0xbdf7b99e	-0.120959505
37	0x3d9dbae3	0.077016614
38	0x3daace7e	0.083401665
39	0x3d251c98	0.040310472
40	0xbd92b59a	-0.07163544
41	0x3d3ea8d9	0.046547744
42	0xbd09a84d	-0.03360777
43	0x3ca3fea8	0.02001889
44	0xbd70c2b5	-0.058779437
45	0xbdbe78ac	-0.0930036
46	0xbd7f6e72	-0.06236119
47	0xbd80c9b6	-0.06288473
48	0x3d0052ea	0.031329073
49	0x3ccde7a9	0.025134878
50	0x3b238744	0.002495245
51	0x3ceaeccb	0.028677365
52	0x3cd183ae	0.025575485
53	0xbe5ca5cc	-0.21547621
54	0xbdd84c89	-0.10561473
55	0xbd9df3e8	-0.07712537
56	0x3c8f627d	0.017503018
57	0xbdb0a72f	-0.08625638
58	0xbc4e93dd	-0.012608496
59	0xbdd55fce	-0.10418664
60	0xbd3f2dc4	-0.046674505
61	0x3daa2bed	0.083091594
62	0x3dbcfc99	0.09227867
63	0xbdd26b28	-0.10274345

a2c_network.value.weight f4 [1, 64]
0	0x3c2c342d	0.010510487
1	0x3d2331fd	0.039842594
2	0xbdb61399	-0.08890457
3	0xbcd72227	-0.026261402
4	0x3d4f3f8d	0.050597716
5	0x3e018a58	0.1265043
6	0xbb4fe50d	-0.0031722218
7	0xbde30dc5	-0.11086611
8	0x3d88dfb8	0.06683296
9	0x3db7a52b	0.0896705
10	0xbb879074	-0.004137093
11	0x3c14f36a	0.009091238
12	0x3dca83b0	0.09888399
13	0xbd56c4fe	-0.05243396
14	0xbd6ae143	-0.057343733
15	0xbcf99a66	-0.03046913
16	0x3d5d1963	0.05397929
17	0xbce06acd	-0.027394677
18	0xbcb9d3a8	-0.022683933
19	0x3d6dfee0	0.058104396
20	0xbd5a6fe3	-0.05332936
21	0x3da9c716	0.08289926
22	0xbdec168d	-0.11527739
23	0x3de08244	0.10962346
24	0xbd2e1386	-0.042499088
25	0x3da5b83d	0.08091781
26	0x3da73d06	0.08165936
27	0x3a8cafc4	0.0010733535
28	0x3d93b991	0.07213128
29	0x3d7600b0	0.06005925
30	0x3d64bbec	0.05584328
31	0x3d5a41d9	0.053285453
32	0xbd906dae	-0.0705217
33	0xbcfa6fce	-0.03057089
34	0x3d770eb1	0.060316745
35	0xbbfa1c72	-0.0076327855
36	0x3b286d9c	0.0025700098
37	0xbb228ca0	-0.0024803057
38	0x3e1388da	0.14407673
39	0x3de684ac	0.11255774
40	0x3ccf5fbf	0.02531421
41	0x3df8fbbc	0.121573895
42	0xbdce0189	-0.100588866
43	0x3d636f4f	0.055526074
44	0xbd07713f	-0.033066984
45	0xbdc04ede	-0.09390043
46	0xbd1a31b8	-0.03764507
47	0xbcf8dab8	-0.03037773
48	0x3c4dc5eb	0.012559394
49	0x3c23a7e2	0.009988757
50	0x3dc5a9bf	0.09651517
51	0xbd245b40	-0.040126085
52	0x3d4b3be6	0.04961767
53	0xbc921d5a	-0.017836262
54	0x3cd93f84	0.026519544
55	0xbdb94a33	-0.090473555
56	0xbcb031da	-0.021508146
57	0x3c430a20	0.011904269
58	0xba86cbfb	-0.001028418
59	0xbdf3ea3a	-0.119099095
60	0x3ce4f47b	0.027948609
61	0xbc586b10	-0.013209119
62	0x3c874456	0.016512077
63	0xbdccb520	-0.09995484

a2c_network.mu.weight f4 [6, 64]
0	0xbc90037f	-0.017579792
1	0xbd4fca48	-0.05073002
2	0x3cff79fc	0.031186096
3	0xbd3e73c2	-0.046497114
4	0xbcb9b7fc	-0.022670738
5	0xbc204aab	-0.009783427
6	0x3d75e6fd	0.06003474
7	0x3d496999	0.04917297
8	0xbdb55ee2	-0.08855988
9	0xbdbd83f2	-0.09253682
10	0xbd100132	-0.03515739
11	0x3da25738	0.07926792
12	0xbe04c091	-0.12964083
13	0x3c44504b	0.011982034
14	0x3d536c24	0.051616803
15	0x3d4e8374	0.050418332
16	0x3dbfed0a	0.093713835
17	0x3c4a34d5	0.012341698
18	0x3d8488fe	0.06471442
19	0x3de49086	0.11160378
20	0x3e0035d3	0.12520532
21	0x3d162f96	0.036666475
22	0xbdb4fc40	-0.08837175
23	0x3cde4414	0.027132072
24	0xbd582d1a	-0.052777387
25	0xbde66340	-0.11249399
26	0x3db1a9cb	0.086749636
27	0xbe059b68	-0.13047564
28	0xbcdca53d	-0.02693426
29	0xbccd03a3	-0.025026148
30	0xbd31f158	-0.043443054
31	0x3e1124b9	0.14174165
32	0x3d00be65	0.031431574
33	0xbd73160f	-0.05934721
34	0x3ae6a6f3	0.0017597362
35	0xbd8f5e9a	-0.07000466
36	0xbcafce30	-0.021460623
37	0xbdd0ad60	-0.10189319
38	0xbd91aa51	-0.071125634
39	0xbe37fda9	-0.17967857
40	0x3c0772f4	0.008267153
41	0xbe3f737b	-0.18696396
42	0x3c7cb7bc	0.015424665
43	0xbc2412a4	-0.01001421
44	0x3e45ea40	0.1932764
45	0x3d480f09	0.048842464
46	0xbd4aa281	-0.049471382
47	0x3d6ba822	0.05753339
48	0xbd0c7390	-0.034289896
49	0x3bded583	0.006800355
50	0xbd83dcb2	-0.06438579
51	0xbade0598	-0.0016938923
52	0x3cccd4f2	0.025003884
53	0x3d2dbcdc	0.04241644
54	0x3d01b02d	0.031662155
55	0x3b2cf5f6	0.0026391721
56	0xbdcc9c78	-0.099907815
57	0x3cee7dc9	0.029112713
58	0x3df7e6ac	0.12104544
59	0x3d344b5b	0.044017177
60	0x3d7ca180	0.061677456
61	0xbdbf61b4	-0.09344807
62	0xbdf3c0c5	-0.11902002
63	0x3e3b40d9	0.18286456
64	0xbdde1618	-0.10844058
65	0x3a784606	0.00094708835
66	0xbd2c7d10	-0.042111456
67	0xbb81d3f6	-0.0039620353
68	0xbe17e771	-0.14834382
69	0x3d9b3d6d	0.075800754
70	0x3cae71e4	0.021294542
71	0xbdf029b1	-0.11726702
72	0xbd7ce626	-0.061742924
73	0x3e18e0ee	0.14929554
74	0xbd1a5ab4	-0.037684157
75	0x3d028231	0.03186244
76	0xbd722064	-0.05911292
77	0x3c84e01b	0.016220143
78	0xbbe6719c	-0.0070325863
79	0xbda32367	-0.07965737
80	0x3c802eb5	0.015647272
81	0xbdf3861f	-0.11890816
82	0xbdd640b2	-0.104615584
83	0x3dce3d96	0.1007034
84	0xbe3b333d	-0.18281265
85	0x3d29a2ff	0.04141521
86	0x3c63b96a	0.013899187
87	0x3cdefb0f	0.027219323
88	0x3dd96266	0.10614471
89	0x3cd57359	0.026055979
90	0x3cce2a35	0.02516661
91	0xbb87f561	-0.0041491245
92	0xbcb669f6	-0.022267323
93	0xbd00ed75	-0.031476457
94	0xbe169375	-0.14704688
95	0xbdc9de0e	-0.09856807
96	0xbdfd4cf1	-0.12368191
97	0x3d84feb9	0.06493897
98	0xbd2c3717	-0.042044725
99	0xbd9a9d5b	-0.075495444
100	0xbdcd3dc6	-0.10021548
101	0x3cb181e4	0.021668382
102	0xbcbb94b0	-0.022898048
103	0x3c9d2d07	0.01918651
104	0x3d5dd961	0.054162387
105	0x3d8c4086	0.06848244
106	0xbcf76ca1	-0.030203165
107	0xbcb2d300	-0.021829128
108	0x3da38e94	0.07986179
109	0xbd907946	-0.07054381
110	0xbcebad23	-0.028769081
111	0x3d042665	0.03226318
112	0x3d0f808e	0.03503471
113	0x3d713aac	0.058893844
114	0xbd8efce5	-0.069818296
115	0x3dfdd83c	0.12394759
116	0xbd89f42f	-0.067360274
117	0xbdfc245e	-0.12311624
118	0xbe28ce1c	-0.16484874
119	0xbdf5a705	-0.11994747
120	0xbb1bac59	-0.002375385
121	0xbce47bd8	-0.027891085
122	0x3dc02375	0.09381763
123	0xbc41b5a0	-0.011823088
124	0x3bfdb0d1	0.0077420254
125	0x3ca85f9e	0.020553406
126	0x3d9ae2b7	0.07562774
127	0xbda6ccb5	-0.081445135
128	0xbe0669fd	-0.13126369
129	0x3d2dcec9	0.042433534
130	0xbd9a5ee2	-0.07537629
131	0x3df204d3	0.118173264
132	0xbd9b30aa	-0.07577641
133	0x3e15f100	0.14642715
134	0x3e215a3f	0.15757082
135	0x3db64443	0.08899739
136	0x3dddc6f1	0.10828961
137	0x3bc5b378	0.006033357
138	0x3c672fac	0.014110487
139	0x3d40fa9f	0.04711401
140	0x3b071e99	0.0020617603
141	0xbcac8a40	-0.021062016
142	0x3d815fb8	0.06317085
143	0x3d18d2ce	0.037310414
144	0x3e07cc7a	0.13261595
145	0x3d8dc08e	0.069214925
146	0xbd00c6cf	-0.0314396
147	0xbb37421c	-0.0027962988
148	0xbd32850a	-0.043583907
149	0xbdab5f6c	-0.0836781
150	0xbdaca463	-0.08429792
151	0x3d5e431c	0.05426322
152	0xbce6d94f	-0.028179793
153	0xbcf443fb	-0.029817572
154	0xbdabe566	-0.08393364
155	0xbcbe26cc	-0.02321186
156	0x3d108f51	0.035292927
157	0x3d9ade3b	0.07561918
158	0x3d18d78e	0.037314944
159	0x3d40e639	0.047094557
160	0x3db82b54	0.08992639
161	0x3b3a2c2a	0.0028407671
162	0x3d130c77	0.03590056
163	0xbcb202c6	-0.021729838
164	0xbd39ed3f	-0.04539227
165	0x3d4d6626	0.050146244
166	0xbad8124b	-0.0016484944
167	0x3d8c656e	0.06855284
168	0x3d24b6d2	0.040213414
169	0xbd20d874	-0.039268926
170	0x3d0714fc	0.032978997
171	0x3dc2c853	0.09510865
172	0x3e084b85	0.13310058
173	0xbdcfb157	-0.10141247
174	0xbd0193da	-0.031635143
175	0x3dc6b9bb	0.09703394
176	0xba4a3c5e	-0.0007714684
177	0xbd52c6f4	-0.051459268
178	0x3dd3ece5	0.103479184
179	0x3dc493d1	0.09598506
180	0x3ce68833	0.028141117
181	0xbdd8229c	-0.10553476
182	0xbdbc541d	-0.09195731
183	0xbcb8d26b	-0.022561273
184	0x3d7ac598	0.061223596
185	0x3c94d980	0.018170118
186	0x3e178139	0.14795388
187	0xbd5413a5	-0.051776547
188	0xbe1bd96d	-0.1521966
189	0x3da95e7f	0.08269977
190	0xbc2426c3	-0.010019007
191	0x3d0b5b99	0.0340229
192	0x3d10d2ac	0.035357162
193	0xbdc1d578	-0.09464544
194	0xbbee5a6d	-0.007273963
195	0x3d7f2032	0.062286563
196	0xb9846cfd	-0.00025258205
197	0x3d934367	0.0719059
198	0x3d46a901	0.04850102
199	0x3db477a5	0.08811883
200	0x3d660fba	0.05616734
201	0x3cfa59a8	0.03056033
202	0x3cc7343a	0.024316896
203	0x3dae7522	0.08518435
204	0xbd215796	-0.03939017
205	0xbd976d07	-0.07393842
206	0xbcd3abdc	-0.025838785
207	0xbd0c48f6	-0.03424927
208	0xbddb45c3	-0.10706665
209	0x3d3ec37a	0.04657314
210	0xbe2fe5b4	-0.17177469
211	0x3d750a8f	0.059824523
212	0xbdccdcf6	-0.100030825
213	0xbcfa21a4	-0.03053362
214	0xbbd50428	-0.0065007396
215	0x3dd6c4d1	0.104867585
216	0x3d8f7214	0.070041806
217	0x3d98d5b6	0.07462637
218	0xbd5b4a1a	-0.053537466
219	0x3df1e999	0.11812133
220	0x3dba1612	0.09086241
221	0x3e02273f	0.12710284
222	0x3c9de2cf	0.01927319
223	0xbd412630	-0.04715556
224	0xbd1627e2	-0.03665913
225	0xbb893fc1	-0.0041885083
226	0xbcc970d8	-0.02458994
227	0x3dc77b98	0.097403705
228	0xbdd1456f	-0.102183215
229	0xbd6fd33f	-0.05855107
230	0x3d89a888	0.06721598
231	0xbb9fe1a9	-0.0048791957
232	0xbcc26038	-0.023727521
233	0x3d7b4b49	0.061351094
234	0x3d752c85	0.05985691
235	0x3de49106	0.111604735
236	0xbcd041db	-0.025422027
237	0x3d024d53	0.031812023
238	0xbd9c0263	-0.07617643
239	0xbe3297d7	-0.17440735
240	0x3d5e098d	0.054208327
241	0xbdc983a3	-0.09839561
242	0x3d7767ba	0.060401656
243	0x3da16c2f	0.078819625
244	0x3d1ec9c0	0.038766623
245	0xbdf75a91	-0.12077821
246	0x3dae9bdf	0.08525824
247	0xbd980c76	-0.07424252
248	0xbcfeced5	-0.031104485
249	0x3d3fe2fb	0.046847325
250	0xbcd5bb02	-0.026090149
251	0xbdf76b88	-0.12081057
252	0x3d12782c	0.035759136
253	0x3da9b19d	0.0828583
254	0xbbe719c4	-0.007052632
255	0x3c7ba7b7	0.015359811

a2c_network.mu.bias f4 [6]
0	0xbdc6657e	-0.09687327
1	0x3e089f95	0.13342126
2	0x3da88c62	0.08229901
3	0x3dcbd66b	0.09953006
4	0x3df94024	0.12170437
5	0x3d247c2d	0.040157486

exp_avg f4 [6]
0	0x3c4b1fbf	0.012397706
1	0x3b885d57	0.0041615176
2	0xbac466be	-0.0014984233
3	0x3b24641e	0.0025084089
4	0x3b886b91	0.0041632135
5	0x3c390826	0.011293447

exp_avg_sq f4 [6]
0	0x39ec66f8	0.00045090145
1	0x39fd1f20	0.0004827911
2	0x3a077205	0.00051668315
3	0x39da4ea8	0.00041638804
4	0x39fcbe2b	0.00048206872
5	0x3a02dc2b	0.0004991914
