IsaacGymEnvs/isaacgymenvs/runs/Bolt_10-15-19-35/nn/Bolt.pth (torch, 609246 bytes, 36 tensors)

value_mean_std.running_mean f8 [1]
000000 01 4a 94 07 90 61 cf 3f
       0.24516487474518558

value_mean_std.running_var f8 [1]
000000 57 a1 02 da 6b 13 a2 3f
       0.035304422724325484

value_mean_std.count f8 []
000000 00 00 00 00 02 d0 2a 41
       878593.0

running_mean_std.running_mean f8 [30]
000000 ef cd 04 36 2e bd b6 bf df 1f db e9 77 8f c1 3f
       -0.08882416552369653 0.13719080847499662
000010 2a 57 b5 a4 1f 70 cf bf 5c 76 a9 43 6b 53 c5 bf
       -0.2456092409362836 -0.1666082458859134
000020 13 bb cd d6 29 a8 bf bf 14 80 9e 5c 9a d8 a4 3f
       -0.12365972036580457 0.04071504955868491
000030 c4 67 af 99 bf 2b cd 3f 96 da 30 a7 1a ff d1 3f
       0.2278975963989166 0.2811953194354059
000040 1e 89 ab fe 44 4f ab bf 6d e4 7c d4 5a 60 ba bf
       -0.05333915337338822 -0.10303275764171511
000050 e2 56 77 0d be 95 c4 3f 5c 86 49 26 af 09 79 3f
       0.16081977517631346 0.006112751176802069
000060 55 eb e8 c8 19 38 d6 bf 46 af 4f dd 7c e6 ba bf
       -0.3471741163263478 -0.10507946398837217
000070 66 7c b8 f6 d5 c5 c8 3f a4 b1 af 22 cc 8f d7 3f
       0.19353746935755395 0.36815169703802497
000080 68 9e 4c 26 c1 df c9 bf 87 74 28 5b 0c 0d d0 bf
       -0.20214094514925596 -0.2507964029517286
000090 58 af d4 20 b0 7d 72 bf 7d 01 03 9a e7 81 77 bf
       -0.004514396668394337 -0.005739121145041157
0000a0 93 73 e5 f5 29 6c 4d 3f bd b8 e4 ec cd 2d 88 3f
       0.0008979039082920186 0.011806114952005559
0000b0 ae 32 1a 24 62 a4 6b bf 15 00 a9 2c 1b 83 77 bf
       -0.0033742825333490023 -0.005740266943178103
0000c0 83 b6 69 11 1f 6d e6 bf 79 19 6f a8 e0 06 c9 bf
       -0.7008204784485347 -0.19552238678279446
0000d0 07 29 94 25 fe fc da 3f 31 71 4e 02 92 39 e8 3f
       0.42169145269203095 0.7570276303336297
0000e0 54 7e cf 05 de 99 da bf d5 a8 d8 f3 b1 5a e0 bf
       -0.41564131324228026 -0.5110711825011786

running_mean_std.running_var f8 [30]
000000 f7 89 cc a9 7e 4b e5 3f 15 a4 71 f9 55 f3 e0 3f
       0.6654656711946804 0.5297040817214361
000010 11 03 a3 29 af 27 e4 3f 6e 81 8d 35 21 4b e8 3f
       0.6298442662447049 0.7591711088135022
000020 58 1a d8 c2 e8 30 e5 3f c8 04 8a 64 10 f2 c1 3f
       0.6622203641462177 0.14019970807206605
000030 06 73 7c ff 6a 58 d2 3f 87 ed 6d 71 52 57 d2 3f
       0.28664660405938525 0.2865797145566024
000040 54 c7 36 2b c1 b5 d3 3f a6 bd d2 2e e1 c3 14 40
       0.3079684183131708 5.19128869210491
000050 a0 c2 b0 2e db 4f f5 3f 0b 5a d0 c7 34 90 94 3f
       1.331996137985847 0.0200813528973303
000060 10 2b 94 90 6c f6 b0 3f f0 5f 39 16 7c 27 b0 3f
       0.06626013307338163 0.06310248892384585
000070 0d ca 87 cf c0 25 b1 3f 08 b4 90 10 5f 63 b0 3f
       0.06698231760655222 0.0640162864153383
000080 20 bb 65 6a be 5a b5 3f 62 6c 58 b4 b2 0a b3 3f
       0.08341589067070432 0.07438198950733146
000090 e1 84 01 4a 31 d9 ac 3f 5a 7b db 49 4b 4b c7 3f
       0.05634454754250285 0.18198529344860043
0000a0 b4 4e d8 a8 b4 d4 be 3f fb a8 aa 62 18 c3 a8 3f
       0.12043313142958817 0.04836345867563981
0000b0 db 35 07 fc 5c 2e c2 3f c8 15 2a ce dc 77 b5 3f
       0.14203989320814867 0.08386020692167684
0000c0 40 81 cf 1b 6b a1 d7 3f 0a e2 7f ea 99 4e e2 3f
       0.36922719684482175 0.572094877249641
0000d0 92 f7 56 4b 75 b3 df 3f cb ce 45 c1 2b d2 d4 3f
       0.49532825810808234 0.3253278148106175
0000e0 16 b6 6e 1b a9 cd e1 3f dd 23 43 8f 3f 5e df 3f
       0.5563550506391859 0.4901274584813658

running_mean_std.count f8 []
000000 00 00 00 00 04 d0 1a 41
       439297.0

a2c_network.sigma f4 [6]
000000 63 28 2f be b8 90 54 be 39 f9 50 be 0f 70 af bd
       -0.1710525 -0.20758331 -0.20407571 -0.08566295
000010 41 3d 31 be eb 97 27 bd
       -0.17308523 -0.040916365

a2c_network.actor_mlp.0.weight f4 [256, 30]
000000 ec c2 a9 3c 5c cd 35 be 85 7f fb 3d a3 e9 0f 3d
       0.020722829 -0.1775412 0.12280182 0.035134923
000010 61 a2 f6 bd a1 40 44 3e 80 4e 83 3c 56 ef 2a 3e
       -0.1204269 0.19165279 0.016028643 0.16692862
000020 35 6d 9d bd f0 b4 39 be c7 b6 12 3e 4f d2 9f bd
       -0.07686845 -0.18135428 0.14327537 -0.07803785
000030 02 99 0b 3e ac be 54 3d 6e 91 aa 3c a4 9d 10 bd
       0.13632587 0.05193965 0.0208213 -0.035306588
000040 08 4e 71 3d fa c3 19 3d dd f0 d2 3c 62 6d 37 be
       0.058912307 0.037540413 0.025749618 -0.1791282
000050 01 c8 22 be a7 f3 6e bd c5 81 38 be 79 6c 2c 3e
       -0.15896608 -0.058337834 -0.18018253 0.16838254
000060 1f 67 3f 3d 21 06 07 bd b7 9a 7f 3c ac b1 63 3d
       0.046729203 -0.03296483 0.015600852 0.055589363
000070 65 45 76 3d 4e eb 1c be ef 85 97 bc 5b 7b 73 be
       0.060124774 -0.15324137 -0.018496482 -0.23777525
000080 e9 dd 0b 3e 91 b7 0a be 20 4b e5 3d d6 01 80 bd
       0.13658871 -0.13546588 0.111959696 -0.0625035
000090 c8 56 3a 3e 2f d4 01 be cc 6d dd bc d3 4f 87 be
       0.18197167 -0.12678598 -0.027029894 -0.2642809
0000a0 ef cb 15 3e 50 ba 32 bd 57 04 c5 3d 8e 94 30 be
       0.14628576 -0.043634713 0.096199684 -0.17244169
0000b0 05 17 37 be 24 db ca bd b4 25 89 bd c4 06 bb 3d
       -0.17879875 -0.09905079 -0.066966444 0.0913215
0000c0 23 4e ac bc 6c 46 2b 3e 9b 10 9c bd d8 17 d1 bd
       -0.021033352 0.16726083 -0.07620355 -0.10209626
0000d0 2c 2e bd 3d 00 6a db bd 9d ab 36 3d 86 27 f4 bc
       0.09237322 -0.10713577 0.044597257 -0.029804002
0000e0 31 79 06 3e e3 47 c6 bd 70 7f 8f bd 08 61 86 3d
       0.13132168 -0.0968168 -0.07006729 0.06561476
0000f0 5d e3 1d 3d 2b f1 96 bd c5 ba 11 3d d7 4c 0e 3d
       0.03854691 -0.07370218 0.035578508 0.03474125
000100 f6 56 e1 bd 29 ac e4 bd a9 2a 1c 3e df e6 bf bd
       -0.110029146 -0.111656494 0.15250649 -0.09370207
000110 4b 87 42 be e2 5b 98 be 93 61 d2 bd 6e 6b 3c 3d
       -0.18996923 -0.297576 -0.10272517 0.04600089
000120 a3 e7 20 3d 0d 2b 09 be b7 2f 27 bd c9 14 fb bd
       0.039283406 -0.13395329 -0.04081699 -0.12259824
000130 b5 b2 28 be c9 f8 a0 bd 1b 83 0b be 19 50 e3 bd
       -0.16474421 -0.07859952 -0.13624232 -0.11099262
000140 52 a1 15 3e 7d d7 84 bd 23 e4 44 bd 08 d6 25 be
       0.1461232 -0.06486414 -0.04806913 -0.16194928
000150 db ce 8f bd 6a d6 14 bd 85 ab a9 bc 47 43 20 be
       -0.070218764 -0.036337294 -0.02071167 -0.15650664
000160 82 6d d4 bd 8a c5 cd bd a9 70 7d b9 38 8c ff bc
       -0.103724495 -0.10047443 -0.0002416993 -0.031194791
000170 db ac 6b 3c 1b 89 8a be e4 10 e6 bd 2a 97 27 be
       0.014384474 -0.27057728 -0.112336904 -0.16366258
000180 df 6e 6a bd 4a d7 6e be bb 5a 49 3e e4 21 73 bc
       -0.05723464 -0.23324314 0.19663517 -0.014839623
000190 4e d7 70 3d 64 63 26 3e 99 c1 55 be b2 be ed 3d
       0.05879908 0.16248852 -0.20874633 0.11608638
0001a0 7c cb 5b bd 7a 5c 9e bd 68 91 4e be ff bb 09 be
       -0.053660855 -0.07732482 -0.20172656 -0.13450621
0001b0 e3 c3 c1 3d 69 b7 43 bd 7a df de 3c 2c 17 87 be
       0.094611906 -0.047782335 0.027206171 -0.26384866
0001c0 0d 90 d9 3c bb 11 cf bd 98 90 7e bd 57 2d 00 3d
       0.026557947 -0.10110804 -0.062149614 0.03129324
0001d0 0b f0 fe 3c b2 d2 fe 3d d0 80 c8 3d 54 20 c6 bd
       0.03112032 0.12442531 0.09790194 -0.09674135
0001e0 f4 e9 41 bb 2c b2 18 be ec d6 1b 3d 96 92 1b be
       -0.002958891 -0.14911717 0.038046762 -0.15192637
0001f0 a2 f7 25 3e b1 16 40 be bc a2 a8 3d f8 a1 4e 3e
       0.16207746 -0.18758656 0.08234164 0.20178974
000200 9f 34 f7 3d 3f f0 8c be 44 c5 04 3e 6a 8f e9 3d
       0.120705836 -0.27527043 0.12965876 0.11404307
000210 3b cb 1a 3c 94 96 b3 bd a8 6e cc 3d 92 05 8c 3b
       0.009447868 -0.08768955 0.099820435 0.004273125
000220 cb 0d aa bd 2c d7 43 3e b4 58 25 3d 61 90 8f 3c
       -0.08303412 0.1912505 0.040367797 0.0175249
000230 27 72 6b bd 63 c1 0b bd 7c 1a 89 3d eb 17 1b bc
       -0.05748191 -0.034119975 0.066945046 -0.009466152
000240 dc 36 fa bd 74 9a 03 3d 0a 18 08 be 7f c5 84 3d
       -0.12217495 0.03212972 -0.1329042 0.06482982
000250 9f 18 f6 3d 0e ff 2e be 32 51 fa 3d 29 48 dd 3d
       0.12016415 -0.17089483 0.12222518 0.10804779
000260 57 21 8a bb 29 1b 1b 3d 05 18 35 3e 8d 51 15 3e
       -0.0042154 0.0378677 0.17684944 0.1458189
000270 29 7d 2e bd fb e4 0d bd 84 17 15 bd 5e 77 b5 bd
       -0.04259983 -0.0346422 -0.03639938 -0.08860658
000280 c1 57 94 bd d0 7a 44 be 5e 77 96 3d a3 22 e5 3d
       -0.072433 -0.19187474 0.07346986 0.11188247
000290 e0 ad a8 3d dd 98 63 3c 6c 3a d4 38 9d 63 cc bc
       0.08236289 0.013891426 0.0001011983 -0.024949843
0002a0 cd b1 08 3d cc 80 ac 3d 1e 2b af bd 0d f2 ad bc
       0.03337269 0.084230036 -0.08553146 -0.021233583
0002b0 73 09 0a 3e 3e e8 b5 3d 52 b0 5f bd 50 15 0b be
       0.13480167 0.08882187 -0.05461151 -0.13582349
0002c0 eb e3 85 bd 17 4b 71 bd 3d 56 c2 bd 4a 95 04 3d
       -0.065376125 -0.058909502 -0.09489105 0.032368936
0002d0 3d 51 04 3e 47 77 ec 3c 6f 58 4c be bc fb cf bd
       0.12921615 0.02886547 -0.1995561 -0.101554364
0002e0 b3 1f 1c 3c d2 b2 15 3e 5e 82 d5 3b 82 39 08 3d
       0.009529042 0.14618996 0.006515785 0.03325797
0002f0 4c b0 2e bd 9b 50 1c be 64 01 04 be 87 1c 90 3d
       -0.0426486 -0.15265124 -0.12891155 0.07036691
000300 67 72 ba bd 24 dc 42 bd 42 79 0d be c7 3b e9 3d
       -0.09103852 -0.047573224 -0.13815787 0.11388355
000310 8b ef a8 3d 6d 0e a2 3d b2 33 1d be c5 8d 18 be
       0.08248814 0.07912908 -0.15351751 -0.14897831
000320 f5 14 12 be f4 2e 07 3e 0f e7 bc 3d b7 67 6a 3e
       -0.14265807 0.13201505 0.092237584 0.22891127
000330 33 4e a6 3d 99 72 63 3d 49 c9 a4 bb fa c2 1b be
       0.08120384 0.05552921 -0.005028878 -0.15211096
000340 f7 4f 50 be 9a e1 2e be 21 3a 9b 3d e0 1e 93 3c
       -0.20343004 -0.17078248 0.075794466 0.017959058
000350 0c 6a ad bd a9 ff 20 be 2d c7 98 bd 7a 42 e1 bd
       -0.084674925 -0.15722527 -0.07459865 -0.109990075
000360 5f 59 fc bd 88 18 e5 3d c8 a2 6f bd 86 1d 75 3e
       -0.12321734 0.111863196 -0.05850485 0.23937044
000370 a9 34 99 3c ee fa 40 bd 52 ed ac 3c 83 db a0 bd
       0.018701868 -0.047114305 0.021109257 -0.078543685
000380 b0 72 00 bd ee 61 41 be 1a 33 27 3d 71 a6 c3 bd
       -0.031359375 -0.18885013 0.04082022 -0.095532306
000390 e2 66 19 3e cc 8c a5 3c db 32 09 3e 94 97 28 be
       0.14980653 0.020208739 0.13398306 -0.16464072
0003a0 cb 13 4b 3d ed c9 01 bd b7 1e a6 3d b6 3e 1c 3e
       0.049579423 -0.031686712 0.08111327 0.15258297
0003b0 c2 e6 42 bc c4 d5 cf bc 3b 97 b5 bd 71 c1 0b be
       -0.011895837 -0.025370486 -0.088667355 -0.13648011
0003c0 7e 74 3e 3c 04 b5 1a be a4 7d 04 3e bd 48 60 3e
       0.011624454 -0.15108114 0.12938553 0.21902747
0003d0 63 bc 0a 3d e0 dc ea 3b d2 f6 30 be 49 cb cd 3d
       0.033871066 0.0071674436 -0.17281654 0.10048539
0003e0 47 a6 05 3e d2 c3 db be f1 ce c0 3d 65 f7 c3 bd
       0.13051711 -0.42922837 0.09414471 -0.09568671
0003f0 cd 19 7f 3c 27 81 b8 bd dd f9 1f bd 2b d5 95 bd
       0.015570116 -0.09009009 -0.039056648 -0.07316049

a2c_network.actor_mlp.0.bias f4 [256]
000000 d1 30 88 ba d7 4b 57 be a7 19 4c 3e 01 71 0d 3e
       -0.0010390525 -0.21025024 0.1993166 0.13812639
000010 17 7e cc 3d 53 93 15 bd 3d 67 9d 3e 6d ea 33 3e
       0.09984987 -0.036517452 0.30742827 0.17569895
000020 73 a2 d9 3d a0 53 94 be 28 3c 3b be 63 74 17 be
       0.10626688 -0.2897005 -0.18284667 -0.14790492
000030 17 7f fe bd 6f 48 e2 bd 1c 96 86 be 7f d0 c4 bc
       -0.12426584 -0.11048972 -0.262864 -0.0240252
000040 e3 8b 42 be 6d de b2 bd 28 96 72 be 37 6f 26 bd
       -0.18998675 -0.087338306 -0.23690093 -0.040633406
000050 a0 62 10 3e d7 30 73 be 1c 3c 95 3c 22 0a 72 3e
       0.14100122 -0.237491 0.018217139 0.23636678
000060 a2 16 c1 3d 26 02 e5 3d 44 f2 08 3e fb 02 1e be
       0.09428145 0.111820504 0.13373667 -0.15430824
000070 30 4e 91 3e 8c 5c cb 3b 7d e2 5f be 33 c3 e3 bd
       0.28379965 0.006206101 -0.21863742 -0.11121216
000080 ce cd 6c be 05 12 5c be 44 08 71 3d 3f d2 bd 3d
       -0.23125383 -0.21491249 0.058845773 0.09268617
000090 f3 59 99 3c 07 9e 65 bd 43 30 35 bc 61 70 34 3e
       0.018719649 -0.05605891 -0.01105887 0.17620994
0000a0 33 25 94 3d 1d 80 18 be cd b0 8c 3c 84 ae 9e b9
       0.07233658 -0.14892621 0.017174149 -0.00030266133
0000b0 f7 5a d4 bc 5e 8a 22 be b1 4a a2 bc 02 ae 55 3d
       -0.025922282 -0.15873095 -0.019811006 0.0521679
0000c0 44 db 52 3e c1 4b ad bc e8 66 08 3e f7 62 58 3e
       0.20591456 -0.021154286 0.13320506 0.21131502
0000d0 86 09 83 bd 17 c4 4e 3e 15 bf 71 be 1f 06 04 3e
       -0.06398301 0.2019199 -0.23608048 0.1289296
0000e0 d6 aa 57 bc 9c 32 a5 bb 8f ee 03 3d fe 73 da 3d
       -0.013163289 -0.0050414335 0.03220993 0.10666655
0000f0 e9 03 03 be c5 2e 66 3e 98 de 84 bd da 99 23 be
       -0.1279446 0.22478779 -0.06487769 -0.15976658
000100 fc 8b 84 bc a3 83 66 3e 7e f5 8e be ae 60 01 be
       -0.016180031 0.22511153 -0.2792167 -0.12634537
000110 d8 83 bc 3d f5 e6 ee 3c 4d 36 dc bd 10 d6 01 3d
       0.09204835 0.029162863 -0.107525446 0.031698287
000120 ea fc d8 bc bb 65 33 be 25 2b ab bd 2b b3 f6 3c
       -0.026487786 -0.17519276 -0.083578385 0.03011473
000130 c5 50 0c be b8 b2 db bd 41 1e 2a 3e de 09 8a be
       -0.13702686 -0.10727447 0.16613103 -0.26960653
000140 87 82 b4 3a 64 92 1c 3e 94 8d 4e 3e 80 e3 9d bc
       0.001377181 0.15290219 0.20171195 -0.01927352
000150 b3 64 87 3d 13 a5 07 3e b2 40 ca bd 70 f1 ff 3d
       0.06611004 0.13246565 -0.09875621 0.124972224
000160 4a a0 d5 bd e4 32 d6 bd a9 fd b3 3b 53 d2 d0 3d
       -0.10430963 -0.10458925 0.005492885 0.10196366
000170 91 c8 09 3d db 41 6a 3d ad 7a 42 3d 2b 8a 00 be
       0.03363854 0.05719171 0.047480274 -0.12552707
000180 9f b3 2e bd 8e e4 d9 bd f9 06 28 be e4 1c 19 be
       -0.04265177 -0.106392965 -0.1640891 -0.14952427
000190 02 ff cb 3d 4d a4 2f 3d 83 36 42 3e 4a 6f 52 3d
       0.09960748 0.0428813 0.18966107 0.051375665
0001a0 68 ed 14 3e fc e0 f4 3d 1a a7 e7 bd eb f2 9d 3d
       0.14543688 0.11956975 -0.11311169 0.077123486
0001b0 f1 cd 4f 3d 60 86 1c 3d f9 fb 8c be 69 a2 e0 3d
       0.05073351 0.038214087 -0.2753599 0.10968477
0001c0 32 32 e4 3d 57 7c 8d 3e 32 20 69 be 90 96 5b be
       0.111423865 0.27633926 -0.22766188 -0.21444154
0001d0 67 f4 2d 3e db 38 e8 3c 96 67 b2 3d 43 6e a3 bd
       0.16987763 0.028347423 0.08711164 -0.07980015
0001e0 0e e3 e8 3b 91 f3 70 be 3e e8 a2 be fe 30 36 3e
       0.007107145 -0.23530413 -0.31817812 0.17792127
0001f0 4a a8 96 bc 88 c9 e7 3c 0c c3 83 bd 42 87 4e 3e
       -0.018390793 0.02829434 -0.064336866 0.20168784
000200 d3 90 a6 bd 82 98 f9 bd d8 c7 9a bd ec b3 d9 3c
       -0.08133092 -0.12187292 -0.075576484 0.026575051
000210 93 f5 b5 3d ec ca 77 bb c3 6c 1c be b8 4a b5 3d
       0.0888473 -0.003781016 -0.15275864 0.08852142
000220 cd 4e 64 3e 8f e3 22 3d c6 1b 79 bd f5 c9 3e 3e
       0.22295685 0.039767798 -0.060817502 0.18631728
000230 8a f4 af 3d a0 0b f1 3d ce 6b 01 3e f0 ba b1 3d
       0.08591564 0.117697954 0.1263878 0.086782336
000240 48 6d 13 3e 5d c3 9a 3d 9f ab 4f 3e 69 f3 11 3d
       0.14397156 0.07556794 0.20280312 0.035632525
000250 f3 c9 07 be f4 cc 88 3d d3 18 62 3e c5 f6 bf bc
       -0.13260631 0.06679717 0.22079782 -0.023433099
000260 6b 64 c4 bd bb b9 c8 3d 8d 40 08 bd d3 36 e6 3c
       -0.09589466 0.0980105 -0.033264685 0.028102314
000270 91 1b 09 3e 63 58 1f be fc 58 37 be b9 34 8b bd
       0.13389422 -0.1556106 -0.17905039 -0.067971654
000280 55 89 b9 3d 32 1a ad 3d ce 7f 04 3e d6 a6 c4 3d
       0.09059397 0.08452262 0.12939379 0.09602134
000290 bb c5 40 bd b5 d9 aa 3d ad 35 78 3e f3 a3 88 be
       -0.04706357 0.083423056 0.24239226 -0.26687583
0002a0 92 9b 87 be 79 9f 09 3e 4e 32 8f 3c 7d 44 77 bb
       -0.26485878 0.1343974 0.017480042 -0.0037730031
0002b0 e8 7d a0 3d d2 89 49 3e 23 f9 35 3e bc 89 0f 3e
       0.07836515 0.1968148 0.1777082 0.14017385
0002c0 c3 23 3a 3e c5 4b 4a be c0 d3 41 3c c1 02 d9 bd
       0.18177705 -0.19755466 0.01183027 -0.105962284
0002d0 b2 bf 98 3d b0 ef 7f bd 9b 35 db bd 8f c0 8e be
       0.07458438 -0.062484443 -0.10703584 -0.27881286
0002e0 4b 7d c9 3d 93 93 1e be 13 02 66 bd 3c c5 27 3e
       0.09838351 -0.15485983 -0.056154322 0.16383833
0002f0 b4 85 50 bd 2b 1f 3d 3e 4f b7 58 be 33 82 06 3e
       -0.05090876 0.18468921 -0.21163677 0.13135605
000300 42 b2 4d be 63 c3 1c be 11 a8 e3 3c fb b5 79 3e
       -0.20087531 -0.15308909 0.027790101 0.24385826
000310 0a 9f 8c 3d 4a ae ce 3d 2b 80 a5 3d 62 95 60 be
       0.06866272 0.10091837 0.08081087 -0.21931985
000320 05 6c 3b 3d d7 79 8f 3d d2 36 d5 ba 28 bf 4c 3d
       0.045757312 0.07005661 -0.0016266948 0.04998699
000330 41 19 53 3e fa 99 9f bb 9c d4 ad bb 73 4d 5b bd
       0.20615102 -0.0048706504 -0.005304886 -0.05354066
000340 c8 f1 48 be d3 01 3e be c7 69 85 be ee 19 0e be
       -0.19623482 -0.18555383 -0.26057264 -0.13877079
000350 76 54 33 3d d9 a2 77 3e f4 93 96 3e 29 8a 07 3e
       0.04378172 0.24183215 0.29409754 0.13236298
000360 04 97 0b 3d d3 83 d0 bd e3 dd 7b 3d d6 9b 85 bc
       0.034079567 -0.101813935 0.061490905 -0.01630966
000370 40 1f 67 3e 2e 8a b3 3d 9a a2 e7 bb 5d 7f 2f 3e
       0.22570515 0.0876659 -0.007068944 0.17138429
000380 82 2c e5 3d 6c 17 13 3e c7 32 a5 3c bb 75 7d 3d
       0.1119013 0.14364403 0.020165814 0.061879855
000390 a2 86 2c 3d de 9c 80 3e 18 5c 30 be a2 48 b3 bd
       0.042120583 0.2511968 -0.17222631 -0.08754088
0003a0 3d d7 63 bc 4b 63 40 be 6f 03 8f be c8 97 ac 3d
       -0.013906297 -0.18787877 -0.27932307 0.084273875
0003b0 3b a8 08 bd 39 c7 6d be 5f 7e 3f bd b5 05 aa 3d
       -0.033363562 -0.23220529 -0.046751376 0.0830187
0003c0 f6 13 3d 3e 07 ac 51 3e b2 42 10 3e ec 89 ca bd
       0.18464646 0.2047578 0.14087942 -0.09889588
0003d0 8b ec 4b 3d 5f a2 12 be 1f 6a b7 3d cc a4 24 bd
       0.04978613 -0.14319752 0.08955788 -0.040196225
0003e0 3f 03 56 bd 50 34 16 bd 67 a4 22 3e 81 b9 39 3d
       -0.05224919 -0.036670983 0.15883027 0.045342926
0003f0 be 5d 1f 3b 64 a9 e1 bd 44 fe bc bc 3e 3e 92 be
       0.002431735 -0.11018637 -0.023070462 -0.28563112

a2c_network.actor_mlp.2.weight f4 [128, 256]
000000 64 29 01 3e 4d 7c 09 3b ea f8 db 3c d2 75 96 3b
       0.12613446 0.002097863 0.02685209 0.004591682
000010 fc 06 a6 bd 00 ce 9e bc f0 b0 15 3c 6a 57 03 3e
       -0.08106801 -0.019385338 0.0091364235 0.12826315
000020 fc 96 30 bd 3a b1 14 3e 4d f0 34 bd b8 ec 49 bd
       -0.04311274 0.14520732 -0.04417448 -0.04929802
000030 56 ee 2a 3c 23 82 03 bd 70 7c 94 bd 39 8c 8c bc
       0.0104328 -0.03210653 -0.07250297 -0.017156707
000040 fa 50 be bd 6d 6f 48 bd 45 2d c8 3d 07 21 8f 3d
       -0.09292789 -0.04893439 0.097742595 0.06988721
000050 83 25 a9 3d 6b 36 32 bd ca 41 46 3d 10 54 32 3d
       0.08259108 -0.04350893 0.048402585 0.0435372
000060 30 d5 80 bb 50 b4 6c 3d 2e 94 15 3d 33 55 99 bd
       -0.003931664 0.057789147 0.03651827 -0.074869536
000070 f5 64 63 bd 26 e3 ad 3c bc db a2 bb 7c ee 95 bc
       -0.055516202 0.021226477 -0.004970042 -0.018302195
000080 9b 7d a7 bd 8d 63 45 bd 97 5c 58 bd 9a 61 77 bb
       -0.08178254 -0.048190642 -0.052822676 -0.0037747384
000090 d5 5f 72 3c 16 08 43 3d b1 61 b4 bd 7f 1c 10 bd
       0.014793356 0.047615133 -0.08807696 -0.035183426
0000a0 73 9f 73 ba b1 ec 91 bd ba 5f 31 bd 57 a1 19 3e
       -0.0009293474 -0.071252234 -0.043304183 0.15002953
0000b0 85 3b 05 bd 9d e1 bd 3d 57 ef 25 3d 1e 43 05 3e
       -0.032527465 0.09271548 0.040511455 0.13013884
0000c0 5d f2 b7 3c cc ce 11 be 40 5f 68 bd ca 8d 00 3e
       0.022454435 -0.14239043 -0.056731462 0.12554088
0000d0 47 80 4c 3d a7 5f 51 3d dd d1 2c 3c 90 1b 04 3e
       0.049927022 0.05111661 0.010548082 0.1290114
0000e0 5c 4d 6d be aa ba 7a bd 81 18 af ba 02 fb 80 3d
       -0.23174042 -0.061213173 -0.0013358743 0.06297876
0000f0 06 45 16 bd 30 5f 11 bd da b9 ed bd ce 47 f2 3c
       -0.03668692 -0.03549117 -0.11607714 0.029575255
000100 14 78 09 3d 14 1c 39 3d b4 72 cc 3c 55 95 b5 bc
       0.03356178 0.045192793 0.024957038 -0.022165934
000110 f1 78 d8 bc d2 7d 10 3d a3 7c 6d bd e5 b8 12 bc
       -0.026424857 0.03527624 -0.05798019 -0.008955215
000120 a2 09 51 3d a9 f5 86 3c 89 f5 e2 3b 09 3c d5 3d
       0.051034577 0.016474562 0.0069262427 0.104118414
000130 8f ed f2 bc 91 04 ff bd 24 f3 ab 3a 0d 64 83 bd
       -0.029654292 -0.12452043 0.0013118726 -0.064155675
000140 2e 1c e4 bc 01 e1 b4 bd db 31 fe bb 39 11 96 bc
       -0.027845468 -0.088319786 -0.007757408 -0.01831876
000150 48 1e 27 bd 95 be 58 ba c6 e5 6e 3b e4 12 9f 3d
       -0.040800363 -0.0008268145 0.0036452874 0.07767275
000160 c9 9c 34 bd a4 b8 cc bd 33 05 30 bd 67 21 f7 3d
       -0.044094834 -0.09996155 -0.04297371 0.12066918
000170 5c a2 15 bc b1 0e 26 3d 3d b7 c0 3d f2 f7 ee 3d
       -0.009132948 0.040541355 0.0940995 0.116683856
000180 f0 2f f5 3d 46 4c c5 bb 3e 1e 80 3d 8b 95 21 3d
       0.11972034 -0.0060210554 0.06255768 0.039449256
000190 9f 48 05 bd 54 9c a8 bd ca 83 dd 3d 76 92 c1 3c
       -0.03253996 -0.08232942 0.108161524 0.023629408
0001a0 c9 e0 c7 bd ec a7 fe bd 4b 88 4a bd dc c9 72 bd
       -0.09759671 -0.12434372 -0.049446385 -0.05927454
0001b0 3a 01 b8 3d 54 29 fa 3d 2d 8b 93 3d 40 78 d4 3d
       0.08984609 0.12214914 0.0720428 0.10374498
0001c0 13 88 ca 3d 01 66 91 3d 03 74 ca 3d 5e d5 2a 3d
       0.09889235 0.07099534 0.09885409 0.04170739
0001d0 0b 55 8d bd 60 bf a5 bd 06 aa 4d 3e 83 85 a7 3d
       -0.06900986 -0.080931425 0.2008439 0.08179762
0001e0 c8 a0 33 bd 8d ea 0f bd 8a 52 f5 bc aa 29 a2 3d
       -0.043854505 -0.035135794 -0.029946584 0.07918103
0001f0 8b 1f 99 3c e6 c9 b6 3d a0 fe 46 3d 42 f4 19 3d
       0.018691799 0.08925228 0.048582673 0.037586458
000200 97 99 63 3d 7e 39 dd 3c 9b a9 b0 bd 18 9b 9c 3d
       0.055566397 0.027004953 -0.086261 0.07646769
000210 29 3b fd 3d 48 01 b9 bb 0c 21 a7 bd e4 6b fb 3c
       0.123647995 -0.0056459047 -0.081606 0.030691095
000220 51 22 26 3d 07 d1 a7 3d 0e de fa 3d f8 55 38 3d
       0.04056007 0.08194166 0.12249385 0.04500386
000230 d9 9f 28 bd d3 5d d2 3d 82 1e 70 3d 75 ef 1a 3d
       -0.041168068 0.10271802 0.058622845 0.03782602
000240 08 8d 4b 3d 0f ec 9e bd 28 3c 27 3d eb fd bc 3c
       0.049695045 -0.07759868 0.040828854 0.023070296
000250 a8 8a f1 3c 44 29 5d 3e 46 3f 5b 3d 1d 17 18 bd
       0.029485062 0.21597773 0.05352714 -0.037131418
000260 b5 77 f8 3c 13 eb 60 3d 5c 88 83 3d c3 71 ce 3d
       0.030330518 0.054911684 0.06422493 0.10080292
000270 20 88 74 3d d1 a0 d3 3d 8f 53 ec 3c 6d 5b 0a bd
       0.05970013 0.10333408 0.028848438 -0.033778597
000280 c7 04 39 3d 88 c0 c7 bb e9 50 d4 bc 8d 05 07 3d
       0.04517057 -0.0060959496 -0.025917487 0.032964278
000290 7a 07 00 bd f0 12 ea 3c 67 52 0e bd d8 ea 8e bd
       -0.03125713 0.028573483 -0.034746554 -0.06978387
0002a0 17 03 11 bd 2c 53 59 3d e4 99 7a 3d 7e 97 26 bd
       -0.035403337 0.053057835 0.061181918 -0.040671818
0002b0 c9 dd ed 3d ca a8 00 3d 51 b5 f7 bb 56 30 f5 3d
       0.11614568 0.03141097 -0.0075594564 0.1197211
0002c0 f5 3e d8 3b a1 03 11 3b dd 43 eb bd 31 95 78 3e
       0.006599302 0.0022127407 -0.11487553 0.24275662
0002d0 c8 11 f8 bc aa f3 01 be ee 77 d1 bd 07 f1 4f bd
       -0.030281916 -0.12690607 -0.10227953 -0.05076697
0002e0 3c 58 ca bc 5d 5b 12 be 9a e7 8e 3d 8b 6a ff 3d
       -0.024700277 -0.14292665 0.06977768 0.12471493
0002f0 ab ae c9 3c de c0 cb 3d 24 b3 d1 3d 32 aa 25 3e
       0.024619421 0.09948896 0.102392465 0.16178206
000300 ea b7 d6 bc 7c bf d4 3d bf 14 24 bd 17 aa 1a bc
       -0.026210744 0.10388085 -0.040058848 -0.009439967
000310 73 ad 37 3d a4 aa 94 3d 01 cc 2f bd 88 87 b7 3d
       0.04484315 0.072591096 -0.042919163 0.089613974
000320 f6 25 1c be 38 44 8b 3d 2e 61 6e 3d dc 9a 1f 3e
       -0.15248856 0.06800121 0.058198147 0.15586418
000330 7d 87 e6 bc 0e ce 9b bc cd 98 8e 3d f9 c2 3f 3d
       -0.028140778 -0.019019153 0.06962738 0.0468168
000340 2f 3a f8 bd e4 8d e5 3c 28 24 eb bc 30 9b ad 3c
       -0.12120473 0.02802176 -0.028703764 0.021192163
000350 74 bc 30 3e 9c fc c0 bd 4c 7c b8 3d ef c6 b0 ba
       0.17259389 -0.094231814 0.09008083 -0.0013487021
000360 29 37 35 bc 23 1b f8 3d 98 86 10 39 6a 95 04 3d
       -0.0110605145 0.12114551 0.0001378305 0.032369055
000370 34 af 97 3d b6 b8 ac bd 51 86 07 b9 a3 e9 d8 bc
       0.07406464 -0.08433668 -0.0001292464 -0.026478594
000380 bf 88 28 bd 51 0b d2 bc 60 4f 90 3d 78 9a a1 3d
       -0.041146036 -0.025640162 0.070463896 0.07890791
000390 e9 ae 39 bd 4c d4 6e 3d ec c7 59 bd 7d a4 81 bd
       -0.045332823 0.05830793 -0.053169176 -0.06330202
0003a0 d0 6f a2 bd 21 e4 f9 bc 8f b7 be bd c1 63 85 bd
       -0.07931483 -0.030504288 -0.09312355 -0.06513167
0003b0 e2 dc 35 bd 8a 4b 8a 3d c0 26 83 3d 60 9c d7 ba
       -0.044400103 0.06752689 0.06403875 -0.0016449802
0003c0 91 8e 9a 3c 60 a5 3d 3c b0 e9 36 3d 9b 7a c8 bd
       0.01886681 0.011575073 0.044656456 -0.0978901
0003d0 29 bd 9b 3c d7 57 aa bc b9 29 e1 ba 57 d7 9c 3c
       0.019011097 -0.020793838 -0.0017178572 0.01914565
0003e0 2d 70 e8 3b e5 c6 de bb 66 f0 96 3d 6b 78 a8 3d
       0.0070934505 -0.0067986124 0.07370071 0.08226093
0003f0 5a 80 84 3d 70 c5 c5 bd 19 e4 4c bc a3 14 9a 3c
       0.064697936 -0.09656799 -0.012505555 0.018808668

a2c_network.actor_mlp.2.bias f4 [128]
000000 11 76 61 3d 05 24 1b be 0e 02 9d bd 41 2b 42 3d
       0.055044238 -0.15150459 -0.076664075 0.04740453
000010 05 d0 52 be 27 37 1b 3e f1 21 e7 bd 5c 02 89 be
       -0.20587166 0.15157758 -0.11285771 -0.26759613
000020 bc 9f 34 bd 0c 20 c2 be 7f e1 13 3e d0 3c 37 be
       -0.044097647 -0.37915075 0.14441489 -0.17894292
000030 00 f1 89 be 77 ed 14 bd 11 b1 ee bd 5d b0 d4 3c
       -0.2694168 -0.036359277 -0.116548665 0.025963003
000040 be 52 d7 bd 3d a8 26 bc 22 1e 32 be fa 3a 46 bd
       -0.10513829 -0.010171947 -0.17394307 -0.04839609
000050 dc 17 83 be da 51 28 3b 04 cb 2d bd 81 d0 4c bd
       -0.2560414 0.0025683553 -0.04242994 -0.050003532
000060 1a 95 70 be 87 09 b7 bc eb 2a 3b 3e c9 5e 06 3e
       -0.23494378 -0.02234341 0.1827809 0.13122095
000070 ac 07 77 3e 5c 91 f4 bd a9 27 2f be 63 f6 0a be
       0.2412402 -0.119417876 -0.17104973 -0.13570552
000080 79 f2 ea bc 8c f6 65 be 58 b9 03 3d 62 47 a8 3d
       -0.028680073 -0.22457331 0.03215918 0.0821674
000090 f7 ba 5c 3d d0 94 52 be 5b 09 50 be 74 6c 2d be
       0.05388924 -0.2056458 -0.20316069 -0.16935903
0000a0 a7 27 aa bd 64 13 89 be 13 9c 72 be 6e ae 44 be
       -0.08308344 -0.26772606 -0.2369235 -0.19207165
0000b0 ae 3a 85 bc c8 af 28 3d bc 17 d5 3d e5 66 d4 bd
       -0.016263332 0.041183263 0.104049176 -0.10371188
0000c0 22 02 9f bd a1 d1 11 3c ef a0 4c be 92 00 3a be
       -0.07764079 0.008900077 -0.19983266 -0.1816428
0000d0 b9 74 17 3d 52 e0 88 bd 2a 9c 10 be f2 ca 35 be
       0.03697655 -0.06683411 -0.14122072 -0.17753199
0000e0 16 94 c7 be ae fa 67 3e 0d f2 73 3e 30 42 8d 3c
       -0.38980168 0.2265422 0.23822804 0.017243475
0000f0 59 39 d2 be b8 99 4e 3c 35 a7 e8 3c fd db 84 be
       -0.41059378 0.012609892 0.028400043 -0.25949088
000100 2e c4 bb bc 82 32 45 be 1a 34 80 be 0a 7a 77 bc
       -0.022920694 -0.19257548 -0.2503975 -0.01510478
000110 0c 65 62 3e d4 e6 b8 be fb fc 72 be c5 7d a6 bd
       0.22108859 -0.36113608 -0.23729317 -0.081294574
000120 41 99 a7 be 25 b9 c7 3d fa 55 7c be dd 0d 0b 3e
       -0.3273411 0.097521104 -0.24642172 0.13579507
000130 88 5a f5 bd bf dd 62 be df a2 9c be eb 53 ed 3d
       -0.11980158 -0.22154902 -0.3059301 0.11588272
000140 99 80 46 3e c8 7b b0 be dd 32 19 be 7b 03 b1 bd
       0.19384994 -0.34469438 -0.14960809 -0.08643242
000150 2f 3e 0a bd 90 5e dd be 5c 7f 9d be 14 a8 d6 bc
       -0.03375071 -0.43236208 -0.3076123 -0.026203193
000160 4b 90 b8 bb d2 41 3b 3e e9 90 18 be 38 a1 9a bc
       -0.0056324354 0.18286827 -0.14899029 -0.018875703
000170 b2 65 87 bc a3 3f 91 be ff 6a 1d bd ad cc f7 bc
       -0.016527984 -0.28368863 -0.038432118 -0.030248964
000180 38 7c 19 3e 73 fb bd 3d 33 8c 62 be af 7c 98 be
       0.14988792 0.09276476 -0.22123794 -0.29782626
000190 b9 59 3c 3e af 78 74 be f6 54 81 bd 70 9c a3 bd
       0.18393601 -0.23874162 -0.06315033 -0.079888225
0001a0 90 67 35 3c 39 28 aa 3c 06 8e 4b 3e 72 71 9c be
       0.0110720545 0.020771133 0.19878396 -0.30555302
0001b0 a6 91 51 be e2 f9 27 be 9b 99 22 be e2 42 26 be
       -0.20465717 -0.16403916 -0.15878908 -0.16236451
0001c0 1a 01 22 3d 73 a3 7e be 16 72 22 bd 0c d0 46 3e
       0.03955183 -0.24867038 -0.039659582 0.19415301
0001d0 aa d8 e9 bd 91 41 40 bd 51 f1 05 be 03 c9 cb bd
       -0.114182785 -0.04693753 -0.13080336 -0.09950449
0001e0 1e 2b 50 3e a6 48 83 be 29 85 3c be 5e 19 9b be
       0.20328948 -0.25641364 -0.18410172 -0.3029279
0001f0 f8 46 17 be e8 02 55 3d cc d0 4c 3a d0 99 23 3c
       -0.14773166 0.052004725 0.00078130956 0.009985402

a2c_network.actor_mlp.4.weight f4 [64, 128]
000000 94 ec 2d 3c e7 ef a6 bd a7 42 60 3d ae 95 33 bd
       0.010615487 -0.081512265 0.054751065 -0.043843918
000010 f6 46 a6 bd 8a b7 9b 3d 8c 2e ed 3d e3 af 1b be
       -0.081190035 0.07603367 0.11581144 -0.15203814
000020 fc a7 fe bd 8d d1 5e 3d 66 1a 69 3d 6d bb 81 3c
       -0.12434384 0.054399062 0.05690994 0.015836442
000030 f3 7e 1f bd 26 c7 03 3d e5 e9 aa ba 10 02 85 bd
       -0.038939428 0.032172345 -0.0013039677 -0.06494534
000040 ea 2c 8a bc 28 9d 4b bd bf ee bd bd c0 d8 cd 3d
       -0.01686712 -0.049710423 -0.09274053 0.100511074
000050 dc c6 c7 3c 0d ed e6 ba e7 e3 a8 3d d5 29 a5 bb
       0.024386816 -0.0017618254 0.08246594 -0.005040387
000060 e7 c5 e1 3a 4b 8f ae bc d7 46 50 3d f3 e7 bd 3c
       0.0017225117 -0.021308562 0.05084881 0.023181891
000070 bc 5f cc bd 02 b1 24 3e 33 50 62 bd 64 4c 7a bd
       -0.099791974 0.16083148 -0.055252265 -0.061108008
000080 d8 4f cf 3c c1 be bc bc 7b b0 dd bc 1f 0a fa bc
       0.025306627 -0.023040177 -0.027061692 -0.030522404
000090 19 83 d2 bd 22 91 9a bd 51 c9 8e bd 45 bd 6c bd
       -0.10278911 -0.07547213 -0.06971992 -0.05779769
0000a0 65 23 15 bd 3f b1 a2 bd 99 0d e3 3c a1 aa ca bc
       -0.036410708 -0.07943963 0.027716445 -0.024739565
0000b0 dc 97 ff bd 05 29 10 be d1 d9 11 be 0d 7b 50 bd
       -0.12480137 -0.14078148 -0.14243247 -0.0508986
0000c0 76 66 e5 bc a9 74 f7 bd a5 3c 46 3c cf 4a ae bd
       -0.028002959 -0.12082798 0.01209942 -0.08510362
0000d0 90 78 d2 bc 31 b9 28 bd 8c 74 b5 3d 4c 5b e9 ba
       -0.025692254 -0.041192237 0.0886012 -0.0017803698
0000e0 34 70 94 bd c9 0f b7 bd 50 21 e8 bd ca 9a f2 3a
       -0.072479635 -0.08938558 -0.11334479 0.0018509266
0000f0 d2 45 e4 3c d4 e6 81 bc 0f a3 d9 bd ff 2c 09 bc
       0.027865324 -0.015857138 -0.10626804 -0.008372544
000100 10 06 56 bd a6 b1 47 bd 8d 08 a3 bb 53 68 7e 3d
       -0.052251875 -0.048753403 -0.0049753846 0.06211121
000110 53 cf c0 bc bc a5 67 bc 39 5f 2b be 7b 01 ab bd
       -0.02353636 -0.014138635 -0.16735543 -0.08349892
000120 0d 75 c7 bd ac f1 ab bc 94 3d 51 3c fe 8b 1d 3c
       -0.097391225 -0.020989262 0.012771029 0.009615896
000130 43 6f 31 bd 05 a8 b7 bd 01 86 c0 bd 1c 8c 11 be
       -0.043318998 -0.08967594 -0.09400559 -0.14213604
000140 14 8f 6e 3c 78 20 71 bd de ed 70 bd 49 9b 73 3d
       0.01456048 -0.058868855 -0.058820598 0.059474263
000150 9e 9e 36 bd 4d 3f 18 bd 44 ea 83 bd fc 2b 9c 3c
       -0.044584863 -0.037169743 -0.06441167 0.019063942
000160 11 ce c9 bb 69 06 b7 ba bb 16 ab bd e2 dd c3 3c
       -0.0061585982 -0.0013963702 -0.08353945 0.023909513
000170 08 a9 bd bd 44 aa cc bd 80 51 3f bb 57 e0 a4 3c
       -0.09260756 -0.09993413 -0.0029192865 0.020126505
000180 67 b7 85 bd 84 ff 8d bb 56 bc aa bd f5 73 b8 bc
       -0.06529122 -0.0043334384 -0.083367035 -0.02251623
000190 f2 1c a3 bc 1d e7 b9 bd a1 2d c4 bb ab e6 ea 3d
       -0.019911263 -0.090772845 -0.0059868847 0.11469778
0001a0 f5 42 a0 3d 31 99 ca 3c c1 b4 5d bd da 79 20 bd
       0.07825271 0.02473125 -0.05412746 -0.039178707
0001b0 a2 81 df bc 62 3d 05 3d 88 ad ba 3c 68 db 2d bd
       -0.027283493 0.032529242 0.022787824 -0.04244557
0001c0 47 1e 8e 3b 03 a7 28 bd 9c 29 52 3d f6 82 35 3d
       0.0043371054 -0.0411749 0.051309213 0.044314347
0001d0 8a 3d 3a 3d 7a 47 b9 bc 98 06 13 be fb 40 85 39
       0.045468844 -0.02261709 -0.14357984 0.0002541615
0001e0 ef 0a 8a 3c 23 c2 06 bd c6 29 5f bb a9 ba 81 bd
       0.016850917 -0.032899987 -0.0034051999 -0.06334431
0001f0 96 2f 02 bd df e6 06 bd e7 86 b4 bd 49 44 09 bd
       -0.031783663 -0.03293502 -0.08814793 -0.033512387
000200 a5 71 72 3d 08 48 e8 3c bb c5 98 3c 5c 95 25 bc
       0.05919041 0.02835466 0.018648973 -0.010106411
000210 7c 8f 6b bc 19 3e 1d 3d b5 50 77 bc 74 f1 ca bd
       -0.014377471 0.0383893 -0.015094926 -0.09909335
000220 d6 05 aa bd 8a 1e 17 bc 97 43 b1 3b 00 7a a7 bc
       -0.08301894 -0.00922359 0.0054096687 -0.020443916
000230 d3 c3 3d bb b1 69 09 3d 3b 0b 70 3d 0f 02 47 bc
       -0.0028955832 0.03354806 0.05860446 -0.012146487
000240 8d 1c 3f bd f5 27 82 bd b8 56 cd bd 74 dc f7 3c
       -0.046658088 -0.063552774 -0.10026306 0.030256487
000250 fb b6 29 3d d2 e7 90 3d 0b a0 e4 bd a3 b9 30 bd
       0.04143427 0.07075466 -0.11163338 -0.043145787
000260 63 ee 66 bb 13 63 83 bd 9e e6 34 bc 5a b1 b4 bd
       -0.0035237304 -0.06415381 -0.011041312 -0.088228896
000270 63 c9 e3 bd 58 49 14 bd f8 ea a6 3d 7a 86 01 bc
       -0.11122396 -0.03620276 0.081502855 -0.007905597
000280 72 a5 96 bb b4 13 eb 3c f6 e8 b7 bb 1e b5 8f bd
       -0.0045973593 0.028695919 -0.005612488 -0.07016967
000290 ff 49 ad 3d 13 44 e0 3c d7 63 ea bc 87 60 48 3d
       0.08461379 0.02737621 -0.02861206 0.04892018
0002a0 fc c7 de 3d a1 60 7d 3d 03 29 7a bd a9 55 4b bc
       0.10877988 0.06185973 -0.061074268 -0.01241056
0002b0 54 6b fb bd b9 07 d8 bd 5f 82 35 be f4 7a 79 3d
       -0.122763306 -0.10548348 -0.17725514 0.060908273
0002c0 0b e9 99 bd 08 23 56 3c 5c 1e a5 bb 84 d2 de 3d
       -0.075151525 0.013069876 -0.0050390195 0.108799964
0002d0 f8 11 c6 bd e0 eb 61 3d 08 4b c7 3d 7b 30 84 bd
       -0.09671396 0.05515659 0.09731108 -0.064545594
0002e0 79 0d ce 3d 94 26 13 be 5e 96 55 bc f6 85 15 bd
       0.100611635 -0.14370185 -0.013036339 -0.03650471
0002f0 1e 55 33 3e fc b3 01 3c 9d 20 09 be 7a 56 a9 3d
       0.17512938 0.007916447 -0.13391347 0.08268447
000300 67 b0 ed bc 7e 1e ad bd 4d 2b 68 3d 7c 84 b8 3d
       -0.02901478 -0.084530815 0.05668192 0.090096444
000310 c3 c4 97 3d 8d 17 87 3d e5 45 0d 3e 01 f5 7a bc
       0.07410576 0.06596289 0.13796194 -0.015317203
000320 4c 00 d5 3d 2a 0f 32 3e c2 6a 0c bc 85 60 5b bc
       0.10400447 0.17388597 -0.008570375 -0.013389711
000330 c7 a4 c4 3d 8c 5b 65 3d dc 5f b8 3d af 24 c4 bd
       0.09601741 0.05599551 0.09002659 -0.09577309
000340 c6 27 83 3d e2 43 06 bc 07 b0 47 bd 91 86 dc 3c
       0.064040706 -0.008194895 -0.048751857 0.026919635
000350 50 be f8 bd 16 63 bf 3d 6d f7 5d 3d 24 ac bf bd
       -0.12145674 0.09345071 0.05419104 -0.09359005
000360 7c eb a3 3d 37 d9 04 bc 04 c6 2a bd 45 55 cd 3c
       0.080038995 -0.008108429 -0.04169275 0.025065074
000370 7a 74 db bd 41 a8 30 bd f6 16 36 3d 2e 45 c6 3d
       -0.107155755 -0.04312921 0.04445549 0.09681164
000380 f1 18 60 3d 1f 5d b4 bd e3 70 15 be 5e 93 20 bd
       0.054711286 -0.08806824 -0.14593844 -0.03920304
000390 d7 64 c9 3c b1 a1 11 3e 57 60 12 bc 10 27 a7 bd
       0.024584217 0.14221837 -0.008934102 -0.081617475
0003a0 5d 3a a9 bc a6 bd 14 3d d9 3d d3 bd f3 09 b2 ba
       -0.020657713 0.036313675 -0.10314531 -0.0013583287
0003b0 38 55 e6 bc 05 e7 9d bd e8 30 5c 3d b9 e2 93 3d
       -0.028116807 -0.07710079 0.053757578 0.07220978
0003c0 1b d3 77 bd 3d ad 13 3d c5 b6 23 bd 56 84 9c bd
       -0.06050406 0.036053885 -0.039969224 -0.076424286
0003d0 cb c0 a9 3d ec ae 00 bd d5 a0 2e 3e e1 2a 1a 3d
       0.082887255 -0.03141682 0.1705354 0.03763855
0003e0 25 b5 d6 3c 8e c3 47 3d de 6f 4e 3c 77 5f ec bc
       0.026209423 0.04877048 0.012599913 -0.028854115
0003f0 33 6a a0 3d d5 62 a8 bd 6a 7a 57 3d f9 4f ac bd
       0.07832756 -0.08221976 0.052606978 -0.08413691

a2c_network.actor_mlp.4.bias f4 [64]
000000 5c c2 54 3e fb a7 4c be f7 57 83 be 01 90 00 3e
       0.20777267 -0.19985954 -0.2565305 0.12554933
000010 0e 35 2a 3e 58 3c 19 3e bb e1 64 be c2 9c 6d be
       0.16621801 0.14964426 -0.22351734 -0.2320433
000020 40 40 5f 3e d1 b6 75 3d 1b c6 66 3e ed d6 ed bd
       0.21801853 0.0599888 0.22536509 -0.116132595
000030 b6 f7 12 3e fd 7c cb be d3 6c c3 bd ac e2 67 be
       0.14352307 -0.39743796 -0.09542241 -0.22645062
000040 c5 13 23 be f0 70 e0 bd 18 3a 46 be b9 75 ea 3d
       -0.1592551 -0.10959041 -0.19358099 0.11448235
000050 09 db 8b be 22 87 d7 bd 1d be 9f be 15 31 cf 3d
       -0.27315548 -0.105238214 -0.31199732 0.101167835
000060 39 cd 12 3e c7 30 bf 3d c3 1d 8e bb cd 43 0c 3e
       0.14336099 0.093354754 -0.004337044 0.13697739
000070 03 c2 08 3e b4 52 c3 3d 7b 86 12 3d 17 7c 3d be
       0.1335526 0.09537259 0.03577278 -0.18504368
000080 e6 d5 6b bc ed 69 94 3d ec d8 f2 3d 4d 42 44 3e
       -0.014394259 0.07246766 0.11857781 0.19165917
000090 0b 1c 05 be e2 0e 94 be 00 e9 5a 3e 2c a5 24 3e
       -0.12998979 -0.28917605 0.21377945 0.16078633
0000a0 a8 45 5e be d5 9b 3f 3e e4 39 f4 bd b9 3b 38 3e
       -0.21706259 0.18711789 -0.11925104 0.17991532
0000b0 7a 6d cd be e9 86 2a be 4f 11 af bd 06 3d b0 be
       -0.40122586 -0.16653027 -0.08548223 -0.34421557
0000c0 28 fe c9 bd a8 e8 ae be 45 97 26 3e e8 f5 75 bd
       -0.098629296 -0.34161878 0.16268642 -0.060048968
0000d0 1a f6 b5 3d 45 2a aa be ff 1d 37 be 8e 3a 2a be
       0.08884831 -0.33235374 -0.17882536 -0.166239
0000e0 c4 8d 54 be ab b2 33 3d e2 17 6b be a5 50 d0 be
       -0.20757204 0.043871563 -0.2295833 -0.40686527
0000f0 8b ea 34 bd 49 17 6c 3e 64 33 ee 3d cf 13 a4 be
       -0.04416899 0.23055758 0.11630896 -0.32046363

a2c_network.value.weight f4 [1, 64]
000000 f7 1f 32 3d 13 d2 eb bc 5c 46 96 bd 72 75 5d 3c
       0.043487515 -0.028786695 -0.07337639 0.013516771
000010 fd 75 b2 3b b1 1c d8 3d be 23 e2 bc 53 9e 04 be
       0.005446194 0.105523475 -0.027604934 -0.12951021
000020 af 3b 07 3d 7f 5a ab 3d 39 f2 1a 3c c8 3e 8c bc
       0.033015903 0.0836687 0.009457164 -0.01711978
000030 ee 17 5c 3d c2 82 b8 bd 72 5a 3d 38 41 3a 62 bd
       0.05373376 -0.09009315 4.5145345e-05 -0.055231337
000040 79 03 f4 bc eb 2d ef bc 35 d6 1d bd 1a b2 dd 3d
       -0.029786812 -0.0291967 -0.038534362 0.10824986
000050 04 3d cd bd 5c aa 93 bc 9d e2 12 be c3 7e 2a 3d
       -0.100214034 -0.01802557 -0.14344259 0.041624796
000060 ed 58 86 ba 02 16 d7 bb ac a0 59 3c e5 ff 23 b9
       -0.0010249891 -0.006563903 0.013282936 -0.0001564022
000070 ed 14 c8 3c ba 87 c9 bc 35 48 55 3a 38 84 20 3b
       0.02442404 -0.024600852 0.0008136065 0.002449287
000080 5d 6e 30 3a 3f 82 d0 3c 11 11 d8 bb 70 41 4e 3c
       0.00067303126 0.025452731 -0.0065938313 0.012588844
000090 6a dd 15 bc 4c 52 5d bd 36 68 d9 3d f4 bc 02 3e
       -0.0091470275 -0.054033563 0.1061558 0.12767392
0000a0 bf b8 27 bc a8 bd 5a 3e ae 2f a6 bc c2 ff 65 3d
       -0.010236918 0.2136141 -0.020286407 0.056152113
0000b0 28 09 b0 bd 49 df a7 bd 81 3c 1d 3d 05 d0 8e bd
       -0.085954964 -0.08196885 0.03838778 -0.0697327
0000c0 1e ca 57 3b 95 85 4b bd 70 20 d4 3d 2f 13 44 bc
       0.0032926868 -0.04968794 0.103577495 -0.011967464
0000d0 7c f1 ac 3c 02 61 31 bd 5a 82 5d bd 82 bb 5d bc
       0.021111242 -0.043305404 -0.05407939 -0.013533475
0000e0 98 d2 67 bc ba 73 18 bc e9 fe 98 bc ae 46 b3 bd
       -0.014149331 -0.009304935 -0.018676238 -0.087537155
0000f0 c6 3e 7e bc f7 ab 32 3d cd 03 05 3e 7f 6e 0b be
       -0.015517896 0.04362103 0.12989731 -0.1361637

a2c_network.mu.weight f4 [6, 64]
000000 e7 d5 06 bd 90 11 26 bc 6d c3 a6 bb 71 42 c7 bd
       -0.032918837 -0.010136023 -0.0050892145 -0.097294696
000010 66 92 9e bc 07 42 db 3c 28 cc c5 3c 1c 44 cc bc
       -0.019356918 0.026764883 0.0241452 -0.02493482
000020 8f 3d 04 be 83 ec 8f 3c 23 52 f6 bc b5 e0 8d 3d
       -0.12914108 0.017568832 -0.030068463 0.06927625
000030 b5 d3 14 bc df b5 8e 3d 22 d8 a8 bc 9a 16 ea 3c
       -0.009083678 0.06968283 -0.020610873 0.02857523
000040 31 5a 06 3e d2 39 89 3c 0b e3 8c 3d 76 02 bd 3d
       0.13120343 0.016751204 0.068792425 0.09228985
000050 d7 07 92 3d 9e 56 00 3e 01 c3 88 bd f5 dd f5 3c
       0.071304016 0.12533042 -0.06677819 0.030013064
000060 1b e8 cd 3b d6 f2 97 bd 45 a6 f9 3d 80 21 89 bc
       0.0062837726 -0.07419364 0.121899165 -0.016739607
000070 2c 79 68 3d ab 69 25 bb 74 fb b2 bc 05 7f ae bc
       0.056756184 -0.0025239985 -0.021848418 -0.021300802
000080 3c 8b 40 ba 5c a8 40 bd 17 dc bc bb 5f a0 37 bd
       -0.0007344966 -0.04703556 -0.0057635414 -0.044830676
000090 dd 7e 10 3c 38 ef 68 3d 00 fe c0 bd d8 0a 98 bd
       0.008819309 0.05686876 -0.09423447 -0.07423943
0000a0 c0 9f 3c bc 4a 7a 87 bd b3 eb 24 bd aa 03 cf 3b
       -0.011512697 -0.06615122 -0.040263843 0.0063175755
0000b0 63 47 10 3e 6c 17 03 bd c2 c0 40 3c 7a 9b 04 3e
       0.14089732 -0.03200476 0.011764707 0.12949935
0000c0 11 2c 84 3a 7e 29 b3 3d 6f 17 49 bb 9d ec a0 3b
       0.0010083934 0.087481484 -0.0030684134 0.004911019
0000d0 70 b6 1d bc d9 20 57 3d b0 6f 38 3d c7 8d f4 bc
       -0.009626016 0.05252156 0.04502839 -0.029852761
0000e0 2d a6 05 3d c4 34 48 3c 0f eb fc 3c 77 b8 8f 3d
       0.03262918 0.012219612 0.030873803 0.07017606
0000f0 5b 49 07 3c e6 64 a2 bd 1e fe 93 3c 00 6d c0 3d
       0.008257235 -0.07929401 0.018065508 0.0939579
000100 cb 55 c8 bd 6a 49 b6 bc a6 e3 0a 3e a9 a2 0d 3d
       -0.09781989 -0.022251803 0.13563403 0.034578953
000110 1e a3 b1 bd c1 90 a5 3c 9d 83 11 3d 44 5f d7 3c
       -0.0867369 0.020210626 0.035525907 0.026290543
000120 7a bf 9a bd d0 48 8f 3d 28 e9 74 bd da 31 4e 3d
       -0.075560525 0.0699631 -0.059792668 0.05034051
000130 6b db 7c bc a6 1d 31 3d 13 43 3c 3d 95 29 04 bb
       -0.015433173 0.043241166 0.045962404 -0.0020166386
000140 c3 76 bf 3b a1 7e 46 bd e1 70 47 bd e9 6d 42 3d
       0.005843015 -0.048460606 -0.048691634 0.0474681
000150 e5 bf a0 bd 38 67 cf 3c f5 cb c8 3d cb 0e 53 bd
       -0.07849101 0.025317773 0.09804527 -0.05152778
000160 5d 51 e1 bc 77 8b 00 3d 30 9d 37 3d aa 4a 1a 3c
       -0.027504617 0.031383004 0.04482764 0.009417215
000170 0c ba 1b be 8d ee 98 bd 4c 87 a1 bd f5 18 3c 3d
       -0.1520769 -0.07467375 -0.07887134 0.04592224
000180 21 d9 2e bd 3e ea 5e 3d de 4e 77 ba 6f 1d ee bd
       -0.04268754 0.05442261 -0.00094340544 -0.11626708
000190 16 ce 32 bc c0 d5 53 3c 3f 65 da bc 22 6e 43 bd
       -0.0109133925 0.01292938 -0.026659606 -0.047712453
0001a0 2b 5f 75 bc 06 bc a1 bd cf 0c fa 3c a9 72 d1 3c
       -0.014976303 -0.07897191 0.030523686 0.02556737
0001b0 f8 68 b7 3d cd 6a 0d bc 24 86 5e 3d 40 7f b4 3d
       0.08955568 -0.00863142 0.054327145 0.088133335
0001c0 8e fa f7 3b 8b 81 8b 3d 72 b4 f6 bc 90 9d c8 3c
       0.0075677102 0.06811818 -0.03011534 0.024489194
0001d0 c3 25 3a bd 94 ea 92 3c cf b0 6a bd 22 e4 2e 3d
       -0.04544617 0.017934121 -0.057297524 0.042698033
0001e0 ab 4a 38 3c 9a f6 d6 bc b8 f6 c2 3d 56 cb 7e 3d
       0.011248271 -0.026240636 0.09519714 0.062205635
0001f0 9d d3 df 3c c8 e4 da bb e2 a2 57 3d f5 84 14 bd
       0.027322585 -0.006680105 0.05264557 -0.03625961
000200 3d b2 84 bd 15 c8 c6 3c 35 e9 18 bc ee ec f3 3d
       -0.06479309 0.024265328 -0.009332945 0.11910425
000210 a6 c0 f8 bb 15 8d b7 3d c6 36 b4 3c 65 90 a8 3d
       -0.007591325 0.08962456 0.021998774 0.08230666
000220 67 28 bb 3d 08 99 e9 bc d2 a1 61 b9 04 44 ea 3b
       0.091385655 -0.028515354 -0.00021517955 0.0071492214
000230 40 21 49 3c 0c 49 b8 bd 62 c6 c8 ba 85 4c ca 3c
       0.012275994 -0.089983076 -0.0015317912 0.02469469
000240 da 48 40 3d c5 c9 ef 3b 72 27 48 bb f9 92 b3 bc
       0.046944477 0.007317754 -0.003054109 -0.021920668
000250 5e 15 8e 3c e5 de ef bd 26 5d b2 bd 25 ac 29 bd
       0.017344173 -0.11712436 -0.08709173 -0.041423935
000260 b6 9e 88 bc 2b c1 b4 bd 60 70 89 bd ee e7 87 3b
       -0.016677242 -0.08825906 -0.06710887 0.004147521
000270 0a 88 60 bd cc ce f4 bc 87 31 d4 3c 02 63 1b 3c
       -0.054817237 -0.029883765 0.025902523 0.0094840545
000280 b4 d0 2e 3c 08 64 45 3d 2e 2d 87 bb a7 c4 22 bb
       0.010669876 0.0481911 -0.004125259 -0.0024836452
000290 69 a1 b7 3b 24 f8 fb bc a3 cf bb 3d fc cf e6 bc
       0.0056039584 -0.030757971 0.09170463 -0.028175347
0002a0 db 53 91 3c a6 77 9d bd 3b 88 a9 3d 7f 13 79 3c
       0.01774018 -0.07688837 0.08277937 0.015202402
0002b0 97 c2 ca 3c b5 82 0f bd 42 7e 4f 3c 1e 42 13 3d
       0.02475099 -0.03503676 0.01266438 0.035951726
0002c0 9f b9 8a 3b fe a3 c4 bc 9d 84 c4 bb a1 9c 1d bc
       0.0042335535 -0.024003979 -0.005997254 -0.009619863
0002d0 70 07 d0 3c a8 2c 87 bd 2d 40 55 bd 16 15 4d 3d
       0.025394171 -0.066003144 -0.052063156 0.050068937
0002e0 94 29 75 3b c0 3e 6d 3d 0d 4f df 3c cd c1 cc bc
       0.0037408816 0.05792117 0.027259374 -0.024994755
0002f0 9b 0f b1 bb 2b b3 a8 3d 67 bd 5e bd 15 42 3e 3c
       -0.0054034716 0.082372986 -0.054379847 0.011612435
000300 86 f5 88 3c 9d cb ba 3b b8 c6 ae bd cd b2 13 3e
       0.016718637 0.005700542 -0.08533996 0.14423676
000310 24 8c 9e 3a d2 93 12 3d f5 f4 83 bc c8 57 81 3d
       0.0012096209 0.035785504 -0.016108016 0.06315571
000320 1a 61 18 3e 5f 7a 1d bc 67 2b 4c 3d 32 ff 3a 3d
       0.14880791 -0.009611695 0.04984608 0.04565353
000330 e1 25 0d bc 45 fe ea bd 02 e6 88 3c f9 a3 5d bc
       -0.008614988 -0.11474279 0.016711239 -0.013527864
000340 70 90 c9 bd 4d 90 12 3c 73 86 05 be f0 24 bd 3d
       -0.098420024 0.008945537 -0.1303957 0.09235561
000350 04 4e a9 bd d6 9c ca bd 32 b6 75 bd 2d eb d3 bc
       -0.082668334 -0.09893195 -0.059988208 -0.025868976
000360 35 4f cb 3a 9d b8 da 3c b6 ae 9f bd 5e c4 07 3d
       0.0015511276 0.026699359 -0.07796995 0.033146255
000370 88 89 20 3d 44 76 05 3d ee 44 35 3c 84 8e f2 bb
       0.03919366 0.03258349 0.011063797 -0.007402243
000380 9d 74 7e 3c 81 27 0e 3d 2f 68 17 bc 34 fc ab 3d
       0.015530732 0.034705643 -0.009241148 0.08397713
000390 91 22 d6 bb 8e 0c 07 be 59 db 88 3d 44 ec af 3b
       -0.0065348824 -0.13188383 0.06682462 0.005368741
0003a0 25 35 71 bc e3 af be 3c f7 07 04 3e 43 9c 4a 3d
       -0.014722143 0.023277229 0.12893663 0.04946543
0003b0 87 ce db bd 24 82 a1 3d bc cd d5 bc 5e 21 09 be
       -0.10732751 0.078861505 -0.026099078 -0.13391635
0003c0 49 55 50 3b c2 58 00 be 03 3a 72 bc 94 58 27 3d
       0.0031789115 -0.12533858 -0.014784339 0.04085596
0003d0 3e 0c 29 3d b5 6b 87 bd 1c 16 27 bd a5 9a 49 bc
       0.04127144 -0.0661234 -0.04079257 -0.012304937
0003e0 21 e7 8f bd c0 24 0a 3d f2 e9 4c ba 74 09 2a be
       -0.07026506 0.033726454 -0.0007816843 -0.16605169
0003f0 da 94 64 bc a7 09 f3 3d 66 fb 08 bd 1d 01 7c bd
       -0.013951505 0.118670754 -0.033442877 -0.0615245

a2c_network.mu.bias f4 [6]
000000 64 33 20 be 17 3a 49 bd 88 a2 10 3d 6b 06 7c 3e
       -0.15644604 -0.049127664 0.035311252 0.24611823
000010 50 30 41 bd db 28 52 bd
       -0.047165215 -0.051308494

exp_avg f4 [6]
000000 2f 63 08 3b 52 77 a8 bb da dc da 3b 54 b7 8f bb
       0.002081107 -0.005141177 0.0066791596 -0.004385868
000010 7b c8 7f 3b f6 4d ce 39
       0.0039029408 0.00039349467

exp_avg_sq f4 [6]
000000 a3 1e a9 3a c4 a9 9d 3a 86 d2 92 3a e0 b1 9e 3a
       0.0012902807 0.0012028744 0.0011201657 0.0012107454
000010 da 02 b3 3a c0 b4 a4 3a
       0.0013657466 0.0012566075
