scripts/runs/Cartpole_13-14-54-36/nn/Cartpole.pth (torch, 28998 bytes, 24 tensors)

value_mean_std.running_mean f8 [1]
00000000: 1bf1 9b9a e7fb 2040
8.492001372848383

value_mean_std.running_var f8 [1]
00000000: d450 7d36 8c1a 2040
8.051850989148456

value_mean_std.count f8 []
00000000: 0000 0080 0000 4f41
4063233.0

running_mean_std.running_mean f8 [4]
00000000: 313d aa97 c296 d53f 6a4b d2dd 4881 b13f
00000010: e4c8 85ad cc24 5fbf c277 f57e c60d 7fbf
0.33732666789088045 0.06837897697032039 -0.0019008635336744068 -0.007581496596086925

running_mean_std.running_var f8 [4]
00000000: c03b 84df 55c3 e33f f373 3221 5766 fc3f
00000010: 0419 8510 db0c 963f a2e2 7b7e d32b fb3f
0.6175946584279401 1.774985437084294 0.021533415683074444 1.6981997433451075

running_mean_std.count f8 []
00000000: 0000 0000 0100 3f41
2031617.0

a2c_network.actor_mlp.0.weight f4 [32, 4]
00000000: e8b8 49be ab02 6dbe 5c61 a5be 760b e03d
00000010: d409 9d3e a47a a1be ffa6 103f 901f 563e
00000020: 9a71 5e3e 2891 373e ea63 af3e 6d21 b6bd
00000030: c6a6 763d ca1c 683e a087 08bd fb9a ea3d
00000040: a827 afbd 066d c0be d3f2 60be 65cb b93e
00000050: f3be 6fbe 3eb8 04be 80f3 94bd 4a2a 7cbc
00000060: 1ca4 09bd 0cc9 c2be feb3 b13e 8d8d 03bf
00000070: f504 713e 09f8 403e ad97 07be c8e5 083c
00000080: 3237 2fbd b6d4 073f 1fde 163e 0bba 67be
00000090: 106d a9bd 6f6e 80be 53d1 9e3e 302c eb3e
000000a0: 337c 833d cd20 39be 5cfd c73e 7b6d 223e
000000b0: 541b c13e b88a c3bc f9ab 1ebf 708e 5fbd
000000c0: 5ed3 acbe 367b f03d 06ce 883e 76e4 8c3e
000000d0: f429 933c 1d23 2c3e 32e1 793e 6b6c 9abe
000000e0: fa42 7c3d c727 79be 7857 09bd 8fad 5ebe
000000f0: a213 183d d140 543d f257 843e 7f2e 6fbe
00000100: 9850 8bbe 8890 b0be 6bbc 483f eb3d e03e
00000110: 9e4d f63e a2a3 013d 5d79 2fbf f06e 81be
00000120: acb1 68be 7544 7dbd 3fa3 cc3e 0184 9e3e
00000130: e154 623d 6bb8 debe 6332 543f 4249 4e3f
00000140: 43c5 893e aed8 103e dd8b a43e 028e 45be
00000150: 9359 eb3d 2dc1 943e edd7 303e 7ad6 6dbe
00000160: b0b2 943e 5e51 053f 2a5c 0dbf f083 b6be
00000170: a5c6 863e 1fa4 973e a036 03bf ee1a 90be
00000180: 12f3 753d bdcc 973e ee83 093e cd5d 2bbe
00000190: 0cf1 aa3e 715a e0bd b4e6 01bf 98a2 27be
000001a0: ee89 9cbe 6602 1abf b488 3f3f dca3 2b3f
000001b0: ba19 8a3e f0b8 f53e 1f1c 34be 0a33 66bd
000001c0: 5425 bb3d a6c7 4ebe d06a 91be a464 78be
000001d0: 9a76 a33e 07a2 d13e 8b4d 0cbe 1d9f 88be
000001e0: f1c4 7ebe 99eb 47be 0248 bebe 925a 93be
000001f0: 1735 d53e c2da 04be fbdc 0e3f 1447 e13d
-0.19699442 -0.23145549 -0.32300842 0.10939686 0.3067156 -0.3153888 0.56504816 0.20910478
0.21723023 0.17926466 0.34255916 -0.08893094 0.06021764 0.22667232 -0.033332467 0.114553414
-0.08552486 -0.37583178 -0.2196763 0.3628799 -0.23412685 -0.12960908 -0.072730064 -0.015390942
-0.033603773 -0.38044012 0.34707636 -0.51387864 0.23537047 0.18844618 -0.13241453 0.008355565
-0.042777248 0.53058946 0.1473317 -0.22629564 -0.08272755 -0.25084254 0.31019077 0.4593215
0.064201735 -0.18078919 0.39060485 0.15862076 0.37716162 -0.023869857 -0.6198116 -0.0545792
-0.3375501 0.117422506 0.26719683 0.27518052 0.01796434 0.1681027 0.24402311 -0.3016084
0.06158731 -0.2433158 -0.033530682 -0.21745895 0.0371281 0.051819626 0.25848347 -0.2335758
-0.27209926 -0.3448527 0.78412503 0.4379724 0.48106092 0.031650193 -0.6854456 -0.2527995
-0.22724026 -0.061832864 0.39968297 0.30960086 0.055256728 -0.43500075 0.82889384 0.8058053
0.2690831 0.14145157 0.32137957 -0.19292453 0.11491694 0.2905363 0.17269869 -0.23226348
0.29042578 0.5207728 -0.55218756 -0.35647535 0.2632343 0.29617402 -0.51255226 -0.28145546
0.060046263 0.2964839 0.13429233 -0.16735001 0.3338703 -0.1095475 -0.5074265 -0.16370618
-0.30573982 -0.6015991 0.7481797 0.67046905 0.26972753 0.4799266 -0.17588852 -0.05620102
0.09137979 -0.20193347 -0.28401804 -0.24257141 0.31926423 0.4094393 -0.13701455 -0.26683894
-0.24879815 -0.19523467 -0.37164313 -0.28780037 0.41642067 -0.12974074 0.5580594 0.10999885

a2c_network.actor_mlp.0.bias f4 [32]
00000000: bb60 10be 08fd 30bc dd20 35bb ae0e 03be
00000010: 6f4f 2abe 70da dabd 6cda 6fbb 6d91 97bd
00000020: 81dc 5d3c 0f84 25be 7bb0 02be 9cf2 52bd
00000030: c873 503c 39e6 8f3d 17a4 8a3d ba4d 033e
00000040: e5ce e6bc a50f d5bd 5f20 ddbd c168 303e
00000050: 2353 ed3d 5fa0 1d3e 087c 17bd 573d cebd
00000060: 173b 053e 49f1 653d 2bb5 863e 3a74 b4bd
00000070: e9b9 38bd f775 573e 0f74 6cbd d0ac c93b
-0.140994 -0.010802515 -0.0027637996 -0.12798569 -0.16631864 -0.10686195 -0.0036598695 -0.07400785
0.013541342 -0.16163658 -0.12762634 -0.0515009 0.012722917 0.07026333 0.06769579 0.12822619
-0.028174827 -0.104033746 -0.1079719 0.1722746 0.11588123 0.15393208 -0.03698352 -0.100702934
0.13010822 0.05613831 0.26310095 -0.08811231 -0.045099173 0.21041094 -0.05772787 0.006154634

a2c_network.actor_mlp.2.weight f4 [32, 32]
00000000: a268 9e3b add8 0dbd 9034 45bd 834d 5c3d
00000010: ab9c 97bc f5de 4cbc 47fd 873c 56c1 a0bd
00000020: c0e7 8a3e 6308 4fbd 026a abbd f873 1ebe
00000030: 13e7 0bbc a847 033e a1e3 ac3d 1f3f b8bd
00000040: 8fcc d13d 52d9 0a3c 585f 953d 0a41 bfbc
00000050: 1c8f 193d 8adb 593e c7cc 4e3d aefe 3cbe
00000060: 7fe8 ee3d 547a 85bd f02f 72bc e635 a5bd
00000070: 713e b33d cac7 ac3d 48c1 053d 32df 1fbd
00000080: 4680 5abc b585 123d 846d 9a3d ce54 893d
00000090: 321d 1fbe 76ab 9abd 2850 1d3e b48f 883d
000000a0: da8a 9abd 454b e5bd 738b cebd 96aa 8bbe
000000b0: a6f0 95bb 1abc bbbd aa22 153e c3a7 8cbc
000000c0: 3011 c0be bb80 10be 9f5e dd3b 3c8f 973d
000000d0: 6ff5 d43c a43e 873c c420 cabc 9fa2 37bc
000000e0: f727 5bbd 0401 4e3e 5bb4 94be eefc afbd
000000f0: 3a8d a4bd 30d3 423e 6f5e 323e eb71 073e
00000100: bb31 50be cbf5 e4bd 129f 8abd 14f9 803e
00000110: 99bb 983d ece6 a43d fb72 cb3d a663 153e
00000120: cd33 adbd 9684 0ebe 0b2f bfbd 7c39 45be
00000130: b557 5e3d 3971 16be ca07 b13c 584f febd
00000140: 3930 6ebe 8491 dfbd 72d2 f6bd 4c81 98bc
00000150: 6b85 973d 6204 2d3d ce7d 1ebe 6189 48bb
00000160: de12 1ebd 31c5 5abd 5966 a4be 0ef5 60bd
00000170: d583 f43d 4676 efbc 3add aa3c caf9 0d3e
00000180: 1b56 823d 6e1e 0cbe 7fcd d23d 82e0 64be
00000190: 62ff bf3d 1952 543e be02 043e 9fea 0ebe
000001a0: a610 50bd b471 3ebe ce72 d13d 0638 30be
000001b0: 8fa5 063e 20fa 703e cbf0 533e 71dc 283d
000001c0: 7221 15be 4525 fe3c a8de 5c3d 4296 cfbd
000001d0: a19a e3bd 52da f8bd cfe3 85bd 7642 66be
000001e0: 2fa7 3fbc d23c 9bbd dbe9 78bd ba4f 373d
000001f0: 92bb 053e 7089 23be e044 89bb 2b23 fabd
00000200: cc65 aebd 70ff 97be a9ae 57bc f4f2 b1ba
00000210: fcad 05bd 2605 793c 10d4 e33d 76d2 02bd
00000220: 6706 72be e6dd 3bbd c7a6 8ebd 2da7 29be
00000230: 83a0 2cbe b88f 1a3e ec0d 233d b636 6c3d
00000240: c82e adbd c53e 4dbd 1575 473e f4b2 1bbd
00000250: 40b5 5ebd 3cbe 2ebe 6a9f efbc ebcb d93d
00000260: 4919 a5bd f86b 8a3d e5c6 04be 91e6 8ebc
00000270: e4af acbd 3dff e6bd d20c da3d dec1 ddbc
00000280: 3fae 37be ff08 26be 7f70 c1bd 783a 1dbe
00000290: 2850 bbbd 0615 333d fe81 b93d 3828 dc3c
000002a0: 96fa 1ebe 7750 02be 6c8f d63d 9e86 72be
000002b0: 48d9 cbbc 30b7 48bd 956c 26be dbdf 02bd
000002c0: c6b7 08bc e89a 5abe c43d 87bd 5635 b6bd
000002d0: f7db 47be 4f2a 91bd cc52 ae3d ddf5 abbe
000002e0: 7402 27bc 147a 78bd f9d1 513d 0d48 9a3d
000002f0: c854 803d 723b 2f3d 2aed 34be e5ba 983a
00000300: 021e 473e c997 10bd f2e2 e4bd 223f 8b3e
00000310: 3132 663d 6110 d3bd 2704 38be a230 d13d
00000320: eed5 a03d 8a2d 14bc 16bf 38bc 6ec5 8bbe
00000330: 86f7 b1bc 150a 5dbe 5d8a df3d b73a b7bd
00000340: b93b 8ebe 01f4 17be 1088 c23b 8e24 71be
00000350: c5be 6abd 3f5c 523e 26ad 703d 57c7 23be
00000360: 3843 8d3e 4817 51be d121 8fbd cd3c 393e
00000370: b49b a43c 5156 2a3e 5963 2cbe e577 a9bd
00000380: 3c7c f73d 8cb5 bebd 4e14 b6bd 5140 6e3c
00000390: 1804 273e d5e0 eb3d f5ca 963d 61f7 8ebd
000003a0: 1fe3 29be f48f f83c d339 173b 17f7 73be
000003b0: 0dc8 d83c b4ff 7bbc 8f20 f93b 59d9 1fba
000003c0: d712 56be 277b 7cbe 18c7 9bbd 9add 9abe
000003d0: 4416 5dbd 76c7 c5bc d792 72be 7fab 0cbd
000003e0: f796 0c3e 0408 a1bc 461e 03be 4fd0 a6bd
000003f0: 68fe 1ebc 3a1f 10bd 0be9 76bd 28bd 2bbe
0.0048342505 -0.034630466 -0.04814583 0.05378486 -0.018507322 -0.012504329 0.016600264 -0.07849376
0.27129936 -0.050545108 -0.08369829 -0.15473926 -0.008538979 0.12820303 0.08441854 -0.089964144
0.102440946 0.008474665 0.07293576 -0.023346443 0.037489995 0.21275154 0.05048826 -0.18456528
0.11665439 -0.06517473 -0.014781937 -0.08066921 0.08752144 0.08436544 0.03265503 -0.039031215
-0.013336247 0.035772044 0.0754042 0.06705628 -0.15538481 -0.07552235 0.15362608 0.06668034
-0.07546015 -0.11195997 -0.100851916 -0.27278584 -0.0045758067 -0.09166737 0.14564005 -0.017169839
-0.37513113 -0.14111607 0.0067556645 0.07400367 0.025995938 0.016509362 -0.024673827 -0.0112082055
-0.05350491 0.20117575 -0.2904385 -0.085931644 -0.08034749 0.19025874 0.17418836 0.1322705
-0.2033147 -0.11179694 -0.067686215 0.25190032 0.074576564 0.08051857 0.0993404 0.14588794
-0.08457146 -0.13917765 -0.093351446 -0.1926021 0.054282863 -0.14691629 0.02161016 -0.12417477
-0.23260583 -0.10916427 -0.12051858 -0.018616341 0.07398494 0.042240508 -0.15477678 -0.0030599462
-0.038592212 -0.053410713 -0.32109335 -0.054921202 0.119392075 -0.029231202 0.020857442 0.13864818
0.063640796 -0.13683483 0.102931015 -0.22351268 0.09374882 0.20734443 0.12891671 -0.13956688
-0.050797127 -0.18598062 0.102269754 -0.17208871 0.13149093 0.23532915 0.20697324 0.041225854
-0.1456354 0.03102363 0.05392328 -0.10136081 -0.111134775 -0.12151016 -0.06537592 -0.2248629
-0.0116975745 -0.0757996 -0.060769897 0.044753768 0.13059834 -0.15970397 -0.0041891187 -0.12213739
-0.0851551 -0.2968707 -0.013164201 -0.0013576434 -0.032636628 0.015198981 0.11124432 -0.031938992
-0.23635255 -0.045865916 -0.06965404 -0.16567679 -0.16858105 0.15093887 0.0398082 0.057669364
-0.084561884 -0.05010869 0.19478257 -0.03801246 -0.054372072 -0.17064756 -0.02925082 0.106345974
-0.080614634 0.06758875 -0.12966497 -0.017443927 -0.08431986 -0.112791516 0.106469765 -0.027069982
-0.17937563 -0.16214369 -0.09445285 -0.15354335 -0.09146148 0.04372122 0.09057997 0.026874647
-0.15525278 -0.12726007 0.10476574 -0.23684165 -0.024883881 -0.049002826 -0.16252358 -0.031951766
-0.008344596 -0.21348155 -0.06603578 -0.08896892 -0.19517504 -0.07088148 0.08511886 -0.33586016
-0.010193456 -0.060663298 0.051225636 0.07533274 0.06266171 0.0427813 -0.17668596 0.0011652379
0.19445041 -0.035301004 -0.11176099 0.27196604 0.05620021 -0.103058584 -0.17970334 0.10214354
0.07853304 -0.0090440605 -0.011276027 -0.27299064 -0.021724474 -0.21585877 0.109150626 -0.08946746
-0.2777994 -0.14839174 0.00593663 -0.23549101 -0.05731084 0.20543002 0.058758877 -0.15994011
0.27590346 -0.20419037 -0.06988872 0.180896 0.020093776 0.1663449 -0.16834773 -0.08274821
0.12084243 -0.09311971 -0.088905916 0.014541701 0.16310155 0.11517493 0.0736293 -0.069807775
-0.16590546 0.03034208 0.0023075237 -0.23824726 0.02646258 -0.015380789 0.0076027582 -0.0006097756
-0.20905624 -0.24656354 -0.076063335 -0.30247194 -0.053976312 -0.024142962 -0.23688827 -0.03434324
0.13729464 -0.019657142 -0.12804517 -0.081452005 -0.00970421 -0.03518603 -0.06028084 -0.16771376

a2c_network.actor_mlp.2.bias f4 [32]
00000000: 698f 3fbe e46c 2c3d db6c cf3d b589 c2bd
00000010: f2f9 be3c 2fdb 1ebe e48b f13c a689 583c
00000020: 1042 c13d 799e 1bbe cb4a a93b c8fb 2ebe
00000030: 2cfc 78bd 4a75 463d fae7 2a3e 8294 bcbd
00000040: 2487 0dbe 80dc 82bd 8fcf b2be 5a75 7fbc
00000050: b0d5 16be b776 833c 5140 593d 7696 2ebe
00000060: 11c6 243d 799c d53c 3e5b 62be 4f2f adbd
00000070: 91a1 23be 60d3 a0be 7b0e a3be d097 15be
-0.1870705 0.042096034 0.101281844 -0.09498922 0.023312543 -0.155133 0.02948565 0.013216412
0.094364285 -0.15197171 0.0051663867 -0.17088234 -0.060787365 0.0484517 0.16690055 -0.09208013
-0.13821083 -0.06389713 -0.3492398 -0.015591944 -0.14729953 0.016047819 0.053039853 -0.17049584
0.040227953 0.026075589 -0.22105119 -0.08456289 -0.15979601 -0.31411266 -0.31846985 -0.14608693

a2c_network.value.weight f4 [1, 32]
00000000: ed4d 903d c827 5ebd d6a7 fcbc 9a79 7f3d
00000010: f255 8f3c 7368 583d cd90 81bc a86a b63d
00000020: d783 473b debb 333d 216e 953d b337 4a3e
00000030: 35d5 c93d 7c7b 753d 1b5c 24be 29dd 36bd
00000040: 6f14 a63d dadd e23c 97c9 713e a06a 4e3d
00000050: 6090 3c3d 7525 7fbd da37 00be 7b0a a93d
00000060: 1723 8ebd 626c 2d3d 0c78 e53d 14f6 2dbc
00000070: 3b7c 8a3d 37d0 303e b103 f33c 3da5 9abe
0.07046113 -0.054237157 -0.03084175 0.062371828 0.017497037 0.052833986 -0.015816117 0.08907062
0.0030443573 0.043880336 0.07296396 0.1974781 0.09855119 0.059932217 -0.1605076 -0.04464451
0.08109366 0.027693678 0.23612057 0.050394654 0.046036124 -0.06229158 -0.12521306 0.08253952
-0.069402866 0.04233969 0.11204538 -0.010617752 0.06761976 0.17266928 0.029664846 -0.30204192

a2c_network.mu.weight f4 [1, 32]
00000000: 228a b7bb b0cc 57bc 642c adbb 60d7 1fbc
00000010: 6ee3 b8bb 073a 40bc 12cc 50bc 1c27 39bd
00000020: 41ff d8bb eff9 db3a 9d23 0fbd c633 073d
00000030: b939 86ba 32fc 03be 33be 2a3e d4d7 35bc
00000040: 61f6 cebb 0c52 2e3d f687 4b3a 463f dabb
00000050: 5121 17bc 475d a03c 6c53 ca3b 99cf b8bc
00000060: 40ff 8f3b c173 593b b6ce 87bc 665e ebbb
00000070: c4ae c0bb 85ca 5b3c 7894 03be 0d66 8ebd
-0.0056011835 -0.01317136 -0.005284833 -0.009755939 -0.005642346 -0.011732585 -0.012743967 -0.045203313
-0.0066222255 0.001678286 -0.034946073 0.03300836 -0.0010240591 -0.12889174 0.16674118 -0.011098821
-0.0063159917 0.042558715 0.0007764095 -0.006660375 -0.009224252 0.019575728 0.0061744954 -0.022559928
0.004394442 0.0033180567 -0.01657806 -0.007182884 -0.0058802087 0.013414984 -0.12849605 -0.069530584

exp_avg f4 [32, 4]
00000000: 9ded 92ba c928 8539 58ba 25ba 85f2 8238
00000010: 3bee d53a 2a8b 28ba 4c4b 2aba a2c7 6dba
00000020: 7fd6 e039 50a3 0e39 9d70 5fba 5102 ddb9
00000030: 4173 1dba 14a2 3d3a 702d 2339 5c26 d639
00000040: 5d96 f6b9 4d6a 1ab9 961c a0b7 1d12 3a39
00000050: a9d9 b8ba c801 b739 6b60 a5b8 e01b b339
00000060: 472f 953a ea6c 07ba d890 713a 8832 53b8
00000070: 02e7 173a 7b54 7939 6bd6 beb9 431a 88b9
00000080: 9fc4 133a a8b0 3c3a 396e 8d3a 1c5a 5d3a
00000090: b05f 80ba ba90 0f39 3848 8639 ceff 4039
000000a0: d9f2 5aba bcba 3239 f6cc fdb9 8abb c8b8
000000b0: df86 cb3a 29d1 0d38 1fba 673a 7f7e a6b8
000000c0: 8d20 9ab9 b263 2e39 7269 4bba 8b39 72b9
000000d0: f1b0 12ba 7917 dc39 65c4 fd39 0e85 093a
000000e0: 13f2 903a 5956 15ba 8d85 a839 62fb a9b9
000000f0: a689 213a b13c fdb9 28a1 2538 26e6 04ba
00000100: d8ff ccba 15c7 193a e38d d03a c9db 763a
00000110: a04a 1b3b dbe8 feb8 8f81 eb3a d839 9839
00000120: bf33 efba cd02 513a 482a a4ba 7327 beb8
00000130: a9ec 0b3a 5ad8 3dba 7dd8 0838 df5b 61ba
00000140: ca86 f93a ee27 2aba 0531 2aba a4af 8eba
00000150: 6f55 b03a 2e10 5239 10da 21ba 5984 f6b9
00000160: 92b2 3f3b a2b8 bb38 ae8c fe3a 2624 ee37
00000170: d047 f33a 73c2 f4b8 b4db 963a d7d3 bdb7
00000180: 6367 2b3a 9e0b 003a ac91 8cba 7c87 03ba
00000190: 8b74 203b b4fe 34b8 6f3b a83a 53e9 ddb7
000001a0: 3d8c d139 9eda 7bba b519 7c3a e740 cfb9
000001b0: b80b 0a3a bfb1 cd39 266e 93b9 29e4 96b9
000001c0: 5f0a 6339 7b87 1a37 73d1 8bb9 e34f 2db9
000001d0: 6f66 e83a bdbc 73b8 9267 23ba 0291 81ba
000001e0: 5bcf db39 e84d a0b9 c166 a639 192d 2439
000001f0: 73c7 a33a e149 a6b9 b548 92ba 25a3 7aba
-0.001120973 0.00025398124 -0.0006322018 6.244056e-05 0.0016321609 -0.00064294285 -0.00064962055 -0.000907058
0.0004288442 0.00013603014 -0.00085235556 -0.0004215413 -0.0006006249 0.00072339294 0.00015561818 0.0004084584
-0.00047032806 -0.00014726185 -1.9086798e-05 0.0001774509 -0.0014102954 0.00034905807 -7.885772e-05 0.0003416231
0.0011381888 -0.0005166071 0.0009215004 -5.035338e-05 0.0005794616 0.00023777962 -0.00036399378 -0.00025959508
0.0005636904 0.00071979547 0.0010790295 0.00084439083 -0.0009794142 0.00013691458 0.0002561228 0.00018405842
-0.0008352227 0.00017044967 -0.00048408628 -9.571675e-05 0.0015527866 3.3811815e-05 0.0008839685 -7.9390586e-05
-0.0002939742 0.00016631073 -0.0007759548 -0.00023100355 -0.00055958243 0.00041979158 0.00048402246 0.0005245962
0.0011058472 -0.0005696766 0.0003214296 -0.00032421487 0.0006162174 -0.0004830114 3.9489154e-05 -0.0005069695
-0.0015640212 0.00058661524 0.0015911426 0.0009416906 0.0023695603 -0.000121550365 0.0017967689 0.00029034796
-0.0018249674 0.00079731346 -0.0012524808 -9.067254e-05 0.00053376943 -0.0007242017 3.2626547e-05 -0.00085967587
0.0019037363 -0.00064909353 -0.000649229 -0.0010886085 0.0013453196 0.00020033188 -0.00061741564 -0.00047019383
0.0029250723 8.9512454e-05 0.0019420588 2.8388644e-05 0.001856083 -0.00011671046 0.0011509568 -2.2629201e-05
0.0006538538 0.00048845436 -0.0010724566 -0.0005017442 0.0024483528 -4.3152555e-05 0.0012835095 -2.6453903e-05
0.00039968072 -0.00096074666 0.0009616868 -0.00039530473 0.00052660285 0.00039233078 -0.00028120092 -0.00028780222
0.0002165227 9.210659e-06 -0.00026668198 -0.00016528326 0.0017730723 -5.811149e-05 -0.000623339 -0.0009885135
0.00041925427 -0.00030575623 0.00031738545 0.00015657059 0.0012495354 -0.0003171703 -0.0011160584 -0.00095610536

exp_avg_sq f4 [32, 4]
00000000: fb53 ed39 c901 1538 0619 6d38 c0a7 f137
00000010: 23f8 9439 a905 c438 26a8 7e38 9f76 9138
00000020: 6cf0 ff39 712f 9738 442a 8038 0fd3 5338
00000030: 0ee8 7139 9ea0 5b38 d550 ab38 7f0d 5938
00000040: 887f 2f3a 39e4 1338 af65 5338 387d e037
00000050: c9c3 7639 f450 3838 3624 3a38 de03 1638
00000060: 896b 473a dfd5 d438 a360 3239 8cf7 b438
00000070: 69de f539 55e0 9938 3e43 c238 c608 7238
00000080: d774 9b3a d3d8 3439 b421 6d39 3ae0 fc38
00000090: 03b4 843a 230a 0239 48df 8d38 cc48 c138
000000a0: adf6 013a 70a8 a938 f9eb 2b38 7d0e 8a38
000000b0: 8ef8 8a3a 666e 4739 17cc 9439 0ffa 2539
000000c0: f534 fa38 e204 8538 fdf0 f338 8b01 5138
000000d0: 1c64 4a39 187e cc37 38e0 1d38 db85 9337
000000e0: f1b9 ac39 bed8 7338 8e5e b538 1975 6138
000000f0: f14e 3339 b8da d437 db24 0438 6e3f c737
00000100: 24a7 933a 7d94 6739 fdd5 e638 9040 2b39
00000110: a3da 553a 8a98 4139 da7d 1439 b5d1 2639
00000120: 5ddc e839 693a c238 caa5 8d38 4ee2 7538
00000130: 4e7b b13a d4d9 8438 392b 6d38 aac6 0138
00000140: eaaa 9d39 5433 3538 fd1b 2838 9a03 f137
00000150: e7d4 1a3a 09eb be38 6b48 0339 b4e1 a238
00000160: 8442 843a 7fc0 c239 ab44 a639 e7ef ab39
00000170: 62b1 1c3a 134b 2939 4c20 a138 56fe 1f39
00000180: 4f93 0c3a 17e6 0b39 6157 4839 f1e3 f438
00000190: df7e 943a dab2 dc38 a4e4 1a39 39ca a038
000001a0: e1c3 bd3a 5bd6 9f38 d7b1 8d38 3d47 4e38
000001b0: 71a6 413a f42e 1c39 7a41 4539 991d 1039
000001c0: 11e9 da39 c286 0138 00b6 0438 f83c c337
000001d0: d30f 7d39 cad7 3838 de5e 5138 933d 1638
000001e0: ca4e 283a 2556 0f39 ab50 f538 8fff f738
000001f0: 9d93 7339 90f0 9838 e521 4538 7572 4f38
0.00045266733 3.552603e-05 5.6528508e-05 2.8807553e-05 0.00028413636 9.3470626e-05 6.071492e-05 6.936234e-05
0.00048816518 7.209078e-05 6.111388e-05 5.0502884e-05 0.00023069998 5.2363255e-05 8.1689715e-05 5.17494e-05
0.0006694724 3.526008e-05 5.040102e-05 2.676119e-05 0.00023533324 4.3944412e-05 4.437958e-05 3.576639e-05
0.00076072715 0.00010148784 0.00017011403 8.629178e-05 0.0004689575 7.3373936e-05 9.263166e-05 5.7705467e-05
0.0011860383 0.00017246911 0.00022614637 0.00012058062 0.0010124448 0.00012401542 6.764993e-05 9.2165166e-05
0.0004957717 8.089922e-05 4.0989344e-05 6.5830514e-05 0.001060264 0.00019019246 0.0002838082 0.0001582878
0.00011930793 6.342844e-05 0.000116320305 4.983092e-05 0.00019301515 2.4377412e-05 3.7640537e-05 1.7586097e-05
0.00032944934 5.813757e-05 8.648365e-05 5.3753236e-05 0.00017100178 2.5374218e-05 3.1505577e-05 2.3752185e-05
0.0011265022 0.00022085193 0.00011007113 0.00016331882 0.00081578846 0.0001846274 0.00014161263 0.00015909116
0.00044414672 9.2615206e-05 6.7542845e-05 5.8623315e-05 0.0013540776 6.334824e-05 5.6545457e-05 3.0941017e-05
0.00030072714 4.3201566e-05 4.0080387e-05 2.8731116e-05 0.0005906359 9.103685e-05 0.00012520111 7.7668024e-05
0.0010090624 0.00037145984 0.0003171315 0.00032794403 0.000597736 0.00016145063 7.683094e-05 0.00015258169
0.0005362527 0.00013341788 0.00019106038 0.00011677284 0.0011329314 0.00010523731 0.0001477176 7.6670614e-05
0.0014477932 7.6216376e-05 6.756529e-05 4.9180573e-05 0.00073871674 0.00014894811 0.00018811776 0.00013743936
0.00041753848 3.08815e-05 3.1640753e-05 2.3274202e-05 0.00024133855 4.4069988e-05 4.9917835e-05 3.5820132e-05
0.0006420432 0.00013669634 0.00011697536 0.00011825479 0.00023229276 7.292733e-05 4.7000027e-05 4.9459242e-05

exp_avg f4 [32]
00000000: 4654 963a 8f6b 67ba f761 2dba 77cc c03a
00000010: dd2d 9038 65ff c23a 4262 cab9 aa04 3f38
00000020: 5cd6 f3b9 d705 d03a 6097 323a 8493 293a
00000030: baea 8839 cfdc b939 164d 4cba 03ea 7cb8
00000040: 1d09 6f3b c9f4 fdb9 3736 083b 9616 033b
00000050: edc4 69ba 8e64 8fba 346a af39 d76e 3638
00000060: 458a 54b9 8f0c b238 8810 0d3b 5473 4b3a
00000070: bbdd 09b9 ea50 d639 55b8 b2ba 026b 08ba
0.0011469207 -0.0008827978 -0.0006614024 0.0014709373 6.874998e-05 0.0014877139 -0.0003860165 4.5542292e-05
-0.00046508282 0.0015870881 0.0006812718 0.000646882 0.00026114826 0.00035450465 -0.0007793469 -6.0299422e-05
0.0036473938 -0.000484383 0.0020784268 0.0020002476 -0.0008917589 -0.0010940002 0.0003345773 4.349541e-05
-0.00020269405 8.490041e-05 0.0021524746 0.00077610207 -0.00013147939 0.00040877546 -0.0013635257 -0.00052039337

exp_avg_sq f4 [32]
00000000: b3f3 ac39 36c9 ff39 6f35 e839 c914 3839
00000010: 63a9 e239 7ac3 8239 591f c639 ec53 8339
00000020: 04a4 993a aa4c 6c3a 5d1f 0c3a 105c 7c3a
00000030: 52bc c539 980a 2d39 5559 8c39 bc94 3339
00000040: 540f 9e3a 402c c53a cb32 113a d298 383a
00000050: 7c77 b739 07a0 4a3a 6355 f73a 2e3e 9c3a
00000060: beb5 783a c5c1 353a c49b 663a 2ea6 223a
00000070: 1149 7939 d2ed 9a39 038b 493a 63d7 c639
0.00032987967 0.00048787304 0.000442903 0.0001755535 0.00043232282 0.00024941174 0.0003778886 0.00025048794
0.0011721854 0.00090141094 0.00053452497 0.00096267555 0.00037715078 0.00016502512 0.00026769438 0.00017126178
0.0012059011 0.0015043095 0.000553888 0.0007041815 0.00034993503 0.00077295344 0.0018870052 0.0011920386
0.0009487531 0.0006933476 0.00087970146 0.0006204572 0.0002377371 0.0002955036 0.0007688256 0.00037925979

exp_avg f4 [32, 32]
00000000: 7f1d 4a37 f36f 8039 295a cd38 425c 8238
00000010: 5696 aab6 0ead 5838 45cb 1ab9 0ff0 2db9
00000020: d3aa 1639 b6ca da39 925f 8439 bf75 8db9
00000030: f657 0f3a 04c1 4338 c385 40b9 0017 0938
00000040: dd35 563a dedb a2b9 417c 083a a563 663a
00000050: 7663 c2b7 588f 6f37 dafe 7bb9 f131 74b9
00000060: 78c2 7538 ec6b 99b9 565f 6e3a ca9c 2ab9
00000070: d947 46b9 fd09 90b9 a5de 9537 151e 3c39
00000080: 29c3 16b8 6944 dfb9 33f2 ceb8 3958 01b8
00000090: 6b8c 1fb9 b98d 5bb8 ac49 b5b8 324f 9538
000000a0: f5a4 fa38 864d e3b9 08ae b9b9 89cf 2839
000000b0: 94f6 3eb9 0cd4 3238 d88b 8d38 34ad e737
000000c0: 347b 24ba 583f 2f39 7096 bdb9 6856 32ba
000000d0: 04aa 1237 49da 1539 f4af a739 c59d 5339
000000e0: abae 0939 2db9 7139 2b7b 15ba c96b 2139
000000f0: 2bce bd38 2b24 c939 3fd2 ab38 0a98 afb9
00000100: 1086 20b8 5804 4db9 eb44 14b8 99ca b6b7
00000110: a2c0 c8b8 1513 25b8 4313 37b8 f1e2 f737
00000120: b406 9438 4e77 64b9 1cc8 37b9 f39c 8238
00000130: e8ed a0b8 3d28 0f38 b80a 0938 730d 0438
00000140: 7247 98b9 df36 7b38 50c9 36b9 99da 99b9
00000150: f44e dd37 f98d c238 b162 1b39 bca7 ad38
00000160: 8717 b138 c233 dd38 f37f 79b9 f1de 9638
00000170: 4d61 f937 e200 5d39 29a3 c137 5397 19b9
00000180: 7919 3039 37eb a8b9 21a3 53b9 43fe b4b7
00000190: 3903 5b38 1913 0739 2ddd dfb8 5089 cbb8
000001a0: 6d1d b537 cfd8 8eb8 2011 21b9 6e23 8e36
000001b0: fcc8 0939 6d24 61b8 230d f1b7 fd37 a5b8
000001c0: 5752 a9b8 8f2b b3b7 45dc fa35 0aff 80b9
000001d0: 2e81 70b9 342f a1b8 62fa 6f38 20ca 0938
000001e0: 7009 0bb8 58be 5c36 7c0e e1b7 c773 acb8
000001f0: fa57 2538 b9f7 beb8 7a97 8239 634a beb9
00000200: 6d50 ee38 c256 9ab9 bfcf 25b9 1d1b a9b7
00000210: d80c c337 5743 a438 ced3 98b8 c02e 25b8
00000220: c09f 8037 604c 09b9 32cd 2fb9 de6a 6038
00000230: 5c8c a637 fcdc 25b8 fb3a 9b36 db4e 70b8
00000240: e64d 55b9 0814 3238 150a b3b8 a7df adb9
00000250: bc1d 23b9 b952 29b8 a3af d738 4ca2 9938
00000260: 490c 7bb7 7319 8238 2f02 35b9 6981 a6b7
00000270: 44d2 7938 3ddd ae36 e7ed 3f39 443e a0b9
00000280: 1951 f838 cc17 4eb8 96b8 74b8 6f5c 3438
00000290: fbc2 8338 9a99 db38 9a4f feb8 6d00 d4b8
000002a0: f444 7f38 49a3 4139 c7c0 7e38 7b8f abb8
000002b0: 1340 9939 5e58 e1b7 80b5 d7b8 3215 71b8
000002c0: 65d9 a639 1079 c9b8 0b88 8139 e0f5 6d39
000002d0: 9fcd 1db9 0302 93b8 69cb 7db8 88a0 5cb8
000002e0: 10ed ceb7 eb94 edb8 b00d aa39 cc44 c6b8
000002f0: 6fb8 26b8 2e26 5eb9 2789 1b39 f73e d7b8
00000300: e8d3 0738 b8de d9b9 0c6a 1cb9 d474 0fb8
00000310: cc7d c3b8 4f96 5937 d1b3 f7b8 280d 19b7
00000320: 3f17 d338 8920 a1b9 d3f7 9db9 05e0 9e38
00000330: bfb2 d5b7 586d 4837 eaf1 b337 5164 92b6
00000340: 466e d5b9 3acf 6b38 9798 62b9 9bd6 00ba
00000350: a222 b5b8 a82d a138 70a6 5e39 725c f438
00000360: 9dca bc38 289b 0539 ce4b a3b9 d0eb 6138
00000370: 8f21 4f38 c961 6739 6339 1539 3b7a c4b9
00000380: 1f43 dc39 5ae2 afba 0733 32ba 1ebf e7b8
00000390: 9dd3 3e36 1093 9b39 7b1c beb9 2ff5 43b9
000003a0: fa0d 1439 fedf 2eba abcf 53ba 05ff 2b39
000003b0: 952f f538 f9d0 fdb8 c376 9936 02c5 4bb9
000003c0: b24c 75ba c7bb b038 b3fa dab9 ab37 bdba
000003d0: e8ee 24ba 0932 abb8 c8da ee39 368f 9039
000003e0: 50fb c737 6212 7239 a88b 3bba 3b46 97b8
000003f0: 8361 4739 1e13 1e39 11a9 3f3a b7e1 b2ba
1.2047006e-05 0.0002449747 9.7919554e-05 6.2160674e-05 -5.083896e-06 5.1659583e-05 -0.00014762308 -0.00016587994
0.00014368752 0.00041731232 0.00025248207 -0.00026981343 0.0005468124 4.6671383e-05 -0.00018360377 3.2684766e-05
0.00081714784 -0.00031062862 0.00052065036 0.0008788652 -2.3172917e-05 1.4278885e-05 -0.00024032165 -0.00023288258
5.8593665e-05 -0.00029262842 0.00090931857 -0.00016270872 -0.00018909517 -0.00027473262 1.7865861e-05 0.00017940284
-3.5944544e-05 -0.00042584844 -9.8679586e-05 -3.083816e-05 -0.00015215731 -5.234566e-05 -8.644475e-05 7.119625e-05
0.000119516546 -0.00043354573 -0.00035415613 0.00016099041 -0.0001821167 4.263599e-05 6.749452e-05 2.7618e-05
-0.0006274462 0.00016712898 -0.00036160974 -0.00068030367 8.741863e-06 0.00014291065 0.00031983817 0.00020181302
0.00013130407 0.00023052534 -0.00057022524 0.0001539431 9.050624e-05 0.00038364655 8.193077e-05 -0.0003349188
-3.8271828e-05 -0.00019551942 -3.5350135e-05 -2.1790433e-05 -9.572624e-05 -3.9356837e-05 -4.364854e-05 2.9550372e-05
7.0584385e-05 -0.00021788219 -0.00017526787 6.228117e-05 -7.673708e-05 3.413133e-05 3.2673328e-05 3.1483778e-05
-0.0002904493 5.9894166e-05 -0.00017431867 -0.00029345302 2.6382018e-05 9.277085e-05 0.00014818717 8.280526e-05
8.4444e-05 0.00010547742 -0.00023794155 7.1940834e-05 2.9728422e-05 0.00021076531 2.308337e-05 -0.0001464759
0.00016794157 -0.00032218706 -0.00020183298 -2.1576072e-05 5.221667e-05 0.00012881718 -0.00010674666 -9.705371e-05
2.1590584e-05 -6.8114714e-05 -0.00015360536 4.2360543e-06 0.0001314021 -5.3678104e-05 -2.8735556e-05 -7.878242e-05
-8.073885e-05 -2.1358746e-05 1.8690558e-06 -0.0002460408 -0.00022936307 -7.6858705e-05 5.7215228e-05 3.285159e-05
-3.3148972e-05 3.289335e-06 -2.6828835e-05 -8.223164e-05 3.9421e-05 -9.106048e-05 0.0002490839 -0.00036295046
0.00011363705 -0.0002943781 -0.00015813018 -2.0158996e-05 2.3251792e-05 7.8326724e-05 -7.2873765e-05 -3.9382605e-05
1.5333178e-05 -0.0001309379 -0.00016765742 5.350529e-05 1.9854102e-05 -3.9544873e-05 4.626226e-06 -5.72939e-05
-0.00020342282 4.2457163e-05 -8.537263e-05 -0.00033163765 -0.00015555968 -4.036978e-05 0.00010284714 7.325839e-05
-1.4963626e-05 6.203623e-05 -0.00017262319 -1.9849003e-05 5.956205e-05 5.2113596e-06 0.00018303805 -0.0003056397
0.00011840667 -4.913639e-05 -5.8346042e-05 4.300143e-05 6.282885e-05 0.00010471344 -0.00012126491 -0.00010109027
6.0860955e-05 0.00018466743 6.0737857e-05 -8.180641e-05 0.00029230173 -2.686324e-05 -0.00010285806 -5.7478617e-05
0.0003182396 -9.6069765e-05 0.00024706157 0.00022693677 -0.00015049287 -7.009881e-05 -6.050934e-05 -5.2601594e-05
-2.4667504e-05 -0.00011328779 0.00032435125 -9.45419e-05 -3.974925e-05 -0.00021185793 0.00014833045 -0.00010263727
3.238386e-05 -0.00041555404 -0.00014916825 -3.420266e-05 -9.321756e-05 1.2969204e-05 -0.00011811371 -9.122574e-06
0.00010065594 -0.00030732554 -0.00030130017 7.575754e-05 -2.5474814e-05 1.19463875e-05 2.1451113e-05 -4.3628174e-06
-0.00040708686 5.622136e-05 -0.00021609884 -0.0004914791 -8.6372034e-05 7.6855824e-05 0.00021233573 0.00011652046
9.002278e-05 0.00012741669 -0.00031146262 5.3863798e-05 4.93839e-05 0.00022066305 0.00014231126 -0.00037475102
0.0004201168 -0.0013418898 -0.0006797765 -0.00011050537 2.8435381e-06 0.00029673474 -0.00036260844 -0.00018687987
0.00014119587 -0.00066709507 -0.0008079956 0.00016402833 0.00011691373 -0.00012102904 4.573581e-06 -0.0001943298
-0.0009357437 8.42731e-05 -0.00041766986 -0.0014436146 -0.00062917033 -8.163235e-05 0.00045557902 0.0002757252
2.3839675e-05 0.00023085767 -0.0007154294 -7.2133225e-05 0.00019014445 0.00015075176 0.00073112646 -0.001364759

exp_avg_sq f4 [32, 32]
00000000: 3100 0436 85f6 5636 930d f535 24af 7235
00000010: 9ec2 df35 6ed0 8b36 eb7a 3336 4925 1436
00000020: 758a 8c35 f0c5 0336 aefc f435 7613 8636
00000030: 3f17 8d36 2f99 9435 5ad4 d035 894b b635
00000040: e641 6136 b2f5 d036 9992 2836 6cc1 6236
00000050: 77c8 1336 c07e ab35 cc42 5936 8adb 4b36
00000060: 99c9 d935 fdef 9736 d953 5836 33b4 1a36
00000070: aea8 6a36 501c 0836 eb5c f336 5eae 7e36
00000080: 89e3 3737 79bf a937 3cb0 3e37 272f ca36
00000090: 651b ee36 8d59 8237 6521 9737 945b 3237
000000a0: 60e0 8036 008b 0137 9d3e 2937 5ef5 3b37
000000b0: 2311 2638 a25f a636 1339 0737 bbcc 0337
000000c0: 9ce1 b537 a727 9537 dcfd 9637 1499 8b37
000000d0: f87a 8e37 49d8 e336 85ce 2c37 adb0 5c37
000000e0: b863 1f37 f163 e436 3bd7 f537 0ead 6437
000000f0: 430c 4537 624a df36 1f60 e137 3839 a837
00000100: 9ce2 0d37 1421 1b37 e6ea a736 3ab8 2636
00000110: 2d78 9536 537c 3a37 cad1 2337 c3bd af36
00000120: eb48 1f36 9c62 7736 ea69 9a36 42d8 2137
00000130: fbeb e637 87a5 5036 60ad 9136 f98e 9a36
00000140: 0923 6137 2987 7c37 36d1 4537 1dc6 0437
00000150: 39b8 0837 b31d 7f36 1ee6 1437 179c 2237
00000160: d2cd c436 80fc ea36 9e5f 8237 8333 0c37
00000170: e819 fa36 4616 a336 5bf0 9c37 f898 1637
00000180: c636 3a36 ffa4 8c36 edb6 3f36 7c63 e935
00000190: 7c62 0c36 44c9 a136 a2f7 8b36 ae1e 7736
000001a0: 0503 6c35 2f58 1b36 a3de 2436 acb9 bd36
000001b0: 3acc 0437 ec6a c135 bffd 0936 e46d f435
000001c0: 2c02 9436 7be6 1537 f40e 7b36 901a 2436
000001d0: 5741 5b36 d111 cf35 e512 bd36 c4b5 a836
000001e0: 6c1f 0836 e5ec 9f36 696d d636 32f6 8e36
000001f0: 627a 7536 56b2 5636 b0dd 1237 afc3 a736
00000200: 587b 7637 50af ae37 e097 6037 021f 0937
00000210: 9ee9 2037 cdd1 8837 6c39 ab37 efe7 3c37
00000220: 6294 ab36 b684 4337 e793 4737 057c 9237
00000230: 6359 2e38 bb2a 9036 fdf1 3337 069b 0237
00000240: db11 0938 89ef dd37 26f7 c537 25d3 ea37
00000250: 1771 9037 a150 eb36 46d7 6637 2f88 7637
00000260: dbef 1d37 9d7e 7937 5975 3438 929e 6737
00000270: 1ca1 9037 5fa4 2b37 c5f9 0a38 c47c bb37
00000280: 1d16 da35 9b17 3736 a904 d535 6166 6635
00000290: 8962 9535 f08e 4f36 50a8 1b36 a55e 0f36
000002a0: 8b4b 9b35 17fa ed35 a54b ba35 cda9 6e36
000002b0: 4304 ce36 53b2 6635 33c8 9635 db40 a135
000002c0: bc0a 7d36 882e b336 7e8a 3436 f4f0 a936
000002d0: 4eeb e935 ec85 8b35 0799 3b36 b70e 4336
000002e0: 887c c935 7a13 6336 ca58 df36 b8ac 2536
000002f0: fd5f 2e36 424c d135 4123 be36 cf98 7236
00000300: 644b ef37 dc79 1438 87f2 ba37 1c2d 4037
00000310: 4084 8a37 4691 1738 bcc3 0538 8a29 e037
00000320: 6da8 3637 d7d2 8837 67db 9637 8c79 1b38
00000330: 200c f238 1833 4637 ac32 6337 a911 8b37
00000340: d3bd 5138 6262 6c38 0c29 3238 09c0 3638
00000350: 50d5 fe37 ced6 7037 a1c0 1538 bf75 1f38
00000360: 75f2 ba37 3cb7 c137 7a6a a038 266b 1938
00000370: 8213 d937 37a9 9a37 498d 8538 ac81 2a38
00000380: 5a95 6738 6a8b 8e38 93a6 2e38 2abf e637
00000390: a7d3 0838 3ad1 8738 8d32 6e38 03a2 5c38
000003a0: d688 dc37 bb2b fb37 0b04 1838 bb94 b438
000003b0: 5d83 8339 3616 b137 a245 d737 d497 0638
000003c0: 4a75 dd38 9aea 0239 cc8e ae38 07e2 aa38
000003d0: 030c 5438 25f6 f937 a11e 8b38 f82c 9738
000003e0: 3c69 3e38 b13b 7f38 7f27 5a39 9425 8a38
000003f0: eae4 5138 b857 1938 afa0 0239 4e0b a338
1.9669644e-06 3.2031978e-06 1.8257873e-06 9.040689e-07 1.6671436e-06 4.166787e-06 2.6744626e-06 2.2075421e-06
1.0471109e-06 1.9635736e-06 1.8252956e-06 3.9957768e-06 4.2048337e-06 1.1071442e-06 1.555901e-06 1.358204e-06
3.356597e-06 6.2274858e-06 2.5119282e-06 3.378921e-06 2.2021393e-06 1.2777382e-06 3.23744e-06 3.0377146e-06
1.6226433e-06 4.528089e-06 3.2235314e-06 2.3052678e-06 3.4966902e-06 2.028206e-06 7.2527814e-06 3.7950444e-06
1.0960627e-05 2.0235531e-05 1.1365915e-05 6.0255584e-06 7.096142e-06 1.5538908e-05 1.8016153e-05 1.0630949e-05
3.840818e-06 7.721363e-06 1.0087763e-05 1.1203198e-05 3.9593444e-05 4.9583186e-06 8.059916e-06 7.855876e-06
2.1681939e-05 1.7780649e-05 1.7999606e-05 1.6641374e-05 1.698498e-05 6.790306e-06 1.0300083e-05 1.3154157e-05
9.500356e-06 6.806564e-06 2.93065e-05 1.3630151e-05 1.174497e-05 6.654577e-06 2.686685e-05 2.0053805e-05
8.4570165e-06 9.2464215e-06 5.0043336e-06 2.4843162e-06 4.4545363e-06 1.111541e-05 9.764402e-06 5.2374976e-06
2.373529e-06 3.6863266e-06 4.6018877e-06 9.646699e-06 2.7528024e-05 3.1090765e-06 4.3415203e-06 4.606202e-06
1.3419202e-05 1.505184e-05 1.1790826e-05 7.91394e-06 8.149124e-06 3.8015248e-06 8.875066e-06 9.692295e-06
5.865216e-06 7.0031383e-06 1.5541733e-05 8.356644e-06 7.4535965e-06 4.8603715e-06 1.8708573e-05 8.9763125e-06
2.7748042e-06 4.191533e-06 2.8567695e-06 1.7388807e-06 2.091895e-06 4.8216043e-06 4.171351e-06 3.6823726e-06
8.7921245e-07 2.314813e-06 2.4567496e-06 5.654254e-06 7.915363e-06 1.4410739e-06 2.056229e-06 1.8211399e-06
4.4109966e-06 8.934755e-06 3.7410618e-06 2.4453366e-06 3.2671576e-06 1.5427887e-06 5.6348385e-06 5.0279505e-06
2.028387e-06 4.7661474e-06 6.390434e-06 4.2605907e-06 3.657908e-06 3.199229e-06 8.753894e-06 4.9997684e-06
1.4691461e-05 2.0824053e-05 1.3386802e-05 8.173056e-06 9.591136e-06 1.631016e-05 2.0411528e-05 1.12596745e-05
5.113471e-06 1.1653805e-05 1.18957605e-05 1.7462307e-05 4.156808e-05 4.296509e-06 1.0725574e-05 7.784698e-06
3.2679975e-05 2.6456795e-05 2.3599318e-05 2.7993296e-05 1.72188e-05 7.012932e-06 1.3759191e-05 1.469445e-05
9.413775e-06 1.4871036e-05 4.3024633e-05 1.3805593e-05 1.724116e-05 1.0230665e-05 3.313438e-05 2.2350236e-05
1.6248702e-06 2.7282865e-06 1.5871093e-06 8.583066e-07 1.1130043e-06 3.0928604e-06 2.319477e-06 2.136375e-06
1.1570386e-06 1.7730662e-06 1.3880095e-06 3.55636e-06 6.1397745e-06 8.594117e-07 1.1234137e-06 1.201431e-06
3.7706186e-06 5.3400327e-06 2.6902703e-06 5.064643e-06 1.7428335e-06 1.0395283e-06 2.7954245e-06 2.906583e-06
1.501191e-06 3.3836973e-06 6.6562543e-06 2.4687452e-06 2.5983893e-06 1.5593907e-06 5.6665453e-06 3.6149756e-06
2.8526127e-05 3.539944e-05 2.2285863e-05 1.1454595e-05 1.6512466e-05 3.6136502e-05 3.1891963e-05 2.6722224e-05
1.088726e-05 1.6310643e-05 1.798356e-05 3.706808e-05 0.00011541718 1.1813616e-05 1.3542052e-05 1.6578315e-05
5.000627e-05 5.635841e-05 4.2476735e-05 4.3571028e-05 3.0378491e-05 1.4355128e-05 3.5703768e-05 3.8018214e-05
2.228583e-05 2.3092718e-05 7.649227e-05 3.6577832e-05 2.58775e-05 1.8437027e-05 6.3682506e-05 4.0651925e-05
5.5213786e-05 6.7970555e-05 4.1639967e-05 2.7507154e-05 3.2622043e-05 6.476273e-05 5.67907e-05 5.2602973e-05
2.6289763e-05 2.9941895e-05 3.624339e-05 8.610772e-05 0.0002508414 2.1110387e-05 2.5662423e-05 3.208949e-05
0.00010559948 0.00012485162 8.3235645e-05 8.1483326e-05 5.0555926e-05 2.9797733e-05 6.6337416e-05 7.208617e-05
4.5397537e-05 6.085233e-05 0.00020804814 6.587352e-05 5.0042676e-05 3.6559737e-05 0.00012457625 7.774551e-05

exp_avg f4 [32]
00000000: 0456 7c39 79ee 0f3a 8696 be39 691d 5939
00000010: db5b 2839 32d0 a5b7 edd6 133a 4521 933a
00000020: e3f9 b239 b9f5 27b9 36d6 e039 fbb5 9338
00000030: 25a1 1639 a200 cc3a 61b4 b5bb f653 143a
00000040: 94f6 0839 e775 91ba 43af e03a da8a 3f38
00000050: 309e 8ab8 0755 7bb7 f155 d039 5421 2639
00000060: fe8d 033a 986c ae39 45a1 da39 b2dc 66b8
00000070: 98fa 26b8 a971 b438 3d7d 173b 872e 973a
0.00024064636 0.0005490552 0.00036351773 0.00020705689 0.00016055947 -1.9766481e-05 0.00056396314 0.0011225125
0.00034136986 -0.000160179 0.0004288421 7.043403e-05 0.00014365146 0.0015564153 -0.0055451845 0.0005658263
0.00013061828 -0.001109776 0.0017142076 4.5667264e-05 -6.6098175e-05 -1.4980563e-05 0.00039736883 0.0001584341
0.0005018412 0.00033268775 0.00041700355 -5.504181e-05 -3.9810868e-05 8.60424e-05 0.002311542 0.0011534252

exp_avg_sq f4 [32]
00000000: 6777 5038 a2fc 7c39 8bf6 de38 9fe9 7238
00000010: 14f9 ad39 8c75 4138 0d28 e339 3c5b 803a
00000020: 48a4 c938 2398 3039 1f6d 4e3a 374d 103a
00000030: 7441 4339 ec86 e63a b7f0 e43a 3dac 1d39
00000040: cc79 8d38 ac43 c739 196e ed38 2e4c 153a
00000050: be14 9338 14a5 4139 b051 9c39 3f29 0239
00000060: fee1 7839 bc47 0738 016b fc38 abdb 8139
00000070: 2002 9d38 d3ff b739 bb7b 2c3a 9779 8d3a
4.9702267e-05 0.00024126706 0.00010631707 5.7914873e-05 0.0003318271 4.612426e-05 0.00043326654 0.0009792815
9.615027e-05 0.00016841343 0.00078745367 0.000550467 0.00018621032 0.0017587817 0.0017466758 0.0001503685
6.7460904e-05 0.00038006657 0.00011321548 0.00056952506 7.01337e-05 0.0001846741 0.000298155 0.00012413131
0.00023735312 3.2253316e-05 0.000120362274 0.00024768463 7.486739e-05 0.00035095084 0.00065797166 0.0010793683

exp_avg f4 [1, 32]
00000000: cb64 523b 6cae a0bb eeb1 6abb e53b dfb8
00000010: 3a18 acba 1426 8b3a 5c55 48bb 5a88 13ba
00000020: 20ac 6ebb 1d3f 0b3c 606c e1b9 2f5f ce3a
00000030: 9497 b93a 7e64 fe38 8e2c 84bb 1e4a eabb
00000040: 3016 b53b dde5 13bb d05b 9a3b b299 3cbb
00000050: 574a c439 ea4c 833c 7cab 053c 1cae 6d3a
00000060: 725e a3bb 7ac3 eb39 293d 473b b03b b73b
00000070: c395 a23b 4727 fbba 32a4 0cba d50b a1bb
0.0032103534 -0.004903605 -0.003581162 -0.00010644625 -0.0013129779 0.0010616207 -0.0030568456 -0.0005627923
-0.0036418512 0.008498934 -0.0004299609 0.001574492 0.0014159554 0.00012130382 -0.0040336316 -0.0071499487
0.0055263266 -0.002256743 0.004710652 -0.0028778133 0.0003743942 0.016027886 0.008158561 0.0009066777
-0.004985624 0.00044968334 0.0030401445 0.005591832 0.0049617006 -0.0019161486 -0.0005365043 -0.0049147406

exp_avg_sq f4 [1, 32]
00000000: 8960 1c3a 6a9f c63a 93ed f93a 08d6 be3a
00000010: b0d6 833a 2d15 9c39 ceac 483b 3f51 693b
00000020: aa55 893a 7e1a df3a 3f7e e03a d133 073c
00000030: b68f b43a bf0c 3b3b 4fb0 1d3b 1d68 383b
00000040: 6107 0b3a bd8d a03b fca1 e53a 37d1 3e3c
00000050: 9dda 9a3a 6716 e53b 37f2 903a 9587 253a
00000060: 708a fb3a d1d1 6239 f686 143a e855 a83a
00000070: b943 cc3a 73c5 423d df82 783b 8705 d63b
0.00059653126 0.001515371 0.0019067995 0.0014559636 0.0010058489 0.00029770416 0.0030620578 0.0035601405
0.00104778 0.0017021445 0.0017127468 0.0082521 0.0013775739 0.0028541533 0.0024061387 0.0028138228
0.0005303529 0.004899709 0.0017519589 0.01164656 0.0011814419 0.006991196 0.0011058514 0.0006314454
0.0019191038 0.00021631202 0.00056658627 0.0012842985 0.0015584148 0.047551583 0.0037919802 0.0065314206

exp_avg f4 [1, 32]
00000000: b907 f3ba 68a8 3cbc 3852 65bc bd23 24bc
00000010: b15e 58bc 618b e43a a989 9cbc 8dfc a4bc
00000020: 92df 2bbc d000 e53c 8151 f3bb 82a2 8abc
00000030: 718c 1bbb c8e2 0bbc 7b1e 11bd c19a 5dbc
00000040: 7251 ab3b 1905 ebbc 4000 f3bb 369b 7a3a
00000050: be6f e83b 9fc1 1c3d db17 f43c 4eac 4c3b
00000060: a799 bcbc 3934 10bc 8dde 153a 8b84 c73c
00000070: e16a 6b3c 88d2 de3b 993c 7cbc e499 13bb
-0.001854173 -0.011514761 -0.013996653 -0.010018286 -0.01320617 0.0017436558 -0.01910861 -0.020139957
-0.010490315 0.027954489 -0.0074254875 -0.016923193 -0.0023734833 -0.008537956 -0.03542946 -0.013525666
0.005228215 -0.028688954 -0.0074158013 0.00095598714 0.007093399 0.03827059 0.029796531 0.0031230631
-0.023022486 -0.008801513 0.00057170616 0.024355194 0.014368744 0.0067999996 -0.015395307 -0.0022522146

exp_avg_sq f4 [1, 32]
00000000: 8f06 043b ee3b 623b d34c 703b 0e03 c93b
00000010: 0432 123b 57fb 163a faf4 073c f041 273c
00000020: 50ad 253b 1867 a53b fa20 963b ff3a df3c
00000030: 858f 343b 06c2 1b3c c3d1 2c3c a57c 093c
00000040: d9f8 b53a a159 5e3c a9dc 5a3c 5138 5a3c
00000050: c9f2 243b df33 bb3c 8406 113c 1da0 cb3a
00000060: 894a 953b 3960 113a ff9f 253b 9305 a53b
00000070: d533 663b cdcc 623d c02e 853c 750b 0d3d
0.002014551 0.0034520584 0.0036666885 0.0061343974 0.0022307644 0.00057594985 0.008298153 0.010208592
0.0025280304 0.00504769 0.004581568 0.027249811 0.0027551365 0.009506708 0.010548058 0.008391534
0.0013883366 0.013571174 0.013358274 0.013319091 0.0025169125 0.022851883 0.008851651 0.0015535388
0.0045560044 0.00055456493 0.0025272367 0.005036065 0.003512611 0.055371094 0.016257644 0.034434754
