IsaacGymEnvs/isaacgymenvs/runs/Bolt_10-14-44-32/nn/last_Bolt_ep_350_rew_0.028525494.pth (torch, 612486 bytes, 36 tensors)

value_mean_std.running_mean f8 [1]
0.04057890091570679
00000000: 2c61 aef8 c1c6 a43f

value_mean_std.running_var f8 [1]
0.0008884900202043378
00000000: 4855 30ca 311d 4d3f

value_mean_std.count f8 []
33601.0
00000000: 0000 0000 2068 e040

running_mean_std.running_mean f8 [30]
0.08264174145146327 0.10291769735581197 -0.4190752365838757 -0.41379740552860433 0.1833476771941288 0.09360267441396268 0.011169811598630643 -0.07202138051454517
-0.38269016030295827 -0.13499434625355325 -0.07243751369837553 -0.00036754644553538344 -0.037545399118384885 -0.0003898126707274697 -0.038804365516007785 0.11538284942639676
-0.05411803263854476 -0.010294156552135376 -0.003208694581293171 -0.008039196770783515 0.003054078188767225 0.01878595378170727 -0.0027100380143433096 -0.013077417607142856
-0.1399348004078142 0.0012667386833454131 -0.07094782879470225 0.3207989829642794 -0.12933688581568106 -0.04718138730836038
00000000: ae8a d158 0228 b53f 84a5 5270 d058 ba3f
00000010: c43c ecf0 20d2 dabf 728f fa1c a87b dabf
00000020: 2455 acca ef77 c73f 4315 6d49 58f6 b73f
00000030: ce17 26bc 32e0 863f e538 ec41 fe6f b2bf
00000040: 1924 c0de fe7d d8bf 91e6 26a7 7e47 c1bf
00000050: 148c 56d0 438b b2bf 0d28 9df6 6716 38bf
00000060: 574f a88a 2639 a3bf 7c88 1eac f88b 39bf
00000070: 26a4 aa71 2ade a3bf 2840 cefc ba89 bd3f
00000080: d1e1 9cd8 5bb5 abbf 37c1 d94d 1a15 85bf
00000090: 4fa3 43c9 1e49 6abf 5ea5 bbb9 da76 80bf
000000a0: def8 15be dd04 693f 0e66 7704 a03c 933f
000000b0: d188 8f94 5c33 66bf 77b0 8247 55c8 8abf
000000c0: e673 a92f 62e9 c1bf c848 ec4d 16c1 543f
000000d0: 6d3c 650c a329 b2bf 2bfc 1a75 f887 d43f
000000e0: cd56 5f6f 1c8e c0bf 5b4a f0a6 2828 a8bf

running_mean_std.running_var f8 [30]
0.9139939396503929 1.1073367622186834 1.2832236643765802 1.8219439249977336 0.715046163617471 0.2534512020252664 0.12343844338360073 0.19539696511114546
0.5491915227682342 5.2158080741241415 1.4226960348887445 0.02072547170780068 0.10357545864585575 0.06700675512768003 0.08530764511001467 0.10196702215487266
0.08905544652880641 0.08323853547322185 0.15245430446032446 0.22790974777643938 0.20395190783002357 0.15200703167554755 0.2308000462229962 0.16351426928092805
0.805369310095443 0.7728322574509642 0.7698466187345417 0.72489930680055 0.8596274262144888 0.7816508330598757
00000000: e24c f137 703f ed3f 5234 b6c0 a6b7 f13f
00000010: 0936 7f89 1588 f43f a42d 50ac ae26 fd3f
00000020: f2c0 fb7d a8e1 e63f 6825 f563 8b38 d03f
00000030: a5d6 666d a999 bf3f 44ec 718b c402 c93f
00000040: cef5 b019 fa92 e13f c14d b2ca fcdc 1440
00000050: c0ef dfea 5cc3 f63f 3a7a b7dc 0e39 953f
00000060: c359 8dd7 eb83 ba3f 5e6c e2cd 5a27 b13f
00000070: 49a6 d8c9 b8d6 b53f baf9 6cc1 821a ba3f
00000080: db34 5f76 56cc b63f 3cda 9fe3 1e4f b53f
00000090: 8b50 e565 9f83 c33f 61d8 9188 252c cd3f
000000a0: df1a 0b9b 181b ca3f 597d e766 f774 c33f
000000b0: 18b6 381d db8a cd3f 94d6 7e1b 09ee c43f
000000c0: fdfb 01dc 95c5 e93f bb76 e1b6 0abb e83f
000000d0: 4dd5 4c60 95a2 e83f f03e f307 6032 e73f
000000e0: 8dbf 4a60 1182 eb3f 2c44 9c9b 4803 e93f

running_mean_std.count f8 []
16801.0
00000000: 0000 0000 4068 d040

a2c_network.sigma f4 [6]
-0.11942005 -0.059025608 -0.09446185 -0.13883232 0.026300846 -0.081958845
00000000: 8092 f4bd d6c4 71bd 3775 c1bd 0f2a 0ebe
00000010: df74 d73c 0ada a7bd

a2c_network.actor_mlp.0.weight f4 [256, 30]
0.16183934 -0.088028006 0.19286749 -0.005966826 -0.030662052 0.07978487 0.028453933 0.094587415
0.026125938 -0.024288613 0.06916197 0.01887741 0.10838568 0.089924484 0.1274328 -0.075349964
0.1189231 -0.013393955 0.032522466 -0.15497425 -0.1235009 -0.018744532 -0.21414565 0.14567783
0.048135765 0.011896385 0.08367294 -0.010950501 0.08911825 -0.10862467 0.039633963 -0.19194546
0.008671107 -0.060961083 0.06573313 -0.040387068 0.14869504 -0.16248316 -0.010081837 -0.07668981
0.16441381 0.15664147 0.19957997 -0.11019691 -0.15530284 -0.11921826 -0.087211594 0.07105721
0.051333837 0.1768324 -0.12061706 -0.10109915 0.081074946 -0.11996837 0.11049752 -0.0050514364
0.049945183 -0.06820875 -0.07832537 0.05468784 0.110991225 -0.056432623 0.10426232 0.09531744
-0.077384934 -0.07068192 0.21213591 -0.020941976 -0.063607424 -0.24010614 -0.11084807 0.031071348
-0.013626908 -0.11717789 -0.08867568 -0.15709944 -0.15961401 -0.053911924 -0.180131 -0.17340516
0.16343626 0.05325872 0.135161 -0.1827764 -0.15487629 -0.06661219 -0.056998733 -0.17566326
-0.033139467 -0.09476653 -0.04806607 -0.08223089 -0.007565337 -0.0835776 -0.13589366 -0.091071494
-0.08083119 -0.2285015 0.17029688 0.0007484573 0.15458529 -0.002493806 -0.15085046 0.13104427
-0.01328511 -0.034736708 -0.15893851 -0.122335054 0.0731118 -0.0030033216 0.12672992 -0.21200562
0.13867603 -0.11610529 -0.022307502 0.07867515 0.08060338 0.21762842 0.12973022 -0.17860301
0.07765864 -0.08666832 -0.0075069605 -0.21159406 0.18843816 -0.08491423 0.15440977 0.11540903
0.1277694 -0.06808064 0.1947071 0.08754184 0.07068708 -0.14775103 0.13483317 -0.020400677
-0.022959743 0.16464446 0.054059535 -0.035406403 -0.091562234 0.015812203 0.04328769 -0.020130064
-0.121241525 -0.012649079 -0.12135297 0.13318416 0.11279237 -0.2054585 0.10987089 0.08048735
-0.043404456 -0.17678472 0.07971663 0.10679996 0.07823458 -0.14180887 -0.01840007 -0.045651056
0.008900999 -0.026731793 0.118346065 0.1536372 -0.029438797 -0.043034688 0.032143246 -0.046330012
0.04745026 0.09841834 -0.14713755 -0.06962519 0.1893836 0.040390894 -0.05133312 -0.09078113
-0.18849571 -0.12324974 -0.023105334 0.03351409 0.1866649 0.021156391 -0.19325632 -0.10240198
-0.046332467 0.16219924 -0.003792791 -0.08297233 0.10100576 -0.17291558 -0.19030486 0.12346588
-0.0964685 -0.03681574 -0.19962281 0.09428003 0.15059485 0.10394818 -0.13260245 -0.23473303
-0.09456024 0.13493158 0.15253544 0.15425524 0.048370365 0.054143857 -0.02191943 -0.12922026
-0.109128 -0.17434411 0.10254297 -0.12337497 -0.113145016 -0.15855013 -0.021507423 -0.092401
-0.15139934 -0.040181465 -0.025897168 0.032793384 -0.068841636 -0.12659873 -0.0075001153 -0.118530974
-0.08986766 -0.18966068 0.09866286 -0.04758561 0.112857506 0.03887532 0.13201849 -0.13517289
0.1966202 -0.046668787 0.07894901 0.1771027 -0.091049924 0.056940757 -0.04351199 -0.17398784
0.060100567 -0.16275345 0.15880461 0.23555568 0.14587198 -0.053755008 -0.060242724 0.04812236
0.09840613 -0.10375592 -0.02773025 -0.0036573214 -0.068162374 -0.069022276 0.021357404 -0.037957124
00000000: 36b9 253e 0748 b4bd 0e7f 453e 5d85 c3bb
00000010: fc2e fbbc 4066 a33d 3918 e93c 0cb7 c13d
00000020: 1006 d63c eaf8 c6bc caa4 8d3d cca4 9a3c
00000030: 50f9 dd3d 542a b83d be7d 023e 1551 9abd
00000040: f48d f33d 5272 5bbc 4736 053d 92b1 1ebe
00000050: 0aee fcbd 228e 99bc ff48 5bbe 922c 153e
00000060: 022a 453d 0ee9 423c b85c ab3d bb69 33bc
00000070: a183 b63d 9c76 debd 3957 223d 5a8d 44be
00000080: 4211 0e3c 54b2 79bd 179f 863d e96c 25bd
00000090: 8343 183e fc61 26be 4a2e 25bc 8c0f 9dbd
000000a0: 185c 283e 9f66 203e b15e 4c3e ebae e1bd
000000b0: b507 1fbe b428 f4bd fe9b b2bd 7186 913d
000000c0: 6e43 523d 8d13 353e 1406 f7bd 120d cfbd
000000d0: 9f0a a63d fab1 f5bd 864c e23d 8586 a5bb
000000e0: 5293 4c3d 07b1 8bbd 0d69 a0bd 5b00 603d
000000f0: 5e4f e33d e525 67bd 7c87 d53d ca35 c33d
00000100: fe7b 9ebd afc1 90bd 283a 593e 828e abbc
00000110: 9c44 82bd 62de 75be 5004 e3bd 5789 fe3c
00000120: 6543 5fbc f6fa efbd 989b b5bd adde 20be
00000130: db71 23be c0d2 5cbd 4374 38be 1f91 31be
00000140: d65b 273e d125 5a3d a567 0a3e bd29 3bbe
00000150: e497 1ebe f96b 88bd 8177 69bd 12e1 33be
00000160: 40bd 07bd f414 c2bd ede0 44bd ab68 a8bd
00000170: a5e6 f7bb bc2a abbd b527 0bbe b183 babd
00000180: d38a a5bd 4cfc 69be 4e62 2e3e 1f34 443a
00000190: 9b4b 1e3e 1f6f 23bb 8b78 1abe 7830 063e
000001a0: caa9 59bc 1448 0ebd c7c0 22be cd8a fabd
000001b0: a4bb 953d 60d3 44bb 7dc5 013e 0018 59be
000001c0: 1701 0e3e 9cc8 edbd 39be b6bc 7020 a13d
000001d0: 6313 a53d fcd9 5e3e 00d8 043e b5e3 36be
000001e0: 7e0b 9f3d 297f b1bd f3fc f5bb 1dac 58be
000001f0: eff5 403e 83e7 adbd 981d 1e3e 925b ec3d
00000200: fbd5 023e dd6d 8bbd 4c61 473e 2349 b33d
00000210: 63c4 903d 0c4c 17be b511 0a3e 521f a7bc
00000220: 1216 bcbc 8f98 283e 886d 5d3d 4e06 11bd
00000230: fb84 bbbd 9888 813c 6f4e 313d cee7 a4bc
00000240: 7a4d f8bd 153e 4fbc e887 f8bd 6e61 083e
00000250: b0ff e63d b763 52be fd03 e13d 8dd6 a43d
00000260: dfc8 31bd 0e07 35be 7942 a33d f0b9 da3d
00000270: 7439 a03d 5836 11be bebb 96bc 9afc 3abd
00000280: 7fd5 113c a2fc dabc 6c5f f23d 1253 1d3e
00000290: a229 f1bc 2445 30bd a3a8 033d 8ac4 3dbd
000002a0: 345b 423d 8e8f c93d 3aab 16be a797 8ebd
000002b0: c6ed 413e ec70 253d ad42 52bd 75eb b9bd
000002c0: 0505 41be 5c6a fcbd 6647 bdbc 1246 093d
000002d0: 1525 3f3e 2b50 ad3c fce4 45be 21b8 d1bd
000002e0: 1dc7 3dbd 8f17 263e 7990 78bb 66ed a9bd
000002f0: 1cdc ce3d c810 31be 47df 42be aedb fc3d
00000300: 4791 c5bd 1acc 16bd ec69 4cbe e315 c13d
00000310: 8935 1a3e c9e2 d43d f0c8 07be db5d 70be
00000320: cda8 c1bd 812b 0a3e 4032 1c3e 16f5 1d3e
00000330: 0120 463d f3c5 5d3d 6090 b3bc 5152 04be
00000340: 807e dfbd 4387 32be 0c02 d23d 04ac fcbd
00000350: 93b8 e7bd f75a 22be 5630 b0bc bc3c bdbd
00000360: 6e08 1bbe 5295 24bd 4c26 d4bc 5b52 063d
00000370: d8fc 8cbd 19a3 01be 87c3 f5bb 5ec0 f2bd
00000380: 890c b8bd 6936 42be c10f ca3d 21e9 42bd
00000390: d621 e73d ba3b 1f3d db2f 073e c36a 0abe
000003a0: ce56 493e c527 3fbd 05b0 a13d 695a 353e
000003b0: 6278 babd b63a 693d a139 32bd de29 32be
000003c0: 032c 763d d7a8 26be ad9d 223e 8235 713e
000003d0: 775f 153e 362e 5cbd 13c1 76bd f41b 453d
000003e0: 2789 c93d fc7d d4bd 8d2a e3bc acaf 6fbb
000003f0: b798 8bbd 8d5b 8dbd b9f5 ae3c ee78 1bbd

a2c_network.actor_mlp.0.bias f4 [256]
0.027539292 -0.056275796 -0.018208167 -0.028233148 0.02683879 -0.055672467 -0.021405106 -0.047063787
-0.11617606 0.02985127 0.068461865 -0.0009752689 -0.10110919 -0.11839082 0.05102305 -0.038933277
-0.09102273 0.061634358 0.042316493 0.0086730365 -0.017445482 0.059112288 0.08612239 0.025138136
0.053241327 -0.029569436 0.0865146 -0.027094994 -0.036917325 -0.08069364 -0.07486274 0.081539564
0.052677516 -0.007091369 -0.017835109 0.11745229 0.0135209 -0.042270653 0.071016274 0.005701211
-0.055289343 0.029695114 -0.039256223 0.02445651 -0.032188673 0.0237006 0.07610121 0.07545772
-0.011089009 -0.036230933 -0.1339683 0.07148961 -0.084674194 -0.020110147 -0.045320246 0.03516072
-0.019729232 0.13718288 -0.040491544 0.009051409 -0.036729667 -0.05220508 0.0134215485 -0.03524963
-0.029195674 -0.06941301 -0.0083860755 0.043046243 0.02572276 0.051775154 -0.0043347613 0.00318694
0.06285515 -0.016673822 -0.10478268 0.047250714 -0.07558678 -0.01517521 -0.040939778 -0.08232587
0.037061963 0.00087800965 0.062973954 0.04904168 -0.066792674 0.0008977038 0.014063925 -0.09725533
0.014064171 -0.032489963 0.1650159 0.018181523 0.07397761 0.11560979 0.076992854 -0.10482111
0.05390221 0.111793555 -0.106848754 -0.070629254 0.054413974 -0.028591907 -0.0137291895 -0.089018434
-0.024385288 -0.0077237464 0.038672138 0.07843104 -0.01027914 -0.1389074 -0.02743112 -0.0040376536
-0.0021363797 0.0130762225 -0.11606568 0.04316236 -0.08080185 0.005244383 -0.01306808 0.035163734
0.009593679 -0.00843933 -0.043259926 0.0506043 -0.0071444125 -0.12151723 -0.06375537 0.06639635
0.06125901 -0.1163778 -0.01767392 -0.044949476 0.022212094 -0.0094031645 -0.13063449 -0.09553585
0.11597926 0.026495064 -0.05276381 0.036311712 0.024908517 -0.02094487 0.03560797 0.033664633
0.06286078 0.024142606 0.002572725 0.06857025 -0.13447918 -0.040122483 -0.033607326 0.051917884
-0.029394632 -0.0963938 0.0881194 0.07655017 -0.050444365 -0.11657954 0.046012912 0.025649248
0.14516951 -0.022519216 0.07759603 0.09563337 0.032017387 -0.06346673 0.040656622 0.02079139
0.05808546 0.027258638 0.07573474 -0.039176404 -0.047206454 -0.07016565 -0.010497697 0.07774259
-0.05984711 0.09232209 -0.12182961 -0.010423433 -0.024052255 -0.030979037 0.11618844 -0.040820066
0.014951654 0.12821229 0.050319593 0.052203573 -0.0020628106 0.0018726035 0.06550588 -0.08124612
-0.029649368 -0.04634327 -0.06453052 -0.11173815 0.109156266 -0.024335796 -0.010555581 -0.053735502
-0.04980952 -0.032598972 0.12080323 0.038810346 0.055867527 -0.011560343 0.028884305 -0.015179635
-0.045054648 0.018157963 0.047321852 0.086082675 -0.030756703 0.08074145 0.085876085 -0.04526572
0.0589037 -0.02097971 0.018753484 -0.09617946 0.016323583 0.0389849 -0.11175049 -0.044492036
-0.05307757 -0.04587226 -0.11356823 0.024494832 -0.0057597216 -0.04452155 0.04943395 -0.018740196
0.024703367 -0.076707736 -0.12271661 0.048847035 -0.057857487 0.03614691 0.028502805 0.065596476
-0.029503008 0.039134633 0.0075675137 -0.017165557 -0.05816401 -0.04705951 0.058309715 -0.083951436
0.08729338 -0.03166571 -0.04468427 -0.0029437311 -0.100960344 0.0521009 0.007926106 0.03867342
00000000: 159a e13c 7381 66bd 4b29 95bc 3449 e7bc
00000010: 06dd db3c d008 64bd c359 afbc f5c5 40bd
00000020: b7ed edbd a78a f43c bc35 8c3d 30a9 7fba
00000030: 5612 cfbd e376 f2bd 8cfd 503d 8078 1fbd
00000040: 206a babd 4f74 7c3d 0f54 2d3d 5a19 0e3c
00000050: d4e9 8ebc ba1f 723d f060 b03d 7eee cd3c
00000060: 9413 5a3d 9a3b f2bc 912e b13d 52f6 ddbc
00000070: 9f36 17bd b542 a5bd a351 99bd 37fe a63d
00000080: 61c4 573d b75e e8bb ef1a 92bc d48a f03d
00000090: c486 5d3c fe23 2dbd fb70 913d 39d1 ba3b
000000a0: 1477 62bd 2b43 f33c 22cb 20bd 0559 c83c
000000b0: 45d8 03bd c327 c23c f4da 9b3d 9489 9a3d
000000c0: adae 35bc e366 14bd fc2e 09be 2569 923d
000000d0: aa69 adbd 09be a4bc b9a1 39bd b004 103d
000000e0: 339f a1bc ab79 0c3e 76da 25bd 5c4c 143c
000000f0: d971 16bd fed4 55bd 0ee6 5b3c eb61 10bd
00000100: c42b efbc 6828 8ebd c065 09bc 4251 303d
00000110: 8ab8 d23c 2f12 543d 9d0a 8ebb fbdb 503b
00000120: 33ba 803d 8a97 88bc 4d98 d6bd f789 413d
00000130: 3ecd 9abd 72a1 78bc 78b0 27bd 779a a8bd
00000140: 49ce 173d 3b2a 663a 7df8 803d eedf 483d
00000150: 99ca 88bd e253 6b3a 606c 663c cd2d c7bd
00000160: 696d 663c 3214 05bd eef9 283e 6bf1 943c
00000170: 9381 973d d3c4 ec3d 6eae 9d3d 73ac d6bd
00000180: 90c8 5c3d 05f4 e43d 85d3 dabd 12a6 90bd
00000190: 30e1 5e3d 9339 eabc 65f0 60bc 4c4f b6bd
000001a0: a8c3 c7bc 7b17 fdbb ad66 1e3d 74a0 a03d
000001b0: d769 28bc be3d 0ebe 3ab7 e0bc 4b4e 84bb
000001c0: 8102 0cbb a73d 563c d8b3 edbd 04cb 303d
000001d0: 717b a5bd 13d9 ab3b 801b 56bc d907 103d
000001e0: ce2e 1d3c 1e45 0abc 5231 31bd 7446 4f3d
000001f0: ad1b eabb 07de f8bd 2d92 82bd cffa 873d
00000200: baea 7a3d 7c57 eebd e6c8 90bc f11c 38bd
00000210: 23f6 b53c bb0f 1abc 0cc5 05be 4da8 c3bd
00000220: 8986 ed3d 2d0c d93c dd1e 58bd 97bb 143d
00000230: f20c cc3c 9394 abbc aad9 113d ede3 093d
00000240: 27bd 803d b7c6 c53c 2a9b 283b 8f6e 8c3d
00000250: e9b4 09be 7957 24bd d6a7 09bd d9a7 543d
00000260: 03cd f0bc 1d6a c5bd f277 b43d 56c6 9c3d
00000270: c09e 4ebd 41c1 eebd 0978 3c3d 5f1e d23c
00000280: 51a7 143e 387a b8bc abea 9e3d 6edb c33d
00000290: aa24 033d d8fa 81bd 8f87 263d b552 aa3c
000002a0: 05eb 6d3d 824d df3c d11a 9b3d 7077 20bd
000002b0: 8e5b 41bd 02b3 8fbd 88fe 2bbc 8237 9f3d
000002c0: 3e22 75bd 5d13 bd3d cd81 f9bd 0cc7 2abc
000002d0: 3c09 c5bc c0c7 fdbc 34f4 ed3d f132 27bd
000002e0: c8f7 743c 154a 033e eb1b 4e3d 6ad3 553d
000002f0: 3830 07bb 2672 f53a f227 863d 5e64 a6bd
00000300: 3be3 f2bc 71d2 3dbd 9428 84bd f9d6 e4bd
00000310: 528d df3d dd5b c7bc 51f1 2cbc c219 5cbd
00000320: 1105 4cbd 8086 05bd af67 f73d 99f7 1e3d
00000330: 59d5 643d 9867 3dbc c79e ec3c 01b4 78bc
00000340: 398b 38bd 02c0 943c 8fd4 413d 1d4c b03d
00000350: 7bf5 fbbc c65b a53d cddf af3d 8c68 39bd
00000360: 0245 713d a4dd abbc e8a0 993c bdf9 c4bd
00000370: 09b9 853c a1ae 1f3d 71dd e4bd 483d 36bd
00000380: de67 59bd 8de4 3bbd 7696 e8bd 63a9 c83c
00000390: 0cbc bcbb 3b5c 36bd 417b 4a3d 0a85 99bc
000003a0: b75e ca3c f218 9dbd d952 fbbd d413 483d
000003b0: f9fb 6cbd c80e 143d b77e e93c 7257 863d
000003c0: 4bb0 f1bc a34b 203d e8f8 f73b c89e 8cbc
000003d0: 633d 6ebd 79c1 40bd 2bd6 6e3d bbee abbd
000003e0: dfc6 b23d e7b3 01bd da06 37bd 9deb 40bb
000003f0: 4cc4 cebd c167 553d 80dc 013c 0568 1e3d

a2c_network.actor_mlp.2.weight f4 [128, 256]
0.02296628 -0.03637275 -0.071296036 -0.04134007 -0.038647436 -0.08434233 -0.024595423 -0.10095776
-0.002722873 0.14350317 0.020456407 0.01620326 0.086873785 -0.051496606 -0.059736215 -0.0870796
-0.0708042 0.05444528 0.048695493 -0.024674213 -0.046571225 0.029612394 -0.016184779 0.018796297
-0.053931963 -0.023748254 0.048930362 -0.11421242 -0.11635669 0.07008563 -0.07072753 0.008889273
0.023763299 -0.1079687 0.011688178 0.06578402 -0.13710828 0.0110254865 0.0019016343 -0.16376333
0.00016817775 0.05908262 -0.051386744 0.083879225 0.054365538 0.16514136 0.10197142 -4.368549e-05
0.050680544 -0.05405091 -0.07471602 0.16172974 0.053346295 -0.002787123 -0.005555741 0.06286231
-0.05490386 0.09885417 0.07437378 -0.029236749 -0.0027540156 -0.10917251 -0.07594669 -0.053293724
0.040737767 0.00763131 0.0135377245 -0.0054155667 -0.012077027 0.09595852 -0.13947064 -0.052467562
0.062206306 -0.06940776 -0.1577942 0.019964881 0.03185686 0.0039555104 -0.021541284 -0.050513733
-0.047455143 -0.11543643 -0.076769985 0.017054733 -0.014398068 -0.07560146 0.10082639 -0.07371066
-0.13776436 -0.13670315 0.08194269 0.097291425 0.017811788 0.034771085 -0.048010755 -0.0006435332
0.05907615 -0.020664984 -0.05282069 0.113982536 0.011502193 0.055664074 0.14419463 -0.0069364985
-0.07708883 -0.014378948 0.057440422 -0.011421623 -0.04041358 -0.1109692 0.009558443 0.04562287
0.036515135 -0.003757204 -0.004469837 -0.0029867135 -0.07810474 -0.022092804 -0.008706324 -0.020925216
0.026254555 -0.12404429 -0.028504327 0.0112298075 -0.09523172 -0.039185748 -0.057781145 0.0700465
-0.048776675 -0.15228827 0.05451449 0.009283809 0.06115073 -0.11920028 -0.05684701 0.10297927
0.012327787 -0.048427626 -0.074987076 -0.047382664 0.016289212 0.016463732 0.055368137 -0.058031198
-0.008195888 -0.06149988 0.0076648435 0.093021825 -0.16105226 0.09083259 0.11865512 -0.09544163
0.0115459915 0.08217971 0.021864302 0.012519714 0.08749949 0.17066415 0.1061297 0.03790652
0.054817278 0.02774269 -0.03709176 0.013192261 0.02787723 -0.031056885 -0.00024415186 0.0069757854
0.0037577862 0.16699873 -0.05154051 0.064193636 0.03936074 0.056848276 -0.03761458 0.0592092
-0.09099305 -0.06703691 -0.010375379 0.045930907 -0.060378455 -0.043981824 0.023876123 -0.040758923
-0.06189638 -0.013425394 0.03437867 0.13296343 0.006948184 0.08794647 0.058261573 -0.0153557025
0.051386435 -0.022916235 -0.10831034 -0.016407702 0.06719699 -0.00449788 -0.14210194 -0.06855713
-0.0739085 0.14428355 0.024947576 0.023171498 -0.09106593 0.0069119423 -0.022510855 -0.005601973
-0.026123736 0.040593952 0.050972268 -0.077243514 -0.057154015 0.014289921 0.017158424 -0.046382565
0.081525594 0.07201336 -0.015966948 -0.056233753 -0.0072835027 -0.072213985 -0.01731107 -0.007356598
-0.07835905 -0.07633427 -0.026876055 -0.011497097 0.018227825 0.038494933 0.010983181 -0.00084798614
-0.033258688 0.03519208 -0.01693493 -0.017539034 -0.07395546 -0.10399695 -0.04248413 -0.051114738
0.0029877587 -0.033045694 -0.026755719 0.006582148 0.068655476 -0.09329925 0.024544686 0.056034967
0.03858986 0.050916944 0.08956678 0.061143424 0.054807592 0.028063752 -0.013015745 -0.012739265
00000000: c823 bc3c 98fb 14bd a803 92bd 3554 29bd
00000010: c64c 1ebd acbb acbd 577c c9bc f1c2 cebd
00000020: 3a72 32bb 7ff2 123e 3294 a73c b3bc 843c
00000030: e2ea b13d 1bee 52bd f6ad 74bd ca56 b2bd
00000040: cb01 91bd 0402 5f3d ed74 473d 9321 cabc
00000050: 78c1 3ebd b195 f23c f195 84bc b1fa 993c
00000060: c3e7 5cbd b38b c2bc 346b 483d 34e8 e9bd
00000070: 6b4c eebd 0e89 8f3d 98d9 90bd 50a4 113c
00000080: 40ab c23c b21e ddbd c67f 3f3c c6b9 863d
00000090: 1d66 0cbe 3ea4 343c 4240 f93a 93b1 27be
000000a0: df58 3039 9e00 723d e87a 52bd dfc8 ab3d
000000b0: 66ae 5e3d d11a 293e 64d6 d03d f03a 37b8
000000c0: 6796 4f3d 7d64 5dbd b604 99bd 7b9c 253e
000000d0: a581 5a3d 2aa8 36bb ef0c b6bb f4bd 803d
000000e0: dfe2 60bd 0e74 ca3d 4851 983d e881 efbc
000000f0: b77c 34bb d695 dfbd f089 9bbd 854a 5abd
00000100: a5dc 263d 1110 fa3b 55cd 5d3c 1175 b1bb
00000110: b9de 45bc e785 c43d 64d1 0ebe 3ae8 56bd
00000120: 0acc 7e3d a825 8ebd ce94 21be 648d a33c
00000130: 577c 023d 3a9d 813b 5977 b0bc 7de7 4ebd
00000140: 5360 42bd ef69 ecbd 9539 9dbd 5eb6 8b3c
00000150: e0e5 6bbc f0d4 9abd 117e ce3d 9df5 96bd
00000160: 1a12 0dbe e9fb 0bbe 92d1 a73d ba40 c73d
00000170: 07ea 913c 206c 0e3d eda6 44bd c8b2 28ba
00000180: d5f9 713d 9d49 a9bc 825a 58bd ad6f e93d
00000190: b273 3c3c 0300 643d c2a7 133e 914b e3bb
000001a0: c0e0 9dbd ae95 6bbc a646 6b3d c221 3bbc
000001b0: b688 25bd d243 e3bd 049b 1c3c 0cdf 3a3d
000001c0: e590 153d 6c3b 76bb b677 92bb bdbc 43bb
000001d0: 61f5 9fbd f8fb b4bc f8a4 0ebc 5c6b abbc
000001e0: cb13 d73c ef0a febd e881 e9bc 3afd 373c
000001f0: d908 c3bd 3c81 20bd ecab 6cbd 8a74 8f3d
00000200: 0dca 47bd 75f1 1bbe 964a 5f3d 1e1b 183c
00000210: 3079 7a3d 471f f4bd 69d8 68bd cce6 d23d
00000220: 7cfa 493c 0c5c 46bd d392 99bd 5314 42bd
00000230: f470 853c f3de 863c b3c9 623d 1fb2 6dbd
00000240: 0c48 06bc 4ce7 7bbd 5e29 fb3b 3a82 be3d
00000250: e2ea 24be 7006 ba3d 7501 f33d e776 c3bd
00000260: 662b 3d3c d64d a83d c41c b33c 7d1f 4d3c
00000270: ef32 b33d 95c2 2e3e 875a d93d de43 1b3d
00000280: 1588 603d a344 e33c 88ed 17bd 5a24 583c
00000290: ca5e e43c 026b febc 8201 80b9 2195 e43b
000002a0: 3145 763b b701 2b3e 241c 53bd f477 833d
000002b0: ba38 213d bdd9 683d bf11 1abd 5985 723d
000002c0: 905a babd a64a 89bd 7efd 29bc 0c22 3c3d
000002d0: 664f 77bd 4926 34bd dc97 c33c d4f2 26bd
000002e0: 0f87 7dbd 2ff6 5bbc a6d0 0c3d 9127 083e
000002f0: 98ad e33b 471d b43d b0a3 6e3d 7c96 7bbc
00000300: 957a 523d d4ba bbbc d0d1 ddbd 7269 86bc
00000310: 939e 893d f462 93bb 2c83 11be ae67 8cbd
00000320: 575d 97bd 11bf 133e dc5e cc3c 27d2 bd3c
00000330: c680 babd 937d e23b af68 b8bc c190 b7bb
00000340: 7201 d6bc d845 263d 4cc8 503d d931 9ebd
00000350: 541a 6abd 4620 6a3c d38f 8c3c a5fb 3dbd
00000360: e4f6 a63d be7b 933d 1ecd 82bc 5d55 66bd
00000370: 73aa eebb ede4 93bd f2cf 8dbc 9e0f f1bb
00000380: b67a a0bd 2455 9cbd 2c2b dcbc 525e 3cbc
00000390: 8552 953c ddac 1d3d cdf2 333c 634b 5eba
000003a0: 433a 08bd 9225 103d 1fbb 8abc 05ae 8fbc
000003b0: f675 97bd 5afc d4bd d703 2ebd b05d 51bd
000003c0: 46ce 433b ec5a 07bd cf2e dbbc 0faf d73b
000003d0: 3e9b 8c3d ad13 bfbd f011 c93c ec84 653d
000003e0: 6710 1e3d 498e 503d ca6e b73d 8771 7a3d
000003f0: ed7d 603d f4e5 e53c fe3f 55bc 5ab8 50bc

a2c_network.actor_mlp.2.bias f4 [128]
0.11162711 -0.010503024 0.022045031 -0.046076838 0.019966729 -0.024501733 -0.092599995 -0.06480531
0.037950136 0.030088486 -0.0015022481 0.0044416813 -0.051331725 -0.023771586 0.010060359 -0.07391033
0.0022110923 0.0060977144 0.08353908 -0.049412925 0.0300069 -0.032521788 0.009643028 -0.098586574
-0.12752998 -0.007348622 0.0260153 0.007680761 -0.009505274 -0.021782516 0.07040623 -0.15088125
0.055572078 0.012629449 -0.044695027 0.02774461 -0.032239404 -0.046127535 -0.12936445 0.07406967
0.017566966 -0.09317686 0.013076255 0.065836616 -0.054212492 -0.013019907 0.02269139 0.047732312
0.06441965 -0.09918121 0.016201826 0.010233173 -0.09436944 -0.0765948 -0.013248307 -0.05548818
-0.07601813 0.04362778 0.003837765 0.0047447546 -0.072041415 -0.012579508 -0.003364056 -0.029593881
-0.008459823 -0.03221886 0.04221333 -0.03880774 0.039047822 -0.081405655 0.07584024 -0.04067982
-0.04104505 -0.029610703 -0.11686604 0.05170761 -0.046227522 -0.039551478 -0.08758023 -0.015254155
0.006880901 0.024520885 -0.020365302 -0.05378924 0.009180381 0.0029391323 -0.052446663 -0.0672063
-0.051023927 0.014905264 0.010299115 -0.07438567 -0.019030463 -0.1190231 -0.018928112 0.030317722
-0.026695615 0.032118306 -0.052097775 -0.0074930293 -0.054881625 -0.020055057 0.009452913 0.02052471
-0.074081816 -0.029605307 0.029295592 -0.115171686 0.027211897 -0.022925165 0.0078627635 -0.13657922
0.02910565 -0.022906873 -0.05939107 0.0010167247 0.055549413 -0.030584753 -0.083786674 0.044799373
-0.022850126 -0.008175773 -0.09516724 -0.06973694 -0.05552742 0.035084356 -0.003554114 -0.012927285
00000000: c19c e43d e014 2cbc c897 b43c 11bb 3cbd
00000010: 4491 a33c dcb7 c8bc 11a5 bdbd a5b8 84bd
00000020: 9a71 1b3d 217c f63c 15e7 c4ba 868b 913b
00000030: 3741 52bd a1bc c2bc 34d4 243c 4d5e 97bd
00000040: f9e7 103b 56cf c73b 8a16 ab3d 3565 4abd
00000050: 08d1 f53c 9135 05bd cafd 1d3c c2e7 c9bd
00000060: 3897 02be b6cc f0bb 0a1e d53c e5ae fb3b
00000070: 02bc 1bbc 3f71 b2bc 2431 903d 9d80 1abe
00000080: 8c9f 633d c0eb 4e3c 2212 37bd aa48 e33c
00000090: 770d 04bd 3af0 3cbd 1d78 04be d7b1 973d
000000a0: 99e8 8f3c 82d3 bebd ca3d 563c 59d5 863d
000000b0: eb0d 5ebd 7351 55bc 4be3 b93c f582 433d
000000c0: 73ee 833d 851f cbbd b1b9 843c 0aa9 273c
000000d0: c444 c1bd bcdd 9cbd 6d0f 59bc 9347 63bd
000000e0: 65af 9bbd 0bb3 323d 0383 7b3b e379 9b3b
000000f0: 738a 93bd 481a 4ebc 7f77 5cbb de6e f2bc
00000100: 129b 0abc ecf7 03bd e2e7 2c3d ddf4 1ebd
00000110: 9cf0 1f3d 02b8 a6bd 2152 9b3d e29f 26bd
00000120: db1e 28bd 2592 f2bc 7657 efbd 5ccb 533d
00000130: 1259 3dbd bb00 22bd 435d b3bd 90ec 79bc
00000140: 2e79 e13b 06e0 c83c 22d5 a6bc 1b52 5cbd
00000150: 4f69 163c 759e 403b 50d2 56bd 75a3 89bd
00000160: 77fe 50bd 3535 743c 9fbd 283c 8457 98bd
00000170: c6e5 9bbc 62c2 f3bd 210f 9bbc df5c f83c
00000180: c3b0 dabc 7c8e 033d 7a64 55bd 1688 f5bb
00000190: 8ecb 60bd 814a a4bc 64e0 1a3c 7023 a83c
000001a0: 35b8 97bd d486 f2bc 4ffd ef3c 22df ebbd
000001b0: 7ceb de3c 8ecd bbbc d2d2 003c 6cdb 0bbe
000001c0: f96e ee3c 32a7 bbbc 0d44 73bd 9f43 853a
000001d0: c887 633d e08c fabc 5998 abbd 8c7f 373d
000001e0: 3030 bbbc adf3 05bc 0be7 c2bd 3ed2 8ebd
000001f0: b870 63bd 9db4 0f3d 23ec 68bb f7cc 53bc

a2c_network.actor_mlp.4.weight f4 [64, 128]
-0.017138232 -0.08401899 0.08524166 -0.038192544 0.0050668065 0.11096351 0.12895793 -0.043290045
-0.12033823 0.017251547 0.05346932 0.0056850077 -0.03896315 0.07674409 -0.025432233 0.0017179977
-0.029861793 -0.030159058 -0.10479193 0.058234096 -0.016957643 -0.025879242 -0.038641784 -0.0092108995
0.043870587 0.056924436 0.048223674 0.029962486 -0.05690037 0.05796916 -0.018071372 -0.03306194
0.02615249 -0.038970795 -0.022922741 -0.07440745 -0.09114606 -0.044429477 -0.07327907 -0.05470219
-0.10346924 -0.015035003 -0.012507137 0.018114189 -0.05509449 -0.053239755 -0.07102141 -0.08622377
-0.03834202 -0.027037237 0.014427271 -0.05645072 -0.017615704 0.00916476 0.07417634 0.058234673
-0.036752585 -0.03374696 -0.06764637 -0.014883299 0.062092766 -0.0005075778 -0.059425354 -0.00046173594
-0.062652156 -0.03371433 0.042999502 0.038095545 -0.020630265 0.026678653 -0.12849267 -0.015096541
-0.049536668 0.039867606 0.062173706 -0.052825555 0.054984264 -0.034985606 0.003515332 -0.07770042
0.029157273 0.010546847 -0.053466853 0.1019229 -0.07139259 -0.025415905 -0.047601044 0.00181363
0.012789176 0.01782522 -0.05617921 0.078252986 -0.026827402 -0.050824966 -0.05213748 -0.027901847
-0.077594966 0.002178536 -0.006611366 -0.012123774 0.0029490108 -0.008315307 0.001405003 0.05310274
0.09235927 0.04556458 -0.034733895 0.072460145 -0.018546754 0.0075959344 0.018700806 -0.0054184683
-0.025111226 0.041976716 0.09891514 -0.011498853 0.01966329 -0.027496284 -0.08314303 0.029275145
0.023105444 -0.01563346 -0.024439998 0.030749336 0.027584407 -0.03827347 -0.0732101 0.009320762
0.0050721 -0.016321985 0.029955324 0.01277493 -0.044836547 0.02933176 -0.067344666 -0.018817758
-0.051500294 -0.060357485 0.09340649 0.0147511745 -0.06467068 0.0154925855 -0.06580496 -0.017991113
-0.023146458 0.003406055 -0.08363877 0.0057398244 0.019263528 0.025143884 -0.077859044 -0.013002699
-0.018360542 -0.016946666 0.00302784 -0.041776348 -0.06622833 0.019471647 0.012200563 -0.02169222
-0.00067200523 -0.030414307 0.02562628 -0.016714586 0.03224293 0.041118573 -0.05188427 0.047984987
0.06936958 0.036812246 -0.11409664 -0.038449273 -0.041241538 -0.041961074 -0.116581194 0.007502601
-0.072288826 0.015098817 -0.029376121 0.0041056587 -0.07578271 0.036335476 0.01800894 -0.06290017
0.090903066 -0.13035068 0.0011326079 -0.044314012 0.09409453 -0.066919506 -0.070873015 -0.029156717
-0.07687331 -0.05108936 0.04591468 0.0493602 0.05857603 0.053044505 0.072381444 0.06325315
0.079999425 0.033667985 0.011299068 0.035375178 0.02404207 -0.005842168 -0.018689444 -0.09067381
0.08470905 -0.087995954 -0.099442266 0.007119475 -0.04184031 0.04392671 -0.0034311407 -0.023378385
0.03736451 0.015219521 -0.10574849 0.09535266 -0.08412208 0.011848754 0.065569356 0.011679605
0.0662698 -0.07025613 -0.07206538 -0.051019594 0.044712987 0.078011245 -0.036725692 -0.0020963752
0.104518816 0.06696861 -0.10751344 -0.02253811 -0.071264714 -0.03194049 0.05517105 0.089936376
-0.027742036 0.0020625084 0.01530577 -0.04793563 0.06053204 -0.06688226 -0.029182587 0.07892368
0.051887587 0.00973636 -0.0068257293 -0.05422912 0.07540248 -0.090622224 0.080380395 -0.06691878
00000000: 7a65 8cbc 2612 acbd 2e93 ae3d c96f 1cbd
00000010: 7407 a63b d640 e33d 8c0d 043e e750 31bd
00000020: e473 f6bd 1e53 8d3c a502 5b3d 4d49 ba3b
00000030: d397 1fbd 012c 9d3d 4257 d0bc 702e e13a
00000040: b8a0 f4bc 2110 f7bc 279d d6bd e086 6e3d
00000050: c1ea 8abc b400 d4bc d946 1ebd 50e9 16bc
00000060: a5b1 333d 9929 693d 3086 453d e373 f53c
00000070: 5d10 69bd 1271 6d3d 6a0a 94bc f56b 07bd
00000080: bf3d d63c d79f 1fbd 79c8 bbbc ef62 98bd
00000090: c9aa babd affb 35bd 5613 96bd 670f 60bd
000000a0: aee7 d3bd 6055 76bc bcea 4cbc 3564 943c
000000b0: c3aa 61bd ee11 5abd ac73 91bd 1796 b0bd
000000c0: 860c 1dbd 327d ddbc 5c60 6c3c df38 67bd
000000d0: cf4e 90bc ca27 163c c4e9 973d 7b87 6e3d
000000e0: e189 16bd 413a 0abd 2e8a 8abd 15d9 73bc
000000f0: fc54 7e3d f80e 05ba 0068 73bd 2615 f2b9
00000100: c64f 80bd 0a18 0abd 3f20 303d 130a 1c3d
00000110: cd00 a9bc 318d da3c 9593 03be 7b57 77bc
00000120: f6e6 4abd 374c 233d dba9 7e3d 9c5f 58bd
00000130: 2e37 613d 114d 0fbd 7c61 663b 6621 9fbd
00000140: 3cdb ee3c afcc 2c3c 0f00 5bbd f4bc d03d
00000150: 4736 92bd 0435 d0bc 50f9 42bd 53b7 ed3a
00000160: b189 513c 3206 923c 2c1c 66bd 1a43 a03d
00000170: 24c5 dbbc d72d 50bd 1c8e 55bd 6a92 e4bc
00000180: 1cea 9ebd c5c5 0e3b 28a4 d8bb cba2 46bc
00000190: 3144 413b ed3c 08bc 1428 b83a 4282 593d
000001a0: db26 bd3d eda1 3a3d 2145 0ebd fc65 943d
000001b0: 5def 97bc 51e7 f83b 6f32 993c 688d b1bb
000001c0: 0fb6 cdbc c7ef 2b3d 0594 ca3d af65 3cbc
000001d0: e814 a13c e33f e1bc e546 aabd 6ed2 ef3c
000001e0: a147 bd3c be11 80bc 6436 c8bc 08e6 fb3c
000001f0: b2f8 e13c a4c4 1cbd 2def 95bd 1cb6 183c
00000200: dc33 a63b afb5 85bc de64 f53c f14d 513c
00000210: 87a6 37bd 2949 f03c 00ec 89bd b327 9abc
00000220: f9f1 52bd 6939 77bd e74b bf3d e9ae 713c
00000230: 1072 84bd 9dd4 7d3c c0c4 86bd 1962 93bc
00000240: a49d bdbc 1f38 5f3b ce4a abbd 2315 bc3b
00000250: 8cce 9d3c 8cfa cd3c 9074 9fbd 4609 55bc
00000260: d968 96bc bcd3 8abc ba6e 463b ad1d 2bbd
00000270: b8a2 87bd 0183 9f3c dfe4 473c e2b3 b1bc
00000280: 8229 30ba 6d27 f9bc 34ee d13c 07ed 88bc
00000290: 2a11 043d f36b 283d 9a84 54bd e88b 443d
000002a0: a311 8e3d 70c8 163d 80ab e9bd fc7c 1dbd
000002b0: e3ec 28bd 60df 2bbd 1fc2 eebd 61d8 f53b
000002c0: 2a0c 94bd 0761 773c 31a6 f0bc c388 863b
000002d0: f733 9bbd 82d4 143d 7c87 933c ced1 80bd
000002e0: 632b ba3d a67a 05be 0474 943a 9c82 35bd
000002f0: a2b4 c03d 180d 89bd df25 91bd 11da eebc
00000300: c16f 9dbd 1443 51bd 0811 3c3d ec2d 4a3d
00000310: 6bed 6f3d 3245 593d b93c 943d de8a 813d
00000320: bdd6 a33d 71e7 093d ba1f 393c 90e5 103d
00000330: e0f3 c43c a86f bfbb 9b1a 99bc 31b3 b9bd
00000340: f07b ad3d 3937 b4bd 63a8 cbbd 7c4a e93b
00000350: bf60 2bbd 7eec 333d fddc 60bb 0784 bfbc
00000360: 870b 193d 4c5b 793c aa92 d8bd 4148 c33d
00000370: 3248 acbd 4721 423c 3a49 863d d05b 3f3c
00000380: 76b8 873d 72e2 8fbd 0497 93bd ecf9 50bd
00000390: f724 373d 5cc4 9f3d ae6d 16bd 5763 09bb
000003a0: f60d d63d d726 893d 0230 dcbd d8a1 b8bc
000003b0: 3cf3 91bd 08d4 02bd 0afb 613d 9030 b83d
000003c0: 4443 e3bc 262b 073b 0dc5 7a3c 2758 44bd
000003d0: 72f0 773d 91f9 88bd 5210 efbc bda2 a13d
000003e0: 1488 543d 4185 1f3c 5eaa dfbb 5b1f 5ebd
000003f0: 9e6c 9a3d 2598 b9bd 7a9e a43d b70c 89bd

a2c_network.actor_mlp.4.bias f4 [64]
0.026601363 -0.042137112 -0.0005533634 0.024595028 0.0074598817 0.05144097 -0.03744352 -0.05889966
0.0115155745 0.0099748 0.038588133 -0.019290308 -0.010512794 -0.0745662 -0.045111682 -0.031967767
-0.05718847 -0.039267022 -0.017238451 -0.0003426756 -0.020944752 0.007951574 -0.021744182 -0.0088848015
0.06922868 0.008027592 -0.046517555 0.03196764 0.037789173 0.022515811 0.014803137 -0.017884338
0.0145684695 -0.013101706 -0.0049666474 0.061582934 -0.061793543 -0.035929635 -0.020407366 -0.009130795
0.001895625 0.06463792 0.012348761 0.029368127 -0.09451862 0.004580284 -0.00084734836 -0.079684064
0.007845677 -0.029281963 0.010804018 0.018668542 0.042012308 0.043898877 -0.05249728 -0.05575442
-0.017355409 0.033619788 -0.072731085 -0.11062117 0.026943363 -0.0049765934 0.030424302 -0.018058252
00000000: 1aeb d93c f797 2cbd 970f 11ba 837b c93c
00000010: 0672 f43b c4b3 523d 605e 19bd c540 71bd
00000020: d2ab 3c3c 586d 233c 970e 1e3d b506 9ebc
00000030: db3d 2cbc 2ab6 98bd 07c7 38bd a2f0 02bd
00000040: 753e 6abd 75d6 20bd a737 8dbc 24a9 b3b9
00000050: 5494 abbc 5247 023c db20 b2bc 8f91 11bc
00000060: c4c7 8d3d 2986 033c 3189 3ebd 80f0 023d
00000070: d2c8 1a3d 1473 b83c db88 723c 2d82 92bc
00000080: 97b0 6e3c 8aa8 56bc 42bf a2bb 633e 7c3d
00000090: 3a1b 7dbd f42a 13bd 592d a7bc 5499 15bc
000000a0: 9f76 f83a e360 843d 7552 4a3c 6d95 f03c
000000b0: fa92 c1bd 3516 963b 9620 5eba 6631 a3bd
000000c0: 288b 003c bae0 efbc 5603 313c c5ee 983c
000000d0: 1915 2c3d 4fcf 333d 6307 57bd bf5e 64bd
000000e0: ee2c 8ebc e7b4 093d 09f4 94bd 5a8d e2bd
000000f0: 54b8 dc3c b112 a3bb 633c f93c e6ee 93bc

a2c_network.value.weight f4 [1, 64]
-0.0146612 -0.006931613 -0.0023449762 0.003187664 -0.019783666 0.0005582227 -0.023776928 0.03461317
-0.013054598 0.02545714 0.012061026 -0.0023692527 -0.015057319 -0.00072194485 -0.013685242 -0.038866896
0.007864175 -0.028375369 -0.015439007 0.020784147 -0.028283233 -0.015157356 -0.040454626 0.052531872
0.00045929966 -0.007832784 0.07792586 -0.009244135 -0.010291425 -0.029977461 -0.0039635403 -0.02240244
-0.008282343 0.01435643 -0.022633083 -0.004363334 -0.0022300105 -0.0042618294 0.07158555 0.03866339
-0.018923756 0.006077936 0.0026882072 -0.022323113 0.024871117 -0.032543436 0.022992594 0.0045979773
-0.024371177 -0.009096871 -0.016409682 -0.043605756 -0.013940479 -0.006988268 -0.0052534873 -0.020013483
0.0047489093 0.025895279 0.03495707 -0.00078145904 -0.048695303 0.038643714 -0.002136813 -0.0190544
00000000: 8835 70bc 9622 e3bb 2cae 19bb 21e8 503b
00000010: 5b11 a2bc b155 123a d5c7 c2bc 8ac6 0d3d
00000020: f4e2 55bc 7e8b d03c 9c9b 453c 7745 1bbb
00000030: f9b2 76bc e640 3dba 1138 60bc e532 1fbd
00000040: bed8 003c 7673 e8bc e4f3 7cbc 8443 aa3c
00000050: 3db2 e7bc 8f56 78bc c0b3 25bd a92b 573d
00000060: 28ce f039 1455 00bc 9897 9f3d b674 17bc
00000070: 5d9d 28bc 4b93 f5bc 96e0 81bb 5285 b7bc
00000080: aab2 07bc 3b37 6b3c 0469 b9bc 4cfa 8ebb
00000090: 5e25 12bb d1a6 8bbb 729b 923d 815d 1e3d
000000a0: fe05 9bbc 6c29 c73b a22c 303b f6de b6bc
000000b0: 83be cb3c 444c 05bd f75a bc3c a1aa 963b
000000c0: 10a6 c7bc 0b0b 15bc 996d 86bc f39b 32bd
000000d0: 9b66 64bc d7fd e4bb 7225 acbb 51f3 a3bc
000000e0: bd9c 9b3b 5622 d43c 252f 0f3d d4da 4cba
000000f0: ba74 47bd df48 1e3d c609 0cbb f917 9cbc

a2c_network.mu.weight f4 [6, 64]
-0.04526654 -0.035121683 0.048737478 -0.13503844 -0.045829788 -0.030201215 0.06025591 -0.028448902
-0.16969965 -0.004243799 -0.0919709 0.11626851 -0.041586995 -0.003291825 0.020735899 0.06266769
0.14837983 0.05956308 0.08667438 0.10332844 0.009657899 0.05309889 -0.14516269 0.15847881
-0.079723135 -0.08116651 0.13088275 -0.12742725 -0.03088723 -0.007085686 -0.05191296 0.11669412
-0.019254955 -0.12589774 -0.059317827 -0.056244347 -0.055741843 -0.09494671 -0.11668486 -0.08922114
0.09519206 -0.10995302 -0.10812579 -0.068807475 0.05080562 0.07084011 -0.00774036 0.12773323
-0.064028434 -0.04341825 -0.047804955 -0.0262126 0.009606671 0.0012657224 0.14354742 -0.012650633
-0.13104787 0.057461176 0.04872927 0.038089998 0.0956839 -0.13500871 -0.028573114 0.06058311
-0.090973474 0.027755221 0.0885467 0.02991727 -0.0692943 -0.026724882 -0.019585924 0.008395154
-0.04709881 0.07720136 0.007211104 0.03338613 -0.12155383 0.006522416 0.058401268 -0.10749918
-0.038586378 -0.04292164 -0.17626505 0.068976454 -0.15756202 0.014577007 0.12370327 -0.010257859
0.085483074 -0.024989579 -0.017589947 0.054757334 -0.0853582 -0.08687841 -0.10180965 -0.00064101367
-0.07079352 0.07385451 0.054312143 -0.036579736 -0.10705364 -0.039847463 -0.07819365 0.00065661094
-0.05204858 -0.005253557 0.008062062 -0.08508784 0.09424335 0.026253518 0.11445269 -0.010456791
0.048046548 0.010472962 -0.09721432 0.13701236 -0.12818268 -0.044461355 -0.09324506 0.083690055
-0.011823583 0.02347867 0.07279465 0.023203924 0.010219282 0.027026942 0.106316045 -0.12062223
-0.015687387 -0.004051477 -0.057622097 0.14625414 -0.028620677 0.10430534 0.118032716 0.1421053
0.15695189 -0.038425628 -0.0011023628 0.0071885893 -0.00462241 -0.026790414 0.08903299 0.15020213
0.058531288 0.09392413 0.057764057 -0.0032670721 0.0719251 -0.19530307 -0.112120315 -0.052909177
-0.028828355 -0.12050894 -0.09728545 -0.09179117 0.073346294 0.038940333 0.09162697 0.05004472
0.101025626 0.06347332 -0.018939976 0.024058659 0.07066694 0.10892446 0.032893576 -0.07104862
0.015830064 -0.09837129 0.12424722 0.08868931 0.06423428 -0.10103005 -0.094409816 0.09734376
-0.061372712 0.029019244 0.044651438 0.07059637 0.093448356 -0.01978171 -0.0946716 -0.00548408
0.118780546 0.12185987 0.11669026 -0.012947335 -0.12669128 0.05160984 -0.17169766 0.10259672
0.062085684 -0.0108836815 0.04176032 0.14030004 0.037822556 0.006601604 -0.0020469872 0.06801017
0.12735154 0.011318953 0.11476161 0.08744539 -0.03386053 -0.085022874 0.07601866 -0.02079642
-0.06324011 0.050754808 -0.10058537 0.13578482 -0.03805079 0.0031770258 0.021067917 0.061452974
0.15191168 0.017566642 -0.11116568 0.10100487 0.068027295 0.05513994 0.02941341 0.022363042
0.04004524 0.06462773 0.04655008 0.15445332 -0.087243535 -0.10344351 -0.0049495776 -0.014536958
-0.044331342 0.06521349 0.17397022 0.026286934 -0.0270468 0.13205756 0.015143468 -0.14631267
-0.015984695 -0.097986214 -0.0057758368 0.13760011 -0.005900591 0.026111627 0.00255422 0.0359611
-0.07531747 0.15856159 0.01623794 -0.1342869 0.03033556 0.10730607 0.021946153 0.008021684
00000000: 6869 39bd c1db 0fbd f3a0 473d 8447 0abe
00000010: 04b8 3bbd 8a68 f7bc e7ce 763d ac0d e9bc
00000020: bfc5 2dbe 910f 8bbb 3d5b bcbd 2f1e ee3d
00000030: 2057 2abd a9bb 57bb 55de a93c eb57 803d
00000040: e2f0 173e 6bf8 733d 5682 b13d dc9d d33d
00000050: 2a3c 1e3c 397e 593d 87a5 14be 4548 223e
00000060: e245 a3bd a13a a6bd 2106 063e 4a7c 02be
00000070: 3707 fdbc 0b2f e8bb afa2 54bd 54fd ee3d
00000080: 91bc 9dbc 56eb 00be 40f7 72bd 7960 66bd
00000090: 8f51 64bd 6c73 c2bd 79f8 eebd 93b9 b6bd
000000a0: 0ef4 c23d 0d2f e1bd 0e71 ddbd efea 8cbd
000000b0: 8e19 503d 9f14 913d d9a2 fdbb 80cc 023e
000000c0: 5721 83bd 56d7 31bd 21cf 43bd cebb d6bc
000000d0: 4c65 1d3c 99e6 a53a 18fe 123e 9a44 4fbc
000000e0: 6a31 06be 695c 6b3d 5898 473d 4204 1c3d
000000f0: ecf5 c33d b93f 0abe 2a12 eabc ff25 783d
00000100: 4d50 babd eb5e e33c f957 b53d 1015 f53c
00000110: 2cea 8dbd 24ee dabc a972 a0bc d48b 093c
00000120: afea 40bd bf1b 9e3d 204b ec3b e5bf 083d
00000130: 37f1 f8bd feb9 d53b 2b36 6f3d 8828 dcbd
00000140: c00c 1ebd 9ace 2fbd d37e 34be 8743 8d3d
00000150: f057 21be 66d4 6e3c 2458 fd3d 9410 28bc
00000160: c011 af3d f2b6 ccbc cb18 90bc 3a49 603d
00000170: 48d0 aebd 4fed b1bd 9481 d0bd b309 28ba
00000180: 31fc 90bd 0941 973d 6976 5e3d a2d4 15bd
00000190: f03e dbbd 1837 23bd fe23 a0bd 6a20 2c3a
000001a0: e430 55bd 0826 acbb bd16 043c 8942 aebd
000001b0: a802 c13d 9e11 d73c 2c66 ea3d f652 2bbc
000001c0: 75cc 443d c996 2b3c 4d18 c7bd f84c 0c3e
000001d0: 5242 03be 1c1d 36bd 44f7 bebd b165 ab3d
000001e0: b4b7 41bc 5756 c03c 5d15 953d 2816 be3c
000001f0: c66e 273c 9b67 dd3c 3abc d93d ca08 f7bd
00000200: d682 80bc 41c2 84bb 2605 6cbd a5c3 153e
00000210: e975 eabc 0a9e d53d 23bb f13d 0d84 113e
00000220: ffb7 203e 3164 1dbd 287d 90ba 428e eb3b
00000230: 9677 97bb 9277 dbbc ee56 b63d 96ce 193e
00000240: 81be 6f3d 4b5b c03d 019a 6c3d 601c 56bb
00000250: 784d 933d 87fd 47be 569f e5bd 4bb7 58bd
00000260: 7129 ecbc 64cd f6bd 983d c7bd 02fd bbbd
00000270: 9536 963d e67f 1f3d eca6 bb3d b1fb 4c3d
00000280: 86e6 ce3d 4dfe 813d 0228 9bbc aa16 c53c
00000290: d4b9 903d ca13 df3d 6abb 063d f081 91bd
000002a0: 0dae 813c e376 c9bd 5475 fe3d bea2 b53d
000002b0: 438d 833d d8e8 cebd ef59 c1bd 2a5c c73d
000002c0: f461 7bbd c4b9 ed3c 6de4 363d d494 903d
000002d0: da61 bf3d 410d a2bc 2fe3 c1bd ccb3 b3bb
000002e0: 3743 f33d ab91 f93d 4efb ee3d 0f21 54bc
000002f0: 5cbb 01be d764 533d 83d1 2fbe 3b1e d23d
00000300: 8f4d 7e3d 7851 32bc df0c 2b3d d0aa 0f3e
00000310: d3eb 1a3d 4552 d83b bf26 06bb ea48 8b3d
00000320: 7168 023e 2173 393c 2308 eb3d 9216 b33d
00000330: 57b1 0abd 7920 aebd acaf 9b3d 415d aabc
00000340: 0884 81bd 46e4 4f3d b4ff cdbd 2d0b 0b3e
00000350: 25db 1bbd a635 503b a096 ac3c 1db6 7b3d
00000360: bc8e 1b3e ebe7 8f3c d5aa e3bd a4db ce3d
00000370: e551 8b3d 6bda 613d 64f4 f03c b332 b73c
00000380: 7a06 243d 8b5b 843d 4cab 3e3d 0329 1e3e
00000390: bdac b2bd 31da d3bd 1130 a2bb 6c2c 6ebc
000003a0: c894 35bd a68e 853d 4025 323e b257 d73c
000003b0: 4091 ddbc 193a 073e 4f1c 783c fdd2 15be
000003c0: 56f2 82bc ffac c8bd 3b43 bdbb 0be7 0c3e
000003d0: bf59 c1bb 0de8 d53c b364 273b f24b 133d
000003e0: 0c40 9abd f85d 223e 6e05 853c 8182 09be
000003f0: 4882 f83c 49c3 db3d 6bc8 b33c 626d 033c

a2c_network.mu.bias f4 [6]
-0.0121984305 0.013345156 -0.022860492 0.078590795 -0.012100889 -0.030153774
00000000: eddb 47bc a4a5 5a3c ed45 bbbc 36f4 a03d
00000010: cf42 46bc 0c05 f7bc

exp_avg f4 [6]
-0.004329762 -0.0025513214 0.008528856 0.0022527883 4.3989843e-05 0.008860367
00000000: ade0 8dbb 1234 27bb 9dbc 0b3c 84a3 133b
00000010: bc81 3838 132b 113c

exp_avg_sq f4 [6]
0.0010761896 0.0012372114 0.001088089 0.0011792715 0.00092175987 0.0009820875
00000000: ee0e 8d3a ed29 a23a 359e 8e3a c991 9a3a
00000010: 42a2 713a 63b9 803a

exp_avg f4 [256, 30]
-0.00039611373 -0.00022457282 0.00065620063 -0.00018016627 -2.0210462e-06 0.00029094427 -6.1623265e-05 1.489473e-05
-1.3390997e-05 -0.00025914528 -0.00034742957 -1.4449869e-05 -0.000120727906 -0.00010354365 -0.0003549477 -0.00010959279
-0.00017490488 0.00014388119 -0.00031352637 8.862331e-05 2.8769184e-05 0.00031653728 -0.00019086643 0.00011764278
-0.00022167889 0.000112221795 -0.00018885158 6.382683e-05 -0.00020289175 0.00014184484 0.00029697616 -5.214598e-05
0.0009024873 0.00055996876 -0.0001458735 -0.0005311832 -3.2842636e-05 0.00011409514 0.00019034182 0.00015731683
0.00022663877 0.00044246347 0.00080395956 -0.00024969032 6.375113e-05 -0.00037917856 -0.00036054928 0.00020056604
0.0003326857 -0.00040508428 -5.0091287e-05 -0.0004754802 0.00051738974 -0.00013897008 0.00015883091 0.00018195447
0.00018999823 0.00010162585 0.0005292166 -0.00036658242 -0.00043011978 -0.0004871503 0.0012338113 0.0002383865
-0.00025700612 0.00027224098 -6.108746e-07 0.00047981864 0.0002578851 -6.836472e-05 0.00025272905 -4.0150375e-05
0.000101520476 -0.00043681578 -0.0001657675 -0.00022355087 -4.0483355e-06 3.764482e-05 -5.4685235e-05 -0.00011549451
-0.00013757701 -0.0001645923 0.00020273772 5.6749108e-05 2.8534132e-05 -0.00012866432 -0.00014216443 -0.00020108797
0.000105662235 5.8340196e-05 0.00034386473 0.00034682426 -0.000697494 0.00011972157 3.2645963e-05 -0.00072387344
6.4288266e-05 -5.0828377e-05 -0.0002842861 -1.7179742e-05 -0.00039345157 0.00043542936 0.00039710547 0.00026191177
0.00023098126 0.0002507181 -3.5974488e-05 -1.2914314e-05 0.00027722787 9.267409e-05 0.0002107157 -0.00036318135
0.00011877307 -0.0003066397 -5.159922e-05 0.00049325597 0.00013883389 0.0004891599 0.0005050047 -0.0005356738
0.00055016833 0.00056759414 0.0019149745 0.00039398324 -7.9793244e-07 -0.0002471302 -0.0001247201 -0.0003665397
0.00055707886 -0.00015237097 -0.0005135222 0.00038902485 0.0011744222 -0.00081634126 -7.25888e-06 -0.0011286772
-0.00055642566 0.0011194585 -0.00047703058 -0.0005151542 -3.676497e-05 -0.00011645291 0.0008787913 -0.00046855587
3.8245234e-05 -0.00018778651 0.00018513008 -0.00030859438 0.00056804664 0.00012987842 0.00065096025 5.9573766e-05
0.0014234735 0.00025325155 -5.3448242e-05 -0.00013318256 -5.7213783e-05 -6.391953e-05 0.00056169723 0.00014317612
2.5006317e-05 0.00028386677 0.0011088285 -0.00074884616 0.00034126244 -0.0006659792 -0.00061328127 0.0005437712
0.00081336964 -0.0008178076 -0.0001625769 -0.00085408473 0.0012377478 -0.00076455757 0.00064994773 -0.0004030087
0.00043322393 -0.00032596994 0.00054525345 -0.00017561742 0.00064266846 -0.00021536251 0.002193981 0.0005120791
9.9524324e-05 0.00029332185 -0.00019576121 0.00021981215 0.00012248573 0.0003337436 0.00022461284 0.00057470636
0.0011325919 -0.0016437394 0.0009623526 -0.0011500589 -0.0007416144 0.00037393815 0.0011201228 -0.0017015914
3.4024754e-06 -0.0012724828 0.0015229788 -0.0010952515 0.0004539496 -0.0011797351 0.0011453297 -0.00048894476
0.0009026604 -0.0007233208 0.0009954348 0.00058668683 0.00091491576 0.0005501491 0.00034906328 -0.00082888216
-5.9482056e-05 -0.00015307462 8.615853e-05 0.00041713848 2.3086028e-05 0.0009985508 0.0013452705 -0.00086638454
0.0005615562 -0.00073045574 -0.00055412523 0.00059254817 0.00075727457 -0.0011800023 -5.094976e-05 -0.0007738088
0.0007379149 -0.00061390287 0.00027665877 -0.00034758679 0.00063180795 0.00020293199 0.0009233939 -0.0007016622
2.9268605e-05 7.416022e-05 -0.00033465383 -0.00022087713 0.00019011428 -0.000113245405 -0.00010479628 -0.00024441234
-0.0002740031 -0.00019593688 -0.00029653468 -0.000116371106 9.567364e-05 -8.783753e-06 -8.739237e-05 2.4383933e-05
00000000: 7cad cfb9 4f7b 6bb9 e104 2c3a 04eb 3cb9
00000010: 4fa1 07b6 e189 9839 bd3b 81b8 61e4 7937
00000020: e5a9 60b7 e4dd 87b9 3527 b6b9 b76d 72b7
00000030: 4d2f fdb8 9325 d9b8 4618 bab9 2ed5 e5b8
00000040: ac66 37b9 d0de 1639 cc60 a4b9 47db b938
00000050: 5a55 f137 eaf4 a539 5123 48b9 fdb6 f638
00000060: 7972 68b9 9e58 eb38 7606 46b9 c5da 8538
00000070: 57bf 54b9 2fbc 1439 77b3 9b39 52b7 5ab8
00000080: e694 6c3a deca 123a 9ff5 18b9 1a3f 0bba
00000090: 83c0 09b8 5d46 ef38 7e96 4739 6af5 2439
000000a0: e2a5 6d39 71fa e739 d0c0 523a dee8 82b9
000000b0: 21b2 8538 7ccc c6b9 1b08 bdb9 094f 5239
000000c0: 526c ae39 7e61 d4b9 1c19 52b8 df49 f9b9
000000d0: 70a1 073a 7fb8 11b9 d98b 2639 08cb 3e39
000000e0: 433a 4739 f61f d538 20bb 0a3a dc31 c0b9
000000f0: b381 e1b9 3568 ffb9 d6b7 a13a 64f7 7939
00000100: c7be 86b9 91bb 8e39 fcfa 23b5 2b90 fb39
00000110: c134 8739 085f 8fb8 b880 8439 2367 28b8
00000120: 64e7 d438 6c04 e5b9 e0d1 2db9 fb68 6ab9
00000130: f0d6 87b6 d1e4 1d38 d35d 65b8 a535 f2b8
00000140: 8c42 10b9 6996 2cb9 fe95 5439 e405 6e38
00000150: 955c ef37 11ea 06b9 f911 15b9 24db 52b9
00000160: fb96 dd38 4fb2 7438 be48 b439 f7d5 b539
00000170: 08d8 36ba 0713 fb38 56ed 0838 53c2 3dba
00000180: 80d2 8638 8e30 55b8 3c0c 95b9 371d 90b7
00000190: 2d48 ceb9 574a e439 9832 d039 3451 8939
000001a0: 8f33 7239 d072 8339 50e3 16b8 8eaa 58b7
000001b0: e558 9139 065a c238 91f3 5c39 6069 beb9
000001c0: ce15 f938 7cc4 a0b9 3e6c 58b8 d94d 013a
000001d0: f093 1139 f73a 003a 4b62 043a 766c 0cba
000001e0: 2c39 103a 99ca 143a e2ff fa3a 898f ce39
000001f0: 8031 56b5 4191 81b9 4cc7 02b9 202c c0b9
00000200: ee08 123a c5c5 1fb9 e49d 06ba 08f6 cb39
00000210: 12ef 993a bcff 55ba 4e91 f3b6 1ff0 93ba
00000220: 18dd 11ba cbba 923a f619 fab9 6a0b 07ba
00000230: 1634 1ab8 2e38 f4b8 b05e 663a 81a8 f5b9
00000240: 8269 2038 8fe8 44b9 7a1f 4239 d6ca a1b9
00000250: f7e8 143a f92f 0839 34a5 2a3a d8de 7938
00000260: d893 ba3a d9c6 8439 9d2d 60b8 eca6 0bb9
00000270: d5f8 6fb8 890c 86b8 dd3e 133a 8c21 1639
00000280: a8c4 d137 f4d3 9439 1c56 913a 374e 44ba
00000290: 78eb b239 1c95 2eba 9cc4 20ba de8b 0e3a
000002a0: 5038 553a 2462 56ba 6779 2ab9 a8e4 5fba
000002b0: ed3b a23a 976c 48ba 4161 2a3a e94a d3b9
000002c0: 5522 e339 f2e6 aab9 57ef 0e3a f125 38b9
000002d0: c078 283a efd2 61b9 e5c8 0f3b 0c3d 063a
000002e0: b7b7 d038 fec8 9939 4045 4db9 607d 6639
000002f0: 836f 0039 4ffa ae39 0d86 6b39 e4a7 163a
00000300: 7a73 943a be72 d7ba 6446 7c3a 93bd 96ba
00000310: e668 42ba 210d c439 16d1 923a ef07 dfba
00000320: 1556 6436 70c9 a6ba b09e c73a 8b8e 8fba
00000330: 1500 ee39 57a1 9aba e31e 963a 872c 00ba
00000340: 84a0 6c3a 3d9d 3dba 4079 823a e3cb 193a
00000350: f5d6 6f3a e237 103a 7b02 b739 5749 59ba
00000360: 5f7c 79b8 a882 20b9 02b0 b438 61b3 da39
00000370: dea8 c137 cee1 823a ca53 b03a 151e 63ba
00000380: 6635 133a 0e7c 3fba b742 11ba 3c55 1b3a
00000390: d683 463a 4faa 9aba e3b2 55b8 6ed9 4aba
000003a0: a170 413a 53ee 20ba 830c 9139 4f3c b6b9
000003b0: ea9f 253a 24ca 5439 ea0f 723a c1ef 37ba
000003c0: da85 f537 7786 9b38 7a74 afb9 419b 67b9
000003d0: 6a59 4739 2a7e edb8 13c6 dbb8 7824 80b9
000003e0: 13a8 8fb9 6874 4db9 3678 9bb9 430c f4b8
000003f0: 65a4 c838 ef5d 13b7 6c46 b7b8 198c cc37
