IsaacGymEnvs/isaacgymenvs/runs/Bolt-18-12-2023_18-16-17-36/nn/last_Bolt-18-12-2023_ep_600_rew_0.41153094.pth (torch, 613026 bytes, 36 tensors)

value_mean_std.running_mean f8 [1]
00000000: 0a12 f3d1 09b9 c73f
0.1853344226020826

value_mean_std.running_var f8 [1]
00000000: 1743 2d90 a453 983f
0.02375657205567724

value_mean_std.count f8 []
00000000: 0000 0000 0220 2c41
921601.0

running_mean_std.running_mean f8 [30]
00000000: 3404 7672 7cc9 a0bf a319 e5e4 2acc 9fbf
00000010: 294d 5b8b e7a0 c3bf 75a1 e1c8 8db2 a43f
00000020: 6057 6a49 d44a c43f dc4d fe7c 5201 b9bf
00000030: 8c1a b464 a0f5 863f 6fba 3b71 ed10 a03f
00000040: 48c2 af78 4526 debf 0f2c e88a dfd3 a63f
00000050: 3230 0776 5d0d 6c3f fdfc 400d 2fdb 693f
00000060: a372 9383 df3f 8ebf da39 288b c78f ac3f
00000070: 60f7 755c d1e2 ab3f 0f6b 8c4e 9353 bcbf
00000080: 5e8e 9a06 9968 a4bf 34c9 3b01 eb83 913f
00000090: e003 2dbc bb2f 83bf c102 d9a3 534b 773f
000000a0: 1e4e f60a f95b 8f3f 5cc2 485e 1bd1 903f
000000b0: ca91 21a6 1a9e 82bf cbf5 f9f8 d54b 8bbf
000000c0: 5033 910e 45b1 a2bf 23bc f6a4 bebd c03f
000000d0: b018 aa23 f2ca c43f 829a 7e71 963f cabf
000000e0: 6a4e bc78 acef b9bf 6373 5dec c638 793f
-0.032787217113771666 -0.03105227491439567 -0.15334791473888146 0.04042475773968849 0.15853360733734245 -0.09767642547222216 0.011210682938793036 0.031379146644998517
-0.47108589921757416 0.04458521433488027 0.0034243417178228203 0.003156272790903024 -0.014770265772704965 0.055784450280146294 0.054464857613296 -0.1106502596634693
-0.039860517555351235 0.01710478968647884 -0.009368387870951567 0.005687071532123057 0.01531214298919453 0.016422679547931515 -0.00909062213413216 -0.013328239117295212
-0.03650871088812002 0.13079054884789895 0.16244341603686996 -0.2050655416653236 -0.10131338069577969 0.006157662433761898

running_mean_std.running_var f8 [30]
00000000: 5f0b 7261 1542 0440 e400 d537 b217 f53f
00000010: 40f2 8877 2ccd 0040 737f c698 36be ff3f
00000020: ad18 518c f0a7 0840 05ef a5ee 54cd e43f
00000030: 0a51 e80e c2e9 cd3f 0f77 ab02 0327 c33f
00000040: 49b4 0e4b cf3b db3f 0b92 bdce 7615 1440
00000050: 8599 46a4 bfac f53f eb13 0ac7 62a5 953f
00000060: 07eb f4a5 46cc bd3f 5842 3dfe b11c be3f
00000070: b764 2e55 1650 bf3f 4047 3e93 4bf3 ba3f
00000080: 80fe 5e16 c6ce c13f 086e c8b9 fee2 bf3f
00000090: 5e1a 9276 aad5 c13f 454e 1adc fa3e c23f
000000a0: 20f7 9c59 ef03 c23f ef8f 4012 217e c33f
000000b0: 7597 dfb4 0491 c03f 97e6 c81e d38c c33f
000000c0: cb1a 406d 3f54 e83f 827a 6053 c4bd e73f
000000d0: 8b13 c6b8 1989 e63f 3400 65c9 dfa8 e63f
000000e0: af78 90a2 23a9 e93f 22f3 c05d d91e e83f
2.5322673428467364 1.3182851963938953 2.1001824701945964 1.9839387862957352 3.082001777863374 0.6500649129006609 0.23369622924713723 0.14962804441795938
0.42552549676731083 5.020961027451004 1.3546749512694032 0.02113870944824107 0.11639825393369217 0.11762535531057361 0.12231578425998434 0.10527489037329207
0.1391227349504227 0.12455741916385688 0.13933306493364034 0.14254699465947077 0.14074508548395048 0.15228665724964638 0.12942560989102572 0.15273512843287015
0.7602841504857109 0.741914904447029 0.7042358979093576 0.7081145223128318 0.8018968749127192 0.7537657576682231

running_mean_std.count f8 []
00000000: 0000 0000 0420 1c41
460801.0

a2c_network.sigma f4 [6]
00000000: dd4c 1c3c ca5c 08be 33f9 c7bd 10b1 06bd
00000010: 8944 1c3d cf7b 083e
0.00953981 -0.13316646 -0.09764328 -0.032883704 0.038151298 0.13328479

a2c_network.actor_mlp.0.weight f4 [256, 30]
00000000: fae2 673e 2871 74be db46 5a3e db6c dfbd
00000010: d632 823c f1c2 c73d d1fd 383e 0f75 ae3d
00000020: bc40 85bc 4460 91be 6de8 7f3e 550b 0dbd
00000030: 3e76 723d 210c 103e 5586 033e a771 faba
00000040: e3b8 23bc 0b38 7dbb b4f9 023d e9ae 53bd
00000050: 8c74 3abe e10a 18bd d4c7 3dbe d16e 033e
00000060: d959 4dbd 57c8 713d 1075 903d 6ce2 bc3d
00000070: 94bc 2e3d a186 5abe cdb3 693e b56f 52be
00000080: 775d 1e3e 2caf a0bc 6365 c73d d75e 5abc
00000090: 1292 eb3d 2f8b e8bd a5d6 85be 7b7f 86be
000000a0: cb0b 5c3e 8977 fc3c b271 8c3d fa4e 2cbe
000000b0: 79d2 00be 647b afbd 6bc5 02be af3a 923d
000000c0: 76d4 9e3c 83e7 f83d bd3f f3bd 329f f6bd
000000d0: 7ff1 ee3d c372 03be 87e0 4f3c 9d97 41bd
000000e0: 6d5e 343e ca22 acbd a7ed e5bd 80bd 9a3b
000000f0: 746c 493e 9ecb b2bd 99b3 8b3e fd91 9a3d
00000100: 4d49 85be b2e0 0cbe f5c1 503e 8b11 08be
00000110: d9ee a2bb 7e99 c7be 15a3 f4bd 5222 803d
00000120: d491 31bd 3cab 1abe 78dd f1bc 7ed6 22be
00000130: 30a8 50be ff16 72bd 6982 3dbd 67e4 25be
00000140: 5608 353e 5837 ae3c ceb8 413c 36e1 fdbd
00000150: 7474 a8bd 0109 b2bc f463 b73c 5577 38be
00000160: ed01 ffbd 8920 dbbc 151b 493d 838a 24be
00000170: f361 86bc 78c6 a7be 5916 15be 9315 2dbe
00000180: c65a 383d 59b4 a8be 513b ae3e e90c fdbc
00000190: 2460 923e 072f 773d 0c47 39be 2142 1f3e
000001a0: 6bce 0d3c df1b ebbd b1cd 2abe 7c69 34be
000001b0: 49d3 873c 7a56 a4bd ed1e a13c f87e 2cbe
000001c0: 25cf a23d e379 9cbd 4ed1 babd e379 4e3d
000001d0: b432 053e fbe1 8c3d 5c28 013e 70d8 cabd
000001e0: accc dc3d aabb 22be 6046 b73c 82a7 0bbe
000001f0: ec50 7c3e 8ac9 02be 5ec2 173e c094 013c
00000200: 4c58 723d 094a dabe 4951 8c3e c381 5c3d
00000210: ee00 0d3c 00ee 01be 10ca 063e 86d4 b4bb
00000220: 2453 ddbd 638f 333e 7971 fd3c b0af 6ebc
00000230: 7596 46bd 6a5b 93bd cab3 8f3d 47f9 92bc
00000240: b897 3dbe 8e66 523b afe6 a8bd 5fd2 813d
00000250: 71ae f83d f2cd 42be 1a85 d03d 4eeb c23d
00000260: fba4 773d bebb 7dbd 3ccb 833e 6b25 ce3d
00000270: 2517 8e3d 426d 6bbd 6575 19be ab72 d23d
00000280: 0794 eabd 7ce2 b6bc 5f85 813d 893d 0d3e
00000290: 930e 163e 2026 ba3d b23d 7fbd 78e5 d9bd
000002a0: a89f c63d d4aa a33d c095 ffbd a094 15bd
000002b0: 84b5 523e 42f5 b93d 2139 edbb 9271 48be
000002c0: 01de 5abd 1c33 4fbd 1a35 f2bd 23bb 15bd
000002d0: 4fa3 ec3d 2eb6 5b3e 3e71 71be 1a3f 81be
000002e0: e777 96bd 2275 073e bf4f ee3d d309 afbd
000002f0: f1b0 673e 528a cc3d 9e95 8ebe d88c d93d
00000300: a952 16be 2377 ba3c 9ee4 61be 555f ee3d
00000310: 0bec f63d 84cd b43d 6802 04be 278c 07be
00000320: f15c 36be 1b34 363e 32a4 f3bc 32ae de3d
00000330: bea7 4b3d 29ad bf3d c717 6dbc 31b6 f3bd
00000340: 3388 42be b793 29be bd43 a3bd 5c8d 84be
00000350: 97f0 14bd c880 ddbc c07f 26bc 2818 13be
00000360: 8b7e 39bd da50 273e 598e b7bd 660e 5d3e
00000370: 13bb e73d d7cc 32bd e1e1 fbbd 3446 00be
00000380: 5dd1 e6bd fd90 2dbe c91f 863d 6161 4dbd
00000390: e9ac 563c 4521 f63c a792 ee3d c231 f4bd
000003a0: c1b0 583e 728c 6dbd 6d41 98bc c939 0a3e
000003b0: 985d bebc 9e60 2a3d 91ed 3bbd 16d2 9abd
000003c0: 3ca9 6d3e 7a00 79be 505b 0c3e 6fba 613e
000003d0: af7d 8f3e c01b c1ba 7c5f 97be d645 8e3d
000003e0: 539e 6d3e e1a2 c8be 9b62 50bc bd81 bcbd
000003f0: 7b8c a2bb 5f17 89bd 70f3 62bd 6971 ceb9
0.22645178 -0.2387129 0.21316092 -0.109094344 0.015893381 0.09753979 0.18065573 0.08518421
-0.01626622 -0.28393757 0.24991007 -0.034434635 0.059194796 0.14067127 0.12844212 -0.0019107357
-0.009992811 -0.003863814 0.031976417 -0.05168048 -0.18208522 -0.03711975 -0.1853326 0.12835242
-0.050134514 0.05902895 0.07053578 0.09222874 0.04266031 -0.2134042 0.22822495 -0.20550425
0.15465342 -0.019614778 0.09736135 -0.013328276 0.1150247 -0.11354672 -0.26140323 -0.26269135
0.21488874 0.030818718 0.06857623 -0.16827002 -0.12580289 -0.08568457 -0.12770621 0.07140099
0.019388419 0.12153532 -0.118773915 -0.12042083 0.116671555 -0.12836747 0.012687809 -0.04726373
0.17614146 -0.08405073 -0.11226969 0.004722297 0.19670278 -0.08730243 0.2728546 0.07547376
-0.26032487 -0.1375759 0.20386489 -0.13287942 -0.0049723205 -0.38984293 -0.11945168 0.06256546
-0.043351963 -0.15104383 -0.02952455 -0.15902135 -0.20376658 -0.059103962 -0.046266947 -0.1620041
0.17678961 0.021266624 0.011823846 -0.12396471 -0.08225337 -0.021732809 0.022386529 -0.18014272
-0.12451539 -0.026748912 0.049098093 -0.16068463 -0.016404128 -0.32768607 -0.14559306 -0.16902761
0.045008443 -0.32950094 0.3402963 -0.030889945 0.28588974 0.060347583 -0.18093508 0.1555257
0.008655171 -0.11479925 -0.16680028 -0.17618364 0.01658024 -0.080243066 0.019668067 -0.1684531
0.07949666 -0.076404355 -0.09121953 0.05040921 0.13007623 0.0687904 0.12613052 -0.099045634
0.107812256 -0.158919 0.022372425 -0.13638118 0.24640244 -0.12772194 0.14820239 0.007909
0.059166238 -0.4263461 0.27405766 0.053834688 0.008606179 -0.12688446 0.13163018 -0.005518499
-0.108068734 0.17535166 0.030937897 -0.014568254 -0.04848333 -0.0719517 0.07016714 -0.01794113
-0.18514907 0.0032104584 -0.082471244 0.06338953 0.12142647 -0.19023874 0.10181637 0.09517537
0.060460072 -0.061946623 0.25740993 0.10065731 0.06938008 -0.057477243 -0.14986189 0.102757774
-0.11454015 -0.022324793 0.06324267 0.13793005 0.14653997 0.09089303 -0.062314697 -0.10639471
0.09698421 0.07991567 -0.124797344 -0.036518693 0.20577055 0.09079982 -0.0072394763 -0.19574574
-0.053434376 -0.05058585 -0.118265346 -0.03655542 0.11554586 0.21456215 -0.23578355 -0.25243455
-0.07347088 0.13228276 0.11636304 -0.08546796 0.22626092 0.0998732 -0.27848524 0.10622567
-0.1467997 0.022761887 -0.22059867 0.11639277 0.120567404 0.088282615 -0.12891543 -0.13237058
-0.17808892 0.17793314 -0.02974138 0.10873069 0.04972052 0.093591996 -0.014471001 -0.11899985
-0.18997268 -0.16560255 -0.079719044 -0.258891 -0.036362257 -0.027038947 -0.010162294 -0.14364684
-0.045286696 0.16339436 -0.089626975 0.21587524 0.113149785 -0.04365238 -0.12298942 -0.1252678
-0.112704016 -0.1694984 0.06549031 -0.050141696 0.013102748 0.030045161 0.116490655 -0.11923553
0.21161176 -0.057995267 -0.018585885 0.13498606 -0.023237988 0.041596048 -0.045880858 -0.07559602
0.23209089 -0.24316588 0.13706708 0.22043775 0.28025576 -0.0014733002 -0.29565036 0.06946914
0.23204927 -0.39186767 -0.012718822 -0.09204433 -0.0049605942 -0.06693911 -0.05540794 -0.0003937588

a2c_network.actor_mlp.0.bias f4 [256]
00000000: b35d 9d3d f1f1 013e efdb 93bd 901f c5bb
00000010: 30bc a63d 3087 90bc 5e97 a63d c24a 063e
00000020: 4814 76bc 2d5c 26bd 279f ed3c 753b 753d
00000030: 919f e6bd 6984 163d 7f88 893c 783f 6abb
00000040: 554c ccbd a48f 99b9 90c7 1f3d 9f98 933c
00000050: 7e2a ecbc e7c4 4dbd a0b5 77bb 53bb e9bb
00000060: e057 193e ad1f ae3d 258c 993c 2c29 803d
00000070: dab3 09bd fca9 2bbc 9c22 70bc d797 76bb
00000080: c0fa 31bd 1214 aebd f25e f53d 4018 1a3e
00000090: c652 b0bc 45db 54bd f1d4 af3d ee31 813d
000000a0: 5018 7f3d 0ca1 d03c 3d92 60bd 03fb 573d
000000b0: 0d0b e93d f35d 0e3c f89f 623d 1398 723d
000000c0: 2333 2e3e 0b8d 26be d195 dfbc 1208 cdbc
000000d0: ff43 753c ecd0 073d 9d00 b63b 6e72 7e3d
000000e0: 5acf 30be d11b b63d 1e50 bc3d 67cd c0bb
000000f0: cdb2 77ba f11a 353d a373 a2bc 464e fabd
00000100: 2eb8 513c bf2b d5bd 338c 883d f1cb 493d
00000110: 3000 31bd 3e9d e83d 8dda b73c 27e4 273d
00000120: e6fe 6c3d 3ff5 76bd 8591 023e 177d 9e3d
00000130: c831 a0bc ccce 9f3c ab8e 143e e30d c8bd
00000140: ca42 353d f65f e0bd 8f63 883c 8a29 80bd
00000150: d114 f8bc 25ce 80bd c783 a7bd 9b6d a1bd
00000160: 8627 60bd d1f6 fcbc e171 41bd ee10 873d
00000170: 2d66 123d 2c7f 25bd 5fa0 9c3d 5332 003e
00000180: f15b 0f3e bf7d 123d 3fdd 8d3d fc8d f7bc
00000190: 3e2b 713c 18d2 56bd 3e9d d23d a2d1 f63d
000001a0: 44d5 a3bd 2d5e 4ebd 581e bf3c b356 8d3d
000001b0: 0a79 013c 8bfc 083e 8d9e b43b 0fb2 c83d
000001c0: e28f f43d 2300 2fbc 53e3 233e ad17 9bbd
000001d0: 7304 fdbd b736 31bd 204e 753d c9e4 d0bb
000001e0: 843e 793d 240c 483d b27e 86bc cbc7 b63d
000001f0: 0baa 3f3d f6e3 28bd 5eac bfbc 6aa9 293d
00000200: 84e8 0dbd bec3 8d3d d67f 99bc 5d59 aa3d
00000210: e7b5 e6bd 207c 58bd b582 91bd ccde d73c
00000220: 5f98 6b3c 79c3 34bd 8d0b b93d 153f ba3d
00000230: 6489 553d ed1b d13d ba95 15be 9426 cfbd
00000240: c3a9 26bd 7e0e 17bd 1c05 253b 69cc b4bd
00000250: 19f4 6c3d 5ad6 56bd a0b3 4d3d e953 eabc
00000260: f86d 0cbc 8fa7 f63d 5d2c dc3d aada 8fba
00000270: 6a08 0b3d 2c18 99bd 0961 b43c 91c6 663d
00000280: f276 263d d9d7 2e3d ecbd 2cbd acec febc
00000290: 9afe d5bd 8716 d3bd 3f1c 2b3d 8ab6 00bd
000002a0: 8435 a0bc 6726 9a3d 89ed cabc 4e21 dfbc
000002b0: d185 313d 55aa f2bd 6a27 f23d d5e6 dbbd
000002c0: 0fbc 8f3d 9078 c7bc e57e d5bd 6f6c f83b
000002d0: 6c57 bd3c 6188 18bd 79c7 b5bd 2250 553d
000002e0: d87b ff3d 1344 a2bd 8345 8dbd 1709 f43c
000002f0: e811 94bd e98e f43c f732 bbbb 4e91 033c
00000300: de15 8abd 3be0 bd3d e1e6 76bd 9e8e 873c
00000310: d267 2e3d 3412 1dbd 8c54 d73c e40b 9ebd
00000320: cabc f0bc 9705 c83d 60ae bebc ec86 943d
00000330: f7fd 26bd 69da f9bd 8af0 473d 49d5 c0bd
00000340: 15b2 48bd 439f 013d 486f 93ba 3fad 52bd
00000350: 5564 553b 9e54 3a3c 7bf0 0a3d 3060 20bd
00000360: 8f98 883d fb6d 243d 0b54 2e3d c451 de3c
00000370: 686a d93d 7ae0 d0bd c46c 983d 6e80 b93d
00000380: e9aa e3ba 994f ddbd 1868 d23d 4669 273d
00000390: 8350 bf3b 5843 093e 35d1 233e 300a de3d
000003a0: 925d 5d3c cce1 99bc 0214 58bd bc6f 3e3e
000003b0: c5ee 413d d768 b1bd 3985 43bd 81f0 643c
000003c0: d08b ebbb 9062 e03b 8491 9fbd d350 5e3c
000003d0: b301 903d c9cb 4bbc d0cd 173d f5f2 08be
000003e0: e447 dcbc d86b 64bd a74d 25bd 1d38 ad3d
000003f0: b67c 183e deff 803c 1b54 09bd 5c65 cbbd
0.07683887 0.1268995 -0.072196834 -0.0060157254 0.08141363 -0.017642587 0.0813434 0.13114455
-0.015019484 -0.04061525 0.029006554 0.059871156 -0.112609036 0.03674737 0.01678872 -0.0035743397
-0.09975497 -0.00029289455 0.039008677 0.018017111 -0.028828856 -0.05023661 -0.0037797466 -0.0071329265
0.14974928 0.085021354 0.018743584 0.06257853 -0.033618785 -0.010477539 -0.014656689 -0.0037627125
-0.043452024 -0.08499922 0.11981 0.15048313 -0.021523844 -0.051966924 0.08585537 0.063083515
0.062279046 0.025467418 -0.054826964 0.052729618 0.11379061 0.008689391 0.05532834 0.05922706
0.17011695 -0.16264741 -0.027293118 -0.025028262 0.014969825 0.033158228 0.0055542723 0.062120847
-0.17266598 0.08892024 0.09194969 -0.005883861 -0.00094489456 0.044215146 -0.01983053 -0.12221961
0.0128002595 -0.104087345 0.06667366 0.04926676 -0.04321307 0.113581166 0.02244308 0.040989067
0.057860278 -0.06029248 0.12750824 0.07738703 -0.019554988 0.019507788 0.14507549 -0.09768274
0.04425315 -0.10955803 0.016649036 -0.06257923 -0.030283364 -0.06289319 -0.081794314 -0.07882234
-0.054725192 -0.03087941 -0.047227744 0.06595026 0.035741974 -0.040404484 0.07647776 0.12519197
0.13999917 0.035764452 0.06926965 -0.03021907 0.014719782 -0.052446455 0.10283898 0.12051703
-0.079996616 -0.05038278 0.023329899 0.06901302 0.007902393 0.13377587 0.005512065 0.09799587
0.11941506 -0.010681185 0.16004686 -0.07572875 -0.12354364 -0.04326507 0.05988896 -0.0063749296
0.060850635 0.048839703 -0.016417835 0.08924826 0.046793025 -0.041233025 -0.02339762 0.04142133
-0.034645572 0.069221005 -0.018737715 0.08317826 -0.11265164 -0.05285275 -0.071050085 0.026351355
0.01437959 -0.04413173 0.09035406 0.09094063 0.05213298 0.102104045 -0.14607897 -0.1011478
-0.04068924 -0.036879055 0.0025180047 -0.08828051 0.057849977 -0.052450515 0.050220132 -0.028604465
-0.0085711405 0.12043678 0.10750649 -0.0010975201 0.03394357 -0.074753135 0.022018926 0.05634171
0.04064078 0.042686317 -0.04217331 -0.031118713 -0.10448952 -0.10307031 0.041774984 -0.031424083
-0.019556768 0.07526856 -0.024771469 -0.02723756 0.043340508 -0.118488945 0.11823924 -0.10737387
0.07018291 -0.02434948 -0.10424594 0.0075812857 0.023112975 -0.037239436 -0.08875937 0.052078374
0.12474793 -0.079231404 -0.06898024 0.02978949 -0.07229978 0.029853301 -0.0057128626 0.008030249
-0.06742452 0.09271284 -0.060278777 0.016547497 0.04257948 -0.038347438 0.026285432 -0.07717112
-0.029386897 0.09766691 -0.023276508 0.07252297 -0.040769543 -0.121998616 0.04881338 -0.09415681
-0.048997957 0.031646024 -0.0011248374 -0.05143475 0.0032561023 0.011372713 0.033920746 -0.03915423
0.06669723 0.040143948 0.04256062 0.027138598 0.106159985 -0.101990655 0.074426204 0.09057699
-0.0017369661 -0.10806198 0.102737606 0.04087188 0.005838455 0.13404596 0.15997775 0.10841787
0.013511078 -0.018784426 -0.052753456 0.18597311 0.04734685 -0.08662575 -0.047734473 0.013973356
-0.007188298 0.006847687 -0.07791427 0.013569075 0.07031574 -0.012438723 0.037061512 -0.13373931
-0.026889749 -0.05576691 -0.04035726 0.084579684 0.14891323 0.015747007 -0.033527475 -0.09931442

a2c_network.actor_mlp.2.weight f4 [128, 256]
00000000: 866a 383e 6dfa 323c dab6 373d 9a89 33bd
00000010: a89b 17bd 15ca efbc 64d5 c0bd ec7f 1cbe
00000020: 21ad 2bbd ebe9 7dbd 47d2 b0bb f3c9 73bd
00000030: 1229 43bd d0ed cfbc cbf8 11be c559 14bd
00000040: a203 d6bc 48d5 dfbd c802 0b3d 6f43 37be
00000050: 8e64 933d 2154 413d 8606 1bbe bfde f53c
00000060: 8177 c0bd 688c 6abd fe3a 8fbc 7608 43be
00000070: 1c05 563c 5e80 ab3d 0358 c13b 6857 14be
00000080: 9028 db3d da47 93bd 85ca 0a3d 06ec 0cbd
00000090: 809a 4bbe 09b5 80bd 083f 6dbe 1fe6 c2bd
000000a0: f748 d0bc fcdd ceba e575 713b c95a b23d
000000b0: d403 f8bd 970b 193d bb5b 2cbe 60c4 313d
000000c0: 0e43 8f3b 93ce f23d b8e5 783d 5fca 2a3e
000000d0: f453 10bc 0f38 a4bd 0f33 383e 8316 8e3d
000000e0: 0c97 2c3a 2bfb 2bbd bdd8 633d bb3a 52bd
000000f0: 5cef 76bc 4052 f8bd d3f6 22bd 375d b1bc
00000100: d465 8cbe 9c03 bbbc 1599 a83d 4b74 fbbd
00000110: 2a51 51be 6369 333d 71e1 a43d c975 46be
00000120: c752 1bbe de8d e43d be45 15be 6ae0 25bd
00000130: f7b2 283e 6379 663d 79b1 bbbd 8cbb 38bd
00000140: 1139 d5bd edfa 393e 2580 c1bd d689 d7bd
00000150: 8ab8 e63c 4a18 333d 50aa 183e 6099 01be
00000160: 6fdc 8dbd 6a56 ad3d 8790 863d c69a e33d
00000170: 6b14 78be fe9e 243e ea03 633c 9528 3b3c
00000180: 9008 afbe 9d5a 7bbe 335a 103d 8fbe de3d
00000190: 94b1 b33d 5a40 83bd ee8d ce3c 0d2b 0bbe
000001a0: 2a93 37be 5579 02bd 1501 a2bd b17b 7abe
000001b0: bf2c 14be 619d adbd e83a f83d 9be8 8fbd
000001c0: 8922 62bd c41a 0a3e ad2d e63c 593c 883d
000001d0: 7090 bcbc 3542 5ebb 56c4 87bd 11a0 243e
000001e0: 9c56 10bd 14ac 51be 5f4f e2bd c323 9fbb
000001f0: 5138 74bd ddcc e23d fd5f b23d dfc3 6fbd
00000200: 49a8 04be 77f5 f0bd f6a9 2fbc 5179 53bd
00000210: c453 fd3d 6f23 a5bd 8909 2fbe 783e 113e
00000220: 1fe2 0dbe 835e 193d 4c41 74bd f3f5 d9bd
00000230: d724 3a3d 5c79 12bd 4e5c 323e e8f5 0bbd
00000240: 6814 583c eb87 39bd 4bce e23c 2236 6dba
00000250: 1253 2c3d b602 4dbd f323 733c 00f0 e6bd
00000260: dcb9 f23d d75e 263e b7e8 c4bd 0bd6 303d
00000270: acc3 90bc 92b7 3c3d 5e13 9dbc 0608 0dbe
00000280: 5314 443e 4948 04bd 7dd3 813d ff18 e43d
00000290: a2f9 d23c 0564 0abd 1bf2 a2bb a77d 92bd
000002a0: 6f4f 243c b740 09bd 1763 d7ba 4d41 26bd
000002b0: dc8d 13bd 2dbd 173d ea80 d53b 35a1 033e
000002c0: 8a17 1f3d 3a03 1cbe b10f 493d cdfd 303d
000002d0: b1ba 1b3e d528 07bd d165 9cb9 59ea 8b3b
000002e0: b734 9abd b075 19be f364 82bd db3d 883d
000002f0: 6f30 383c 5c58 563d 1215 473d dbdb 903d
00000300: 6be9 fa3c f5c2 7e3d e2e6 11be c9fd 283e
00000310: abb1 7ebb 2066 463e 4a5c b0bc 1ff0 b33b
00000320: 16d0 f93d 03f7 d43d cca2 0b3e 70f1 b1bc
00000330: f50a 55bd f4e3 6abd 5e63 013e 7847 c3bd
00000340: fbea 023d d4ce 4cbe 1d55 cabd 01bd 0ebe
00000350: 1a33 06bd 482c 37be 302c cb3d f08d 9ebd
00000360: 7d7a 4ebd f907 3a3e f85f b93c c6bd 2bbd
00000370: 0ebe 4c3d 49b4 f13c febd bc3c 1931 9c3d
00000380: 7d98 ebbc 1620 c2bd bd15 283c 94b1 f8bc
00000390: f3a7 163b a21d 823d b227 c6bd 0027 d23d
000003a0: fc69 85be 81ab 473c a653 aabd 7d3b c2bb
000003b0: 550d 53be 79bc 2e3c 0a30 43be 1706 84be
000003c0: 0e4f 743d 6b61 003e 0f36 803d abed 893d
000003d0: 1fff 193e d7f3 2cbe 6768 36be c6d1 b33d
000003e0: fd94 15bc 8d15 413c 1fcd 52bc b540 bf3c
000003f0: a245 e1bc 7aca a3bd 04b7 adbd 875e a5bd
0.18009385 0.010923964 0.044852115 -0.0438324 -0.03701368 -0.029271165 -0.09415701 -0.15283173
-0.041913155 -0.06199066 -0.0053961608 -0.059518766 -0.04764659 -0.025381953 -0.14255063 -0.036218423
-0.02612478 -0.10929352 0.0339382 -0.17896818 0.07196914 0.047199372 -0.15139207 0.03001344
-0.093977936 -0.057262808 -0.017484184 -0.19046196 0.013062742 0.083740935 0.0059003844 -0.14486468
0.10701096 -0.07191439 0.033884544 -0.034404777 -0.19883156 -0.0628453 -0.23168576 -0.09516548
-0.025425417 -0.0015782709 0.0036843952 0.08708722 -0.12110105 0.03736457 -0.16831867 0.04340017
0.004372007 0.11855807 0.060765952 0.16678761 -0.0088090785 -0.08018505 0.17988227 0.069378875
0.0006583787 -0.04198758 0.05562662 -0.05132554 -0.015071716 -0.12125063 -0.03978617 -0.021650894
-0.2742144 -0.02282887 0.08232323 -0.122780405 -0.20441118 0.043801676 0.08050812 -0.19380869
-0.15168296 0.111598715 -0.14577386 -0.04049722 0.1647452 0.056268107 -0.091647096 -0.045100734
-0.10411275 0.18162127 -0.0944827 -0.10524337 0.028164167 0.043724336 0.14908719 -0.12656164
-0.0692681 0.08463748 0.06570535 0.11113505 -0.24226539 0.16076276 0.013855914 0.01142325
-0.3418622 -0.24546285 0.03524227 0.1087619 0.08774105 -0.064087585 0.025214162 -0.13590641
-0.17927232 -0.031853992 -0.07910363 -0.24461247 -0.14470194 -0.08477283 0.121206105 -0.07026788
-0.055208717 0.13486773 0.028097952 0.066521354 -0.023018092 -0.0033913974 -0.06629245 0.16076685
-0.035238847 -0.20475799 -0.11050295 -0.004856558 -0.05962402 0.11074231 0.087097146 -0.058536407
-0.1295482 -0.11765569 -0.010721674 -0.05162937 0.12369493 -0.08063399 -0.17093481 0.14183986
-0.1385579 0.03744365 -0.059632584 -0.10642614 0.04544529 -0.03576027 0.17418024 -0.03417006
0.013188459 -0.045295637 0.027686259 -0.0009048899 0.04207141 -0.050051413 0.014840114 -0.11276245
0.11851856 0.16247116 -0.09614699 0.043172877 -0.017671429 0.046073504 -0.019174274 -0.13772592
0.19148378 -0.0322955 0.06339166 0.1113758 0.0257538 -0.033786792 -0.004972709 -0.071528725
0.010028704 -0.033508983 -0.0016432729 -0.04058962 -0.03602396 0.037045646 0.006515612 0.12854464
0.038840808 -0.15235606 0.04908723 0.043210793 0.15207936 -0.032997925 -0.00029830498 0.00426988
-0.07529586 -0.149863 -0.06366911 0.06652423 0.011242016 0.05233036 0.04860408 0.07073184
0.03062888 0.062197644 -0.14248231 0.16503061 -0.0038863223 0.19374895 -0.021528382 0.005491271
0.12197892 0.10398676 0.13636321 -0.021721572 -0.052012403 -0.0573463 0.12635562 -0.09535116
0.031962376 -0.20000774 -0.09879515 -0.13939287 -0.032763578 -0.17887986 0.099205375 -0.07741916
-0.050409783 0.18167104 0.02262877 -0.04192903 0.049985938 0.029504912 0.023039814 0.07626552
-0.028759236 -0.09478776 0.010259089 -0.030358113 0.002298829 0.06353308 -0.0967554 0.10261345
-0.26057422 0.012186886 -0.08316736 -0.0059275017 -0.20610555 0.010665053 -0.19061294 -0.25785896
0.059645705 0.12537162 0.06260311 0.06734785 0.15038727 -0.16889893 -0.17813264 0.087802455
-0.00912976 0.011784923 -0.0128662875 0.023346284 -0.027499024 -0.07997604 -0.08482173 -0.0807467

a2c_network.actor_mlp.2.bias f4 [128]
00000000: 9cf2 913d 8b37 acbe 4b9c d7bd f2f8 93bd
00000010: 8488 cfbd db98 95bc 0619 d6bc 4566 5e3d
00000020: f88b 20be 7909 36be 577d cebb b2a7 94bd
00000030: bee7 1ebe 0fac 19be 4c4c bc3d 3cc8 76be
00000040: 2598 19be 75a5 fa3d d581 4ebe c07e 86bd
00000050: cd0a eebd 775e 8ebd b3a9 e739 2cd2 173e
00000060: 1236 aabe d751 70bc 3d0d 853d cd92 8d3d
00000070: eb65 afbc b1e2 65be 90a9 2c3e 000a f73b
00000080: 4f81 b0bd e299 a7bd 21c1 0a3c e3f6 043d
00000090: 7f8d 563e a37d 013d 1b4e 963b 4efe b1bd
000000a0: 494f 8dbd deb3 eabc 4ae1 a0bd 0c8a e2bd
000000b0: 272d cc3d d5f4 f33c 0e52 e83d 73ee c9bd
000000c0: 1b1e 9dbd c418 99bd 9917 93bd 5bf2 92bc
000000d0: b98e ca3d d69f f13d 6f4f 53bd 9d32 23be
000000e0: 881b 823d d60e af3d 5658 b93c 9c64 cfbd
000000f0: 1a91 82be 1c1e a23b 3c8e 03be 45c4 2fbe
00000100: 9e86 2abe 8a75 323c b20f 5dbe 293e 193d
00000110: b727 9fbe bb9a 17be da31 82be e7e4 9cbd
00000120: b696 9dbd 8daa cfbd 8ba0 debd c244 e6bc
00000130: c536 cb3d 6547 3dbe f736 c03c 5e5b 04be
00000140: 3c71 ed3c 858e d53c 8f6d 0ebe 99d4 b7be
00000150: 872d 183e 80b4 debd a0ee 47be 5639 41be
00000160: c98b b5bd bc72 b53d eda6 bbbd 2354 5fbc
00000170: 88ff bc3d 6642 113e b845 d6bd 38a8 38bd
00000180: e1ca 71bd 5a0c d4bd 16bb 04be b5c2 81be
00000190: edbf 22bd 8f67 9bbe 500e 02be 32cc abbd
000001a0: f76e ad3d 087a 493d 0712 2ebd a50f 543d
000001b0: e6be 51be 1e54 afbc 2f68 69bd ddb0 5a3e
000001c0: 150d 9f3d 1833 a5bd a7e9 bdbc 1767 fcbc
000001d0: 665e a6bc 114b 6ebd 80d3 18be 4a86 903b
000001e0: 8756 bdbd f96b 57be 9942 d3bd afce dc3a
000001f0: 682e eebc aa0a d93d 3ee6 efbb 24b5 16bb
0.07126352 -0.33636126 -0.105278574 -0.07225217 -0.1013346 -0.018261364 -0.026134979 0.05429675
-0.15678394 -0.17777051 -0.006301563 -0.07258548 -0.1551809 -0.15007041 0.0919424 -0.24099821
-0.14999445 0.1223859 -0.20166714 -0.065671444 -0.11623154 -0.069516115 0.0004418619 0.14826268
-0.33244377 -0.01466795 0.064966656 0.06912766 -0.021410903 -0.22449757 0.16861558 0.007539034
-0.08618414 -0.08183648 0.008468897 0.032462012 0.20952414 0.031613957 0.0045869476 -0.08691083
-0.06899888 -0.02865022 -0.078554705 -0.110614866 0.099695496 0.029779831 0.11343776 -0.09859934
-0.07671758 -0.07475427 -0.07182235 -0.01793783 0.098905034 0.117980644 -0.051589426 -0.15937276
0.063529074 0.085477516 0.02262513 -0.101266116 -0.2550133 0.004947437 -0.12847227 -0.17164715
-0.16652915 0.010892281 -0.21588019 0.037412796 -0.31084988 -0.14805119 -0.2542866 -0.07660847
-0.076947615 -0.10139952 -0.10870465 -0.028108958 0.09922556 -0.18484266 0.02346371 -0.12925479
0.028984658 0.026068935 -0.13908981 -0.35904387 0.14861117 -0.108742714 -0.19524622 -0.18869528
-0.088645525 0.088597745 -0.09162698 -0.0136309 0.09228426 0.14185485 -0.104625165 -0.0450823
-0.05903137 -0.103539184 -0.12961993 -0.25343862 -0.039733816 -0.30352446 -0.12700772 -0.083885565
0.084684305 0.049188644 -0.04249766 0.051772732 -0.20482978 -0.021402415 -0.056984123 0.2135653
0.07766167 -0.08066386 -0.023182703 -0.030810876 -0.020308685 -0.058177058 -0.14924431 0.0044105398
-0.092450194 -0.21037282 -0.10315437 0.0016846264 -0.029074863 0.10597737 -0.007321148 -0.0022996152

a2c_network.actor_mlp.4.weight f4 [64, 128]
00000000: 7c85 043e 9e53 01be 7f5e f53d f8ce 893c
00000010: 249e 313c 55bc 043d ffcd cd3d 49ea 6bbd
00000020: 7de7 58bd c134 f23c ff01 dabc f68c c03d
00000030: 6c71 ac3c 50de bc3d 0862 9bbc e867 9c3d
00000040: 1f01 093d b7a1 a8bd cd72 c1bd 2c4b e13c
00000050: 9919 913d b579 53be c7c9 cebd 36ef 12bd
00000060: 5236 89bd c1e9 25bc 0609 363d 6e7b b53d
00000070: d914 86bd 66cd 2e3e 2c1f b6bc c3f2 95bd
00000080: 79a8 393d fb44 a3bd 0b87 e03c 9848 5bbe
00000090: 9ef9 98bd 05d9 3dbd b6d9 a0bd 33ff 91be
000000a0: 8198 5f3c d7e9 4bbe 070a ba3d dcf0 873d
000000b0: ce56 b9bd 2965 a3bc db12 0abe 5b1e de3c
000000c0: 547c e1bc 7ed1 8dbd 4a2c 59bb 67ee f1bd
000000d0: 9374 fabd 60cc 343d 63dd 5d3c 24d9 4b3c
000000e0: e513 663d 97ca 0dbe 8652 25be 9c21 ebbd
000000f0: de81 043e e445 723b ab04 8c3c 3cff cd3c
00000100: 6d95 11be 347e 35bd 46a0 8e3d bbee d83d
00000110: 6636 9fbd 7e9a 37bc 1b39 6bbd 83f6 9fbd
00000120: edf0 38be 7743 1abe 7da4 503d e976 70bd
00000130: 721f 843d 4f48 96bc 3005 91be 230d bdbd
00000140: e68d e43c 5ef4 a0bc 4be7 8dbe 875b d03d
00000150: 2034 8cba 8203 53be 44bf b2bd c99e 28bd
00000160: 2f22 b5bc da5c 2c3c 33c3 1dbe 1bca 653c
00000170: 1f15 adbd fd64 06be f73c 07bd 3444 913c
00000180: 2671 14be dbc7 3f3c 5b16 a7bc 8cfe 43bc
00000190: 5550 69bd c393 77bc 01c5 fc3d 39db 343e
000001a0: 7358 ad3d a79b 8cbd de26 28bd c424 0c3d
000001b0: 3d4e 50bd 6bcd 973b 75e9 a33d 41ae e0bc
000001c0: 5c48 ccbd 07b4 bf3d dc7d 923c 54ae fa3d
000001d0: 6b57 f63d 9d2f c6bd d1ed 84be 7d15 b93b
000001e0: 9e0d 753d 6861 e5bd 46a7 e1bc 06d4 c1ba
000001f0: 9e6f a43d d0eb d1bd d113 f0bd dbc4 cc3c
00000200: 8682 113e 099c 6dbb 00ce f83c d898 39bc
00000210: 9a9d 69bc 57fa ea3d 1fdb 8fbd 941d 373b
00000220: bb13 84bd dbfa 30be 1ad9 823d 48bc 053c
00000230: 93ef e7bd 7404 a43c ea48 c33c d25c a6bb
00000240: 69ec f1bc 69b3 a3bd 28ad 04bd 1475 19bd
00000250: da5c 63bd b3a2 a53d ef41 b8bc 41e6 e2bd
00000260: 0e5b aabd f677 0ebe 3e53 29bc b523 03be
00000270: f196 89bd 4803 1cbd fe3d 3d3d c8f8 d4bd
00000280: 5aa7 50bd 3347 c63c 7520 5e3d ca72 90bc
00000290: 4168 a63d b386 323d d4bb 803c beee 493c
000002a0: 0325 e83d 93ea 673c d453 0abd e79c 50bd
000002b0: 799f e2bd ca62 6abd 8d28 28bd cc2e a83d
000002c0: 44ca 17bd ca84 0cbd dc38 57bd 0a06 1d3d
000002d0: 8407 95bd 5800 5b3d 9b5d c53d a4e7 aebd
000002e0: b507 953d a980 98bd 3960 b53b 2c7d 96bd
000002f0: e146 203e 1c36 1fbd 7d93 c7bd 2535 05bc
00000300: 025e 0ebc d98d 19be d8dc a13c 66b3 ba3d
00000310: f8a6 9b3d 524d a93c f93d 513d 511f 0e3b
00000320: 3b7d b43c a770 93bc f048 bebd a256 543d
00000330: 526a 3e3d 3c35 2bbd 8296 7fbd ddef c1bd
00000340: 83e3 2e3d d568 2fbe ccc9 98bd 05ff 15bc
00000350: 5449 94bc a01a 073d 11c3 97bc b429 9ebd
00000360: 7590 3ebd 87f1 533d 2b50 c7bd 80b3 e23d
00000370: 4230 9ebd aa1d 06bb bd81 9f3d 111a 973d
00000380: 46e0 45bd bbfb 44bd c175 08be 25c6 abbd
00000390: 94e9 bb3c 9e50 313d f793 a93c fb21 053c
000003a0: f429 61bc 05db 073e f894 90bd f02e 33bd
000003b0: 9893 aebd 9c4f d0bd 01b0 d53d 919e 693d
000003c0: 02f5 7cbd f3af e93c a565 103d b1b0 2fbe
000003d0: b97e 343c 14ba b8bc 6a79 0d3d cf94 173d
000003e0: b1c0 853d b918 84bd ee7c 82bd 97d8 d3bd
000003f0: cba6 0f3d 2e12 20bd f6f3 d63d 5a0e dbbd
0.12941545 -0.12629554 0.11980914 0.016822323 0.010840926 0.03240617 0.10049056 -0.05759648
-0.05295514 0.02956617 -0.02661228 0.09401886 0.021050178 0.0922209 -0.018967643 0.07637006
0.033448335 -0.0823397 -0.09445725 0.027501665 0.070849605 -0.20651896 -0.1009708 -0.03587266
-0.06699814 -0.010126532 0.0444422 0.08861433 -0.06546945 0.17070541 -0.02223166 -0.07321694
0.045326684 -0.07972141 0.027408144 -0.21414411 -0.07469486 -0.046349544 -0.07854025 -0.28515014
0.0136472 -0.19913422 0.09083944 0.06637737 -0.0904976 -0.019945698 -0.13483755 0.027114084
-0.027525105 -0.06924723 -0.003313797 -0.1181305 -0.12229266 0.04414022 0.013541552 0.012441907
0.056171317 -0.13846813 -0.16144761 -0.1148102 0.12940165 0.0036967928 0.01709207 0.02514612
-0.14217158 -0.04430981 0.069641635 0.10592409 -0.077740476 -0.011206267 -0.057427507 -0.0781069
-0.18060656 -0.15064798 0.05093812 -0.05870715 0.0645131 -0.018345026 -0.2832427 -0.09231021
0.027899694 -0.019647773 -0.27715525 0.101737075 -0.0010696687 -0.20606807 -0.08727887 -0.041167054
-0.022111027 0.010520184 -0.15406494 0.0140252365 -0.08451294 -0.13124461 -0.033017125 0.017732717
-0.14496288 0.011705364 -0.020396402 -0.011962544 -0.056961376 -0.015110913 0.12342263 0.17661752
0.08464136 -0.06865626 -0.04105269 0.03421475 -0.050855864 0.004632642 0.08003513 -0.02742684
-0.09974739 0.09360509 0.01788228 0.12240282 0.120283924 -0.0967705 -0.2596269 0.0056483136
0.05982744 -0.112002194 -0.027545583 -0.0014787919 0.08029102 -0.10250056 -0.1172253 0.024996212
0.14209947 -0.0036256334 0.030371666 -0.011327945 -0.014258767 0.1147353 -0.07024216 0.0027941214
-0.06449076 -0.17283194 0.06389065 0.0081625655 -0.11324992 0.020021655 0.02383848 -0.005076983
-0.029531674 -0.07993204 -0.032391697 -0.03746517 -0.055508472 0.08087673 -0.022492377 -0.11079074
-0.083181486 -0.13912949 -0.010334788 -0.1280659 -0.06718243 -0.038089067 0.0462017 -0.10399014
-0.05094085 0.024203872 0.054230172 -0.01763286 0.081253536 0.04358549 0.015714563 0.012324987
0.113351844 0.014155048 -0.03377135 -0.050930884 -0.11065573 -0.05722312 -0.041054297 0.08212051
-0.03705813 -0.034306325 -0.05254446 0.038335837 -0.07276824 0.053467125 0.096369945 -0.08540276
0.072768606 -0.07446415 0.0055351523 -0.073480934 0.15652038 -0.038869962 -0.09744928 -0.008130346
-0.008689405 -0.14995517 0.019758627 0.09116249 0.07600206 0.020666752 0.051084492 0.0021686147
0.02203237 -0.017998053 -0.092912555 0.051840432 0.046488114 -0.041798815 -0.062399395 -0.094695784
0.04269744 -0.17129834 -0.07460365 -0.00915504 -0.018101372 0.032984376 -0.018525632 -0.07722798
-0.046524484 0.05174401 -0.09732088 0.11069393 -0.07724048 -0.0020464459 0.077884175 0.07378019
-0.048309587 -0.04809163 -0.1332617 -0.083874024 0.022938527 0.043289773 0.020700438 0.008125777
-0.013742913 0.13267143 -0.070596635 -0.043745935 -0.08524245 -0.10171434 0.10433961 0.057035986
-0.061757095 0.028526282 0.035253186 -0.17157246 0.011016541 -0.022549666 0.034539618 0.03700715
0.065308936 -0.06450028 -0.06371485 -0.103440456 0.035071176 -0.039079838 0.104957506 -0.10696097

a2c_network.actor_mlp.4.bias f4 [64]
00000000: a44d f73d 5f6f 9c3b 3a4b 95be 60ba 33be
00000010: 47f5 9abc cef0 ce3d eaa1 52be 0119 56be
00000020: ac10 70be 54f7 143d 9da9 5abe f3d0 773c
00000030: 8fa1 b93c 46c2 16be a68f 64be a6d8 10be
00000040: 29cd 153e a433 95be 09ef c53a efd0 933d
00000050: 8000 82be 97bf 6abd b7d1 62be 9819 853d
00000060: 53e9 06be f179 43bc dbf7 133d 4d4f 15be
00000070: b34c 9a3d 1a44 583d 70ca 5abe c370 47be
00000080: 6435 54be ce9f 00be 18af 80bd 97d6 86be
00000090: 4908 c8bd e7e2 c3bd 98ba 7d3c 27a3 923d
000000a0: d2df 5c3c 64ca 9a3c ff81 86be e0b8 acbc
000000b0: d8a8 38be 2a5f 85be 29dc e8bd b24f b83c
000000c0: 3c59 c0bd cbed 993d 0f75 893d fe72 3dbe
000000d0: 311f 3cbd 08ea f9bd 5f2b 07be 9199 a6be
000000e0: ae4d 9ebd 6925 2f3c 2e3b 7a3b b25c 30be
000000f0: 7b75 c33c af80 1fbe 4cb8 f13d ae53 68be
0.12075356 0.0047740187 -0.29158956 -0.17551565 -0.018915785 0.101045236 -0.20569578 -0.20907976
-0.2344386 0.036368683 -0.21353765 0.015125501 0.022660045 -0.14722547 -0.22320423 -0.14145145
0.14629044 -0.2914096 0.0015101145 0.07217585 -0.25391006 -0.05731162 -0.22150312 0.06499022
-0.13174944 -0.011930929 0.036125045 -0.14581032 0.075341605 0.05279932 -0.21366286 -0.19476609
-0.20723492 -0.1256096 -0.062833965 -0.26335594 -0.09767205 -0.095647626 0.015486382 0.07160025
0.013481097 0.018895335 -0.26271054 -0.021084249 -0.18033159 -0.26049167 -0.11370117 0.02249894
-0.0939202 0.075160585 0.0671178 -0.18500897 -0.045928184 -0.12202841 -0.13200139 -0.32539037
-0.0772966 0.010690072 0.0038182246 -0.1722286 0.02385973 -0.15576433 0.1180273 -0.22688171

a2c_network.value.weight f4 [1, 64]
00000000: 95ce d73d 0cfa 553c 9cef 3cbd b29c e4bc
00000010: dbff cf3b 1661 a73d 97a5 46bd d6f0 c4bd
00000020: deef 85bb 6ad4 fb3c b5cf 40bc ddad 963c
00000030: 01cf 4e3c a150 1ebb 05dd bdbc ebf8 88bb
00000040: 1464 4a3d b159 74bd 8ee2 be3d b0d1 f73d
00000050: ef49 99bd 996b 3bbc 1b00 96bd f184 8b3d
00000060: ab90 20bb c532 893c cc41 963c cffb c7bc
00000070: d460 ed3d 9a8c b63d a4cb 963b f196 dbbc
00000080: 5378 063c 4abf d93b 1ba8 513c e014 b4bc
00000090: 3c66 b839 5cff 48bc b719 e13d 80c5 d73d
000000a0: dae2 a33d fe62 133d 34a3 0fbd 10f0 283c
000000b0: 7dcb abbd 1009 bbbd 61f3 c4bc 5709 94bc
000000c0: 2045 45bc 62bf 0f3e d21c ab3d 3b65 32bd
000000d0: 8472 a139 4b49 2fbc 2f47 14bc 6d81 99bd
000000e0: 8558 093c b764 303d 71fd ea3c 4fbc 48bd
000000f0: 730d 583c 9915 78bb eeb4 553d 50ec b0bd
0.10537449 0.013060104 -0.046126947 -0.02790675 0.006347639 0.081728145 -0.048497763 -0.09616248
-0.0040874323 0.030740935 -0.011768271 0.018393451 0.012622596 -0.0024156945 -0.02317668 -0.004180064
0.04941185 -0.05965585 0.093205556 0.121005416 -0.07484805 -0.0114392275 -0.07324239 0.06812466
-0.0024500291 0.016747842 0.018341921 -0.024412064 0.11590734 0.08913536 0.0046019126 -0.026805373
0.0082073985 0.006645118 0.012796427 -0.02198261 0.00035171385 -0.012267914 0.10991233 0.10535717
0.08002253 0.03598308 -0.035067752 0.010311142 -0.08388422 -0.09132588 -0.024041833 -0.01807086
-0.012040406 0.1403785 0.083551064 -0.043553572 0.00030793634 -0.010698627 -0.009050175 -0.07495389
0.008382921 0.0430648 0.028685303 -0.04900771 0.0131868 -0.003785467 0.0521745 -0.08638823

a2c_network.mu.weight f4 [6, 64]
00000000: 68b6 99bd 27d6 f63c e29d ef3c cd8b 84bd
00000010: 7c21 46bd 0e38 13bd a058 4f3d 887a f43d
00000020: c97d 66be 539b 6e3d 1792 c43b 2006 bd3d
00000030: ef75 a3bd b121 9dbc 6740 dc3c 1f5f 643d
00000040: f2b4 0d3d 361a c33d b02a 9c3d 3efa 893d
00000050: e7be 833d 7659 0cbd 9cc3 f3bd 2344 2e3e
00000060: 6787 34bd cad9 39bd 41c8 8b3d 813b 3dbb
00000070: a535 873d 4f03 0e3c a96e 013c 8991 5a3d
00000080: 853f 3c3d a8d1 83bd a682 c9bc b490 18bc
00000090: b6b9 24bc 51de 1cbd e70b d2bd a4da 04be
000000a0: 94dd 733d dd4f 27be 1cf8 b6bd 0b77 c3bb
000000b0: e23d b4bc 7d8e 783d 20db 79bd d63a a03d
000000c0: a196 c0bd 2a65 953d 540b f9bd 3b3b 9abd
000000d0: 7a79 ee3d 8c07 943c 7df0 ee3d 9e2d 08bd
000000e0: dbed cabc 298e 923d e75b 973c 5e4f 0d3e
000000f0: 90e9 b93d bb8e 81bd 32e5 a4bd f867 c43c
00000100: eddc 23bc 5be2 2e3c 6e44 8fbc c2f4 f6bc
00000110: 8b9d 903c 3c26 fcbb cf9b b7bd 98b3 d83d
00000120: f6f4 b0bd c1de c63d fc90 51bd 9fd5 213c
00000130: b1ea 0dbe 55c9 86bd 4e1b 65bd cc09 a7bd
00000140: 2873 763d d814 bdbd 9143 f1bd e21e be3d
00000150: de3a 1bbe 3078 d6bc e927 c13d 1d02 973c
00000160: f243 133d 8791 fdbc a341 65bd f63c f9bc
00000170: b126 0b3d 289e 48bd 58d9 59bd 79f5 7fbd
00000180: 6d75 c7bd 6303 e53c 82e2 90bd 1c5d 53bd
00000190: 6adc 7dbd 3a80 d4bc 63b2 f8bd ffb1 1e3d
000001a0: 0eaa ab3c ae6e fabc 9700 eabb a9cf 1cbd
000001b0: 2140 0f3c 6a85 01bb a750 9a3d 49a6 603d
000001c0: 3fed dfbc b413 ea3d 2577 2abe 5f79 91bd
000001d0: c3e9 4dbd bdbd 8ebc 39f8 25bd 81d3 e3bc
000001e0: 1115 7c3c c79e 89bc ebcf 103e 19fc fe3d
000001f0: f3c6 1c3d b3ee a0bd e8ba 3a3d e48e f9bd
00000200: e13a 093d 7bae 6bbc f074 61bd 5e39 bd3d
00000210: c19d 63bb 8b08 cd3d c6b6 2f3d aa02 ef3d
00000220: c126 21bc f5dd f63b 515c 37bd 22b9 e43c
00000230: b2a9 a4bd 994a 42be 496b 613d 723a 8cbd
00000240: 1c69 103e 7ef6 1e3d f001 cd3c 5e46 b1bc
00000250: 8fe8 78bd ec54 21be 6965 13bd 3d6c d33c
00000260: 25f9 b9bd dc05 06be 7df5 93bd aba2 48bd
00000270: 2d9e 633d 11d5 26bd 4f89 e83c b86c 24bd
00000280: 1f6e 8bbb 3d48 e73d 23a6 c2bd 7a7c 09bd
00000290: 0fef 4cbd 9adb 47bd 1b6b bb3c 0655 45bd
000002a0: 4ef1 0bbc 7ce2 b6bd e1c8 a3bb 3a0b 273d
000002b0: 6cea 9b3c f8f6 9cbd cc4f 5f3d 548c ed3c
000002c0: ef2e 0abd 214a 153c 20c6 5ebc 2d09 5b3d
000002d0: 6af3 f1bc 02c7 debc 91b3 d2bd 1b02 ca3b
000002e0: 88c8 5e3d 0f94 f53d 7e4d d53d 2e7b aebd
000002f0: b2e4 28bc 13c0 acbc 06c3 a9bd 854c 0c3d
00000300: e6ab 643b b365 e83c d265 a03b d39e 2fbc
00000310: 0aac acbc 2132 babc 197f baba d923 913d
00000320: 54e5 d63d 789f da3d 4935 b53c 8be2 e63d
00000330: c40d f4bd 30bb 06bd c7e0 853c bc94 d33c
00000340: bb72 e33b 4c23 973d d353 b7bd 3134 1e3a
00000350: 1890 913d ab9a 87bd cc12 9f3d f752 903c
00000360: db7f ea3d 6dc6 a03d c42c c0bd 3cc5 1a3e
00000370: 4984 9b3d a9b5 223d 677b 0cbd 3b34 d6bc
00000380: 85c3 dcbc b817 a2bd 11ff 76bc 06f8 303d
00000390: 1039 00be 1ef6 bbbd 152b 5fbd b979 61bc
000003a0: 86eb 23bd 69e3 3f3d 849a 453e a156 143e
000003b0: 9932 a5bd 3282 c53c 7953 20bd 5b0e d7bd
000003c0: bbf1 20bc 310c 09be 904f cabc 4246 6d3d
000003d0: cefb af3c c910 b0bd 67f1 6cbb 36fe de3c
000003e0: 67aa dfbd 66d8 1b3d 220b b6bc 4b1f 8cbc
000003f0: 0acc d93d 6729 803c 6ca5 1b3e 9423 16bd
-0.07505494 0.030131413 0.02925009 -0.064719774 -0.048371777 -0.03594213 0.05062163 0.119374335
-0.2250892 0.058253597 0.0059988606 0.09229684 -0.079814784 -0.019181104 0.026886178 0.055754777
0.03459639 0.09526484 0.076253295 0.06737183 0.06432896 -0.034265004 -0.11902544 0.1701818
-0.044074442 -0.045373715 0.06825305 -0.0028874578 0.06602029 0.008667781 0.007899919 0.05336145
0.045959014 -0.06436473 -0.02459843 -0.009311844 -0.010054043 -0.038297955 -0.102561764 -0.1297403
0.059537485 -0.16339059 -0.08934042 -0.0059651188 -0.022002164 0.060682762 -0.06099999 0.07823722
-0.0940373 0.07294686 -0.12160364 -0.075308286 0.116442636 0.018070005 0.11666963 -0.03324663
-0.024771621 0.07156021 0.01847644 0.13799807 0.09077752 -0.06326052 -0.08051528 0.023975357
-0.010001403 0.010674085 -0.017488685 -0.030146006 0.017653247 -0.0076949876 -0.08965265 0.1058113
-0.086404726 0.09710456 -0.05116366 0.009877591 -0.13859059 -0.0658137 -0.055934243 -0.081561655
0.060168415 -0.09232491 -0.117804654 0.09283234 -0.15159175 -0.026180357 0.094314404 0.018433625
0.03595347 -0.030953182 -0.0559708 -0.030424576 0.033972446 -0.048978955 -0.05318579 -0.06248996
-0.09739194 0.027955716 -0.07074453 -0.051602468 -0.06197778 -0.02594005 -0.121433996 0.03874397
0.020955112 -0.030570354 -0.0071411836 -0.038283978 0.008743317 -0.001976336 0.075349145 0.054846082
-0.027334807 0.11429539 -0.16647013 -0.07103228 -0.05027176 -0.017424459 -0.040519927 -0.027810814
0.015385882 -0.016799344 0.14141814 0.124504276 0.03827567 -0.07858028 0.045588404 -0.12185457
0.033503417 -0.014384861 -0.05504316 0.092394575 -0.003473148 0.10011395 0.042898916 0.1167043
-0.0098359 0.0075337836 -0.044765774 0.02792031 -0.08040179 -0.18973769 0.055033956 -0.06847085
0.14102596 0.038809292 0.025025338 -0.021639999 -0.06076866 -0.15755051 -0.035985384 0.025808448
-0.09080724 -0.13088173 -0.072245575 -0.048983257 0.05557077 -0.04073054 0.028385786 -0.040142745
-0.004255071 0.11293075 -0.09504344 -0.033565976 -0.05003267 -0.048793413 0.02287822 -0.048176788
-0.008541418 -0.08929917 -0.004998312 0.04078219 0.01903268 -0.07664293 0.05451946 0.028997578
-0.033736166 0.009111912 -0.013597041 0.053475548 -0.029535014 -0.027194504 -0.10288156 0.006164802
0.05439046 0.119911306 0.10415171 -0.085195884 -0.010308431 -0.021087682 -0.08289151 0.034252662
0.0034892499 0.028368806 0.0048949504 -0.010719019 -0.021078128 -0.022728981 -0.0014228552 0.070869155
0.104929596 0.106749475 0.022120135 0.112736784 -0.11916688 -0.03289336 0.016342534 0.025827758
0.006941167 0.07379779 -0.08951535 0.0006034999 0.07107562 -0.066212974 0.07767257 0.017617686
0.11450168 0.07850347 -0.09383538 0.15114301 0.07593591 0.039724026 -0.034297373 -0.026147952
-0.0269487 -0.0791468 -0.015075461 0.043205284 -0.12521768 -0.091778025 -0.054484446 -0.013761931
-0.040019535 0.046847735 0.19297224 0.14486171 -0.08066291 0.024109934 -0.039142106 -0.10500785
-0.009823258 -0.13383557 -0.024696141 0.05792833 0.021482375 -0.085969515 -0.003615463 0.027220827
-0.109211735 0.03804817 -0.022222105 -0.017104765 0.106346205 0.015644742 0.15199822 -0.036655024

a2c_network.mu.bias f4 [6]
00000000: f282 053d 9a5a f63d 3ce6 303d 4141 4ebd
00000010: d494 4a3b 9f3d 8e3d
0.032595582 0.120289996 0.04318832 -0.0503552 0.0030911462 0.06945347

exp_avg f4 [6]
00000000: e3bd 4cbb 5d72 48ba 9fc8 7bbb 52d4 7bbb
00000010: 9b03 a8bb 1675 143b
-0.003124111 -0.0007646436 -0.003841914 -0.0038426113 -0.005127383 0.0022652796

exp_avg_sq f4 [6]
00000000: 9004 1a3a 99b1 083a 6c07 023a 567d 033a
00000010: 1f75 fd39 ec37 fd39
0.00058753137 0.00052144524 0.00049602124 0.000501593 0.00048343182 0.00048297585

exp_avg f4 [256, 30]
00000000: ae87 e3b9 173f c4b9 217f 40b8 07c2 33b9
00000010: cd35 80b9 fd95 8639 83aa 6b39 187f 6cba
00000020: 3898 6cb8 7e00 8c39 404d bbb9 16e1 1fba
00000030: 7c02 1e3a 75d3 96b8 57a3 1439 6aa8 5d39
00000040: 5ace 063a 27bd c837 0f63 b938 c9d5 a4b9
00000050: 54c9 2cb9 139b 3bb9 6179 5f39 eed4 98b9
00000060: 17f9 123a eebf 0fb9 2808 8e39 4eb0 2338
00000070: 4dda f639 48fe 31b9 25d5 d238 07fc e938
00000080: 71cf a2b9 e322 37b9 c7ca bd39 e952 a8b9
00000090: 34bd 16ba 8e09 89b9 059f e3b9 519f 01ba
000000a0: 218d b1b9 6beb 29ba c072 9aba 73c5 e2ba
000000b0: 6076 e2b9 67cb a5ba f0a0 57ba 4ca3 c5ba
000000c0: 8cca abb9 e47f 4aba 9c98 b3b9 f565 3539
000000d0: 8e75 2039 871f 8db9 2e98 5cba a038 cdba
000000e0: edfd b7b9 38d2 37ba 9862 f2b9 41df 9fba
000000f0: bdca fd39 a927 ab39 4f6f 2c3a f760 42b9
00000100: a43b 763a 1846 a2ba 593b 1aba 74e1 c839
00000110: 3709 0f3a 0521 d539 9ee0 9238 2c17 7939
00000120: 2d40 38ba 4391 52ba e543 a439 0f70 85ba
00000130: 5818 77b9 1187 41ba e1a5 8db9 0e48 beb9
00000140: c502 9bb9 c724 9039 9b22 333a ac4b abb9
00000150: 32bc f7b9 f0f6 78ba c1ea 13b8 37f1 f2b9
00000160: cf64 8539 b913 48ba 4478 3db7 a53c 98ba
00000170: ff44 563a d938 b437 5396 22ba 6ea3 423a
00000180: e715 1f3a 44be 97ba 1b04 053a 328e 9c3a
00000190: 691e c4ba 8962 08b9 0b23 f23a 3619 0a3b
000001a0: ccd4 b23a c748 683a ed2f da3a 4839 aa3a
000001b0: 3265 0db9 19a8 9ab6 3239 8f39 5830 f239
000001c0: d6fb 193a 1344 d139 42ba bb3a 268e de3a
000001d0: b68a 9f3a c15e 6b3a a87d cc3a 2b6e 9e3a
000001e0: 3d0e 0cba 6b3e 93ba 96d4 ca36 1e70 ecb9
000001f0: 0c67 7aba f92f 403a 936b 403a 7150 b1ba
00000200: 2462 0eb9 e4f8 c738 3846 96ba 2da1 48ba
00000210: ee3f 043a eeaf e8b9 4c19 0238 58ac 8d39
00000220: 2af6 213a 4260 3cb9 30c0 9f39 0c9c 00ba
00000230: b65d 9839 05a8 7439 cdf8 513a 384a fe39
00000240: 16a0 2d3a 5474 eeb9 9f4a 023a 81ea bf39
00000250: 4937 683a 6cbe 0139 c0d0 17b9 3303 113a
00000260: bb65 d3b9 eab5 9ab9 9ee2 0339 83ea dfb9
00000270: dc58 a239 c177 c339 d7c8 fe38 e317 58b9
00000280: 0cdf 503a 2e14 8eb8 f39a adb9 c18b 94b9
00000290: 391c 23ba 3a7e fa39 700a 2eb9 5b3d 24b9
000002a0: 9c7f ce39 0286 6839 0dfa e3b8 c724 93b8
000002b0: b192 efb9 19f2 3539 5245 6fb8 80ad 20b8
000002c0: f5af bfb9 1d11 9439 8c8c 68b9 4349 ea38
000002d0: dff2 de39 a6d8 ce38 4621 8539 cc3b cc39
000002e0: 6871 8b39 0e0c 2c3a beb5 b7b9 a4d1 c438
000002f0: bd38 0f39 88cb 4c3a 89c1 bf38 2e9f 583a
00000300: fae1 413a ec93 a93a 98ea 233a 7745 1139
00000310: 2d45 103a 6ec8 863a af48 61b9 5a3d 0a39
00000320: 222d d638 2087 0139 f9b2 53b9 dcc9 cdb7
00000330: b407 0f3a 6fc9 8e3a 6148 e139 c5ff 4239
00000340: 4c30 c939 7548 673a f20f a239 1e16 e3b8
00000350: c09b acb9 0079 8b39 6989 93b9 9c6a cc39
00000360: 62b0 04b9 25e8 1b39 f60c 9fb9 d7d7 c5b9
00000370: ba8d abb9 1978 4339 4654 9bb9 1a46 b238
00000380: c35c 3ab8 bccf 3dba f4d7 1bba 4957 c8b9
00000390: 56de 9ab9 7ccf 83b8 bb1f 0c38 b6a1 1239
000003a0: c167 15ba 6586 5939 b376 b2b9 4d5f 1239
000003b0: c098 83b8 3290 ecb9 afa2 28ba eb22 dfb8
000003c0: fc40 2c38 b7c6 b6b8 f2ce 1c3a c476 84b9
000003d0: 6d8b 2b39 2924 72b9 a890 c7b9 cd21 19ba
000003e0: 38f4 3d39 c92c 3e3a 574e f4b8 0887 26b9
000003f0: b5a6 e339 e433 ae38 7823 273a 1062 24ba
-0.00043397903 -0.0003743104 -4.5894765e-05 -0.00017143051 -0.00024454147 0.00025670222 0.00022474867 -0.0009021624
-5.640855e-05 0.00026703248 -0.00035724975 -0.0006098909 0.0006027592 -7.191944e-05 0.00014175229 0.00021138942
0.0005142443 2.3929939e-05 8.8399385e-05 -0.000314398 -0.00016478199 -0.0001789148 0.00021312154 -0.00029150344
0.0005606575 -0.00013709042 0.00027090427 3.9026425e-05 0.00047083423 -0.00016974763 0.000100532816 0.000111572495
-0.00031053604 -0.00017465236 0.0003619997 -0.0003210523 -0.00057502394 -0.00026137795 -0.00043415293 -0.00049446995
-0.0003386522 -0.00064819184 -0.0011783466 -0.0017301276 -0.00043194275 -0.001264912 -0.00082255807 -0.0015078573
-0.0003276657 -0.00077247457 -0.00034255243 0.00017299487 0.00015302582 -0.00026917105 -0.00084150105 -0.0015657134
-0.0003509367 -0.0007012221 -0.00046231295 -0.0012197272 0.00048406972 0.0003264521 0.00065778656 -0.00018537404
0.00093930424 -0.0012380509 -0.0005883477 0.00038314948 0.000545639 0.00040651127 7.003661e-05 0.00023755123
-0.0007028606 -0.000803251 0.00031331103 -0.0010180491 -0.00023564824 -0.0007382492 -0.00027017205 -0.0003629331
-0.00029565967 0.00027493222 0.0006833465 -0.00032672042 -0.00047251728 -0.0009497246 -3.5266163e-05 -0.00046337556
0.00025442845 -0.00076323334 -1.1293279e-05 -0.0011614753 0.00081737334 2.1484144e-05 -0.00062022096 0.00074248656
0.00060686324 -0.0011577089 0.0005074159 0.0011944233 -0.0014962676 -0.00013006678 0.0018473578 0.0021072156
0.0013643741 0.00088609423 0.0016646363 0.0012987042 -0.00013484506 -4.609127e-06 0.000273177 0.00046193856
0.00058740133 0.00039914306 0.0014322477 0.0016979619 0.0012172076 0.0008978658 0.0015601413 0.0012087276
-0.0005342698 -0.0011233812 6.0448174e-06 -0.00045096962 -0.00095520983 0.0007331367 0.00073402486 -0.0013528002
-0.00013578736 9.535419e-05 -0.0011465019 -0.00076534116 0.00050449267 -0.00044381566 3.1017975e-05 0.00027022022
0.0006178344 -0.00017964936 0.00030470034 -0.00049060653 0.0002906152 0.00023332245 0.00080097915 0.00048501953
0.0006623281 -0.0004548157 0.0004970226 0.00036605078 0.0008858336 0.00012373336 -0.00014478248 0.0005531788
-0.0004032085 -0.00029508705 0.00012577555 -0.000427086 0.00030965253 0.00037282522 0.00012149073 -0.00020608264
0.0007967807 -6.7748464e-05 -0.00033112578 -0.00028332885 -0.0006222162 0.00047777762 -0.00016597821 -0.00015663115
0.00039386458 0.00022175166 -0.00010870779 -7.0163565e-05 -0.00045694926 0.00017351694 -5.70466e-05 -3.8308557e-05
-0.00036561457 0.0002824151 -0.00022177602 0.000111716356 0.00042524093 9.8631994e-05 0.00025392527 0.00038954464
0.0002659664 0.00065630756 -0.00035039888 9.385057e-05 0.0001365868 0.0007812311 9.1436385e-05 0.0008263466
0.0007396039 0.0012937761 0.0006252914 0.00013854155 0.0005503472 0.0010283121 -0.00021484749 0.00013183561
0.00010212722 0.00012352737 -0.000201892 -2.4531902e-05 0.0005456165 0.0010893772 0.0004296927 0.00018596563
0.00038373691 0.00088227476 0.00030910928 -0.00010828323 -0.0003292244 0.00026602298 -0.00028140403 0.00038989342
-0.00012654209 0.00014868432 -0.000303365 -0.0003773558 -0.00032721256 0.00018641389 -0.00029626692 8.500759e-05
-4.4432247e-05 -0.00072407327 -0.000594496 -0.00038212005 -0.00029538822 -6.285214e-05 3.3408152e-05 0.00013983887
-0.00056993595 0.00020744799 -0.00034039243 0.00013959147 -6.275019e-05 -0.00045120862 -0.0006432933 -0.000106399726
4.1068517e-05 -8.71545e-05 0.0005981765 -0.0002526549 0.00016359771 -0.00023092389 -0.00038064015 -0.00058415235
0.00018115423 0.00072545983 -0.000116494186 -0.00015881297 0.0004342102 8.306632e-05 0.00063758297 -0.0006270716
