IsaacGymEnvs/isaacgymenvs/runs/Bolt-18-12-2023_18-16-17-36/nn/last_Bolt-18-12-2023_ep_850_rew_0.47088486.pth (torch, 613026 bytes, 36 tensors)

value_mean_std.running_mean f8 [1]
00000000: df60 ae0d 866d cb3f
0.214279896431214

value_mean_std.running_var f8 [1]
00000000: 47a0 223d 531d 9f3f
0.03038530407562259

value_mean_std.count f8 []
00000000: 0000 0000 01ec 3341
1305601.0

running_mean_std.running_mean f8 [30]
00000000: 0e7d 7f97 2acc a1bf 4eee 92f0 fe99 98bf
00000010: 4f5a 10af f95e c1bf 7386 db13 c8e9 9a3f
00000020: 8c19 e5a4 46a9 c83f c4f0 b23b 308b bfbf
00000030: adbf c2fd 49ee 973f 22df 0f07 9f42 a13f
00000040: 206d eb44 acd2 dcbf d10e f0cd 52e3 a73f
00000050: ff41 4f84 02ae 843f 5ca9 e027 08cf 6c3f
00000060: c862 3f9f 9dea 9bbf 631b 011b 6a42 ab3f
00000070: 5c58 5252 a34b a63f 30b7 3bf4 ba1d bebf
00000080: e956 789d a4dc a9bf 85e8 d812 d262 a93f
00000090: cf3a e4dd 24a5 82bf b946 1bcc 448e 703f
000000a0: 1e11 5d97 dcdb 853f 4948 0d86 656e 903f
000000b0: e461 5b2f f167 82bf 18d1 5b2c 28da 84bf
000000c0: 4b18 bf03 bfd8 afbf 89bc 3f9e 40af bf3f
000000d0: 8b7f 0a0f 7e53 c13f b16f a7cb 3b00 ccbf
000000e0: 1766 3942 9d87 bfbf d988 259f fd78 b43f
-0.034760790818603934 -0.024024947579830695 -0.13571091697731893 0.0262824308509892 0.19266589213857477 -0.12321759660239012 0.023369938004804847 0.03371140443044697
-0.4503584549945163 0.0466562153233362 0.010097522413986757 0.0035166892330568533 -0.027262175411894046 0.05324107722895268 0.043545821951895575 -0.11764114821172877
-0.050511497709676174 0.049582066345878174 -0.009104049703208798 0.004041928042811165 0.010673259133576137 0.01604612951934595 -0.008987316377372552 -0.0101817263161839
-0.06220051689847191 0.1237678896284128 0.13536048635887385 -0.21875712818188967 -0.12316305987169361 0.079971171716838

running_mean_std.running_var f8 [30]
00000000: 3b21 cb25 11af 0340 2008 d045 90ce f33f
00000010: 0bff 1cf7 466d 0140 38ff 091d ee96 fe3f
00000020: a8ae d0dd 6b3d 0d40 f75e 0db0 06ad e63f
00000030: 76bc 1ec4 5086 cf3f 8ee2 0333 b667 c23f
00000040: 980f 5bdb 280e dc3f 147f e189 e15b 1340
00000050: c472 b820 4292 f53f ba08 023a 54bb 953f
00000060: 8082 d59f 0031 bf3f 1673 5ac1 5abd c03f
00000070: 37bf 4895 6343 c03f ead5 1a13 a3db bc3f
00000080: 59ab 450e 1877 c23f 36b7 d7a8 a15b c13f
00000090: 4236 9756 82bc c03f 5683 d460 6ec0 c03f
000000a0: 2828 012a a9a7 c13f 2108 dc63 4be1 c13f
000000b0: 8f39 29c5 0375 bf3f a018 fda7 e773 c23f
000000c0: 9142 7a4d b27a e83f 5f3b 464a e4ea e83f
000000d0: fcd9 0785 ea0e e73f 9019 1cac c9f3 e63f
000000e0: 7143 a827 2e09 ea3f 15de bb69 5cb6 e83f
2.4604819252600953 1.2379305579238533 2.1783580117916066 1.911848176416198 3.6549908952054757 0.708621353008282 0.24628648353743515 0.14379003039336563
0.4383642332215856 4.839727548969467 1.3482075956482484 0.02122241596271899 0.12184146787832084 0.1307786411388398 0.12705654896989824 0.11272639480997496
0.14425945946581 0.13560887092847346 0.13075284221706523 0.13087253311189312 0.13792910147668747 0.13968794227554418 0.1228792530393774 0.1441621370560755
0.7649775994523954 0.7786733103438158 0.7205708120589516 0.7172592507857178 0.8136206411892158 0.7722608628382114

running_mean_std.count f8 []
00000000: 0000 0000 02ec 2341
652801.0

a2c_network.sigma f4 [6]
00000000: ad42 e1bd ba88 0cbe 61d8 e5bd dd06 95bd
00000010: 9cec bdbd d75c 103e
-0.109990455 -0.13724032 -0.112229116 -0.072767 -0.09273645 0.14097916

a2c_network.actor_mlp.0.weight f4 [256, 30]
00000000: a957 693e ee9e 6ebe 79d2 6a3e 06f0 d6bd
00000010: 2acc 05bc 35d2 033e e4e9 213e d2b5 eb3d
00000020: 1474 e6bc c388 9dbe 1331 793e 3a69 87bc
00000030: 75db 1c3d e44d 193e 8fca f33d 4d9f 07bd
00000040: d55c 3abb 5f2a 983b 1a6a cd3c 51ce b4bd
00000050: c3f0 57be 1392 3abd 4e2c 2ebe b2ba 103e
00000060: 484e d5bd b16a 753d bf18 173d a7b6 953d
00000070: 7d80 6e3d d941 5ebe 96ba 593e 46ff 64be
00000080: e602 293e 4577 b4bc a62f cb3d 5c42 8bbc
00000090: f948 f43d bb6f dfbd e1b6 8fbe 4613 8fbe
000000a0: eb8a 633e 0b7c cd3b 0621 893d dcea 20be
000000b0: 4c98 0dbe b36b c8bd 9422 fcbd d95d b53d
000000c0: 3b77 e93c 74d6 e23d b632 13be 0bb5 e3bd
000000d0: 1bdf ea3d 1822 dfbd b940 023c ecf8 f6bc
000000e0: 2eed 1f3e c20f b3bd 4796 ccbd a162 c03c
000000f0: f4e5 4e3e 4a42 0cbe 27a8 9a3e 9b40 223d
00000100: 2f85 90be d5e0 01be ea7c 573e 2404 06be
00000110: 57d2 afba b77d d6be 73a8 fcbd 3639 883c
00000120: a269 19bd 8ca5 28be 202c 85bd 06e1 28be
00000130: 7001 5cbe f9e4 47bd a734 37bd f6b6 22be
00000140: 3dd9 273e df39 183d 650a 8ebb 616f dbbd
00000150: 00e9 a4bd 721f 48bc 2dd1 1eb9 2ea5 34be
00000160: 4b48 03be 794e 9cbc eda4 493d 28e0 3abe
00000170: 1b14 b1ba f29e a1be 1024 22be 7b62 30be
00000180: 069d 153d 1ff4 b0be 7747 b83e 3a00 2ebd
00000190: 2cd4 893e 1a4b 853d 8747 47be 2c94 143e
000001a0: f213 d6b9 d693 c8bd ebfc 10be 6700 1bbe
000001b0: fc97 3fbc f62d c6bd 6175 343c 0e9f 1ebe
000001c0: aa0c ad3d cb0a cfbd 6da6 eabd 4029 b73c
000001d0: a2ee e13d 4864 973d d2de 263e 7364 abbd
000001e0: 0085 b03d 1a00 25be 6da1 2e3d 2850 ddbd
000001f0: 5d2b 843e fb01 00be 9a00 1c3e 599f 853c
00000200: cee7 513d 47a1 f3be 5898 8e3e 1fde f73c
00000210: fe20 a0bc 0c05 01be 8e30 063e 3bfe 6abc
00000220: 8f40 bebd ce14 3f3e 71ba 203d 59d1 3bbd
00000230: 9ab0 a8bd 4df9 5cbd 42ab 993d 2e70 c83b
00000240: 3513 62be 173c 6ebb e2f2 dfbd c1e8 8d3d
00000250: 3ca1 0b3e dd98 32be 6889 bc3d bf75 d43d
00000260: 47aa 893d f7d6 72bd a494 923e e886 d03d
00000270: d8b9 cc3d c1eb 60bd b96e 10be e4e1 b93d
00000280: e1ac 14be 2398 00bd 0e2d be3d 791a 033e
00000290: e58a 183e 99d1 bf3d 0796 91bd f50c b8bd
000002a0: e1f9 ff3d 5b06 5d3d d0cc d6bd 2775 36bd
000002b0: aa5c 343e 4d4b ff3d 282f e73c d3e8 5ebe
000002c0: eedb 57bd aec4 54bd a60b 12be 949e 7dba
000002d0: 53c6 003e 3a28 533e 5751 86be caa8 84be
000002e0: 2a3a 90bd c7f7 223e 452f f83d 97e1 cdbd
000002f0: dada 6c3e 3483 e73d 8f7c a4be 0ed3 fc3d
00000300: a3d7 18be 007c 8c3a 0798 77be f2f0 df3d
00000310: 3f70 ec3d cf9c e23d c77a f7bd a91f a5bd
00000320: 8b41 08be 1c0b 333e e8ca 4bbd 0937 9e3d
00000330: 99a9 6e3d 1e25 b33d a1a9 173c da8c f9bd
00000340: 17c8 4bbe b154 23be 2b63 a7bd fce4 89be
00000350: 1aeb 59bd 4e7c 9d3b 0446 ea3a a49c 26be
00000360: 7e79 e8bc 6cbc 233e 0bbb 99bd 8395 5e3e
00000370: 7251 c83d 8eaa 9abd 9aa5 ecbd a8f6 fcbd
00000380: 5a75 ebbd 8caf 17be fefb 873d 012c 45bd
00000390: 3c73 233c 76a8 d43b bf08 b33d 3f70 fcbd
000003a0: c083 423e 5ff0 92bd f1f7 de3b bd08 0a3e
000003b0: 2f8c 13bd 88e7 623d 2f17 24bd f405 71bd
000003c0: e064 443e 41c5 8fbe 46ad 043e fbea 773e
000003d0: 49cc 883e 63b2 b0bc 0e29 83be ceeb 963d
000003e0: 4e51 733e caee dcbe 4f44 afbb a85d d4bd
000003f0: a50e e5bb fead 96bd 40d3 55bd 3c5b e33c
0.22787346 -0.23302814 0.22931851 -0.104949996 -0.008166352 0.12873156 0.15811878 0.11509289
-0.028131522 -0.30768403 0.24335127 -0.016529668 0.038295228 0.14971119 0.11903869 -0.033110905
-0.002843668 0.004643723 0.025075007 -0.08828414 -0.21087937 -0.045549463 -0.17009088 0.14133719
-0.104153216 0.059916202 0.036888834 0.07310229 0.058228005 -0.21704806 0.21262583 -0.22363004
0.16505012 -0.022029528 0.099211976 -0.016999416 0.11927981 -0.10909983 -0.28069213 -0.27944392
0.22220962 0.0062708906 0.06695752 -0.15714592 -0.13827628 -0.09786167 -0.12311283 0.08855791
0.028499236 0.1107606 -0.14374813 -0.111185156 0.11468335 -0.10895175 0.007950001 -0.030147992
0.1561782 -0.0874324 -0.09989601 0.02348453 0.20204908 -0.13697162 0.30206415 0.039612394
-0.2822661 -0.12683423 0.21043745 -0.13087517 -0.0013414127 -0.41892788 -0.12336817 0.016628843
-0.037454255 -0.16469401 -0.06502557 -0.1649209 -0.21484923 -0.04880235 -0.044727948 -0.15890107
0.16391464 0.037164565 -0.004334735 -0.10714603 -0.08052254 -0.012214528 -0.00015145978 -0.17641136
-0.12820546 -0.019080387 0.04922955 -0.18249571 -0.001351002 -0.31566578 -0.15834069 -0.17225067
0.036526702 -0.3456125 0.35992023 -0.042480685 0.26919687 0.06508465 -0.1946088 0.14509648
-0.0004083212 -0.097938225 -0.1415898 -0.15136872 -0.011693951 -0.09676735 0.011014313 -0.15490362
0.08449681 -0.101094805 -0.114575244 0.022358537 0.11031844 0.07392174 0.16295937 -0.083687685
0.08619118 -0.1611332 0.042634416 -0.10806304 0.25814334 -0.12500755 0.15234604 0.016311334
0.051246457 -0.47583982 0.27850604 0.030257283 -0.019546982 -0.12599581 0.1310446 -0.01434284
-0.09289657 0.1866028 0.039240304 -0.045853946 -0.08236809 -0.05394869 0.07503368 0.0061168885
-0.2207764 -0.0036351734 -0.10934998 0.0692916 0.13635725 -0.17441125 0.09205896 0.10374021
0.06721931 -0.059287038 0.2862903 0.10181981 0.099963844 -0.054912332 -0.14104737 0.09076288
-0.14519073 -0.03139509 0.09285937 0.12803067 0.14896734 0.093661495 -0.071086936 -0.08986846
0.124988325 0.05396114 -0.10488284 -0.04454532 0.17613474 0.12465534 0.028220728 -0.21768503
-0.052699976 -0.05194538 -0.14262256 -0.0009674814 0.12575655 0.20620814 -0.26233932 -0.25910026
-0.07042344 0.15914832 0.12118391 -0.100527935 0.2313036 0.11304322 -0.3212628 0.12344943
-0.14926009 0.0010718107 -0.24179088 0.109346285 0.11544847 0.11065065 -0.12083965 -0.08062679
-0.13306253 0.17484707 -0.049754053 0.07725341 0.05826721 0.08747314 0.009256751 -0.121850684
-0.19900547 -0.15950276 -0.08173212 -0.26932514 -0.053202726 0.004806078 0.001787365 -0.16270691
-0.028378244 0.15989846 -0.07506379 0.21736722 0.097811595 -0.07552062 -0.115550235 -0.123517334
-0.114969924 -0.1481306 0.066398606 -0.04813767 0.0099762045 0.0064898087 0.087419026 -0.12326097
0.18995571 -0.071747534 0.0068044593 0.13479896 -0.03602236 0.055396587 -0.040061172 -0.058843568
0.19179106 -0.2808018 0.12956724 0.24210732 0.26718357 -0.021569436 -0.2561726 0.07369195
0.23761484 -0.43150932 -0.005348719 -0.10369426 -0.006990271 -0.07357405 -0.052203417 0.027753465

a2c_network.actor_mlp.0.bias f4 [256]
00000000: 23f6 a33d d84a 163e 045c a0bd 0612 6bbc
00000010: f98b 993d b1ca cebc d510 b43d 539f 183e
00000020: e57a cabc 9932 febc 5bfd 243d b494 913d
00000030: f950 f2bd 85c9 023d 2890 a53c 3dd6 91ba
00000040: 4f4b ecbd 3ee7 edba 7a7b 6a3d 4439 103d
00000050: b79a fabb 08a1 6fbd 0e4f 323c 0865 0cbc
00000060: 21b0 223e aecf e73d 1e9f d43c c4d5 893d
00000070: 5b64 56bd 2a35 cfbc 36cd 75bc 3bea a93b
00000080: 9865 69bd 4927 bcbd 5081 ef3d ab27 2c3e
00000090: 3a84 0cbd f6c4 5fbd 2fc1 a13d ef34 b43d
000000a0: f075 093d 673b cb3b eb6c babd 13b0 943d
000000b0: 428b 013e 9023 cc3b 3030 943d efd4 e03d
000000c0: 3b8d 443e ea3e 36be d086 17bd 1dd4 23bd
000000d0: bf94 233c c826 0c3d bdbf e2ba 0ca1 903d
000000e0: 074a 45be a02d cb3d 495c dd3d 0af9 b93b
000000f0: 01f0 a83b d0a1 723d 9619 13bd f67a 16be
00000100: 2ef5 c23b 8ab7 f3bd df99 b03d af03 a43d
00000110: c0b2 12bd c6f1 053e 8ade c43c 9e6b cb3c
00000120: fa92 9c3d 78b0 86bd 41b2 033e ecb1 cf3d
00000130: b5e3 f6bc a7b0 443c c390 143e 6805 04be
00000140: 72a2 6a3d 09e2 03be c569 003c e43b 8dbd
00000150: 0aef c4bc 9c48 cebd 8388 cbbd 4b6d dcbd
00000160: f5be 83bd 0397 12bd bacb 06bd 336d a03d
00000170: e09a 623d 5e49 48bd 272c bb3d 1a12 053e
00000180: 295b 183e 4d11 693d 7d42 9c3d 579f 1cbd
00000190: 438d ac3c 0fc0 32bd 7a08 d83d d7d0 fc3d
000001a0: 921a aabd d9da 99bd c8ec 003d 2c52 973d
000001b0: 5d66 a93b 9cc5 1a3e 6393 cd3b ed14 d33d
000001c0: 5ebb e63d bc97 03bd 20fa 253e 523f a9bd
000001d0: 0ff8 09be 4f95 19bd babe 5d3d b9fb 2c3b
000001e0: 2534 833d eb23 523d 34dc 08bd 375b b33d
000001f0: 8300 e03c 3001 c6bc e4e2 01bd f49b 5f3d
00000200: 7dad bbbb 0740 b63d a3c0 08bd cc9b d83d
00000210: 3151 f5bd 5e84 5abd cce4 86bd 8eaa ab3c
00000220: 9471 363c eacf 20bd a9a6 e23d f87b ae3d
00000230: 4f95 2b3d 5808 f23d 7f67 34be 6bd0 f5bd
00000240: bbbc e8bc bf2f 69bd f20c 733b 4e41 b6bd
00000250: a48d 4a3d d27e 60bd 4b49 3b3d ae81 19bd
00000260: 43b1 2cbc 0f53 083e 988e f53d c560 1f3c
00000270: f294 483d f024 b8bd 9fb1 443d 51a0 653d
00000280: 7a4e 393d fbae 353d a7c8 82bd 77c5 40bc
00000290: 39fa f1bd 48a6 e0bd 7714 233d 3141 1cbd
000002a0: 9038 5abb fd2b a83d f1f7 09bd 64f5 38bd
000002b0: 3472 9b3d 2d54 0fbe f131 f23d ccad fdbd
000002c0: 7234 893d 22da c8bc cece fbbd 2f59 e43c
000002d0: 7986 b73c 340b 3bbd 59e4 bebd 6486 2e3d
000002e0: 932b 293e 0f52 90bd cc61 acbd 2b4d d23c
000002f0: 5ddb 8abd 0d30 183d 5db2 3ebc ac88 223b
00000300: f91f 26bd fd15 a73d 51e8 88bd 6d0e 9a3b
00000310: 25ce 873d bb87 19bd e2ab 343d 80e1 65bd
00000320: 9a28 26bd 5b5d c63d 3e87 38bb 268f bc3d
00000330: b0a6 57bd 4644 07be 1f15 7c3d 5d76 e9bd
00000340: 375b a6bd 4efb 5e3d bf62 22bc 144a 27bd
00000350: 7ae1 a3ba 9baa 873a 9256 723c 6405 8abd
00000360: a259 9e3d 30bc 113d 6c99 9e3c 77d0 213d
00000370: f48c 9e3d e1fe f6bd 6695 683d 4ed4 db3d
00000380: cae9 8ebc 19a7 14be 7658 f43d 23e5 973d
00000390: a0f9 893c 1bfb 133e d885 1d3e 7491 ee3d
000003a0: 964e dfbb 4ab9 99bc 6f49 5cbd e953 553e
000003b0: 3f86 813d 711a c7bd 03c7 25bd 1375 283d
000003c0: 7450 79bc 9267 d3bb 1f85 95bd 2f6f 023d
000003d0: 4a56 893d 3246 33bc 3754 6d3d 164d 18be
000003e0: 0252 a2bc 39bc 99bd eb78 21bd e9a1 c83d
000003f0: 009d 2f3e e32a 9b3c 5700 adbc cb65 e4bd
0.08005931 0.14676988 -0.078300506 -0.014347559 0.07497401 -0.025243135 0.08792273 0.14904527
-0.024716804 -0.031029986 0.04028068 0.07108441 -0.118318506 0.031930465 0.02021034 -0.001112647
-0.115378015 -0.001815058 0.057246663 0.035210863 -0.007647838 -0.05850318 0.010883106 -0.00856901
0.158875 0.11318909 0.02595478 0.06730226 -0.0523418 -0.025293905 -0.015002539 0.005185393
-0.056981653 -0.091871805 0.11694586 0.16812007 -0.03430579 -0.054631196 0.07898175 0.08799159
0.03355974 0.0062021497 -0.09102806 0.07260146 0.12650779 0.0062298253 0.072357535 0.10978114
0.191945 -0.17797437 -0.0369938 -0.03999721 0.009984194 0.034216672 -0.0017299574 0.07061967
-0.1926652 0.09920812 0.108086176 0.0056754397 0.005155564 0.059236348 -0.035913073 -0.14695343
0.005949638 -0.11900242 0.086230986 0.08008515 -0.035815 0.1308051 0.024031896 0.02483159
0.07645221 -0.065766275 0.12860967 0.10141358 -0.030137876 0.012005008 0.14508347 -0.12892687
0.057283826 -0.12879194 0.007837717 -0.06896189 -0.024039764 -0.10072443 -0.09938147 -0.107630335
-0.064329065 -0.035788547 -0.032909133 0.07833328 0.05532348 -0.048898093 0.09139281 0.12995186
0.14878525 0.056901265 0.07629869 -0.038237896 0.021063453 -0.043640193 0.10548492 0.123445205
-0.08305849 -0.07512445 0.031475812 0.0738872 0.0051696734 0.15114444 0.0062736734 0.10306726
0.11266206 -0.032127127 0.16208696 -0.082640305 -0.13473533 -0.037495907 0.05413697 0.0026395156
0.0640643 0.051303785 -0.033413127 0.08757632 0.027343994 -0.024170488 -0.03171052 0.054592088
-0.0057274685 0.08898931 -0.033386838 0.10576591 -0.11978377 -0.05334889 -0.06586608 0.02095535
0.011135478 -0.039260782 0.11066944 0.08519739 0.04189044 0.11817998 -0.17617606 -0.12002643
-0.028410306 -0.0569303 0.0037086573 -0.08899175 0.049451485 -0.054808445 0.045724194 -0.037477188
-0.010540309 0.13312934 0.11990088 0.0097276615 0.04897017 -0.0899142 0.048020955 0.056061093
0.045240857 0.044356328 -0.06385928 -0.011765829 -0.11815304 -0.10969216 0.03981444 -0.03814811
-0.0033297874 0.08211515 -0.03368372 -0.045155898 0.07590142 -0.13996954 0.11825932 -0.12386665
0.06699456 -0.024518076 -0.12295304 0.027874557 0.022402989 -0.04566498 -0.093208976 0.042608634
0.16520528 -0.070469014 -0.08417091 0.025671562 -0.067801215 0.0371552 -0.011639205 0.00248007
-0.040557835 0.08158491 -0.06684936 0.0047014267 0.06631116 -0.03748296 0.044109233 -0.056123257
-0.040566064 0.09685775 -0.0028156783 0.09206991 -0.0526492 -0.13209638 0.06154358 -0.11399529
-0.081228666 0.05443888 -0.009911238 -0.04084213 -0.001250311 0.0010350527 0.014791148 -0.067393094
0.0773194 0.03557986 0.019360267 0.03950545 0.077417284 -0.12060333 0.056783102 0.10733853
-0.017445464 -0.14516868 0.11930935 0.07416751 0.016842663 0.14451258 0.15383089 0.11648837
-0.006814788 -0.01876511 -0.05378097 0.2083279 0.063244335 -0.0972184 -0.040472995 0.041127276
-0.015216935 -0.0064515555 -0.073007815 0.031844314 0.067059115 -0.010942029 0.05794164 -0.14873156
-0.019814495 -0.07506604 -0.039421957 0.09796507 0.17149734 0.018941348 -0.021118326 -0.11152228

a2c_network.actor_mlp.2.weight f4 [128, 256]
00000000: 4355 513e 8795 3b3c 401f b13c d8c1 83bd
00000010: 5711 01bd fa74 45bd 5670 eebd 2be3 32be
00000020: 33b4 34bd 6f40 45bd 33dd 76bc 3fe0 9bbd
00000030: 11f6 a7bd 1d07 42bd 02c1 2bbe 294a 1ebd
00000040: c476 07bd 438a aabd b7a5 343d 07c1 30be
00000050: aefc 163d f1f3 1d3d 83fe f4bd 955a 713c
00000060: ec36 b5bd 40bd 2ebd 42a2 6b3c 9ad2 2dbe
00000070: 4354 d83c 2ce3 ad3d 801a 7abd c5b6 1dbe
00000080: 2881 f53d 6a0a abbd 9db1 ee3b 9019 acbc
00000090: 0329 30be 3f3b 7dbd 0a11 87be 70d6 d0bd
000000a0: a7a6 31bc 6312 1f3c 14e4 0c39 ed96 a73d
000000b0: e466 e0bd 8b9a da3c 35a3 42be 9d4f 533d
000000c0: a19a eabb cb5c 093e c5ac 3a3d 8c6a 4b3e
000000d0: 5f85 cb3b 6361 abbd 0f64 423e 9b00 6f3d
000000e0: fa35 b63c e433 87bc 9c18 223d 00be 69bd
000000f0: 4948 1cbd 7978 fdbd f056 40bd 0e0c 0ebd
00000100: a00e 8cbe 6129 34bd 598a 403d c6cc 07be
00000110: 369c 51be 3b77 ed3c d92e 973d 3a25 36be
00000120: db7b 13be f108 d93d 9bc7 39be 4d68 7bbd
00000130: b4b9 073e 2817 203d 9063 dbbd 46c1 4bbd
00000140: 8858 d4bd 5fd4 293e 2c05 b6bd f72e ccbd
00000150: c043 113d 1586 533d 4972 103e 4d79 0ebe
00000160: 5c23 a5bd 4cde 563d a53a 963d 2df5 b93d
00000170: 9b85 5ebe 5199 143e 9447 d7ba 4a68 afbc
00000180: ab33 a5be 0b09 87be 9a33 823c 81b4 033e
00000190: dee4 aa3d fc83 88bd d801 a63c 33c5 ebbd
000001a0: f65f 36be 5559 84bb b90e 6bbd 342c 86be
000001b0: eab9 10be ff66 a2bd fa12 be3d dbe9 c9bd
000001c0: f979 19bd 1482 163e b03a 1a3d 2b70 9e3d
000001d0: 27b1 13bd 500d 95bc a9a8 a2bd 066c 353e
000001e0: 962f cfbc f7c2 81be 7184 12be 154b ac3b
000001f0: bd41 a6bd 77e5 fb3d 079a ac3d 5487 76bd
00000200: f774 09be de99 0abe 9333 e0bc 8911 43bd
00000210: 6a82 253e ae1e a1bd 2eac 45be 8de9 eb3d
00000220: 9df4 1dbe a005 423d 1d18 7cbd 71e6 02be
00000230: 455c 103d 5c9a 42bd 60e0 463e 4a93 f5bc
00000240: 324c 433d 6ede 39bd 4238 cb3c d0a7 e33c
00000250: 35ac b839 6040 4dbc 74bf c33c d03d debd
00000260: 8451 ce3d 42a9 203e c208 a5bd 11e9 7a3d
00000270: c259 a0bc dd15 6b3d cca5 0bbd 093f ffbd
00000280: 9ade 493e 342c 2bbc 8eef 3d3d 6220 ff3d
00000290: 320b 763d 54c0 4ebd 0577 273c 20bf 8abd
000002a0: d9f1 74bb 7b4c 15bc 287e db3b d3e1 69bd
000002b0: 44cb f0bc 471c b83c debe 90ba 7c30 163e
000002c0: 7ef0 323b b479 27be 435f 753d 192e 363d
000002d0: 9663 103e 39ea 8ebd b2d0 3b3c a412 0bbb
000002e0: 1755 eabd 4ef3 14be c93d 66bd 1046 a13d
000002f0: c1a7 8e3c 6aa8 733d f9fb 0e3d 1399 7c3d
00000300: 55d4 d73c 0d05 c73c e346 20be 8f61 293e
00000310: 0a1c 6cbc 4ad7 3f3e f01a 1bbd 9a09 253b
00000320: 0cec cf3d 570a a83d 2bae 203e 2814 36bc
00000330: 284b c8bc d3fb 65bd 5d4f 1a3e a877 cabd
00000340: 7885 223d b9d9 3fbe b56f a2bd ee74 1abe
00000350: 624c 3dbd 82f4 1ebe 2e91 dc3d 904c 3fbd
00000360: d879 36bd 231c 1f3e fd7b 22bb f19a 11bd
00000370: 2559 823d dd05 1e3d f5af ba3c 1bf1 393d
00000380: a3ed eabc c3b8 b0bd 3ea8 783c f014 8dbc
00000390: 2f46 9bbc 485a 4a3d 0543 e9bd 8c9a 9f3d
000003a0: 42ed 8bbe fc52 bcbb 2337 dfbd 5ea1 a4bb
000003b0: 2d2d 72be 74c9 9a3c cea0 5fbe e30f 8ebe
000003c0: bbdf 873d e0b8 e93d 2a5f 603d 2d56 483d
000003d0: 15bf 043e 6439 31be 3090 3fbe 1270 ef3d
000003e0: 28f3 2f3a f43b 453d de5d 2d3b dd0d 203d
000003f0: 0025 00bd cace 00be 27cc c6bd fad2 94bd
0.20442681 0.011449224 0.021621346 -0.06433457 -0.031510677 -0.04820726 -0.1164252 -0.1746947
-0.044117164 -0.04815715 -0.015067386 -0.07611131 -0.0820123 -0.047370065 -0.16772845 -0.038644943
-0.033072248 -0.083271526 0.04410335 -0.17261134 0.036862068 0.03856272 -0.11962607 0.014731069
-0.08848366 -0.04266095 0.014381947 -0.1697487 0.026407367 0.08490595 -0.06106043 -0.15401752
0.11987525 -0.08351596 0.0072843567 -0.021008283 -0.17203145 -0.06182408 -0.26380187 -0.10197151
-0.010842956 0.009708974 0.00013436406 0.08183084 -0.10957125 0.02668502 -0.19007571 0.051589597
-0.0071595465 0.13414304 0.045574922 0.19864863 0.0062109674 -0.083681844 0.18983482 0.058350187
0.022242535 -0.016504236 0.03957425 -0.057065964 -0.038154874 -0.12376494 -0.04695791 -0.034679465
-0.27354908 -0.043984775 0.04700694 -0.13261709 -0.20469746 0.028987518 0.07381982 -0.17787638
-0.14402716 0.105974086 -0.1814255 -0.061378766 0.13254434 0.039084584 -0.107123494 -0.049744867
-0.103684485 0.1658492 -0.08887705 -0.09969895 0.035465002 0.051641542 0.14106096 -0.1391346
-0.08063385 0.052458093 0.07335404 0.09079967 -0.21730654 0.1451161 -0.001642453 -0.021412034
-0.32265982 -0.26374087 0.015893746 0.12861826 0.08344434 -0.06665799 0.020264551 -0.11512222
-0.17810044 -0.0040389695 -0.057387087 -0.262056 -0.1413342 -0.07929801 0.09280963 -0.098590575
-0.037469838 0.14698058 0.037653625 0.07736238 -0.036057618 -0.018194824 -0.079423256 0.17716989
-0.025291245 -0.2534406 -0.14308335 0.005257974 -0.08118007 0.12299626 0.08427816 -0.060187653
-0.13423525 -0.13535258 -0.027368343 -0.047624145 0.1616303 -0.0786718 -0.19303963 0.11519156
-0.15425344 0.047368646 -0.061546434 -0.12783219 0.035244245 -0.04751049 0.1942153 -0.02997746
0.047680087 -0.04537814 0.0248071 0.02778998 0.0003522352 -0.012527555 0.023895003 -0.108516335
0.100741416 0.15689567 -0.08058311 0.061257426 -0.01957405 0.057393897 -0.034093663 -0.12463195
0.19713822 -0.010447551 0.046371035 0.124573484 0.06006927 -0.050476387 0.010221248 -0.067747355
-0.0037375598 -0.009112473 0.0066983886 -0.05710013 -0.0293938 0.022474421 -0.0011043211 0.14666933
0.002730399 -0.1635502 0.0599053 0.044477556 0.14100489 -0.06978268 0.011463331 -0.0021220827
-0.11442011 -0.14545938 -0.056211267 0.078746915 0.017413976 0.059486784 0.03490827 0.06166942
0.026346365 0.0242944 -0.15652041 0.16541122 -0.014410982 0.1873447 -0.037867486 0.0025182725
0.10152444 0.08205097 0.1569144 -0.011113204 -0.0244499 -0.05614836 0.15069337 -0.09886104
0.039678067 -0.18735398 -0.07931463 -0.15083668 -0.046215422 -0.1552296 0.10769878 -0.046703875
-0.044549793 0.15538077 -0.002479314 -0.035548154 0.06364659 0.03857981 0.022788981 0.04539595
-0.028677767 -0.086289905 0.015176831 -0.017221898 -0.018954365 0.049402505 -0.11389736 0.07793149
-0.2732945 -0.005747197 -0.10899188 -0.0050241193 -0.23650046 0.018894888 -0.21838686 -0.27746496
0.0663447 0.11412215 0.054778256 0.04891031 0.12963517 -0.17307049 -0.18707347 0.116912976
0.00067119533 0.04815288 0.0026453654 0.03907572 -0.031285286 -0.12578884 -0.09706908 -0.07266803

a2c_network.actor_mlp.2.bias f4 [128]
00000000: f29d 3d3d 931c bcbe 4f79 1dbe 5e29 e9bd
00000010: 07b3 bbbd 2992 dabb a6b9 c6bc b33d 823d
00000020: d6f0 32be c69c 58be 2890 1abc bf60 cbbd
00000030: bf4c 3dbe 38a2 01be 7cbc 783d 066f 86be
00000040: 1f28 34be 4d73 e73d 736b 79be 480c afbd
00000050: 5b2d 10be 1da8 c1bd de46 c6bc 3628 193e
00000060: ab67 babe c089 953c 7c40 863d 4c3d b63d
00000070: 0f7b 61bd 08ee 5bbe d317 2a3e f764 b03c
00000080: 3152 adbd ae2d d6bd 5750 90bc 719f ec3b
00000090: ee04 5c3e 9839 cd3c 1220 a1bc e0b2 92bd
000000a0: fe67 adbd 252a ddbc 81e3 b2bd e4f1 11be
000000b0: 83c3 9a3d 916b 163d e9fc 023e 2cdd d9bd
000000c0: 061f d5bd bdd2 b9bd 446e a8bd 84d2 f9bb
000000d0: a921 a53d b158 913d 28e4 99bd cd76 2dbe
000000e0: f3e1 5f3d 2e85 c53d 7598 703c 3634 e5bd
000000f0: 5ace 8fbe 4130 c73b 81ed eebd d118 6bbe
00000100: 2eaa 48be 77c8 8fbc a139 67be 1104 cd3c
00000110: cb5b aabe 4280 20be 1b75 97be 1dd7 e8bd
00000120: 179d a1bd 9e08 f4bd fb4c f6bd 782e 0fbc
00000130: fa9e de3d b4c9 2cbe 8867 203d c0d3 f3bd
00000140: 62b4 453d 5748 a5bb 8073 24be 66cf c7be
00000150: 1162 093e eaa2 06be fbe6 64be de6d 6bbe
00000160: 7c53 adbd daf5 b93d 4a65 b0bd 88f6 38bd
00000170: 2ca4 cb3d 466e e73d 5724 c1bd bcdb babc
00000180: 4861 66bd 5b2d b6bd e778 12be 8b2e 94be
00000190: da5d 83bd 32d7 a9be bf55 1cbe 6707 a1bd
000001a0: 6054 9a3d 1b3b 8c3c 931e dbbc 5cde 163d
000001b0: e1cc 65be e032 01bd 7903 4ebd f532 813e
000001c0: b981 963d 5c6f a2bd f7d2 55bd f4f4 4ebc
000001d0: 3927 11bd bdd5 3cbd a540 16be 0211 c9bb
000001e0: 9e54 a2bd 230f 69be 63b5 b7bd 57de 7c3c
000001f0: 1eb9 1cbd 1fd6 e83d 1745 7dbd ae2f b23a
0.046293207 -0.3674055 -0.15378307 -0.11384843 -0.09165006 -0.0066702557 -0.024258446 0.063594244
-0.17474684 -0.21153554 -0.009433784 -0.09930562 -0.18486308 -0.12659538 0.060726628 -0.2625658
-0.1759343 0.11301289 -0.24357395 -0.08547264 -0.14079802 -0.09455893 -0.024203714 0.14956746
-0.36407217 0.01825416 0.06555268 0.0889841 -0.055049 -0.2147752 0.1661065 0.021532519
-0.084629424 -0.104579315 -0.017616434 0.0072211553 0.21486256 0.025051877 -0.019668613 -0.07163024
-0.084671006 -0.026997635 -0.08734799 -0.1425243 0.07556822 0.036723677 0.1279179 -0.10637888
-0.10406308 -0.09073398 -0.082241565 -0.0076239724 0.08063061 0.07096995 -0.075142205 -0.1693985
0.05465884 0.09644543 0.014684786 -0.11191599 -0.2808712 0.0060787504 -0.11666394 -0.22958685
-0.19596168 -0.017551644 -0.22580577 0.025026353 -0.33273157 -0.15673926 -0.29581532 -0.113691546
-0.07891291 -0.11915706 -0.120264016 -0.008739106 0.10870166 -0.16873819 0.039161235 -0.119056225
0.04826773 -0.005044024 -0.16059685 -0.3902542 0.13416316 -0.13148084 -0.22353737 -0.2299113
-0.08463189 0.090800956 -0.08613069 -0.045156986 0.09943423 0.1130033 -0.094307594 -0.022809856
-0.05624512 -0.088953696 -0.14303933 -0.2894176 -0.06414385 -0.33171993 -0.15267085 -0.0786274
0.075356245 0.017118027 -0.026747977 0.036833152 -0.22441436 -0.03154266 -0.05029628 0.2523419
0.073489614 -0.07931396 -0.052203145 -0.012631644 -0.035437796 -0.046102274 -0.14673097 -0.0061360607
-0.07926296 -0.2275968 -0.08970144 0.015433869 -0.03826248 0.11368965 -0.061833467 0.0013594532

a2c_network.actor_mlp.4.weight f4 [64, 128]
00000000: 7a11 253e 840a 20be 24f9 093e 0f52 f0bb
00000010: ff76 133c 4bdb a23d ad83 b23d cf60 f1bc
00000020: 8f90 13bd 2f12 0c3d dac2 1bbb be66 b83d
00000030: 64da 383d fa3b f43d b110 0bbc b2cd 973d
00000040: d341 683d 3662 adbd 264f 9ebd 5be7 a33c
00000050: a229 8d3d efbd 5bbe b1b4 9fbd f633 8bbc
00000060: e407 6bbd 514e f93c d584 893d c8fc 833d
00000070: b8c2 92bd 8111 4c3e efd0 3fbd 157c dbbd
00000080: 4d39 363d 9aea 8fbd 2ea1 2d3d 1f1a 67be
00000090: b3ea 67bd 98fb e4bc 9870 a8bd 9eaa 7ebe
000000a0: 70e3 6a3c 5ead 3dbe 79c2 dc3d 2834 373d
000000b0: 2e6a adbd b715 80b9 9678 98bd 2866 553d
000000c0: b914 41bb 7181 46bd 0539 173c ae29 11be
000000d0: efdd 27be de9c 343d 0cec 333c 18db ab3c
000000e0: ea3e 323d 4414 30be 0d8a 08be 20bc e5bd
000000f0: d4b5 213e 2dae c83b d241 d03c e039 3a3d
00000100: c4e4 25be f421 85bd 1558 8a3d 7d8b c83d
00000110: 32e8 9cbd d82e 88bb 23cd 1cbd da2c 81bd
00000120: 1724 62be 9d57 32be a670 2b3d 9ad6 2fbd
00000130: e283 363d 7bc3 05bb a0c2 a7be 49af b1bd
00000140: ffca e63b 54ce a8bc 075f 93be eca4 c03d
00000150: 4da3 623c 0857 65be 6527 86bd e2a1 26bd
00000160: 15a6 47bd f267 0b3d 56b1 0ebe a5cb 263c
00000170: 41a9 8bbd 5172 eabd 6b60 88bd 5b9c 1b3d
00000180: ffb3 27be 467e 1d3b 0aed f5bb e907 7dbc
00000190: 08c7 34bd 2e70 f7bc dbee 183e e0be 3c3e
000001a0: 3522 d33d 85a0 4ebc a4c4 29bd c11f 913c
000001b0: 75e6 17bd 0918 1a3d 4bb9 b03d 536a 33bd
000001c0: 5d03 e9bd 3b35 dd3d 6fd1 c13c 5da2 0e3e
000001d0: a9bd e83d 2284 afbd 74b9 74be 8039 1b3b
000001e0: ecfd 883d 11d1 0bbe aa6c 16bd 5c49 b5bc
000001f0: 87e4 9c3d 4e2f b9bd c140 adbd 08d8 a1bb
00000200: 1cf9 583e d866 afbb 2ec1 223c 1979 bbba
00000210: 22f1 bcbc ff8b f73d c49e 64bd f705 543c
00000220: c5e1 00bd 5c3b 83be e875 673d 7a67 bb3b
00000230: 425e 02be 41ac 9b3d a415 d43b ecaf 55bd
00000240: a860 33bd b3e3 c9bd 1531 96bd 0c75 31bc
00000250: 34fc 6abd c251 603d da9d 2abd 5fca 72bd
00000260: b77e debd bab6 22be b4ae 49bd 3cf5 e1bd
00000270: dc46 97bd 256f ebbd 4b98 0b3d 51bc d8bd
00000280: 8477 65bd 160a 553c acec 663d 78c5 bbbb
00000290: 53df 9e3d 1804 283d fa66 943d 45bb bdbb
000002a0: 404b 003e 7f09 07bb 1279 95bc a667 0ebd
000002b0: 1df3 84bd a2ca 49bd d485 1ebc 522b c03d
000002c0: 05b3 fcbc 773d dabc 49bc 54bd 73b2 003d
000002d0: c59c 80bd 09fe 6e3d a630 e53d 00fc 9bbd
000002e0: 3f5c 873d 1754 a3bd fe54 aebc 9dfc 7dbd
000002f0: df98 383e 0734 f8bc a504 94bd bb18 26bd
00000300: 42ff 22bd fef6 14be 709d d4bb 6075 8e3d
00000310: e157 d43c 649e 3a3c 885d 443b 162d 1bbd
00000320: c1ba 13bc 15e8 80bc 29aa e9bd 8d0a ee3c
00000330: ec92 713d 19eb 8bbc 835b 3dbd b1fa 9ebd
00000340: 46d1 523d dbd7 43be 0c60 c0bd 27bc 34bd
00000350: 1f43 05bd 6b0e 8b38 58e7 bebd 14d4 4fbd
00000360: 5057 3dbc 1772 b03d b0eb 17be 3745 0b3e
00000370: 23a4 c0bd 8207 85bc a51c 593d 7d8b 913d
00000380: f7aa a6bd e5b3 01bd 0a3c 2ebe 6013 8dbd
00000390: 2bb6 2e3d 10a6 9f3c 512f 27bb d5e2 75bc
000003a0: 2b62 f1bc 1330 2f3e bf36 89bd c9db 97bd
000003b0: 2a11 0abe 174e 16be 4b61 013e 0b61 8e3d
000003c0: bf61 91bd 8170 253d 037f a43c 098d 4dbe
000003d0: 8715 ad3b 1ce6 9fbd 0b94 a139 4901 183c
000003e0: 6141 803c 2ea5 8cbd b9b3 9fbd 31b9 e7bd
000003f0: 21d9 293d fa61 32bd 51a9 d33d 9266 a5bd
0.16119948 -0.15629011 0.13473946 -0.007334001 0.009000539 0.07951983 0.087165214 -0.029465107
-0.036026534 0.03419703 -0.0023767264 0.090039715 0.04513015 0.11925502 -0.008487866 0.0741228
0.0567034 -0.08465998 -0.0772994 0.02000778 0.068927065 -0.21459173 -0.07798136 -0.01699255
-0.057380572 0.030432852 0.06714789 0.064446986 -0.07166046 0.19928552 -0.046830114 -0.10717026
0.04448824 -0.070271686 0.04239004 -0.22568558 -0.05662031 -0.027952 -0.082246006 -0.24869773
0.014336452 -0.18523166 0.1077928 0.044727474 -0.08467518 -0.0002443024 -0.07444875 0.052099377
-0.0029461815 -0.04846329 0.009229903 -0.14176056 -0.16393255 0.044094913 0.010981571 0.020978495
0.04351703 -0.1719523 -0.13333912 -0.112175226 0.15792018 0.006124279 0.02542201 0.04546535
-0.16200548 -0.06500617 0.067550816 0.0979223 -0.07661475 -0.004155975 -0.03828157 -0.06307383
-0.2208408 -0.17416234 0.041855477 -0.04292927 0.044559367 -0.0020410705 -0.32765675 -0.08676011
0.007043242 -0.020606197 -0.28783438 0.09406456 0.013832879 -0.22396481 -0.06550483 -0.040681727
-0.048742373 0.034034677 -0.13934836 0.010180389 -0.06819392 -0.114475854 -0.06659015 0.03799091
-0.16377257 0.0024031564 -0.007505064 -0.01544378 -0.044135123 -0.030204859 0.14934866 0.18432188
0.10309259 -0.012611513 -0.041447297 0.017715337 -0.037085015 0.037620578 0.08629092 -0.04380257
-0.113775946 0.108011685 0.023659436 0.13929124 0.113643 -0.08570124 -0.2389887 0.0023685396
0.06689057 -0.13653971 -0.036724724 -0.022129707 0.07660776 -0.09042226 -0.084596165 -0.004939083
0.21188778 -0.005352836 0.009933753 -0.0014303058 -0.0230642 0.12087249 -0.055815473 0.012940875
-0.03146531 -0.25631225 0.05650893 0.0057191225 -0.12731269 0.07601214 0.0064723063 -0.052169725
-0.04379335 -0.09857883 -0.073335804 -0.010831129 -0.057369426 0.05476547 -0.041654445 -0.059275027
-0.10864013 -0.15890017 -0.049238876 -0.11033103 -0.07386562 -0.114958085 0.034080785 -0.105827935
-0.056022182 0.013002893 0.05637805 -0.005730327 0.077574395 0.04101953 0.07246204 -0.0057901465
0.12528706 -0.0020605025 -0.018246207 -0.034766816 -0.06491683 -0.04926551 -0.009675462 0.09383263
-0.030847082 -0.026640637 -0.051937375 0.031420182 -0.062799014 0.058347736 0.111909196 -0.076164246
0.066093914 -0.07975023 -0.021280762 -0.06200849 0.18027066 -0.030298246 -0.072274484 -0.04055093
-0.039794214 -0.14547345 -0.0064884946 0.06955981 0.02592081 0.011390302 0.0029962976 -0.037884794
-0.009016694 -0.015735665 -0.114094086 0.029057765 0.058978006 -0.017079877 -0.04622985 -0.07762659
0.05146911 -0.19125311 -0.093933195 -0.04412475 -0.032534715 6.630722e-05 -0.09321469 -0.050739363
-0.011556461 0.08615511 -0.14836001 0.13600622 -0.094063066 -0.016238932 0.053005833 0.071066834
-0.08138078 -0.0316657 -0.1701509 -0.06888461 0.042654198 0.019488364 -0.002551038 -0.015007694
-0.029465755 0.17108183 -0.06699895 -0.074149676 -0.1348311 -0.14678226 0.1263477 0.06952103
-0.07098722 0.040390495 0.020080095 -0.20073332 0.0052821073 -0.07807562 0.00030818614 0.00927765
0.015656175 -0.06867443 -0.07797951 -0.11314619 0.041466836 -0.04355047 0.10335029 -0.08076204

a2c_network.actor_mlp.4.bias f4 [64]
00000000: f691 083e b0c8 bc3c 8fae 83be 203c 64be
00000010: 9e5c 21ba 268d d63d 69aa 50be b344 5fbe
00000020: 1402 70be 0673 55bb 57de 61be 3e57 bb3c
00000030: 9ce2 1d3d 090d 28be 329f 5fbe 126e 35be
00000040: 9b3d 0d3e bc4d 9bbe 0df7 abbc 5c47 ae3d
00000050: b5db 76be c6de 44bd 3f49 78be e570 8a3d
00000060: 8cd2 01be 320b 0dbd 8f6e 053d b416 23be
00000070: 5b90 4b3d 68e8 423d e0f6 5abe d458 4bbe
00000080: 0516 48be cd63 0abe fc06 80bd 0909 72be
00000090: 34d1 b8bd e3fb fcbd ca6e 9f3c 36d5 a83d
000000a0: ff34 6d3c e6e9 a7bb 153a 98be e91d 3dbd
000000b0: 3cae 53be b860 86be d9a8 ebbd bfbe 423c
000000c0: 1ae2 e2bd 94d3 8c3d a912 653d 0b1e 40be
000000d0: a736 46bd 7fa1 0fbe 7639 00be b075 a5be
000000e0: 0e9b b4bd 20b3 423c 34f5 f538 0b97 35be
000000f0: 795c 563c e400 21be 1f2b af3d f9d0 81be
0.1333693 0.023044914 -0.25719115 -0.22288561 -0.00061554636 0.10476141 -0.20377506 -0.2180355
-0.23438293 -0.003256978 -0.22057472 0.022868749 0.03854619 -0.16411223 -0.21838072 -0.1771777
0.13793032 -0.30332744 -0.020991826 0.085097045 -0.24107249 -0.048064016 -0.24246691 0.06759814
-0.12677974 -0.034434505 0.03257614 -0.1592663 0.049698215 0.04758492 -0.21383238 -0.19858104
-0.1953965 -0.13514633 -0.06251332 -0.23636259 -0.09024277 -0.12352731 0.019462008 0.08243792
0.014477967 -0.0051243184 -0.29731813 -0.046171103 -0.20671934 -0.26245666 -0.115068145 0.011886298
-0.11078282 0.06876293 0.055926 -0.1876146 -0.048391964 -0.1402645 -0.1252192 -0.3231635
-0.08818637 0.011883527 0.00011728183 -0.177334 0.013083571 -0.15722996 0.085531466 -0.25354746

a2c_network.value.weight f4 [1, 64]
00000000: db97 ee3d f856 813c 8a93 cabc fecc c2bc
00000010: bd03 913c 85f8 8d3d 1a62 f9bc 70ee b0bd
00000020: 5e81 34bc daf4 953c 2be1 e1bb 6205 b9bb
00000030: b030 8c3c 06ef 76bc e4c9 6c39 53d3 1bbc
00000040: f603 6d3d b8f0 45bd f74f eb3d 90a0 df3d
00000050: da8e 38bd 19bd 86bc ba7e 5abd 44d1 883d
00000060: 17a8 c4bb e98e 9a3c eafa e63c d2fe b0bc
00000070: e401 ea3d 52b7 aa3d 7d07 1c3b 1b5b 07bd
00000080: 7c0b 0d3c a872 443a df8a 463c 9689 76bc
00000090: c6b1 0e3c 689a 16bc 85a7 a33d ca1a eb3d
000000a0: 51f6 cd3d 488a c83c bc98 e3bc 95dc b8bc
000000b0: 66d3 d4bd b3d4 a0bd fc0d fbbc 26c2 1bbc
000000c0: a013 82bc 0b45 183e 23be be3d 8687 12bd
000000d0: 794d 0e3c ba1d 40bc 1efb 1fbb 6ed4 c5bd
000000e0: dbda 54bc eeba 133d 9270 d33c 9ece 01bd
000000f0: e270 ac3b 7630 e6bb 1bcc 543d 5818 7fbd
0.11650058 0.01578854 -0.024728555 -0.023779389 0.017701978 0.06932167 -0.030442286 -0.08639228
-0.011017172 0.01830523 -0.006893297 -0.0056463936 0.01711306 -0.015071636 0.00022581924 -0.009510833
0.057865106 -0.04832527 0.114898615 0.10919297 -0.04505811 -0.01644759 -0.053343512 0.06680539
-0.006001483 0.018866973 0.028195817 -0.021605883 0.11426142 0.08335747 0.0023808174 -0.03304587
0.008608695 0.0007493892 0.01211807 -0.0150474515 0.008709377 -0.009192087 0.07990936 0.11479719
0.10056747 0.02448 -0.02778279 -0.02256612 -0.103918836 -0.07853069 -0.030646317 -0.009506738
-0.015878499 0.14870088 0.093136095 -0.035773776 0.008685463 -0.011725837 -0.0024411152 -0.09659658
-0.012991632 0.036066942 0.025810514 -0.031691186 0.00526248 -0.00702482 0.051952463 -0.062279075

a2c_network.mu.weight f4 [6, 64]
00000000: bc3f 62bd 6efc 9b3a b7c9 cc3d 1a95 8cbd
00000010: 79cd 85bd a0fe 1dbd 68c2 5d3d ea53 a13d
00000020: 5664 6cbe f059 713c 0cd0 293c 05f1 d03d
00000030: d411 67bd ee21 4c3c 8fb6 3f3d ec17 5b3d
00000040: c2dd b83c 2593 cd3d 24fd fc3c d065 913d
00000050: 5e1b 953d d013 07bc df0e 11be 7e6c 333e
00000060: 6985 42bd ab33 73bd eec9 9e3d ad8c c3bb
00000070: e4af 873d 2669 2d3c c85a a53b 422e 913d
00000080: d33b 5b3d a0e4 8ebd cad4 f03a 5428 633b
00000090: 409e 1d3d 177d aabc eedc f4bd a38e 0dbe
000000a0: d152 3d3d d248 30be 569d c1bd 53ad 8b3c
000000b0: 55d2 84bd 3538 48bb 6559 98bd e18c f53d
000000c0: e86b c5bd a267 843d 5806 e1bd f86f 36bd
000000d0: e496 db3d 8624 7a3c 1ad8 073e 6041 58bd
000000e0: c89e 2abd 3485 993d 3501 f4ba 17ab 023e
000000f0: 87ba a83d 7a7c 29bd b8b3 13bd 2da9 083d
00000100: 5685 df3b 9042 2e3d ed2b 1ebd a7d5 3fbd
00000110: f9d8 3339 41bb 6cb9 4b63 d5bd a7f7 bd3d
00000120: 78b4 dcbd 788a 923d 6318 09bd f444 573d
00000130: cbe3 19be 6056 6abd 1a27 9cbd 509b 93bd
00000140: fd29 8a3d 8482 b7bd 62d1 abbd 9df5 e83d
00000150: ab4d 2ebe 2a9a 93bb db04 c03d be07 ff3c
00000160: 124a 003d d50b 14bd 87a6 c1bd 7899 c0bc
00000170: 07c5 a03a f1a0 a7bc 20f0 81bd 8c9c 9fbd
00000180: 5f56 9ebd 853f 903d 9004 48bd 70c5 38bd
00000190: b653 9cbd 1b25 25bd e3d3 e2bd 6749 c13c
000001a0: 19e8 493d 5297 99bc a121 caba e28b 3abd
000001b0: d804 113d f377 fe3c 8cff 883d 82d9 273d
000001c0: 8681 83bd da3a eb3d cb10 18be 2e78 acbd
000001d0: 085b 3cbd b287 a4bb 37a9 77bc 2816 55bc
000001e0: 6ebd f23c 42e3 babc 5b4d 113e 0889 cb3d
000001f0: 250e d83c da82 e6bd 220b a43d e77c 10be
00000200: af7d 923b bf4e 863c a500 eebd 9401 553d
00000210: a2c3 4cbd 072d c23d 1c58 873c ee17 0a3e
00000220: c2a4 86bc 8784 b6bc 0cf0 90bd 9d69 863d
00000230: 458d d6bd 022d 21be 6d57 a43d 8b7c a0bd
00000240: b128 033e 6b9e 5e3d 429a 233b 8f5b 84bd
00000250: 6dd1 44bd 35f7 3abe 1b5c 7dbd 02c1 023d
00000260: 2826 fbbd 98d6 a3bd cfa5 69bd 1bf5 20bd
00000270: 5c28 e43c 1b87 49bd 3611 af3c 3652 58bd
00000280: 9b95 42bd ab79 503d e9dd e3bd 6a3f d7bc
00000290: a3e4 b0bd 2f23 fcbc 914c 513d f49a 14bd
000002a0: 71e3 c4bc 5ad2 fabd b3f7 88b9 3e64 943d
000002b0: 8d7b e9bb 7e10 9bbd f172 053d f4e1 0e3d
000002c0: 7eb7 3dbd bd82 2e3c 85cd 83bd 2d77 8b3d
000002d0: cc1b e6bb ebd0 debc 0757 cabd 9f8e 88bb
000002e0: f115 2a3c ad5c 083e 8492 cd3d d7eb acbd
000002f0: 4159 91bc b80a 10bd 08ca 9ebd e0b9 133c
00000300: 493c 06bc 4e58 0c3d 0a0f 6b3d b9c2 7cbc
00000310: 6485 41bc bd25 1ebd 5a73 f6ba 9b0b 613d
00000320: a868 ae3d b5d5 b73d 4136 c33c 8411 013e
00000330: 8911 f2bd c067 3abd 1cc5 c53c 2858 e7ba
00000340: bd3b 343c 7099 af3d 0ce7 b2bd 58e5 4ebc
00000350: 7d53 b33d 7369 8cbd eb59 803d 73fa ab3c
00000360: 0926 d73d 6374 753d 1df1 96bd 5eb5 1a3e
00000370: ee22 ad3d 269a aa3c 1ca9 70bb 54bf 3f3b
00000380: 7030 afbc 8b0b 80bd 5c1d a9bc fe40 2e3d
00000390: 8152 dcbd 431a bdbd 560d 5cbd 4c78 7cbb
000003a0: b595 96bc ae03 0a3d 8386 3c3e 28f3 f33d
000003b0: 565d bebd b002 ce3c 1ec9 3dbd 8bed c8bd
000003c0: e1cd 313c 6d50 10be 7052 fbbc fdba 613d
000003d0: f6bf 053c 5ecb 60bd c8a1 4bbb 5f86 893c
000003e0: a99e aabd bf7e 4a3c d613 ebbc 2889 ad3b
000003f0: 3e23 c53d d828 583c 8188 0c3e 37fd 6ebd
-0.055236563 0.0011900791 0.099994116 -0.06864376 -0.065333314 -0.038572907 0.05414048 0.078773335
-0.2308515 0.014730915 0.010364544 0.10202221 -0.056413487 0.012459261 0.04680496 0.05348961
0.02256668 0.10037831 0.030882426 0.07099497 0.072806105 -0.00824447 -0.14165829 0.17521855
-0.04749051 -0.059375446 0.07753359 -0.0059676976 0.06625345 0.010584151 0.0050462224 0.07088901
0.05352385 -0.069772005 0.0018373963 0.0034661489 0.038480997 -0.0208116 -0.119562015 -0.13823943
0.046221558 -0.17215279 -0.094538376 0.01705042 -0.0648543 -0.003055108 -0.07438926 0.11989761
-0.09639722 0.06465079 -0.10987538 -0.044540375 0.107221395 0.015267497 0.1326603 -0.05279672
-0.04165533 0.074961096 -0.0018616082 0.12760578 0.08238702 -0.041378476 -0.036060065 0.033364464
0.006821315 0.042543948 -0.03861611 -0.046834614 0.00017151599 -0.00022576471 -0.10419329 0.092757516
-0.10776609 0.07155317 -0.033470523 0.052555993 -0.15028302 -0.05721128 -0.076246455 -0.07207358
0.0674629 -0.08960441 -0.08389546 0.11374972 -0.17021815 -0.004504462 0.09375926 0.031131621
0.03132064 -0.036144096 -0.09455591 -0.02351068 0.001226575 -0.020462485 -0.06344628 -0.07793531
-0.07731318 0.070433654 -0.048832476 -0.045110166 -0.07633154 -0.04031859 -0.110755704 0.023594571
0.04929361 -0.018748913 -0.0015421399 -0.04554356 0.03540501 0.031063056 0.06689367 0.040978916
-0.06421189 0.114858344 -0.14850156 -0.0842136 -0.04598525 -0.005021059 -0.015116028 -0.013005771
0.029631343 -0.022813443 0.14189665 0.09938246 0.026373932 -0.11255427 0.08009936 -0.14110146
0.004470549 0.016394971 -0.11621217 0.05200346 -0.049991257 0.094812445 0.016521506 0.13485691
-0.016435985 -0.02227999 -0.07077035 0.06563113 -0.10476164 -0.15739825 0.08024488 -0.07836255
0.12808491 0.054350298 0.002496377 -0.06462776 -0.048051286 -0.18258364 -0.061855417 0.031922348
-0.12263137 -0.07999915 -0.057042893 -0.03929625 0.027851276 -0.049201112 0.021370512 -0.052812777
-0.047505956 0.05089728 -0.111263104 -0.026275355 -0.08637359 -0.030778496 0.05109841 -0.036280587
-0.024034234 -0.122471526 -0.00026124492 0.07245682 -0.007125324 -0.07571505 0.03258032 0.034883454
-0.04631757 0.010651288 -0.06435684 0.0680984 -0.0070223566 -0.02719923 -0.098798804 -0.0041673924
0.010381208 0.13316603 0.10037711 -0.084434204 -0.017742755 -0.035166472 -0.07753378 0.009016484
-0.008193084 0.0342639 0.05738739 -0.015427285 -0.011811588 -0.03861021 -0.0018802688 0.05494271
0.08516055 0.08976308 0.023829581 0.12604338 -0.11819751 -0.0455091 0.02414184 -0.0017650174
0.011000571 0.08574188 -0.08735475 -0.012627922 0.087561585 -0.0685605 0.062671505 0.020993447
0.105053015 0.05992545 -0.073702075 0.15108249 0.08453928 0.020825457 -0.003672189 0.0029258328
-0.021385401 -0.06252202 -0.020643882 0.04254245 -0.10757924 -0.09233525 -0.053723656 -0.003852385
-0.018381933 0.033694915 0.18410687 0.11911613 -0.09295146 0.025147766 -0.04633438 -0.09810933
0.010852308 -0.1409318 -0.030678958 0.055109967 0.008163443 -0.054881446 -0.003107177 0.016787706
-0.08331043 0.01235932 -0.028695982 0.0052958913 0.096258625 0.013193332 0.13723947 -0.058346953

a2c_network.mu.bias f4 [6]
00000000: 5c2d 4c3d badd e03d d297 353d 7a96 86bd
00000010: 3748 853b deb2 a43d
0.049847946 0.10979791 0.04433424 -0.0657167 0.0040674466 0.08041929

exp_avg f4 [6]
00000000: 25f4 d83b 4589 02bb ef3f 49bb 42d9 b23b
00000010: 84db 193b 71cf c9bb
0.006620901 -0.0019918245 -0.0030708273 0.005458028 0.0023476789 -0.006158762

exp_avg_sq f4 [6]
00000000: 2dbe 173a 3124 053a 3f7a fe39 fd9d f339
00000010: 0f00 f739 1295 ea39
0.0005788531 0.00050789403 0.00048537736 0.00046466282 0.00047111555 0.00044743024

exp_avg f4 [256, 30]
00000000: c296 3c3a 18fb 09ba 4bed 823a a0df 78b9
00000010: 77bd 0a39 62a7 0fba 4567 d839 07f6 71ba
00000020: f29e 66b9 d65a ed39 23ab a7b9 a997 ac3a
00000030: 6b24 4739 dc9a e339 4ddb c639 42b0 6f3a
00000040: 03bb 443a 650f d939 fdc7 423a 282f 6fb9
00000050: a05a 2aba 0439 08ba 471b f6b9 079f 2439
00000060: bf8d b939 476a e338 becb 00b9 c019 c739
00000070: 5096 3a39 356e 9e39 91eb 6b3a 9c74 28ba
00000080: a123 c03a 987c 0bb9 b2dc e839 a095 1fba
00000090: 747d 123a 3e5c 8c39 cbfb 9237 d776 a739
000000a0: edea b5b9 3524 b03a 42f9 f5b9 7761 0b3a
000000b0: 9eca b439 bd18 dc39 551c 2a38 8395 c439
000000c0: 00e8 6b3a 8bf7 d539 91d2 0bb9 db93 81ba
000000d0: b5ef 61b9 0cdc 653a 3343 b6b9 3158 363a
000000e0: 079a 73b8 e040 4b39 8a0d 06ba 9196 3f3a
000000f0: 21fe 8bb5 ba66 0dba e6ad 9a3a 5115 24b9
00000100: 55b7 1bba 5fe0 a6b8 a372 233a fec8 483a
00000110: b499 72b9 9be3 3838 1597 07ba 8f96 923a
00000120: 877a a2ba de26 9937 5d6e 5338 22fe dd39
00000130: ebae 50ba 1845 b4b8 3556 dc37 e795 cb39
00000140: de13 2f39 8c8e b0b9 9f16 b9b9 ed40 523a
00000150: 68b2 b6ba 7250 dc39 c525 82b9 8c6e 063a
00000160: b860 92ba 361f 833a 02e7 6139 c7c6 dcb9
00000170: 7845 a13a 7b45 83b9 42ca 67ba 55ec 99b8
00000180: 0f77 7e39 4dc2 a8b8 08e3 a839 3c75 50ba
00000190: 2bdf 75ba b881 ab3a eed5 86ba cdf3 8eb9
000001a0: a233 23ba 806b 123a 5384 40ba 748b f0b9
000001b0: bca0 36b9 d6b3 0fb8 a80d 2536 a99a 99b8
000001c0: 4657 9eb9 4225 a939 911c 6dba b8cd 06b9
000001d0: 6999 dfb9 8825 053a 3f0b 3cba 31a3 81b9
000001e0: 9c49 e339 613d 5dba 88e9 033b 8513 6cb9
000001f0: e696 9739 655f a1b9 dab7 ab39 c2ed 4cba
00000200: 2cdb d13a e868 2639 fb7f 2cba c467 bb3a
00000210: f774 55ba f93c ad37 f709 ad38 fa7b 643a
00000220: 966c d6b9 9cad ef39 6655 5337 cc30 5fb9
00000230: 680e 153a f82c d3b9 a947 aab9 20dd 0c3a
00000240: 2322 4bba cfad e138 e0b4 ac39 4413 243a
00000250: 118d 24ba 895d 1d3a 1296 f5b9 ad0f 4039
00000260: b917 d1b9 3bb3 e139 9ac7 753a 6430 cdb9
00000270: 877e 6939 6f98 a2b9 66db db38 e713 433a
00000280: 5457 fa39 e18c 4dba 51fc 093a 48a9 d138
00000290: 01a7 f139 e46e d438 4b6c 3c3a e7fc 0c3a
000002a0: a029 fe39 7be7 f438 f3fc de37 7523 9ab8
000002b0: 8b14 0cb9 ee08 36b7 bf3f 383a cade 9a37
000002c0: 7417 103a 9163 6bb8 a5b6 3c3a d09a b939
000002d0: 26f9 4f3a 2a8c 0738 3707 39ba f7c9 183a
000002e0: f3da 873a 0545 5939 3697 11b9 5488 5e3a
000002f0: d760 0fba e7cc 7437 7a33 0539 5301 9dba
00000300: 6211 a3b7 cdfe b4b9 ec28 01ba d1a0 4cba
00000310: a296 b4b9 0b35 afb9 7866 263a 5b6d 3e39
00000320: 72c5 1eba 0b24 aab9 45ae 1cb8 cac9 1137
00000330: b4db 9839 3f20 25b9 d340 35ba fb3f 29ba
00000340: b11a b5b8 48df 5bb9 ed40 a5b9 9933 9439
00000350: 4237 6ab8 3c92 6cb8 eb16 f0b9 6578 0ab9
00000360: dc00 07ba 97e9 a839 ad66 04b8 b74c feb9
00000370: e1b7 2f38 3ce8 1e3a 2b00 13b8 ae71 16b9
00000380: 0127 84b9 bf9a 26b9 f497 b7b8 a5c8 0dba
00000390: f79f 39b9 8705 cb38 19db fa39 fd41 4138
000003a0: 2b5b 9438 f854 4638 16b3 03b9 8751 9eb8
000003b0: d3ac ef37 66d7 9bb8 9e3d 3fb9 6442 13ba
000003c0: eaed eb38 a7c2 feb9 3ee9 733a 6bbf 7e38
000003d0: 2afd d739 40ae 89b8 5802 8339 dcae 9639
000003e0: 1dd9 9039 5018 da39 d35e 0fb9 cd87 9439
000003f0: 3998 31ba c757 40b8 fa8f 7539 2ec8 3e39
0.00071940955 -0.0005263551 0.0009988932 -0.0002373443 0.00013231287 -0.0005479959 0.00041275672 -0.00092300813
-0.00021993721 0.0004527184 -0.0003198023 0.0013167757 0.00018991686 0.00043412193 0.00037928895 0.0009143391
0.00075046736 0.00041400935 0.0007430313 -0.00022810383 -0.00064984895 -0.0005196484 -0.000469411 0.00015699501
0.0003539156 0.00010843999 -0.00012282931 0.00037975423 0.00017794338 0.0003021822 0.00089996407 -0.00064260676
0.0014659056 -0.00013302488 0.0004441492 -0.00060876645 0.0005588152 0.00026771607 1.7521807e-05 0.00031941265
-0.00034698044 0.0013438525 -0.00046915753 0.00053169526 0.00034483237 0.000419801 4.0557545e-05 0.00037495428
0.0008999109 0.0004081096 -0.00013334515 -0.0009885983 -0.0002154697 0.0008768446 -0.00034763812 0.00069558906
-5.8079164e-05 0.00019383756 -0.0005113712 0.0007308508 -1.0430268e-06 -0.00053940306 0.0011801093 -0.000156482
-0.00059400994 -7.957289e-05 0.0006235039 0.00076593447 -0.00023136177 4.4080993e-05 -0.0005172354 0.0011183786
-0.0012396135 1.825712e-05 5.0409104e-05 0.00042341748 -0.0007960635 -8.5959386e-05 2.6266187e-05 0.00038830863
0.00016696702 -0.00033675542 -0.00035302804 0.0008020539 -0.0013938667 0.00042021606 -0.00024823673 0.0005128167
-0.001116774 0.0010003808 0.00021543729 -0.0004210977 0.0012304028 -0.00025038034 -0.00088420894 -7.339629e-05
0.0002426768 -8.0470556e-05 0.00032212608 -0.00079520396 -0.0009379263 0.0013084924 -0.0010287145 -0.00027265996
-0.00062256504 0.0005585477 -0.00073439366 -0.00045880268 -0.00017416751 -3.4261342e-05 2.4594865e-06 -7.324416e-05
-0.00030201132 0.0003226195 -0.0009045089 -0.00012855872 -0.00042648174 0.000507914 -0.00071733067 -0.00024726384
0.00043351657 -0.0008439627 0.002012821 -0.00022513985 0.00028913392 -0.00030779387 0.00032752642 -0.0007817411
0.0016010753 0.00015870074 -0.000658035 0.0014297892 -0.00081427343 2.06516e-05 8.251139e-05 0.0008715984
-0.00040898164 0.0004571498 1.2596463e-05 -0.00021285116 0.00056860456 -0.0004027856 -0.00032478318 0.00053735264
-0.0007748922 0.000107612104 0.0003294116 0.00062589743 -0.0006277124 0.00060030125 -0.00046841853 0.00018316387
-0.0003988126 0.0004304888 0.0009375751 -0.000391367 0.00022267747 -0.0003101262 0.000104836 0.00074416253
0.0004774878 -0.0007841122 0.00052637333 9.997428e-05 0.0004609153 0.00010129603 0.0007187768 0.00053782616
0.00048477668 0.00011677943 2.6582251e-05 -7.3498966e-05 -0.00013359093 -1.0850124e-05 0.0007028542 1.8461975e-05
0.0005496659 -5.6121095e-05 0.0007198847 0.00035401294 0.00079335494 3.2317046e-05 -0.0007058265 0.0005828435
0.0010364935 0.00020720444 -0.00013884608 0.00084889424 -0.00054694474 1.4591241e-05 0.00012703045 -0.0011978544
-1.9439209e-05 -0.00034522117 -0.00049270573 -0.0007805946 -0.00034444506 -0.0003341812 0.00063476665 0.0001816055
-0.00060566433 -0.0003245178 -3.73556e-05 8.689656e-06 0.0002915539 -0.00015747639 -0.00069142616 -0.0006456372
-8.635724e-05 -0.00020968646 -0.00031519626 0.00028267203 -5.584141e-05 -5.6402976e-05 -0.00045793442 -0.00013205556
-0.00051499694 0.00032217495 -3.1566877e-05 -0.00048503812 4.1894502e-05 0.00060618273 -3.5047688e-05 -0.00014347464
-0.00025206062 -0.00015888641 -8.7544235e-05 -0.00054086215 -0.00017702566 9.680824e-05 0.00047846956 4.6076242e-05
7.074171e-05 4.7286012e-05 -0.00012559848 -7.549213e-05 2.8571498e-05 -7.431097e-05 -0.00018238134 -0.0005617498
0.00011249988 -0.00048591683 0.000930447 6.073659e-05 0.00041196618 -6.565126e-05 0.00024988013 0.0002874051
0.00027627582 0.00041598314 -0.00013672867 0.0002832994 -0.0006774697 -4.5858116e-05 0.00023418656 0.00018194385
