IsaacGymEnvs/isaacgymenvs/runs/Bolt-18-12-2023_18-16-17-36/nn/last_Bolt-18-12-2023_ep_100_rew_0.17591712.pth (torch, 612834 bytes, 36 tensors)

value_mean_std.running_mean f8 [1]
0	0x3fb29815d66e263a	0.07263313756097825

value_mean_std.running_var f8 [1]
0	0x3f754bdd51b8203e	0.005199303177057911

value_mean_std.count f8 []
0	0x4102c00800000000	153601.0

running_mean_std.running_mean f8 [30]
0	0xbfa449a9e549b062	-0.039624509085883344
1	0xbf6f45c690dbadf8	-0.0038174513091371286
2	0xbfc1080d9c9684a9	-0.133058263262716
3	0xbfa3412f861cc790	-0.037606701966424017
4	0x3faa7eebac559cc3	0.05174957731906595
5	0x3f9196c8bcb66932	0.017176758306598212
6	0x3f8f3d96b129026c	0.015254189759731328
7	0xbf82651c17faccc9	-0.00898191402607153
8	0xbfddada74b17f692	-0.46372396787033054
9	0x3fa22700c5395e87	0.03545381934662566
10	0x3f7ec327f89d09ba	0.007510334145822412
11	0x3f610eebeb81c654	0.0020823104678633717
12	0xbf496656b0b29d53	-0.0007751391689411559
13	0x3f90dd054bfb5f7b	0.01646812702423926
14	0xbfaaa2a115a4e356	-0.05202201260767107
15	0x3fa54d77965daf76	0.041606652360171845
16	0x3fa0e72b3df9d1e6	0.033013678851521
17	0xbfa7ebbf05b883a7	-0.04672047562440378
18	0x3f448657797ebde2	0.0006263663408300724
19	0xbf7cfbfd28b67a4b	-0.0070762528443127455
20	0x3f795c039076fc2b	0.006191266940219579
21	0x3f8e01ee23f4258d	0.01465211913320521
22	0xbf71fd78191b391e	-0.004392117627231932
23	0xbf86a90d70bca331	-0.01106462955756768
24	0x3f7b0159033c93b9	0.006593082147252121
25	0x3f9f991dc2ae48ba	0.030857529647229077
26	0xbfb32bac46b39ab8	-0.07488514639008315
27	0x3fb9f215f7ffd03b	0.1013501863924952
28	0x3fae9bb1d24545a0	0.0597816056421252
29	0xbfbe49c543921f17	-0.11831314944913306

running_mean_std.running_var f8 [30]
0	0x40029092c5647561	2.3205924435884957
1	0x3fffa9ecf0124ee1	1.9789857270997617
2	0x3ffdbc5be8e5fa11	1.8584860894767454
3	0x40063589c7dc1fe7	2.7761417020847037
4	0x3ff5e160cbc772a5	1.3675239524956535
5	0x3fddbe05732a885d	0.46472297903722454
6	0x3fc6cd4b8f4732e6	0.1781401109314153
7	0x3fcd4b86269505d8	0.22886731037037467
8	0x3fda11ddeec74c05	0.4073405105420423
9	0x40161a555461d71f	5.525716131660174
10	0x3ff5e351ea9e3625	1.3679980435148391
11	0x3f956f1024929b86	0.02093148444387396
12	0x3fb09e64946d37b6	0.06491688369462065
13	0x3fae5300c31de68a	0.0592270124606787
14	0x3fb3ccf996d1a1c5	0.07734641964055473
15	0x3fb64a9a9cc0b7a7	0.08707586600277627
16	0x3fb37ed5fbadb90c	0.07615411180970372
17	0x3fb5069fa7166508	0.0821323187759796
18	0x3fc81ad0d4fdd4b7	0.18831835174538522
19	0x3fcb10754d04075b	0.21143976460012479
20	0x3fc856507bbddcec	0.19013410608361114
21	0x3fc6123706453db6	0.17243087583709177
22	0x3fc9b91f9bf6ba47	0.20096202006739558
23	0x3fc8c7607554b8a4	0.19358449677514955
24	0x3fe48924d5464892	0.6417411962049917
25	0x3fe37d4ae353d3c9	0.6090444984425797
26	0x3fe35bec212a2399	0.6049709937807278
27	0x3fe4f287e787e8db	0.6546058199012593
28	0x3fe4c22a23693459	0.6487017337436881
29	0x3fe447e512f74fc7	0.6337762232237701

running_mean_std.count f8 []
0	0x40f2c01000000000	76801.0

a2c_network.sigma f4 [6]
0	0x3e4016ed	0.18758745
1	0x3d5f4f77	0.054519143
2	0x3d239ae7	0.03994265
3	0x3dfda007	0.123840384
4	0x3e1ad1c4	0.15119082
5	0x3e0a7ce6	0.13524207

a2c_network.actor_mlp.0.weight f4 [256, 30]
0	0x3e42969b	0.19002764
1	0xbe864bc7	-0.2622969
2	0x3e0ce283	0.13758282
3	0xbc2a102a	-0.01037983
4	0xbcac85f7	-0.021059973
5	0x3de9e9a4	0.114215165
6	0x3d65e3cc	0.056125447
7	0x3e0dbfcc	0.13842696
8	0xbd2f0d10	-0.042737067
9	0xbe2c8c43	-0.1685038
10	0x3e3d69ab	0.1849734
11	0xbd382a91	-0.04496247
12	0x3da12e1d	0.078701235
13	0x3e33a974	0.1754511
14	0x3d91bebb	0.07116457
15	0xbd269255	-0.040666897
16	0x3d824c85	0.06362251
17	0x3cf6511e	0.030067977
18	0x3dad4064	0.08459547
19	0xbdbed1f4	-0.09317389
20	0xbe5e9bd7	-0.21739136
21	0xbd5f94bd	-0.054585207
22	0xbe2e56be	-0.17025277
23	0x3dd0b9ee	0.10191713
24	0x3c407c45	0.011748378
25	0x3da88ea1	0.08230329
26	0x3d27fc31	0.041011993
27	0x3cf4fbbd	0.029905194
28	0x3def42e4	0.1168268
29	0xbe0d4251	-0.13794829
30	0x3e02b026	0.12762508
31	0xbe3bff2d	-0.1835906
32	0x3d907f68	0.07055551
33	0xbd77dc18	-0.060512632
34	0x3d547e61	0.051878337
35	0xbc6b0c02	-0.014346125
36	0x3e028140	0.12744617
37	0xbe00442b	-0.12526004
38	0xbe3faff5	-0.18719466
39	0xbe6540b0	-0.22387958
40	0x3e38bb6d	0.18040247
41	0x3d0dc71a	0.034613706
42	0x3e0fea4e	0.14054224
43	0xbe08d9e3	-0.13364367
44	0xbe02dd5b	-0.12779753
45	0xbdd7af19	-0.10531444
46	0xbde5cca1	-0.112206705
47	0x3d9bf8c4	0.07615808
48	0x3d3aa772	0.045569845
49	0x3e3172b0	0.17328906
50	0xbdfe45a1	-0.124156244
51	0xbe03019f	-0.12793587
52	0x3dcf12ef	0.10111033
53	0xbdde8a14	-0.1086618
54	0x3d7170d6	0.0589455
55	0xbccdab5e	-0.025106128
56	0x3e0b0c2f	0.13578866
57	0xbdd64300	-0.10461998
58	0xbdcfccb7	-0.10146468
59	0x3c91f6fb	0.017817965
60	0x3d8a8bc3	0.06764939
61	0xbd15eb6a	-0.03660146
62	0x3e3ec8d0	0.18631291
63	0x3d8bc72d	0.06825099
64	0xbe3f37ab	-0.1867358
65	0xbda24dc8	-0.07924992
66	0x3e3cc21a	0.18433419
67	0xbd912996	-0.0708801
68	0x3ae754fb	0.0017649228
69	0xbe72e365	-0.23719557
70	0xbe18b5da	-0.14913121
71	0x3d988463	0.07447126
72	0xbd17cb4c	-0.037059113
73	0xbdc9a966	-0.09846763
74	0xbd089999	-0.033349607
75	0xbdf6d4ac	-0.12052283
76	0xbe1a2d9a	-0.15056458
77	0xbda3b584	-0.07993606
78	0xbdd38f6e	-0.103300914
79	0xbdbf454a	-0.09339388
80	0x3e40d26b	0.18830268
81	0x3d26a295	0.040682394
82	0x3d449f26	0.04800334
83	0xbe17f39c	-0.14839023
84	0xbddd56fc	-0.108076066
85	0xbc8eae29	-0.01741703
86	0xbc9b736f	-0.018975941
87	0xbe0fd7ec	-0.14047211
88	0xbdfc3105	-0.12314037
89	0xbdad247f	-0.08454227
90	0x3caac2a9	0.020844774
91	0xbe084e6a	-0.13311163
92	0xbcee9ddd	-0.02912801
93	0xbe2678fb	-0.16257088
94	0xbdb99820	-0.09062219
95	0xbdffbf84	-0.124877006
96	0xbd828133	-0.06372299
97	0xbe27053f	-0.16310595
98	0x3e8f0763	0.27935323
99	0x3a991ba8	0.0011681216
100	0x3e636f1a	0.2221035
101	0x3d954c66	0.072899625
102	0xbe3abe82	-0.18236735
103	0x3e2129b2	0.15738562
104	0xbd152aeb	-0.036417883
105	0xbdaad52f	-0.08341443
106	0xbe30ae01	-0.17253877
107	0xbe502522	-0.20326665
108	0x3d0451cb	0.032304566
109	0xbd107528	-0.03526798
110	0x3dba22c5	0.09088663
111	0xbe2ddecf	-0.16979526
112	0x3df373d8	0.1188733
113	0xbdd42090	-0.10357773
114	0xbda834a6	-0.08213167
115	0x3d79d656	0.060995422
116	0x3de895b7	0.11356681
117	0x3dbdc918	0.09266871
118	0x3e0f2bb7	0.1398152
119	0xbe035b7d	-0.12827869
120	0x3dde70db	0.10861369
121	0xbe0e9852	-0.13925293
122	0xbb93864d	-0.004502094
123	0xbe0e8a34	-0.13919908
124	0x3e32e684	0.17470747
125	0xbe126541	-0.14296438
126	0x3d9f8a0e	0.07790004
127	0x3d1a3506	0.037648223
128	0x3d786f89	0.060653243
129	0xbe91005c	-0.28320587
130	0x3e5a69e1	0.21329452
131	0x3d4e9c0a	0.05044178
132	0x3d4f6615	0.050634462
133	0xbdfb4e14	-0.122707516
134	0x3da74815	0.081680454
135	0xbc927e69	-0.017882543
136	0xbd8076e5	-0.06272677
137	0x3e1ce86d	0.15323038
138	0x3cd12524	0.025530405
139	0xbcd7b48c	-0.026331209
140	0xbdd73852	-0.10508789
141	0xbcba9c82	-0.022779707
142	0x3dbec956	0.093157455
143	0xbd6c36f9	-0.057669614
144	0xbe12f542	-0.14351371
145	0xba4c1746	-0.00077854504
146	0xbe16dcb8	-0.14732635
147	0x3d854409	0.06507117
148	0x3e2305f7	0.15920244
149	0xbe42c1c0	-0.19019222
150	0x3d5287ad	0.05139892
151	0x3e06e667	0.13173829
152	0x3c133052	0.008983688
153	0xbdaef72d	-0.08543239
154	0x3e070c67	0.13188325
155	0x3db14056	0.08654849
156	0x3d86289f	0.065507166
157	0xbcf9db4a	-0.030500073
158	0xbe3b3c4e	-0.18284723
159	0x3d9ebc50	0.077507615
160	0xbd98c851	-0.07460082
161	0xbd2245e7	-0.039617445
162	0x3db72980	0.08943462
163	0x3e25719f	0.16156624
164	0x3d96df99	0.073668666
165	0xbacc5091	-0.0015587976
166	0xbc3a30f7	-0.011364213
167	0xbd03aaa8	-0.032145172
168	0x3d66226e	0.05618518
169	0x3d5c57b5	0.05379458
170	0xbe445778	-0.19173992
171	0xbc62e510	-0.013848558
172	0x3e2c099d	0.16800542
173	0x3d9629e7	0.07332211
174	0xbc967348	-0.018365517
175	0xbe1face2	-0.15593293
176	0xbd5aab4e	-0.053386025
177	0xbdf94196	-0.12170713
178	0xbd8388fc	-0.06422612
179	0x3cc6d313	0.02427057
180	0x3d86941c	0.06571218
181	0x3dfcaf9a	0.12338181
182	0xbe3e536d	-0.18586512
183	0xbe3491cd	-0.17633744
184	0xbd875a7d	-0.06609056
185	0x3e124751	0.14285018
186	0x3d85da6b	0.065358005
187	0xbd29dd77	-0.04147097
188	0x3e57c2ff	0.21070479
189	0x3d49e151	0.049287144
190	0xbe6dd9a5	-0.23227556
191	0x3e01e64a	0.12685505
192	0xbdea5355	-0.114416756
193	0x3c1767bc	0.009241041
194	0xbe3f4c29	-0.18681397
195	0x3dd6c668	0.10487062
196	0x3dfe7851	0.12425292
197	0x3d8eec1e	0.069786295
198	0xbe015244	-0.12629038
199	0xbe3f32fa	-0.1867179
200	0xbe007e4d	-0.1254818
201	0x3e31135f	0.17292546
202	0x3d3c386e	0.045952253
203	0x3e0b66f2	0.1361349
204	0x3daac734	0.08338776
205	0x3d9b2627	0.07575636
206	0x3d125f1f	0.035735246
207	0xbe0e9c9a	-0.13926926
208	0xbe1f0267	-0.1552826
209	0xbe0ff5b4	-0.14058572
210	0xbcf2db7e	-0.029645678
211	0xbe81d8b2	-0.25360638
212	0xbc776ddd	-0.015101877
213	0xbd818bf0	-0.06325519
214	0xbceaf117	-0.028679414
215	0xbe1f3a90	-0.15549684
216	0xbdb3c8c9	-0.08778531
217	0x3e271748	0.16317475
218	0xbd982798	-0.07429427
219	0x3e09e599	0.13466491
220	0x3d676ec0	0.056502104
221	0xbdb2af41	-0.08724833
222	0xbc96fc4f	-0.018430857
223	0xbdb10e67	-0.08645325
224	0xbd8d00e7	-0.06884938
225	0xbe0f4cfa	-0.13994208
226	0x3db8db5d	0.09026215
227	0xbdd60bb2	-0.104514495
228	0x3d2b2b9b	0.041789632
229	0x3d41ea1b	0.0473424
230	0x3e1ba9bd	0.15201469
231	0xbda5888f	-0.08082687
232	0x3e125f62	0.14294198
233	0xbdc71a0a	-0.097217634
234	0x3d60404a	0.05474881
235	0x3e1d7310	0.15375924
236	0xbc6862f7	-0.014183751
237	0x3d253154	0.040330246
238	0xbca0f380	-0.01964736
239	0xbe188956	-0.1489614
240	0x3e63e0a7	0.22253667
241	0xbe53017d	-0.20606036
242	0x3df92f3c	0.12167212
243	0x3e2b407c	0.16723818
244	0x3e67613d	0.22595687
245	0xbc4a9d51	-0.012366609
246	0xbe86ff66	-0.2636673
247	0x3d328f92	0.04359395
248	0x3e60e273	0.21961384
249	0xbe93b75f	-0.2885084
250	0xbc8ab901	-0.01693392
251	0xbddb4070	-0.1070565
252	0xbd33094f	-0.04371005
253	0xbdabbc40	-0.08385515
254	0xbd512b88	-0.051066905
255	0xbc8ef1ad	-0.017449224

a2c_network.actor_mlp.0.bias f4 [256]
0	0x3cb7d9b7	0.022442682
1	0x3d82a793	0.063796185
2	0xbd86b8ee	-0.06578241
3	0x3c74fc24	0.014952693
4	0x3d60e5df	0.054906722
5	0xbc47e274	-0.012199987
6	0x3d316be2	0.043315776
7	0x3dc2912e	0.09500347
8	0xbcfd1efe	-0.030898567
9	0xbcd91020	-0.026496947
10	0x3c8b5089	0.017006176
11	0x3cb05a15	0.02152733
12	0xbd6138c3	-0.054985773
13	0xbcd55a75	-0.02604411
14	0x3bac5abc	0.00525984
15	0x3c9dcbd2	0.019262228
16	0xbd2dd14f	-0.04243594
17	0x3c7bc512	0.015366809
18	0xbc2a4f45	-0.010394876
19	0x3d5f2ab8	0.0544841
20	0xbd4adb08	-0.04952529
21	0xbd251667	-0.040304568
22	0xbb54e504	-0.0032485137
23	0xbca99969	-0.020703034
24	0x3d995523	0.07486942
25	0x3d2d0208	0.042238265
26	0xbbe22f21	-0.006902591
27	0x3d04c40e	0.032413535
28	0x3c1930cd	0.009350014
29	0xbcc0fba1	-0.023557486
30	0x3afec99e	0.0019438749
31	0x3a6e4414	0.0009089124
32	0xbd2ccb3c	-0.042186007
33	0xbdaf63b4	-0.08563939
34	0x3d6f40ec	0.058411524
35	0x3d135f96	0.03597983
36	0xbbfb80c7	-0.0076752636
37	0xbc324c0f	-0.010882392
38	0x3d2bd046	0.041946672
39	0x3c7d55b0	0.015462324
40	0x3d76abd5	0.060222466
41	0x3b11272a	0.0022148588
42	0xbcc860b2	-0.02446017
43	0x3c4b1f64	0.012397621
44	0x3d837d6e	0.06420408
45	0xbc6c2487	-0.014413006
46	0x3cd12d66	0.025534343
47	0x3cf05fd9	0.029342579
48	0x3df06967	0.11738854
49	0xbd7601a1	-0.060060147
50	0x3bf5cd3a	0.0075012716
51	0x3bb690d3	0.0055714636
52	0x3cadb54b	0.021204611
53	0x3d01a271	0.031649057
54	0xbca28b00	-0.019841671
55	0x3cec3e2f	0.028838245
56	0xbd704ce7	-0.05866709
57	0x3d2ca897	0.042152967
58	0x3d51ae40	0.05119157
59	0xbc6cea5b	-0.014460172
60	0xb803662a	-3.132798e-05
61	0x3c83298a	0.016011018
62	0x3cd1970c	0.02558472
63	0xbd3fa129	-0.046784554
64	0xbbd4076d	-0.006470612
65	0xbd7824d5	-0.060582
66	0x3d36f93e	0.04467129
67	0x3d0a07a6	0.0336987
68	0xbc83290f	-0.01601079
69	0x3d5f9d11	0.05459315
70	0xbc60c33a	-0.013718421
71	0x3d2cb85f	0.042168017
72	0x3cfc47b1	0.030795904
73	0xbd083588	-0.033254176
74	0x3d749170	0.059709013
75	0x3d240c04	0.04005052
76	0xbcd64753	-0.026157057
77	0xbb955ae4	-0.004557954
78	0x3da34816	0.07972734
79	0xbd9e5785	-0.07731537
80	0x3c3280c8	0.010894962
81	0xbd86faf4	-0.06590834
82	0x3cf2ab62	0.029622737
83	0xbd012fb5	-0.031539638
84	0xbbb7faa9	-0.005614598
85	0xbcca044d	-0.024660254
86	0xbcec4e61	-0.028845968
87	0xbccf1f67	-0.025283528
88	0xbcddbddf	-0.027068077
89	0xbab0f6ed	-0.0013501324
90	0xbca6dd7c	-0.020369284
91	0x3d0557d5	0.032554466
92	0x3ce71287	0.028207077
93	0xbcc57409	-0.024103181
94	0x3c957e85	0.018248806
95	0x3d81956c	0.06327328
96	0x3d947abe	0.07249974
97	0x3ce37bf0	0.027769059
98	0x3d195e9c	0.037443742
99	0xbc8a4388	-0.016877905
100	0xbcaee4ee	-0.021349397
101	0xbcb98d71	-0.022650452
102	0x3d1e6d51	0.03867847
103	0x3dc97d3f	0.09838342
104	0xbc7c103b	-0.015384729
105	0xbd37d760	-0.044883132
106	0x3c7ad843	0.01531035
107	0x3cadaf06	0.021201622
108	0x3c066126	0.008201873
109	0x3d73411b	0.05938826
110	0xbc2d9131	-0.010593698
111	0x3d418a48	0.047251016
112	0x3d905248	0.07046944
113	0x39893817	0.00026172466
114	0x3dc9aebf	0.09847783
115	0xbd729024	-0.059219494
116	0xbd969158	-0.07351941
117	0xbd2a67e6	-0.04160299
118	0x3b532b15	0.0032221724
119	0xbd00e640	-0.031469584
120	0x3d655361	0.05598772
121	0x3d4c9d26	0.049954556
122	0xbd116fe1	-0.035507087
123	0x3c917b7a	0.017759074
124	0x3d76ef75	0.060286958
125	0xbcc68f71	-0.02423832
126	0xbcc1acb2	-0.023641918
127	0xbba70b18	-0.005097758
128	0xbd4a64a8	-0.0494124
129	0x3d36ba9e	0.044611566
130	0xbcf8bf77	-0.030364735
131	0x3d34efc3	0.044173967
132	0xbddf7063	-0.10910108
133	0xbd855097	-0.06509512
134	0xbc877c23	-0.016538685
135	0x3d0194d5	0.031636078
136	0x3c685b8c	0.014181983
137	0xbd89c2a7	-0.0672658
138	0x3d431258	0.047624916
139	0x3d364313	0.04449756
140	0x3d00049d	0.0312544
141	0x3d528074	0.051392034
142	0xbdcb7425	-0.09934262
143	0xbdb7ff0f	-0.089841954
144	0xbd1d29b2	-0.038369842
145	0x3c7008b1	0.01465051
146	0xbc4d2782	-0.012521626
147	0xbd5954e2	-0.053059466
148	0x3ce20d11	0.027594121
149	0xbd882c0e	-0.06649028
150	0x3d387087	0.04502919
151	0xbc9d3830	-0.019191831
152	0x3d1203f2	0.035648294
153	0x3d3a5f54	0.04550107
154	0x3d715e10	0.058927596
155	0xbb90c9fc	-0.0044186097
156	0x3d1333c6	0.035938047
157	0x3c82ca8a	0.015965719
158	0x3c8ded7e	0.01732516
159	0x3d2494de	0.040181033
160	0xbc73dff2	-0.014884936
161	0x3d0f75aa	0.035024323
162	0xbc6c5bd2	-0.014426189
163	0xbd1a1139	-0.03761408
164	0xbdaff859	-0.085922904
165	0xbd9b5d93	-0.07586207
166	0x3c3af5a7	0.011411107
167	0xbc9d5a74	-0.01920817
168	0xbcc7d1e3	-0.024392074
169	0x3c788dc8	0.015170522
170	0xbc7d3f53	-0.015456992
171	0x3af4af63	0.0018667992
172	0x3b8a5cfc	0.0042225104
173	0xbd57aac5	-0.052653093
174	0x3cbcdad8	0.023053572
175	0xbd95e74e	-0.073195085
176	0x3d05d3e8	0.032672793
177	0xbc7e7034	-0.015529681
178	0xbd6aae04	-0.05729486
179	0xbb28c8c7	-0.0025754438
180	0x3c2e8c5c	0.0106535815
181	0xbbfbba33	-0.007682109
182	0xbd44b20d	-0.048021365
183	0x3c5808f2	0.0131857265
184	0x3d9c889a	0.07643242
185	0xbd255b8b	-0.040370505
186	0xbd4b0be9	-0.049571905
187	0x3d004ce4	0.03132333
188	0xbd375c35	-0.04476567
189	0x3bdfb27e	0.006826698
190	0xbcb3bf89	-0.021941917
191	0x3c8c8b8b	0.017156383
192	0xbd257cf2	-0.04040236
193	0x3d528cb4	0.051403716
194	0xbcbda624	-0.023150511
195	0x3c17253b	0.009225185
196	0x3c660c68	0.014041044
197	0xbd36bdf5	-0.04461475
198	0x3c66e60b	0.014092932
199	0xbd65693a	-0.056008555
200	0xbcc79cd2	-0.02436677
201	0x3d56f432	0.052478977
202	0xbd064066	-0.03277626
203	0x3ceb62b2	0.028733585
204	0xbd14cec0	-0.036329985
205	0xbdad8aca	-0.084737375
206	0x3c3f74fa	0.011685604
207	0xbd30a012	-0.043121405
208	0xbd1c23ba	-0.03812001
209	0x3cb4840b	0.02203562
210	0x3bd60541	0.006531388
211	0xbcf9359d	-0.030421073
212	0x3c217e5d	0.0098567875
213	0x3c70c351	0.014695005
214	0x3cb77154	0.022392906
215	0xbc9137f2	-0.017726872
216	0x3d8f5ceb	0.070001446
217	0x3c8cb232	0.017174814
218	0x3ba93dba	0.005164829
219	0x3bb6d2de	0.0055793365
220	0x3cf19602	0.029490475
221	0xbd5f6430	-0.054538906
222	0x3d620464	0.05517997
223	0x3d517352	0.05113537
224	0x3c6ef101	0.014583827
225	0xbd4609dd	-0.04834925
226	0x3d90634e	0.07050191
227	0x3d0d9ee8	0.034575373
228	0x3b8d6e19	0.004316103
229	0x3d90fb5b	0.07079192
230	0x3d43d3c8	0.047809392
231	0x3cc27ab0	0.023740143
232	0x3d1c68e6	0.038185976
233	0xbcff6c40	-0.031179547
234	0xbc23d5ba	-0.009999687
235	0x3db02337	0.08600467
236	0x3d69ccf2	0.057080217
237	0xbd091ef4	-0.033476785
238	0xbd77349d	-0.06035291
239	0x3c69c0ed	0.0142671885
240	0xbc39c646	-0.011338776
241	0xbd401d2a	-0.046902813
242	0xbd1dcb84	-0.038524166
243	0xbc626876	-0.013818851
244	0x3cfbf767	0.030757619
245	0xbbd2f24e	-0.0064375764
246	0x3c6dd8c6	0.014517015
247	0xbca4fdac	-0.020140491
248	0xbc8b0e51	-0.0169746
249	0xbceef79d	-0.029170806
250	0xbc6024e3	-0.0136806695
251	0x3d297335	0.041369636
252	0x3d9107db	0.070815764
253	0xbc9da42d	-0.019243324
254	0xbc54ecb8	-0.012995891
255	0xbd8d7cac	-0.06908545

a2c_network.actor_mlp.2.weight f4 [128, 256]
0	0x3dc4ec77	0.096154146
1	0x3d5bfc3f	0.053707357
2	0x3d436658	0.047705024
3	0xbc2d5a0e	-0.010580553
4	0x3cd6413e	0.026154157
5	0xbda3f4df	-0.0800569
6	0xbcf15e9b	-0.029464057
7	0xbcb6e18b	-0.022324344
8	0xbc8fce46	-0.017554414
9	0x3d755be8	0.0599021
10	0x3d8ac2e3	0.06775453
11	0x3d257280	0.0403924
12	0x3d6995f1	0.05702776
13	0x3c9a1a45	0.018811354
14	0x3c308dd1	0.010775999
15	0xbdd42999	-0.103594966
16	0xbda379c3	-0.079822086
17	0x3d804c39	0.06264538
18	0x3dc16f5d	0.09445069
19	0xbdc00b26	-0.093771264
20	0x3cfb8605	0.030703554
21	0x3d99a9f5	0.0750312
22	0xbdbd81a3	-0.09253242
23	0x3cecd58c	0.02891042
24	0xbb5e72e7	-0.0033943
25	0xbde97798	-0.11399764
26	0x3bbb8d34	0.00572362
27	0xbde0b79d	-0.109725215
28	0xbda28d45	-0.07937101
29	0x3d2c8c31	0.042125884
30	0x3cd12a0f	0.02553275
31	0xbd2a7a76	-0.041620694
32	0x3d8af527	0.0678504
33	0xbcf4bed8	-0.029876158
34	0x3dbcbc4c	0.09215602
35	0x3cb86ff5	0.022514323
36	0xbe063162	-0.13104776
37	0xbb4b6651	-0.0031036327
38	0xbc28c721	-0.010301382
39	0xbdf8151e	-0.12113403
40	0xbd8d7531	-0.06907118
41	0x3d29a26e	0.04141467
42	0xbd80b9d1	-0.06285442
43	0x3a5021c2	0.00079396006
44	0x3d67d71a	0.05660162
45	0x3dacec31	0.084434874
46	0xbcba15a8	-0.022715405
47	0xbb01f8a9	-0.001983205
48	0x3d86432d	0.065557815
49	0xbc7438a7	-0.014906085
50	0xbbe1cd58	-0.006890934
51	0x3cf7e8ff	0.030262468
52	0xbd76c995	-0.060250837
53	0xbab469a4	-0.0013764394
54	0x3d6f5d0b	0.058438342
55	0x3d4968cb	0.049172204
56	0xbc2ab85c	-0.010419931
57	0xbc296c3a	-0.010340745
58	0x3da4883a	0.08033796
59	0xbc9c4f60	-0.019080818
60	0x3c7d7f5b	0.015472258
61	0xbe01e147	-0.12683593
62	0xbcd9932e	-0.026559439
63	0xbc475c04	-0.012167934
64	0xbdab0f08	-0.08352476
65	0xbc718353	-0.014740783
66	0x3d86795b	0.065661155
67	0xbd88b86f	-0.06675803
68	0xbe287ae3	-0.16453128
69	0x3d9b858a	0.0759383
70	0x3a962642	0.0011455494
71	0xbddfe9aa	-0.1093324
72	0xbd961825	-0.07328824
73	0x3c2c0ac7	0.010500616
74	0xbd03f13f	-0.032212492
75	0xba3a8350	-0.0007114904
76	0x3cfa1c80	0.030531168
77	0x3d57e93f	0.052712675
78	0xbc68cea9	-0.014209428
79	0xbd18b445	-0.037281293
80	0xbc83d5ea	-0.016093213
81	0x3d15e0a8	0.036591202
82	0xbda6a18f	-0.081362836
83	0xbdb987d7	-0.090591125
84	0xbd5e23ad	-0.05423324
85	0xbd922cc8	-0.071374476
86	0x3de2b4d6	0.11069648
87	0xbd226138	-0.039643496
88	0xbd41d522	-0.0473224
89	0xbc8e7d8c	-0.01739385
90	0x3d33f440	0.043934107
91	0x3e0c7349	0.13715853
92	0xbde4f1bd	-0.111789204
93	0x3decf737	0.1157059
94	0xbac78468	-0.0015221955
95	0x3cdcea48	0.026967183
96	0xbe051b20	-0.12998629
97	0xbe0c8f37	-0.13726507
98	0xbbacf6f8	-0.0052784644
99	0x3dbeda01	0.09318925
100	0x3d936484	0.07196906
101	0xbdadddb1	-0.0848955
102	0x3dd7f040	0.10543871
103	0xbdeb4125	-0.11487035
104	0xbd7141f3	-0.058900785
105	0xbc724899	-0.014787816
106	0xbbea7ec0	-0.007156223
107	0xbdca0a58	-0.09865254
108	0xbdf5c805	-0.12001041
109	0xbda105ac	-0.0786241
110	0x3d8d9a63	0.069142126
111	0xbc8227c4	-0.015888102
112	0xbda178e9	-0.0788439
113	0x3d5c323a	0.053758837
114	0x3d740935	0.059579093
115	0xbb868840	-0.0041055977
116	0xbd2c0549	-0.041997228
117	0xbc8c81c2	-0.017151717
118	0xbd66bf92	-0.05633504
119	0x3d0581bd	0.03259443
120	0xbcfc5db4	-0.0308064
121	0xbe397c39	-0.18113793
122	0xbc184119	-0.009292864
123	0x3c6a4439	0.014298492
124	0xbd83949e	-0.06424831
125	0x3daec5fc	0.08533856
126	0x3d0f1796	0.034934603
127	0x3d30917d	0.0431075
128	0xbd6eb543	-0.058278333
129	0xbdc282d7	-0.09497612
130	0x3ce13e3b	0.027495494
131	0x3bbc50fe	0.0057469597
132	0x3d9e96fc	0.07743642
133	0xbde9a1b7	-0.11407798
134	0xbdacf7aa	-0.08445676
135	0x3e112b9c	0.14176792
136	0xbd222224	-0.03958334
137	0x3dbbc785	0.09168915
138	0x39905686	0.00027530285
139	0xbdabb405	-0.083839454
140	0x3d239ef5	0.039946515
141	0x3cfa32a5	0.030541727
142	0x3dd940ce	0.10608064
143	0xbdaa9e81	-0.083310135
144	0xbca34e5a	-0.019934822
145	0xbdcd0edc	-0.100126
146	0xbcd42d4c	-0.025900505
147	0x3d8da9b6	0.069171354
148	0x3b5f7c1c	0.0034101075
149	0xbd26d9e6	-0.040735148
150	0x3d8b80cd	0.06811676
151	0xbdcc5274	-0.09976664
152	0x3ce7c7c7	0.028293503
153	0x3e2479d4	0.16062099
154	0xbd191921	-0.03737748
155	0x3d0dab47	0.03458717
156	0x3cb2451d	0.021761471
157	0x3c8a221c	0.016861968
158	0x3d5f5f3a	0.054534175
159	0xbd087283	-0.033312332
160	0x3e177ee9	0.14794506
161	0xbbf5eec9	-0.007505272
162	0xbbde6518	-0.0067869537
163	0x3db6a534	0.08918229
164	0x3c2083fa	0.009797091
165	0xbc855dc5	-0.016280064
166	0x3d03d8ef	0.032189306
167	0xbd033929	-0.032036934
168	0x3cc51016	0.024055522
169	0x3ca72533	0.02040348
170	0xbd415094	-0.047195986
171	0x3d039180	0.03212118
172	0xbc187d69	-0.009307244
173	0x3cc5fbf7	0.024167998
174	0x3d1fff41	0.03906179
175	0x3b2a9381	0.002602786
176	0xbc263501	-0.010144473
177	0xbddfb0dd	-0.10922406
178	0x3d003d9f	0.031308766
179	0xbd2cc8c5	-0.042183656
180	0x3dcda849	0.100418635
181	0x3c1e6f7c	0.009670135
182	0x3d10bdc0	0.03533721
183	0xbc0564c4	-0.0081417
184	0xbce4df2d	-0.02793845
185	0xbda16158	-0.07879895
186	0x3a87cbff	0.0010360478
187	0x3c8b3e2a	0.016997416
188	0x3c868a77	0.016423447
189	0x3dcba1d7	0.09942978
190	0x3e0619c3	0.13095765
191	0x3c058c80	0.008151174
192	0x3d4dc276	0.05023428
193	0x3d4c112f	0.049821075
194	0xbe10923d	-0.14118285
195	0x3dc92818	0.098221004
196	0x3d29d13b	0.041459303
197	0x3da5d392	0.080969945
198	0xbd9dcd36	-0.077051565
199	0xbda5f32d	-0.08103023
200	0x3d97f172	0.07419099
201	0x3e1a8bc1	0.15092374
202	0x3e019c72	0.12657335
203	0xbc61ad94	-0.013774294
204	0xbd89d0ad	-0.06729255
205	0xbbad925d	-0.005296989
206	0x3dbc6d58	0.09200543
207	0xbcbc104d	-0.022956992
208	0xbc47a7b0	-0.012185976
209	0xbe0c10db	-0.13678305
210	0xbdb73fee	-0.089477405
211	0xbdd2a1d9	-0.10284776
212	0xbde8f382	-0.113745704
213	0xbda66706	-0.08125119
214	0x3d598a3a	0.05311034
215	0xbd96712b	-0.07345804
216	0xbc9b356b	-0.01894637
217	0x3e247e46	0.16063794
218	0x3d2d80fa	0.04235933
219	0xbd89072f	-0.06690823
220	0x3c584b10	0.01320149
221	0x3c86c3c1	0.016450765
222	0x3cf27762	0.029597942
223	0x3ccbc9dc	0.024876527
224	0xbde8abc3	-0.11360886
225	0xbddb4a5f	-0.107075445
226	0xbd2fa255	-0.04287942
227	0xbd6bc631	-0.057562057
228	0x3de64228	0.11243087
229	0x3cfe2ede	0.031028207
230	0xbc40e06f	-0.011772259
231	0xba90fc48	-0.0011061514
232	0xbe2ce4b7	-0.16884123
233	0xbba7d6e2	-0.0051220516
234	0x3a770024	0.0009422323
235	0x3bc388e8	0.005967248
236	0xbdd3ce4f	-0.103420846
237	0xbdaaaeae	-0.08334099
238	0xbe15dbd5	-0.1463464
239	0xbe100fbc	-0.14068502
240	0x3d398fe8	0.045303255
241	0x3d9995a4	0.07499245
242	0x3c493ea8	0.012283005
243	0x3d6ea5d4	0.058263615
244	0x3e02c528	0.12770522
245	0xbd86ebcf	-0.06587946
246	0xbdcfec83	-0.10152533
247	0x3c51d8f8	0.012808077
248	0x3cae7d47	0.021299971
249	0xbca36fa0	-0.019950688
250	0x3d1f88b6	0.038948737
251	0x3cb28d33	0.021795845
252	0x3d418778	0.047248334
253	0xb9e4a394	-0.00043609424
254	0xbd759bf5	-0.059963185
255	0xbd03c280	-0.03216791

a2c_network.actor_mlp.2.bias f4 [128]
0	0x3d436384	0.047702327
1	0xbe6a2834	-0.22866899
2	0xbd6b0dc8	-0.05738619
3	0xbcec8128	-0.02887018
4	0xbd6331d5	-0.055467445
5	0x3d169027	0.03675857
6	0xbcdde190	-0.027085096
7	0x3d957053	0.07296815
8	0xbdbfe21a	-0.09369297
9	0xbdfed842	-0.12443592
10	0x3cae2490	0.021257669
11	0xbccccfb8	-0.025001392
12	0xbd65b7cc	-0.056083485
13	0xbdabd36a	-0.083899334
14	0x3ce3fba7	0.027829958
15	0xbdb15a46	-0.086597964
16	0xbd31f59b	-0.04344712
17	0x3de78199	0.11304016
18	0xbd7c3ae7	-0.06157961
19	0xbd4a1db5	-0.049344737
20	0xbd21c317	-0.039492693
21	0xbd17fbfd	-0.03710555
22	0x3cc61bdd	0.024183208
23	0x3d3d2453	0.04617722
24	0xbe3110b0	-0.17291522
25	0x3cdf8803	0.027286535
26	0x3dde938e	0.108679876
27	0x3c86aa4d	0.016438628
28	0x3c013220	0.007885486
29	0xbdfbccfa	-0.122949556
30	0x3e00f810	0.12594628
31	0xbcabb2d3	-0.020959293
32	0xbd8ffd0b	-0.07030686
33	0xbc529d53	-0.012854892
34	0x3aa2b49f	0.0012413448
35	0x3d23f7fa	0.04003141
36	0x3e027baa	0.12742487
37	0x3d814f22	0.063139215
38	0xbcecb7e9	-0.028896289
39	0xbc2e25be	-0.010629116
40	0xbca46878	-0.020069346
41	0x362e1521	2.594032e-06
42	0x3b86598e	0.004100031
43	0xbd83a572	-0.064280406
44	0x3d2d2eeb	0.042281073
45	0x3d2d4381	0.042300705
46	0x3d90bc2a	0.070671394
47	0xbc69e838	-0.014276557
48	0xba89554b	-0.001047769
49	0xbc0e80b5	-0.008697678
50	0xbd6633a5	-0.056201596
51	0x3c1e6461	0.009667487
52	0x3d9e45ab	0.07728132
53	0x3df4ab3b	0.11946722
54	0xbc025a8f	-0.007956161
55	0xbdb9d8dc	-0.09074566
56	0x3d933f8a	0.071898535
57	0x3d527cee	0.051388673
58	0x3d6c078a	0.057624377
59	0xbcba28ab	-0.02272447
60	0xbe018642	-0.12648872
61	0x3b292639	0.0025810136
62	0xbd4e41d9	-0.050355766
63	0xbdb36d1b	-0.087610446
64	0xbd70d38c	-0.058795497
65	0x3cb55d5f	0.02213925
66	0xbdd0a150	-0.10187018
67	0x3a74f0d2	0.00093437464
68	0xbe121ca9	-0.14268745
69	0xbd81c9c4	-0.06337312
70	0xbe0bb2fc	-0.13642496
71	0xbce48888	-0.027897134
72	0xbd900445	-0.07032064
73	0xbca55948	-0.020184174
74	0xbd174ee6	-0.036940478
75	0x3b3f4fbf	0.002919182
76	0x3dd04df3	0.10171118
77	0xbdf2613e	-0.11834954
78	0x3ca3c509	0.019991415
79	0xbd9befe5	-0.076141156
80	0x3c0a4cd0	0.008441165
81	0x3ca7af8a	0.020469446
82	0xbd275c44	-0.040859476
83	0xbe4826e1	-0.19546081
84	0x3da70822	0.08155848
85	0xbce5e3f5	-0.0280628
86	0xbdc8b406	-0.09799962
87	0xbd88ff01	-0.06689263
88	0xbcdd9fc0	-0.027053714
89	0x3da019d0	0.07817423
90	0xbd1b7440	-0.03795266
91	0x3cdbcf3f	0.026832221
92	0x3d506b14	0.050883368
93	0x3dc83d71	0.09777344
94	0xbd9b2b5b	-0.07576629
95	0xbd00e8ca	-0.031472005
96	0x3c9e878e	0.019351747
97	0xbd95faa0	-0.073231936
98	0xbda1619a	-0.07879944
99	0xbe162782	-0.14663509
100	0xbc457900	-0.012052774
101	0xbdf8d35e	-0.1214969
102	0xbd917650	-0.071026444
103	0xbd84bede	-0.064817175
104	0x3d9179fe	0.07103346
105	0x3d2a5065	0.041580576
106	0xbd9192d8	-0.07108086
107	0x3dbf5f0c	0.09344301
108	0xbdd67f16	-0.104734585
109	0xbbe46392	-0.0069698775
110	0xbc504de8	-0.012713887
111	0x3e1dfed7	0.15429245
112	0x3cb743e9	0.02237125
113	0xbd7e9c83	-0.06216098
114	0x39c47e57	0.00037478164
115	0xbc408665	-0.011750792
116	0xbd2077cc	-0.039176747
117	0xbcf9c600	-0.030489922
118	0xbd291d58	-0.04128775
119	0x3cd70aec	0.026250325
120	0xbc9fb5af	-0.019495813
121	0xbdc5b723	-0.09654071
122	0xbc868f24	-0.016425677
123	0xbd0fe5f6	-0.035131417
124	0xbb7fa71a	-0.0039009512
125	0x3da72f6f	0.08163344
126	0x3d1da5ae	0.038488083
127	0x3d1ce90b	0.038308185

a2c_network.actor_mlp.4.weight f4 [64, 128]
0	0x3cf23230	0.029564947
1	0xbdb25908	-0.087083876
2	0x3df8c9f5	0.12147895
3	0xbc6fbf3e	-0.014632998
4	0x3d1636d5	0.036673386
5	0x3c08a871	0.008340941
6	0x3df5c18e	0.11999808
7	0xbd861001	-0.06546021
8	0xbd804ec4	-0.06265023
9	0x3de6ce4b	0.11269816
10	0x3c866c8d	0.016409183
11	0x3db9c4f2	0.090707675
12	0x3d56c98c	0.052438304
13	0x3db9ab7b	0.090659104
14	0x3d15ddbf	0.036588427
15	0xbc9c5c84	-0.019087084
16	0x3d44bc62	0.04803122
17	0xbca94851	-0.020664366
18	0xbdda414c	-0.10656986
19	0x3d5f5406	0.05452349
20	0x3cb89c2b	0.022535404
21	0xbdcfd92c	-0.10148844
22	0xbd8251cd	-0.063632585
23	0xbd61cc4e	-0.05512648
24	0x3c019f57	0.007911525
25	0xbc8092bb	-0.015694967
26	0x3d865c4e	0.065605745
27	0x3d841f26	0.064512536
28	0xbd2a6ca5	-0.041607518
29	0x3e03ecd9	0.12883319
30	0xbbcb4f2f	-0.006204508
31	0xbad43a54	-0.00161917
32	0x3db29587	0.08719926
33	0xbd0abd29	-0.033871803
34	0xbc623d5d	-0.013808575
35	0xbe01b869	-0.12668003
36	0xbd8d4abe	-0.068990216
37	0xbd87a5a7	-0.066233926
38	0xbd931a56	-0.071827576
39	0xbdf91791	-0.12162698
40	0xbd1244d9	-0.03571019
41	0xbdbc1d91	-0.09185327
42	0x3d891d24	0.06695011
43	0x3da16e48	0.078823626
44	0xbdb0855b	-0.086191855
45	0xbca9a9de	-0.020710882
46	0xbe13f770	-0.14449859
47	0x3bef0cc5	0.0072952234
48	0xbbec54b7	-0.0072122472
49	0xbde7e981	-0.11323834
50	0x3d5f4666	0.054510497
51	0xbdc11aee	-0.094289646
52	0xbd8374ab	-0.06418737
53	0xbb968524	-0.0045935083
54	0x3d9a44fa	0.075326875
55	0x3d8083bb	0.062751256
56	0xbb8bb456	-0.004263441
57	0xbdb40cea	-0.08791526
58	0xbdffbd77	-0.124873094
59	0xbd38c26d	-0.045107294
60	0x3db92eba	0.090421155
61	0xbc696c56	-0.014247021
62	0xbcf4cf6d	-0.029884065
63	0x3dafd2d0	0.08585131
64	0xbddaa0b3	-0.10675182
65	0xbc9be71e	-0.019031104
66	0x3dcd6dd8	0.10030717
67	0x3db8eb7d	0.09029291
68	0xbcfd6a10	-0.030934364
69	0x3ca61066	0.020271491
70	0x3c9c3a3a	0.019070733
71	0xbdc36312	-0.095403805
72	0xbddc4c5a	-0.107567504
73	0xbd300db5	-0.042981822
74	0x3d286c1e	0.041118734
75	0xbd1ef668	-0.03880921
76	0x3d11038c	0.035403773
77	0xbcbdfa76	-0.023190718
78	0xbe16738d	-0.14692517
79	0xbd59d8f6	-0.053185426
80	0x3d3559ef	0.04427522
81	0x3d52af6f	0.051436838
82	0xbddb24cd	-0.107003786
83	0x3da23d29	0.079218216
84	0x3b140f80	0.0022592247
85	0xbdd09d5e	-0.101862654
86	0xbd704b48	-0.058665544
87	0xbcb9b2c5	-0.022668252
88	0xbc03dc38	-0.00804811
89	0x3bdd4188	0.0067521967
90	0xbdd18ba6	-0.10231714
91	0xbc1c6b22	-0.009547027
92	0xbd0ad8c5	-0.033898134
93	0xbd4ace4e	-0.049513154
94	0x3c83fe48	0.016112462
95	0x3cff11c5	0.031136403
96	0xbdb0078a	-0.08595188
97	0x3d25f253	0.0405143
98	0x3ced6127	0.02897699
99	0x3cf1e55c	0.029528312
100	0xbd0d5ced	-0.03451245
101	0x3d59b9b7	0.053155627
102	0x3d4354eb	0.047688406
103	0x3e201402	0.15632632
104	0x3d836b3b	0.06416937
105	0xbc9402dd	-0.018067772
106	0xbd481cc7	-0.04885557
107	0x3d89221b	0.06695958
108	0xbbaaf72b	-0.005217453
109	0x3d454908	0.04816535
110	0x3d51f86a	0.051262297
111	0xbcf94a3e	-0.03043091
112	0xbd6e4b19	-0.058177087
113	0x3dc1afba	0.09457345
114	0x3d467494	0.04845102
115	0x3d91d7f4	0.07121268
116	0x3db961a6	0.09051828
117	0xbdb4ec91	-0.08834184
118	0xbdf19879	-0.1179666
119	0x3d263c3f	0.0405848
120	0x3bef0c80	0.0072951913
121	0xbd78fe12	-0.060789175
122	0x3c6f8c31	0.014620827
123	0x3d135825	0.035972733
124	0x3c5a2bf0	0.01331614
125	0xbd2a3d38	-0.04156229
126	0xbe070e6d	-0.13189097
127	0x3b309774	0.0026945742
128	0x3da1bd7c	0.078974694
129	0x3cc0af54	0.023521103
130	0x3c41d763	0.011831137
131	0xbbd91a67	-0.006625462
132	0xbcea99a4	-0.028637715
133	0x3d1962c2	0.0374477
134	0xbc6fddf6	-0.014640322
135	0xbd0f117d	-0.034928787
136	0xbc90acec	-0.01766058
137	0xbdf49171	-0.11941803
138	0x3d51914f	0.051163968
139	0xbc2ca536	-0.010537436
140	0xbda4aa48	-0.08040291
141	0x3d2703dd	0.04077517
142	0x3d21c340	0.039492846
143	0xbc25029e	-0.010071425
144	0xbc3064a5	-0.010766183
145	0xbdbaab5c	-0.091147155
146	0xbda5fa31	-0.08104361
147	0x3c9d29c6	0.019184958
148	0x3b543d5b	0.0032385204
149	0x3dbbf633	0.09177818
150	0xbd7ba0d0	-0.06143266
151	0xbc375f58	-0.011192165
152	0xbd72ef7d	-0.059310425
153	0xbd699e40	-0.057035685
154	0x3c03370c	0.00800873
155	0xbdc32d4d	-0.09530125
156	0xbd79a56e	-0.06094878
157	0xbcc35bc2	-0.023847464
158	0x3d8930f1	0.06698788
159	0xbd689997	-0.0567871
160	0xbd1ba486	-0.0379987
161	0x3ced4f2c	0.028968416
162	0x3d232461	0.039829616
163	0x3c8c75ee	0.017146077
164	0x3db90633	0.090343855
165	0x3d6d951b	0.058003526
166	0xbc10656b	-0.008813242
167	0x3d30b102	0.043137558
168	0x3da4ae51	0.08041061
169	0x3d1aae42	0.03776384
170	0xbd5d3e6f	-0.05401462
171	0xbcc81a83	-0.024426704
172	0xbd54cb55	-0.051951725
173	0xbd3a4140	-0.045472383
174	0xbd734c59	-0.059398983
175	0x3d450336	0.048098765
176	0xbd75170b	-0.05983643
177	0x3c5e22d2	0.0135581065
178	0xbd329aa6	-0.043604515
179	0x3d4bcc5a	0.04975543
180	0xbd65fbe6	-0.056148432
181	0x3dc85b77	0.097830705
182	0x3db9ab29	0.09065849
183	0xbd81d43f	-0.06339311
184	0x3da98354	0.08277002
185	0xbd4ce7dd	-0.05002581
186	0x3cf4959a	0.029856492
187	0xbd287629	-0.04112831
188	0x3dd00285	0.101567306
189	0x3c815c25	0.015791008
190	0xbdb6fd38	-0.089350164
191	0x3c02dec2	0.00798768
192	0xbb82b800	-0.0039892197
193	0xbda856c7	-0.082196765
194	0xba15b86d	-0.00057113805
195	0x3db28aaa	0.08717854
196	0x3d621686	0.05519726
197	0x3ce23655	0.027613798
198	0x3d876bac	0.06612334
199	0x3d69c785	0.057075042
200	0x3d8c32ca	0.06845625
201	0x3d5084ab	0.050907772
202	0xbcad9a16	-0.021191638
203	0x3d0ce54f	0.034398373
204	0x3d8a4325	0.06751088
205	0xbbd32ae6	-0.006444323
206	0xbc8dfdde	-0.017332967
207	0xbdb2e9c1	-0.08735991
208	0x3da38cd5	0.07985846
209	0xbdc2b681	-0.09507466
210	0xbd942732	-0.072340384
211	0xbd337a53	-0.04381783
212	0xbca3ffa1	-0.020019354
213	0x3d8d7a9d	0.06908152
214	0x3b9aadd7	0.0047204304
215	0xbda71a1b	-0.08159276
216	0x3d1b2bbc	0.037883505
217	0x3d386a5f	0.04502332
218	0xbda80c49	-0.08205468
219	0x3d94b627	0.07261305
220	0xbdba0071	-0.090821154
221	0xbbef32b0	-0.0072997436
222	0x3db1ab5d	0.08675263
223	0x3d8b1007	0.06790166
224	0x3ca18d5d	0.019720728
225	0xbced8986	-0.02899624
226	0xbdc5b145	-0.09652952
227	0xbd149b39	-0.036280844
228	0x3d0081cf	0.031373795
229	0x3d40421b	0.046938043
230	0x3c467d18	0.012114786
231	0xbc8abb42	-0.016934995
232	0x3d2c8b00	0.04212475
233	0x3d89552c	0.06705698
234	0xbdc3e800	-0.09565735
235	0xbd122d4c	-0.03568773
236	0xbda49af0	-0.080373645
237	0xbd879c01	-0.06621552
238	0x3d8ae89d	0.06782649
239	0x3d8b0811	0.06788648
240	0xbd0b9720	-0.03407967
241	0xbc156d34	-0.009120274
242	0xbc6f89bd	-0.014620242
243	0xbdb2e9c8	-0.087359965
244	0x3d93622b	0.071964584
245	0x3c515678	0.012776963
246	0x3d392ff0	0.045211732
247	0x3daff50c	0.08591661
248	0x3c7121a5	0.014717494
249	0x3bf573f9	0.0074906317
250	0xbd61421c	-0.054994687
251	0xbd7e5276	-0.06209036
252	0x3d81bd7d	0.0633497
253	0xbc3f11a4	-0.011661921
254	0x3dbba560	0.09162402
255	0xbdc5a471	-0.09650505

a2c_network.actor_mlp.4.bias f4 [64]
0	0x3d7799ee	0.060449533
1	0x3d06f33a	0.032946803
2	0xbe107fb0	-0.14111209
3	0xbd94782e	-0.07249485
4	0x3d207126	0.039170407
5	0x3d3d76f9	0.04625604
6	0xbdeb59f4	-0.114917666
7	0xbe1c874c	-0.15285987
8	0xbe05c9de	-0.13065287
9	0x3d2da3dd	0.0423926
10	0xbd2a88ef	-0.041634496
11	0x3d31980a	0.043357886
12	0xbc9955a0	-0.018717587
13	0xbdb2a03a	-0.08721967
14	0xbe0a29f9	-0.13492574
15	0xbd7c60f7	-0.06161591
16	0x3d876a01	0.066120155
17	0xbe23935d	-0.15974183
18	0x3c813d14	0.015776195
19	0x3d8f9baa	0.070121124
20	0xbe10facc	-0.14158171
21	0x3c908094	0.017639436
22	0xbe160e7b	-0.14653961
23	0x3d3233fb	0.043506604
24	0xbd42bd7f	-0.047544
25	0x3d3f007c	0.04663132
26	0x3d9984da	0.074960425
27	0xbd33b8ff	-0.043877598
28	0x3db956ea	0.09049781
29	0x3cd181b5	0.025574544
30	0xbe0a1611	-0.1348498
31	0xbdea3cc9	-0.11437375
32	0xbdd9327c	-0.10605332
33	0xbd8daf05	-0.06918148
34	0xbd50dd37	-0.050992217
35	0xbd8e1548	-0.06937653
36	0xbd93171a	-0.07182141
37	0xbc6d7f8e	-0.014495743
38	0x3d4905a3	0.04907764
39	0x3cf184ea	0.029482324
40	0x3d05d0ab	0.032669704
41	0x3d4c2def	0.049848493
42	0xbe20dade	-0.15708491
43	0x3c2218d8	0.0098936185
44	0xbdb69aaf	-0.08916222
45	0xbe05a407	-0.13050853
46	0xbd0f4d66	-0.034985922
47	0xbcdc5cc5	-0.026899705
48	0xbb87b908	-0.0041419305
49	0x3d893b06	0.06700711
50	0x3ce414c4	0.027841933
51	0xbddb29a1	-0.107012995
52	0x3cca740c	0.024713539
53	0xbdae2583	-0.085032485
54	0xbd172c01	-0.0369072
55	0xbe2b6b12	-0.16740063
56	0xbd2b590d	-0.041832972
57	0x3c85adef	0.01631829
58	0xbc7f310c	-0.0155756585
59	0xbdfcca31	-0.123432525
60	0x3d67d5e0	0.05660045
61	0xbd3e0a2f	-0.04639643
62	0x3d81369d	0.06309245
63	0xbe225a72	-0.15854815

a2c_network.value.weight f4 [1, 64]
0	0x3d90d154	0.07071176
1	0x3bc7ecd3	0.0061012297
2	0xbd056ebe	-0.032576315
3	0xbc84b188	-0.016197935
4	0x3d01ea37	0.031717505
5	0x3daa2da8	0.083094895
6	0xbd0bdaec	-0.034144327
7	0xbdd4aa85	-0.103840865
8	0xbd00d6ba	-0.03145478
9	0xba24dbd0	-0.0006288858
10	0xbba8d293	-0.0051520555
11	0x3c5fb139	0.013653093
12	0x3bf58f6a	0.007493903
13	0xbcc140d5	-0.023590485
14	0xbd0eac4b	-0.03483228
15	0xbbd94ca7	-0.006631452
16	0x3cf1572d	0.029460514
17	0xbd871d53	-0.0659739
18	0x3cf78df8	0.030219063
19	0x3e082515	0.13295396
20	0xbd8adcbe	-0.067803845
21	0x3c5a4db3	0.013324189
22	0xbe064e8f	-0.13115905
23	0x3ddb2690	0.107007146
24	0xbb331ce6	-0.0027330457
25	0x3c782bed	0.0151471915
26	0x3cffab49	0.031209605
27	0x3a26c967	0.0006362409
28	0x3d9dfa0e	0.0771371
29	0x3dd1440b	0.10218056
30	0xbcb39804	-0.021923073
31	0xbc533335	-0.012890627
32	0xbc3212ec	-0.010868769
33	0xbc2526cd	-0.010080052
34	0xbb1f2a17	-0.0024286562
35	0xbc9470c8	-0.018120185
36	0xbbc9845b	-0.006149811
37	0x3b3d896a	0.0028921016
38	0x3dd18b4b	0.10231646
39	0x3ddb0be7	0.106956296
40	0x3bb879d7	0.005629759
41	0x3dadafe2	0.084808126
42	0xbda5d926	-0.080980584
43	0x3c67ff82	0.014160039
44	0xbd32e8f1	-0.04367918
45	0xbda7f874	-0.082016855
46	0xbc0ec98c	-0.008715045
47	0x3a1a7c18	0.0005893125
48	0xba890353	-0.0010453261
49	0x3e03ae81	0.12859537
50	0x3d3c754b	0.046010297
51	0xbcd9ae60	-0.026572406
52	0x3c2a40bc	0.01039141
53	0xbbd013df	-0.006350025
54	0x3b86197f	0.004092395
55	0xbd4d65aa	-0.050145783
56	0xbbeac0de	-0.007164105
57	0x3cabaff7	0.02095793
58	0xbbc7ae91	-0.006093808
59	0xbd94334b	-0.07236346
60	0x3cc4abc4	0.024007685
61	0xbb79f229	-0.0038138723
62	0x3cc02e77	0.023459656
63	0xbdc9b1f3	-0.09848394

a2c_network.mu.weight f4 [6, 64]
0	0xbd5b1a3d	-0.05349182
1	0x3cb217e7	0.021739913
2	0xbcdf752d	-0.027277553
3	0xbddb7d63	-0.10717275
4	0xbd45939d	-0.048236478
5	0x3c2c0b1b	0.010500695
6	0x3d0fc3a0	0.035098672
7	0x3d51e2d5	0.051241715
8	0xbe0318b0	-0.12802386
9	0x3b5359be	0.0032249535
10	0xbcfafc01	-0.030637743
11	0x3dbb0e8d	0.09133635
12	0xbd72ab64	-0.059245482
13	0xbaea63e1	-0.001788255
14	0x3c890b54	0.016729034
15	0x3c706622	0.014672788
16	0x3d610674	0.054937795
17	0x3d8c33f1	0.068458445
18	0x3d7f9f63	0.062407862
19	0x3dd51965	0.10405234
20	0x3d3a0d4e	0.045422845
21	0x3d039d3f	0.032132383
22	0xbe0de0c2	-0.1385527
23	0x3df9b474	0.12192622
24	0xbd81e5f0	-0.06342685
25	0xbd20ce7b	-0.039259415
26	0x3dad0cce	0.08449708
27	0xbc87dfd7	-0.016586227
28	0x3cc6f59e	0.024287041
29	0x3ccbd50b	0.02488186
30	0xbd1bf7a8	-0.03807798
31	0x3da2922f	0.079380386
32	0xbc6d009e	-0.014465479
33	0xbdc8338f	-0.09775459
34	0xbc1b170f	-0.009465947
35	0xbd1e93f4	-0.038715318
36	0xbcae20fa	-0.021255959
37	0xbdaaea52	-0.08345474
38	0xbd64a6b3	-0.05582304
39	0xbde85ce4	-0.113458425
40	0x3d33728c	0.043810412
41	0xbdd0945a	-0.10184546
42	0xbd6feaaa	-0.058573402
43	0x3b84c407	0.0040516886
44	0x3ccc8042	0.024963502
45	0x3d258c63	0.040417086
46	0xbd086087	-0.03329518
47	0x3d15be8e	0.03655868
48	0xbd45d5e4	-0.048299685
49	0x3ca4cfd0	0.020118624
50	0xbd1cdf7f	-0.03829908
51	0xbd1231ee	-0.035692148
52	0x3d35ec9b	0.044415098
53	0xbbfbf816	-0.0076894863
54	0x3d7b9ad6	0.06142696
55	0xbd0cc518	-0.03436765
56	0xbdc87ba9	-0.09789211
57	0x3d71f242	0.059068926
58	0x3cce291b	0.025166085
59	0x3d75c0f9	0.059998486
60	0x3da48c4b	0.08034571
61	0xbd79093b	-0.06079982
62	0xbdaee020	-0.08538842
63	0x3d63578e	0.05550342
64	0xbdb2b105	-0.0872517
65	0x3c100f88	0.008792765
66	0x3c821506	0.015879165
67	0x3c358060	0.01107797
68	0xbc4b3a7c	-0.0124040805
69	0x3c842246	0.016129624
70	0xbd8430ee	-0.06454645
71	0x3bbbc1c8	0.0057298876
72	0xbdebc0c7	-0.11511379
73	0x3da2db3a	0.079519704
74	0xbd680fda	-0.056655742
75	0x3ccb47ab	0.024814447
76	0xbdbab901	-0.09117318
77	0x3bec9928	0.007220406
78	0xbd458504	-0.048222557
79	0xbcaf5bda	-0.021406103
80	0x3ca8eb44	0.020619996
81	0xbd861033	-0.065460585
82	0xbdab3bd7	-0.08361023
83	0x3dbd9c80	0.09258366
84	0xbdcbf02f	-0.09957921
85	0xbca910d6	-0.02063791
86	0x3d8491ca	0.064731196
87	0x3cd77ee9	0.026305633
88	0x3d5df6d8	0.054190487
89	0xbcc67cda	-0.024229456
90	0xbce16773	-0.027515149
91	0xbd160a86	-0.03663113
92	0xbc7cfc08	-0.015440948
93	0xbdb9749b	-0.09055444
94	0xbd9c56be	-0.07633732
95	0xbd68175a	-0.056662895
96	0xbd478229	-0.048708115
97	0x3cf03360	0.029321373
98	0xbd55c0e8	-0.052185923
99	0xbd7d38af	-0.061821636
100	0xbd8be7f5	-0.06831352
101	0x3ac5d7ee	0.0015094259
102	0xbda07150	-0.07834113
103	0xbab77599	-0.0013996839
104	0x3a9d5aa0	0.0012005158
105	0x3bc83f42	0.0061110565
106	0xb7083794	-8.119172e-06
107	0xbd420998	-0.04737243
108	0x3d9811f9	0.07425303
109	0xba801154	-0.0009770789
110	0x3da6c353	0.08142724
111	0x3d53f3dc	0.051746234
112	0x3c95ed50	0.018301636
113	0x3df00329	0.11719353
114	0xbdfaf050	-0.12252867
115	0x3d3566a7	0.04428735
116	0xbd12b85a	-0.035820343
117	0xbd02ab7e	-0.03190183
118	0xbd2df9e6	-0.04247465
119	0xbb90d8bc	-0.004420368
120	0x3c59ac92	0.013285773
121	0xbcd08614	-0.025454558
122	0x3dde0b6d	0.10842023
123	0x3da178e4	0.07884386
124	0x3c52f24a	0.012875149
125	0xbd3694b7	-0.04457542
126	0x3d948091	0.072510846
127	0xbde74b1f	-0.11293625
128	0xbd2b3ceb	-0.041806143
129	0x3c3d20b3	0.011543441
130	0xbd5ed049	-0.054397855
131	0x3d9cc66c	0.076550335
132	0xbd107320	-0.03526604
133	0x3db00c30	0.085960746
134	0x3d87e144	0.06634763
135	0x3daf1ceb	0.085504375
136	0x3d8e83ac	0.06958708
137	0x3c9c006d	0.019043172
138	0xbce63c0b	-0.028104803
139	0x3d76ffdc	0.0603026
140	0xbcd802eb	-0.026368579
141	0xbd830466	-0.06397323
142	0x3db2c6ba	0.0872931
143	0x3d8fa76c	0.07014355
144	0x3ddbd109	0.1073323
145	0x3caa61fa	0.020798672
146	0x3d9683e0	0.07349372
147	0x3bcf17ba	0.006319967
148	0x3c116f20	0.008876592
149	0xbe0329e9	-0.12808956
150	0xbd3aff4e	-0.045653634
151	0x3c618669	0.013764956
152	0xbd130a40	-0.035898447
153	0xbe0500f0	-0.12988639
154	0xbdca18ea	-0.09868033
155	0xbd84c46a	-0.064827755
156	0x3d5e715c	0.054307327
157	0xbc9c2530	-0.019060701
158	0x3cc0cf8b	0.023536464
159	0xbc97385c	-0.018459491
160	0x3d5ed9af	0.054406818
161	0x3d6c8e2d	0.057752777
162	0xbcf5cce3	-0.030004924
163	0xbd0acd88	-0.033887416
164	0x3c52b61e	0.012860803
165	0x3ca01f72	0.019546244
166	0x3d0a5891	0.03377587
167	0xbb88ac6b	-0.0041709444
168	0x3c8691fb	0.01642703
169	0xbdb5341d	-0.088478304
170	0x3d794bf7	0.06086346
171	0x3cd4ace2	0.025961343
172	0x3dd2b329	0.10288078
173	0xbdc8d1e5	-0.09805659
174	0x3cd6b78b	0.026210567
175	0x3d6d7118	0.057969183
176	0xbd5ac250	-0.053407967
177	0x3bb6a47c	0.0055738073
178	0x3c2fcf30	0.01073055
179	0x3d8ab192	0.0677215
180	0x3cdd5a1c	0.027020507
181	0xbd3c1987	-0.045922782
182	0xbd595a22	-0.053064473
183	0x3c62e1b8	0.013847761
184	0x3d63537e	0.055499546
185	0x3dcff092	0.10153307
186	0x3dc129d0	0.09431803
187	0xbc6e1e3b	-0.014533575
188	0xbd8c301c	-0.06845114
189	0x3d2eacd6	0.042645298
190	0xbd928a33	-0.07155266
191	0x3d7d2562	0.06180323
192	0x3d92b966	0.07164268
193	0xbd16a79b	-0.036780935
194	0xbccac58f	-0.024752406
195	0x3db1dae4	0.08684328
196	0x3ca05b81	0.019574882
197	0x3cbbae47	0.02291025
198	0x3c1b543d	0.009480533
199	0x3e10553f	0.14095019
200	0x3dba07e7	0.090835385
201	0xbae89f74	-0.0017747716
202	0x3d5c397d	0.053765763
203	0x3d872dac	0.06600508
204	0xbdadc85d	-0.08485482
205	0xbda9cd79	-0.08291144
206	0x3d48b294	0.04899843
207	0x3d182a15	0.037149508
208	0x3ba0b1d7	0.0049040127
209	0x3dd5c536	0.104380056
210	0xbda73133	-0.08163681
211	0x3dbbd16b	0.09170803
212	0x3c17564f	0.009236886
213	0xbd8fd54a	-0.070231035
214	0x3d3eafaa	0.046554245
215	0x3d1cf34a	0.038317956
216	0x3d8e866c	0.06959233
217	0xbbd34694	-0.0064476226
218	0xbdc12f09	-0.09432799
219	0x3d857c23	0.06517818
220	0x3daf4018	0.08557147
221	0x3d701d34	0.0586216
222	0xbc03f8b6	-0.008054903
223	0x3a7d5794	0.0009664234
224	0x3d54236f	0.051791605
225	0x3c9d8b5d	0.019231493
226	0x3c9947e7	0.018711044
227	0x3dcbe7f7	0.09956353
228	0xbdc2639c	-0.09491655
229	0xbdf570e4	-0.11984423
230	0xbd4c9c4a	-0.049953736
231	0xbd559496	-0.052143656
232	0xbc9fdcb4	-0.01951442
233	0x3cfefdfa	0.031126965
234	0x3e26b398	0.16279447
235	0x3db48c17	0.088157825
236	0x3bd69f82	0.0065497765
237	0x3e0fef7e	0.14056203
238	0xbab81d69	-0.0014046851
239	0xbdc9cc1a	-0.098533824
240	0xbb7d744b	-0.0038674052
241	0xbdedbffa	-0.11608882
242	0xbc53d98d	-0.012930286
243	0x3d38ad74	0.045087293
244	0x3cc6a31e	0.024247702
245	0xbd555b4c	-0.05208902
246	0x3c8b46dd	0.017001564
247	0xbc577291	-0.013149873
248	0xbd816403	-0.06317904
249	0x3e027bcf	0.12742542
250	0x3d5571f0	0.052110612
251	0xbd5a2949	-0.05326203
252	0x3d4bd5ab	0.049764317
253	0x3daa6aeb	0.08321174
254	0x3cf22280	0.029557467
255	0x3cac9488	0.021066919

a2c_network.mu.bias f4 [6]
0	0x3cdff581	0.027338745
1	0x3d538525	0.05164065
2	0xbc9076ad	-0.017634714
3	0xbae11094	-0.0017171078
4	0x3d571edd	0.052519668
5	0xba4217db	-0.00074040674

exp_avg f4 [6]
0	0xbb590443	-0.0033114112
1	0x3c126875	0.008936037
2	0x3acdaab4	0.0015691132
3	0xbad7b638	-0.0016457504
4	0xbaee8147	-0.0018196487
5	0xbb4c4fe9	-0.003117556

exp_avg_sq f4 [6]
0	0x3acc8262	0.0015602822
1	0x3ad18113	0.0015983902
2	0x3ad7c7bd	0.0016462725
3	0x3abbeca0	0.0014337488
4	0x3abba351	0.001431564
5	0x3abc8339	0.0014382369
