IsaacGymEnvs/isaacgymenvs/runs/Bolt-18-12-2023_18-16-17-36/nn/last_Bolt-18-12-2023_ep_800_rew_0.4825447.pth (torch, 612972 bytes, 36 tensors)

value_mean_std.running_mean f8 [1]
000000 d0 7d 72 48 f1 b5 ca 3f
       0.20867744481527817

value_mean_std.running_var f8 [1]
000000 76 e5 3d ee c5 cb 9d 3f
       0.029097645441173957

value_mean_std.count f8 []
000000 00 00 00 00 01 c0 32 41
       1228801.0

running_mean_std.running_mean f8 [30]
000000 f6 40 90 1e 75 f1 a0 bf ec 52 39 19 9f 06 9a bf
       -0.03309217451180928 -0.025415883936449044
000010 5b dc 12 01 8f a0 c1 bf 96 49 97 2e 53 70 9c 3f
       -0.13771235992837458 0.027772235602080274
000020 36 2b a7 7b 61 d9 c7 3f 97 98 7b cf bc f9 bc bf
       0.18632143533462803 -0.11318569245813347
000030 69 54 be 87 1a 0b 96 3f d7 5f dd 7c db dd a0 3f
       0.021526732001423108 0.03294263743617847
000040 7d 61 2b f4 e3 08 dd bf 7b 4e 43 01 29 b7 aa 3f
       -0.45366762966798274 0.05217865124145945
000050 ab 91 07 0a 09 4b 80 3f 62 0d b8 81 4a 1d 6a 3f
       0.007955618494585112 0.0031877951821585463
000060 7b 76 59 6a b2 c3 99 bf ae c2 ca c0 6a e0 ac 3f
       -0.025160587063842926 0.05639966586511967
000070 34 db 3e 08 35 13 a7 3f 2e b3 33 b7 7e c9 bd bf
       0.04506841397908659 -0.11635581944183279
000080 06 22 c8 90 94 79 a9 bf 3d b4 70 d5 3e a1 a6 3f
       -0.04975570933681088 0.04419895511123471
000090 c0 5c 06 1a 71 b7 82 bf 85 23 1e f2 d3 03 73 3f
       -0.009138949972835042 0.004642322457478869
0000a0 a7 65 08 66 31 50 88 3f 14 91 3f 64 5e 3b 90 3f
       0.011871705938619593 0.015851473683043585
0000b0 0d d9 85 5d b0 1e 83 bf ec 0a e9 b9 53 fa 85 bf
       -0.009335878233042405 -0.010731367217095188
0000c0 38 c4 5f af 56 a3 ad bf b6 60 37 14 3c c3 c0 3f
       -0.057886799724549964 0.13095808970570538
0000d0 5c bb 37 c4 11 ef c1 3f ca 87 a0 26 30 b8 cb bf
       0.14010831910078536 -0.2165584744080305
0000e0 88 b6 66 90 6f 51 bf bf fb 1e 62 1d 34 47 b1 3f
       -0.1223363616506622 0.06749273030629503

running_mean_std.running_var f8 [30]
000000 84 57 6b 64 85 c7 03 40 13 8e 72 67 5a 01 f4 3f
       2.472422394300283 1.2503303566853716
000010 5c 87 ac 24 2c 58 01 40 84 69 d6 7b 2a c2 fe 3f
       2.1680529465819927 1.9224037969021035
000020 f2 df fe 27 6f 78 0c 40 f9 51 20 20 3a 55 e6 3f
       3.558805763688718 0.697903692957481
000030 65 c7 ce 7d 63 51 cf 3f 67 13 3c 29 0a 7a c2 3f
       0.24467128413158004 0.1443493558255355
000040 f3 12 ed c5 c1 ed db 3f eb c8 39 c2 df 78 13 40
       0.43638653115003406 4.868041071679026
000050 d3 21 e8 29 bc 8e f5 3f d2 e8 f9 c1 e5 d4 95 3f
       1.3473474156363536 0.02131995197712728
000060 2e d9 ad b4 28 e8 be 3f f8 e4 a4 6b ec 66 c0 3f
       0.12072996531592103 0.1281409764867829
000070 2b 6c 49 c8 18 42 c0 3f 19 2d 25 83 d6 76 bc 3f
       0.1270171144450115 0.11118832303798278
000080 ec b2 66 3e df 57 c2 3f c4 da 7d b2 ab 27 c1 3f
       0.14330664202625287 0.13402315345202542
000090 2e 3a 5d ee 50 f3 c0 3f fe 79 eb 8c 62 00 c1 3f
       0.13242541922450485 0.13282424813128552
0000a0 4c dd f2 a0 f1 b5 c1 3f 1f 7d 41 6a be 2d c2 3f
       0.13836498602698055 0.14202099025985945
0000b0 fa b6 f3 e1 97 bd bf 3f 60 73 7f 97 81 a5 c2 3f
       0.12398671404272568 0.14567584893566288
0000c0 a7 c9 5f 47 f4 72 e8 3f f8 dc cf a3 ae aa e8 3f
       0.7640324968363544 0.7708352279140902
0000d0 ef 4e 34 61 4d 03 e7 3f b1 55 7b 50 65 e4 e6 3f
       0.7191531084558543 0.7153803417119687
0000e0 47 6c 3e d3 21 f5 e9 3f 48 48 f9 47 33 a3 e8 3f
       0.811173355661034 0.7699219136941418

running_mean_std.count f8 []
000000 00 00 00 00 02 c0 22 41
       614401.0

a2c_network.sigma f4 [6]
000000 0a e9 f1 bd 1e a0 e4 bd 7f c0 dd bd 0a d0 cf bd
       -0.11812027 -0.111633524 -0.10827731 -0.10147102
000010 ba 78 9b bd 8f f5 0b 3e
       -0.07591386 0.13667892

a2c_network.actor_mlp.0.weight f4 [256, 30]
000000 4f 93 65 3e 1a f2 68 be b0 cb 71 3e 1d 67 c5 bd
       0.22419475 -0.22748604 0.23612857 -0.09638808
000010 0d b2 0c bc 92 0c f6 3d 40 ef 22 3e ee 3f e3 3d
       -0.0085873725 0.12014116 0.15911579 0.11096178
000020 cf 3e c6 bc 2f 0d 98 be 03 f9 7d 3e 0c b8 6c bc
       -0.024199871 -0.29697558 0.24802022 -0.014448177
000030 36 4b ef 3c 7d 3a 21 3e d0 ee 0d 3e 7d 04 52 bc
       0.029210668 0.15744968 0.13860631 -0.012818453
000040 5b fe 4b bc c1 ea 10 3c c1 b7 b5 3c 63 c2 a7 bd
       -0.01245078 0.008845032 0.022182347 -0.08191373
000050 ff 94 58 be a6 04 31 bd 58 0e 24 be 00 d4 08 3e
       -0.21150587 -0.043217324 -0.16021097 0.13362122
000060 5f e5 ed bd 14 48 7b 3d 7a 1f 7e 3d f6 99 b0 3d
       -0.11616015 0.061348036 0.062041737 0.08623116
000070 7a 71 40 3d 2c e8 5c be 18 03 54 3e 21 65 61 be
       0.04698322 -0.21572942 0.20704305 -0.22011234
000080 d6 f7 2f 3e 81 23 89 bc 74 3a cd 3d 9c c1 24 bc
       0.17184386 -0.016740562 0.10020915 -0.010055926
000090 97 7c f1 3d 2e 5f dc bd 73 a8 8f be c7 c1 8f be
       0.11791342 -0.107603416 -0.28058204 -0.28077528
0000a0 45 a6 64 3e 8c 8c 50 3c 45 47 7b 3d f8 67 28 be
       0.22329052 0.0127288215 0.061347265 -0.16445911
0000b0 41 3c 0c be 5b 6c b4 bd b7 5b 0e be 55 51 a8 3d
       -0.1369486 -0.0880973 -0.13902174 0.08218638
0000c0 36 03 09 3d dd 8a da 3d 47 45 0d be fd ba 06 be
       0.033450328 0.10671017 -0.13795958 -0.13157268
0000d0 e8 91 d5 3d e9 04 f8 bd b0 8f 1c 3b f6 42 19 bd
       0.1042822 -0.121103115 0.0023889355 -0.037417375
0000e0 ed ac 2b 3e 97 4d ab bd b2 1f f9 bd 97 43 9b 3c
       0.16765185 -0.083644085 -0.121642485 0.018953128
0000f0 bc 89 54 3e 95 ac fa bd 35 22 9a 3e a2 78 41 3d
       0.20755666 -0.12239949 0.30104223 0.047234185
000100 a8 d3 87 be 23 f7 f4 bd b4 d4 56 3e 4e 53 f7 bd
       -0.26528668 -0.119612 0.20979577 -0.12076436
000110 6b fb 98 bb 37 de d3 be fc 0e db bd 49 15 36 3d
       -0.004668643 -0.41380474 -0.106962174 0.044453893
000120 9d 77 37 bd c3 38 2e be 93 51 86 bd 18 2a 20 be
       -0.044791806 -0.1701384 -0.06558528 -0.15641057
000130 96 0f 68 be d5 36 5a bd 1d d9 00 bd a2 20 24 be
       -0.22662196 -0.05327495 -0.031457055 -0.16028073
000140 a8 d1 1c 3e 1a 1d 2e 3c 01 4e 92 bc 7d 78 ed bd
       0.15314353 0.010627056 -0.01785946 -0.11595247
000150 ed c6 a5 bd 5a f8 b2 bc 06 62 d9 3a 8d 3a 31 be
       -0.08094583 -0.021846939 0.0016584999 -0.17307492
000160 02 1e 10 be fd a9 3d bc 0c 2d 26 3d 37 fa 3e be
       -0.14073947 -0.011576173 0.040570304 -0.18650137
000170 6b f8 b7 3b e0 8c 9b be 48 2e 13 be 74 f1 22 be
       0.0056143305 -0.30380917 -0.14373124 -0.1591242
000180 b9 60 e1 3c cc 70 a7 be 0f dc b9 3e 68 66 1d bd
       0.027511941 -0.32703245 0.36300704 -0.03842774
000190 d3 10 8b 3e a1 a1 73 3d a5 bd 49 be c6 2a 0f 3e
       0.27161273 0.059480313 -0.1970125 0.1398116
0001a0 91 ea 00 bc b6 ae d0 bd de fa 2f be 43 46 26 be
       -0.007868425 -0.101895735 -0.17185542 -0.1623774
0001b0 a6 1a 6e bc 2f a2 d1 bd ee 10 d5 3b 1f 31 32 be
       -0.014532721 -0.10236012 0.0065022623 -0.1740155
0001c0 5d 93 97 3d eb 3d cc bd ef 6b f4 bd ba 0f 93 3c
       0.07401154 -0.099727474 -0.11934649 0.017951835
0001d0 16 1b e7 3d 9f 45 88 3d 76 a4 02 3e 0c bf bf bd
       0.11284463 0.06653904 0.1275805 -0.09362611
0001e0 84 82 a6 3d 8f 45 27 be 9b ce 59 3d 78 58 c5 bd
       0.08130363 -0.16335128 0.05317555 -0.09636015
0001f0 b3 a8 84 3e 96 8d ea bd 54 a7 13 3e 40 28 d3 3c
       0.25909957 -0.114527866 0.144193 0.025776029
000200 bb 73 4a 3d 70 48 f0 be 29 e7 8e 3e 93 68 cc 3c
       0.049426775 -0.46930265 0.27910736 0.024952209
000210 1a bc 98 bc a2 cb 0d be 3e c5 fd 3d 22 fd 99 bb
       -0.018644381 -0.13847211 0.123911366 -0.0046993652
000220 5f 97 ea bd ba 95 39 3e ff b5 23 3d d5 e1 4a bd
       -0.11454653 0.18123522 0.039968487 -0.049531776
000230 b3 cf ab bd 1a 7d 8d bd 15 0b 8c 3d 11 16 62 bc
       -0.08389225 -0.06908627 0.06838051 -0.013799206
000240 63 ff 65 be 3a 05 b0 bc 89 ce e4 bd a9 ab 94 3d
       -0.22460704 -0.021486867 -0.11172206 0.07259304
000250 be 58 e2 3d ab 34 3c be 97 22 a2 3d c8 cb d3 3d
       0.110520825 -0.18379466 0.07916754 0.103416026
000260 f0 ca 88 3d 5a 5f 71 bd 91 41 8f 3e c1 cf c8 3d
       0.06679332 -0.058928825 0.2797971 0.09805251
000270 dc ea d0 3d f6 82 83 bd 84 97 1c be 1c 3c c6 3d
       0.10201046 -0.06421463 -0.15292174 0.09679434
000280 06 bf 10 be 55 01 15 bd 9b de 99 3d e0 41 08 3e
       -0.1413537 -0.036378223 0.07513162 0.1330638
000290 7a 39 14 3e b7 f8 e0 3d 2b cd 32 bd e7 24 b2 bd
       0.1447505 0.109849386 -0.043652695 -0.08698445
0002a0 17 e8 e9 3d fa d9 45 3d 80 e8 de bd 4d 0d 11 bd
       0.11421221 0.04830358 -0.108841896 -0.035413075
0002b0 e9 89 36 3e 7f 14 ac 3d 2b d2 99 3b 80 1d 5c be
       0.17826046 0.08402347 0.0046942434 -0.21495628
0002c0 3b 39 8e bd e1 54 21 bd a8 f4 f6 bd a1 60 d8 bc
       -0.069445096 -0.039387587 -0.12058383 -0.026413264
0002d0 86 f4 f5 3d 9a 10 51 3e 17 7c 8a be a6 69 88 be
       0.1200953 0.20416489 -0.27047798 -0.26643103
0002e0 f2 db a6 bd df 7a 01 3e 4f fb 04 3e 83 46 be bd
       -0.0814742 0.12644528 0.12986492 -0.09290793
0002f0 6b d4 68 3e 58 45 c9 3d e5 26 a3 be a5 20 dc 3d
       0.22737281 0.098276794 -0.31865612 0.10748414
000300 d1 2d 10 be 96 cb 1d 3c 83 2c 77 be ad f0 d4 3d
       -0.14079978 0.009631058 -0.24138074 0.10397468
000310 fd 75 01 3e f4 c1 cc 3d dd e1 02 be d0 e7 b1 bd
       0.12642665 0.09997931 -0.12781473 -0.08686793
000320 14 35 03 be d6 67 3a 3e 64 a8 28 bd 10 ef c4 3d
       -0.12813216 0.18203673 -0.041176215 0.0961591
000330 cf d8 80 3d 64 40 d0 3d ad 25 33 3c 53 7f fe bd
       0.06291353 0.101685315 0.010934276 -0.12426629
000340 54 f2 3b be b1 e7 2f be 70 06 b5 bd 9a 79 92 be
       -0.1835416 -0.17178227 -0.088391185 -0.286084
000350 8c 4a ef bc 29 cc 0a 3c ca b2 d7 3b da fd 20 be
       -0.029210351 0.008471527 0.0065825926 -0.15721837
000360 e7 6c 19 bd 3d fc 21 3e 30 c6 96 bd 62 d7 59 3e
       -0.037457373 0.15818878 -0.0736202 0.21273568
000370 84 02 b3 3d 70 19 a7 bd a2 b7 e7 bd 4a d4 07 be
       0.08740714 -0.08159149 -0.11314322 -0.13264576
000380 f9 04 06 be d1 9f 20 be 5b 92 72 3d 1e 51 5a bd
       -0.13087834 -0.15685965 0.059221607 -0.053300016
000390 c1 57 9d 3c 31 c0 a9 bb 2e e5 b3 3d 07 f9 0d be
       0.019206883 -0.0051803817 0.08783947 -0.13864528
0003a0 0d d5 40 3e fc d2 9e bd a4 4c 50 3c cb 98 02 3e
       0.18831272 -0.07755086 0.012713585 0.12753598
0003b0 b6 09 3c bd 78 e3 46 3d d2 ab 5e bd 78 0b 89 bd
       -0.0459077 0.048556775 -0.05436308 -0.066916406
0003c0 f2 4b 4f 3e 40 c2 89 be aa 9f 10 3e ef e8 77 3e
       0.20243815 -0.26906013 0.14123407 0.24209951
0003d0 38 f5 89 3e 5e b1 e7 bb b1 94 8c be e0 ab a4 3d
       0.269449 -0.0070707044 -0.27457193 0.08040595
0003e0 1f 3c 6e 3e b9 d3 d4 be 9b 1c 11 3c c8 33 c1 bd
       0.23265122 -0.41567782 0.008856918 -0.094337046
0003f0 db a6 92 bc 35 df a1 bd ba 4c 2a bd 94 1b 15 3d
       -0.017901829 -0.079039015 -0.04157708 0.036403254

a2c_network.actor_mlp.0.bias f4 [256]
000000 0a c7 aa 3d 6c 34 0d 3e 7a 37 b5 bd d0 56 b8 bc
       0.08338745 0.13789529 -0.08848472 -0.022502333
000010 9a ca 93 3d 9a 66 e8 bc ab 32 95 3d 3b 8e 20 3e
       0.072163776 -0.028369237 0.07285055 0.15679257
000020 57 9f c5 bc b2 1d aa bc a4 db 0e 3d 8e d1 93 3d
       -0.02412383 -0.020766113 0.034877434 0.07217704
000030 74 eb ec bd 9d 39 e0 3c dd ba af 3c 80 b5 1a bb
       -0.115683466 0.027371222 0.021451408 -0.0023606718
000040 a3 61 ef bd e9 c7 76 bb 2c cd 82 3d 5f 2b cc 3c
       -0.116885446 -0.0037655777 0.0638679 0.024923025
000050 dd 1f 15 bc d5 82 95 bd c1 e1 b0 3c da 57 7e bc
       -0.009101835 -0.07300345 0.021592023 -0.015523875
000060 cd 14 2c 3e 0d 47 f0 3d 4a 6c 01 3d c4 e6 89 3d
       0.1680481 0.11732302 0.031597413 0.06733468
000070 da f3 59 bd 85 af da bc 9f c0 e6 bc 5e 5e c2 bb
       -0.05321107 -0.026695022 -0.02816802 -0.0059316596
000080 2d d6 86 bd 4c aa d4 bd e5 e6 d5 3d b0 48 1e 3e
       -0.065838195 -0.10384044 0.1044443 0.15457416
000090 e6 3f 01 bd fa e1 7b bd 24 72 89 3d eb f6 b7 3d
       -0.03155508 -0.061494805 0.06711224 0.08982643
0000a0 7e 60 2e 3d 6a aa 60 3b 39 5e a5 bd 22 ed 99 3d
       0.04257249 0.0034281262 -0.08074612 0.075159326
0000b0 4d 68 ff 3d 7f 1f 16 3c a2 60 92 3d 03 e7 c5 3d
       0.12471066 0.009162783 0.071473375 0.096632026
0000c0 ff ae 3b 3e 54 1b 33 be e6 d6 25 bd cb f3 07 bd
       0.18328474 -0.17490894 -0.040488146 -0.033191483
0000d0 29 df 90 3c c1 72 11 3d 64 12 03 bc eb 58 ad 3d
       0.017684536 0.03550983 -0.00799999 0.084642254
0000e0 a0 8d 49 be 0e 90 d0 3d 6a 11 d4 3d 59 de 09 3c
       -0.19682932 0.10183726 0.10354884 0.008414828
0000f0 c9 ed 88 bb c3 b2 6b 3d af e9 58 bd 9c 24 16 be
       -0.004178737 0.057543527 -0.052957233 -0.14662403
000100 04 d6 29 3c 16 d6 f1 bd e0 06 9e 3d 83 c0 a0 3d
       0.010365967 -0.11808412 0.07716155 0.07849219
000110 7e 1f 28 bd c3 5f 04 3e e7 1f 8d 3c f1 ba f3 3c
       -0.04104566 0.12927155 0.017227126 0.029752227
000120 84 4e 9b 3d 86 86 76 bd 6b 56 f8 3d cf 36 d2 3d
       0.07583335 -0.060186885 0.12125858 0.1026436
000130 3f 18 05 bd a8 8e cc 3b f0 ee 0b 3e cd b0 ea bd
       -0.032493826 0.006242592 0.13665366 -0.11459503
000140 b5 b3 4b 3d 37 b3 03 be 63 5d ba bb f0 c7 8a bd
       0.04973193 -0.12861334 -0.005687402 -0.06776416
000150 85 25 a3 bc 91 f4 ce bd f5 e6 cb bd ba c2 ef bd
       -0.019915352 -0.10105241 -0.09956161 -0.11707063
000160 1d 0b ab bd 00 a5 1b bd f3 47 28 bd a6 f2 97 3d
       -0.08351729 -0.037999153 -0.04108424 0.074193284
000170 cc d5 5e 3d 61 48 43 bd 4f 70 c2 3d 8f ed 04 3e
       0.05440311 -0.047676448 0.094940774 0.12981246
000180 1c f5 19 3e a1 1e 5c 3d a6 77 9d 3d eb a0 25 bd
       0.15034908 0.053740148 0.07688837 -0.040436666
000190 f1 86 a5 3c d6 4c 4f bd 07 67 e4 3d b9 d2 07 3e
       0.020205947 -0.050610386 0.111524634 0.13263978
0001a0 40 b8 c1 bd 76 7b a1 bd a1 cf ab 3c e1 12 a2 3d
       -0.09458971 -0.078848764 0.020973029 0.07913757
0001b0 fb ac 1f 3c 53 7d 1f 3e 96 02 83 3a 6c d6 db 3d
       0.009745832 0.15575151 0.0009995278 0.10734257
0001c0 63 82 f3 3d 5e 1a 24 bd 76 9c 22 3e a2 61 b2 bd
       0.11890104 -0.04006421 0.15879998 -0.08710028
0001d0 5d bc 04 be 60 f6 17 bd e5 8a 4b 3d 04 ab 93 3a
       -0.1296248 -0.037100196 0.049693007 0.0011266177
0001e0 47 13 8a 3d 2b 4d 31 3d 6f 5f 3e bd 0d 57 c1 3d
       0.06741958 0.043286484 -0.04647773 0.09440432
0001f0 0d c1 06 3d 06 28 cb bc 49 58 06 bd 15 6b 61 3d
       0.03289895 -0.024799358 -0.03279904 0.055033762
000200 a3 bd 97 bb 16 58 c0 3d 0b fd 33 bd 9f 25 df 3d
       -0.0046307608 0.09391801 -0.043942492 0.108958475
000210 53 1d f9 bd 29 bd 5a bd 3b 7c a8 bd 3e 74 cb 3c
       -0.12163796 -0.053403053 -0.0822682 0.024835702
000220 bd a6 a4 3b 53 8e 0f bd e7 fb e8 3d ab 20 b7 3d
       0.0050247596 -0.03504784 0.113761716 0.08941778
000230 8a 4b 0a 3d 74 68 fc 3d 55 1b 31 be 57 a3 e1 bd
       0.033763446 0.1232461 -0.17295583 -0.11017483
000240 ff b9 12 bd 0c 93 22 bd 4e d8 eb 3a 94 b9 d3 bd
       -0.03582191 -0.039691016 0.0017993541 -0.103381306
000250 30 c3 4e 3d 73 71 47 bd 10 09 44 3d 5f 79 57 bd
       0.050479114 -0.048692178 0.047860205 -0.052605983
000260 37 3b 71 bc ca b1 02 3e 49 8b 04 3e a9 df a4 3c
       -0.014723591 0.12763134 0.12943758 0.02012618
000270 60 44 4b 3d 2e bb a3 bd 3f 39 5d 3d 4c 22 78 3d
       0.049625754 -0.07994686 0.054009672 0.060579583
000280 9c ff 1f 3d 47 40 59 3d 27 50 5b bd 04 32 92 bc
       0.039062127 0.053039815 -0.053543236 -0.017846115
000290 8a 47 fc bd d0 11 fe bd 32 95 3b 3d f7 1b 6e bd
       -0.123183325 -0.12405741 0.04579658 -0.058132138
0002a0 56 93 54 bb 12 85 b5 3d c3 90 e5 bc ba 08 42 bd
       -0.0032436452 0.08863272 -0.02802313 -0.047371604
0002b0 c3 ca 97 3d 58 27 1b be c1 a9 e3 3d d6 06 ee bd
       0.074117206 -0.15151727 0.11116362 -0.116223976
0002c0 b2 67 86 3d 9c 20 e2 bc 39 0c e1 bd 9d 2f 0e 3d
       0.06562747 -0.02760344 -0.109886594 0.034713376
0002d0 ca 4d 79 3c 2c fc 2b bd 02 00 cb bd 1f aa 1b 3d
       0.0152163 -0.041988537 -0.09912111 0.038004037
0002e0 35 99 23 3e 2a 8e a0 bd ab 69 b1 bd 30 91 00 3d
       0.15976413 -0.07839616 -0.08662733 0.03138846
0002f0 8b b3 91 bd 99 7b d7 3c 46 21 87 bc 7d 3a 96 3c
       -0.07114323 0.026304053 -0.016495358 0.018338436
000300 77 fd 3d bd a2 17 90 3d 42 69 88 bd ec 1f a9 3b
       -0.0463843 0.070357576 -0.06660701 0.005161276
000310 47 ee 8d 3d 2f 1f 2e bd 02 b0 06 3d 13 ec 7a bd
       0.069302134 -0.042510208 0.032882698 -0.061260294
000320 a0 ed 39 bd 5f 5d b9 3d 83 ca 37 bc df b2 bd 3d
       -0.045392632 0.09051012 -0.011217716 0.092626326
000330 61 44 64 bd 27 18 19 be e5 65 5c 3d 8a b9 04 be
       -0.055729274 -0.1495062 0.05380811 -0.12961403
000340 b8 21 a2 bd b9 f5 74 3d fb e7 ef bb 00 34 4c bd
       -0.079165876 0.059804652 -0.0073213554 -0.04985428
000350 53 ed 09 3c 3e e5 87 bb e3 22 92 3b 7a ce 87 bd
       0.008418399 -0.004147201 0.004459725 -0.06631179
000360 fc 02 aa 3d 3c ea f0 3c 25 49 ae 3c bf 22 31 3d
       0.083013505 0.029408567 0.021275112 0.043246027
000370 82 ce 84 3d 01 9b ff bd a8 95 87 3d 84 1b cc 3d
       0.06484701 -0.124807365 0.066203415 0.09966186
000380 06 5a 32 bc f7 72 11 be 87 04 ef 3d db 60 9f 3d
       -0.010885721 -0.14204012 0.116707854 0.077821456
000390 4d b9 32 bb e7 a7 1d 3e c0 d8 14 3e 2f 18 da 3d
       -0.0027271092 0.15396081 0.14535809 0.10649144
0003a0 53 56 0a bc be 31 e9 bc b2 ba a0 bd a2 38 56 3e
       -0.008443433 -0.028466102 -0.07848109 0.20920041
0003b0 f6 fe 5d 3d 72 3c b4 bd c6 f2 40 bd 89 80 0b 3d
       0.054198228 -0.088005915 -0.047106527 0.034058128
0003c0 e8 87 e0 bc 6a 0b 16 bc 48 26 a4 bd 8e 28 7b 3c
       -0.027408555 -0.009157995 -0.08015114 0.015329493
0003d0 39 ea 69 3d 85 3c 10 bb 7a 3d 6b 3d 7d f5 10 be
       0.057108138 -0.0022008729 0.057431675 -0.14156146
0003e0 c8 66 f5 bc 7a b9 9a bd a4 ea 15 bd 03 67 cf 3d
       -0.029956236 -0.07554908 -0.036600724 0.1012707
0003f0 ef 65 2f 3e a3 41 c9 3c 57 cf 28 bc 78 6b cc bd
       0.17128728 0.02456743 -0.01030334 -0.099814355

a2c_network.actor_mlp.2.weight f4 [128, 256]
000000 63 c9 4e 3e 6a bc 43 bc 2d db 33 3c b6 bf 5a bd
       0.2019401 -0.011946777 0.010977549 -0.053405486
000010 1e 60 14 bd 68 a5 61 bd e8 3d d4 bd 1a e5 39 be
       -0.036224477 -0.055089384 -0.1036337 -0.18153802
000020 5f 89 65 bd 9f 57 62 bd 8d a6 8c ba f6 3d 9f bd
       -0.05603921 -0.055259343 -0.0010730788 -0.0777549
000030 a5 8f b5 bd ec d5 57 bd bc e4 33 be 6a 8d 0a bd
       -0.08865289 -0.052694246 -0.17567724 -0.03382627
000040 3b 16 15 bd a3 f3 d5 bd 7c ce bc 3c ef 3a 38 be
       -0.036398154 -0.10446861 0.023047678 -0.17991231
000050 b4 65 36 3d 93 1a 39 3d 5b b4 ee bd e6 ff cb ba
       0.044530585 0.04519136 -0.11655494 -0.0015563935
000060 4f 7e cc bd 2c b0 3b bd 87 30 54 3c c6 75 1f be
       -0.09985029 -0.045822307 0.012951023 -0.15572271
000070 ca 52 37 3d cc a3 b1 3d b7 7c 7b bd 1e dc 1d be
       0.04475669 0.0867382 -0.061398234 -0.15416
000080 ed 50 f5 3d e8 5b ae bd d7 51 bc 3b 2e b6 67 bc
       0.11978326 -0.085136235 0.0057470608 -0.014142556
000090 fc c0 2f be 1a 06 67 bd 58 9b 8f be 88 20 d6 bd
       -0.17163461 -0.056402303 -0.28048205 -0.104554236
0000a0 2d 85 23 bc 47 64 e4 3c 0b 19 1e 3c a7 82 8c 3d
       -0.009980482 0.027879847 0.009649525 0.068608575
0000b0 80 79 ef bd c0 31 90 3c 0d 6f 44 be 4e c8 56 3d
       -0.11693096 0.017601848 -0.19182988 0.05243712
0000c0 96 2f 1c 3c 57 52 09 3e c7 2f 66 3d 52 a7 53 3e
       0.00953283 0.13410316 0.056197908 0.20669296
0000d0 6f c6 69 3c 42 7d da bd fe 37 37 3e 18 c1 a5 3d
       0.014268502 -0.10668422 0.17892453 0.0809347
0000e0 d0 6e a6 3c 22 f6 11 bc ca b8 08 3d 69 40 71 bd
       0.020316511 -0.00890878 0.033379354 -0.058899317
0000f0 8f 81 31 bd 5c 30 e7 bd af 92 fc bc cf 46 98 bc
       -0.043336447 -0.11288521 -0.030831663 -0.018588452
000100 53 8c 8a be a3 90 4c bd 09 b2 c3 3c aa 14 03 be
       -0.27060184 -0.049942624 0.023888605 -0.12800851
000110 3c 4b 4d be 0c 40 42 3d 1a e4 9c 3d 0f 13 31 be
       -0.20048231 0.04742436 0.076606944 -0.17292427
000120 31 df 11 be ca 17 d9 3d 81 e0 49 be 17 6b ad bd
       -0.14245297 0.106002405 -0.19714548 -0.084676914
000130 dd 4e 04 3e 65 7f 84 3d b9 5d dc bd e1 29 35 bd
       0.12920709 0.06469611 -0.10760064 -0.044229392
000140 54 4a cd bd 5f bb 21 3e 39 a9 ac bd d9 e3 c4 bd
       -0.100239426 0.15794133 -0.08430714 -0.09613771
000150 e8 e1 b2 3c dd 4f 8a 3d 0f 78 11 3e 0a 9d 18 be
       0.021836236 0.06753514 0.14205955 -0.14903656
000160 cb 02 93 bd 2c da 74 3d 30 03 87 3d 5a f9 db 3d
       -0.07178267 0.059778377 0.06592405 0.107409194
000170 8a 6a 6d be 05 e4 16 3e 5d d0 3d 3c 9d ac 93 bc
       -0.23185173 0.1473542 0.011585322 -0.018026644
000180 e5 7f a3 be cc 39 85 be bb 2a 86 3c 6e 80 04 3e
       -0.31933513 -0.26020658 0.016377797 0.12939617
000190 e2 43 ae 3d 2c 31 69 bd d4 68 92 3c d6 53 03 be
       0.08509041 -0.05693166 0.017872252 -0.1282495
0001a0 87 cf 33 be 15 5a 49 3b 35 1c 5c bd 48 40 77 be
       -0.17559634 0.003072386 -0.053737838 -0.24145615
0001b0 69 c5 f6 bd 8f 14 b9 bd 5a 06 c4 3d 0d 3e cf bd
       -0.12049372 -0.09037124 0.09571524 -0.10119257
0001c0 d9 cc 14 bd c4 6c 11 3e 1d 1a 91 3c 8a 1a 93 3d
       -0.03632817 0.14201647 0.017712647 0.07182796
0001d0 b5 c4 24 bd 28 b8 59 bc c6 88 9e bd a5 16 28 3e
       -0.040226657 -0.013288535 -0.07740931 0.16414888
0001e0 0b fa da bc d0 3b 7c be 30 39 0d be f7 16 15 bb
       -0.026730558 -0.24632192 -0.13791347 -0.0022749284
0001f0 fc 38 69 bd 62 61 d7 3d 2d 24 c1 3d 24 f5 6f bd
       -0.05693911 0.10516621 0.09430728 -0.058583394
000200 ae a7 1c be 24 ab 16 be 13 fd 88 bc 56 8d 49 bd
       -0.1529834 -0.14713722 -0.016722238 -0.049207054
000210 d6 77 22 3e 47 3a 97 bd d3 f8 45 be b2 f8 c6 3d
       0.15866026 -0.073841624 -0.193332 0.097154036
000220 a4 5c 0b be 5b 89 29 3d 21 e0 70 bd 4a 4a eb bd
       -0.13609558 0.041390758 -0.058807496 -0.11488779
000230 3e d0 2e 3d 9f 52 39 bd c1 df 44 3e c8 84 6f bc
       0.042679064 -0.04524481 0.1922598 -0.01461906
000240 fb a2 4b 3d 2b 03 1f bd 84 ed a8 3c 6f 51 05 3d
       0.049715977 -0.03882138 0.020621069 0.032548364
000250 8f f5 a1 3a 96 71 64 3a 72 18 32 3c 27 e5 e4 bd
       0.0012356507 0.00087144354 0.010870086 -0.1117652
000260 aa 86 cc 3d e3 9b 31 3e d0 b7 9e bd 04 4f 74 3d
       0.09986623 0.17344622 -0.07749903 0.059645668
000270 a5 97 59 bc b2 46 6f 3d 48 01 7c bd 51 f5 df bd
       -0.013280784 0.05841703 -0.06152466 -0.10935462
000280 52 36 54 3e d7 db 2e bc 63 16 2f 3d 93 28 f0 3d
       0.20723847 -0.010672531 0.04274596 0.11726489
000290 b0 90 6d 3d fe c1 37 bd 5b db 4c 3c 9b b4 80 bd
       0.057999313 -0.04486274 0.01250347 -0.06284448
0002a0 f8 40 96 bc 0c 3e 4f bc 2e 85 8d 3c 2a 45 47 bd
       -0.018341526 -0.0126490705 0.01727542 -0.048649944
0002b0 fb 1a ec bc 17 e9 ed 3c 62 05 ef bb bf 21 2e 3e
       -0.028821459 0.02904181 -0.007294343 0.1700506
0002c0 19 9e b7 bb 26 f3 0e be 80 0d 43 3d 4b b8 3b 3d
       -0.0056035635 -0.13959941 0.047620296 0.045830052
0002d0 1c c4 0b 3e c0 cd 91 bd 85 21 fd 3b c0 39 2d 3c
       0.13649029 -0.07119322 0.007724943 0.010572851
0002e0 fb 62 e1 bd c9 4d 20 be f8 ce 6a bd 3a 02 ca 3d
       -0.11005207 -0.15654673 -0.057326287 0.09863706
0002f0 c0 47 14 3c a5 06 69 3d ad e1 1c 3d 2c 78 6c 3d
       0.00905031 0.056891102 0.03830116 0.057731792
000300 e0 3a 6c 3c ca c8 0c 3d 41 0c 0a be 93 b0 1f 3e
       0.014418334 0.034371175 -0.13481237 0.15594701
000310 60 a2 fb bc 25 90 46 3e 2b ff 62 bd 2d b4 3d bc
       -0.030717075 0.19390924 -0.05541913 -0.011578602
000320 ae 32 d7 3d 06 00 be 3d 89 dc 10 3e 82 b9 21 bd
       0.10507713 0.09277348 0.14146627 -0.039483555
000330 fa 5c 94 bc e3 cf 78 bd b0 63 10 3e 34 e6 c2 bd
       -0.01811074 -0.06074513 0.14100528 -0.09516564
000340 5b 24 6d 3d 50 cb 44 be 49 13 a5 bd 33 51 16 be
       0.057896 -0.19218183 -0.08060319 -0.14679413
000350 01 a5 1c bd 95 3b 20 be d9 a1 e1 3d ff 3f 02 bd
       -0.038243297 -0.15647729 0.11017198 -0.031799313
000360 64 f2 1e bd fe ed 32 3e 5d a3 a1 3b 9a 62 05 bd
       -0.03880538 0.174736 0.0049328045 -0.032564737
000370 a9 f8 a4 3d 27 d7 d2 3c 40 d5 09 3d df 23 21 3d
       0.08055241 0.025737358 0.033650637 0.03934085
000380 c7 a5 80 bc 64 3d b0 bd 1b c3 2c 3c 09 33 03 bd
       -0.015704049 -0.08605459 0.010544564 -0.032031093
000390 99 66 83 bc 42 8d 3d 3d df 77 d8 bd 17 ae 88 3d
       -0.016040133 0.046277292 -0.105697386 0.0667383
0003a0 f4 61 78 be ca fc 59 bc c8 cb de bd 58 71 97 39
       -0.24256116 -0.0133048985 -0.10878712 0.00028885412
0003b0 46 21 6f be a9 29 f8 3c de d2 4d be d8 f4 93 be
       -0.23352537 0.030293303 -0.2009997 -0.28897738
0003c0 81 7d 8a 3d c6 fa f7 3d 50 2f 42 3d 3e d2 33 3d
       0.06762219 0.12108378 0.047408402 0.043901674
0003d0 35 7d 1f 3e 9b 9e 35 be aa 4a 30 be 29 ad dc 3d
       0.15575106 -0.17736284 -0.17215982 0.10775215
0003e0 f1 23 0e bc 45 29 4f 3d c1 8f af 3c 00 97 e3 3c
       -0.008675561 0.050576467 0.021430852 0.027781963
0003f0 e5 d4 0c bd c8 cf 07 be a9 59 c4 bd b2 6a 9b bd
       -0.03438272 -0.13262856 -0.09587414 -0.0758871

a2c_network.actor_mlp.2.bias f4 [128]
000000 b0 a1 52 3d 61 24 b8 be a3 93 0b be 50 90 e5 bd
       0.05142373 -0.35965255 -0.13630538 -0.11209166
000010 56 d0 cf bd 58 3a 1c bb 78 5b ea bc 68 cc 82 3d
       -0.10147159 -0.0023838487 -0.028608069 0.06386644
000020 aa ee 3a be de 8c 4e be 15 35 f8 bb 6e 91 cc bd
       -0.18255106 -0.20170924 -0.0075746872 -0.09988676
000030 bb 70 4a be 13 49 fb bd e1 96 18 3d 6d 59 87 be
       -0.19769566 -0.12269797 0.037253264 -0.26435414
000040 2e c9 30 be 29 ea cb 3d 29 94 77 be 49 12 9e bd
       -0.17264244 0.09956772 -0.24177612 -0.07718331
000050 54 07 06 be 4f aa b0 bd 51 48 72 bc fe 54 1c 3e
       -0.13088733 -0.08626234 -0.014787749 0.15266797
000060 99 25 b2 be 71 a7 ae 3a 7b c1 61 3d 74 86 ae 3d
       -0.3479431 0.0013325048 0.055116158 0.08521739
000070 af b1 74 bd dd 54 59 be 49 cc 1e 3e 1a b1 8b 3c
       -0.059739765 -0.21223779 0.15507616 0.017052222
000080 29 b9 c7 bd 34 e7 d0 bd 33 27 1c bd 15 e1 4a 3c
       -0.09752113 -0.102003485 -0.03812332 0.012382765
000090 9e 49 48 3e f8 26 b3 3c 24 da 89 bc 0a 5a 9e bd
       0.19559333 0.021869168 -0.01682765 -0.07732017
0000a0 27 ba b8 bd 8d f6 cf bc bc 9a a4 bd e8 ac 0a be
       -0.09019881 -0.02538612 -0.08037326 -0.13542521
0000b0 20 78 b6 3d 14 2f b5 3c f2 3c 07 3e e7 62 e2 bd
       0.08909631 0.022117175 0.13206843 -0.110540204
0000c0 45 9f c3 bd 98 0e b3 bd c2 16 b0 bd 21 ea 9d 3b
       -0.095518626 -0.08743018 -0.08598091 0.00481917
0000d0 53 a1 a7 3d 48 f1 a7 3d 18 fe 98 bd e6 b8 2e be
       0.08185067 0.082003176 -0.074703395 -0.1706272
0000e0 d1 99 58 3d b1 b6 af 3d a6 13 8d 3c 01 32 c5 bd
       0.052881066 0.085797675 0.017221283 -0.09628678
0000f0 50 1a 8d be 4e ff 6a b9 bc 48 fc bd 37 64 6c be
       -0.27559137 -0.00022411087 -0.123185605 -0.23085104
000100 54 64 45 be fb fa 51 bc 98 05 69 be a5 5c 03 3d
       -0.19276553 -0.012816186 -0.2275604 0.032070775
000110 f6 6e a6 be 75 21 1f be 6b 34 95 be 99 ed e2 bd
       -0.3250653 -0.15540107 -0.29141554 -0.110804744
000120 96 2e 9f bd e0 92 ef bd 5d b6 03 be ef da 91 bc
       -0.077725574 -0.11697936 -0.12862535 -0.017804591
000130 a6 ca be 3d 28 db 2b be b9 2a 34 3d 05 b9 02 be
       0.09315996 -0.1678282 0.043986056 -0.12765892
000140 14 46 3b 3d 51 33 bf bb cd 8a 1f be d2 50 c3 be
       0.04572113 -0.005834975 -0.15580292 -0.38147599
000150 91 9d 01 3e 21 20 d7 bd c2 ee 5b be 03 06 63 be
       0.12657763 -0.10504175 -0.21477798 -0.22170262
000160 fe 6f a0 bd 1d e0 9a 3d be e0 d1 bd ee 2c 11 bd
       -0.07833861 0.075622775 -0.10247944 -0.03544324
000170 1f 13 be 3d 74 5e e9 3d fc 7a c2 bd 66 64 39 bd
       0.09280991 0.11394969 -0.09496114 -0.045261763
000180 da 9f 56 bd 15 d3 d4 bd ff c9 1a be 3d 8c 90 be
       -0.05239854 -0.10391823 -0.15116118 -0.28231993
000190 30 ad 80 bd b0 b9 a7 be 5d 44 1c be 22 8f bc bd
       -0.06283033 -0.32758856 -0.15260454 -0.09206988
0001a0 a5 10 96 3d ae 31 cc 3c c4 eb dd bc 08 bd 01 3d
       0.073273934 0.024926033 -0.02708996 0.031674415
0001b0 f9 49 56 be 21 d1 fa bc ab ba 54 bd e3 55 7a 3e
       -0.20926656 -0.030617299 -0.051935833 0.24446826
0001c0 45 55 93 3d 9c 33 b7 bd b3 e7 51 bd 21 ac 10 bc
       0.07193998 -0.089453906 -0.051246356 -0.008830101
0001d0 58 e3 03 bd 62 5e 5e bd 2d c1 17 be 81 6f 5f bb
       -0.032199234 -0.05428923 -0.14819784 -0.003409356
0001e0 4b 63 af bd b1 5c 63 be f7 be c4 bd 4f 65 9c 3c
       -0.085638605 -0.22203328 -0.09606736 0.019091276
0001f0 c2 ff 3f bd f9 62 d2 3d ba 0b 7d bd 9c 5b c5 3b
       -0.04687477 0.10272784 -0.06177876 0.0060228836

a2c_network.actor_mlp.4.weight f4 [64, 128]
000000 12 22 22 3e 94 80 1c be 46 f1 04 3e da f5 ce bb
       0.1583331 -0.15283424 0.12982664 -0.006315929
000010 d5 f7 4b 3c c3 2d 93 3d 4d d3 b5 3d 3f ba ea bc
       0.0124492245 0.07186463 0.08878193 -0.028653262
000020 0f 9a f2 bc 13 47 dc 3c ba d3 5a bc f1 2b b9 3d
       -0.029614476 0.02688936 -0.013356144 0.09041584
000030 44 64 1f 3d a3 65 e8 3d 74 62 7a bc 0d 7f a8 3d
       0.03891398 0.11347511 -0.015282262 0.08227358
000040 35 bd 4e 3d d8 39 a1 bd 8d a1 ba bd 43 fe 8e 3c
       0.05047341 -0.07872361 -0.091128446 0.017455226
000050 ff fd 80 3d 02 ab 5d be ea 75 99 bd 61 c9 ac bc
       0.06298446 -0.21647266 -0.074931934 -0.021092119
000060 4e 10 5f bd 05 5d fc 3b 63 ed 80 3d d6 84 8a 3d
       -0.05445891 0.0077015185 0.06295278 0.06763618
000070 0c 34 82 bd 0f e3 40 3e 7a a9 44 bd a0 fa c6 bd
       -0.063575834 0.18836616 -0.048013188 -0.09715772
000080 6a 40 f6 3c 80 06 93 bd 79 8b 15 3d 1d c9 5d be
       0.030060012 -0.07178974 0.036509965 -0.2165875
000090 ba 49 7b bd 62 ba ca bc 4a e2 a1 bd 5a 9c 80 be
       -0.061349608 -0.024747077 -0.07904489 -0.25119287
0000a0 37 cd ab 3c 32 cf 40 be 79 20 db 3d 06 1e 5a 3d
       0.020971878 -0.18829039 0.10699553 0.05325129
0000b0 11 61 a6 bd 3f f6 f7 bb a8 b3 99 bd b1 6e 4b 3d
       -0.08123983 -0.0075671966 -0.0750497 0.04966611
0000c0 70 b8 68 39 4e 42 5d bd b7 4f 1b 3c 4c b7 16 be
       0.00022193952 -0.05401831 0.009479455 -0.1471836
0000d0 c4 9a 1a be d1 2a 35 3d 63 c5 da 3b 22 58 b1 3c
       -0.15098101 0.044230286 0.0066763624 0.02164847
0000e0 2e b1 42 3d a3 e4 29 be 9d 3f 0f be 37 54 f9 bd
       0.047532253 -0.16591124 -0.1398911 -0.12174266
0000f0 7f 7b 1c 3e fc 18 0c 3c 5a 7d ea 3c 80 b9 23 3d
       0.15281485 0.008550879 0.028624225 0.03997183
000100 97 04 20 be fd b0 70 bd 33 3a 95 3d 91 17 d2 3d
       -0.15626751 -0.05876254 0.07286491 0.10258401
000110 7f 6d af bd 7a f2 01 bc f2 b0 53 bd 5c 26 85 bd
       -0.085658066 -0.007931346 -0.05168242 -0.06501457
000120 2e 0d 61 be 13 09 2c be 57 c3 21 3d a2 ed 4b bd
       -0.21977684 -0.16800337 0.03949293 -0.04978717
000130 f2 09 4d 3d 76 6d 33 bb ac 6b a0 be f1 fd a9 bd
       0.050058313 -0.0027378476 -0.31332147 -0.083003886
000140 e0 1a f8 3b 71 53 c4 bc 92 a5 92 be 14 b8 b7 3d
       0.007571563 -0.02396557 -0.28641945 0.08970657
000150 11 75 30 3c 05 70 66 be a5 05 9c bd 67 9c 05 bd
       0.010770098 -0.2250367 -0.07618264 -0.03261986
000160 95 89 35 bd 59 f7 de 3c 6d b8 11 be 46 96 1f 3b
       -0.04432066 0.027217554 -0.14230509 0.0024351045
000170 1e 7d 8c bd 84 50 02 be 45 e3 69 bd 58 95 e7 3c
       -0.06859802 -0.12726027 -0.057101507 0.028269455
000180 15 ec 20 be 6d b6 a0 3b cc 98 8b bc b7 15 2f bc
       -0.15715058 0.0049045593 -0.017040633 -0.01068633
000190 be 4f 00 bd 0c 6d da bc 52 51 20 3e a0 02 42 3e
       -0.031326048 -0.026663326 0.15656021 0.18946314
0001a0 75 2e d1 3d 4c 5f fa bb 2d 01 28 bd 1e ed 74 3c
       0.10213939 -0.007640755 -0.041016746 0.014949111
0001b0 4c 3a 42 bd a6 7b bc 3c 7f 81 bd 3d d6 a5 21 bd
       -0.047418877 0.023008179 0.09253215 -0.039464794
0001c0 3d ad f1 bd d6 15 d5 3d df fd e7 3c 1d 95 0e 3e
       -0.11800621 0.104045555 0.028319297 0.1392407
0001d0 33 90 f8 3d c7 33 c7 bd 6e ba 78 be 22 2f 64 3b
       0.12136879 -0.097266726 -0.24289867 0.0034818132
0001e0 a4 c0 74 3d 6e 5b 0c be 5d b6 05 bd 5f 29 4d bc
       0.05975403 -0.13706753 -0.03264462 -0.012522071
0001f0 98 66 9b 3d d9 6d bc bd 98 31 c7 bd 8b fd 8e 3b
       0.075879276 -0.09200639 -0.09726256 0.004363721
000200 61 fe 52 3e 5f 38 cf b8 5c bb 57 3c f1 7d 19 bc
       0.2060485 -9.881029e-05 0.013167229 -0.009368406
000210 ca 25 da bc 96 83 e2 3d dd 6d 32 bd ec 47 5a 3c
       -0.026629347 0.11060254 -0.043561805 0.013322812
000220 4d ed 09 bd 60 c0 70 be 4d aa 50 3d 6f 7b 4f 3b
       -0.033673573 -0.23510885 0.05094366 0.0031659266
000230 bf 5d f3 bd 22 c4 8f 3d d1 e8 88 3c 4a 55 52 bd
       -0.11883115 0.07019831 0.016712578 -0.05135087
000240 75 1a d8 bc de 10 c0 bd 23 60 9c bd 71 9c fc bb
       -0.026379803 -0.09378217 -0.07635524 -0.007709079
000250 24 83 55 bd 9f 88 f4 3c 94 68 0e bd 23 7d 97 bd
       -0.05212702 0.029850302 -0.034767702 -0.07396915
000260 bc e0 da bd 54 9c 35 be d7 59 f6 bc 9a 29 f1 bd
       -0.10687396 -0.17735416 -0.030072136 -0.11775513
000270 32 a5 ae bd 6e 2c cc bd a3 b3 56 3d 69 05 ba bd
       -0.08527602 -0.09969412 0.05241741 -0.09083063
000280 44 ed 3e bd 1d aa 86 3c 05 87 75 3d 4b 21 8a bc
       -0.046612993 0.016438538 0.059943218 -0.016861578
000290 cc 40 a0 3d 6d 7c fb 3c 0b 8d 84 3d 51 60 1b bb
       0.07824859 0.03069898 0.06472214 -0.0023708532
0002a0 bf 63 fc 3d 34 58 7f bc 8f 11 8b bc 81 41 1f bd
       0.123237126 -0.015584994 -0.016976146 -0.03888083
0002b0 c6 fa a4 bd ad 1b 37 bd f4 67 f9 bb 02 0f c4 3d
       -0.08055644 -0.044704128 -0.007611269 0.09573175
0002c0 04 ef 19 bd df 81 8b bc 86 dc 27 bd 16 76 f5 3c
       -0.03758146 -0.0170297 -0.040981792 0.029963534
0002d0 2d 8b 5a bd be 66 94 3d 15 4c e5 3d 1c f2 98 bd
       -0.053355385 0.07246159 0.11196152 -0.07468054
0002e0 79 41 a1 3d 6b 30 92 bd a7 85 cd bc 91 b2 97 bd
       0.07873816 -0.07138141 -0.025088144 -0.07407106
0002f0 d8 ef 33 3e a7 f5 d7 bc 82 d8 a8 bd 17 a1 c5 bc
       0.17571962 -0.026362253 -0.082444206 -0.024124665
000300 a3 f7 3b bd cf 5b 21 be b4 bb b8 b8 db c8 b3 3d
       -0.04589046 -0.15757678 -8.808766e-05 0.087785445
000310 8f f6 80 3c ee 8b cc 3b 85 70 b1 3c d6 7f f6 bc
       0.015742568 0.006242267 0.021660099 -0.030090254
000320 d8 da 90 3b 5d 71 3a bc 1a d0 d2 bd 5d 6e 22 3d
       0.0044206195 -0.011379567 -0.102935985 0.039656032
000330 24 b7 73 3d 61 05 bc bc 71 0e fe bc 48 83 a2 bd
       0.05950083 -0.022951784 -0.031012746 -0.07935196
000340 6a e2 65 3d ba fa 35 be ff f1 bc bd 51 38 46 bd
       0.05612413 -0.17771426 -0.092258446 -0.04839355
000350 41 43 a2 bc e5 aa 39 bb f2 59 c1 bd b8 5e 81 bd
       -0.01980746 -0.002833062 -0.09440984 -0.06316894
000360 6f e6 27 bc dd 74 c0 3d 9f ac 0e be 4a 09 00 3e
       -0.010247811 0.0939729 -0.13933037 0.12503543
000370 fc 7f c6 bd f5 d8 9c bc 3a 5c 16 3d 01 a3 a3 3d
       -0.0969238 -0.019146422 0.036709048 0.07990075
000380 df 20 9c bd 9b 64 07 bd 9e bf 1e be 9e f8 93 bd
       -0.07623457 -0.03305493 -0.15502784 -0.07225154
000390 08 a7 3b 3d b8 20 8b 3c 4b 6b 14 3c 7e 3c 62 bc
       0.04581359 0.016983375 0.009058784 -0.013808368
0003a0 d0 44 b2 bc 10 51 2b 3e 44 84 89 bd 24 97 94 bd
       -0.021761328 0.16730142 -0.06714681 -0.0725539
0003b0 78 d2 0d be 5b bb 11 be 76 e8 f5 3d fe a8 93 3d
       -0.13849819 -0.14231627 0.12007229 0.07209967
0003c0 97 41 9e bd 6d a0 3f 3d 72 b1 03 3c 03 18 5d be
       -0.07727354 0.046783853 0.008037912 -0.21591191
0003d0 21 54 ec 3c de 4c a6 bd 5d d3 4a 3b 18 42 7d ba
       0.02884871 -0.0812013 0.0030948736 -0.0009661033
0003e0 38 cc 01 3d 26 fe 7b bd 36 7b 9d bd 2d bb ce bd
       0.0316889 -0.06152167 -0.07689516 -0.10094295
0003f0 a8 db 4a 3d dd 49 2d bd a9 30 d9 3d bc 9d ce bd
       0.049525887 -0.04230677 0.10604984 -0.10088679

a2c_network.actor_mlp.4.bias f4 [64]
000000 d6 21 05 3e 5f c3 fa 3c 6e 94 81 be 46 9f 4c be
       0.13001189 0.030610738 -0.25308555 -0.19982633
000010 1b a4 6b 3b 1d 66 da 3d 09 12 50 be 9a 80 59 be
       0.0035955969 0.10664008 -0.2031938 -0.21240464
000020 87 40 73 be a1 4c b8 bb 01 85 5b be cb 58 ce 3c
       -0.23755084 -0.0056243693 -0.21437456 0.025188824
000030 3f f1 15 3d 37 89 1b be 02 2c 6c be 71 35 35 be
       0.036607023 -0.15189062 -0.23063663 -0.17696168
000040 15 28 11 3e 72 1a 98 be 62 ea c9 bc d1 a2 a1 3d
       0.14175446 -0.29707676 -0.024647895 0.07892383
000050 30 e4 74 be ac 92 1b bd ea 67 71 be b4 5c 96 3d
       -0.23915172 -0.037981674 -0.23574796 0.073419005
000060 9c b7 fe bd 6e d4 bb bc cb 56 2d 3d 94 1e 25 be
       -0.124373645 -0.022928443 0.0423191 -0.16124946
000070 21 44 74 3d 96 c8 3a 3d 11 b0 64 be 29 c0 54 be
       0.059635285 0.04560145 -0.22332789 -0.20776428
000080 5a f9 52 be 9a 90 07 be 43 30 84 bd 26 f8 64 be
       -0.20602933 -0.13238755 -0.06454518 -0.22360286
000090 8b 2b b2 bd 27 ad e9 bd c4 7f 98 3c 5f 05 b6 3d
       -0.086997114 -0.11409979 0.01861561 0.08887743
0000a0 06 c8 2d 3c 58 f4 22 3c eb dc 97 be b1 24 1f bd
       0.010606771 0.009945951 -0.29660735 -0.03885335
0000b0 8e 8b 4c be 50 74 85 be 31 92 e5 bd 9e fe 87 3c
       -0.19975111 -0.26065302 -0.112095244 0.016600903
0000c0 ef 9c bf bd 2b 9f a3 3d 69 35 82 3d f8 09 3b be
       -0.093561046 0.07989343 0.063578434 -0.18265522
0000d0 8a ae 83 bd d1 ef 07 be ac 91 00 be 8f 8a a4 be
       -0.06429775 -0.13275076 -0.1255557 -0.32136962
0000e0 5c 8d b8 bd 40 f3 7f 3c 3d ba 39 3b 05 2c 33 be
       -0.09011337 0.01562196 0.0028339766 -0.17497261
0000f0 2d d2 de 3b 95 6c 13 be 26 c6 a8 3d ec a1 79 be
       0.0067999572 -0.1439689 0.08240919 -0.24378175

a2c_network.value.weight f4 [1, 64]
000000 35 ed e2 3d 8b d3 f5 3b f6 90 a7 bc 56 5b 3b bc
       0.110804 0.0075020245 -0.020454865 -0.01143535
000010 73 ce 82 3c 9c d6 8c 3d 95 80 27 bd 73 4d a1 bd
       0.015967583 0.06876871 -0.04089411 -0.078761004
000020 04 17 b1 bb 44 55 6b 3c e7 04 cf bb 21 20 02 bb
       -0.005404355 0.014363591 -0.006317723 -0.0019855576
000030 b2 08 89 3c c9 04 81 bc 4b a4 2b bb 8d 24 0d bc
       0.016727779 -0.015749352 -0.0026190456 -0.008614671
000040 b1 30 4f 3d b6 56 30 bd e3 33 e7 3d 0d 4a dc 3d
       0.050583545 -0.043051444 0.112891935 0.107563116
000050 44 25 35 bd 5e 89 48 bc c5 51 62 bd 62 55 a0 3d
       -0.044224992 -0.012239782 -0.055253763 0.078287855
000060 d6 a2 dc b9 27 55 b6 3c 91 bf 05 3d 3f 1b 95 bc
       -0.00042082992 0.0222574 0.032653395 -0.018201469
000070 32 a3 f4 3d af 39 a6 3d 57 38 fb 3a e8 f8 c3 bc
       0.119451895 0.08116471 0.0019166571 -0.023922399
000080 fc e8 88 3b bf 7f 64 3a f5 fb ab 3c e3 fb 5a bc
       0.0041781645 0.00087165454 0.020994166 -0.013365719
000090 9f a9 41 3b da 78 a1 bc 94 e3 9a 3d 4c e2 f3 3d
       0.0029550565 -0.019710947 0.07562938 0.11908397
0000a0 29 36 d8 3d 58 b2 ae 3c 3c 59 ec bc b3 b4 b0 bc
       0.10557205 0.021325275 -0.028851144 -0.02157054
0000b0 a1 c0 b7 bd 8f 84 91 bd 0c 61 19 bd 1a 08 13 bc
       -0.08972288 -0.07105362 -0.037446067 -0.0089740995
0000c0 61 c9 1d bc 45 ae 1c 3e 0d 35 aa 3d 7f 5e 04 bd
       -0.009630532 0.15300854 0.083109 -0.03231668
0000d0 09 a0 24 3c 00 80 29 bc 72 82 16 bc 0e 10 bc bd
       0.010047921 -0.010345459 -0.009186374 -0.0918275
0000e0 cc 74 38 bc 8f c8 0c 3d 49 60 f3 3c 52 f7 1a bd
       -0.011258315 0.034370955 0.029708998 -0.03783352
0000f0 49 3c 15 3c 24 08 d3 bb 45 7e 4e 3d 15 86 81 bd
       0.009108611 -0.0064401794 0.05041339 -0.06324402

a2c_network.mu.weight f4 [6, 64]
000000 74 08 95 bd 33 28 56 bc 16 d4 d0 3d 06 78 60 bd
       -0.07277003 -0.013071108 0.10196702 -0.054801963
000010 9b 27 aa bd c2 2d 33 bd 2b 77 3a 3d 92 bb bf 3d
       -0.083083354 -0.04374481 0.045523804 0.09361948
000020 29 74 60 be 08 b3 83 3c c1 3a 06 3c 0d 5f f3 3d
       -0.21919312 0.01607658 0.008192719 0.11883364
000030 cd 52 81 bd b3 0f 05 bb 54 03 2f 3d 11 bd 4c 3d
       -0.06314621 -0.0020303547 0.042727783 0.049984995
000040 37 99 b2 3c 1c 49 ba 3d fb c6 ad 3c 22 d8 8b 3d
       0.021801574 0.09095976 0.021213045 0.068283334
000050 ff e4 9e 3d d0 e0 3c bc d6 d1 12 be 07 ae 3a 3e
       0.07758521 -0.011528209 -0.14337859 0.18230449
000060 9a da 3e bd ed 5b 60 bd f2 69 9b 3d 61 95 ad bb
       -0.046595193 -0.054775167 0.07588567 -0.0052973484
000070 9f 91 36 3d 8a 61 39 3c 27 55 94 ba 93 3e ac 3d
       0.04457247 0.011314759 -0.0011316881 0.084103726
000080 c1 8c 48 3d 41 a0 93 bd 30 27 1a bc 64 d4 cf 3b
       0.04896236 -0.072083004 -0.009408757 0.0063424576
000090 98 e0 1a 3d 29 58 0c bd 4f 98 f5 bd 28 21 0f be
       0.037811846 -0.034263764 -0.11991941 -0.13977492
0000a0 93 56 09 3d b3 c9 3c be 79 33 b2 bd 08 68 a9 3c
       0.03352983 -0.18436317 -0.08701224 0.020679489
0000b0 fc 12 38 bd 63 47 a4 3c a6 a7 8a bd 10 95 f6 3d
       -0.04493998 0.020053571 -0.06770258 0.1204015
0000c0 b0 2d cb bd 63 3f a3 3d ab b6 03 be c5 07 5f bd
       -0.099208236 0.079710744 -0.12862651 -0.05445077
0000d0 c6 d7 ce 3d 61 3b 1c 3c fe 46 f8 3d 92 4b 54 bd
       0.10099749 0.009535641 0.12122916 -0.051829882
0000e0 4d dc da bc 53 8f 5f 3d 67 db 25 3b 24 28 fe 3d
       -0.026716376 0.054580044 0.0025307776 0.1241
0000f0 4a f6 86 3d 88 32 44 bd e5 05 2c bd 62 ac 84 3d
       0.06589945 -0.047899753 -0.04199781 0.06478192
000100 ee 6f 5e 3b 51 0f 2a 3d cd 29 0d bd a9 87 36 bd
       0.0033941227 0.041518513 -0.034463692 -0.04456297
000110 56 ed cb bb 92 31 46 bb 25 53 a7 bd 2b 1a c6 3d
       -0.006223361 -0.0030241949 -0.081701554 0.0967296
000120 4e f2 dd bd 45 25 7b 3d 45 60 3d bd f1 2a 60 3d
       -0.108372316 0.06131484 -0.046234388 0.054728452
000130 75 50 20 be ae a2 23 bd c4 5d 52 bd 63 bd 70 bd
       -0.15655692 -0.039950065 -0.051358953 -0.058774363
000140 80 41 69 3d 2b d8 af bd ae 74 b5 bd e2 ad d2 3d
       0.05694723 -0.08586153 -0.088601455 0.10287072
000150 96 88 30 be 72 ef b8 bc 5d 20 a9 3d 0f 93 e3 3c
       -0.17239603 -0.022575114 0.08258126 0.027780084
000160 6c 7b 4f 3c 72 d7 1c bd 29 f7 a2 bd 53 c7 dd bc
       0.012663703 -0.038291402 -0.07957298 -0.027072584
000170 81 51 0e 3c e5 33 e3 bc 1c bc 35 bd 0c a2 8d bd
       0.008686424 -0.027734706 -0.04436885 -0.069156736
000180 6a 2a a0 bd 10 08 2b 3d 0e e4 80 bd bc 58 4a bd
       -0.0782059 0.041755736 -0.06293498 -0.04940103
000190 90 ec b2 bd 13 f6 51 bc 42 25 e6 bd 80 47 22 3d
       -0.08736527 -0.012815016 -0.11237575 0.03961897
0001a0 d7 66 32 3d 72 1d d9 bc 6a da 73 bc 29 b1 31 bd
       0.043555107 -0.026503298 -0.014883617 -0.043381844
0001b0 46 5a e5 3c 04 e9 e6 3c 96 ed 57 3d 3f a1 41 3d
       0.027997147 0.028187282 0.052716814 0.047272917
0001c0 bb 54 2e bd 43 5f cf 3d 40 32 29 be d6 f4 9a bd
       -0.042561274 0.101255916 -0.16523075 -0.0756623
0001d0 78 5d ce bc 7e a5 ae 3b 0b 88 c9 3b 71 54 c9 bc
       -0.025191054 0.005329787 0.006150251 -0.024576398
0001e0 c0 80 11 3d d3 72 0e bc 63 24 18 3e ff 33 d5 3d
       0.035523176 -0.008694368 0.1485763 0.10410308
0001f0 f0 07 8b 3c ec 4e d9 bd 41 99 aa 3d b1 6d 0b be
       0.016971558 -0.10610756 0.08330012 -0.13616063
000200 3c e8 ea 3c b1 95 fc 3c ce 53 c1 bd 00 27 89 3d
       0.028675191 0.030833097 -0.094398126 0.06696892
000210 42 f1 3a bd 7e 03 cc 3d 13 97 b6 3c af 12 05 3e
       -0.045640238 0.099616036 0.022288835 0.12995408
000220 86 25 aa bc 64 fc 38 bc d4 25 74 bd 3f f2 4a 3d
       -0.020769846 -0.011290643 -0.05960639 0.04954743
000230 2f 17 c8 bd ff 55 38 be ec 39 92 3d fc 4f b2 bd
       -0.09770047 -0.18001555 0.07139954 -0.08706662
000240 b6 8d 03 3e 41 07 75 3d 66 e9 77 3c 09 f1 88 bd
       0.12847027 0.05982137 0.01513133 -0.06686599
000250 07 b1 13 bd db 3f 34 be b0 ee 96 bd 9f 68 44 3d
       -0.0360575 -0.17602484 -0.07369745 0.047951337
000260 e5 33 e2 bd b9 d5 ca bd 1b c1 3a bd d2 44 5d bd
       -0.11045054 -0.099040456 -0.045594316 -0.05402071
000270 71 a3 10 3d da 00 5e bd 8c 4b 06 3d 52 b6 08 bd
       0.03531212 -0.05420003 0.03278689 -0.033377
000280 7b 96 b9 bc 4a 92 63 3d 4b 2b f4 bd 1e 66 56 bb
       -0.022654762 0.055559434 -0.1192232 -0.0032714675
000290 f7 81 a0 bd c0 71 44 bd ad c8 57 3d 8d 69 30 bd
       -0.07837289 -0.047960043 0.052681614 -0.04306941
0002a0 23 b9 4a bc c2 c2 ea bd 93 4d e8 bb 30 e8 87 3d
       -0.012373242 -0.11462928 -0.0070893257 0.06636083
0002b0 f4 f3 0e bc 1a 4f c4 bd d8 4e 27 3d ab 75 f7 3c
       -0.008725155 -0.095854 0.040846676 0.030207476
0002c0 76 72 3d bd b2 e5 85 3c 50 51 60 bd ce 0c 88 3d
       -0.046251737 0.016344879 -0.054765046 0.06643067
0002d0 28 2c dd bc 1e ea 9b bc 82 88 ec bd a4 7d 4f bc
       -0.026998594 -0.019032534 -0.11549474 -0.012664232
0002e0 63 e9 8b 3c e7 f8 16 3e 60 62 df 3d f2 8c a7 bd
       0.01707906 0.14743386 0.109074354 -0.0818118
0002f0 f5 d3 9a bc 11 11 f2 bc ce f2 bc bd 24 28 19 38
       -0.018899897 -0.029549154 -0.09225999 3.6515426e-05
000300 c0 96 41 bc c8 2a f9 3c 54 c7 75 3d f3 92 61 bc
       -0.011815727 0.030415908 0.060004547 -0.013767946
000310 c6 5a c2 bb ab 5d 52 bd bb e6 51 3b 9e 78 79 3d
       -0.005931231 -0.05135886 0.0032028395 0.060906045
000320 51 5d d3 3d 89 1c ca 3d 40 4d 03 3d 75 71 e3 3d
       0.10320533 0.09868724 0.032056093 0.111056246
000330 fa b5 e7 bd 57 72 37 bd a6 08 18 3c 91 c7 01 bc
       -0.11314006 -0.044786777 0.009279406 -0.0079211155
000340 ee 31 44 3c 54 29 aa 3d fb f4 d4 bd 20 39 ca bc
       0.011974795 0.08308664 -0.10398289 -0.024685442
000350 35 29 b5 3d c6 ee 69 bd 7c 62 88 3d 11 fe 2b 3c
       0.0884575 -0.057112478 0.066594094 0.010497586
000360 24 eb 03 3e c6 e6 81 3d 56 c3 ad bd 21 dc 18 3e
       0.12882668 0.06342845 -0.08484523 0.14927723
000370 a7 eb b2 3d 1d 04 69 3c fc 2d a4 bb c3 fa a0 3b
       0.08736353 0.014222172 -0.0050103646 0.0049127056
000380 8b 1b 03 bc 39 6b 7e bd 18 3a 3c bc c9 57 68 3d
       -0.008002172 -0.062113974 -0.01148846 0.056724343
000390 84 a3 c4 bd 53 7f c9 bd f4 06 49 bd ae a0 24 bc
       -0.09601501 -0.09838738 -0.049078897 -0.010048075
0003a0 3a 57 22 bd 6a 40 23 3d be 80 43 3e d8 9a 06 3e
       -0.039633967 0.039856352 0.1909208 0.13145006
0003b0 aa 5b c4 bd 8d 7c 8d 3c c9 a4 ef bc 2e 9a dc bd
       -0.09587796 0.017271305 -0.02925338 -0.10771595
0003c0 a0 7e fc 3b 26 1d 1b be f8 1c e2 bc df fc 86 3d
       0.0077055246 -0.15147838 -0.027601704 0.065912
0003d0 0d da 10 3b ab b6 85 bd fe 77 37 bc fd 78 9b 3c
       0.0022102625 -0.06528982 -0.011198042 0.01897859
0003e0 95 9f ac bd 29 2a 67 3c f0 fe f3 bc 99 98 03 bc
       -0.08428875 0.014109173 -0.02978465 -0.008031988
0003f0 21 92 c5 3d e7 e6 64 3c 8a f1 09 3e 9d 6e 3c bd
       0.096470125 0.013971067 0.13471046 -0.046003927

a2c_network.mu.bias f4 [6]
000000 83 2e 2d 3d f7 a0 da 3d 7c ad 30 3d b9 98 8c bd
       0.042280685 0.10675233 0.043134198 -0.06865067
000010 55 9f 03 3c 47 92 9f 3d
       0.008033593 0.07791572

exp_avg f4 [6]
000000 ac 7e de 39 26 fe fc 3a d7 60 af 39 63 ae 68 bb
       0.00042437518 0.0019301816 0.00033450752 -0.0035504333
000010 0b cc 4a 3b 0f e8 3b 3a
       0.0030944373 0.00071680633

exp_avg_sq f4 [6]
000000 e5 5a e5 39 bc 7e d9 39 f6 3d eb 39 bc 56 07 3a
       0.00043746005 0.0004148389 0.00044868857 0.0005162766
000010 44 f2 0b 3a cb 34 c9 39
       0.00053385296 0.0003837704
