IsaacGymEnvs/isaacgymenvs/runs/Bolt_18-16-57-40/nn/last_Bolt_ep_850_rew_0.6152474.pth (torch, 612378 bytes, 36 tensors)

value_mean_std.running_mean f8 [1]
0.28769124848465766
00000000: a491 e58d 8869 d23f

value_mean_std.running_var f8 [1]
0.03992486030273043
00000000: 7c5e 9802 0871 a43f

value_mean_std.count f8 []
1305601.0
00000000: 0000 0000 01ec 3341

running_mean_std.running_mean f8 [30]
0.7818443072376486 0.29680780084923936 0.18418547371089847 0.34314879888946925 0.9008105011179919 -0.19895355207149656 -0.20544531229684804 0.18034865679267356
-0.4858412340579845 1.494309745323813 0.5018443864321307 0.025043590956154327 0.19457087637744808 0.30387575512563075 0.12916107802006488 -0.10479755208278184
0.23601684537263393 0.08533178769882158 0.008380296774433468 0.0012466300019724316 -0.02406431268277598 -0.0009528492349992168 0.02118841148923232 -0.04990939302350167
0.39418692232528246 0.6311666207132617 0.22766812608871162 -0.19470963966679497 0.5044783290350149 0.044050285759111844
00000000: 84c8 445a de04 e93f 2b17 7625 e6fe d23f
00000010: 2548 febc 6393 c73f bc15 3961 26f6 d53f
00000020: a43e 468b 70d3 ec3f 64f9 c85b 4f77 c9bf
00000030: 603a b730 084c cabf f1a9 662f aa15 c73f
00000040: e4f2 d4d4 0518 dfbf 6928 e455 b1e8 f73f
00000050: ae07 6df5 1b0f e03f f03a 86f0 06a5 993f
00000060: 10c9 65cf b2e7 c83f fbf5 934b b372 d33f
00000070: 7e92 01a7 5988 c03f c77a e52a 03d4 babf
00000080: 511c 17cc cc35 ce3f 72c4 79d5 4dd8 b53f
00000090: 5ea0 9d64 b029 813f b2ff acc5 be6c 543f
000000a0: 4099 e4af 50a4 98bf e115 b326 1439 4fbf
000000b0: da0d 9a39 6ab2 953f 382a 9955 b98d a9bf
000000c0: 8378 f9c8 5b3a d93f 194a 4957 8432 e43f
000000d0: 6641 f2a9 3a24 cd3f abdb 4ad7 3eec c8bf
000000e0: 2fe0 97bc af24 e03f 7fff 6d51 c28d a63f

running_mean_std.running_var f8 [30]
0.6295174141715201 0.1837436255745124 0.7032406040275643 1.3096967536359259 1.189586588500526 0.24082360123947333 0.18227332631293358 0.11537025904712078
0.3966434130725401 0.08427970117739128 0.08415108941860097 0.00021300299377365644 0.08268200259466829 0.07254954381791819 0.1048648383995718 0.09647883514505799
0.10519433503174487 0.1522903105248692 0.12762884153869197 0.08211495556751876 0.10071243943881347 0.1280491950098228 0.07797765988723589 0.11644466628348503
0.6036286756821284 0.4282045317530222 0.6353488257085556 0.6554499862426183 0.5553185490446987 0.7666575185956352
00000000: 2022 44b4 0125 e43f b072 583f e984 c73f
00000010: ca90 7070 f280 e63f e0b2 4895 84f4 f43f
00000020: 64eb 55f2 8b08 f33f 88d8 b6c9 4ed3 ce3f
00000030: 643d b97b bb54 c73f acd6 89c1 e788 bd3f
00000040: 1581 d40d 9b62 d93f 4207 46c0 5a93 b53f
00000050: 0ac5 f900 ed8a b53f db7a cfc8 31eb 2b3f
00000060: a8a4 1cd1 a52a b53f 3da5 095e 9b92 b23f
00000070: 2d2e 6d0b 6cd8 ba3f 6b46 b441 d6b2 b83f
00000080: 5591 af14 04ee ba3f 10db 99b7 3f7e c33f
00000090: aaaf 3752 2456 c03f e5cb ac58 7c05 b53f
000000a0: 60a9 b059 4ac8 b93f 1054 6c80 ea63 c03f
000000b0: 2dc7 080b 58f6 b33f 0f30 7b51 51cf bd3f
000000c0: e770 9f15 ed50 e33f d234 f8fa b367 db3f
000000d0: 4a0c 7f0f c754 e43f 196c e23f 72f9 e43f
000000e0: fb4a e067 2bc5 e13f 7839 3359 7588 e83f

running_mean_std.count f8 []
652801.0
00000000: 0000 0000 02ec 2341

a2c_network.sigma f4 [6]
-0.50422686 -0.59405917 -0.42116484 -0.9541149 -0.8686109 -0.6474959
00000000: 0315 01bf 4314 18bf eba2 d7be e040 74bf
00000010: 495d 5ebf 4bc2 25bf

a2c_network.actor_mlp.0.weight f4 [256, 30]
0.22825645 -0.34676915 0.19515827 0.09930714 -0.048041668 0.22772412 0.07167577 0.1735144
-0.019998794 -0.08884906 0.14275426 -0.07761989 0.057703957 0.109637976 0.10562659 -0.030917127
0.04980986 -0.006446036 0.0070343865 0.0049988325 -0.16554928 -0.09767624 -0.21018177 0.16718812
-0.03449631 0.07840436 0.055543076 0.02837758 0.11918934 -0.109095834 0.004926573 -0.16694853
-0.039664574 -0.03363455 0.095549025 -0.12535124 0.07499535 -0.10888654 -0.14659335 -0.052133508
0.2416134 0.023283187 0.22787967 -0.13677397 -0.120812155 -0.11343031 -0.08608005 0.09297907
0.02879199 0.14614266 -0.14019157 -0.21611731 0.026424052 -0.10185993 0.17922767 -0.030096667
0.14732157 -0.12713587 -0.035747413 0.059397917 -0.043071 -0.05238699 -0.012314157 0.1066851
-0.29053792 -0.1083246 0.2527611 -0.1463318 -0.026743509 -0.245747 -0.08188101 0.03733941
-0.0015139375 -0.11599579 -0.03737009 -0.16543335 -0.07552847 -0.122329645 -0.06597548 -0.10264673
0.1478301 0.107242405 0.06848965 -0.12093937 -0.104790874 -0.0028851747 -0.024637528 -0.18275535
-0.002006815 -0.06340487 0.112053476 -0.07676348 -0.23849478 -0.21125811 -0.09597337 -0.2842566
-0.18293767 -0.1574982 0.22436523 -0.0055781943 0.14996472 0.050001066 -0.112590134 0.12225904
-0.014418742 -0.15500434 -0.16383344 -0.14219561 0.026485378 -0.14384419 -0.0139845675 -0.10812446
0.087060004 -0.07155301 0.016432576 -0.0027256878 0.08926188 0.12116149 0.12802908 -0.019524748
0.061943077 -0.069040015 -0.1065311 -0.13502908 0.23100309 -0.2081354 -0.068493545 0.07061736
-0.027964566 -0.19084878 0.14409734 0.04282109 -0.058494907 -0.103740275 0.09949086 -0.123281635
-0.13592418 0.09788951 -0.00825233 -0.16736583 -0.06332404 -0.003609049 0.104079455 -0.08408003
-0.14353797 -0.044012375 -0.08187177 0.0137086855 0.1179784 -0.18433061 0.09005078 0.15244761
0.022808673 -0.073693134 0.083094195 0.17595431 0.12839761 -0.07253588 -0.17174256 -0.024553237
-0.05337007 -0.049652394 0.07581761 0.08463024 -0.033313334 0.06953442 -0.010561846 -0.023624612
0.026135415 0.036107145 -0.108712465 -0.10055538 0.056100804 0.023777103 -0.049070552 -0.2152655
-0.07369679 -0.08339891 -0.109945446 -0.04513428 0.20230547 0.082362704 -0.36335692 -0.118933864
-0.12107847 0.06951989 -0.057373416 0.02156697 0.14619642 -0.118924975 -0.18767639 0.17344712
-0.11646392 -0.026725821 -0.10017879 0.090408236 0.09648481 0.048933987 -0.14326347 -0.23187076
-0.13925175 0.19843866 -0.027753368 0.025874512 0.09773108 0.03411528 0.06601645 -0.17249112
-0.22510782 -0.16391931 0.025184318 -0.13735087 -0.032734893 -0.041919537 -0.016742155 -0.15370765
-0.111059226 0.15730041 -0.24856924 0.07689757 -0.07118632 -0.14883132 -0.08991163 -0.067855254
-0.030842304 -0.21444003 0.10763382 -0.13006946 0.0437929 -0.048618976 0.14077404 -0.08381635
0.1295359 0.015943134 -0.021776237 0.15246746 -0.029408433 -0.018813055 -0.06465709 -0.10215059
0.1626204 -0.34949374 0.11488456 0.21296337 0.21845458 -0.0110970205 -0.24494171 0.15290506
0.15513694 -0.21494813 0.099122085 -0.11615934 -0.06595223 -0.1687116 -0.14757863 -0.063671604
00000000: 0fbc 693e ba8b b1be 92d7 473e 8b61 cb3d
00000010: 57c7 44bd 8330 693e bfca 923d c2ad 313e
00000020: 83d4 a3bc 7ff6 b5bd 2c2e 123e 2df7 9ebd
00000030: fc5a 6c3d e089 e03d c152 d83d ea45 fdbc
00000040: 6c05 4c3d 4539 d3bb b680 e63b 3fcd a33b
00000050: c085 29be 7b0a c8bd e439 57be 5d33 2b3e
00000060: 014c 0dbd 7792 a03d 2381 633d 1978 e83c
00000070: 8a19 f43d a36d dfbd 176f a13b 8ef4 2abe
00000080: 5277 22bd 62c4 09bd 35af c33d 135c 00be
00000090: 2997 993d e8ff debd 911c 16be f289 55bd
000000a0: 8169 773e 62bc be3c 4a59 693e 7a0e 0cbe
000000b0: 5d6c f7bd 264e e8bd bd4a b0bd d06b be3d
000000c0: 2edd eb3c 6ca6 153e 618e 0fbe db4d 5dbe
000000d0: 4177 d83c f09b d0bd 7587 373e 498d f6bc
000000e0: 77db 163e e82f 02be e16b 12bd 3b4b 733d
000000f0: 386b 30bd be93 56bd 51c1 49bc b87d da3d
00000100: 63c1 94be 4ad9 ddbd e769 813e 01d8 15be
00000110: 3415 dbbc 1aa5 7bbe 3bb1 a7bd 36f1 183d
00000120: 506f c6ba 338f edbd 6111 19bd 5c67 29be
00000130: acae 9abd f787 fabd 271e 87bd 7338 d2bd
00000140: c660 173e e8a1 db3d 4d44 8c3d 0faf f7bd
00000150: 999c d6bd 3315 3dbb a4d4 c9bc 3824 3bbe
00000160: c584 03bb 6ada 81bd 4b7c e53d 2c36 9dbd
00000170: fa37 74be 0c54 58be b08d c4bd 158a 91be
00000180: 0354 3bbe 3547 21be 00c0 653e 49c9 b6bb
00000190: 5a90 193e ebcd 4c3d a895 e6bd f362 fa3d
000001a0: 963c 6cbc 75b9 1ebe f4c3 27be ba9b 11be
000001b0: ddf7 d83c e44b 13be 871f 65bc 5b70 ddbd
000001c0: 844c b23d 628a 92bd 9c9d 863c 74a1 32bb
000001d0: efce b63d 8423 f83d 0e1a 033e 5df2 9fbc
000001e0: 06b8 7d3d da64 8dbd fa2c dabd 1045 0abe
000001f0: 138c 6c3e 7221 55be 5846 8cbd d69f 903d
00000200: f215 e5bc dd6d 43be 418e 133e 2b65 2f3d
00000210: 5b98 6fbd c875 d4bd ddc1 cb3d 157b fcbd
00000220: b52f 0bbe 4c7a c83d c834 07bc f361 2bbe
00000230: 09b0 81bd cb85 6cbb 9c27 d53d 2732 acbd
00000240: 9efb 12be 5246 34bd 63ac a7bd 659a 603c
00000250: a99e f13d 2ac1 3cbe 8b6c b83d 3a1b 1c3e
00000260: 41d9 ba3c 6dec 96bd 4a2d aa3d 5e2d 343e
00000270: aa7a 033e b18d 94bd 48dd 2fbe df23 c9bc
00000280: 939a 5abd 4f60 4bbd 4346 9b3d 9f52 ad3d
00000290: 9073 08bd 1068 8e3d 980b 2dbc 6788 c1bc
000002a0: f019 d63c 16e5 133d a4a4 debd fbef cdbd
000002b0: f5c9 653d 33c8 c23c 34fe 48bd 8f6e 5cbe
000002c0: 58ee 96bd 0ccd aabd 142b e1bd b9de 38bd
000002d0: 2a29 4f3e c7ad a83d eb09 babe 9993 f3bd
000002e0: fdf7 f7bd 7260 8e3d 6300 6bbd 37ad b03c
000002f0: 84b4 153e f08e f3bd 3d2e 40be 1f9c 313e
00000300: a384 eebd 1cf0 dabc 8a2a cdbd f427 b93d
00000310: d499 c53d 016f 483d a9b3 12be 876f 6dbe
00000320: 0398 0ebe 8133 4b3e 085b e3bc c9f6 d33c
00000330: 3c27 c83d 77bc 0b3d a233 873d 83a1 30be
00000340: aa82 66be 77da 27be 584f ce3c b5a5 0cbe
00000350: 0615 06bd d2b3 2bbd d826 89bc 8a65 1dbe
00000360: 0573 e3bd 5c13 213e ef88 7ebe 797c 9d3d
00000370: 22ca 91bd 3d67 18be 9723 b8bd b2f7 8abd
00000380: 00a9 fcbc 2b96 5bbe 1f6f dc3d ee30 05be
00000390: 2f60 333d b124 47bd 1227 103e e8a7 abbd
000003a0: 0fa5 043e 2d9b 823c 1464 b2bc 6e20 1c3e
000003b0: f4e9 f0bc d61d 9abc f06a 84bd 5434 d1bd
000003c0: f685 263e d8f0 b2be 9948 eb3d 1213 5a3e
000003d0: 8fb2 5f3e 47d0 35bc 00d2 7abe 2593 1c3e
000003e0: 38dc 1e3e 5d1b 5cbe 8500 cb3d f3e4 edbd
000003f0: f611 87bd bcc2 2cbe da1e 17be 4266 82bd

a2c_network.actor_mlp.0.bias f4 [256]
-0.0016254478 0.016461449 -0.10855099 0.08213235 0.08096237 0.0695081 0.094859034 0.15162903
0.03780243 -0.047139794 0.033182845 0.03839023 -0.100891724 0.019705044 0.0685482 -0.026283393
-0.09608988 -0.003998642 -0.011547437 0.066769294 0.032898247 -0.05272596 -0.0063560344 -0.03493303
0.15443245 0.06775331 0.0034451669 -0.030700667 0.038606063 0.012582089 0.075778715 0.052039657
-0.022855671 -0.117879614 0.025555298 0.075381234 -0.03304684 0.008127695 -0.091015965 -0.0006950827
-0.03455479 0.071447104 -0.02724707 -0.13794723 0.2105151 0.065971345 0.14524023 0.04552176
0.11147203 -0.10486969 -0.039841667 -0.06570425 0.0280434 -0.10926545 -0.08945311 0.06796308
-0.039842628 0.11099963 0.08050349 -0.01133468 0.0021882688 -0.03102233 0.00644332 -0.049173754
-0.04575513 -0.15600169 0.018909337 -0.050696827 -0.027778897 0.1498904 -0.051000185 0.0086650215
-0.04883981 -0.035634406 0.09508225 -0.030843312 -0.041433394 -0.0052696643 -0.0011826056 0.01520946
-0.037008043 -0.1103397 -0.077631846 -0.019483771 -0.04752731 -0.048414156 -0.17129588 -0.01315608
0.0642012 -0.065966904 -0.020601312 0.020729294 -0.056121435 0.008736045 0.08649512 0.07927128
0.13692874 0.062423404 -0.028813576 -0.06260227 0.00085373555 -0.013996909 0.044584144 0.14142697
-0.020623498 -0.09653091 0.049420852 0.08376857 0.07331824 -0.021399524 -0.11238256 -0.03620539
-0.006069495 0.045546673 -0.1098506 -0.10619072 0.05979367 -0.119446345 0.001475329 -0.002728115
-0.053843156 -0.0131080095 0.043684445 0.01949128 0.04188389 0.09141165 0.066730864 0.10165713
-0.065930635 0.02763515 0.08496481 0.042381935 -0.024980946 0.06576589 0.03025984 0.026552964
-0.06614169 -0.01172148 0.072808385 0.05473892 0.022123547 0.079641536 -0.0113093015 -0.21223699
0.027989583 0.083324276 -0.006475678 0.15981509 0.056501277 -0.00096078275 0.10052044 -0.050014332
0.007556679 0.048282653 0.033590138 -0.026433796 0.05115717 0.08062594 -0.14534666 0.053698927
0.0113627445 0.014074078 -0.037212834 -0.034666263 -0.17278257 -0.02942324 -0.10750932 -0.031267807
-0.09912227 0.021991504 -0.0019241667 0.084498696 -0.031760547 -0.079456426 0.087870136 -0.10630292
0.040716454 -0.03700795 -0.031024825 -0.002243941 0.047067147 0.059825268 0.012681026 -0.08318008
0.17358097 0.06345726 -0.044688124 -0.06846808 -0.1551599 0.04693799 0.055533443 -0.04843373
-0.045490105 0.03910746 -0.03888418 -0.072311744 0.015014635 0.05593427 -0.05860429 -0.1477068
0.09415074 0.0569781 -0.102477625 -0.07494642 -0.028624907 -0.13716266 0.026275784 -0.10143635
-0.019353328 0.052622557 -0.082610786 -0.09680438 -0.018977731 0.043976296 -0.02148946 -0.028542766
0.00411671 0.04768304 0.06067864 -0.008673452 -0.011175134 -0.0997555 0.11134398 -0.0031230806
-0.07661841 -0.045767207 0.059129313 0.12894051 -0.02552841 0.06497406 -0.028404044 0.008706643
0.0033713314 -0.026298335 0.08064604 0.097320795 0.14508827 -0.047352325 0.035611983 0.078567445
0.0213482 -0.106728494 -0.10078233 -0.051139962 0.10064038 0.07810874 -0.098086886 -0.024107711
-0.09981083 -0.08805075 0.045286566 0.02581794 0.10627428 0.02500851 0.048277434 0.007840481
00000000: fa0c d5ba 29da 863c fb4f debd 0135 a83d
00000010: 99cf a53d 435a 8e3d 7445 c23d a444 1b3e
00000020: b9d6 1a3d a815 41bd bcea 073d 133f 1d3d
00000030: 52a0 cebd 796c a13c 0063 8c3d 4550 d7bc
00000040: c5ca c4bd 0a07 83bb 7631 3dbc 57be 883d
00000050: 50c0 063d 2df7 57bd 4846 d0bb f015 0fbd
00000060: 8a23 1e3e 3fc2 8a3d 4fc8 613b f77f fbbc
00000070: 6421 1e3d 1b25 4e3c df31 9b3d 8927 553d
00000080: d13b bbbc de6a f1bd 5859 d13c 7a61 9a3d
00000090: 205c 07bd 062a 053c 9466 babd 3636 36ba
000000a0: 5389 0dbd dc52 923d 3f35 dfbc 0a42 0dbe
000000b0: 4591 573e fc1b 873d dbb9 143e 0675 3a3d
000000c0: 734b e43d ecc5 d6bd 0431 23bd f38f 86bd
000000d0: 46bb e53c 90c6 dfbd 3133 b7bd 3a30 8b3d
000000e0: 0632 23bd c653 e33d 04df a43d 18b5 39bc
000000f0: 0f69 0f3b 8b22 febc 7c22 d33b 6b6a 49bd
00000100: bb69 3bbd e8be 1fbe c1e7 9a3c 7aa7 4fbd
00000110: 9290 e3bc de7c 193e 92e5 50bd bcf7 0d3c
00000120: 410c 48bd 62f5 11bd 7cba c23d 1dab fcbc
00000130: 10b6 29bd 26ad acbb a901 9bba 1931 793c
00000140: bf95 17bd c8f9 e1bd 72fd 9ebd 6e9c 9fbc
00000150: ffab 42bd ec4d 46bd 3068 2fbe 998c 57bc
00000160: eb7b 833d a819 87bd 15c4 a8bc 7bd0 a93c
00000170: 97df 65bd a121 0f3c 5a24 b13d fb58 a23d
00000180: 0c37 0c3e afaf 7f3d 730a ecbc 9e35 80bd
00000190: 39cd 5f3a 4b53 65bc dd9d 363d 3bd2 103e
000001a0: 9cf2 a8bc ffb1 c5bd 856d 4a3d db8e ab3d
000001b0: e027 963d 0e4e afbc d428 e6bd 1a4c 14bd
000001c0: 9de2 c6bb 268f 3a3d 5af9 e0bd 857a d9bd
000001d0: 35ea 743d 49a0 f4bd d45f c13a 2dca 32bb
000001e0: a48a 5cbd fac2 56bc 76ee 323d 2dac 9f3c
000001f0: 718e 2b3d 0836 bb3d 31aa 883d 9d31 d03d
00000200: a406 87bd 1c63 e23c 0802 ae3d ae98 2d3d
00000210: d7a4 ccbc 44b0 863d 7ce3 f73c 9a85 d93c
00000220: 4b75 87bd 730b 40bc 901c 953d eb35 603d
00000230: 713c b53c 1a1b a33d a64a 39bc a754 59be
00000240: 694a e53c eba5 aa3d ed31 d4bb 91a6 233e
00000250: e26d 673d 0add 7bba a9dd cd3d d4db 4cbd
00000260: 059e f73b 08c4 453d d095 093d b08b d8bc
00000270: 2e8a 513d 361f a53d c1d5 14be 68f3 5b3d
00000280: ce2a 3a3c f696 663c 7c6c 18bd 36fe 0dbd
00000290: eaed 30be 0209 f1bc d92d dcbd ac12 00bd
000002a0: 9e00 cbbd 8727 b43c 5234 fcba a70d ad3d
000002b0: 5917 02bd 0dba a2bd 42f5 b33d 58b5 d9bd
000002c0: 4cc6 263d a695 17bd c627 febc 150f 13bb
000002d0: 7bc9 403d 570b 753d 14c4 4f3c 515a aabd
000002e0: 36bf 313e e1f5 813d e50a 37bd fe38 8cbd
000002f0: 3de2 1ebe 0d42 403d 0977 633d 7262 46bd
00000300: d553 3abd 252f 203d 0545 1fbd 2e18 94bd
00000310: f2ff 753c 551b 653d 0d0b 70bd 7440 17be
00000320: 1ad2 c03d de61 693d cadf d1bd 827d 99bd
00000330: c87e eabc 5e74 0cbe 5040 d73c dcbd cfbd
00000340: df8a 9ebc c08a 573d d82f a9bd 6041 c6bd
00000350: 3077 9bbc 7d20 343d aa0a b0bc 85d2 e9bc
00000360: 77e5 863b 4b4f 433d 2a8a 783d 181b 0ebc
00000370: e917 37bc 9d4c ccbd 5008 e43d 99ac 4cbb
00000380: 1dea 9cbd 6576 3bbd 9431 723d fb08 043e
00000390: f520 d1bc 1f11 853d 99af e8bc 4fa6 0e3c
000003a0: 8ef1 5c3b 9b6f d7bc c029 a53d 2050 c73d
000003b0: 0592 143e 83f4 41bd dfdd 113d f8e7 a03d
000003c0: 6ce2 ae3c 7894 dabd f766 cebd 2378 51bd
000003d0: 8b1c ce3d 7af7 9f3d c7e1 c8bd 897d c5bc
000003e0: 9f69 ccbd f453 b4bd 687e 393d 2580 d33c
000003f0: 54a6 d93d a6de cc3c 8fbe 453d 5c75 003c

a2c_network.actor_mlp.2.weight f4 [128, 256]
0.13927929 0.068640456 -0.08736644 0.09529717 0.09779709 -0.07527484 -0.0649746 0.04222556
0.034889426 0.14045863 -0.06652063 -0.061541423 0.056227643 -0.060150575 0.021223027 0.09128369
0.027774306 0.03164858 0.032124665 0.0079339575 -0.0710466 -0.013824573 -0.06875888 -0.057322655
-0.12437741 -0.015437877 -0.013096117 -0.022876112 -0.01126449 0.07037126 0.023625275 0.0053168987
-0.03490684 -0.06055799 -0.028536841 -0.011348289 -0.044474974 0.15573242 0.013855356 -0.036469866
0.06313565 -0.08714496 -0.034502678 0.005964187 0.014664546 0.16774309 0.04591029 -0.053699497
0.024059227 0.014952809 -0.014792607 0.06574308 -0.06117647 0.06125737 0.09200861 0.016501578
-0.09101291 -0.009396298 0.06471084 0.024897747 0.0021217263 -0.0010849113 0.007871276 -0.0043584406
0.008919802 -0.02581378 0.12407035 -0.039255146 -0.09353696 0.06822184 0.025707753 0.04466181
0.09139505 0.041954517 -0.07582915 0.049528558 0.056668676 -0.06804239 -0.063113615 -0.031632658
-0.038539376 -0.062934816 -0.099288635 0.07495787 0.009640547 0.05368969 0.050940804 -0.044474434
-0.089342125 0.00640405 0.066841826 0.09160617 -0.06880411 0.074599266 -0.056148533 0.033328354
-0.007941088 -0.05186054 0.07498469 0.046973415 -0.005573592 0.022950824 0.1651861 0.04440814
-0.14003676 -0.068641245 -0.07726361 -0.014684197 -0.021448858 0.0045608906 0.09544823 0.111367665
0.044134453 0.13446692 0.16287167 0.061304804 -0.10436132 -0.023226015 0.06711028 0.101439856
0.066477254 -0.020504197 -0.10350154 0.011146484 0.032130413 -0.029389791 -0.08413718 -0.06100436
-0.037216965 0.09976858 0.017824072 -0.04985147 -0.09545589 -0.15545565 -0.08444395 0.13683912
-0.122091874 0.08562046 0.0046259677 -0.09166365 0.08374489 -0.03464786 -0.04352313 0.024378793
-0.07302157 -0.054549955 -0.007841555 -0.031562477 -0.005991372 0.010633612 0.08681011 -0.026980057
0.04640958 0.03980024 -0.044508796 -0.04983817 0.013211001 0.24105334 -0.018257614 -0.008340263
0.07208011 -0.04014359 -0.047446813 0.024405805 -0.025045738 -0.0051838234 0.06796643 -0.101352334
0.05859572 0.025489137 0.052904084 0.1039772 -0.009108483 0.07725985 -0.07510473 0.01753644
-0.012244413 0.01794972 0.04314195 0.10267874 -0.06984942 -0.058013543 -0.112546064 -0.016423937
0.10235431 -0.038864147 0.07062558 0.032022946 -0.016236354 -0.024411846 -0.005629339 0.20716183
-0.024756588 0.06119064 -0.044226978 -0.017823108 0.16043851 0.07123523 -0.079424374 -0.006943884
0.01626163 0.13469474 0.07929803 -0.034069065 -0.038886353 -0.06148304 -0.04051424 -0.09499525
-0.019797053 -0.027078068 0.04707798 -0.015644498 0.1122797 -0.12568584 0.10655097 0.0142420875
-0.06955934 0.029542165 -0.0879862 0.038810402 -0.016192753 -0.01916103 0.023443144 0.004679179
0.020650012 -0.100191325 0.05241166 0.041645177 0.1005697 0.07405072 -0.035016138 -0.033666596
-0.025176572 -0.049911372 -0.015531013 -0.06895249 -0.029659975 0.010448903 -0.04062417 -0.024301242
-0.07188819 -0.09079351 0.09382045 -0.05001704 0.10507635 0.026398934 -0.077756904 0.15691397
0.0688285 0.031468503 0.12536034 0.09414359 0.120022975 0.1601824 0.10894908 -0.08078164
00000000: 3b9f 0e3e 5e93 8c3d 2ded b2bd 2a2b c33d
00000010: d749 c83d b229 9abd 6711 85bd b5f4 2c3d
00000020: 37e8 0e3d 63d4 0f3e f83b 88bd dc12 7cbd
00000030: f54e 663d 7360 76bd eadb ad3c f1f2 ba3d
00000040: f186 e33c f1a1 013d 2795 033d 6efd 013c
00000050: e180 91bd 7680 62bc 75d1 8cbd 29cb 6abd
00000060: 95b9 febd 26ef 7cbc 1991 56bc af66 bbbc
00000070: b28e 38bc cf1e 903d cb89 c13c 6139 ae3b
00000080: 7afa 0ebd a80b 78bd 18c6 e9bc 2dee 39bc
00000090: 642b 36bd 5278 1f3e 9301 633c 6d61 15bd
000000a0: 434d 813d 0f79 b2bd ae52 0dbd 3a6f c33b
000000b0: 9043 703c d8c4 2b3e 6e0c 3c3d 01f4 5bbd
000000c0: db17 c53c a0fc 743c b15c 72bc 4fa4 863d
000000d0: 2e94 7abd 02e9 7a3d 036f bc3d 512e 873c
000000e0: fa64 babd eef2 19bc 1e87 843d 5cf6 cb3c
000000f0: a90c 0b3b 9533 8eba 86f6 003c 40d1 8ebb
00000100: 5c24 123c 6c77 d3bc 9818 fe3d 01ca 20bd
00000110: 4e90 bfbd e4b7 8b3d 1199 d23c 4def 363d
00000120: 542d bb3d 80d8 2b3d 504c 9bbd 75de 4a3d
00000130: 6a1d 683d cf59 8bbd b641 81bd 3f91 01bd
00000140: 77db 1dbd f8e3 80bd d757 cbbd 8383 993d
00000150: 63f3 1d3c b8e9 5b3d 4ea7 503d d32a 36bd
00000160: 01f9 b6bd 11d9 d13b 5ee4 883d 049c bb3d
00000170: 2be9 8cbd 80c7 983d 01fc 65bd 5083 083d
00000180: 561b 02bc b86b 54bd 9391 993d 3267 403d
00000190: aea2 b6bb 5e03 bc3c 8c26 293e 4fe5 353d
000001a0: cc65 0fbe c893 8cbd 623c 9ebd fc95 70bc
000001b0: 84b5 afbc 8673 953b 5d7a c33d bb14 e43d
000001c0: 54c6 343d b2b1 093e d5c7 263e bf1a 7b3d
000001d0: 63bb d5bd 7c44 bebc 1d71 893d b3bf cf3d
000001e0: 3a25 883d 6bf8 a7bc 9ef8 d3bd be9f 363c
000001f0: 2e9b 033d dcc2 f0bc 1d50 acbd b5df 79bd
00000200: d170 18bd 7853 cc3d ca03 923c 0e31 4cbd
00000210: 617e c3bd c42f 1fbe f3f0 acbd 8e1f 0c3e
00000220: 4e0b fabd c859 af3d 6e95 973b 27ba bbbd
00000230: 7182 ab3d eaea 0dbd 4f45 32bd 09b6 c73c
00000240: 558c 95bd c66f 5fbd de79 00bc a847 01bd
00000250: 4553 c4bb 9a38 2e3c 80c9 b13d 4805 ddbc
00000260: f917 3e3d 9405 233d db4e 36bd 1c23 4cbd
00000270: f472 583c b0d6 763e fe90 95bc 99a5 08bc
00000280: bd9e 933d 9b6d 24bd 9757 42bd afee c73c
00000290: b82c cdbc 10dd a9bb fc31 8b3d d091 cfbd
000002a0: 1102 703d 98ce d03c f4b1 583d 00f2 d43d
000002b0: bf3b 15bc 6a3a 9e3d 82d0 99bd 95a8 8f3c
000002c0: ca9c 48bc 4b0b 933c 9db5 303d 3b49 d23d
000002d0: 360d 8fbd 9c9f 6dbd 8d7e e6bd 7e8b 86bc
000002e0: 239f d13d 0330 1fbd 25a4 903d 7e2a 033d
000002f0: 1a02 85bc 5afb c7bc 5176 b8bb 3b22 543e
00000300: 54ce cabc 09a3 7a3d 5927 35bd c401 92bc
00000310: fe49 243e c7e3 913d 3fa9 a2bd 8589 e3bb
00000320: 1c37 853c 6bed 093e 0167 a23d 018c 0bbd
00000330: 4c47 1fbd a4d5 7bbd 42f2 25bd df8c c2bd
00000340: 6e2d a2bc d3d2 ddbc d7d4 403d e428 80bc
00000350: e6f2 e53d cab3 00be 6537 da3d a557 693c
00000360: 2175 8ebd 6902 f23c 1c32 b4bd a8f7 1e3d
00000370: aaa6 84bc 98f7 9cbc d60b c03c cc53 993b
00000380: 372a a93c 1c31 cdbd 9cad 563d 2294 2a3d
00000390: 7df7 cd3d e7a7 973d 156d 0fbd fce5 09bd
000003a0: 193f cebc de6f 4cbd ca75 7ebc f736 8dbd
000003b0: 7af9 f2bc e031 2b3c 8865 26bd 6613 c7bc
000003c0: 1e3a 93bd f3f1 b9bd f024 c03d abde 4cbd
000003d0: 4532 d73d 9442 d83c 033f 9fbd 0eae 203e
000003e0: f5f5 8c3d 1ee5 003d 765e 003e 5bce c03d
000003f0: 9bce f53d db06 243e b220 df3d d870 a5bd

a2c_network.actor_mlp.2.bias f4 [128]
0.05161539 -0.09563606 -0.14484128 -0.019719966 -0.13983612 -0.010997827 -0.01735355 -0.051067628
-0.140127 -0.17390211 -0.009748727 -0.06887515 -0.095093355 -0.03132614 0.06615681 -0.22627684
-0.06596925 0.012516304 -0.10559278 -0.13943033 -0.17238453 0.05257334 -0.028995888 0.020447876
-0.13266143 0.016524458 0.13434662 -0.09654768 -0.046918616 -0.11427767 -0.022367125 -0.1260672
-0.11333885 0.058300253 -0.06878186 -0.06567704 -0.04600785 0.050345898 -0.10321663 -0.07285688
-0.20444481 -0.08174838 0.021758411 -0.10624821 0.0012159148 -0.011700302 0.05287951 -0.03871733
-0.10596651 -0.0336112 -0.065577336 -0.040140413 -0.04518197 0.02974545 -0.13985728 0.02051287
-0.024702543 0.0874338 -0.033922646 0.0064207288 -0.14321746 -0.09550799 -0.09003782 -0.080901675
-0.1905329 -0.050615728 -0.2202101 0.008872035 -0.20663199 -0.066795275 -0.021090439 -0.086529054
0.015126798 0.038660422 -0.08791617 0.012242528 0.075950176 0.0068051936 0.029581819 -0.12139875
-0.014133295 0.07194061 -0.0413051 -0.21222754 0.11422697 -0.10100313 -0.11025058 -0.13567005
-0.16314946 0.010441128 -0.17483585 -0.091210164 0.18740635 -0.034835722 -0.04209615 0.039831415
-0.11512205 0.013146865 -0.047041852 -0.08157923 -0.09359093 -0.15709834 0.012971039 -0.1527776
-0.041774124 -0.0040438855 -0.1058628 0.04315298 -0.14917432 -0.041199517 -0.08077668 0.13570799
0.011265018 -0.15283683 0.03366348 -0.04403509 -0.070963256 0.029955732 -0.10663203 -0.017733315
0.013186303 -0.15136208 0.12954384 0.015666045 -0.05008687 0.12559089 0.013084335 -0.0026276947
00000000: a96a 533d d7dc c3bd 4651 14be c48b a1bc
00000010: 3331 0fbe 3b30 34bc 0829 8ebc 4a2c 51bd
00000020: 747d 0fbe 6513 32be 20b9 1fbc 6a0e 8dbd
00000030: 4ec0 c2bd d74f 00bd 397d 873d 1eb5 67be
00000040: e31a 87bd 2f11 4d3c 0741 d8bd d3c6 0ebe
00000050: 9285 30be 2457 573d c988 edbc 4e82 a73c
00000060: 66d8 07be 4d5e 873c 2992 093e caba c5bd
00000070: bc2d 40bd 690a eabd 433b b7bc c317 01be
00000080: 331e e8bd 3fcc 6e3d 81dd 8cbd af81 86bd
00000090: ba72 3cbd 8037 4e3d 3e63 d3bd fd35 95bd
000000a0: fb59 51be b26b a7bd b23e b23c a998 d9bd
000000b0: 555f 9f3a a0b2 3fbc 2f98 583d 1096 1ebd
000000c0: f804 d9bd e6ab 09bd 694d 86bd 466a 24bd
000000d0: bb10 39bd bbac f33c bf36 0fbe 9b0a a83c
000000e0: fd5c cabc 7e10 b33d 79f2 0abd fa64 d23b
000000f0: 99a7 12be b199 c3bd c065 b8bd c7af a5bd
00000100: 0e1b 43be 7052 4fbd c27e 61be 035c 113c
00000110: 5697 53be f6cb 88bd dbc5 acbc 2536 b1bd
00000120: 64d6 773c 645a 1e3d 650d b4bd e294 483c
00000130: c48b 9b3d 1afe de3b 9255 f23c e89f f8bd
00000140: 568f 67bc 9955 933d 892f 29bd 2d52 59be
00000150: d4ef e93d bbda cebd 0ecb e1bd 17ed 0abe
00000160: a710 27be 4411 2b3c 2b08 33be 65cc babd
00000170: 73e7 3f3e e7af 0ebd 036d 2cbd 4426 233d
00000180: 1cc5 ebbd f365 573c f5ae 40bd 0313 a7bd
00000190: 9aac bfbd 63de 20be 7b84 543c bb71 1cbe
000001a0: 581b 2bbd 9282 84bb 98ce d8bd 2ec1 303d
000001b0: 27c1 18be d3c0 28bd 3e6e a5bd 09f7 0a3e
000001c0: e990 383c 4281 1cbe b8e2 093d 235e 34bd
000001d0: 2f55 91bd b965 f53c e561 dabd 7545 91bc
000001e0: 5d0b 583c a9fe 1abe 24a7 043e 1456 803c
000001f0: e427 4dbd e69a 003e ae5f 563c 6735 2cbb

a2c_network.actor_mlp.4.weight f4 [64, 128]
-0.085599706 -0.06837016 0.10894621 -0.04613528 0.044703502 0.1639606 0.07149997 -0.04707153
-0.031154297 -0.004116573 0.1219071 0.03237665 -0.025443051 0.12533602 0.010304033 -0.044473697
0.01521611 -0.018994328 0.009747435 0.02413932 0.044465058 0.021699144 -0.00849515 -0.004628378
0.102354534 -0.002650168 -0.07026172 -0.024401383 -0.022906702 0.042880643 0.012043852 -0.07418154
-0.047082692 -0.009356797 -0.08381166 -0.19588792 -0.021351825 -0.1525035 -0.07843963 -0.096814625
-0.07064025 -0.054667827 0.036265817 0.07258334 -0.10645205 -0.15016061 -0.08299884 -0.04237051
0.060923487 -0.053064402 0.00044029183 -0.07073731 -0.08054466 -0.03705056 0.110154495 0.081978075
-0.09552011 -0.023919785 -0.03768054 0.10738079 0.10329594 0.005917502 -0.16700508 0.038651105
-0.08813889 -0.08663643 0.15925738 -0.03830961 -0.08232221 0.01018664 -0.09608547 -0.0340738
-0.18338472 0.06826118 0.023355437 -0.0768848 0.083774954 -0.056330077 -0.04586537 -0.09660894
-0.007838383 -0.091058485 -0.08672956 0.046133924 -0.10665289 0.05299174 -0.038372934 -0.0046529258
-0.03124485 0.018706407 -0.06409505 0.10241399 -0.121044196 -0.041656714 0.0067388653 0.0038210386
-0.10630547 -0.010820796 -0.06596204 0.13538736 0.014610179 -0.033221606 0.006616807 0.13932309
0.06445867 -0.02151863 0.02423571 0.07357454 0.034821644 -0.020268075 0.08970058 -0.05864758
-0.049067583 -0.055691764 0.032699868 -0.040579718 -0.01789864 0.022652546 -0.104505606 -0.033595443
0.032108888 0.042426903 0.0014502581 -0.00889064 0.010891549 -0.114872254 0.0011555676 0.058345467
0.13120997 0.06391678 0.023285786 0.06363656 -0.031785008 -0.012014496 -0.014572313 -0.1364652
-0.14636181 0.016999742 0.04743424 -0.032287233 -0.031188473 0.10970646 -0.063969314 0.06689393
0.020557852 -0.073441856 -0.1509634 -0.071868695 -0.058758922 0.023139345 -0.16132373 -0.08399051
-0.11021921 -0.0829267 0.023389837 -0.06568575 -0.019470282 -0.030451858 -0.07556143 0.021982182
-0.19126815 0.0184669 0.033882745 -0.03565398 0.094519295 0.09183721 -0.061230272 0.03086379
0.17156836 0.03667967 -0.084682 -0.14281419 -0.10207779 -0.042295735 -0.09930808 0.02728493
-0.073252134 0.020986425 -0.0694682 0.0074630007 -0.019894557 0.054901168 -0.030712591 -0.04953115
0.035938952 -0.09059913 -0.09603303 -0.1442431 0.13373019 0.046811856 -0.2092018 0.057161428
-0.014010854 -0.088379286 0.003521096 0.0108449645 0.13853233 0.013281315 0.088775836 -0.09888632
0.09015726 0.05032754 -0.015134935 -0.037522826 0.02437505 -0.030784052 -0.036742937 -0.050533343
0.166636 -0.08401331 -0.10430836 0.08537465 -0.016059935 0.045470443 0.053101458 -0.118539385
-0.084311925 0.051535092 -0.13827655 0.09409047 -0.06316117 -0.10919036 0.09669768 0.068929225
0.060461562 -0.061241765 -0.13439909 -0.14010885 -0.043356303 0.005942261 0.023674231 -0.06919414
-0.104927965 0.06604561 -0.13134159 -0.050885897 -0.17775694 -0.15566187 0.07136856 0.16461626
-0.03281267 -0.14002259 -0.03399446 -0.19357584 0.09524601 -0.086396866 0.032961216 0.11237229
-0.03001662 -0.056398414 -0.0008055715 0.008805236 0.06554288 -0.017170165 -0.015609509 -0.14106686
00000000: e64e afbd a805 8cbd 311f df3d 59f8 3cbd
00000010: 051b 373d 4ae5 273e 946e 923d 14ce 40bd
00000020: 4c37 ffbc 51e4 86bb 6eaa f93d 619d 043d
00000030: f26d d0bc 1658 003e 3fd2 283c 0d2a 36bd
00000040: fe4c 793c fe99 9bbc b5b3 1f3c d3bf c53c
00000050: fe20 363d 67c2 b13c 3e2f 0bbc a6a9 97bb
00000060: 419f d13d 71ae 2dbb 60e5 8fbd 69e5 c7bc
00000070: d6a6 bbbc 9da3 2f3d 9453 453c 7eec 97bd
00000080: c8d9 40bd 404d 19bc 73a5 abbd d896 48be
00000090: 06ea aebc e129 1cbe f5a4 a0bd bf46 c6bd
000000a0: d6ab 90bd 5feb 5fbd 778b 143d 93a6 943d
000000b0: 8803 dabd b4c3 19be 4cfb a9bd b38c 2dbd
000000c0: e88a 793d 0f5a 59bd f8d6 e639 b9de 90bd
000000d0: 99f4 a4bd 54c2 17bd ae98 e13d 1fe4 a73d
000000e0: 0ca0 c3bd 6df3 c3bc e956 1abd 76ea db3d
000000f0: d28c d33d 9be7 c13b 6103 2bbe 9f50 1e3d
00000100: 2a82 b4bd 716e b1bd 5e14 233e 8aea 1cbd
00000110: 8c98 a8bd dde5 263c 75c8 c4bd f890 0bbd
00000120: 34c9 3bbe 84cc 8b3d e753 bf3c c775 9dbd
00000130: 3492 ab3d 5eba 66bd 54dd 3bbd e8da c5bd
00000140: 906c 00bc df7c babd 449f b1bd edf6 3c3d
00000150: d56c dabd de0d 593d f02c 1dbd 9277 98bb
00000160: 33f5 ffbc 2e3e 993c 4444 83bd 6dbe d13d
00000170: 05e6 f7bd 3ba0 2abd b3d1 dc3b 646a 7a3b
00000180: afb6 d9bd b549 31bc 1b17 87bd fca2 0a3e
00000190: 885f 6f3c 6113 08bd cdd1 d83b b6aa 0e3e
000001a0: e802 843d d747 b0bc f889 c63c 40ae 963d
000001b0: 24a1 0e3d 3c09 a6bc f0b4 b73d 7238 70bd
000001c0: 17fb 48bd 0c1d 64bd 4cf0 053d eb36 26bd
000001d0: 2ba0 92bc d591 b93c 0907 d6bd 609b 09bd
000001e0: 9c84 033d d5c7 2d3d 9616 be3a 0caa 11bc
000001f0: 7872 323c 2542 ebbd 6a76 973a a8fb 6e3d
00000200: e85b 063e cde6 823d d5c1 be3c e353 823d
00000210: ff30 02bd 73d8 44bc b6c0 6ebc 89bd 0bbe
00000220: dfdf 15be 0b43 8b3c 684a 423d 9e3f 04bd
00000230: f87e ffbc c8ad e03d 5802 83bd afff 883d
00000240: f168 a83c af68 96bd 2696 1abe e52f 93bd
00000250: 32ad 70bd b98e bd3c 0c32 25be 3703 acbd
00000260: 9cba e1bd 79d5 a9bd 0b9c bf3c 4086 86bd
00000270: 2480 9fbc 2d76 f9bc f3bf 9abd fa13 b43c
00000280: ccdb 43be e547 973c a2c8 0a3d e809 12bd
00000290: 5593 c13d 2615 bc3d 98cc 7abd 0fd6 fc3c
000002a0: 9eaf 2f3e 6c3d 163d c26d adbd e23d 12be
000002b0: 290e d1bd 4b3e 2dbd 0962 cbbd a584 df3c
000002c0: 3705 96bd b9eb ab3c 5845 8ebd 308c f43b
000002d0: e9f9 a2bc 0ce0 603d f998 fbbc 2de1 4abd
000002e0: b934 133d 098c b9bd f7ac c4bd 77b4 13be
000002f0: 91f0 083e cabd 3f3d ff38 56be 1a22 6a3d
00000300: c88d 65bc 3300 b5bd 30c2 663b 14af 313c
00000310: 6bdb 0d3e df99 593c 1bd0 b53d e984 cabd
00000320: 5fa4 b83d 4024 4e3d 85f8 77bc 89b1 19bd
00000330: 2fae c73c d62e fcbc c37f 16bd 0dfc 4ebd
00000340: a1a2 2a3e 2c0f acbd 9f9f d5bd e8d8 ae3d
00000350: 2090 83bc 373f 3a3d ea80 593d c7c4 f2bd
00000360: bbab acbd 7616 533d 5e98 0dbe 81b2 c03d
00000370: a55a 81bd 329f dfbd 6f09 c63d c42a 8d3d
00000380: 8ba6 773d a5d8 7abd ea9f 09be b278 0fbe
00000390: 6196 31bd 4cb7 c23b 76f0 c13c a8b5 8dbd
000003a0: 79e4 d6bd ec42 873d 697e 06be bb6d 50bd
000003b0: ea05 36be d365 1fbe ae29 923d 2a91 283e
000003c0: 9466 06bd 1562 0fbe c63d 0bbd bf38 46be
000003d0: 5710 c33d d7f0 b0bd 5702 073d 7123 e63d
000003e0: 6ae5 f5bc 0602 67bd fd2c 53ba d643 103c
000003f0: 583b 863d 72a8 8cbc 07bf 7fbc d573 10be

a2c_network.actor_mlp.4.bias f4 [64]
-0.09576551 0.045981087 -0.07964792 -0.043632034 -0.09061637 0.044213448 -0.04700202 -0.1394962
-0.13438255 0.06695569 -0.10407794 -0.05636631 -0.0061109127 -0.07593557 -0.13190134 -0.07382068
0.025981445 -0.1087568 -0.120361365 0.07900465 -0.10133448 -0.0042233495 -0.094549984 -0.03587713
-0.120440766 0.032535974 0.08989865 -0.038196947 0.042594757 -0.029897068 -0.18669765 -0.17387715
-0.10696575 -0.04884187 -0.14435382 -0.10603579 -0.103656314 0.07286577 0.030883528 0.06639166
-0.03333481 0.016189827 -0.018469993 -0.042353526 -0.012016036 -0.07413891 -0.04289881 0.061529044
0.117247194 0.12912273 -0.033126388 -0.087793544 0.06890045 -0.1599682 -0.11690879 -0.10682352
0.08822356 -0.1308324 0.043403596 -0.081733316 -0.15473749 -0.16202551 0.06904916 -0.08136516
00000000: b520 c4bd aa56 3c3d 731e a3bd 81b7 32bd
00000010: 1395 b9bd 2919 353d 3185 40bd 18d8 0ebe
00000020: 949b 09be 1120 893d d126 d5bd 5ce0 66bd
00000030: 0d3e c8bb 1c84 9bbd 2511 07be 4c2f 97bd
00000040: 0ad7 d43c e3bb debd 0580 f6bd 31cd a13d
00000050: 7488 cfbd 0664 8abb 6ca3 c1bd e6f3 12bd
00000060: a6a9 f6bd 7144 053d c91c b83d 6774 1cbd
00000070: d777 2e3d b2ea f4bc ab2d 3fbe da0c 32be
00000080: dc10 dbbd 6a0e 48bd 7dd1 13be 4b29 d9bd
00000090: c349 d4bd a63a 953d 74ff fc3c 5af8 873d
000000a0: 158a 08bd 87a0 843c 624e 97bc e47a 2dbd
000000b0: e8de 44bc 24d6 97bd aab6 2fbd e105 7c3d
000000c0: 4c1f f03d c038 043e 89af 07bd 1acd b3bd
000000d0: ae1b 8d3d b4ce 23be e06d efbd 4ac6 dabd
000000e0: 8eae b43d eef8 05be f8c7 313d cc63 a7bd
000000f0: 8173 1ebe 04ea 25be a569 8d3d c7a2 a6bd

a2c_network.value.weight f4 [1, 64]
0.011554214 -0.012681839 -0.011308324 -0.02762817 0.06640291 0.09926207 -0.07589836 -0.1398802
-0.003344448 0.036980856 0.11547595 0.0036542385 0.061758045 -0.073509924 -0.04832546 -0.03337089
0.06574114 -0.109767675 0.024002172 0.126955 0.0078012547 0.08423126 -0.13178279 0.06094025
-0.044444513 0.038861945 0.059225768 0.09104764 0.099111214 0.098516166 -0.024357554 -0.00033992008
-0.028006155 -0.04092421 -0.0062054256 0.02383476 0.04367198 0.031617824 0.1532978 0.10169706
0.02952172 0.120626025 -0.10087225 0.10224892 -0.088578425 -0.07490049 -0.020288413 -0.008599679
0.028803479 0.078165025 0.01047886 -0.015636066 0.02592248 0.023014847 0.029171739 -0.11746021
-0.029190673 0.029749371 0.05303497 -0.0100219 0.029124526 0.017763248 0.011450596 -0.06129332
00000000: e34d 3d3c 7dc7 4fbc 8c46 39bc 7954 e2bc
00000010: 40fe 873d ea49 cb3d 9970 9bbd c13c 0fbe
00000020: 872e 5bbb 3d79 173d a87e ec3d f37b 6f3b
00000030: 01f6 7c3d 5f8c 96bd ebf0 45bd eaaf 08bd
00000040: 4aa3 863d e0cd e0bd 34a0 c43c 7e00 023e
00000050: aba1 ff3b 7081 ac3d 11f2 06be 7c9c 793d
00000060: 730b 36bd b42d 1f3d b896 723d 2f77 ba3d
00000070: d2fa ca3d d8c2 c93d 7e89 c7bc 4d37 b2b9
00000080: 2a6d e5bc 25a0 27bd e256 cbbb 1d41 c33c
00000090: 64e1 323d b181 013d 19fa 1c3e 8c46 d03d
000000a0: 89d7 f13c c70a f73d 1c96 cebd e267 d13d
000000b0: 9b68 b5bd 6e65 99bd e333 a6bc abe5 0cbc
000000c0: 46f5 eb3c fc14 a03d 86af 2b3c 3517 80bc
000000d0: 615b d43c a289 bc3c 92f9 ee3c fb8e f0bd
000000e0: 4721 efbc f4b4 f33c 323b 593d e532 24bc
000000f0: 8f96 ee3c 3b84 913c 489b 3b3c b40e 7bbd

a2c_network.mu.weight f4 [6, 64]
-0.05773113 -0.1156419 0.017083216 -0.03817539 -0.09667553 0.062455054 0.14990366 -0.06951317
-0.08437432 0.013515393 -0.108766995 0.027442995 -0.11687387 0.030385986 0.061658707 0.12808314
0.06286212 0.11156634 0.099893086 0.12539226 0.033145666 0.047987606 -0.110221356 0.13934226
-0.050909713 -0.09486097 0.06888213 -0.13198517 -0.03416943 0.012463907 -0.097253606 0.06616074
0.088072285 -0.15003689 -0.10031652 -0.025897682 -0.09267534 -0.07116143 -0.055733893 -0.11647677
0.035303347 -0.17992729 -0.005000996 0.007381592 0.14977303 0.1055566 -0.04233154 0.07010243
-0.059163485 -0.015782664 -0.14943561 0.078415096 0.049182434 -0.05461266 0.14302361 0.004465979
-0.056376785 0.07941808 0.06329077 0.12554795 0.042560432 -0.102842495 -0.10004757 0.05211756
-0.0618425 0.05594733 0.101214714 0.06309036 0.07664326 0.07455421 -0.0132345455 0.039294004
-0.15224725 0.12497554 -0.06301855 0.0054785516 0.0137703195 0.04061938 -0.18398803 -0.00402146
0.0055907476 -0.010545558 -0.102376975 0.18189923 -0.13564517 0.05143584 -0.03160818 -0.008647564
-0.014854627 0.01626548 0.004552054 -0.01854635 -0.014380502 -0.04453711 -0.16912921 -0.07199378
-0.124067694 -0.03389211 -0.024383068 -0.10471634 -0.035365723 0.046593703 0.057128374 0.010567722
0.007797664 0.012154471 -0.09296791 -0.10575283 0.05040066 -0.030420808 0.04915331 0.030211445
0.053438615 0.120889254 -0.04793538 0.089407645 -0.005244967 -0.117598735 -0.06739475 -0.14139794
0.109221935 -0.087319545 0.035788428 0.026809787 -0.097184405 -0.10539849 0.019493524 -0.16984628
-0.11171033 0.04973279 -0.083878666 0.067548014 0.02471842 0.12323276 0.12727462 0.05344248
0.15163186 -0.039161533 0.021015432 0.027186435 0.0028664262 -0.03550435 0.098559655 0.04692458
0.11564607 -0.025999539 0.048304856 0.07106054 0.051256124 -0.11707358 -0.07323396 0.03022831
-0.051542845 -0.059880506 -0.024577152 -0.022734212 0.05309643 0.028046787 0.06844519 0.012838944
0.052283533 0.030414693 0.0059113298 -0.0021666212 0.110793106 0.01799048 0.080518596 0.041997164
-0.05856561 -0.0714437 0.06889987 0.05735249 0.17743593 -0.16946219 0.08829993 0.08662257
0.020590002 0.022898348 0.0125260055 0.05264072 0.04038406 0.029295197 -0.07895782 0.015219169
0.007894671 0.022420716 0.02942782 -0.07385156 -0.05717696 0.0817475 0.026720466 0.097160935
0.02900855 -0.12805921 -0.012064678 0.020447964 -0.08577215 -0.057905648 0.080223225 0.043571956
0.043528564 0.09654681 0.025506372 0.14645422 -0.11533339 -0.0949369 -0.026179355 0.023833495
-0.041765332 0.05401929 -0.100682914 0.04703474 -0.054616384 -0.047182772 -0.06905971 0.0398206
0.10870247 0.015409572 -0.1668901 0.11591186 0.06496216 0.08163792 0.0053605386 -0.08367293
-0.010171056 -0.04597965 -0.061168727 0.009552548 -0.12295722 -0.19494663 0.07288541 -0.028365301
-0.015195443 0.011474841 0.07662661 0.035420094 -0.02366825 0.08169588 0.031821515 -0.064147025
0.023589758 -0.091304705 -0.009487494 0.01798386 -0.078103244 -0.05460163 0.056275643 -0.029258478
-0.11066027 0.112997524 0.0063283187 -0.055194378 0.010088537 0.030679405 -0.05330711 -0.05450487
00000000: 7a77 6cbd a9d5 ecbd 1af2 8b3c cc5d 1cbd
00000010: d2fd c5bd dfd0 7f3d 5880 193e ec5c 8ebd
00000020: 72cc acbd ab6f 5d3c 3bc1 debd 22d0 e03c
00000030: 915b efbd 08ec f83c d78d 7c3d 3a28 033e
00000040: dbbd 803d e57c e43d bf94 cc3d d466 003e
00000050: c0c3 073d a78e 443d bcbb e1bd bdaf 0e3e
00000060: b486 50bd 7846 c2bd 1312 8d3d 1f27 07be
00000070: 3ff5 0bbd 6a35 4c3c e62c c7bd 487f 873d
00000080: 3e5f b43d 45a3 19be bf72 cdbd 6027 d4bc
00000090: 92cc bdbd 15bd 91bd 3949 64bd 5f8b eebd
000000a0: 3e9a 103d dc3e 38be 65df a3bb 48e1 f13b
000000b0: 1a5e 193e 0f2e d83d d663 2dbd dd91 8f3d
000000c0: 6955 72bd a54a 81bc a605 19be 1898 a03d
000000d0: 8573 493d 86b1 5fbd c874 123e 5957 923b
000000e0: 58eb 66bd f2a5 a23d 979e 813d a48f 003e
000000f0: d953 2e3d 169f d2bd bee5 ccbd 3979 553d
00000100: 904e 7dbd 0729 653d a949 cf3d 8535 813d
00000110: 24f7 9c3d e1af 983d b5d5 58bc c0f2 203d
00000120: b4e6 1bbe 2df3 ff3d df0f 81bd 6c85 b33b
00000130: e89c 613c 8260 263d 5c67 3cbe 74c6 83bb
00000140: 9732 b73b 47c7 2cbc 05ab d1bd cb43 3a3e
00000150: 91e6 0abe 63ae 523d 9477 01bd 83ae 0dbc
00000160: d260 73bc 2f3f 853c 6629 953b 84ee 97bc
00000170: 329c 6bbc 8b6c 36bd 3530 2dbe 7a71 93bd
00000180: 3417 febd 74d2 0abd 00bf c7bc 8575 d6bd
00000190: a6db 10bd 0ad9 3e3d 71ff 693d 3d24 2d3c
000001a0: 8c83 ff3b 8c23 473c f665 bebd f194 d8bd
000001b0: ec70 4e3d 0f35 f9bc fb54 493d fe7d f73c
000001c0: 73e2 5a3d c994 f73d e457 44bd 5b1b b73d
000001d0: f9dd abbb 9bd7 f0bd 4206 8abd 9fca 10be
000001e0: c0af df3d 97d4 b2bd e396 123d 33a0 db3c
000001f0: 9e08 c7bd 2adb d7bd e2b0 9f3c 2fec 2dbe
00000200: 63c8 e4bd 9cb4 4b3d 94c8 abbd 9d56 8a3d
00000210: 497e ca3c 7561 fc3d 4754 023e 80e6 5a3d
00000220: 6245 1b3e d867 20bd 8e28 ac3c 16b6 de3c
00000230: a7da 3b3b 026d 11bd a5d9 c93d fd33 403d
00000240: d9d7 ec3d fcfc d4bc 50db 453d 3088 913d
00000250: f1f1 513d 46c4 efbd b0fb 95bd 5ca1 f73c
00000260: 971e 53bd 4345 75bd 0656 c9bc 193d babc
00000270: a47b 593d 60c2 e53c fe2c 8c3d 6f5a 523c
00000280: 4227 563d 3c28 f93c d4b3 c13b dffd 0dbb
00000290: 7fe7 e23d c560 933c efe6 a43d 3805 2c3d
000002a0: 7ee2 6fbd 1351 92bd 601b 8d3d 72ea 6a3d
000002b0: c4b1 353e 7f87 2dbe 98d6 b43d 2d67 b13d
000002c0: 5dac a83c 5195 bb3c e039 4d3c cc9d 573d
000002d0: c269 253d 7bfc ef3c a3b4 a1bd d259 793c
000002e0: a658 013c a6ab b73c 9d12 f13c 7d3f 97bd
000002f0: 6332 6abd 3c6b a73d e1e4 da3c 50fc c63d
00000300: 57a3 ed3c f421 03be edaa 45bc 7d82 a73c
00000310: 4fa9 afbd 792e 6dbd 134c a43d 8278 323d
00000320: 024b 323d 55ba c53d bdf2 d03c 18f8 153e
00000330: ea33 ecbd 476e c2bd 1676 d6bc 763e c33c
00000340: 2012 2bbd 5543 5d3d d832 cebd 80a7 403d
00000350: 6eb5 5fbd b942 41bd 2d6f 8dbd ed1a 233d
00000360: 679f de3d 6e78 7c3c 3de5 2abe 3263 ed3d
00000370: e20a 853d c831 a73d 75a7 af3b b75c abbd
00000380: 80a4 26bc 2855 3cbd 0f8c 7abd 4a82 1c3c
00000390: ffd0 fbbd 17a0 47be f244 953d 595e e8bc
000003a0: 4ff6 78bc f900 3c3c 69ee 9c3d a914 113d
000003b0: ebe3 c1bc 2b50 a73d 4757 023d 845f 83bd
000003c0: 4f3f c13c f6fd babd 6f71 1bbc e352 933c
000003d0: 98f4 9fbd f5a5 5fbd 4a81 663d 7aaf efbc
000003e0: daa1 e2bd 3f6b e73d c95d cf3b 8013 62bd
000003f0: 644a 253c 6053 fb3c 8e58 5abd 8040 5fbd

a2c_network.mu.bias f4 [6]
0.0066237897 0.14037526 0.057039086 -0.069636695 0.15766664 -0.025905903
00000000: 600c d93b 88be 0f3e d1a1 693d af9d 8ebd
00000010: 5d73 213e 9e38 d4bc

exp_avg f4 [6]
-0.0029813347 0.008218166 0.0064658066 -0.004342328 -0.007942722 0.009689249
00000000: 7f62 43bb 7da5 063c 1edf d33b 164a 8ebb
00000010: 3122 02bc a8bf 1e3c

exp_avg_sq f4 [6]
0.00033473884 0.00028959147 0.00030435392 0.00028633684 0.0002933615 0.00030692405
00000000: e37f af39 4fd4 9739 b191 9f39 7b1f 9639
00000010: 50ce 9939 a6ea a039

exp_avg f4 [256, 30]
0.00037402596 -4.72728e-05 -0.0009863592 -0.00041043304 0.0003576646 0.00066246686 0.0007072883 -0.00031855097
-0.0010383523 -0.0008513006 -4.111936e-05 -0.0016493706 -0.0002154778 -0.0005369688 -0.0005694635 0.00033281947
0.0010388584 0.0011381394 0.00069833634 -0.00070247997 -0.001804519 -1.621113e-05 8.629636e-05 -0.000110710374
0.00012192697 -0.0005850693 -0.0010384937 0.00021639137 0.00083209656 0.0011426983 9.8956e-05 -8.106449e-05
-0.0005184673 -1.1887998e-05 6.339559e-06 0.00011293663 0.0002843745 -8.5700885e-05 -0.00037080963 9.347906e-05
0.0003495329 -0.00072984415 -0.00018919467 -0.00073690957 -0.00034229434 0.00027036376 0.00026971442 0.0004927
0.00022594372 -0.00084391603 -0.00044761127 -0.00026009558 0.00046404713 0.00017825777 -0.0001001356 -0.0008780296
-0.00045556788 0.0001280242 0.00029381196 0.00059444277 -1.5913449e-05 7.819266e-05 -0.00022025613 -2.2539736e-05
-0.00029827654 0.00039412765 0.0004395868 -0.00023529578 -7.3415424e-05 0.00074459077 9.031136e-05 -6.9285685e-05
0.00073296303 7.6293014e-05 0.0008069727 0.00042730058 0.00037439124 -0.00017975378 -6.250303e-05 7.1196024e-05
-4.4046148e-05 -9.799269e-05 0.0006815936 0.0003576344 0.00058990327 4.6598834e-05 0.000544999 0.00030063884
0.0005201253 -0.00029098615 -0.0006171022 -0.00013372098 -0.0014697562 0.0001903046 -0.00065734773 0.00036054963
0.0012786278 -0.0009337884 -0.0010984 -0.0002585036 0.00044005306 -0.00050192955 0.00091706176 -0.0007624781
5.2737087e-05 0.0009827649 0.000894322 0.0012210604 5.725123e-05 -0.0005205352 -0.00030595216 -0.00024946424
0.0007799082 0.0005278476 0.0006417484 -0.00077823567 -0.00025833925 0.0006954199 0.0009457672 0.0011898879
0.0002091145 -0.00019256465 -0.00028804896 0.00017039856 -0.00016658785 -0.0004433741 0.0006817447 2.3053366e-05
-0.0003672692 0.0004633649 6.399032e-05 -6.636925e-05 0.0004986924 -0.0007223188 -0.00046625672 0.00013721155
0.00082168105 0.00042080067 0.00093373156 5.1007035e-05 -0.0014836759 -0.00042773265 0.0003744797 -1.0666592e-05
0.0007937832 -0.0005431175 -0.0011418483 6.6731576e-05 0.0008169309 0.00042136005 -0.00031040286 1.9137588e-05
-8.133016e-05 5.852866e-05 -0.00032613016 0.00019449602 2.0139444e-06 -0.00029593243 7.683321e-05 -0.00023872001
-0.00029447465 -0.00014605773 -9.995094e-05 0.0006405265 0.0006676198 -5.9053735e-05 -0.0007128946 -0.0003384306
-0.00060769677 -0.00010522433 0.00070989766 0.00016358981 -9.4494564e-05 0.00015793701 -0.0002953609 0.00046119833
0.0008564363 2.3040173e-05 -0.00059946434 -0.0003818318 -0.0013818458 -0.00049177615 -9.617593e-06 0.00060080393
-0.0010426827 0.00048353584 4.8607733e-05 -0.0007754647 0.0010478371 -0.00013350528 0.00027022118 0.0011597096
0.00095606234 0.00017173325 0.0012073062 0.00020882231 -0.0013371318 -0.0011825149 -0.0008201426 -0.0003616887
0.0022697335 2.5885887e-05 0.0011184685 0.0013089059 0.00045970455 -0.00010525748 0.0016065856 0.00030232975
-0.0007159453 -0.00090167834 0.000392412 -6.4110895e-06 2.497888e-05 -7.4422736e-05 0.00018820925 -0.00036169516
0.00042180903 -3.81723e-05 -0.0003278577 -0.00012599077 0.00013488086 -0.00042298352 -0.0008078143 -0.0003598468
-0.00030412004 0.00031954335 0.00026463295 0.00065489515 0.00031458135 0.00013570987 -0.0017327025 0.00032257484
-0.00010085907 -0.00022795767 -0.0004990106 -0.00017937123 -0.0010232424 0.00034508636 9.456535e-05 0.0005118353
-0.0005174151 -0.00020125741 -0.0003685737 0.00022657806 5.692933e-05 -8.098536e-05 0.00035867916 -0.00047086942
0.00013540949 0.00033968937 0.0006398317 0.00056911283 0.000999932 -0.0007792248 -0.00015901677 0.0009703326
00000000: ea18 c439 c846 46b8 b948 81ba 642f d7b9
00000010: ee84 bb39 66a9 2d3a 5069 393a 3003 a7b9
00000020: 5219 88ba d129 5fba 9477 2cb8 b22f d8ba
00000030: e2f1 61b9 5ec3 0cba 0c48 15ba 467e ae39
00000040: 4e2a 883a 9f2d 953a 8f10 373a a226 38ba
00000050: 9c85 ecba 23fd 87b7 01fa b438 2e2d e8b8
00000060: 0bb3 ff38 565f 19ba 111e 88ba 1ee7 6239
00000070: 0e21 5a3a 98c6 953a 9986 cf38 2b01 aab8
00000080: c0e9 07ba 9072 47b7 66b8 d436 64d8 ec38
00000090: 1918 9539 50ba b3b8 3a69 c2b9 300a c438
000000a0: 8341 b739 0353 3fba 8f62 46b9 2a2d 41ba
000000b0: f875 b3b9 9cbf 8d39 7568 8d39 8a28 013a
000000c0: 4eeb 6c39 3f3a 5dba 5ead eab9 705d 88b9
000000d0: 5a4b f339 b5ea 3a39 e4ff d1b8 922b 66ba
000000e0: 49d9 eeb9 3c3e 0639 c60a 9a39 61d4 1b3a
000000f0: df7d 85b7 5dfb a338 8ef4 66b9 b713 bdb7
00000100: 0062 9cb9 eba2 ce39 5778 e639 bbb9 76b9
00000110: 9bf6 99b8 a430 433a 8b65 bd38 784d 91b8
00000120: 5124 403a 80ff 9f38 058b 533a 5007 e039
00000130: f149 c439 4a7c 3cb9 0f14 83b8 134f 9538
00000140: 31be 38b8 6d81 cdb8 f9ac 323a e080 bb39
00000150: bda3 1a3a 1e73 4338 44de 0e3a 109f 9d39
00000160: 0559 083a 808f 98b9 07c5 21ba 7437 0cb9
00000170: d6a4 c0ba 818c 4739 dc51 2cba 2708 bd39
00000180: a197 a73a 7bc9 74ba 30f8 8fba c487 87b9
00000190: ecb6 e639 ec93 03ba f966 703a 0ae1 47ba
000001a0: 0432 5d38 1ed0 803a ef70 6a3a fd0b a03a
000001b0: 0a21 7038 8774 08ba 3468 a0b9 86ca 82b9
000001c0: c172 4c3a 415f 0a3a 023b 283a 8302 4cba
000001d0: b571 87b9 d74c 363a 5ded 773a 03f6 9b3a
000001e0: bf45 5b39 2eeb 49b9 4705 97b9 04ad 3239
000001f0: 16ae 2eb9 aa74 e8b9 1db7 323a ba62 c137
00000200: 0a8e c0b9 c9ef f239 8b32 8638 b82f 8bb8
00000210: aeba 023a fe59 3dba eb73 f4b9 72e0 0f39
00000220: 1566 573a e99e dc39 aac5 743a 63f0 5538
00000230: e777 c2ba 4e41 e0b9 d155 c439 aaf4 32b7
00000240: e415 503a 0060 0eba 12aa 95ba 3ef2 8b38
00000250: 4e27 563a fde9 dc39 91bd a2b9 a889 a037
00000260: cc8f aab8 ac7c 7538 73fc aab9 a1f1 4b39
00000270: 4d27 0736 6127 9bb9 8421 a138 ea50 7ab9
00000280: b863 9ab9 1327 19b9 c19c d1b8 01e9 273a
00000290: 3503 2f3a 77b0 77b8 8ce1 3aba 636f b1b9
000002a0: d74d 1fba e2ab dcb8 6d18 3a3a 4e89 2b39
000002b0: 622b c6b8 e59b 2539 abda 9ab9 fecc f139
000002c0: 7882 603a 6546 c137 5f25 1dba 9930 c8b9
000002d0: 0d1f b5ba 8aea 00ba 3f5b 21b7 457f 1d3a
000002e0: a0aa 88ba 1583 fd39 28e0 4b38 8e48 4bba
000002f0: 9457 893a 8dfd 0bb9 79ac 8d39 6601 983a
00000300: 42a0 7a3a 4b13 3439 793e 9e3a 50f7 5a39
00000310: b342 afba 9efe 9aba d7fe 56ba 09a1 bdb9
00000320: cfbf 143b 8525 d937 9399 923a 988f ab3a
00000330: 8004 f139 aebd dcb8 1194 d23a 0382 9e39
00000340: 47ae 3bba 9c5e 6cba a6bc cd39 d71e d7b6
00000350: bd89 d137 6713 9cb8 095a 4539 e7a1 bdb9
00000360: 4026 dd39 321b 20b8 51e4 abb9 641c 04b9
00000370: ce6e 0d39 e3c3 ddb9 80c3 53ba d2a9 bcb9
00000380: 4d72 9fb9 6288 a739 6fbe 8a39 45ad 2b3a
00000390: 65ee a439 574d 0e39 d91b e3ba 431f a939
000003a0: 4d84 d3b8 ec07 6fb9 09d0 02ba 9915 3cb9
000003b0: 511e 86ba b5ec b439 6351 c638 af2c 063a
000003c0: 24a3 07ba a008 53b9 203d c1b9 9695 6d39
000003d0: 67c7 6e38 afd6 a9b8 1a0d bc39 06df f6b9
000003e0: b5fc 0d39 5618 b239 61ba 273a 8430 153a
000003f0: 2610 833a e444 4cba bdbd 26b9 eb5d 7e3a
