IsaacGymEnvs/isaacgymenvs/runs/Bolt_18-16-57-40/nn/last_Bolt_ep_650_rew_0.59498155.pth (torch, 612432 bytes, 36 tensors)

value_mean_std.running_mean f8 [1]
000000 ee 40 d1 26 46 d4 d0 3f
       0.2629561785770552

value_mean_std.running_var f8 [1]
000000 de c8 1f 36 a3 53 a2 3f
       0.0357943538255243

value_mean_std.count f8 []
000000 00 00 00 00 02 78 2e 41
       998401.0

running_mean_std.running_mean f8 [30]
000000 68 3e e4 ec b4 ab e7 3f 3b 12 49 d7 e5 f7 d1 3f
       0.7397102953709238 0.2807554819485493
000010 9a 1e d5 e0 f9 93 bf 3f 68 59 30 b7 26 0f d1 3f
       0.12335168589663184 0.26654975785768054
000020 2a 51 97 a3 44 49 ed 3f f5 7f 4d 6b 83 35 c6 bf
       0.9151938624513936 -0.17350809802428527
000030 84 03 53 fb 6a 6d c9 bf ce 6b e7 08 10 f7 c1 3f
       -0.1986516692323016 0.14035225329175066
000040 02 10 f4 ed 49 2b e0 bf 7c 32 ca d3 f1 e4 f7 3f
       -0.5052842757727378 1.4933946869888635
000050 9f b2 4c c7 4d 01 e0 3f 46 06 61 f2 f8 a0 99 3f
       0.5001591579981158 0.025028123658790834
000060 cf 31 8d 2e 23 8c c7 3f b5 e1 3a 5c e3 45 d3 3f
       0.1839641549398849 0.3011406326945932
000070 c5 38 de 8b 4d 84 c1 3f f8 b0 bb d1 dc 76 b5 bf
       0.13685006455893337 -0.08384494896353434
000080 95 ae eb c3 0f 25 ce 3f a3 25 c0 a1 11 d7 b5 3f
       0.23550602976262228 0.085312940587889
000090 1b 1f 15 1d a8 5e 7a 3f 4b 72 0f 58 d2 d6 56 3f
       0.006437927907718489 0.001393990911530046
0000a0 3d b1 90 99 ac 84 96 bf 4a 14 cc 7c f5 81 62 3f
       -0.02199048697745919 0.00225923487448879
0000b0 a9 bc 27 d1 21 13 92 3f 24 40 7e 53 f4 5f a8 bf
       0.01765110816080254 -0.04760707396701516
0000c0 c6 60 5d 78 79 79 d7 3f 1c 0c 69 35 c8 02 e4 3f
       0.3667892146527375 0.6253396075411533
0000d0 94 36 e5 4a a3 33 cf 3f f1 65 78 67 cb 79 c3 bf
       0.2437633624744434 -0.15215437462101947
0000e0 b0 5b 93 ab 9f de df 3f 58 6c d3 8c 15 d9 a7 3f
       0.49796287303382325 0.046578095856340596

running_mean_std.running_var f8 [30]
000000 6f ac 71 71 75 cd e3 3f 60 7e e6 59 31 a1 c8 3f
       0.6188304153159957 0.19241921319643307
000010 e8 0d e9 62 f7 ec e4 3f 77 51 13 59 cb 14 f6 3f
       0.6539265567629942 1.3800767402181842
000020 4b 7d 65 33 02 e8 f4 3f 41 5a 3a d3 30 66 d0 3f
       1.3066427238153036 0.2562372267506455
000030 c0 98 1c b0 09 5a c8 3f 2a 18 27 df 33 5a bc 3f
       0.19024773692325958 0.11075138280929822
000040 77 69 a0 e6 95 ee d8 3f d2 90 b3 fd 33 8a b5 3f
       0.38956210634355365 0.08414006179697545
000050 09 2b 4b 9e c9 7b b5 3f 72 b1 2f db 9c fb 2b 3f
       0.08392009844389405 0.00021349229572765642
000060 2b 8f 90 dd c6 37 b4 3f 2a 0b f3 76 d3 99 b2 3f
       0.07897608670515115 0.07265969900167293
000070 62 b4 00 cb 28 e9 ba 3f 2a 7d e6 45 9e d0 b6 3f
       0.10512022930261503 0.08912076193381738
000080 bb f7 3a a4 8e 8a ba 3f f8 e8 a9 87 4f 56 c2 3f
       0.10367671498803947 0.14325899242596285
000090 0c 2b aa c4 57 88 c1 3f 64 fa 31 24 1c ea b4 3f
       0.1369733534123373 0.08169723399803669
0000a0 3b 96 90 19 e2 b8 b9 3f b5 f9 cd 48 9b 77 c1 3f
       0.10047734378948629 0.13646260313903516
0000b0 89 06 a9 0d 2a 83 b5 3f d6 37 49 1b dd 59 bf 3f
       0.08403265794279426 0.12246496120607672
0000c0 ea 39 26 0e 10 84 e3 3f 8b 62 a3 ea 0a 84 db 3f
       0.6098709369996957 0.4299342433346644
0000d0 d8 3f d6 2f 40 78 e4 3f f3 03 34 9d 30 79 e4 3f
       0.6396790441813165 0.6397936888098442
0000e0 ae 0a 2a 5e 3d f3 e1 3f ee e1 18 48 f9 0b e8 3f
       0.5609423483986882 0.7514616401813876

running_mean_std.count f8 []
000000 00 00 00 00 04 78 1e 41
       499201.0

a2c_network.sigma f4 [6]
000000 3b 81 ba be c8 d1 fa be c2 71 b5 be 79 49 55 bf
       -0.3642672 -0.48988175 -0.35438353 -0.83315235
000010 7a 8f 3c bf 35 18 0f bf
       -0.7365643 -0.5589631

a2c_network.actor_mlp.0.weight f4 [256, 30]
000000 75 38 66 3e 62 5b bc be 28 1a 4b 3e 41 7a db 3d
       0.22482474 -0.3678847 0.19834197 0.107166775
000010 f0 93 33 bd 05 d8 5b 3e e7 74 97 3d 23 80 37 3e
       -0.043842256 0.21469124 0.07395344 0.17919974
000020 9a f5 17 bc 3c 4c c3 bd 28 49 19 3e b8 1b a7 bd
       -0.009274865 -0.09536025 0.14969313 -0.08159584
000030 34 86 58 3d cd f5 f1 3d 04 0d d3 3d e4 31 1b bd
       0.05286236 0.11814461 0.10305217 -0.037889376
000040 45 17 4a 3d fc 58 65 bc f3 3e 95 3c dd e6 70 3b
       0.049338598 -0.013998266 0.018218493 0.00367587
000050 e7 c8 33 be 7d 82 c5 bd 13 be 5f be cc 1f 2b 3e
       -0.17557107 -0.09644029 -0.21849851 0.16711348
000060 0d 09 03 bd cd 5d c5 3d a4 ee 3f 3d 13 b2 ca 3c
       -0.031991053 0.09637032 0.046858445 0.024743116
000070 a3 08 f4 3d 4c 40 02 be c6 41 dd b9 30 bc 2b be
       0.1191571 -0.1271984 -0.0004220141 -0.16771007
000080 ed 49 27 bd e2 3e 1d bd 27 64 b4 3d 93 e1 fc bd
       -0.040841985 -0.038390048 0.08808165 -0.12347712
000090 c3 f8 9e 3d a3 3b e0 bd fc 24 14 be 4e b1 77 bd
       0.07762291 -0.10948875 -0.14467233 -0.060471825
0000a0 53 50 83 3e 90 c2 1c 3d 52 eb 5d 3e d0 2b 0c be
       0.2564722 0.038271487 0.21671799 -0.13688588
0000b0 62 a4 dd bd 46 ea eb bd 80 e7 98 bd cc 49 b0 3d
       -0.10822369 -0.115192935 -0.0746603 0.08607826
0000c0 81 44 2a 3d 33 8e 1d 3e 2d 8d 14 be ea 1a 5a be
       0.041569237 0.15386276 -0.1450698 -0.2129933
0000d0 cf 0e be 3c 97 1d cc bd 5d 4f 34 3e 09 10 c4 bc
       0.02320042 -0.09966581 0.176084 -0.023933427
0000e0 17 47 1a 3e eb 5d 05 be c2 64 ea bc 3e e6 46 3d
       0.15066181 -0.13024108 -0.028612498 0.04855942
0000f0 c2 0f fc bc 80 39 39 bd 5e 26 93 bb a2 99 cc 3d
       -0.030769233 -0.045220852 -0.0044906577 0.09990241
000100 d7 9b 92 be 54 5f e3 bd dd b5 73 3e 8b 4e 12 be
       -0.2863452 -0.11102167 0.23799844 -0.14287774
000110 69 41 0b bd ff 1f 65 be 42 2f cc bd 4f 6e e4 3c
       -0.033997927 -0.22375487 -0.09969951 0.02788463
000120 94 3f 97 bb f0 27 f8 bd b1 29 4e bd 91 cf 23 be
       -0.0046157334 -0.121169925 -0.05033273 -0.15997149
000130 7d 5f b8 bd dd 84 e0 bd 21 da 9f bd 1f fe aa bd
       -0.09002588 -0.10962842 -0.07805277 -0.08349251
000140 ad 0e 23 3e 8d 78 0a 3e cc ae bd 3d 8d 29 f5 bd
       0.15923567 0.13522549 0.092618555 -0.11970816
000150 5d 47 d7 bd 32 41 94 3a ea f7 bb bc 54 e3 24 be
       -0.10511658 0.0011310934 -0.022945363 -0.16102344
000160 e8 cf d4 bb 40 b8 50 bd aa 21 dc 3d 22 90 74 bd
       -0.006494511 -0.050956964 0.107486084 -0.05970777
000170 16 1d 71 be af ac 4c be aa be d9 bd 88 ed 93 be
       -0.23546252 -0.19987749 -0.106320694 -0.2889216
000180 b3 10 31 be e8 ec 10 be 77 40 70 3e 58 89 48 bc
       -0.17291526 -0.14152873 0.23462091 -0.012239777
000190 0c 79 2b 3e 6f d1 90 3d bc 3e fe bd 7d c7 dd 3d
       0.16745394 0.07071196 -0.124143094 0.10829065
0001a0 99 dc 83 bb d5 ab 22 be b4 3b 24 be 73 3c 14 be
       -0.0040241 -0.15885861 -0.160384 -0.14476185
0001b0 7a 19 f2 3c 74 ca 03 be dd 78 9f bc 55 5b f2 bd
       0.029553164 -0.12870198 -0.019466812 -0.118338265
0001c0 8b 06 c5 3d 51 a3 8b bd 09 ed 00 3c 8a 1c 62 bc
       0.096203886 -0.068182595 0.007869014 -0.01380075
0001d0 f3 7f bf 3d 04 f9 e2 3d a9 3b 09 3e c6 7b 8d bc
       0.09350576 0.11082652 0.13401665 -0.017270934
0001e0 64 ce 94 3d 7b 44 95 bd 98 1e d5 bd 90 1e 06 be
       0.072659284 -0.07288452 -0.10406226 -0.13097596
0001f0 ac a9 67 3e 76 06 5b be b9 42 54 bd eb fa a1 3d
       0.22623318 -0.21389183 -0.051821444 0.07909187
000200 0b 35 7c bc e0 68 36 be 2a d0 0f 3e b5 ce 7a 3d
       -0.015393506 -0.17813444 0.14044252 0.061232287
000210 18 cc 6b bd ec 8d de bd 6e 0c e1 3d 9b 9e fd bd
       -0.057567686 -0.10866913 0.10988699 -0.12383767
000220 5e 41 05 be 02 3b b7 3d 5a 22 a0 ba 02 2d 2f be
       -0.13013217 0.08946802 -0.0012217269 -0.17107013
000230 b1 f8 9b bd f3 40 21 3c 0e 8a dc 3d df 83 9a bd
       -0.076157935 0.009842145 0.10768519 -0.07544684
000240 82 02 0c be 36 3a 55 bd b3 5b 96 bd 9f 8c 6c 3c
       -0.13672832 -0.052057467 -0.07341709 0.014437824
000250 3f 6f 01 3e 9f cb 42 be 0e fb b4 3d 1e b6 1a 3e
       0.12640093 -0.19022988 0.088369474 0.15108535
000260 d4 1e b7 3c 82 4f ab bd 0b 76 ad 3d 74 c4 38 3e
       0.022353567 -0.08364774 0.084697805 0.18043691
000270 ac 01 d7 3d d0 ae 8e bd 79 b2 3c be a0 2f df bc
       0.10498366 -0.069669366 -0.18427457 -0.027244389
000280 dd 6c 78 bd 0b 06 9f bd 94 39 c4 3d d8 56 bf 3d
       -0.060650695 -0.077648245 0.09581295 0.09342736
000290 38 7c 28 bd 38 4a 95 3d 75 0d 5f bc be c4 29 bc
       -0.04113409 0.07289547 -0.013614048 -0.010361848
0002a0 38 2b ea 3c 02 bd 10 3d 7a ff cd bd ea f3 b2 bd
       0.028585061 0.035336502 -0.10058494 -0.08737929
0002b0 7e 2c 8f 3d c8 74 8c 3c 73 f7 04 bd a9 96 51 be
       0.06990908 0.01714553 -0.03246255 -0.20467629
0002c0 7a aa 97 bd dc 90 8e bd 24 ec e3 bd 22 46 13 bd
       -0.07405563 -0.069612235 -0.111290246 -0.035955556
0002d0 7d a6 4a 3e 6f fb bc 3d aa 60 bc be e9 4e ed bd
       0.19790073 0.09227645 -0.367925 -0.115873165
0002e0 96 f3 f4 bd 32 41 75 3d b1 f9 8d bd fb ed c6 3c
       -0.11960523 0.05987663 -0.069323905 0.0242834
0002f0 2b 09 0e 3e 17 af c7 bd 57 62 3a be 35 32 34 3e
       0.13870685 -0.097501926 -0.18201576 0.17597277
000300 b9 e1 fd bd 7a 32 29 bd 87 00 ad bd db f3 c2 3d
       -0.12396569 -0.041307904 -0.08447366 0.09519168
000310 3a 31 be 3d 5f 67 66 3d e0 7d 26 be 3f b0 70 be
       0.09286733 0.056250926 -0.16258955 -0.23504733
000320 21 48 03 be be df 4a 3e fa 0d 6c bc 62 ba d5 3c
       -0.12820484 0.19811913 -0.014407629 0.02608985
000330 29 2f b2 3d 1b ec 6f 3c 00 80 b3 3d 2e 42 2c be
       0.08700401 0.014643694 0.087646484 -0.1682212
000340 9f c1 6a be 67 3c 1f be 78 fa 45 3d d4 24 13 be
       -0.22925423 -0.15550385 0.04833457 -0.14369518
000350 30 59 3f bd d7 57 17 bd 65 84 12 bd b4 90 10 be
       -0.046715915 -0.036949005 -0.035770793 -0.141177
000360 b5 db ca bd 2d 62 1e 3e a4 ca 82 be f2 d6 85 3d
       -0.09905187 0.15467139 -0.25545228 0.06535138
000370 d0 fd 8b bd c7 8f 09 be a2 50 c1 bd 64 7c 86 bd
       -0.0683552 -0.13433753 -0.094392076 -0.065666944
000380 93 75 3c bc 80 8a 5a be 9f 5c d5 3d e1 03 05 be
       -0.011502641 -0.21341896 0.10418057 -0.12989761
000390 98 3b 09 3d a6 15 10 bd f2 c5 18 3e 9b af bb bd
       0.0335041 -0.035176896 0.1491926 -0.091643535
0003a0 b8 87 09 3e 94 80 8e ba 6e fc d2 bc 02 dc 23 3e
       0.13430679 -0.001087206 -0.025755133 0.16001895
0003b0 64 4b 4e bc 7e f0 ae bc 1e cc 84 bd 89 98 da bd
       -0.012591217 -0.02135491 -0.06484245 -0.10673625
0003c0 a8 b9 2b 3e 67 1c bf be dd b2 e4 3d 35 d2 55 3e
       0.16770041 -0.37326357 0.11166928 0.20880969
0003d0 76 71 66 3e 38 14 01 bc 47 61 6b be e9 3e 14 3e
       0.2250422 -0.007878356 -0.22986327 0.14477123
0003e0 74 f7 27 3e df 70 5a be cf 1f b8 3d 6d 19 cf bd
       0.1640299 -0.2133212 0.08990442 -0.101122715
0003f0 87 9f 8a bd 58 d6 23 be 84 bd 01 be bd 70 56 bd
       -0.06768709 -0.15999734 -0.1266995 -0.05235361

a2c_network.actor_mlp.0.bias f4 [256]
000000 e0 fa ef 3a 58 17 c0 3c 38 bd c7 bd 5d cb bb 3d
       0.001830902 0.023448631 -0.097528875 0.09169648
000010 20 42 ac 3d f3 1f 67 3d 8d 60 bb 3d 2a 02 fd 3d
       0.0841105 0.056426954 0.09149275 0.123539284
000020 ca 15 f0 3c 9c 18 24 bd 3a d5 f5 3c 36 e0 d2 3c
       0.029307265 -0.04006253 0.0300089 0.025741678
000030 24 d0 ce bd 9d e7 e9 3c 3d 73 7e 3d bd 1a a7 bc
       -0.100982934 0.028552825 0.06212162 -0.020398492
000040 ca fc a6 bd 78 98 c2 bc b5 9e 84 bc 7c 7f 85 3d
       -0.081536844 -0.023754343 -0.016188959 0.06518456
000050 9e 36 a2 3c 15 c7 61 bd c6 fe e0 bc 65 71 0b bd
       0.019801434 -0.0551215 -0.027465235 -0.03404369
000060 aa 5f 0e 3e 3b ca 63 3d 9f 1e 9e bc 79 b1 19 bd
       0.1390368 0.055612784 -0.01930171 -0.037522767
000070 12 ef 0f 3d bf 1e ea 3c 97 53 aa 3d a8 a5 6e 3d
       0.035140105 0.028579114 0.08316725 0.05826345
000080 6c b6 f1 bc c4 af d7 bd 67 5d 02 3d cc 89 8a 3d
       -0.02950593 -0.105315715 0.031827357 0.06764564
000090 7f 6c 28 bd 4d f1 93 3b 06 6a c8 bd cd c7 23 bc
       -0.041119095 0.0045148493 -0.09785847 -0.009996367
0000a0 47 67 25 bd 4a 17 75 3d 00 4d b5 bc 9b 5d 04 be
       -0.040381696 0.059836663 -0.022131443 -0.12926333
0000b0 a7 60 40 3e a5 f6 98 3d 97 a6 12 3e 3f bf 23 3d
       0.1878687 0.07468919 0.14321361 0.03997731
0000c0 39 ec ec 3d 85 25 c7 bd a3 fa 1c bd 9c a0 8f bd
       0.115684934 -0.09723953 -0.038324963 -0.07013056
0000d0 0c d3 eb 3c a8 62 d7 bd af 5a 98 bd 0a c3 4a 3d
       0.028787158 -0.10516864 -0.074391715 0.04950241
0000e0 8d 8b 24 bd 04 1b ab 3d c0 58 a8 3d 99 c7 c6 bb
       -0.04017215 0.08354762 0.08220053 -0.0060662744
0000f0 ca 28 31 3b 13 08 a0 bc f0 da 43 3c 4b 7d 8c bd
       0.0027032369 -0.0195351 0.011954054 -0.06859835
000100 3b 3e 3c bd 04 8d 1d be 83 81 b6 3c af f5 53 bd
       -0.045957785 -0.15385824 0.022278553 -0.051747974
000110 54 d9 06 bd 1f ca 08 3e 43 6f 20 bd ee 47 92 bb
       -0.032922104 0.13358353 -0.039168607 -0.004464141
000120 2e b7 52 bd de 29 f6 bc bf c1 b8 3d d2 d9 0e bd
       -0.051444225 -0.03004926 0.09021329 -0.0348757
000130 c3 45 cf bc db 9a d5 3b cd c9 d2 3b 80 cb 79 3c
       -0.02530182 0.0065187044 0.006432748 0.015246272
000140 3e c0 b8 bc 06 5e d3 bd 24 a6 87 bd 94 a8 40 bc
       -0.022552606 -0.10320668 -0.06623486 -0.011758942
000150 5b 94 15 bd 73 6d 14 bd 38 5e 26 be 38 ea c9 bb
       -0.036518436 -0.03623719 -0.16246879 -0.0061619543
000160 d4 38 92 3d 86 09 32 bd ee 08 78 bc f4 18 db 3c
       0.07139745 -0.043466114 -0.015138848 0.026745297
000170 a9 af 58 bd d2 fd 97 3c 05 14 9a 3d 82 49 a3 3d
       -0.052901898 0.018553648 0.0752335 0.07973005
000180 c6 28 09 3e 82 28 4f 3d e6 96 2b bc f9 92 87 bd
       0.1339446 0.05057574 -0.010472989 -0.0661983
000190 8f 96 99 bb b4 22 a2 bc a3 5d 26 3d 16 92 fb 3d
       -0.0046871374 -0.019791938 0.040616643 0.12283723
0001a0 30 63 ba bc fd a4 d5 bd 27 de 5f 3d 77 5c 8e 3d
       -0.022752374 -0.1043186 0.05465522 0.0695123
0001b0 95 89 8c 3d 25 b4 e8 bc 40 3e d6 bd f1 d9 40 bc
       0.06862179 -0.028406212 -0.10461092 -0.011770711
0001c0 64 8a 98 bc b3 44 32 3d 63 20 cd bd 05 fd d1 bd
       -0.018620677 0.043522548 -0.10015943 -0.10253338
0001d0 e1 86 16 3d d5 c9 d1 bd be 9e e0 3a e1 bf 86 3a
       0.036749724 -0.102435745 0.0017137153 0.0010280573
0001e0 9e 2c 6c bd b5 73 d4 ba ef 28 3d 3d 7d 1d 1d 3c
       -0.057659738 -0.00162088 0.046181615 0.00958955
0001f0 1c 44 11 3d 79 f5 9c 3d de 1b 8e 3d 0c 7e a7 3d
       0.035465345 0.07664008 0.06938909 0.081783384
000200 ac 42 89 bd 8e 42 1b 3d 6e 6b ae 3d 9c 86 b4 3c
       -0.0670217 0.03790527 0.08516584 0.022036843
000210 5a e6 16 bd 5b 6f 8f 3d 07 38 00 3d 5b e8 d5 3c
       -0.036840774 0.07003661 0.03130343 0.026111772
000220 24 05 96 bd 26 63 49 bc 27 ab 91 3d 51 e3 23 3d
       -0.07325199 -0.012291705 0.07112723 0.040011708
000230 18 f1 ed 3c 2e 4a 92 3d 2c 7b 79 bc 55 fd 56 be
       0.029045627 0.07143055 -0.01522712 -0.20995076
000240 34 ab 23 3c 6c e3 ad 3d 2d 90 ae bc dd 9c 14 3e
       0.0099895485 0.08490643 -0.021308983 0.14512964
000250 de ae 7a 3d 37 e0 08 bc 5b d2 a8 3d fb 60 4e bd
       0.061201923 -0.008354238 0.08243247 -0.050385457
000260 70 81 5f 3c 99 8c 54 3d 6f 07 96 3c cb 3c 0f bd
       0.0136417 0.051891897 0.018314091 -0.034970086
000270 48 0f 3f 3d bc aa a8 3d 21 57 18 be ca a0 03 3d
       0.046645433 0.0823569 -0.14876987 0.032135762
000280 3b fb ca 3c 72 8f 52 3c 78 c4 2d bd 2e be 2d bd
       0.024778 0.012851583 -0.042423695 -0.042417698
000290 1c c5 2c be c3 3b 83 bc f2 fb d7 bd ac d6 28 bd
       -0.16872066 -0.016019708 -0.10546102 -0.041220352
0002a0 4b 67 c2 bd cf df 93 3c 99 49 7d bc 7d 9f b1 3d
       -0.09492358 0.018051056 -0.015459442 0.08672998
0002b0 6c 84 2d bd 94 c6 83 bd 14 ed 9b 3d 2b 40 cc bd
       -0.042362615 -0.0643436 0.076135784 -0.099731766
0002c0 8d 28 4c 3d 8d 8a 43 bd 72 06 10 bd ad 60 83 bb
       0.04984336 -0.047739554 -0.035162397 -0.0040093274
0002d0 e4 74 38 3d af 71 2f 3d 37 d3 8a 3b 9f c8 7f bd
       0.04503335 0.042833026 0.0042366046 -0.062447187
0002e0 0b 14 2f 3e 77 3d 70 3d 9a 53 3d bd 88 ad 90 bd
       0.1709749 0.058652367 -0.046222307 -0.070643485
0002f0 d4 9d 0a be 54 3f 3f 3d 8d a2 70 3d 11 ac 18 bd
       -0.13536769 0.046691254 0.05874877 -0.03727347
000300 90 8c 22 bd d5 a9 1b 3d c4 85 14 bd 54 39 89 bd
       -0.039684832 0.03800376 -0.03626038 -0.067003876
000310 70 32 41 3c c4 cb 6f 3d 92 2e 5c bd 1a af 05 be
       0.01179181 0.058543935 -0.05375535 -0.13055077
000320 b4 d8 b5 3d be f1 8a 3d 40 6b b1 bd dc de 92 bd
       0.088792235 0.0678439 -0.086630344 -0.07171413
000330 17 c6 eb bc d0 ae 06 be c5 bb f9 3c 95 1e be bd
       -0.02878098 -0.13152623 0.030485043 -0.09283177
000340 e1 a0 ba bc 24 f1 24 3d 1c 63 a7 bd 93 44 a1 bd
       -0.022781791 0.040269032 -0.081732005 -0.078744076
000350 60 c1 54 bc cb 19 8c 3c 7d 96 5d bc b2 e1 49 bd
       -0.012985557 0.017102143 -0.013524649 -0.049287505
000360 f6 1d ce 3a 5e 4c 68 3d 4a cd 45 3d ed 62 3b bc
       0.0015725482 0.056713454 0.048291482 -0.01143716
000370 1b a9 32 bc 05 dd a5 bd 4b 8a ca 3d b1 4b a0 3b
       -0.010904576 -0.08098797 0.098896585 0.0048918356
000380 09 94 58 bd 06 4a 16 bd 82 ec 48 3d 3c 66 ee 3d
       -0.052875552 -0.036691688 0.049053676 0.116405934
000390 65 be b8 bc 8c 37 85 3d 3b d3 fc bc 4c 48 fa 3c
       -0.022551725 0.06504735 -0.030862441 0.030552052
0003a0 d6 8d 05 bb 1f 32 cd bc 69 df b4 3d 30 af c5 3d
       -0.002037873 -0.025048314 0.088316746 0.09652555
0003b0 e6 41 06 3e 83 b4 38 bd 7b 58 12 3d 1c 33 93 3d
       0.13111076 -0.045094024 0.035728913 0.07187483
0003c0 18 4e 96 3c d6 7e c1 bd bf fe a9 bd e9 53 38 bd
       0.018347785 -0.0944802 -0.08300542 -0.045001898
0003d0 d1 16 d0 3d c8 fc 90 3d 50 0e b9 bd 4a 9c c8 bc
       0.10160602 0.07079464 -0.09035933 -0.024488587
0003e0 1e 9a b8 bd 48 55 af bd f0 6e 38 3d 7e d8 ad 3c
       -0.090137705 -0.08561188 0.045027673 0.021221396
0003f0 f5 20 da 3d 07 76 e6 3c ff b7 27 3d 44 44 f9 bb
       0.10650817 0.028132452 0.040946957 -0.007607015

a2c_network.actor_mlp.2.weight f4 [128, 256]
000000 d1 29 30 3e 16 40 a5 3d 43 9e 9c bd 5e 65 c1 3d
       0.17203452 0.08068864 -0.076473735 0.094431624
000010 1e b7 d3 3d 1a 15 a2 bd 58 f0 8b bd 92 a0 3d 3d
       0.10337661 -0.07914181 -0.06832951 0.04629571
000020 b6 db 2b 3d bf b3 22 3e d0 c5 92 bd 27 62 47 bd
       0.04195758 0.1588888 -0.07166636 -0.04867759
000030 73 4b 69 3d b8 a1 67 bd f1 00 fc 3c 1c e1 d5 3d
       0.05695672 -0.05655071 0.030762168 0.10443327
000040 96 61 0c 3d 23 bd f5 3c 44 e8 1c 3d a6 91 fd bb
       0.034272753 0.029997414 0.038307443 -0.00773831
000050 15 8e 89 bd 12 c5 67 bc 92 34 91 bd e4 f3 7a bd
       -0.06716553 -0.014146106 -0.07090105 -0.06126775
000060 86 47 07 be 34 8a 24 3b 0d 70 70 bb e8 05 76 bc
       -0.13210878 0.002510679 -0.0036687881 -0.015016057
000070 b3 9d 14 bc 2c 34 86 3d c3 f9 f6 3c 9b dc 3e 3c
       -0.009070802 0.0655292 0.030148393 0.011649276
000080 88 3e 30 bd 23 f5 7e bd c4 fc 12 bd 15 7c 24 ba
       -0.043028384 -0.0622455 -0.035885587 -0.0006274593
000090 cf 72 11 bd c5 04 13 3e 78 dd d4 3b 75 5e 0b bd
       -0.03550988 0.14357288 0.0064961277 -0.034025628
0000a0 6c c1 7d 3d 64 5d b2 bd fe 68 4a bd 1a ca 7e 3c
       0.06195204 -0.08709219 -0.049416535 0.015551114
0000b0 35 bf 8a 3c cd ea 31 3e e8 f6 11 3d 46 ef 2b bd
       0.016936878 0.17374726 0.03563586 -0.041976236
0000c0 35 20 16 3d 56 f5 28 3c ec 22 42 bc d5 ec 87 3d
       0.03665181 0.010312399 -0.011849146 0.06636969
0000d0 13 04 aa bd 23 3e 6f 3d df 08 b3 3d 78 28 21 3c
       -0.08301558 0.058408868 0.087419264 0.009836309
0000e0 54 29 c8 bd 49 f7 10 3b e7 e3 89 3d c5 a8 f8 3c
       -0.09773508 0.002212005 0.06732922 0.030353913
0000f0 f3 ff a0 3b ae 44 5d 3c f7 aa 8e 3b 41 1b 70 bb
       0.004913324 0.013505144 0.0043538767 -0.0036637338
000100 61 e7 a2 ba 75 7f 20 bd 1e 80 fa 3d 11 c8 17 bd
       -0.0012428575 -0.039184052 0.12231468 -0.037056033
000110 22 90 d3 bd 1a c9 b6 3d 9a d2 f7 3c 41 34 2a 3d
       -0.103302255 0.08925076 0.03025179 0.04155374
000120 14 00 b2 3d 03 af 4c 3d 4d 27 89 bd 90 cb 3c 3d
       0.08691421 0.04997159 -0.06696949 0.04609257
000130 41 d9 61 3d 5c f5 9b bd 62 cb 84 bd e6 2f e8 bc
       0.05513883 -0.07615158 -0.06484105 -0.028343152
000140 69 f5 b9 bc fc 50 6f bd cd d2 c4 bd da 7d a9 3d
       -0.022700028 -0.058426842 -0.096105196 0.082759574
000150 96 9a 52 3c 77 82 7f 3d 12 3c 74 3d 47 56 1f bd
       0.012854239 0.06238028 0.0596276 -0.03890064
000160 90 c7 dd bd c3 bb d3 3b 3e 68 89 3d 37 4a ab 3d
       -0.10829079 0.006461592 0.06709336 0.08363765
000170 bd ae 5c bd 33 d6 bb 3d 00 d5 94 bd 7b 96 2a 3d
       -0.05387758 0.09171715 -0.07267189 0.041647416
000180 a5 d3 90 3a ad 23 5a bd d7 74 bf 3d 2e 51 57 3d
       0.0011049403 -0.05325668 0.09348457 0.052567653
000190 27 42 57 bc a0 90 14 3c 9e 4b 35 3e e2 59 51 3d
       -0.013138331 0.009067684 0.17704627 0.05111111
0001a0 8a ce 0a be bb 2d 76 bd 16 57 a2 bd cb 7a 07 bd
       -0.13555351 -0.060102206 -0.079267666 -0.03307609
0001b0 2f cd 35 bd 99 e7 8e 3c c5 0c e7 3d 00 7a 00 3e
       -0.04438513 0.017444419 0.112817325 0.1254654
0001c0 49 2e 06 3d 8b 93 0a 3e f1 d3 26 3e 96 d3 8f 3d
       0.032758985 0.13532846 0.16291787 0.07022779
0001d0 c1 94 cc bd 52 02 a6 bc c7 28 85 3d b9 2d ee 3d
       -0.0998931 -0.020264778 0.06501918 0.11629815
0001e0 ea d4 a8 3d e7 57 2c bc 87 17 ee bd 22 6b f9 3c
       0.08243735 -0.010519004 -0.11625581 0.030446593
0001f0 e0 70 0c 3d 31 d0 9d bc 3e b0 c4 bd 61 0d 6e bd
       0.034287333 -0.019264312 -0.09603928 -0.058118228
000200 88 19 8a bc d1 d1 e4 3d 76 4c ca ba 8b 15 17 bd
       -0.016857877 0.11172832 -0.0015434164 -0.03688578
000210 5e 3a c8 bd 22 8a 20 be 49 26 a9 bd 87 3a 1d 3e
       -0.09776758 -0.15677693 -0.082592554 0.15354358
000220 c6 36 d4 bd 02 e3 ce 3d 7b 61 2b 3c 8f a1 cd bd
       -0.1036201 0.10101892 0.010460253 -0.100405805
000230 09 48 ae 3d a9 89 b0 bc b1 6b 55 bd 4d 2a b2 3c
       0.08509833 -0.021550016 -0.052104656 0.021748686
000240 7b 99 9f bd c0 a5 6c bd 00 64 7e bc 1e 4e 0a bd
       -0.07792946 -0.05777526 -0.015526772 -0.033765905
000250 17 86 3e bc 6a 52 99 3c 89 47 bd 3d a0 6e 19 bd
       -0.011628649 0.018716056 0.0924216 -0.037459016
000260 9e 58 50 3d 64 78 47 3d cb cf 13 bd 4e e8 42 bd
       0.050865762 0.048698798 -0.03608684 -0.047584824
000270 fd ce a2 3c d4 d4 7b 3e c9 a4 5e bc 04 97 1b bc
       0.01987409 0.24592906 -0.0135890925 -0.009496454
000280 97 bb 9b 3d e5 16 12 bd b3 1a 63 bd 25 e9 1e 3d
       0.07604139 -0.035666365 -0.055445384 0.038796563
000290 88 5e 92 bc a1 01 f3 bb bc 2f b5 3d 47 3a c7 bd
       -0.017867342 -0.0074159657 0.08846995 -0.097279124
0002a0 b6 1d a1 3d 9f 41 d2 3c a3 25 7a 3d c6 ab e0 3d
       0.07866995 0.025666056 0.06107105 0.10970263
0002b0 23 3e 10 bc b5 e7 96 3d 85 8e 7b bd 31 0c 79 3c
       -0.008803877 0.07368413 -0.061415214 0.015200661
0002c0 a7 86 d3 bb c7 31 16 3c ec 12 59 3d 88 4f c2 3d
       -0.006455261 0.009167141 0.05299656 0.09487826
0002d0 d9 bb 75 bd ac 96 60 bd 60 eb ce bd 40 08 9e bc
       -0.0599936 -0.054831192 -0.10103488 -0.019291043
0002e0 5e 6f c2 3d 8a 3b 68 bd db a6 8c 3d 37 f6 1f 3d
       0.09493898 -0.056697406 0.06867763 0.03905317
0002f0 54 b8 58 bc 55 e0 ff bc 28 89 0e ba 53 fc 6c 3e
       -0.013227541 -0.0312349 -0.0005437308 0.23143129
000300 d7 d6 d9 bc 6f c2 78 3d e7 87 86 bd c6 72 96 bc
       -0.026591701 0.0607323 -0.0656889 -0.018365275
000310 dc 56 2c 3e 22 0b 82 3d e6 c8 68 bd 5e 9c a4 bb
       0.16830009 0.0634978 -0.056832217 -0.0050235232
000320 4e 67 84 3c b8 82 1a 3e 2d 07 a3 3d 42 9a 22 bd
       0.01616254 0.15088928 0.07960353 -0.039697893
000330 d2 cf d8 bc 8f 37 4f bd 1f 4d 28 bd 07 71 99 bd
       -0.026466284 -0.050590094 -0.041089173 -0.074922614
000340 0e 9d 89 bc 17 5f a7 bc b8 9c 64 3d 22 d2 64 bc
       -0.016798522 -0.020431085 0.05581352 -0.013966115
000350 ce 64 da 3d 57 1e 08 be c7 a5 d7 3d 89 63 55 3b
       0.10663758 -0.13292824 0.105296664 0.0032560548
000360 c9 53 bb bd 51 34 ab 3c 9f 4b ad bd 0c d6 65 3d
       -0.0914684 0.02089897 -0.08461689 0.056112334
000370 8a e4 dd bb f0 c2 58 bb 49 9d 42 3c 6c 9f 8f 3c
       -0.0067716287 -0.0033075176 0.01187832 0.017532073
000380 6d e8 de 3c 98 06 d9 bd cf fc 3b 3d 8e d5 41 3d
       0.027210439 -0.10596961 0.045895394 0.047322802
000390 79 00 be 3d b4 96 a9 3d 48 37 18 bd a9 60 18 bd
       0.09277434 0.082806975 -0.037162095 -0.037201557
0003a0 d6 e7 ac bc 83 2f 8f bd 41 31 5d bc d3 02 7e bd
       -0.021106642 -0.06991484 -0.013500513 -0.062014412
0003b0 73 07 44 bd ae 7f b7 bb 42 5c 48 bd bf dc 0c bd
       -0.047858667 -0.0055999374 -0.04891611 -0.034390207
0003c0 66 30 70 bd ed 49 bb bd fc 34 dd 3d 43 d6 36 bd
       -0.058639906 -0.091449596 0.108011216 -0.04463793
0003d0 d6 9f c8 3d ee bb 0e 3d 56 5f 7b bd 3a cc 22 3e
       0.09796111 0.034847192 -0.061370216 0.15898219
0003e0 dc 4c a1 3d 65 df db 3c b5 c6 18 3e 9e 74 a1 3d
       0.07875988 0.026839921 0.1491955 0.07883571
0003f0 31 20 02 3e 2e 5f 21 3e 13 ad e8 3d e0 4f 90 bd
       0.12707593 0.15758964 0.11361136 -0.07046485

a2c_network.actor_mlp.2.bias f4 [128]
000000 e7 c4 6a 3d 4d 98 d7 bd a3 59 0e be 64 f5 14 bc
       0.057316687 -0.10527096 -0.13901381 -0.009091709
000010 7e 75 03 be a1 8d 1e bc 81 12 09 bd 86 53 21 bd
       -0.12837788 -0.009677322 -0.033464912 -0.039386295
000020 29 57 03 be 4f 8f 38 be f0 e5 ab 3b e3 f9 57 bd
       -0.12826218 -0.18023418 0.0052459165 -0.052728545
000030 24 c2 bf bd ea 9f c0 bc 56 c8 4d 3d 8d a7 55 be
       -0.09363201 -0.023513753 0.050239883 -0.20864697
000040 f2 8a 8c bd 2a 3a 1f 3c b6 76 c4 bd d0 e8 00 be
       -0.06862439 0.009718457 -0.09592955 -0.12588811
000050 b4 88 25 be 9f e0 51 3d 73 0b 26 bd 52 be 1f 3d
       -0.1616543 0.051239606 -0.040538263 0.038999863
000060 c5 f5 f5 bd 68 45 c0 3c 61 3c 02 3e 05 c3 ce bd
       -0.120097674 0.023470595 0.12718345 -0.10095791
000070 0f cc 1c bd 5e bd d6 bd 09 a3 89 bc 11 5e df bd
       -0.038280543 -0.10485338 -0.016801374 -0.109066136
000080 b1 1f de bd ad 74 54 3d 49 f7 96 bd c4 8c 6e bd
       -0.108458884 0.051869083 -0.07371385 -0.058239713
000090 29 c2 3c bd d7 71 1c 3d ca 2c a6 bd 4e 3a 7b bd
       -0.046083603 0.038194504 -0.081140116 -0.0613349
0000a0 e9 d0 4e be fe a7 4a bd 82 60 99 3c 20 b5 bc bd
       -0.2019688 -0.049476616 0.018722776 -0.09214234
0000b0 59 db 55 3b 2f 0e 83 3c 09 58 69 3d 37 90 22 bd
       0.0032631962 0.015997974 0.056968722 -0.039688315
0000c0 f0 43 e5 bd 26 33 2a bd a7 fb 89 bd ec 59 00 bd
       -0.11194599 -0.041552685 -0.06737452 -0.031335756
0000d0 28 b5 50 bd 85 16 c2 3c bb 99 17 be a8 d2 11 3d
       -0.050954014 0.023692379 -0.14804737 0.035601288
0000e0 2f aa 64 bc ff 22 da 3d ae a3 b6 bc 96 95 a8 3c
       -0.013956591 0.10651206 -0.022294845 0.02057914
0000f0 9d 1b 0e be c0 78 9e bd f8 30 9e bd 85 02 ca bd
       -0.13877721 -0.07737875 -0.07724184 -0.09863762
000100 58 d6 18 be 5f 38 3f bd 3e 36 52 be 68 bc 7f 3c
       -0.14925516 -0.04668462 -0.20528504 0.015608884
000110 03 ee 50 be 2b cd 60 bd c1 e9 8e bc 3f ec ab bd
       -0.20403294 -0.054883163 -0.017445447 -0.0839467
000120 37 9b 7d 3c 17 89 2a 3d f2 81 92 bd a3 bd 5a 3c
       0.015478901 0.041634645 -0.07153691 0.013350877
000130 88 c6 af 3d d7 26 33 3b 7f b6 ff 3c f8 fc e4 bd
       0.08582789 0.0027336383 0.03121495 -0.111810625
000140 ae a6 ce bc 9c 96 8c 3d 4d 68 07 bd a7 ba 62 be
       -0.025225963 0.06864664 -0.033058453 -0.22141515
000150 8c ea f0 3d f8 71 dc bd f6 0d cf bd 04 b8 f2 bd
       0.11763486 -0.10763925 -0.10110085 -0.118515044
000160 1a 70 38 be 7a 11 e3 3b e7 8c 2c be 6c fe a5 bd
       -0.18011513 0.0069295736 -0.16850625 -0.08105168
000170 6b 2f 37 3e e0 61 f4 bc e7 8e 75 bd 0d 17 82 3d
       0.17889182 -0.029831827 -0.059950735 0.06352053
000180 d7 97 f5 bd 7b ac e1 3c d5 db 10 bd 79 6d 90 bd
       -0.11991852 0.027548065 -0.0353659 -0.0705213
000190 f0 97 ba bd 69 26 13 be 10 bb 29 3c 08 79 19 be
       -0.09111011 -0.14370121 0.010359541 -0.14987576
0001a0 05 87 35 bd 37 42 d3 3a 44 86 d3 bd 90 51 44 3d
       -0.044318218 0.0016117756 -0.103283435 0.047929347
0001b0 d1 9e 12 be a6 8f cf bc 48 cb be bd ff 4b 03 3e
       -0.14318396 -0.025337052 -0.093161166 0.12821959
0001c0 de df 6f 3c 74 56 03 be 2b a2 13 3d fe 65 37 bd
       0.014640776 -0.12825948 0.036043327 -0.044775
0001d0 bc 95 ad bd b0 a7 f0 3c 4c d5 bc bd 13 2b cb bc
       -0.08475825 0.029376835 -0.09220371 -0.024800813
0001e0 96 0f bb 3c c9 41 1d be 9b 9f 06 3e 77 c6 95 3c
       0.02283458 -0.15357126 0.13146822 0.018283112
0001f0 ae 17 3e bd b4 d1 ff 3d 08 6a 0b 3d 0b bf 25 3c
       -0.0464093 0.124911696 0.034036666 0.010116349

a2c_network.actor_mlp.4.weight f4 [64, 128]
000000 f2 9d 7f bd ac a6 5d bd 06 be d1 3d b4 50 9c bc
       -0.062406488 -0.05411403 0.10241322 -0.019081451
000010 26 bb 2b 3d ef 44 0d 3e 55 7e 99 3d e3 6c 4d bd
       0.041926526 0.13795827 0.07494799 -0.05015267
000020 ef f5 ef bc 03 e2 9d bb ea a6 f6 3d b5 c2 b3 3c
       -0.029292075 -0.0048182025 0.12043555 0.02194343
000030 79 4c 2b bc 03 3f f9 3d b0 88 82 3b ba d7 20 bd
       -0.010455244 0.12170222 0.0039835796 -0.039268233
000040 54 fa ca ba 70 0a c4 bc 99 8d c6 bb 52 3d 80 3c
       -0.001548598 -0.023930758 -0.00605936 0.01565424
000050 73 fc cf 3c 93 f5 e0 bb ce cf 97 bc 6a 78 fe ba
       0.025388932 -0.006865212 -0.018531706 -0.0019414548
000060 ce 2b 99 3d e0 5c 86 ba da 82 9b bd f7 be ef bc
       0.07479058 -0.0010251068 -0.07593317 -0.029265864
000070 6b 3a 51 ba e1 90 55 3d e6 a5 0b 3d f2 96 a0 bd
       -0.0007981422 0.05214012 0.03409376 -0.078412905
000080 e4 60 1e bd bc 1a 31 bc 92 0b 9f bd b4 e0 2e be
       -0.03866662 -0.010809597 -0.07765879 -0.17077905
000090 f4 80 eb bc 2d 49 13 be bc b5 b1 bd b2 53 a0 bd
       -0.028748013 -0.14383383 -0.08677241 -0.078284636
0000a0 37 e9 39 bd 2a 7a f1 bc 04 96 4a 3c cc 4f 65 3d
       -0.045388427 -0.029477198 0.012364868 0.055984303
0000b0 30 13 e2 bd 75 61 05 be 26 df aa bd 57 55 2d bd
       -0.11038816 -0.13025458 -0.083433434 -0.042317715
0000c0 15 18 26 3d f5 2a 88 bd 6b 8a ed bb ac 58 98 bd
       0.04055031 -0.066488184 -0.0072491667 -0.07438788
0000d0 f0 45 b3 bd af b1 2b bd d2 86 eb 3d 81 a9 a9 3d
       -0.08753574 -0.0419175 0.11500324 0.082842834
0000e0 d1 67 ca bd ec 75 a7 bc f0 99 23 bd 52 e2 c7 3d
       -0.09883083 -0.020441972 -0.039941728 0.09759964
0000f0 0e 9d d9 3d 4c 3b e3 3b e0 ed 2b be f2 6c 0f 3d
       0.10625659 0.006934559 -0.16789961 0.035016008
000100 38 15 8a bd 60 6f b3 bd 4b b7 24 3e a4 d1 c7 bc
       -0.067423284 -0.087614775 0.16085546 -0.024391957
000110 a4 12 8f bd 0b 56 3d 3c 56 23 d4 bd 81 45 04 bd
       -0.06985977 0.011556159 -0.10358302 -0.032292847
000120 6f 14 14 be 1f e9 81 3d 70 fd eb 3c 28 23 ba bd
       -0.1446092 0.063432924 0.028807372 -0.09088737
000130 6e ae 68 3d 1b 89 a2 bd c8 cf 73 bd 6f 51 b9 bd
       0.056806974 -0.07936307 -0.059524328 -0.09048735
000140 a8 b0 e2 b9 c1 15 9e bd 50 c8 8e bd 42 e5 2e 3d
       -0.00043237698 -0.07718993 -0.069718 0.042699106
000150 30 11 d8 bd 56 ee 3b 3d a1 73 ee bc ab 9e 52 bc
       -0.10550153 0.04588159 -0.02910787 -0.012855212
000160 ee cf f1 bc d9 9c 14 3d 53 3b 83 bd 85 f8 ab 3d
       -0.029518094 0.036282394 -0.064077996 0.08397011
000170 b4 f8 c6 bd 0b d8 1a bd 50 5a ab 3c 32 5b 0d bc
       -0.09715405 -0.03780369 0.020917088 -0.0086277
000180 12 80 99 bd 20 80 4c bc d6 bc 98 bd 5a e1 ef 3d
       -0.074951306 -0.012481719 -0.074578926 0.11712904
000190 fe 9b 35 3c 11 eb d5 bc 4d 33 3e bb c7 d6 06 3e
       0.011084555 -0.026113065 -0.0029022277 0.13167869
0001a0 bc 00 10 3d 34 d2 28 bc 80 c9 8a 3b 39 59 77 3d
       0.03515695 -0.010304023 0.0042354465 0.060387824
0001b0 e3 18 9c 3c 25 7e ed bc a6 85 b4 3d 0b ac 95 bd
       0.019054836 -0.028990814 0.08814554 -0.07308205
0001c0 60 b4 50 bd 33 12 09 bd 5d 1e 24 3d d7 6a 40 bd
       -0.05095327 -0.03346462 0.04006802 -0.04697689
0001d0 c5 17 93 bc df 7f e1 3c 62 5d c4 bd b2 fd 8d bc
       -0.01795567 0.027526794 -0.09588124 -0.017332885
0001e0 4c 05 0b 3d 87 24 d6 3c b9 69 a7 bc 49 ca b7 bc
       0.0339406 0.026140464 -0.020436155 -0.022435324
0001f0 dd 5d 92 3c 20 62 e3 bd ef 0a 0c bc 94 08 3b 3d
       0.017867023 -0.111027 -0.008547529 0.045662478
000200 8a c7 05 3e 25 56 7c 3d ba a0 11 3d d1 ed 1b 3d
       0.130644 0.06160559 0.03555367 0.038068596
000210 3b bd ba bb 24 a7 e1 3b 21 58 32 3a 63 eb 05 be
       -0.0056988276 0.00688638 0.00068032934 -0.13078074
000220 d0 02 06 be 77 2e 92 3c e5 b1 0f 3d c5 5c 1a bc
       -0.1308701 0.017844422 0.035081763 -0.009421532
000230 36 af 2e bd 03 d4 db 3d 94 df 27 bd ac e8 8b 3d
       -0.042647563 0.107337974 -0.040984705 0.06831488
000240 d7 cd cf 3c 7b 1f 84 bd 66 7c 0c be f8 24 89 bd
       0.025366707 -0.06451317 -0.13719329 -0.06696504
000250 21 75 a8 bd 98 6c ca 3c 41 61 1c be 8c 70 b5 bd
       -0.082254656 0.024709985 -0.15271474 -0.08859357
000260 71 b6 b2 bd a5 9c a2 bd 66 09 05 3d 13 98 73 bd
       -0.08726204 -0.07940034 0.032479666 -0.0594712
000270 4c fa e5 bc 3a 58 0d bd 7d 2d 83 bd b0 12 06 3d
       -0.028073452 -0.034507968 -0.064051606 0.032732666
000280 4d 0f 39 be b2 f4 ab 3c 53 4e 27 3d f9 b8 33 bd
       -0.18072243 0.020990703 0.04084618 -0.043877576
000290 1d 0c ca 3d b4 fa bc 3d 4c 3b 60 bd 51 9a ce 3b
       0.09865592 0.09227505 -0.05474405 0.006305017
0002a0 a7 d5 2c 3e fc c9 1b 3d 43 9f 9b bd 1f 26 e6 bd
       0.16878377 0.038034424 -0.07598736 -0.1123774
0002b0 25 2c c9 bd 44 6a 13 bd a8 27 d4 bd c0 99 d6 3c
       -0.09822873 -0.035990015 -0.10359126 0.02619636
0002c0 73 26 a0 bd 45 9b 0a 3d 03 ba 64 bd 94 8f f6 ba
       -0.078198336 0.033839483 -0.055841457 -0.00188111
0002d0 94 6d 6e bc 74 11 70 3d 3d 5d 8f bb 1c f2 57 bd
       -0.014552493 0.058610395 -0.0043751285 -0.052721128
0002e0 27 71 41 3d 6e 96 dd bd dc 4a a4 bd c1 22 04 be
       0.04722705 -0.10819708 -0.08022091 -0.12903883
0002f0 0f f5 f2 3d e2 db 2e 3d 45 7d 5a be 72 52 7d 3d
       0.118631475 0.042690165 -0.21336849 0.061846204
000300 44 f6 42 bc f2 72 a0 bd f2 d6 82 3c f4 7d 31 3d
       -0.011899535 -0.07834424 0.015971635 0.04333301
000310 a8 23 1a 3e 36 51 71 3c 64 89 b5 3d 03 5f 9f bd
       0.15052664 0.014728835 0.08864096 -0.07781794
000320 2d 62 ca 3d 5b 30 51 3d 32 50 40 bc 35 08 c2 bc
       0.09882007 0.051071506 -0.01173787 -0.023685554
000330 3b d2 a4 3c 9b 61 6d bc 64 4d 27 bd 53 42 3f bd
       0.020119777 -0.014488603 -0.04084529 -0.04669411
000340 08 a9 2b 3e cb 3c 98 bd 82 d2 e8 bd fd 74 c1 3d
       0.16763699 -0.0743347 -0.11368276 0.09446142
000350 6a aa 6e 39 bb f3 9a 3c a4 ac 3a 3d 1e a8 de bd
       0.00022760933 0.018915048 0.0455748 -0.108719096
000360 74 6a 99 bd dd 84 61 3d a9 87 0f be 8e 0f c8 3d
       -0.074910074 0.05505835 -0.14016594 0.09768592
000370 66 14 67 bd 99 2f b9 bd b4 98 b0 3d 51 38 95 3d
       -0.056415938 -0.09042282 0.08622876 0.07286132
000380 75 3c 85 3d f8 d5 9f bd 35 92 08 be 1a 61 e9 bd
       0.06505672 -0.07804483 -0.13337024 -0.11395474
000390 db cc 20 bd 60 63 e2 3b 22 b6 1c 3c 8d 21 83 bd
       -0.039257865 0.006908819 0.009564908 -0.06402884
0003a0 60 0e 95 bd 24 81 97 3d c5 73 00 be b3 38 4b bd
       -0.072781324 0.073976785 -0.12544163 -0.04961462
0003b0 b0 41 31 be d8 34 28 be e8 e5 8f 3d cc 60 24 3e
       -0.17310214 -0.16426408 0.07026273 0.1605255
0003c0 b4 68 00 bd 40 64 05 be 09 4a 35 bd 3f fd 50 be
       -0.031349853 -0.13026524 -0.04426006 -0.20409106
0003d0 57 d2 c9 3d e1 1b b1 bd f1 39 1e 3d 94 b1 bb 3d
       0.09854572 -0.086478956 0.038629476 0.0916473
0003e0 8a 55 01 bd 49 7d 71 bd 2a 6d 86 3b f1 f1 24 3c
       -0.031575717 -0.05895737 0.004102369 0.010067449
0003f0 77 32 87 3d 4b fc 28 bb 57 05 31 bc 82 b6 0e be
       0.06601422 -0.0025785144 -0.010804496 -0.13936809

a2c_network.actor_mlp.4.bias f4 [64]
000000 9a 2a c4 bd fa 41 30 3d a5 55 84 bd ae ea 10 bd
       -0.09578438 0.04303167 -0.06461648 -0.035380058
000010 a8 bd a4 bd cb 8b 52 3d 19 6b 58 bd 7b fb 0d be
       -0.080439866 0.05140285 -0.05283651 -0.13865463
000020 62 9a 12 be 01 71 a5 3d cf b8 b6 bd 1e 7e 43 bd
       -0.14316705 0.080781944 -0.08921968 -0.047727697
000030 8a 37 30 bc fc 10 9d bd 8a fa 12 be 96 08 81 bd
       -0.010755429 -0.07669255 -0.14353386 -0.06300466
000040 7a d6 21 3d 21 d0 e0 bd 40 67 fb bd 9a ca a9 3d
       0.03951118 -0.109771974 -0.12275553 0.08290596
000050 83 af b9 bd f8 39 92 3a ac d7 cc bd 1a 30 eb bc
       -0.09066679 0.0011156192 -0.10002074 -0.02870946
000060 28 a6 da bd 55 4b 13 3d 5d 3e 9d 3d bf e0 d3 bc
       -0.10676223 0.035960514 0.076779105 -0.025864003
000070 d4 c4 34 3d 42 1e eb bc 9c c1 37 be e9 8f 2d be
       0.044133022 -0.028700951 -0.1794495 -0.16949429
000080 65 f6 e4 bd 29 73 34 bd 46 5b 1e be dc a6 d1 bd
       -0.111798085 -0.044055138 -0.15464506 -0.10236904
000090 b0 35 bb bd 05 26 9d 3d eb 35 24 3d 22 39 7b 3d
       -0.091410995 0.07673267 0.040090483 0.061333783
0000a0 bd 23 a1 bc c3 cc a3 3c 46 79 e4 bc 59 29 31 bd
       -0.019670362 0.019995099 -0.027889859 -0.043252323
0000b0 37 28 49 bc 09 ca 75 bd 58 e5 cb bc 43 4a 86 3d
       -0.012277654 -0.06000713 -0.024889633 0.06557133
0000c0 30 01 ff 3d 17 3a ff 3d 9f 1e 02 bd 87 bb 83 bd
       0.124513984 0.12462252 -0.031767484 -0.064322524
0000d0 de cd 92 3d 60 e9 2b be d7 a2 dc bd 6a 62 e5 bd
       0.07168172 -0.16788244 -0.10773247 -0.112004116
0000e0 23 43 c4 3d 39 64 ec bd 91 e4 82 3d 76 85 96 bd
       0.09583118 -0.115425535 0.06391252 -0.073496744
0000f0 f5 24 21 be e6 e1 30 be a8 b3 9e 3d 78 7c a1 bd
       -0.15736754 -0.17273673 0.077491105 -0.07885069

a2c_network.value.weight f4 [1, 64]
000000 90 5b 3e ba e8 89 07 3c c0 07 f8 bc 31 8c f4 bc
       -0.00072615687 0.0082726255 -0.030277133 -0.029852005
000010 bf 39 84 3d ac c5 bc 3d c7 57 92 bd db 54 fb bd
       0.06456327 0.092173904 -0.071456484 -0.12272044
000020 8a 7a c4 3b 4b c5 31 3d 28 2d db 3d 48 b1 cd 3c
       0.005996053 0.043401044 0.10701972 0.025108948
000030 86 2d 2d 3d b9 e7 64 bd 19 d2 7e bd 02 ba 06 bd
       0.042279743 -0.05588505 -0.062212083 -0.032892235
000040 7e 55 91 3d 7c 6c eb bd 11 2f dd 3c b6 a1 01 3e
       0.070963845 -0.11495301 0.026999982 0.12659344
000050 88 1f fb 3b 49 c4 9d 3d 4d 9f 13 be f4 43 7a 3d
       0.007663671 0.07703454 -0.14416237 0.06109996
000060 03 e1 72 bc b0 a8 4b 3d a0 a9 8d 3d b5 80 ab 3d
       -0.014824155 0.04972142 0.06917119 0.08374158
000070 39 ff c0 3d 04 40 c1 3d fc 90 f3 bc b4 8a b0 3b
       0.0942368 0.09436038 -0.02973222 0.0053876285
000080 5a 03 e9 bc 03 b9 3b bd 14 13 2d bc 22 64 a3 3b
       -0.028443981 -0.045830738 -0.010563631 0.004986302
000090 54 76 d6 3c d6 74 33 3d 7f 9f 05 3e 27 bd b7 3d
       0.02617947 0.043812595 0.13049124 0.08971625
0000a0 b2 be bf 3c 72 56 f7 3d e4 6c e2 bd 64 b4 e9 3d
       0.02340636 0.12077035 -0.110559255 0.1141136
0000b0 72 c6 a3 bd 1a 96 a2 bd 66 90 b1 bc d6 b9 93 bc
       -0.07996835 -0.07938786 -0.0216753 -0.01803295
0000c0 4f 1c d4 3c 6a ca 95 3d b7 5d 71 3c 56 7d 95 bc
       0.025892405 0.07313998 0.014731816 -0.018248241
0000d0 8e f9 07 3d 92 6b 28 3c 49 15 90 3c ae 31 f5 bd
       0.03319698 0.010279553 0.017588275 -0.11972366
0000e0 79 4c c5 bc fa 2f 08 3d 07 0c 46 3d 9b 18 ac bb
       -0.024084317 0.03324888 0.048351314 -0.0052519566
0000f0 38 e7 e0 3c cd 92 0c 3c 6a 76 84 3c 76 89 81 bd
       0.027454004 0.008579922 0.016169745 -0.06325047

a2c_network.mu.weight f4 [6, 64]
000000 11 a7 51 bd 15 f5 cc bd cb e6 e1 38 80 82 3c bd
       -0.051184718 -0.10007683 0.000107718246 -0.046022892
000010 1a f1 de bd 65 e0 62 3d 92 73 19 3e d2 da 5d bd
       -0.1088583 0.05538978 0.14985493 -0.05416376
000020 da cb c2 bd 3a 6e 14 3b 60 fd af bd 39 4a 01 3d
       -0.09511538 0.0022648708 -0.08593249 0.031564925
000030 9b da de bd aa f5 a9 3c 54 d6 6e 3d ab 2b 02 3e
       -0.108815394 0.020747025 0.058309868 0.1271197
000040 97 bc 81 3d 0f 40 e5 3d 86 d9 d2 3d 25 0a 01 3e
       0.06334799 0.11193859 0.102953956 0.12601526
000050 a0 e3 c3 3c 0f 3b 48 3d a1 57 fd bd f0 3a 05 3e
       0.023912251 0.048884448 -0.123702295 0.13010764
000060 e2 88 5c bd 6e 35 b3 bd ef bc 8d 3d 78 a4 0d be
       -0.05384148 -0.08750425 0.06920802 -0.13832271
000070 16 ef 22 bd 62 f1 bf 3b 0b c6 c9 bd 16 a5 85 3d
       -0.03977879 0.0058576325 -0.09852227 0.06525628
000080 45 de a9 3d e6 0d 12 be 4f 08 cb bd 92 64 de bc
       0.08294348 -0.14263114 -0.09913694 -0.027147565
000090 70 94 b1 bd 0a 17 a8 bd 1e 49 73 bd bc 04 f3 bd
       -0.0867089 -0.08207519 -0.0593959 -0.118661374
0000a0 66 3b c0 3c 18 07 40 be f5 97 97 bc 5d ce 67 3c
       0.023465823 -0.18752706 -0.018505076 0.014148322
0000b0 56 9b 08 3e 84 e1 e1 3d 37 12 62 bd 44 eb 92 3d
       0.13340506 0.11029342 -0.055193152 0.071737796
0000c0 79 6a 84 bd 10 f7 71 bc 7a aa 12 be d8 91 9a 3d
       -0.064656205 -0.014768377 -0.14322844 0.07547349
0000d0 f5 e0 54 3d 12 7e 52 bd b1 c0 07 3e d9 23 b7 b9
       0.05197235 -0.05138976 0.132571 -0.0003493119
0000e0 b9 b1 86 bd e9 fb 84 3d 13 5b 3d 3d b9 da 04 3e
       -0.06576867 0.064933605 0.046229433 0.12974061
0000f0 7f 71 27 3d f1 6f c6 bd 63 f0 c9 bd 34 73 42 3d
       0.040879723 -0.0968932 -0.09860303 0.047473148
000100 36 18 8a bd 17 10 5c 3d 6c 2e b7 3d 2c 40 6a 3d
       -0.06742899 0.053726282 0.08944401 0.057190105
000110 9a 49 8f 3d 00 dc 9b 3d 56 e3 21 3b fd 00 1e 3d
       0.0699646 0.07610321 0.0024702153 0.03857516
000120 68 57 2a be 55 c9 0a 3e cc c3 60 bd 05 06 85 3c
       -0.16634905 0.13553365 -0.054874226 0.016238222
000130 ed f4 bc 3c 64 ca eb 3c ca 65 4b be 43 0a 98 3b
       0.023066008 0.02878303 -0.19863048 0.004639895
000140 fc 1f bc 3c e7 5f c1 3a 6f 3b d6 bd 28 c6 41 3e
       0.02296447 0.0014753313 -0.10460555 0.18923247
000150 0c de 10 be 0a d5 4d 3d 06 d1 1a bd 84 47 13 bc
       -0.14147204 0.050251998 -0.037796997 -0.008989219
000160 45 c9 b2 bc d7 6c 44 3c 0d bb 25 3b 87 c1 83 bc
       -0.021824488 0.01198884 0.0025288493 -0.016083492
000170 3f 75 71 bc 2f 9f 45 bd bb 30 34 be f2 0c 96 bd
       -0.014737426 -0.048247512 -0.17596714 -0.07326688
000180 7f 31 fd bd 89 e3 68 bd a5 3b f5 bc c6 eb cf bd
       -0.12362956 -0.05685762 -0.029935667 -0.10152392
000190 1a d0 3a bd 82 8f f6 3c b2 42 45 3d 46 c4 40 3c
       -0.045608617 0.030097727 0.04815931 0.011765545
0001a0 a8 2a 3a 3c e3 7e 68 3b ce 57 bc bd 1b 80 b7 bd
       0.011362709 0.003547602 -0.09196435 -0.08959981
0001b0 3d 1d 72 3d a5 e8 d4 bc a7 5d 84 3d 29 27 3f 3d
       0.059109915 -0.02598984 0.06463175 0.046668205
0001c0 35 8d 87 3d 3c 1a 06 3e c9 88 8a bd e6 5c b3 3d
       0.0661873 0.13095945 -0.06764371 0.08757953
0001d0 ee 07 95 bc bf d2 03 be a5 60 84 bd 8c b6 0f be
       -0.018192258 -0.12873362 -0.06463746 -0.1403448
0001e0 79 be e8 3d b9 48 be bd b0 fd 13 3d 02 a2 13 3d
       0.11364455 -0.092912145 0.036130607 0.036043175
0001f0 fa 1c c0 bd aa b7 ed bd dd 42 e7 3c 68 75 3a be
       -0.09380527 -0.11607297 0.028230125 -0.1820885
000200 b4 49 e0 bd 27 b1 4c 3d 94 7f b9 bd 8b 15 58 3d
       -0.10951558 0.049973633 -0.09057537 0.05275492
000210 5f 63 35 3c 7a a4 fc 3d 64 20 09 3e a6 3b 2b 3d
       0.011071055 0.12336059 0.13391262 0.041804932
000220 3e 3d 0c 3e a8 33 08 bd 1a d6 e1 3c 7c 29 02 3d
       0.13695237 -0.03325239 0.027567912 0.031777844
000230 a4 c2 80 ba a9 83 fe bc c0 f9 a1 3d 76 ab 83 3d
       -0.0009823632 -0.03106864 0.07908964 0.06429188
000240 a6 13 e5 3d 99 4a d6 bc ae 59 3c 3d d4 eb 93 3d
       0.11185388 -0.026158618 0.045983963 0.07222715
000250 51 cf 38 3d 60 55 fb bd e2 cd 8b bd ac ce f9 3c
       0.045119587 -0.12272143 -0.068263784 0.030494057
000260 9b 94 35 bd 1c 2a 89 bd 68 b7 f2 bc df 04 09 bd
       -0.044331174 -0.06697485 -0.02962847 -0.03345191
000270 05 91 5e 3d ba 6f d5 3c 0d ea 2f 3d 47 8e 8f 3c
       0.05433752 0.026054252 0.042947818 0.017523898
000280 27 f1 6d 3d 0d 50 c3 3c 8f c6 4e 3c 3c dd f8 bb
       0.05809131 0.023841882 0.012620582 -0.0075947326
000290 33 e7 e6 3d 30 5b e7 3c 2f 94 92 3d 5b 27 19 3d
       0.112745665 0.028241724 0.0715717 0.037391048
0002a0 71 1f 03 bd 94 26 9e bd ca a5 80 3d 5e da 82 3d
       -0.032012407 -0.07722202 0.06281622 0.063893065
0002b0 89 99 3d 3e b3 44 37 be e5 ae 9b 3d b7 d1 ca 3d
       0.185156 -0.178973 0.07601718 0.09903281
0002c0 7e 48 95 3c 0e 11 c9 3c 6f 32 70 ba 24 d7 5a 3d
       0.018223044 0.024544265 -0.00091627886 0.05342783
0002d0 c9 03 09 3d 49 ec e0 3b 75 da 98 bd eb de 37 39
       0.033450875 0.006864105 -0.07463542 0.00017535283
0002e0 77 6e 1d bc 4f e3 2b 3c d4 b6 b0 3c f4 59 88 bd
       -0.009608856 0.010491206 0.021571554 -0.06657782
0002f0 a6 3c 5d bd 5b 43 91 3d b4 a6 8a 3c bb ce b0 3d
       -0.054012917 0.07092925 0.016925193 0.08633181
000300 3d 7b 45 3c 56 c1 00 be 43 51 ab bc b0 c7 80 3c
       0.012053308 -0.12573752 -0.020912772 0.015720218
000310 0d c4 b3 bd b1 8a 22 bd f6 ac a8 3d aa 74 74 3d
       -0.08777628 -0.039683048 0.08236115 0.059681572
000320 cc 47 30 3d 34 cc c1 3d 64 c0 1c 3b 64 bb 1e 3e
       0.04303722 0.09462777 0.0023918385 0.15501171
000330 93 0c e3 bd 14 1f c9 bd bc b0 b7 bc e8 59 fb 3c
       -0.11086383 -0.09820381 -0.02242314 0.03068252
000340 d7 98 13 bd 72 4a 45 3d b4 ba f0 bd 6c 7f 7f 3d
       -0.03603443 0.0481667 -0.11754361 0.06237738
000350 9c e9 8c bd f1 59 35 bd 56 c6 88 bd 38 41 82 3d
       -0.06880495 -0.044275228 -0.066784546 0.06360096
000360 5c f3 f4 3d 06 a6 f8 3c de 20 2d be 47 70 e8 3d
       0.119604796 0.030352604 -0.16907069 0.1134954
000370 4a 33 a1 3d 4e 80 c6 3d 1b fb 34 3b 3a a5 a0 bd
       0.07871111 0.09692441 0.002761549 -0.078440145
000380 bf 77 3a bc fd 0e 7e bd c8 da 68 bd e5 1f 41 3b
       -0.011381089 -0.062026013 -0.05684927 0.0029468474
000390 62 b3 08 be 0e a0 5b be 15 80 9f 3d 17 b8 74 bc
       -0.13349679 -0.21447775 0.077881016 -0.014936469
0003a0 67 30 fa bc 76 19 56 3c 76 c5 ac 3d db b1 a5 3c
       -0.030540658 0.013067594 0.084361 0.02022641
0003b0 87 5d 5a bc 72 4e 9c 3d 2a dd 01 3d 2b d1 93 bd
       -0.013327963 0.0763215 0.03170506 -0.0721763
0003c0 7c ec 8f 3c 06 f6 b7 bd c7 b1 18 bc 32 fe 21 3d
       0.01756882 -0.08982472 -0.009319729 0.03954906
0003d0 4f a8 91 bd f1 93 56 bd 6f de 58 3d e3 9b 0f bd
       -0.071121804 -0.05238718 0.052946504 -0.035060775
0003e0 ed a0 fb bd c2 77 ed 3d 2a e8 27 bc 90 00 57 bd
       -0.122865535 0.115951076 -0.010248223 -0.05249077
0003f0 9b 0c 1c 3b 71 a8 fa 3c c7 c3 34 bd 8b 30 47 bd
       0.0023811224 0.030597897 -0.04413202 -0.04863028

a2c_network.mu.bias f4 [6]
000000 2f e4 03 3c 47 57 1c 3e 81 e1 63 3d da 79 91 bd
       0.008050009 0.15267669 0.05563498 -0.071033195
000010 dc 5e 1f 3e d0 17 09 bd
       0.1556353 -0.033469975

exp_avg f4 [6]
000000 57 c6 dd b9 a8 3c 27 3b 08 d9 62 3b 2f 98 b4 ba
       -0.0004230018 0.0025518332 0.0034614224 -0.0013778264
000010 01 da 07 bc 7f e9 d3 3b
       -0.008291722 0.006467044

exp_avg_sq f4 [6]
000000 01 c3 c3 39 2a 17 c4 39 09 67 b3 39 95 c5 b0 39
       0.00037338588 0.00037401292 0.00034218308 0.00033716546
000010 9f 9b be 39 79 9c c4 39
       0.0003635557 0.00037500614
