IsaacGymEnvs/isaacgymenvs/runs/Bolt_18-17-08-29/nn/last_Bolt_ep_550_rew_0.39426905.pth (torch, 612432 bytes, 36 tensors)

value_mean_std.running_mean f8 [1]
000000 2b 29 3d 99 ff 6d c7 3f
       0.18304438574188828

value_mean_std.running_var f8 [1]
000000 b1 98 7b ca 93 62 90 3f
       0.01600104258877683

value_mean_std.count f8 []
000000 00 00 00 00 02 c8 29 41
       844801.0

running_mean_std.running_mean f8 [30]
000000 71 02 5f e2 72 1f e0 3f 66 ce 21 9b 5c 90 c6 3f
       0.5038389607726242 0.1762805707436314
000010 c7 9f 76 ee b0 ab cb bf a1 cb 51 8d 8e 8a c8 bf
       -0.21617709773749835 -0.19172841930739273
000020 55 93 3a b6 4d eb f1 3f 31 fe 92 95 e5 a6 87 bf
       1.1199471586525835 -0.01154879915918547
000030 7b 39 9c d5 d0 68 c9 bf 45 a5 08 47 85 25 9d bf
       -0.19851122312725153 -0.02846344228797661
000040 60 c2 aa 66 4d 94 e3 bf 53 5d 52 22 19 e4 f7 3f
       -0.6118533139434241 1.4931880322163422
000050 9a 94 55 68 a0 0b e0 3f 8b 3d 19 51 d3 b7 99 3f
       0.5014192617205879 0.025115300965180814
000060 8a 07 2b 09 00 bd d3 3f 62 86 e9 9b 60 dd d0 3f
       0.3084106530696934 0.26351180291940157
000070 6a 7e 83 7b dd 1e d1 3f 7b 9d 03 43 76 39 d5 bf
       0.2675088602245298 -0.33163219971034835
000080 d1 ec 8a 55 91 68 d3 3f 58 ac 09 27 ca 29 b7 3f
       0.303257306611795 0.09048140957899997
000090 49 60 2b 2d f2 8a 8a 3f f6 69 0c fd 89 98 78 3f
       0.012960330966436244 0.006004847543204841
0000a0 ce 16 28 9d 93 ec 7c 3f 9c 51 59 d0 f2 78 8f bf
       0.00706155454327524 -0.015367409690193061
0000b0 fc 1e 67 da d0 9a 89 3f 2b f6 66 61 e0 dd 9e bf
       0.012502319016575829 -0.03014326662536441
0000c0 b2 cb 04 d7 13 37 e3 3f a5 ae 8c a2 0c 9a e1 3f
       0.6004733275971061 0.5500548529430104
0000d0 d8 fd 11 4a 36 7e e1 3f 4a 41 34 b3 46 ad e4 bf
       0.54665674654819 -0.6461518764572614
0000e0 81 e7 6d 81 d4 72 e4 3f 65 df f4 37 a5 a7 b9 3f
       0.6390173461834224 0.1002143155682212

running_mean_std.running_var f8 [30]
000000 2d d7 78 ba 90 46 e1 3f e6 0d f7 27 0e cb c3 3f
       0.5398639337570096 0.15463425589960805
000010 4e 44 17 12 58 ce e1 3f 60 93 e0 a3 d6 11 e7 3f
       0.5564384797418229 0.720927543709518
000020 73 99 f7 50 11 84 01 40 0f 10 ff b2 8c 65 cf 3f
       2.189486153179297 0.24528654804282765
000030 e5 f6 66 08 29 e4 ca 3f 3e 23 53 56 12 31 aa 3f
       0.2100878993059531 0.05115563682335854
000040 f4 df 1e 8a 81 06 d5 3f db 3f 95 af 0f 8d b5 3f
       0.32852209556904133 0.08418367420858834
000050 e1 49 9b 01 92 b4 b5 3f b4 a0 f5 90 3b d2 2b 3f
       0.084786534683452 0.00021225907446909486
000060 e4 f9 62 a5 e1 63 af 3f 03 99 56 bd d2 48 b3 3f
       0.06130890983466822 0.07532994387165463
000070 cb 3b b5 9a 60 0f b1 3f 38 9e ec 87 86 62 ad 3f
       0.06664088990258603 0.057392314998932326
000080 85 f4 70 aa 11 70 b1 3f 37 65 d4 06 8d 7b c0 3f
       0.06811628733790272 0.1287704737995143
000090 8c 53 fe 67 e2 92 b3 3f 62 b3 fc 0d 6b ee b7 3f
       0.07646002806570901 0.0934817227504943
0000a0 ed e2 89 28 6b b7 b5 3f d4 4e df 54 b5 53 b3 3f
       0.08482999553406119 0.07549603769376328
0000b0 e8 d4 35 4d fe 99 b5 3f 85 ae 8f e3 d3 dd bc 3f
       0.08438100228325462 0.11275982194609398
0000c0 dd e1 dd 3b b9 66 dc 3f 66 aa 02 02 df 83 df 3f
       0.4437697491298687 0.49242377468423226
0000d0 8e 90 5d c7 fa 0b dd 3f 61 df 60 50 25 88 d9 3f
       0.453856177037104 0.3989346775956531
0000e0 4f 90 c2 b2 89 24 db 3f bd 0c 0e 9d 82 78 e8 3f
       0.42410509545357383 0.7647107188680803

running_mean_std.count f8 []
000000 00 00 00 00 04 c8 19 41
       422401.0

a2c_network.sigma f4 [6]
000000 d0 70 ff be cc dd 3a bf 17 1c 0f bf 69 0c 08 bf
       -0.49890757 -0.72994685 -0.55902237 -0.53143936
000010 25 54 1e bf f2 01 dd be
       -0.61847144 -0.43165547

a2c_network.actor_mlp.0.weight f4 [256, 30]
000000 87 d9 9e 3e f4 2c 8f be ea 4a 83 3d 89 08 62 3d
       0.31025335 -0.27963984 0.06410773 0.05518392
000010 01 9d 46 bd 9d 57 3a 3e 87 b3 d8 bc 63 14 0f 3e
       -0.048489574 0.18197484 -0.026452793 0.1397262
000020 15 b9 7a 3b f4 b6 08 be 80 83 38 3e 0d 0f 9f bc
       0.003825729 -0.13351041 0.18018913 -0.019416356
000030 82 09 1c bb b2 ba 35 3e 00 30 14 3e 88 2e 73 bd
       -0.0023809378 0.17747 0.14471436 -0.059370548
000040 50 13 08 3d cb 6d c4 bc 06 26 07 3d 23 98 18 be
       0.033221543 -0.023978135 0.032995246 -0.14901786
000050 4e 09 1a be 04 72 8e 3c 40 f1 84 be 5d 79 08 3e
       -0.15042612 0.017388351 -0.2596531 0.13327546
000060 0f 0a 93 bc 72 5d c9 3d 5f 9a db 3d 76 76 ad bc
       -0.017949132 0.098322764 0.10722803 -0.02117465
000070 9f 77 b6 3d 3d 8e 3b be b5 52 00 3e e7 a7 23 be
       0.08909535 -0.18315978 0.1253155 -0.15982018
000080 58 cd 25 3e f5 d2 97 bd 49 e3 f0 3d 72 9a c8 bd
       0.16191614 -0.07413284 0.11762101 -0.09795083
000090 49 f8 46 3e 3b 62 5c bd 7f dc 43 be fe ba c6 bd
       0.19430651 -0.053804617 -0.19127081 -0.09703635
0000a0 fb 07 25 3e 13 51 14 3d d9 d5 93 3d 7f ec fe bd
       0.16116326 0.03621013 0.072185226 -0.12447452
0000b0 7c 80 2c be 6b 0e 17 be ec b2 03 be 21 60 d9 3c
       -0.16845888 -0.14751594 -0.12861222 0.026535096
0000c0 d1 b1 7e ba d7 29 14 3e 32 55 22 be b3 d8 c4 bd
       -0.0009715828 0.14469086 -0.15852812 -0.096116446
0000d0 a7 eb c7 3c 3f 6f cb bd 61 e5 9a bc a6 42 65 bc
       0.02440436 -0.09933328 -0.018908205 -0.013992941
0000e0 b6 70 a2 3d 89 0f ef bd c9 37 35 be 11 9b fb bc
       0.07931654 -0.11672885 -0.17697062 -0.03071359
0000f0 ed 89 d5 3d 3e 54 8a 3c 98 2c 11 3e 7a a2 35 3d
       0.10426698 0.016885873 0.14177167 0.044344403
000100 53 57 44 be f2 ee d0 bd c6 ef 63 3e ce 24 a8 bd
       -0.19173937 -0.10201825 0.22259435 -0.08210145
000110 ac 64 7b bd ba a9 4f be 22 9b 0e be 92 9b a6 3c
       -0.061375305 -0.2027959 -0.13926366 0.020337854
000120 31 e4 cb bc 10 b4 0c be b9 f4 9e 3c 1a e4 e7 bc
       -0.024889084 -0.13740563 0.019403802 -0.02830701
000130 3f 72 17 be 4a 23 f9 bd 0f ef 6b bd aa e8 30 be
       -0.14789675 -0.12164934 -0.05760103 -0.17276254
000140 8e 67 0a 3e 86 53 a9 3d f9 05 06 bc 7a ec 28 be
       0.13516065 0.08267884 -0.008180135 -0.16496459
000150 62 b6 bc bd 94 de d5 bc 7b 48 9d 3d fc 9d cd bd
       -0.09214474 -0.02610711 0.0767984 -0.10039899
000160 9a 63 63 bd d9 28 c6 bd 86 13 93 bd ae d9 70 bd
       -0.05551491 -0.0967576 -0.07181458 -0.058801346
000170 95 fb 55 bd ef b0 6e be 88 28 12 be 89 23 1e be
       -0.05224188 -0.23309682 -0.14273274 -0.15443243
000180 1a 65 3f bc c3 08 1d be 51 4b 89 3e c5 49 08 be
       -0.011681819 -0.15335374 0.26815274 -0.13309391
000190 55 27 66 3e 9c b3 bd 3d 48 59 f3 bd c7 26 a6 3d
       0.22475941 0.092627734 -0.118822634 0.08112865
0001a0 48 f1 9b bd 5b c3 2e be 8b fc 13 be cd eb 3b be
       -0.0761438 -0.1706671 -0.14451806 -0.1835167
0001b0 e3 48 4c 3c cd d8 50 bd 64 68 83 3d f5 97 26 be
       0.012468549 -0.050988007 0.06416395 -0.16268905
0001c0 1d 9c 07 3e c5 d7 3c bd b7 fb 0f bc ae bc 00 3d
       0.13243146 -0.04610421 -0.008788041 0.03142994
0001d0 1e 27 af 3d cb 8f ae 3c fa b4 3b 3e 7c 0d 9f bd
       0.08552383 0.0213088 0.18330756 -0.07766244
0001e0 1d ef 49 3d 2e 5f 3c bd ad 52 f7 bd 38 5c 45 be
       0.0493003 -0.045989208 -0.12076316 -0.1927346
0001f0 ef 31 7a 3e 74 31 11 be ca 3b b4 3d b0 cb 8c 3d
       0.2443311 -0.14179021 0.08800466 0.06874788
000200 4e af 84 bc 9a 78 32 be 91 13 4d 3e 60 5c 00 bd
       -0.016196873 -0.17428818 0.20026995 -0.031338096
000210 c7 a5 8c 3a 80 0f 04 be b5 d3 f6 3d a9 53 9d bd
       0.0010730558 -0.12896538 0.12052099 -0.076819725
000220 98 9d 7b bd 66 cf 27 3e 22 fe 0a bc 5e c1 85 bd
       -0.06142959 0.1638771 -0.008483442 -0.065310225
000230 d3 5e fc bc a2 be a0 bd aa 82 2e 3e d9 d6 f4 bc
       -0.030806934 -0.0784886 0.17042032 -0.029887604
000240 46 d6 db bd 31 e2 ac bc 0e d0 a6 bd e9 a7 19 3c
       -0.10734229 -0.02110395 -0.08145152 0.009378412
000250 a2 e1 18 3e 94 9d 46 be b1 9b d5 3d 1e 3b f8 3c
       0.14929822 -0.19396049 0.104300864 0.030301627
000260 23 ec 1f bd 91 b0 87 bc c7 aa 93 3d e8 47 19 3e
       -0.039043557 -0.016563686 0.072103076 0.14968836
000270 88 ac c8 3d d0 cc 5b bd 93 3c 44 be c2 26 e5 3c
       0.09798533 -0.05366212 -0.19163732 0.027972583
000280 d6 60 50 bd ef 7c c0 bc bd a5 aa 3d b8 b5 23 3e
       -0.0508736 -0.023497073 0.08332393 0.15987289
000290 6a 89 4b 3b e7 25 a5 bc 27 67 b1 3c a1 82 98 3c
       0.0031057247 -0.020159675 0.021655632 0.018616976
0002a0 63 10 02 3d ed 09 84 3d 77 c6 0a be 84 f3 da bd
       0.03175391 0.06447206 -0.13552271 -0.10690978
0002b0 11 fd 1c 3e e3 39 85 3d 2f 72 49 bd 0d 87 30 be
       0.15330912 0.06505182 -0.04918116 -0.17239018
0002c0 ee b2 32 be 5b f9 1e be f9 20 dd bd 26 06 63 3d
       -0.17451069 -0.15524809 -0.10797305 0.055425785
0002d0 3c fd bd 3e 9f 1a 27 3d d6 dc c0 be 78 c4 cc bd
       0.37107265 0.040796872 -0.37668484 -0.09998411
0002e0 b5 fb 35 bd 69 5d 20 3e 36 12 48 bd 5f 7f 8b bc
       -0.0444295 0.15660633 -0.048845492 -0.017028509
0002f0 e4 18 2a 3e 2f 38 30 be 7c 10 ee bd 4b 2f ef 3d
       0.16611058 -0.17208932 -0.11624238 0.11678942
000300 c9 0c 1d bd f9 d4 b9 3c d9 de 1b be 09 e3 c0 3d
       -0.03834227 0.022684561 -0.15221728 0.094183035
000310 7a 7f da 3d 76 91 c9 3c 20 41 34 be 23 3e fb bd
       0.106688455 0.024605494 -0.17602968 -0.12267711
000320 e1 13 0b be 35 1d 16 3e 33 89 3e 3c a0 4c 0e 3e
       -0.13581802 0.14659579 0.0116293905 0.13896418
000330 65 df c4 3d 8f 6f 06 3e 47 2c 84 3b 21 37 75 be
       0.096129216 0.13128494 0.0040335986 -0.23946811
000340 a2 54 35 be 11 e3 37 be 86 75 a1 3e 53 85 17 be
       -0.17708066 -0.17957713 0.31534976 -0.14796953
000350 94 50 26 be fe d0 89 bc 2f 18 95 bd e4 e0 8a bd
       -0.16241676 -0.016823288 -0.07280003 -0.06781176
000360 22 03 34 be 8d e8 f3 3d b1 94 7e bd 88 ce a6 bd
       -0.1757932 0.1190959 -0.062153522 -0.081448615
000370 2a e6 e4 bd 31 46 12 be 7c 94 c6 bc ad 21 ae bd
       -0.11176713 -0.14284588 -0.024240725 -0.08502517
000380 6e 17 3a bd e3 52 27 be 40 e6 b8 3d 21 8d e5 bd
       -0.0454325 -0.16340213 0.09028292 -0.11208559
000390 7a 77 8f 3d 73 6b 56 3d 5a 7f b8 3d 97 e3 94 bd
       0.0700521 0.052348565 0.090086654 -0.07269972
0003a0 9f 7e 6c 3d c2 94 03 be 0d 53 96 3d 14 63 0b 3e
       0.057737943 -0.12849715 0.073400594 0.13612014
0003b0 40 04 c9 bd cd 94 06 bd 63 47 c4 bd 9d 59 fc bd
       -0.09815264 -0.03285675 -0.095839284 -0.1232178
0003c0 eb 2c a5 3e 52 6e 67 be 08 c5 da bc 61 e2 19 3e
       0.32260832 -0.22600678 -0.02670528 0.15027763
0003d0 bc 20 e4 3d ee c2 cd bb 8a c9 85 be 5f 06 13 3d
       0.11139056 -0.006279341 -0.26130325 0.035894748
0003e0 36 5f 51 3e 06 ac de be 14 04 59 bd 65 63 f3 bd
       0.20446476 -0.43490618 -0.052982405 -0.118841924
0003f0 4b 59 91 bd b5 55 7e bd f1 05 64 bd d5 f0 25 be
       -0.070971094 -0.062093455 -0.05566973 -0.16205151

a2c_network.actor_mlp.0.bias f4 [256]
000000 b5 14 ac bc 40 48 37 bd 28 7b a8 bd d1 76 f0 3a
       -0.021005968 -0.044746637 -0.08226615 0.0018345957
000010 84 f3 44 3d 33 e8 b1 3d dd 8b e5 3c e5 65 5d ba
       0.048083797 0.086868666 0.028020794 -0.00084456644
000020 0a eb 04 3d 97 76 c4 bc 4f a7 27 3c 12 cc 19 3e
       0.032450713 -0.02398233 0.010232761 0.15019253
000030 88 0b 06 bd 13 30 80 3d 92 2e d6 bb 8c 52 81 bd
       -0.03272584 0.062591694 -0.0065363133 -0.06314573
000040 f1 dd 99 bd af 6b 3d 3d e6 96 a6 3c f7 b2 22 3d
       -0.07513035 0.046245273 0.020335626 0.039721455
000050 df 11 fd 3d 80 c7 01 bd b4 9e ba bc 28 08 98 bc
       0.12356924 -0.0316844 -0.022780754 -0.018558577
000060 06 ad 15 3d 94 28 44 3c 0a 5c b9 bd 79 da 59 bd
       0.03654196 0.011972565 -0.09050758 -0.053186867
000070 c5 2c d7 bc a4 f5 31 bd d5 d6 86 bd 9d 96 55 3d
       -0.026266465 -0.04344715 -0.06583945 0.05214559
000080 1e 95 b1 bd 75 92 1b be 99 5a 15 3d 01 8a 1b 3d
       -0.0867102 -0.15192588 0.036463354 0.037973408
000090 91 c1 32 bb a7 f0 94 bb 21 f2 7b bd 81 09 40 bd
       -0.002727602 -0.0045452896 -0.06151021 -0.046884064
0000a0 58 ec f8 bc 76 1c 88 3d a8 1a a1 bd 3f 57 62 bd
       -0.030386135 0.066460535 -0.078664124 -0.055258986
0000b0 5d 85 66 3c 97 b2 85 bc e0 40 f3 3d e7 8e ab 3d
       0.014069882 -0.01632051 0.11877608 0.08376866
0000c0 ce 0f d1 3c 3e 56 2b be c7 52 70 3c 8b 01 08 be
       0.025520232 -0.16732118 0.014668173 -0.13281839
0000d0 00 e6 91 bc 20 f0 4d 3d c2 ca 9e bc 81 aa de 3d
       -0.017809868 0.05027783 -0.019383792 0.10872365
0000e0 a6 b3 cd bd 0e e7 f8 bc 88 17 c8 3d a2 c7 81 bd
       -0.10044031 -0.030383613 0.09770113 -0.06336905
0000f0 2d 60 0e bd de 97 bf bb c8 22 10 bd 3f f1 a4 bc
       -0.03475969 -0.0058469614 -0.03518942 -0.020134566
000100 13 23 c3 3c 86 3e f7 bd 55 fd b9 3d b5 64 48 bd
       0.023820436 -0.12072472 0.090815224 -0.048924167
000110 84 87 bf bc 11 d6 93 3c fd c3 82 bd 67 7d 69 39
       -0.023380049 0.01804641 -0.06385038 0.00022267328
000120 39 a0 78 bd 45 ac 61 bd 57 8d da 3d 33 96 e6 bd
       -0.060699675 -0.05509593 0.1067149 -0.11259117
000130 b1 a2 b6 bd 8e 14 89 3c bc 47 b3 bc e9 41 3f 3c
       -0.0891775 0.016733434 -0.021884792 0.011673429
000140 64 48 01 bd a9 ac e4 bd 39 24 98 bd 69 1e 58 bd
       -0.031563178 -0.11165745 -0.07428784 -0.052763376
000150 32 e1 11 be 37 5d c7 bd 67 1b fd bd 10 19 a5 bd
       -0.14246061 -0.09734576 -0.12358742 -0.08061421
000160 3d ac 58 3b e7 dd c5 3b ff 0b 87 bd 05 99 93 3d
       0.0033061646 0.0060384157 -0.06594085 0.072069205
000170 4a 20 02 bd d1 81 ee bc 83 c6 eb 3d f4 70 f6 3d
       -0.031769074 -0.029114636 0.115124725 0.12033263
000180 6e c3 b4 3d 23 93 96 3a 55 de f5 ba dc 4b a0 3b
       0.08826338 0.0011487942 -0.0018758277 0.0048918556
000190 b2 33 6b 3d 17 18 21 bd 57 88 91 3d 2f 9d 0c 3d
       0.057422347 -0.039329614 0.07106083 0.03432959
0001a0 34 be fb bc f9 eb 01 3d 7e 1e 0c 3c 6f bb 50 3d
       -0.030730344 0.03171918 0.008552192 0.05096
0001b0 13 a4 7d 3d 37 fb b9 3d 8f 60 fc bd 8f d5 a1 bd
       0.06192405 0.090811186 -0.123231046 -0.07902061
0001c0 53 78 62 bd 28 a4 24 be 85 04 14 bd 7b 22 13 be
       -0.05529053 -0.16078246 -0.036137123 -0.14368622
0001d0 3b d9 89 3d be 9c 85 bd 35 28 56 ba 1c a2 b9 bd
       0.067308865 -0.06524037 -0.00081694435 -0.09064123
0001e0 28 af 98 bd ae 32 47 bd b6 74 90 3d d0 38 f5 bd
       -0.074552834 -0.048632316 0.07053511 -0.11973727
0001f0 b9 98 6c 3c a2 31 58 3d 33 1e 2d 3a 7d d0 c7 3d
       0.014440709 0.05278171 0.00066039263 0.09756563
000200 48 7e 52 3d 5f 81 f8 bc bf 8a ed bc 43 23 c7 3c
       0.051389962 -0.030335126 -0.028996823 0.024308806
000210 a8 67 66 bd f2 85 1b 3e 61 89 71 3d b7 ed b3 3d
       -0.056251198 0.15187815 0.058968905 0.08785575
000220 0a ae 7e 3d 88 47 32 bd a2 b3 fb 3d 4c 04 91 3d
       0.062177695 -0.04352525 0.122901216 0.07080898
000230 ce f6 8e bd 48 05 1c 3c ab b1 95 3a 16 34 e5 bd
       -0.06980668 0.0095227435 0.0011420747 -0.11191575
000240 b2 32 13 bc 62 48 c1 bd 55 c3 84 3d 6b 74 a2 3d
       -0.008984255 -0.09437634 0.06482569 0.07932361
000250 10 cc 1d 3d 4d b3 85 3d 8d ee 6a 3d 15 7d 10 bd
       0.038524687 0.065283395 0.057356406 -0.035275538
000260 37 19 51 bd d5 2e 6c 3b 75 7f af 3c 3d aa 12 bd
       -0.051049437 0.0036038656 0.021423081 -0.035806883
000270 8a 2f 4c bd c5 c2 a5 bd b7 72 54 3d f3 99 dd 3c
       -0.049850024 -0.0809379 0.051867213 0.027050948
000280 81 43 8b bd 3a fc ad 3d 61 58 22 bc 49 6a a0 3d
       -0.06799985 0.08495374 -0.0099087665 0.07832772
000290 c8 6b e0 bd 1a 10 93 bd 3d 74 50 bc 69 82 9e 3b
       -0.10958058 -0.071808055 -0.012723026 0.0048373234
0002a0 56 d4 f6 bd 67 dc 24 bd d5 11 9a bd 35 6a 70 bc
       -0.120522186 -0.040249255 -0.075229324 -0.014673759
0002b0 a3 e0 0f 3d c3 92 df bd dd 78 13 bc 27 fa b5 bd
       0.03512634 -0.109166645 -0.009000984 -0.088856034
0002c0 a8 45 b4 3d e0 36 c0 bd 16 4e 43 be 6c 62 66 bc
       0.088023484 -0.093854666 -0.19072756 -0.014061552
0002d0 01 8b e8 bb f0 44 01 3e 90 ce 36 bd 12 88 85 3d
       -0.0070966487 0.12623954 -0.044630587 0.06520094
0002e0 18 cb 56 3d 83 8f 8b bc 58 bd 19 3d 4d 3e 67 bd
       0.05243978 -0.017036205 0.037534088 -0.0564559
0002f0 b8 3b f9 bd 5a d1 68 3d fd ac 62 3c 6b e6 4b bc
       -0.121695936 0.05684028 0.013835189 -0.012445073
000300 6a 5e 1c bc fb 64 c6 bd 26 73 43 bd d1 4b 3c be
       -0.009543994 -0.09687229 -0.047717236 -0.18388297
000310 a1 cd 5c bd af a8 24 3d 87 c3 e4 bc 30 07 a8 bd
       -0.05390704 0.04019993 -0.027925266 -0.08204496
000320 71 24 c3 bc a4 15 12 3d ae be 04 be f4 77 ee 3c
       -0.023821088 0.03566517 -0.12963364 0.029109932
000330 eb 1d 3f bd ca 4d a1 bd e7 d7 dc 3c a2 a5 bd bd
       -0.04665939 -0.07876165 0.026958419 -0.092601076
000340 5e 15 da bc f8 ea 44 3b ef d3 40 bd 89 67 b6 bd
       -0.026621517 0.003004728 -0.047077116 -0.089064665
000350 f9 d2 3b bd 3e 99 e7 3c 51 76 50 bd 18 6d 46 3d
       -0.045855496 0.028271314 -0.050894085 0.048443884
000360 a3 16 fe bd c4 a8 05 3d 0d 74 0f bd ac 84 d9 3c
       -0.12406661 0.03263165 -0.035022784 0.02655252
000370 8c 3c f7 3b 08 7b 82 bd f7 b5 6a 3c 0f 27 88 3d
       0.0075450595 -0.063711226 0.01432561 0.06648075
000380 1d 85 75 bd e5 6c b5 bd ab 4c 58 bc 84 a7 c0 3d
       -0.0599414 -0.088586606 -0.013201873 0.09406951
000390 18 7f 8c bd 13 98 49 3c 89 1c f8 3b 66 c1 10 bd
       -0.06860179 0.012304324 0.007571761 -0.03534069
0003a0 05 28 00 bd e6 e6 ad 3d af ff 62 3d 7d eb 32 3d
       -0.031288166 0.08491306 0.05541962 0.04368161
0003b0 45 0d cf 3c 45 df 7a bd 39 1f 06 3d 69 6f 6f 3d
       0.025274882 -0.061248083 0.03274462 0.05845586
0003c0 07 3e a2 3c 76 38 af 39 fe bf db bd f1 25 3c 3c
       0.019804968 0.00033420668 -0.10729979 0.011483655
0003d0 5c c4 86 bc 5b ec 78 bd 5b fe a6 bc 42 83 c1 bd
       -0.016451053 -0.06077228 -0.020384958 -0.094488636
0003e0 bd 78 97 bd ef 4c c2 bd f0 eb 02 bd 96 97 a2 3c
       -0.07396076 -0.0948733 -0.03196329 0.019847672
0003f0 e9 13 39 3c 77 27 54 3c 45 8e 1b bd ff cd 8d 3d
       0.011296251 0.012948862 -0.037977476 0.06924056

a2c_network.actor_mlp.2.weight f4 [128, 256]
000000 cf 56 99 bc 23 73 fc 39 fb bd 46 be e0 e8 4b 3c
       -0.018718151 0.0004815097 -0.1940841 0.012445658
000010 47 48 9f ba 1d 60 a6 bc 12 9b 0c 3c 72 f4 cb 3d
       -0.0012152278 -0.020309502 0.0085818935 0.099587336
000020 e6 8e 87 bc a8 ea 2e 3d a6 76 99 3d 3b 9e e7 bc
       -0.016547631 0.042704254 0.074933335 -0.028273692
000030 6f b4 2d 3d 0a b7 e0 3c db d6 1c 3d 06 63 9f 3d
       0.042408403 0.02743103 0.03829084 0.07782559
000040 8e 65 04 be 4e b9 b3 3d 22 aa f0 3c ac 71 eb 3d
       -0.12929365 0.087755784 0.029378 0.114962906
000050 86 73 d2 bd 71 e9 9e 3d 4f 1e 53 bd 8c c2 b4 bd
       -0.102759406 0.07759369 -0.051542576 -0.08826169
000060 ca 1c 42 3d ee 0c cd bd a7 c8 d3 3c fe 6e cf 3c
       0.047390737 -0.10012232 0.025852514 0.02532148
000070 ba 2a 62 bc 86 e4 cc 3c 46 d5 fa 3d eb 61 d3 3c
       -0.013804132 0.025011312 0.1224771 0.025803527
000080 ee 1a 43 3d 58 00 33 3c 24 e4 ff 3c d2 b5 e2 bd
       0.047633104 0.010925375 0.031236716 -0.11069836
000090 28 f7 9e bd a7 87 a6 3d 99 27 77 3d 2a fe 03 bd
       -0.07761985 0.081313424 0.060340498 -0.03222481
0000a0 35 6e 23 3d 0d cb fe 3c 6c 23 71 bb 95 66 9d bd
       0.039900023 0.031102682 -0.0036794795 -0.076855816
0000b0 8c fa 65 3d f9 a1 4d 3c 10 04 2b bd 18 cf 17 be
       0.056147143 0.012550824 -0.04175192 -0.14825094
0000c0 a2 93 19 bc b8 d5 51 3c b0 cf c2 bc 03 a3 88 3d
       -0.009373577 0.012807302 -0.023780674 0.06671717
0000d0 9c 1a eb 3c 38 c5 fb 3c 33 17 80 3d fc 6b 35 bd
       0.028699212 0.03073369 0.06254425 -0.044292435
0000e0 78 10 c0 3d b4 eb a0 3c d0 fa 9b bc 70 38 55 3a
       0.09378141 0.019643642 -0.019040495 0.0008133715
0000f0 31 80 fb 3d 52 92 88 bd a2 d9 13 3d 7b bd b6 3d
       0.1228031 -0.066685334 0.036096223 0.08922859
000100 df f6 9f 3c 45 fa 3d bd 23 a4 3b 3c 48 3f 11 3d
       0.019526897 -0.046381254 0.011452707 0.03546074
000110 23 93 9d bd 8d 1b b2 3d f6 90 83 bd 5a 9f 49 bd
       -0.0769408 0.08696661 -0.064241335 -0.049224235
000120 b7 23 98 3d 66 ad 93 3d 19 b6 9c bc d0 de bf 3d
       0.07428687 0.072108075 -0.0191298 0.0936867
000130 26 9e 04 3d 78 71 38 3b ae e4 24 bd ac 62 16 bd
       0.032377385 0.0028143805 -0.04025715 -0.036715195
000140 cc ff 60 3c d5 d3 7d bd 6d ab 99 3c 73 a6 1c 3d
       0.013732862 -0.061969597 0.0187585 0.038244676
000150 e1 5f 07 bd 28 4e 37 bd 56 5c 35 3b 8b ea 50 bd
       -0.03305042 -0.04475227 0.0027673445 -0.051004928
000160 20 2a b7 3c f1 50 28 bd 68 05 25 3e 3e c6 96 3d
       0.022358954 -0.041092817 0.16115344 0.073620304
000170 fb 1c f7 3b c2 4f 4f 3d 9d b5 8b bb b8 b8 97 3c
       0.0075412965 0.050613172 -0.0042635933 0.018520698
000180 3a 39 ab bc 1c fb 08 3d 64 8d 8f 3c 41 9a 76 3d
       -0.020901311 0.0334426 0.017523475 0.0602057
000190 b3 50 98 bc 01 78 05 3d ae e4 13 bd d2 68 e3 3a
       -0.018593168 0.032585148 -0.036106758 0.0017349964
0001a0 a8 2a a0 bd 86 ff de bd b0 ad c4 3b 5d e6 bd 3c
       -0.07820636 -0.10888581 0.0060021505 0.023181135
0001b0 fb 57 a4 3c 2a 00 15 bd 7a 4b 77 3c f9 09 96 3c
       0.020061484 -0.03637711 0.015093679 0.018315302
0001c0 9d fe e3 3c 73 05 e1 3d f8 fa 6d 3d 4b 35 43 bc
       0.02783137 0.109873675 0.05810067 -0.0119145615
0001d0 a9 e6 84 bd 45 8d c9 bd b9 7c 00 3d 86 68 e6 3a
       -0.064893074 -0.09841398 0.031368945 0.0017578758
0001e0 89 74 81 3d 4e 77 6b bc 53 8f 84 3b b7 92 01 bd
       0.063210554 -0.014371706 0.004045406 -0.03163406
0001f0 14 40 99 bb 15 2a 3f 3d ab 11 29 3b ca 04 ad bd
       -0.004676828 0.046670992 0.0025797884 -0.08448179
000200 a3 b4 b2 bd bb b3 14 3c 3e d8 91 3d 64 16 60 bd
       -0.0872586 0.009076054 0.07121323 -0.054708853
000210 50 5a 02 3d af a2 e7 bd 2e a2 32 3c 67 78 23 3c
       0.03182441 -0.11310326 0.010902924 0.009977437
000220 30 64 54 bd 2e 26 5c bd f4 2c 90 3d d9 5e 2f bd
       -0.05185336 -0.05374735 0.07039824 -0.042815063
000230 ab 04 89 3a bb ff 5d 3c 27 5e a5 bd 3b 7f 17 bd
       0.0010453662 0.01354974 -0.08074599 -0.03698657
000240 15 b9 51 be f7 06 87 3c 61 00 e5 bd 13 ff 32 3c
       -0.2048076 0.016482813 -0.11181713 0.010925072
000250 ec 7e 86 3c 11 37 09 be 5f d3 c5 3c 01 c0 2b bd
       0.016417943 -0.13399912 0.024148641 -0.041931156
000260 65 cd 41 3e 94 0d d1 3c 37 56 b0 bd 2c 9d d4 3c
       0.18926008 0.02551917 -0.08610194 0.025953852
000270 27 d6 3b 3c 3b ad 55 3d a3 9d c8 bb 4c 34 29 3d
       0.011464632 0.05216716 -0.0061223074 0.04130964
000280 b4 a3 b0 3d 3c 91 43 bd 21 d9 90 3d 23 64 96 3d
       0.08624974 -0.04774593 0.07072664 0.07343318
000290 5d 73 a9 bd f8 a2 90 bc 4a 29 99 bd 60 65 6b 3d
       -0.08273957 -0.017655835 -0.074785784 0.057469726
0002a0 0c 63 db 3b b5 dc d5 3d d0 13 0f 3e ef 89 29 3c
       0.006695157 0.10442487 0.13972402 0.010347827
0002b0 43 a9 c2 bd 53 a4 d6 bc 8c ea 44 bd 7d 86 bb 3b
       -0.0950494 -0.026201403 -0.048075244 0.0057228194
0002c0 96 2a cb bc 14 60 0d 3d cd 50 28 3d 96 0c 3a bd
       -0.02480058 0.034515455 0.041092683 -0.04542216
0002d0 77 cc 04 bc df 0c 4d bd d4 aa 3d 3c 52 fa 09 bd
       -0.008105389 -0.050061103 0.011576373 -0.03368599
0002e0 70 ee 58 3d 2d e4 d5 3d 48 86 7a 3d 29 f5 d3 bc
       0.052961767 0.10443912 0.061163217 -0.025873737
0002f0 ec 99 72 3c 48 7d 6a bd 32 52 9f 3d b4 2c ab bc
       0.014807206 -0.057248384 0.077793494 -0.02089534
000300 38 e8 12 3d 1f da c3 3d 6f 34 5d 3c df c1 5e 3c
       0.035865992 0.09563088 0.013501271 0.013596027
000310 30 8b d3 3c 40 03 b3 bc 2a bf 73 bd e3 73 9a bd
       0.025823206 -0.021852136 -0.05950848 -0.07541635
000320 ca 29 08 bd ea 26 ed 3c 2a 1c 80 3d e9 ec ab bd
       -0.03324298 0.02894922 0.06255372 -0.083947964
000330 da 8a 4c bc 88 a2 20 bd 5d fd b1 bd d1 96 64 bd
       -0.012484277 -0.039217502 -0.08690903 -0.055807892
000340 39 d5 04 bc 41 06 a4 3b 2b 3e eb b8 ba 7c 24 3d
       -0.008107477 0.0050056283 -0.00011217253 0.04015801
000350 2b 08 0f 3d b2 dc d7 bd 59 2b 02 3d 73 af b2 3c
       0.0349199 -0.10540141 0.03177962 0.021812176
000360 2e 04 c5 3d b7 6a 6b 3d 9a ff 88 bc 10 01 76 bd
       0.09619938 0.057474818 -0.016723443 -0.060059607
000370 95 06 be bc 6b 51 96 3d 03 c6 0e 3e 84 34 00 be
       -0.023196498 0.07339748 0.13942723 -0.12520033
000380 4e d1 3d be a3 80 78 3b 93 41 15 bc 9f 57 60 bd
       -0.18536875 0.003791847 -0.009109872 -0.054771062
000390 02 8a c2 3c 99 e0 34 bd e4 40 23 3d 76 73 35 3c
       0.023747448 -0.044159506 0.039856806 0.011074891
0003a0 d8 54 69 bd 28 9c 8b 3d 7b f8 2b 3d 22 00 a1 bc
       -0.05696568 0.06816894 0.041985016 -0.019653384
0003b0 18 5b 82 3d d4 76 0f bc 7a 80 93 bc 28 ef f1 bb
       0.06365031 -0.008756358 -0.018005598 -0.007383246
0003c0 b2 a9 2c bc 98 42 3a be 5a a7 d7 bb 32 6b d6 bd
       -0.010538505 -0.18189466 -0.006581229 -0.10469665
0003d0 3c c1 aa 3c ff d3 7d 3d d5 60 2d bd 97 87 da 3d
       0.020844094 0.061969753 -0.042328674 0.10670393
0003e0 b7 d5 10 3d 46 67 a1 bd aa 54 1a 3d 3a 58 c2 3b
       0.035360064 -0.07881026 0.0376784 0.0059309276
0003f0 e0 74 21 3d e2 0a 55 3d 2b d4 58 3d 6a b5 91 bd
       0.0394181 0.05201233 0.052936714 -0.0711468

a2c_network.actor_mlp.2.bias f4 [128]
000000 ed e3 09 be b1 ee 0d be f0 f9 fc bd 60 88 a8 3b
       -0.13465853 -0.13860585 -0.12352359 0.0051432103
000010 3e f6 c9 bd 2a ca 5b 3c b5 a1 ff bd 6d 1b 0a bd
       -0.0986142 0.013414899 -0.12482015 -0.03371756
000020 d3 d0 1b bd 1e fc 65 bd 0f d0 8a bc e6 d9 43 bd
       -0.038040947 -0.05614864 -0.016944913 -0.047815226
000030 c7 a4 d4 bd a2 66 18 be b1 fc 89 3d 32 d0 9e bd
       -0.10382991 -0.14882901 0.0673765 -0.07754554
000040 f6 68 a9 bc f9 ae f0 bd 1f ae 7d be 9a 95 ee bd
       -0.020679932 -0.117521234 -0.24773453 -0.11649628
000050 fb a9 12 be 38 8e dc 3c c1 2b 48 3d 33 95 dd 3d
       -0.14322655 0.026923284 0.048869852 0.10819473
000060 34 c6 ed bd f1 da d1 bc 69 9d 80 3d f9 c0 39 bd
       -0.1161007 -0.025617095 0.062800236 -0.04535005
000070 16 48 d0 bc 59 5e 91 3c 21 b9 ce bd 99 74 8d 3c
       -0.025424998 0.017745184 -0.10093904 0.017267512
000080 39 f2 a2 bd 98 ea ff 3c 55 b0 a9 bc fc 5f 7d bd
       -0.079563566 0.031239793 -0.020713964 -0.061859116
000090 d1 78 61 3d 38 49 ed 3b 42 d2 00 3d aa af 04 be
       0.05504686 0.0072413944 0.031450517 -0.12957636
0000a0 ca a2 14 be 7d bd d2 bd d0 54 fb bc 74 ba ba 3c
       -0.14515224 -0.10290048 -0.03068009 0.022793986
0000b0 2e f0 a1 bc 44 4c 87 bd c7 c0 47 3d 1e 45 04 be
       -0.019767847 -0.066063434 0.04876783 -0.12916991
0000c0 e8 47 20 be a3 33 2d be 06 9b 9d bd 80 b3 8a 3d
       -0.1565243 -0.16914229 -0.07695584 0.06772518
0000d0 78 39 f5 3c c3 2e 55 bb 09 cc 62 bd 59 ca 51 be
       0.02993463 -0.0032529093 -0.055370364 -0.20487346
0000e0 62 b1 f2 3a 80 22 13 3d e9 f9 e8 3c 01 9d 1a 3d
       0.0018515999 0.035921574 0.028439479 0.037747387
0000f0 8c 74 2a 3c c1 5c 6f bd c5 5b 7d bd 24 41 41 bc
       0.0104037635 -0.058438066 -0.061855096 -0.011795316
000100 04 aa 27 be 11 40 44 bb d8 9a 78 be ce d8 7f 3c
       -0.1637345 -0.0029945413 -0.24277818 0.015615655
000110 42 ac 42 be e3 74 61 bd 1d ad 3d 3c ef 86 9a bd
       -0.19011024 -0.055043112 0.011576918 -0.07545268
000120 b4 9e 84 3d 7a 06 1e 3d bd cb 04 bb 06 6e ad 3d
       0.06475583 0.038580395 -0.002026304 0.08468251
000130 4e 4c 9e 3d 1c 47 02 bd c8 47 7c 3d 05 aa fd 3d
       0.07729398 -0.031806096 0.061591893 0.12385944
000140 b0 0c 14 3c 9a 8e 08 3e 3e cc 03 3c 9a 0b 3a bd
       0.009036228 0.13335648 0.008044301 -0.04542122
000150 39 4e fc bd c0 cd 50 bd e6 92 ea bb d9 78 06 be
       -0.12319607 -0.05097747 -0.007158625 -0.13132037
000160 a4 8b de bc 60 c9 16 3c 4d ac 1b be e3 91 c2 3c
       -0.027166195 0.009203285 -0.15202446 0.023751205
000170 74 a9 e9 bd 50 10 34 3d 1c b9 35 bc eb 06 42 3c
       -0.11409274 0.04396087 -0.011091497 0.01184247
000180 d9 26 54 bd 9b 35 e0 bd 2c 0a 80 3d a5 73 f2 bb
       -0.05179486 -0.109477244 0.0625194 -0.00739904
000190 28 3c 73 bd e0 e3 d6 bd 4b 3c b4 3d c8 1c 33 3d
       -0.05938354 -0.104926825 0.088005625 0.04372862
0001a0 25 0c fd 3b fc 0d a6 bd a8 75 79 3b 94 32 15 be
       0.007722395 -0.08108136 0.0038064513 -0.14570075
0001b0 b5 9a 57 3c 88 bc 9f bc 38 ae 79 3d 88 c2 68 3d
       0.013159444 -0.019499078 0.060957164 0.056826144
0001c0 46 40 5b bc f0 82 86 bd 01 a3 2a 3d 4b 27 a5 bd
       -0.013382023 -0.06567943 0.04165936 -0.08064135
0001d0 39 37 2c be fb 42 b3 3c 92 c7 54 be 2a 25 d0 bd
       -0.16817941 0.021882525 -0.20779255 -0.101633385
0001e0 21 85 cd bd fa 42 f0 bd 4f 5e 2f bd 22 51 0e 3d
       -0.10035158 -0.11731525 -0.04281455 0.034745343
0001f0 03 b8 b8 bc be 3e 1e 3e 8e 9d 90 3c fa c2 30 3d
       -0.022548681 0.15453622 0.017653253 0.043154694

a2c_network.actor_mlp.4.weight f4 [64, 128]
000000 2b ea 9c bb 77 f7 ab bd cd 8e d1 3d df 89 ab 3c
       -0.004788657 -0.083968095 0.10232315 0.020939765
000010 71 a3 ca bc 6b 64 de 3d 20 e3 f3 3d be 41 e8 bd
       -0.024736138 0.10858997 0.11908555 -0.11340664
000020 7c 82 4f bd 36 35 82 3d 48 86 95 3d 58 bc 74 3b
       -0.05066155 0.063578054 0.07301003 0.0037343707
000030 50 31 85 bc b3 c9 98 3d e9 ae 85 bd f3 52 b1 bd
       -0.016258866 0.07460346 -0.06527502 -0.086583994
000040 6f 96 18 3c 4d 6b 5c bd 07 1c 0a be 28 74 1e 3d
       0.00931321 -0.053813267 -0.13487254 0.038684994
000050 d7 95 ac bd 34 58 1c bd 4d 4a b2 bd eb 7d 40 be
       -0.08427017 -0.038170055 -0.08705578 -0.18798034
000060 a4 34 00 bc 2f 1b 34 3d 0c 36 ac bb 05 19 c3 3c
       -0.0078250505 0.043971237 -0.0052554663 0.023815641
000070 e7 79 e1 bd cb 92 32 3c bc 5f f9 3a d2 51 09 be
       -0.11009579 0.010899256 0.0019025723 -0.13410118
000080 fc da 37 bd 72 95 03 be 24 e2 15 bd 96 84 97 bd
       -0.044886574 -0.12849978 -0.036592618 -0.07398336
000090 cc b4 4f be 51 56 88 bd c9 13 2c be 12 48 d3 bd
       -0.20283812 -0.066570885 -0.16804422 -0.10316481
0000a0 01 56 81 3b bc 07 2d bd 31 04 65 bc 6e e1 e5 3c
       0.00394702 -0.042243704 -0.01397805 0.028061595
0000b0 aa fa f2 bd 61 48 1b be 22 aa 9d bd 79 52 9b bd
       -0.118642166 -0.15164329 -0.07698466 -0.0758409
0000c0 cd 0e b8 3d f9 a1 24 be ec 09 f8 bb 2f b9 f4 bd
       0.08987198 -0.16077413 -0.007569542 -0.119493835
0000d0 2b 11 33 be c4 f1 af bd f9 9b e3 3b 0d 1d 5b 3d
       -0.17487018 -0.08591035 0.0069460836 0.0534945
0000e0 a9 b4 55 be 5f 0f ed bd 47 0c 4d be 54 92 1a 3c
       -0.20869698 -0.115751974 -0.20024215 0.009434301
0000f0 cd e6 c6 3c 79 43 54 bd 12 be 26 be f6 d6 8b 3d
       0.024279976 -0.05182216 -0.16283444 0.0682811
000100 58 c9 bf bd 63 80 fd bd d3 f2 3a 3d a9 69 9c 3d
       -0.09364575 -0.123780034 0.04564173 0.076373406
000110 0b bd bc bd 08 89 21 ba c9 b2 9a bd ac 50 cf bd
       -0.092157446 -0.0006162082 -0.07553632 -0.10122809
000120 8b 4a e9 bd 74 b0 28 3d 1b 10 8d bd 2c 07 59 be
       -0.11391171 0.041183904 -0.068878375 -0.21194142
000130 85 de 80 3d d9 2a 6d bd 5d b6 87 bd 8a 0a 32 be
       0.06292442 -0.05790219 -0.0662658 -0.17386833
000140 51 f9 60 3d 30 65 a9 bd 35 39 c0 bd ed 93 91 3d
       0.054925267 -0.08271253 -0.093859114 0.07108293
000150 d5 55 9b bd 18 2e dd 3c b8 5e 9a bc df e9 52 bd
       -0.075847305 0.026999518 -0.018843994 -0.051492568
000160 50 80 07 bd 2f ad c3 bd bc 13 2c bd 29 da 00 bd
       -0.033081353 -0.095545165 -0.042011008 -0.031458054
000170 28 be 16 be c2 fa 1d be 5f 74 64 3c f4 4c 9f 3c
       -0.14720976 -0.15427688 0.013943761 0.019445874
000180 eb e3 02 bd c9 96 a7 3c 57 58 eb bc a8 da 2c bd
       -0.03195564 0.020457642 -0.028728647 -0.042200714
000190 ab 4e 0e bd 40 1b 75 3c 0a 64 de bd 2b 93 3b 3d
       -0.034742992 0.01496011 -0.10858925 0.045794647
0001a0 55 2a 08 bd bb 0e 18 bd 9e 56 b8 bd 9e 1e 3b 3d
       -0.033243496 -0.037123423 -0.09000896 0.045683496
0001b0 33 db b9 bd 83 e9 5e bd e9 ad 83 bb 71 9c df bd
       -0.09075012 -0.054421913 -0.0040185344 -0.10918511
0001c0 33 25 c0 bd 21 95 bf bd 11 e7 5f 3d b2 a2 14 3d
       -0.09382095 -0.09354616 0.05466372 0.03628797
0001d0 91 d1 87 3b 33 01 a4 bd 24 1c db bd 37 91 af 3b
       0.0041448553 -0.08008041 -0.10698727 0.005357887
0001e0 4e 91 5a 3d a9 82 20 3d 69 13 85 bd 29 5c 83 bd
       0.05336123 0.039187107 -0.06497843 -0.064140625
0001f0 d1 e1 af bd 5a 64 04 be f1 94 b6 bd b8 52 72 bd
       -0.08587993 -0.12928906 -0.08915127 -0.059160918
000200 43 37 ac 3d 37 1b a7 bd 48 32 4c 3d a1 f7 17 ba
       0.08408978 -0.08159488 0.04985264 -0.00057970925
000210 04 53 6f 3d 8c 8e 73 3d 97 46 04 bd 2a 9d ce bc
       0.05842878 0.059462115 -0.032293882 -0.025221426
000220 43 e2 6b bc 83 c9 c2 bd de de 8b 3d 9c 31 2c bd
       -0.014397207 -0.095110916 0.06829618 -0.0420395
000230 07 bb d6 bd 1f ee f1 3d 00 a9 37 bc 31 79 2a 3d
       -0.104848914 0.11812996 -0.011209726 0.041619483
000240 ad 50 11 3d 50 f9 12 be 4f 31 68 bd eb cf b2 3b
       0.03547733 -0.14352918 -0.05668765 0.0054569147
000250 f3 53 9a 3d 74 3d 7e 3d a9 e4 9d bd 22 5f f8 bc
       0.07535543 0.062070325 -0.07709629 -0.0303188
000260 32 1e 67 bd 8d a6 ed bc 42 ec 8a bc 3d 3f ab bd
       -0.05642528 -0.029010082 -0.01695836 -0.08361671
000270 1e 8d a5 bd ed cc 7f bc 08 23 90 bc ea 7e 37 3b
       -0.080835566 -0.015612823 -0.01759483 0.002799923
000280 5c e0 fa bd 7d 48 3e 3b de c3 24 bc d7 39 8e bb
       -0.122498244 0.0029034906 -0.010056464 -0.004340391
000290 aa b1 c6 3d 8d 68 9e 3d a5 03 65 bd 10 ca d7 3c
       0.097018555 0.07734785 -0.05591168 0.026341468
0002a0 af 4f c0 3d 44 33 d3 bc 2b 78 fa bd bd 13 73 bd
       0.093901984 -0.025781281 -0.122299515 -0.059344996
0002b0 40 8a 5d bd 00 1d 1c be f5 a8 82 bd 2f 4c d1 3d
       -0.054086924 -0.15245438 -0.06379882 0.10219609
0002c0 58 ff be bd bf b8 40 bc 0f f4 38 bc 56 50 9b 3d
       -0.09326047 -0.011762797 -0.011288657 0.07583682
0002d0 6e 4e c2 bd 14 09 a0 3d 53 67 b1 3d 99 57 ac bd
       -0.094876155 0.078142315 0.08662286 -0.084151454
0002e0 cd 02 eb 3c df e9 7b bd 34 38 4a 3d c7 6d 48 bd
       0.028687859 -0.061502334 0.049370006 -0.048932817
0002f0 19 5e 15 3e f5 d4 2c 3c 9d 3d 95 bd 8b ff 86 3c
       0.14586677 0.01054882 -0.072871424 0.016479274
000300 67 88 3b be 92 66 d8 3b 0a 6f c8 3c 2e 3e 8d 3d
       -0.18313752 0.006604024 0.02446701 0.068966255
000310 bc 18 0f 3e 2f 85 e4 3c a5 be b7 3d 7f 90 e0 3d
       0.13974279 0.027895538 0.089719094 0.109650604
000320 8c db 9a 3d 50 42 92 3d 04 42 56 bd b6 9b fe 3b
       0.075614065 0.07141554 -0.05230905 0.007770027
000330 25 d7 9d 3b 33 db 93 3c 74 5d 4d bd 59 4e 8a bd
       0.004816907 0.018048858 -0.050137952 -0.06753225
000340 6d 94 e1 3c 5f 64 92 bd b4 00 80 bd 78 a6 e4 3c
       0.027536595 -0.071480505 -0.06250134 0.02791141
000350 5f 50 a8 bc 9b 6c e4 3d b8 b5 c3 3d 25 36 b5 bc
       -0.020546136 0.11153527 0.095561445 -0.022120545
000360 d8 8a 04 3d 77 f1 c3 ba 75 ee 9f bd 8f 17 00 3e
       0.032358974 -0.0014949281 -0.07809154 0.12508987
000370 1c be 70 be 97 d9 2a bd fa b5 44 3d ab e2 24 bc
       -0.23510021 -0.041711416 0.04802511 -0.0100638075
000380 07 49 66 3d 12 d5 0e bc 26 a6 90 bd 4d 9e 0f bd
       0.056221988 -0.008717792 -0.0706294 -0.035063077
000390 ce 48 b5 3c d1 84 a3 3d 63 ef 3e 3c 1a 90 86 3c
       0.022129443 0.07984317 0.011653754 0.016426135
0003a0 fb fd 05 3d ad 8b 90 3d 87 a8 4c bd ad 7f 62 bd
       0.032712918 0.07057891 -0.049965408 -0.055297542
0003b0 01 4f 3a bd f7 d9 7e bd 5c 4f 71 3c 3a 18 ee 3d
       -0.0454855 -0.062219586 0.014728393 0.116257146
0003c0 33 8a c2 bc e4 0a 5b be 35 f3 20 bc 61 e8 23 be
       -0.02374754 -0.21390873 -0.00982361 -0.16006614
0003d0 15 af b5 3d 3d dd 5d b6 1a 1f f0 3d a9 fa 01 3e
       0.08871285 -3.3060344e-06 0.11724682 0.12693276
0003e0 52 8e a8 3d d2 5f 4f bd 7e f0 ae bc 11 3d c1 bc
       0.082302704 -0.05062849 -0.02135491 -0.023588689
0003f0 a0 96 b8 3d 50 98 50 bb 16 3f b7 3d 60 56 73 bd
       0.090131044 -0.0031829067 0.089475796 -0.059408545

a2c_network.actor_mlp.4.bias f4 [64]
000000 c4 2d ea bd 76 bd a1 3c 89 c9 4b bd 01 d0 f7 bc
       -0.1143451 0.019743662 -0.049752746 -0.030250551
000010 b0 d4 f0 bd 45 c3 31 3d d9 20 d6 bc 59 f1 8a bd
       -0.11759317 0.043399114 -0.02613871 -0.06784315
000020 c2 6b 1c be cc c9 ae 3d c6 91 f7 bd b6 08 5d bd
       -0.15275481 0.085345834 -0.12088351 -0.053963386
000030 2d 1d 06 bd 2e d8 84 bc f0 7e b4 bd 0a cf 9f bb
       -0.032742668 -0.016216364 -0.08813274 -0.004876976
000040 5b 31 ca 3b 27 dd b2 bd 17 6c 09 bd ef 5b 84 3d
       0.0061704344 -0.08733588 -0.033550348 0.064628474
000050 7e 3d a3 bd ab e5 08 bd 69 17 62 bd 10 8f 83 3c
       -0.07970713 -0.033422153 -0.055198107 0.016059428
000060 8c 41 d6 bd 8f 80 af 3c 27 8a f0 3d 13 cc 14 be
       -0.10461721 0.021423606 0.117451005 -0.14530973
000070 c2 4d 53 3d e4 22 f2 bb 24 b3 27 be 06 0d e6 bc
       0.051587828 -0.007389413 -0.1637693 -0.028082382
000080 89 3d bf bd 10 22 45 bd dd 1c f2 bd f2 01 fb bd
       -0.09337909 -0.048128188 -0.118219115 -0.122562304
000090 4a 79 5a bd bf 57 bf 3d 51 d0 72 3d c8 f0 32 3d
       -0.053338327 0.09342908 0.059280697 0.04368666
0000a0 80 2b 0f 3d 5b 28 36 3d 7d ad d0 bd f3 55 a3 bb
       0.034953594 0.04447208 -0.1018934 -0.004984611
0000b0 79 44 db 3c ba e1 c3 bd 78 a1 bd bc a1 ae 9d 3d
       0.026766049 -0.09564538 -0.023148283 0.076993234
0000c0 e4 e9 54 3d bd b4 0a 3e 7f df 66 bd fd 34 11 be
       0.051980868 0.13545509 -0.056365486 -0.1418037
0000d0 e4 33 88 3d 97 18 26 be 75 6d 0f be 1e 64 2c be
       0.06650522 -0.16220318 -0.14006598 -0.16835067
0000e0 a0 58 85 3d 05 d7 f4 bc 54 16 bf 3d 4f 8a 76 bd
       0.065110445 -0.029887686 0.093304306 -0.060190495
0000f0 d1 40 a7 bc af 68 15 be 70 c5 8b 3d e6 e4 79 bd
       -0.020416649 -0.14590715 0.068247676 -0.06100931

a2c_network.value.weight f4 [1, 64]
000000 38 0d 33 bc 72 ae 7d 3d 00 b1 13 be 0a 2b 97 bc
       -0.010928445 0.061933942 -0.14422989 -0.01845314
000010 2b 0c f9 3c 47 15 0b 3e 1e d9 aa bd fe ec f1 bd
       0.03040131 0.13582335 -0.08342193 -0.11812781
000020 32 99 19 bd 9d 69 a2 3d 96 ed 50 3d 53 62 95 ba
       -0.037499614 0.079303004 0.05100783 -0.0011397101
000030 a1 a9 27 3d b8 0a fd bc d1 af ce bd b7 26 56 bd
       0.040933255 -0.0308889 -0.10092128 -0.052283015
000040 75 71 df 3c 37 af 7c bd b3 f6 85 3d df a5 b1 3d
       0.02727578 -0.061690535 0.06541195 0.086742155
000050 fe 67 bf bd ce f6 c7 3d dd a4 23 be 46 cb 4a 3d
       -0.09346007 0.09763871 -0.15980859 0.049510263
000060 1e 89 d7 bc 01 71 b4 3d 51 b0 45 3d 5e 19 46 3d
       -0.0263105 0.08810616 0.04826385 0.048364036
000070 5b aa 94 3d a4 7d ab 3d b0 7f bc bc ef c4 9b 3c
       0.07259055 0.083735734 -0.023010105 0.019014804
000080 06 ad 2b bd 73 d7 2c bd 06 d5 ad ba 37 67 4f bd
       -0.041913055 -0.042197656 -0.0013262338 -0.050635543
000090 9a fc a9 bb d6 3b 8c 3c a0 81 3b 3e 45 b3 e0 3d
       -0.005187583 0.017118376 0.18311167 0.10971693
0000a0 ee 53 87 3c f5 2b ff 3d 05 e8 c2 bd e7 cc 07 3d
       0.016519513 0.12459556 -0.095169105 0.033154394
0000b0 52 2c c4 bc ef 14 73 bd b7 af c1 3c 18 35 25 bb
       -0.023946915 -0.059346136 0.023643358 -0.0025208648
0000c0 28 fa 7a 3d 43 17 62 3d ca 6e c1 3d d1 a6 dc bd
       0.061273724 0.055197965 0.094449595 -0.10774005
0000d0 15 1e 5a 3d e4 ef 2b bd 69 0b b4 bc ba eb 16 be
       0.053251345 -0.041976824 -0.021978097 -0.1473836
0000e0 d8 68 14 3b 62 df 1f 3d 60 2b 5b 3c 73 19 bf bd
       0.00226455 0.039031394 0.013377041 -0.09331026
0000f0 f0 2c 05 3d 56 35 36 bd 3f 64 e6 3c 12 07 fe bd
       0.03251356 -0.04448446 0.028123973 -0.12403692

a2c_network.mu.weight f4 [6, 64]
000000 22 f4 97 bd 94 49 4e 3d c7 3a bf 3d 54 5a 10 be
       -0.074196115 0.05036314 0.09337383 -0.14096957
000010 48 11 67 bc 3b ea 1a 3d 4c 3e 67 3d 4f ee de bd
       -0.014103241 0.037821036 0.056455895 -0.108852975
000020 d8 df 39 be c7 a0 cc 3b 31 2f e3 bd 54 b3 60 3d
       -0.18151796 0.006244752 -0.110929854 0.05485852
000030 6f 19 4e bd c6 03 56 3d 4f 9f d1 bd f1 9a 08 bc
       -0.050317224 0.052249692 -0.10235464 -0.008337722
000040 22 9c 34 3d d1 a2 14 bc 19 d4 c4 3c 7c c0 bc 3d
       0.044094212 -0.009072022 0.024026917 0.09216401
000050 ef b1 9e 3d b7 b3 ba 3c ae 01 5f bd 1e de c0 3d
       0.07748782 0.022790773 -0.05444496 0.094173655
000060 49 41 11 be 48 f9 86 bd 8b f5 f7 3d 76 6b 03 be
       -0.1418506 -0.065905154 0.121073805 -0.12833962
000070 6b 1c 8e 3c 34 0e 34 3d ec d7 d3 bd 32 bd d6 3d
       0.017347535 0.043958858 -0.10343918 0.10485305
000080 2e 7c 70 3c 44 38 05 be 1e 35 9c bc d8 5f a7 bd
       0.014678044 -0.13009745 -0.019068297 -0.081725776
000090 db 15 86 bd 08 80 4d 3d be d3 bb bd 49 c4 10 be
       -0.06547137 0.05017093 -0.09171246 -0.14137377
0000a0 04 f7 2e 3d 72 20 12 be a9 f5 bd bc d3 81 31 3d
       0.04271604 -0.1427019 -0.023188429 0.0433367
0000b0 f2 ae c7 3d 44 4a 9a 3b 90 87 65 ba 1d a2 ab 3d
       0.09750165 0.00470856 -0.0008755857 0.0838053
0000c0 f7 3d 59 bd 01 15 d6 bc 31 2c 24 bd 2a 67 5a bc
       -0.05303761 -0.026133062 -0.040081207 -0.01333026
0000d0 89 a8 68 3c d9 a0 92 3c fa 43 2e 3d bb aa 95 3b
       0.014200338 0.017898964 0.042545296 0.004567472
0000e0 27 d7 db bc 58 e6 fc 3b a5 6d bb 3d a5 06 8a 3d
       -0.026835991 0.007717889 0.091517724 0.067395486
0000f0 43 ee e2 3d 40 2e dd bd 1d f6 55 bd ea d8 d3 3d
       0.11080601 -0.10799837 -0.052236665 0.103441074
000100 dd c0 1c be bf 76 95 bc 1b b3 a0 bc c3 99 88 3d
       -0.15307947 -0.0182451 -0.019616654 0.06669953
000110 86 23 7c bd 4a 4f 2e 3d a8 58 9f bc 03 04 03 3d
       -0.061557315 0.042556085 -0.019451454 0.031986248
000120 63 d4 43 be 3d 69 e3 3d 85 16 39 bd d8 55 df bd
       -0.19123988 0.11104057 -0.045187492 -0.10905045
000130 0f 05 5a bd 67 aa 10 3d d8 83 29 3d 3d 04 7e bb
       -0.05322748 0.03531876 0.0413855 -0.003875985
000140 5b c1 63 bb 4a f4 73 3b f0 3c 16 be 3a cd c2 3d
       -0.00347527 0.0037224465 -0.14671683 0.095118
000150 0f 4d e6 bd 92 b2 9f bb f8 9b 23 3c 1e 6c 21 3d
       -0.112451665 -0.004873582 0.009985916 0.03940975
000160 16 09 db 3c 61 15 95 3c 91 19 17 3c ef b5 85 bd
       0.026737731 0.01819867 0.009222404 -0.06528842
000170 34 96 f0 bc 6e 16 6b bd ee cd 30 be 35 98 08 bd
       -0.029368497 -0.057394437 -0.17266056 -0.03334828
000180 ca 80 dc bd 40 89 5a 3d 70 13 5e 3b fc 93 98 bd
       -0.10766752 0.053353548 0.0033886097 -0.07450101
000190 af 85 01 bd fb 57 49 3d bd f5 c3 bc bf 40 a5 bc
       -0.03162163 0.04915617 -0.023920888 -0.020172475
0001a0 aa 6c d8 3c de 32 04 3d f2 2c 7a bd 85 c6 dc bd
       0.026419003 0.032275073 -0.06107802 -0.10780052
0001b0 f1 01 a1 3d 58 41 df 3b e6 b4 81 3d 83 2c 86 3d
       0.078616984 0.0068132095 0.06333332 0.06551459
0001c0 b5 c0 96 3d f7 62 d1 3d 7a 6c e8 bd 98 2e a0 3c
       0.07360975 0.10223954 -0.11348815 0.019553468
0001d0 29 ac 16 bd d1 ec bb bd 4b 30 b2 bd 39 ff 7e bd
       -0.03678528 -0.091760285 -0.087006174 -0.062255118
0001e0 0d 78 d6 3d 6e 06 cb bd 86 08 f4 3d 75 6e 99 3c
       0.104721166 -0.09913336 0.11915688 0.018729428
0001f0 14 e3 af bc 9c 50 c1 bd 58 4f 61 3d f8 48 88 bd
       -0.021470584 -0.09439203 0.05500731 -0.06654543
000200 63 f9 11 be 97 0e 1c 3c 64 74 8d bd aa 9f d2 3d
       -0.1425529 0.009524963 -0.069069654 0.1028436
000210 82 7e d0 bd c0 43 e7 3d 3c c5 a6 3d ed 7a e4 3d
       -0.101803795 0.11292219 0.08143088 0.11156259
000220 b0 1c bc bb ba e2 ee 3c fc 2c 52 bb 74 2c 65 3d
       -0.0057407245 0.029160846 -0.003207027 0.055950597
000230 5e a7 49 3c 3a 30 87 bd c3 07 0f 3e 57 98 ef 3d
       0.01230797 -0.06600995 0.13967805 0.116989784
000240 10 82 6c 3d 4c a1 ed 3c bd e0 9c 3d d3 d3 83 3d
       0.057741225 0.029007576 0.07660053 0.06436887
000250 f0 1b 0d 3d a5 bf f1 bd fa bb 31 bd fe c0 29 3d
       0.03445047 -0.118041314 -0.04339216 0.041443817
000260 04 7a ce bc d2 8f 91 bc a7 c9 a3 bc 74 61 e4 bd
       -0.025204666 -0.017768774 -0.019993616 -0.111514
000270 9b 7d 2f 3d 57 35 4b 3d 13 8f 54 bc 52 82 ab 3c
       0.042844396 0.049611416 -0.012973565 0.020936165
000280 3c 9d cc 3d 64 17 a3 3d 45 33 de bd 8b 30 5b 3b
       0.099909276 0.07963446 -0.10849623 0.0033445682
000290 9d 68 38 3d 05 41 1f 3d 61 9c 78 3d b2 c5 0e ba
       0.045021642 0.038880367 0.06069601 -0.0005446329
0002a0 c3 b5 1f 3b 76 1b 80 bd c7 0c 1c bd bb cd c2 3c
       0.0024369813 -0.06255238 -0.038098123 0.02377974
0002b0 26 af 8c 3c f8 f0 08 be 79 8d 89 3b 5c 43 d9 3d
       0.017173361 -0.13373172 0.004197773 0.10608551
0002c0 6a 8e 27 3c b5 b3 db 3c 0a 2c 9b 3b 01 e2 0a 3d
       0.010226825 0.02681909 0.0047354745 0.03390694
0002d0 92 e1 f6 3d a5 62 ea bd a9 49 0e be 6b 94 b4 bd
       0.12054743 -0.11444596 -0.13895287 -0.08817371
0002e0 d7 89 d2 3d e6 29 0a 3e 33 c0 e9 3d 25 86 9b bc
       0.10280197 0.13492545 0.11413612 -0.018984864
0002f0 64 07 29 be ae 89 26 3c 8f 1b 29 bc 2a 29 86 3d
       -0.16506726 0.010164661 -0.010321512 0.0655082
000300 6d 95 5d 3d 71 fa c3 bd 77 a0 78 bc ac a3 db bb
       0.05409758 -0.09569252 -0.015174977 -0.006702861
000310 a4 62 26 bd 7f 92 4a bc 7e e5 0a 3d c5 4e 38 3d
       -0.040621415 -0.012364029 0.033910267 0.044996995
000320 7b c6 dd 3d 2b e7 49 3d 07 09 ef 3d a6 ce 9e 3d
       0.10828873 0.049292725 0.11671644 0.07754259
000330 3f 15 28 bd 12 1a 33 bd f5 5a 09 bd 8e 9a b8 bb
       -0.041035887 -0.043726034 -0.03353401 -0.0056336587
000340 15 66 6c bd 36 28 f0 3d 37 cd fe bd d3 de 8b 3d
       -0.05771454 0.1172642 -0.124414854 0.0682961
000350 e3 bc 85 bd aa b8 a8 bd 9d e5 a0 bb a0 74 59 3d
       -0.06530168 -0.08238347 -0.0049101845 0.053089738
000360 1c f7 9a 3d c6 ac 1e 3c 72 c2 b1 bd 5b 1c eb 3d
       0.075666636 0.009684747 -0.086796656 0.11480018
000370 5c 13 00 3d 90 87 d8 3c a7 d9 b0 3c 9d 78 df bd
       0.031268463 0.026431829 0.02158816 -0.10911677
000380 83 3b a4 bd 0e 4a a9 3b 27 21 da 3d 25 6b f8 3d
       -0.080191635 0.0051662987 0.106508546 0.12129811
000390 29 ae 88 bd fa 97 86 bd 95 98 dc 3c a5 21 26 bd
       -0.066738434 -0.06571956 0.026928226 -0.04055943
0003a0 6a 5c 98 bc f6 2f c0 bb 3a 6d f8 3d 31 17 87 3d
       -0.018598754 -0.0058650924 0.12130208 0.0659622
0003b0 25 90 cc 3c 15 af e9 3d 15 c7 22 bb 25 c5 1d be
       0.024971077 0.11410347 -0.00248379 -0.15407236
0003c0 d2 f4 74 3c 90 22 88 bd bb f9 ac 3c 6a af df 3d
       0.014950948 -0.06647217 0.021115175 0.109221295
0003d0 0f 1f 93 3d 6a 9c b4 bc 44 38 bd 3c 4a 86 a7 3c
       0.07183658 -0.02204724 0.023098119 0.020449776
0003e0 a8 76 a4 bd a4 cd e0 3d e7 1e ce 39 68 d6 11 be
       -0.080304444 0.10976723 0.00039314406 -0.14241946
0003f0 2d b7 9f 3b b9 ca b5 3d 0a 2e ea 3c 63 0e ae bd
       0.004874131 0.08876557 0.028586406 -0.08498838

a2c_network.mu.bias f4 [6]
000000 6e 43 40 3d a1 34 c4 3d 95 fd 3c 3d c4 af 8d bd
       0.046939306 0.09580351 0.046140272 -0.0691829
000010 1f b8 08 3e ab 92 f9 bc
       0.13351487 -0.030465445

exp_avg f4 [6]
000000 1f 40 5b b9 21 fa b9 3b 99 cb 67 3c 2f 61 47 3b
       -0.00020909354 0.0056755696 0.014147663 0.0030422916
000010 24 41 1f 3c a6 15 41 3c
       0.009720121 0.011784947

exp_avg_sq f4 [6]
000000 78 df c6 39 08 4b bd 39 7e ca ba 39 21 09 c7 39
       0.00037932 0.00036104792 0.00035627553 0.0003796304
000010 e0 b7 bd 39 e5 83 b8 39
       0.00036185887 0.00035193484
