IsaacGymEnvs/isaacgymenvs/runs/Bolt_18-17-08-29/nn/last_Bolt_ep_250_rew_0.27933317.pth (torch, 612432 bytes, 36 tensors)

value_mean_std.running_mean f8 [1]
00000000: 60f9 e212 0e80 c03f
0.1289079277248204

value_mean_std.running_var f8 [1]
00000000: e8cb 49ce d564 853f
0.01044623409072716

value_mean_std.count f8 []
00000000: 0000 0000 0470 1741
384001.0

running_mean_std.running_mean f8 [30]
00000000: 9422 be76 3564 db3f 94a5 c798 f5e8 c23f
00000010: f441 da12 8f6e ccbf a337 f8cc 18a5 ccbf
00000020: e4df 167c cb6f ef3f 24d2 412a 514c 743f
00000030: 44d0 dcd5 e683 c4bf 314d c79b 3c37 a4bf
00000040: 09a8 bb39 62a6 e2bf 3ad6 4e08 f9fe f73f
00000050: 6230 4770 7f1d e03f 1c78 0b66 72b1 993f
00000060: 7063 9f6a e0fb d03f 0aff b54e aea0 cc3f
00000070: 3a5f 0cc1 0ba8 ca3f f63f 9772 f42b d0bf
00000080: 9414 bb69 73f1 cd3f 4f42 a03d 8501 b73f
00000090: c6e0 7383 4232 873f e519 1b9a 41f7 833f
000000a0: c7fe 88a5 a8f9 633f 8aa7 2f63 8fbd 86bf
000000b0: f51c 3df5 2862 823f f279 c606 76f3 93bf
000000c0: efd4 4306 5abf e03f 50b1 65d2 0804 de3f
000000d0: 59e4 042b dca1 da3f c61d d048 d9d9 dfbf
000000e0: 8fd9 9f70 c152 df3f 5cd5 e67a 6e21 c03f
0.42799126239746355 0.147734355544611 -0.22212398930106725 -0.22378835685998152 0.9823968337650482 0.004955594111482973 -0.16027532045848336 -0.03948392297356874
-0.5828105094526573 1.4997492146043343 0.5036008065158166 0.025090968588180926 0.2653733292805134 0.2236535915690115 0.208253354322318 -0.252682792573068
0.23393099463115574 0.08986695055524162 0.011326331745735618 0.009748947635114422 0.0024383825187042937 -0.011103744711323821 0.00897628782662572 -0.01948341766694201
0.5233583567011503 0.4689962439213291 0.41612915230832 -0.4976714335502631 0.4894260024879253 0.1260202503305362

running_mean_std.running_var f8 [30]
00000000: 2486 91ea ddd2 e13f c488 0d9d af8f cb3f
00000010: 53f9 eac0 b2a9 df3f 896d 3d41 4efd f13f
00000020: d0e8 72a6 de52 0240 f985 fc79 fd1a d93f
00000030: 4339 46c7 7384 ca3f 6115 a93c 8ca0 b63f
00000040: ef38 673c a3e4 d53f 43ca c940 6ac3 b53f
00000050: 2056 6f8b 91c8 b53f b131 ba26 3dea 2b3f
00000060: 23bd 8053 cf71 b23f 390b d4f3 0037 b13f
00000070: cf75 740d 309f b03f c7c1 4748 76dd b13f
00000080: e139 e22f 05ea b13f fb61 03bd 1fb6 b93f
00000090: 6fb3 352b 6fa0 b63f 9040 f39e 591d bd3f
000000a0: eb06 c3fd 2d27 bc3f 8958 b242 02a2 bb3f
000000b0: 5431 55e3 f842 bd3f ffa1 2d8d 9d64 c03f
000000c0: 2ed0 886d 679a df3f ccd1 6320 a2d7 df3f
000000d0: 0a32 165f 92d7 df3f efaf 0068 ff94 df3f
000000e0: 02d2 a63e dda4 df3f 9310 de70 6599 e53f
0.5569905835547542 0.21532244843098713 0.49473255958209456 1.1243422077594423 2.290463734037168 0.39227234757171875 0.20716712217513064 0.08838726502388773
0.3420799341082689 0.0850130470442219 0.08509168295071179 0.00021297451472824866 0.0720491007675617 0.06724554016913666 0.06492901161660501 0.0697854925599649
0.06997711581264056 0.10043524136143127 0.08838553242612844 0.11372909670467579 0.10997283406598128 0.10794080856644163 0.1143031649600677 0.12807053941220656
0.4937990731880316 0.49753621256902814 0.49753245626269005 0.4934690967227188 0.49443751447986994 0.6749751285974689

running_mean_std.count f8 []
00000000: 0000 0000 0870 0741
192001.0

a2c_network.sigma f4 [6]
00000000: 59fd 89be c1b5 e2be f386 a4be 2b93 b0be
00000010: f0ee ddbe 1558 53be
-0.269511 -0.44279292 -0.32134208 -0.3448728 -0.43346357 -0.2063907

a2c_network.actor_mlp.0.weight f4 [256, 30]
00000000: 4843 963e c63b 8abe b841 853d c5e4 4d3d
00000010: 61ed 40bd d17e 4e3e 48da cabc a463 093e
00000020: c4f6 8bb5 807b 0fbe dc46 413e b18d 58bc
00000030: c7d4 d73b 705b 283e 1489 fb3d 8217 8ebd
00000040: d1fd 483d 0734 e7bc 4c98 d53c 8166 09be
00000050: e8f0 38be d1f6 123d 1d8a 8fbe 2a2b da3d
00000060: 2ee4 32bc bd3b b83d 956a a63d 01df bcbc
00000070: 90fb af3d 1fca 40be a890 013e 5475 17be
00000080: 568d 0e3e b86e acbd 2741 b73d edc5 4ebd
00000090: 66a6 373e 4b94 a3bd 325e 40be 2e40 c9bd
000000a0: 9efc 063e 4479 8a3d af26 d83d e24f 08be
000000b0: 9c10 54be 4999 fcbd b970 0bbe d47a 043d
000000c0: 1227 2e3d b40c 243e 6f91 00be aeaf c9bd
000000d0: 933e 2b3d d394 b9bd 1719 c83c bb7b 52bc
000000e0: ad12 953d 415b cfbd fb18 30be fa10 80bc
000000f0: bb70 dd3d e196 a53c a2c2 163e c2b8 a23d
00000100: 69c1 41be 8887 b7bd 6635 433e e7a4 b6bd
00000110: 6ea1 97bd ca07 46be 896a 16be fcbc c93c
00000120: 5309 febb ceee 06be df9e 3fbc 82a7 edbc
00000130: 47f0 10be d6e1 cdbd aa78 aebd 89fb 2bbe
00000140: 761e 003e ffa1 9d3d 3997 3bbd 95b1 36be
00000150: ac98 d3bd 51de 83bc a9fe 543d 3f2b c6bd
00000160: 250b 80bd 14bb a4bd 3f77 71bd 095c 78bd
00000170: 7511 39bd e75c 51be 80f6 1fbe a419 33be
00000180: cf97 68bb 5658 20be 80e8 7e3e 38b9 9ebd
00000190: 10d2 3f3e 8442 8c3d 50f5 0fbe fca8 933d
000001a0: eb15 9dbd 7e81 f7bd 2db7 1dbe 1534 25be
000001b0: 247b 3f3d 967f c1bd e7a7 893d 5cf5 27be
000001c0: 2c13 d83d 475b 2ebd 126b 34bc f7f3 b53b
000001d0: 8026 973d 6333 7c3d bd31 243e e003 8abd
000001e0: 0a00 753d 2d21 72bd 445f fdbd 3b7c 10be
000001f0: 7f85 4b3e 8ae7 21be 6126 b83d f72d 9d3d
00000200: ca02 f9bc 1322 e8bd 335c 093e d33d 5bbc
00000210: de1d c23b 0800 0cbe 8fd8 c93d 5156 90bd
00000220: ee5a 96bd d8a7 2d3e 0d1c 8f3c c116 a2bd
00000230: ba14 80bc 7d31 95bd 2d6f 2c3e e918 82bc
00000240: 0165 c3bd b5f8 09bd 4735 a9bd b959 423c
00000250: fa0b 143e add5 40be 34bf c13d b025 393d
00000260: 1534 e7bc 35ff 80bd 66df 9c3d 332b ed3d
00000270: f5a5 bd3d 7982 4fbd f2a8 42be c0a0 9dbb
00000280: 71b2 f2bc a8fc 53bd d095 f43d d16e 1a3e
00000290: d343 513a 1b52 16bd 1f59 993c 9087 033c
000002a0: f2b4 d63c f35d 2f3d fe38 08be 5d74 6bbd
000002b0: 6528 3d3e 8ef6 113d b166 a8bb 6166 34be
000002c0: 8314 0dbe b4d8 23be a744 a6bd de31 2e3d
000002d0: 8166 b33e 5002 013d 1293 b7be 0e7b ccbd
000002e0: f337 19bd bed5 0d3e d123 0abd dfca 1ebd
000002f0: d9c1 203e 24c5 24be 4f14 e0bd 0d9b df3d
00000300: 1410 43bd 3942 093d 31e1 1cbe 0b9a d03d
00000310: b315 e23d e492 f63c ddd0 3ebe a023 01be
00000320: 1f79 26be 9082 303e 213b c53c 3ba3 f53d
00000330: 127d c33d d768 083e 358a d6bb fba3 5dbe
00000340: 437f 3fbe c328 36be d880 953e 8b48 1bbe
00000350: 5915 1bbe 9fde cbbc f01e 99bd 066f 86bd
00000360: 8b06 2ebe d0c8 963d 0b4e 7dbd cd55 90bd
00000370: f8b9 8abd b496 12be ca17 66bc c9d7 7fbd
00000380: c783 65bd ae51 1bbe 5c54 c93d 959f d5bd
00000390: 2715 773d ae66 893c 299c e93d c79f 8bbd
000003a0: d9b2 b53d c275 cfbd a52f b53d 298e 173e
000003b0: 355c aebd cc07 8ebc 609c 98bd c6c4 eabd
000003c0: c179 a93e 8878 71be 076e 08bd b3af 2a3e
000003d0: 431e ed3d 9715 04bd 2926 81be 699b 2e3d
000003e0: 4278 393e e961 c3be 0511 5ebd 13c1 0ebe
000003f0: ba8a 94bd 9788 89bd 8e4d 9fbd 36b4 0fbe
0.29348207 -0.2699873 0.065066755 0.050267 -0.047101382 0.20165564 -0.024762288 0.13416916
-1.0428125e-06 -0.14011955 0.18874687 -0.013217376 0.0065866443 0.1644113 0.12282005 -0.069380775
0.049070183 -0.02822305 0.026073597 -0.13418008 -0.18060648 0.035879914 -0.2803506 0.10652764
-0.01091866 0.08995769 0.08125798 -0.023055555 0.085929036 -0.18827103 0.12652838 -0.14790851
0.13921103 -0.084195554 0.08947974 -0.050481725 0.1793457 -0.07987269 -0.18785933 -0.098266944
0.13182303 0.06761411 0.10554253 -0.13311723 -0.20709461 -0.12333924 -0.13617219 0.0323437
0.04251773 0.16020471 -0.12555479 -0.09847961 0.041807722 -0.09061589 0.024426026 -0.012846882
0.07278953 -0.10124827 -0.1719703 -0.015633095 0.10812517 0.020213546 0.14722684 0.07945396
-0.18921436 -0.089613974 0.19063339 -0.089181714 -0.07403837 -0.19338909 -0.14689077 0.024626248
-0.0077525764 -0.13177034 -0.011695593 -0.029010538 -0.14154159 -0.100528404 -0.085191086 -0.16795172
0.1251162 0.07696914 -0.045798514 -0.1784118 -0.10331854 -0.01609722 0.052000675 -0.09676217
-0.06252126 -0.08043495 -0.058951613 -0.060634647 -0.045182664 -0.20445596 -0.15621376 -0.1749025
-0.0035490876 -0.15658697 0.24893379 -0.077501714 0.18732476 0.06848624 -0.14058423 0.072099656
-0.07670196 -0.120852455 -0.15401907 -0.16133149 0.046748295 -0.09448163 0.06721478 -0.16402191
0.10550532 -0.042567518 -0.011011856 0.0055527645 0.0738039 0.061572444 0.16034599 -0.0673902
0.05981449 -0.05911367 -0.12371686 -0.1410989 0.19875143 -0.15810981 0.08991695 0.07674783
-0.030396838 -0.11334624 0.13414077 -0.013381439 0.0059239706 -0.13671887 0.098557584 -0.070477135
-0.07341562 0.16958559 0.01746943 -0.07914496 -0.015634883 -0.0728483 0.16839285 -0.015881019
-0.09540749 -0.03368445 -0.08262115 0.011862212 0.14457694 -0.18831511 0.09460297 0.045201957
-0.028223077 -0.06298677 0.07659797 0.11580505 0.092601694 -0.050661538 -0.1900976 -0.0048104227
-0.029626103 -0.051754624 0.11942637 0.15081336 0.0007982824 -0.036699396 0.018719254 0.008027926
0.026209328 0.042814206 -0.13302991 -0.05748402 0.1847244 0.035635523 -0.005139195 -0.1761718
-0.13777356 -0.16000634 -0.08118563 0.042528026 0.35039142 0.031496346 -0.35854393 -0.09984408
-0.037406873 0.13851067 -0.033725563 -0.03876769 0.15698947 -0.16090828 -0.109413736 0.109182455
-0.047622755 0.03351042 -0.15320279 0.10185631 0.11039295 0.03009934 -0.18634363 -0.12611246
-0.16257142 0.17237306 0.024076046 0.11994024 0.0954534 0.13321243 -0.0065472373 -0.21644585
-0.1870089 -0.17788987 0.29199862 -0.15164392 -0.15144862 -0.024886427 -0.07476604 -0.06564145
-0.16994683 0.07362521 -0.061842006 -0.07047615 -0.06773752 -0.14315301 -0.014043758 -0.062461648
-0.056033876 -0.15167877 0.098305434 -0.104308285 0.060322907 0.016772594 0.11406738 -0.068175845
0.08872003 -0.101298824 0.08846978 0.14800324 -0.08513681 -0.017337702 -0.07451701 -0.11463313
0.33100703 -0.23581135 -0.033308055 0.16668586 0.115780376 -0.032247152 -0.25224426 0.04262868
0.18112281 -0.38160637 -0.05421545 -0.1394084 -0.072530225 -0.067155056 -0.07778464 -0.14033589

a2c_network.actor_mlp.0.bias f4 [256]
00000000: ccdb 0bbd dfe9 38bd 4cf7 63bd da0b 0d3c
00000010: 65f3 143d 84ac 143d 963f 643c 8823 9dbc
00000020: 9f14 c93c 6c0c 75bd 76fb 673b fdee cf3d
00000030: c193 04bd 3252 1a3d 7171 caba 5997 5bbd
00000040: 5eca b9bd 863c 223d 7c2d a23a 2cd9 473d
00000050: b3cd aa3d 2fa5 adbc e6ac 16bd 6a34 82bc
00000060: 5e4c 063d 9b61 193c 6afa 40bd edbb 5cbd
00000070: a9cd 66bc d489 67bd e345 79bd 30c1 e33c
00000080: e680 95bd d2ab 0dbe 9fcf 993b 9ed2 da3c
00000090: ba5d 043b db6f 1cbc 6fce 49bd 4447 debc
000000a0: f6a9 20bc 1122 c43c dce8 b4bd 0cd0 8fbd
000000b0: b490 f43c 4ed6 76bc a12e c13d c10d 693d
000000c0: 89b3 1f3d 78a8 10be 5bbb a8bb a5b1 d9bd
000000d0: e959 85bc 3134 043d 951a 7abc 5909 af3d
000000e0: a42b acbd 6881 bcbc 685b 583d 0b82 1dbd
000000f0: c872 3bbd 05ee 1e3c 23b6 c8bc 4d58 cabc
00000100: 1d7f b43c c43f 9cbd e43b 7d3d bfa6 cdbc
00000110: 9074 0fbb 75f7 d3bc 77cc 79bd ea73 0dbc
00000120: af75 1bbd c17a 5abd 41c7 823d bac1 d1bd
00000130: a121 b8bd ffed 64bc c80b b2bb bb32 a23a
00000140: 0124 f0ba 896c 97bd ef1e 4abd adbf 77bd
00000150: 8754 e8bd 30b6 93bd 25ac c3bd ad1d 8fbd
00000160: dd6e b93b 3846 21bd 487e 42bd 8362 ba3d
00000170: e5d3 28bd 2246 8ebb ed7e b13d deaa 933d
00000180: a931 873d 6f9a ff39 9c2f c439 c69a 83bc
00000190: b7fc 263d 0397 eebc 6dcb ab3d ff68 ce3b
000001a0: 70f2 94ba 8fb9 583d d99d f03b a91d 243d
000001b0: 22b8 5f3d 96d0 7c3d 2dbc 02be 4947 6abd
000001c0: 29fe 20bd 3599 22be 0387 45bd 3ec1 00be
000001d0: 9236 4e3d 7ceb aebc 2ab8 7fbc 657c 84bd
000001e0: 411c 4cbd 7d66 48bd c3a4 013d 89e7 a9bd
000001f0: 5378 33bc ba42 c43c 4b56 b7bc 9bb6 a23d
00000200: 805f 8b3c 566d 51bd 10e3 ddbc 9dac 2a3c
00000210: db79 3abd 28c2 f03d ffa5 c53c 2c76 793d
00000220: eca7 3e3d 04f6 87bc a8e1 b13d 1e0f 5c3d
00000230: b28d 93bd d2bc 213c b902 053d 0fdf 08be
00000240: 9f8c b8bb 934e a0bd 56dc 7b3d 9db9 8e3d
00000250: 92e4 e03a e9af 663d e617 993c a12a 1dbd
00000260: 13a8 46bd d954 d33b 0b07 5cbc 949c 48bd
00000270: c95c b8bc 9543 e0bd 36d2 093d e873 c93c
00000280: 0fef b6bd a281 843d cd38 a7bb 3c17 a23d
00000290: e31c babd 9c44 9dbd ee62 94bc 8745 923b
000002a0: 7dee b6bd 727b 67bd d951 b3bd b4cd d8bc
000002b0: 9d7f 5b3c 7512 c1bd 6ea4 70bb 6660 7ebd
000002c0: 4eef 943d e97d a3bd 92d2 2fbe 8665 31bd
000002d0: 47c8 fdbb fbb7 a83d fd33 fdbc 5985 283d
000002e0: 82d6 033d 4dd4 9cbc abef 0b3d cc5d 7cbd
000002f0: bd4a 9bbd 2d72 3f3d 0937 303c 3eaa 10bd
00000300: c719 c6bc 362d cfbd 85cc 3cbd 4b36 2abe
00000310: b0a7 63bd 77d2 043d 2106 9abc 55c9 a4bd
00000320: 66c2 e9bb 0c99 5c3c 1f7c aebd 0a24 943c
00000330: 4044 d8bc dbe5 8bbd 8dcf 903c fcac 92bd
00000340: 0ed2 aebc c0ff 963b 54b5 2fbd a8a8 94bd
00000350: 1b5f 86bd e071 c63c 3db6 3dbd 0409 0f3d
00000360: 99e2 e8bd 663b 3e3d b62d 10bd abaf 013c
00000370: 228b 3c3c 187b 6bbd a446 813c 7b5c 0a3d
00000380: db7d 13bd 8276 82bd 12c7 c5bc f2ae 973d
00000390: 9ce9 72bd 35f2 5a3c 105c 363c 1a7e 52bd
000003a0: 1e03 c1bc e8d4 9c3d 51db e53c 82ea 1b3d
000003b0: 723a 923c ba18 22bd 76bd b03c 0ecf 383d
000003c0: 0b0b dc3c 338e 2dbc 26df a8bd d220 0e3c
000003d0: c254 cebc fc68 aebd e8ac cdbb 352e bcbd
000003e0: 5dba 88bd a3ff 50bd 5f69 e2bc acec f9bb
000003f0: d735 a2bb f32f 69bb 5871 51bd 0641 5b3d
-0.03414516 -0.04514491 -0.055655763 0.008608783 0.03636493 0.036297336 0.013931176 -0.019181982
0.024545966 -0.0598263 0.0035397685 0.10153005 -0.03236747 0.037676044 -0.0015445185 -0.053611133
-0.090718016 0.0396085 0.0012373175 0.048791096 0.08340015 -0.02119693 -0.036785983 -0.015894134
0.032787673 0.00936165 -0.047113813 -0.053890157 -0.014087119 -0.056527928 -0.060857665 0.02780208
-0.07299976 -0.13835075 0.00469394 0.026711758 0.0020197467 -0.009548153 -0.049269136 -0.027133591
-0.009806147 0.023942025 -0.08833477 -0.07022104 0.029854156 -0.015065743 0.09432722 0.056897882
0.038989577 -0.14126766 -0.0051492876 -0.10629586 -0.016278224 0.032276336 -0.015265127 0.08546705
-0.08406761 -0.023010924 0.052821547 -0.038454097 -0.04576376 0.009700303 -0.024500912 -0.024700308
0.022033269 -0.0762935 0.061824694 -0.025103925 -0.0021889545 -0.025874833 -0.06098601 -0.008633593
-0.03795403 -0.053339723 0.06385661 -0.102420285 -0.08990789 -0.013972758 -0.0054335333 0.0012374738
-0.0018321277 -0.07393748 -0.049345907 -0.06048553 -0.11344247 -0.07212484 -0.09554318 -0.06988082
0.005658968 -0.039373606 -0.047483712 0.09100821 -0.041217703 -0.0043418566 0.08666787 0.07210325
0.06601269 0.00048752452 0.00037419505 -0.016065013 0.04076835 -0.029124742 0.0838841 0.0062991376
-0.0011363756 0.052911337 0.0073430357 0.04006735 0.054618962 0.06172236 -0.12767096 -0.05719689
-0.039304886 -0.15878756 -0.04822446 -0.12573716 0.05034501 -0.021352522 -0.015607873 -0.06469039
-0.049831633 -0.048925865 0.03165127 -0.08296115 -0.0109539805 0.023957599 -0.022380015 0.079449855
0.017013311 -0.05112966 -0.02708581 0.010417131 -0.045526367 0.11755782 0.024127005 0.060903713
0.04654686 -0.016596802 0.08685619 0.053725354 -0.072047606 0.009871678 0.0324733 -0.1336634
-0.0056319977 -0.07827487 0.061489426 0.06968997 0.0017157963 0.056320105 0.018688153 -0.038370732
-0.04850013 0.0064493236 -0.013429414 -0.04897745 -0.02250518 -0.1095039 0.03364774 0.024591401
-0.089323156 0.06470038 -0.0051032067 0.07914588 -0.09087541 -0.07679102 -0.01811358 0.0044638547
-0.08932207 -0.05651421 -0.087558456 -0.026465274 0.013397125 -0.094273485 -0.0036719101 -0.06210365
0.07272206 -0.07983 -0.1717017 -0.04330971 -0.007744822 0.082382165 -0.030908579 0.041142795
0.032186992 -0.019144202 0.034164112 -0.06161289 -0.075826146 0.046739746 0.010755309 -0.035318606
-0.024182213 -0.10116045 -0.046093483 -0.16622274 -0.05557984 0.032427277 -0.01880175 -0.080462135
-0.00713377 0.013464224 -0.08519768 0.018083591 -0.026399732 -0.06830951 0.017677093 -0.071619004
-0.021340396 0.0046081245 -0.042897537 -0.07258731 -0.06561109 0.024224222 -0.046316374 0.034920707
-0.11371345 0.046443366 -0.035199843 0.007915418 0.011507781 -0.05749044 0.015780754 0.033779602
-0.036008697 -0.0637026 -0.024142776 0.07406415 -0.05930482 0.013363411 0.011130348 -0.05138979
-0.023561057 0.07657796 0.02805868 0.03806544 0.017850135 -0.039574362 0.021574717 0.045119338
0.026860734 -0.010592985 -0.08245687 0.008674817 -0.0251869 -0.08516118 -0.0062767155 -0.09188501
-0.06676171 -0.051025044 -0.027638135 -0.0076270904 -0.004950266 -0.0035581558 -0.051133484 0.053528808

a2c_network.actor_mlp.2.weight f4 [128, 256]
00000000: 4974 b7bb 8423 1bbc b4ce 25be 0e94 b83c
00000010: 366b 613b bfde bebc a898 9e3b 418e 873d
00000020: 90ef 9ebc dc45 323d 0a74 c83c fbd7 ffbc
00000030: 33c6 173d a570 aa3c aa73 743c cbaa a33d
00000040: 6461 c5bd ccb9 a73d d032 5f3b 68f8 c63d
00000050: 42b1 e3bd 9640 a23d 5bbc b0bd 06c5 8fbd
00000060: c037 0e3d 8bc2 0cbe 47fe 1f3d 8768 fd3c
00000070: 3591 b6bc 058d ca3c 82f8 b33d 4599 4d3b
00000080: 9f3a 853d 440f 913c e757 0d3d ac82 97bd
00000090: d646 a8bd 84bc 9b3d 426b 883d 5dde f4bc
000000a0: 9595 493d 7b06 c33b c980 c2ba eab2 34bd
000000b0: cf99 803d f7a6 ac3c 7377 66bd e0cd 0ebe
000000c0: 0136 d5bc 6c23 d33c 4dbd e1bc 55c4 963d
000000d0: 4a23 033d f144 013d 7202 913d a195 13bd
000000e0: 3b93 cf3d b352 823c e4e0 eebb ffa3 bc3a
000000f0: 23a1 ce3d bb6d 90bd 7e66 093d 8b96 af3d
00000100: 1ff0 42ba 09e9 4abd 9ca3 133c a1a5 c33b
00000110: 5a0b 3fbd ca8f 873d e73c 10bd 3848 2dbd
00000120: cb0e bd3d 9514 323d 62b0 3bbd 2e10 a93d
00000130: 6923 9c3c 3ef4 cd3b d475 b1bc ec92 76bd
00000140: 5519 09bb 2735 1dbd 43a6 003c 1d07 4a3d
00000150: 9abb 18bd 3776 05bd 2eb8 223d b1eb 79bd
00000160: bd47 5abb be2a 11bd ff85 203e adad ab3d
00000170: 1516 3ebb 9776 483d cb43 fcbb 249d 2f3d
00000180: a6e7 61bd a6c4 ba3c ceb5 f13c c56f 6c3d
00000190: b74e 9abc 7ae2 643d d283 8cbc 345a a9bc
000001a0: e3b9 5bbd 2c57 96bd ecf3 c0ba 3d73 733c
000001b0: 3156 5f3c f93b 97bd 715d fd3c 0910 6a3d
000001c0: ea1a 033d 87f5 b93d 127d 423d cfd0 2fbc
000001d0: 3021 a6bd a6df abbd 190c 2b3d 9370 db3c
000001e0: 1fb6 ad3d 71d4 88bc ce09 81bc b2ec 78bc
000001f0: a853 543c dee3 d63b a05f f8bb ebb3 acbd
00000200: 253a 75bd 5057 83bc 0658 8d3d 088b 88bd
00000210: cb40 993c f65e cdbd b7fe 97bc 48a9 603c
00000220: f38d 71bd d46a 2dbd c1b5 343d 58cb 17bd
00000230: 2942 163c 6138 94bc 7662 69bd 2a22 43bc
00000240: 1def 25be 6f59 fa3b 9c01 a7bd efc2 b03c
00000250: 542b 8dbb 55ec 16be 0cea ea3c 075c 4bbd
00000260: a632 3d3e 8f68 d63c 1a5e aabd a9ad c13c
00000270: 232b db3c a641 3c3d eded 82bb 82b8 d63c
00000280: 6238 893d e8c3 86bd f150 933d d122 8b3d
00000290: 0ba1 96bd fe2f 333b 175f 24bd 6442 d13c
000002a0: c2df 473d 684d 883d a9e7 e23d b8c4 183c
000002b0: 5daf adbd fa54 a8bb dec8 60bd e2db 8eb9
000002c0: 6154 9cbc bd27 673d 7c7e c53c acb9 91bd
000002d0: 43f4 0cbc bf28 95bd 69b0 f93c fa57 96bc
000002e0: 9193 123d e8bc b33d 8a41 433d ded7 ff3a
000002f0: 81f8 d63c 5bcd 8ebd 76b5 483d 1ce7 cbbc
00000300: 1780 e03c 3d3d c33d c9be 813c 45dc 7f3c
00000310: 4801 923c 8e7f 81bc 896b 25bd a38a 97bd
00000320: ff92 20bc f9f9 523d 71d6 993d bd4d aabd
00000330: c4ef 42bb d87e 47bb 6379 b2bd 21a6 50bd
00000340: bceb 063c abec d1bc b0de e73b ca6d 083d
00000350: 51bf 2a3c 6995 babd c191 1f3d 165c 823c
00000360: e4a8 b53d 9a51 5a3d 0fcd a0bc 4067 55bd
00000370: 4cb5 00bc f833 873d 2007 dd3d 10da dbbd
00000380: c2ba 1cbe df13 823b 2f29 85bc e52e adbd
00000390: df3f 1b3d a1f2 a8bc 1391 863c 9b51 7f3c
000003a0: 8b7d 72bd 6039 743d b55d 4f3d ff6c adbc
000003b0: 9a39 e63c 3e9b 57bc 3834 76bd 306d a7bc
000003c0: 7439 f53a f354 29be 92cb cc3b be4a aebd
000003d0: 6b86 433d 584f 453d a6b3 92bd 795e 9c3d
000003e0: 142a 773d 7b14 1fbd eb16 db3c 89a7 f4bc
000003f0: 80dd 0d3d 7a4a 2e3d 4fa7 1b3d 043d bebd
-0.005598579 -0.009468917 -0.16192132 0.022531535 0.0034396178 -0.023299573 0.0048399754 0.0661893
-0.019401342 0.043523654 0.024469394 -0.031230917 0.037054252 0.020805666 0.014920155 0.079915605
-0.096377164 0.08189735 0.0034057386 0.097153485 -0.111177936 0.07922475 -0.08629676 -0.07020001
0.034721136 -0.13746087 0.039060857 0.030933632 -0.022286037 0.024725446 0.087876335 0.0031371873
0.06505322 0.017707475 0.03450766 -0.073979706 -0.08216636 0.07604316 0.06661083 -0.029891187
0.04921492 0.0059517003 -0.0014839406 -0.04411594 0.06279337 0.021075709 -0.05626626 -0.13945723
-0.026026728 0.025773726 -0.027556086 0.07361666 0.032016076 0.03155989 0.070805445 -0.03603137
0.10135504 0.015908575 -0.0072899926 0.0014392136 0.10089328 -0.070521794 0.03354501 0.08573636
-0.00074362935 -0.049538646 0.0090111755 0.0059706722 -0.046641685 0.066192225 -0.03521433 -0.0423052
0.09231337 0.04347666 -0.04582251 0.08255039 0.019059854 0.0062852195 -0.02166263 -0.06019871
-0.002091964 -0.03838077 0.00785214 0.04932319 -0.037288286 -0.03258344 0.03972643 -0.06101579
-0.003330692 -0.035441153 0.15676115 0.083827354 -0.002900486 0.04894122 -0.0076985112 0.04287447
-0.055152558 0.022798847 0.029505637 0.05772378 -0.018836362 0.055880047 -0.0171527 -0.020672895
-0.053644072 -0.073408455 -0.0014721132 0.014859018 0.0136313895 -0.07384486 0.030928345 0.0571442
0.03200809 0.09080034 0.047482558 -0.010730936 -0.08111799 -0.08392267 0.041759584 0.026787078
0.084820025 -0.016702862 -0.015751746 -0.015193151 0.012959398 0.0065579256 -0.0075797588 -0.08432754
-0.059869904 -0.016032845 0.06901555 -0.06667143 0.018707654 -0.10027878 -0.018554075 0.013712235
-0.058973264 -0.042338207 0.044118647 -0.037059158 0.009171047 -0.01809329 -0.056978665 -0.011910001
-0.16204496 0.007640056 -0.08154604 0.021577327 -0.0043081436 -0.14738591 0.028676055 -0.04964831
0.18476352 0.026172904 -0.0831873 0.023642378 0.026753968 0.045961045 -0.003995648 0.026211027
0.06700207 -0.06580335 0.07193173 0.0679375 -0.07354935 0.0027341838 -0.040129747 0.025544353
0.048797376 0.06655389 0.11079342 0.009324245 -0.084807135 -0.005137083 -0.054879062 -0.00027248176
-0.019083204 0.05643438 0.024108164 -0.07115492 -0.008603158 -0.07283162 0.030479627 -0.018352497
0.03578526 0.087762654 0.047669925 0.001951929 0.026241543 -0.06972762 0.04900118 -0.024890475
0.027404828 0.09533165 0.015838044 0.015616481 0.017822877 -0.015807893 -0.040385757 -0.0739949
-0.009800672 0.051507924 0.075116046 -0.08315609 -0.0029744962 -0.0030440595 -0.08714559 -0.050939683
0.008234914 -0.025625547 0.007076107 0.033307828 0.01042159 -0.09110529 0.03895736 0.01591305
0.08870104 0.053300478 -0.01962903 -0.05210042 -0.007855725 0.06601709 0.107923746 -0.107349515
-0.15305617 0.003969654 -0.01625499 -0.0845621 0.03790271 -0.020623507 0.016426599 0.015583421
-0.05920176 0.05962503 0.050626475 -0.021170137 0.028103638 -0.013159571 -0.060108393 -0.020437807
0.0018709139 -0.16536312 0.0062498534 -0.0851035 0.047735613 0.04817137 -0.071631715 0.07635207
0.060342863 -0.03883789 0.026744327 -0.029865043 0.034635067 0.042551495 0.038001355 -0.092889816

a2c_network.actor_mlp.2.bias f4 [128]
00000000: 30a3 f5bd 5d3e 01be 2c60 e2bd c010 47bc
00000010: 0e94 88bd 7b6b 643c 5a57 c4bd c870 b6bc
00000020: d71d 0dbd 9e19 6bbd 34ac 5cbc 81d2 87bc
00000030: cc13 9abd 97d1 09be 1bad b63d f7ec 59bd
00000040: f6e4 bcbc 5731 d2bd 14e3 5abe 3373 e6bd
00000050: 3668 fcbd adf8 da3c 2afb d83c 622f a43d
00000060: 65fa fbbd d75e f43b 29ec 353d 94be 5fbd
00000070: 2be2 e3bc 08c4 243c 28d8 92bd 9cc0 403c
00000080: 9949 8ebd da0c 813c 4e8f 92ba 550a 95bd
00000090: c440 e93c 38a8 ef3c dd4e 513d e4c0 09be
000000a0: 06e0 d3bd f3d8 d5bd 7fd6 d5bc b867 993c
000000b0: 7531 33bd a77b 2bbd 28d4 563d 4c6a d1bd
000000c0: ec31 d4bd 40c8 0fbe bf12 1cbd 4a17 0b3d
000000d0: a72d d13c 86cb f4bc 7fa8 31bd 72e0 40be
000000e0: 0e6a f53b 9f90 433d 5cd8 283d 5524 343d
000000f0: dbad 143d 0395 66bd 0ded 78bd 5867 b23c
00000100: 2377 25be c7b1 18bc 9f46 60be 0a5e 9a3c
00000110: c6c9 28be 1906 45bd 6c67 893c a593 a4bd
00000120: 0236 6a3d 0236 fd3c b41f ddbb 403d 993d
00000130: 912b 723d f5bc 20bd 5267 4a3d 0461 cc3d
00000140: 70d9 0a3d 12c7 c23d 0ada 4f3b 528d dabc
00000150: cad0 febd 725e 38bd 23a0 b33c 3e50 f6bd
00000160: ae5d 2bbc 679c f33b d6d0 debd 6efe 303d
00000170: efa8 f6bd a985 303d 8908 36bd 2924 9abb
00000180: 9003 19bd bb0a d6bd 4f30 983d 2b25 0dbd
00000190: f67a a3bd d47d c1bd d5ca 9d3d 7f61 023d
000001a0: a5e2 c4bc 8047 44bd 5b51 d9bb ee92 babd
000001b0: 7257 1e3c aec1 aabb 86bb 923d 0a23 373d
000001c0: e55a 1cbd 8afe 6fbd f6ed f93c a807 72bd
000001d0: 8e13 0abe 1bac c83c 408a 54be 61d3 d1bd
000001e0: 6a80 28bd 3e67 dabd 88a0 30bd 7b53 f53c
000001f0: a315 ccbc 06e7 053e 2651 e93c a03e c03c
-0.11994016 -0.12621446 -0.110534996 -0.01214999 -0.06668864 0.013941641 -0.095869735 -0.022270575
-0.034452286 -0.057397477 -0.013468791 -0.016579868 -0.07523307 -0.13458858 0.08919736 -0.053204503
-0.023058396 -0.10263317 -0.21375686 -0.11252441 -0.12324564 0.026729906 0.026486952 0.0801685
-0.12303618 0.007457595 0.044414673 -0.05462511 -0.027817806 0.010056503 -0.07170135 0.011764672
-0.069476314 0.015753198 -0.0011181624 -0.07277361 0.028473265 0.029255018 0.0511006 -0.13452488
-0.103454635 -0.104417704 -0.026103256 0.018726215 -0.043748338 -0.04186597 0.05244842 -0.10225353
-0.10361084 -0.14041233 -0.038103815 0.033957757 0.025534464 -0.029882204 -0.04337358 -0.18835619
0.0074894493 0.047745343 0.04122196 0.04397996 0.036298614 -0.056294452 -0.060772944 0.021777794
-0.16158728 -0.009319729 -0.2190194 0.01884367 -0.1648322 -0.04810152 0.016772948 -0.080359735
0.057180412 0.030909542 -0.006748164 0.07482386 0.05912358 -0.039242703 0.04941494 0.09979442
0.03389877 0.09510626 0.0031715655 -0.026678715 -0.12442167 -0.045011945 0.021926945 -0.12027024
-0.010459347 0.007434416 -0.10879676 0.043211393 -0.1204394 0.04309622 -0.044441734 -0.0047040177
-0.037356913 -0.104512654 0.07431089 -0.034459274 -0.07982437 -0.09447828 0.07704703 0.03183126
-0.024033854 -0.04791975 -0.006632013 -0.09110056 0.009664403 -0.0052110767 0.071646735 0.04471115
-0.03817262 -0.058592357 0.030508976 -0.059089333 -0.13484022 0.024496129 -0.20755863 -0.102453955
-0.04113809 -0.10664223 -0.043121845 0.029947033 -0.024912661 0.1307641 0.028481077 0.023467362

a2c_network.actor_mlp.4.weight f4 [64, 128]
00000000: 2938 f83b 13a8 3dbd 5a89 cb3d edd0 e33c
00000010: f312 3aba d56e c13d 0cf6 083e 4cdb e4bd
00000020: d4eb ecbc d671 343d 3039 a23d 1f89 0d3d
00000030: ed8a 1d3a 507e 843d 6696 b8bd 7fa6 f6bc
00000040: 409c 893c 818a 48bc 74bc 0abe c2b1 993d
00000050: 1855 1abd c47d 0bbd 2995 babd 67a8 2cbe
00000060: 6cbc babc 8216 083d 7597 233c 657c 1a3d
00000070: 83a8 5fbd 6ac6 4d3a 0598 1c3d 086e 09be
00000080: e0ba a63c 3e5c ecbd 39f9 a2bd 3928 96bd
00000090: 84cc 0ebe 649e 65bd 86f5 0ebe de72 c4bd
000000a0: c4d6 6dbb 96ab f6bc e880 36bd deb7 cd3b
000000b0: f011 d2bd 8a9e a1bd e762 c9bd 44ff 78bd
000000c0: 52dc 953d 1e54 f5bd 7b2e 183d 06ee cebd
000000d0: b816 1ebe 1f29 92bd 96b9 c9ba 21fb 3f3d
000000e0: b014 1cbe 3168 56bd 20b0 47be cf78 dbbb
000000f0: 5240 873d 446b 1fbc e1ff 2cbe 65c0 2f3d
00000100: faa8 5bbd 73f5 9ebd ae1e a83d 7813 bd3d
00000110: b428 8ebd d990 4a3d 6179 b0bd 45eb 0dbd
00000120: 52bd dabd 069e e23c 1ef1 59bd 6cab 33be
00000130: b23c 253d b73e 4fbd 6c3e 9fbd 28cc 2ebe
00000140: b1a5 933d 0c90 88bd d969 bcbd 683a 7f3d
00000150: c467 65bd 5f22 d53c 3cb8 ebbc 1653 e1bc
00000160: 6af5 16bd a3d1 5abd d7db 3fbd b96d b43c
00000170: baac d3bd e2be 13be 0813 3dbc 4fe8 eebc
00000180: 7cfe 46bd 3924 2c3d 9601 53bd ce8b 1abd
00000190: 8093 3dbd 3945 13bb 6351 b1bd 12cc 803d
000001a0: 77b8 683c ecab 913b d70f 78bd 98e7 823d
000001b0: eaeb 83bd c4b5 7dbd 66ce abbc 88c5 91bd
000001c0: e369 b9bd c9ee 73bd 8acf 2c3d 37d4 723d
000001d0: a8df d3bb b55f a2bd 352e c8bd 09dc f93c
000001e0: fa57 f33c 9bb8 083d 3ee5 54bd 3d8a c4bc
000001f0: e45a 25bd 11ac b4bd b155 cdbd 1979 21bd
00000200: e268 9f3d dabe 68bd 585e 3d3d dffc 053d
00000210: ce91 363d 4529 893d c27c 36bd 1f90 0dbd
00000220: 07a0 24bd 6282 a6bd 7559 893d 7045 dabc
00000230: f87e c8bd a958 d73d 1be4 e1bc a4a4 eabb
00000240: 8717 e33c 1050 12be b771 96bd a8ae 84bc
00000250: eda0 313d a4cd 9a3d c1af 8cbd 9e38 eabc
00000260: f642 a2bc b9f7 fbbc e643 973b 2442 8fbd
00000270: 740e bdbd 74c9 37bc 5f03 47bc 52f2 35bb
00000280: f11b 10be f4e9 1a3b 0799 25bc 0fbf d9bc
00000290: d705 813d f426 8c3d f933 83bd 9e05 b03c
000002a0: 388e c93d 73ef 123c 1ef1 a4bd 0de2 d0bc
000002b0: 73b0 23bd 1fa4 00be e431 84bd ba13 b93d
000002c0: 87c8 9ebd 71dd 7bbc 9697 36bd cab5 943d
000002d0: 9164 e6bd 096d 0e3d facb ad3d fe85 b7bd
000002e0: 8288 5f3c 4795 adbd 6c71 fb3c cdb3 05bd
000002f0: d2b6 d23d 8682 7cbc aea9 b9bd 862c c43c
00000300: 7621 2bbe 3d9c e6bc fb9f 633c 033a a13d
00000310: 73a9 f93d 2d8b aa3c dd88 b43d c595 803d
00000320: 4e6c 9b3d 51a2 953d 42f8 31bd 2ff5 963c
00000330: c09f a83c 5471 a73c b523 74bc 0a13 9cbd
00000340: 06cd 133d a4ff 87bd d3a0 66bd f329 ff3c
00000350: 8f73 7cbc 705e de3d b69d cf3d 2da1 28bd
00000360: 6669 453d 8e5c 39bc 3c6b 8cbd f4e1 c73d
00000370: 0adf 3ebe 6f6c 45bd e380 403d 3494 3c3b
00000380: f6ed 393d ee66 a739 f414 80bd 5195 8ebb
00000390: 1539 963c 2534 d23d 2fb3 2ebc 54ac 61ba
000003a0: d72d e33b 292f 803d f330 5dbd 55bb 64bd
000003b0: c591 52bd c9b9 9fbd 8887 163d b0e5 a13d
000003c0: fedb dbbc 342f 19be 8d35 b7ba f187 20be
000003d0: 8692 8b3d 1a8d d4ba 8819 bb3d e484 e43d
000003e0: abbf 993d 8c1f 84bd 7b55 28ba bd04 33bd
000003f0: dd6e 8f3d fd05 00bd a389 bf3d af1a 98bd
0.007575054 -0.046302866 0.09938307 0.027809585 -0.00070981606 0.09444968 0.1337511 -0.1117464
-0.028921045 0.044053875 0.07921064 0.034554597 0.0006009776 0.06469405 -0.09013061 -0.030108688
0.016798139 -0.012240053 -0.13548452 0.07504608 -0.037678808 -0.034055486 -0.09110481 -0.16861115
-0.022794925 0.03322459 0.009984841 0.037716288 -0.054604065 0.00078496954 0.038230915 -0.1342088
0.02035278 -0.11541031 -0.07957692 -0.073318906 -0.13945204 -0.056059256 -0.13960847 -0.09592222
-0.003629134 -0.030111115 -0.04455653 0.006278022 -0.102573276 -0.07891567 -0.09833317 -0.060790315
0.073174134 -0.11978935 0.037153702 -0.10103993 -0.15438354 -0.071367495 -0.0015390392 0.046870355
-0.15242267 -0.05234546 -0.1950078 -0.006697751 0.06604065 -0.009730164 -0.16894485 0.04290809
-0.053627945 -0.077616595 0.08208977 0.09232229 -0.06941357 0.049454544 -0.08616901 -0.0346482
-0.10680641 0.027663242 -0.053208463 -0.17545861 0.040341087 -0.05059692 -0.07775578 -0.17070067
0.072093375 -0.066681 -0.09199876 0.06231156 -0.05600716 0.026017366 -0.028774373 -0.027505439
-0.03685514 -0.05342258 -0.046840515 0.022024976 -0.10335679 -0.14428285 -0.011540182 -0.029163508
-0.04858254 0.042026732 -0.051515184 -0.037730984 -0.046283245 -0.002247168 -0.086581014 0.06288923
0.014204136 0.0044455435 -0.06056198 0.06391829 -0.064414814 -0.061940923 -0.020972442 -0.07117754
-0.090533994 -0.059553895 0.042190112 0.059284415 -0.006465871 -0.07928411 -0.09774438 0.030500429
0.029705036 0.03337918 -0.051976435 -0.023991698 -0.040369883 -0.088218816 -0.1002611 -0.03942213
0.07783677 -0.056822635 0.04623255 0.03271186 0.044572644 0.06697325 -0.044552572 -0.034561273
-0.040191676 -0.08130337 0.06706516 -0.026644439 -0.09789842 0.105149575 -0.02757459 -0.00716074
0.02772118 -0.14288354 -0.07345908 -0.016196564 0.04336636 0.07558754 -0.0686946 -0.02859145
-0.01980732 -0.030757772 0.0046162484 -0.06995037 -0.09231272 -0.011217464 -0.0121468 -0.0027762842
-0.14073159 0.0023637982 -0.010107285 -0.026580362 0.06299942 0.06843367 -0.06406397 0.021487053
0.09841579 0.008968222 -0.08053802 -0.025498414 -0.039963197 -0.12562607 -0.064548284 0.09036966
-0.07753091 -0.01537262 -0.044578157 0.07261236 -0.1124965 0.034771953 0.08486171 -0.08961104
0.013643386 -0.08475738 0.030693732 -0.032642175 0.102887765 -0.015411979 -0.09065567 0.023947012
-0.16711983 -0.028150672 0.013893123 0.07872393 0.12190523 0.020818317 0.08815167 0.06278566
0.07589017 0.0730635 -0.043449648 0.01842746 0.020583987 0.020439781 -0.014901091 -0.07620819
0.036084197 -0.066405565 -0.056305718 0.031147933 -0.015408411 0.10857856 0.10137503 -0.041169334
0.04819622 -0.011313571 -0.06856391 0.09759894 -0.1863977 -0.048199113 0.046997916 0.002877486
0.045392953 0.0003192941 -0.062539965 -0.004351296 0.018337766 0.10263852 -0.010662838 -0.0008608748
0.006932955 0.06258995 -0.05400176 -0.055842716 -0.051408548 -0.077991076 0.036750346 0.079051375
-0.026838299 -0.14959413 -0.0013977751 -0.15676858 0.068150565 -0.0016216368 0.09135729 0.111581594
0.07507261 -0.064513296 -0.0006421429 -0.04370569 0.07003567 -0.03125571 0.09352424 -0.074269645

a2c_network.actor_mlp.4.bias f4 [64]
00000000: b56d b1bd 8f67 9d3c 0c2b 32bd 6031 6cbd
00000010: 6370 afbd 0d7e 583d 3fd2 efbc ed9f a5bd
00000020: e743 14be 5e84 623d df89 e3bd d7b3 28bd
00000030: 48d1 ebbc 026e b5bc 607b d7bd f661 92bc
00000040: 4a4e 323d bda2 d7bd 9874 a43a d062 7c3d
00000050: 5e13 8dbd 2b27 4ebc 6f28 8cbd 98db 1e3d
00000060: a429 e8bd 28aa e13c f154 ef3d a40b 00be
00000070: c2f6 673d b707 283c 8530 16be d25f 4dbc
00000080: 6071 93bd 95b2 38bd 9b7b e9bd c951 f4bd
00000090: 2e7f 0cbd bd9b c33d 065f 9e3d ebc6 2b3d
000000a0: 9564 493d ad18 063d bcde cfbd b7c3 e43c
000000b0: c2d4 a93c 696c cfbd 60b3 9dbc b596 bd3d
000000c0: 50bf 493d 3637 df3d 06e3 09ba dd09 ffbd
000000d0: f694 943d ecfc fdbd f820 e1bd 8504 21be
000000e0: 2383 293d 6892 dbbb bab1 bb3d b560 80bd
000000f0: e9be 4fbb 749b 15be e482 2f3d ae9b 49bd
-0.08663503 0.01921442 -0.043498084 -0.057664275 -0.08566358 0.052854586 -0.029275058 -0.08087144
-0.14479028 0.055302016 -0.11110281 -0.041187134 -0.028786317 -0.022147182 -0.10521579 -0.017868977
0.043531694 -0.10529087 0.0012546955 0.061617672 -0.068884596 -0.012582581 -0.068436496 0.03878364
-0.11336067 0.027546957 0.11686123 -0.1250444 0.05663181 0.010255746 -0.14666946 -0.012535052
-0.07199359 -0.045092184 -0.11400529 -0.11929662 -0.034300976 0.09551189 0.07732968 0.04193775
0.049168188 0.032738376 -0.10149905 0.027925355 0.020731334 -0.101280995 -0.019250572 0.09257261
0.049254715 0.108992025 -0.00052599644 -0.12453053 0.072549745 -0.12401757 -0.109926164 -0.1572438
0.041384827 -0.0067008026 0.09164758 -0.062684454 -0.0031699485 -0.14610082 0.042849436 -0.049220733

a2c_network.value.weight f4 [1, 64]
00000000: 518e 4bbc 2685 333d 629c 08be 08d8 30bc
00000010: 8208 f73c 4769 0a3e a590 a6bd 0ca4 03be
00000020: 35c6 6bbd 5b27 823d 214a 2c3d 5a9d 763c
00000030: 26f4 dc3c dfde a0bc 16d5 aebd f6ea 2dbd
00000040: 1a59 013c 7d2e 88bd 0088 653d 25a2 c13d
00000050: eea4 afbd a767 ca3d fd46 20be f783 703d
00000060: 5dd5 1dbc 0f7d 963d 306b 813d ec4e fd3c
00000070: 46ff a13d ffb0 9e3d d0d8 cbbc ff9e be3c
00000080: 3ec6 82bd 5892 1cbd b9e9 86bb ab31 4dbd
00000090: 41a2 3d3c e5f8 7a3c df81 343e f587 ce3d
000000a0: 4766 833b b40b 013e 28fa cbbd 6946 1b3d
000000b0: 2eba abbc a155 afbd 1270 193c 7e83 843b
000000c0: 99ef 763d 6ea6 453d 8d49 8d3d 4391 d0bd
000000d0: a2c8 543d eeee 54bd deab 56bc 840d 09be
000000e0: 55d2 223a 845c 773d 5356 263c 20bb 9cbd
000000f0: 6d17 003d 691f 34bd dbe8 d23c d319 fcbd
-0.012424068 0.043828152 -0.13340905 -0.010793693 0.030155424 0.13516723 -0.081330575 -0.12855548
-0.05756207 0.06355163 0.042062882 0.015052164 0.026971888 -0.019637523 -0.08536737 -0.042460404
0.007894779 -0.06649492 0.056037903 0.09454755 -0.0857638 0.09883051 -0.1565208 0.0587196
-0.009633389 0.07348072 0.063192725 0.030921422 0.07910018 0.07748603 -0.024883658 0.023269175
-0.06385468 -0.0382255 -0.0041172174 -0.050096195 0.011574329 0.01531813 0.17627667 0.100845255
0.004009995 0.1260212 -0.09959823 0.037908945 -0.0209628 -0.08561254 0.009365099 0.0040439954
0.060287092 0.048254423 0.06898794 -0.101839565 0.05194915 -0.051985674 -0.0131025 -0.13384062
0.00062111515 0.060390964 0.010152417 -0.07652879 0.03127234 -0.043975268 0.0257458 -0.12309613

a2c_network.mu.weight f4 [6, 64]
00000000: eaf3 55bd 467a 813c bdb1 913d 6ce4 f8bd
00000010: 741d 3dbc 8d74 6c3d 9706 d03d 87c5 96bc
00000020: 279f 18be 7792 05bc 274e e1bd af42 193d
00000030: 9790 75bd f5a2 6e3d aff1 a0bb 33d9 363c
00000040: 5623 593d 1fa8 c7bc cf15 f93c 374c ee3d
00000050: e5d7 8d3d 2332 1c3d 576e 99bd dd67 b13d
00000060: 033b 0cbe f941 a6bd 6d0f dc3d 071c 00be
00000070: 13cb 5e3d ebb4 143d d088 d5bd abd4 b23d
00000080: 268f abbc c71d 0bbe 0f28 61ba 2bbf b4bd
00000090: 396d 46bd 1146 a33c c6ad b5bd c393 f0bd
000000a0: 699c b23c 3f51 abbd 1b82 d2ba 2622 003d
000000b0: 6c1d b33d 3f3f 41bc a5d8 08bc 0e79 af3d
000000c0: 33b2 80bd b369 6d3b f7cf 30bd 1ea9 27bd
000000d0: 243f 583c b443 893c 7716 313d 17df d2bb
000000e0: 6cc2 57bc 919e 7c3c f684 993d 9419 123d
000000f0: b559 cd3d f779 e0bd 0608 60bd ea4b da3d
00000100: 56e6 08be 3b96 e8bb 2b47 76bc 8820 893d
00000110: c8dc 41bd 019d 463d 59ef debc 63e4 163d
00000120: 2e79 2bbe e0c8 003e 27c5 0ebd effa f6bd
00000130: e140 edbc 8d5b b03c f8c7 723d 9caf 63bb
00000140: 42c7 913c 4e46 093c 2dfa f9bd 2b3e a83d
00000150: 0a70 05be dc2e 303c 1842 ed3c 84c6 4d3d
00000160: 193a 123d ad0a 213d 0533 2cbb b9a0 4bbd
00000170: fbdc 26bd 9df2 72bd 2f9f 1bbe 139a b5bc
00000180: 57a6 cdbd 80c8 523d cc3a debc 52d2 84bd
00000190: bd81 80ba fd26 1b3d 5430 efbc ab1e ffbc
000001a0: d9fc 2b3d a78d dc3c ac5b adbd 8cda f1bd
000001b0: ed1b ae3d 8dc6 a9bb 7f6e a23d e807 863d
000001c0: d4af a53d 8685 c73d 1cbd cfbd 66ba d13c
000001d0: a512 32bd 29bd 92bd 4d3b a9bd fa27 7abd
000001e0: fbca d03d 3365 c3bd e9b6 f23d 3bbf ab3a
000001f0: d1c4 0bbd 511b 8dbd b5f1 9c3d 6c54 9fbd
00000200: 3562 0abe 0c97 b53b 1e7b a4bd eaf4 963d
00000210: 6929 c0bd e8dd db3d 1173 a23d a752 e53d
00000220: ad47 79bc 03cb 323d c738 40bc dee5 5c3d
00000230: f5d2 e93b 2a61 6abd b06e 0e3e 27e3 dc3d
00000240: 8c23 973d 3ff7 8c3c 6e2d 843d bd03 6f3d
00000250: a597 a63c 0b84 e4bd fa18 7bbd 7b3b 5d3d
00000260: 4679 83bd 5960 ebbc 60cb 29bd c3ed e4bd
00000270: f16a 3d3d ca50 023d 0d50 1dbc 266d 653c
00000280: 4c73 cc3d 9b79 9e3d e072 9fbd 8339 3cbc
00000290: f19d d53c 9020 bf3c 4a40 793d 2b1a 3ebc
000002a0: 4641 733c 7fb1 8ebd 5f17 56bc a506 5c3d
000002b0: be53 203c a66e 15be 2aa2 b3bb a3ab cd3d
000002c0: 6682 04bc 3e11 3f3c 9d44 b73c 9507 bd3c
000002d0: 6f52 ef3d 7ff4 e0bd 91d7 18be 21eb 69bd
000002e0: 7f4e aa3d 2a2d fc3d f6f6 f23d 4318 7cbc
000002f0: ce8e 06be 672a 7b3b d6f3 9abc f087 6e3d
00000300: 722c 7d3d 6e7d a4bd 5363 b0bc cd0a 4f3c
00000310: 289c 18bd 6cab ccba 713e 263d 9791 353d
00000320: 81f7 083e 770d 293d 692b f03d c13b b13d
00000330: ea72 e4bc 2883 6bbd c759 473c 5fca 143c
00000340: a87e 7ebd 58cd c53d 75c1 c0bd 87bb 993d
00000350: 7d1c 41bd 767e 92bd 1acd c6bb d2c7 223d
00000360: a231 d13d af76 713c ab77 babd 3984 073e
00000370: ea80 6a3d d901 113d ce42 1e3d ba4f cdbd
00000380: 8fa4 a9bd ef34 8f3a 5ee8 aa3d 06d4 f13d
00000390: ce15 5abd 567b b9bd 5d98 a13c 7322 1cbd
000003a0: 054d e9bc f148 943b 0766 f93d 574c a33d
000003b0: 70c0 52bc fca5 d93d c28f a0bb 05ae 15be
000003c0: 02d1 b73b 39bb 91bd dd35 5a3d 1c73 e83d
000003d0: 5e25 883d f85a b2bc a926 043d b22f f4b8
000003e0: 8963 a7bd 2565 003e baf1 61bc 2943 0bbe
000003f0: 3208 e2bb ad10 da3d 14e9 773c 2769 c9bd
-0.052234568 0.015805375 0.07113979 -0.12152943 -0.011542667 0.05772834 0.10157507 -0.018404735
-0.14904462 -0.008152596 -0.110012345 0.03741711 -0.059952345 0.058260877 -0.0049116234 0.011160183
0.053012215 -0.024372159 0.030405907 0.116356306 0.06925944 0.03813375 -0.07491749 0.086623885
-0.13694386 -0.08118052 0.1074513 -0.12510692 0.054392885 0.03630535 -0.104264855 0.087319694
-0.020942282 -0.13585578 -0.0008589038 -0.08825525 -0.048444007 0.019930871 -0.08871035 -0.11746933
0.021803098 -0.08365106 -0.0016060503 0.031282566 0.08745846 -0.011794864 -0.008352433 0.08568011
-0.06283989 0.0036226332 -0.04316708 -0.040932767 0.013198648 0.016755916 0.043234315 -0.006435286
-0.013168912 0.015418665 0.074960634 0.035668924 0.10026876 -0.10960763 -0.05469515 0.10659011
-0.13369116 -0.007097987 -0.015031616 0.06695658 -0.047329694 0.048489574 -0.02721374 0.0368389
-0.16745445 0.12576628 -0.034855988 -0.120595805 -0.0289616 0.02152803 0.059272736 -0.0034742123
0.017795209 0.008378578 -0.1220592 0.082149826 -0.13031021 0.01075336 0.02896218 0.050238147
0.035699937 0.03931682 -0.0026275527 -0.049713824 -0.040738087 -0.059313405 -0.15197442 -0.022168195
-0.100414924 0.051460743 -0.027127646 -0.06485428 -0.000980429 0.03787898 -0.02919785 -0.031142553
0.04198918 0.026923014 -0.08464751 -0.11809263 0.0850142 -0.00518114 0.07931232 0.06544477
0.08090177 0.097422644 -0.101434916 0.025601577 -0.043474812 -0.07164986 -0.08263264 -0.06107328
0.101949655 -0.095407866 0.118512936 0.0013103256 -0.034123246 -0.06889976 0.076632895 -0.07779774
-0.13514026 0.005541688 -0.08031295 0.073709324 -0.09382898 0.10735685 0.079321034 0.11197405
-0.015214843 0.04365064 -0.011732287 0.053930156 0.0071357437 -0.05722157 0.13909411 0.10785513
0.07379827 0.01720774 0.064539775 0.058353174 0.020335982 -0.11157998 -0.061303116 0.054011803
-0.064196154 -0.028732466 -0.04145372 -0.11178162 0.046244565 0.031815328 -0.009601605 0.014003074
0.09982929 0.07738038 -0.077855825 -0.011488321 0.026076289 0.023330957 0.060852326 -0.011602919
0.014847105 -0.069674484 -0.013067096 0.053717274 0.009785591 -0.1459299 -0.005481978 0.10042503
-0.00808773 0.011661826 0.022371585 0.023074904 0.11685645 -0.10984134 -0.14925982 -0.057109002
0.08315753 0.12313302 0.1186351 -0.015386644 -0.13140413 0.0038324834 -0.018915098 0.05823511
0.061809964 -0.08031736 -0.021531736 0.012636852 -0.037258297 -0.0015615053 0.040586893 0.0443283
0.13375665 0.041272607 0.1172703 0.08653975 -0.027886827 -0.057498127 0.012167401 0.009081452
-0.062132508 0.09658307 -0.09411899 0.07506471 -0.04714631 -0.07153027 -0.0060669305 0.039741345
0.10214545 0.014737769 -0.09104856 0.13234033 0.05725185 0.035402153 0.03863793 -0.10024972
-0.0828334 0.001092581 0.08345102 0.118080184 -0.05324345 -0.090567276 0.019725973 -0.03811879
-0.028479109 0.004525297 0.12177663 0.07973545 -0.0128632635 0.10627362 -0.0048999498 -0.14617164
0.0056096325 -0.07115788 0.053274024 0.1135008 0.06647752 -0.021771893 0.03226343 -0.000116437106
-0.08173282 0.12538584 -0.013790542 -0.13599838 -0.0068979496 0.10647712 0.015131254 -0.09834509

a2c_network.mu.bias f4 [6]
00000000: 0cf0 7d3d 0731 8d3d a55c 583d a578 95bd
00000010: 2946 e63d ce6f cabc
0.061996505 0.06894117 0.052822728 -0.07298402 0.11243851 -0.024711516

exp_avg f4 [6]
00000000: ab0c f93c 7950 9a3b 9336 1aba 5fd3 093c
00000010: 8c7b 24bb f0dc e63b
0.030401548 0.0047093 -0.0005882766 0.008412211 -0.0025098054 0.007045381

exp_avg_sq f4 [6]
00000000: 9b88 363a 7820 223a 4da7 253a fb92 293a
00000010: f8b0 1e3a 6504 3b3a
0.0006963105 0.0006184648 0.000631918 0.000646874 0.0006053592 0.0007134139

exp_avg f4 [256, 30]
00000000: 5291 b6b8 5fa1 a738 4895 7f3a d7cd 9138
00000010: 8de3 5c3a 0789 9fb9 3198 f2b9 ec97 f839
00000020: 62bc 2439 a147 14ba 3dc1 c8b9 6161 e439
00000030: 08c8 8039 b7e0 e038 70ab 433a d34c 05b9
00000040: 68a8 7139 7928 1c39 567d 59ba 6b1d b139
00000050: bdef 83b9 ce09 843a ce83 70ba 4ff2 a4ba
00000060: d5c2 5a37 9fb0 553a 2442 2d3a 2aa9 063a
00000070: 371b bb38 fe68 7dba b6f7 5339 11d6 d0b8
00000080: fde4 213a dab7 5c38 f4f8 db39 c39b 14b9
00000090: f3aa 4bba 8cdf 9f39 fae5 7139 7b6a 4db7
000000a0: 84ce 6db9 eae5 ad39 2270 ff39 94e4 b639
000000b0: 82dd 8f39 8564 11ba d615 d038 2cf8 93b9
000000c0: 1505 e0b9 7628 7039 a9f6 a7b9 7121 5539
000000d0: 4949 aeb9 099a 7239 4a3b 6438 5279 df39
000000e0: 33af fe38 30b8 5db9 5d54 bd36 b0a8 58b9
000000f0: c655 e3b8 387a 8939 dd99 fd38 18c6 c9b6
00000100: fc30 e4b7 d8af 09ba 2576 3439 8832 9839
00000110: f9a4 4db8 22aa a239 b8b8 d339 ebb5 e538
00000120: 700e 8b39 11c5 6b3a 3d39 a839 82e7 1bb9
00000130: fa3c 9639 4091 e038 15ca 00b9 f804 b038
00000140: 646a 80b4 508d 8439 9134 16ba 0b26 a838
00000150: 7410 5237 ea78 823a f2e3 e839 08c8 bf38
00000160: 0497 d338 6d1f 74b9 60eb 9fb9 f8f2 8db8
00000170: c320 f0b9 3a92 ecb8 f8aa 2eb9 3d5b e2b8
00000180: 7975 3e39 bfff 20b9 5a45 54b8 f46f 7035
00000190: 3d52 a939 08e2 99b9 c48a c9b8 93c4 60b7
000001a0: 8bc6 b5b9 e030 a639 04e6 c1b8 8a05 87b9
000001b0: 432e 7038 5d19 9139 d397 9cb9 d673 e737
000001c0: 7324 22b8 ebd9 f337 a602 2d38 04ae 2838
000001d0: b6a8 0bba bdec ad39 1774 a6b8 b28d af38
000001e0: e400 f5b8 20fa 17ba 1bd0 5b37 7702 89b9
000001f0: 1d11 4137 c95b 3d39 644e 1fb9 48a7 5bb9
00000200: 3d09 f137 b6da 0cba ab51 a7b9 e415 b739
00000210: e6a8 0cb9 8041 a4b9 0be5 cdb9 1bd9 7f39
00000220: 98e8 65b8 4862 98b9 3982 5339 854f 233a
00000230: d723 abb9 7c04 b339 3da4 6c39 e085 0637
00000240: cb64 9bb6 054b 7338 6661 eab9 657e c939
00000250: afd3 2839 50c2 91b8 0dac 3a39 5edb 3d38
00000260: a3e2 073a a0b6 3838 4b16 c939 c44f 4eb9
00000270: 74c1 c9b9 e2ba d939 e59b 83b9 0cb5 99b8
00000280: c44d 7339 8588 08ba fbfc 95b9 0ccf 3aba
00000290: 1703 27b9 aacc e139 6c93 7bb8 cc69 9638
000002a0: 1f31 1e3a c566 0eba 50a6 0f3a 68bd 86b9
000002b0: 46a0 e839 2006 ea38 8b47 6538 f8f8 4fba
000002c0: a045 a839 19a7 deb8 4d9f 3db8 c40f b337
000002d0: 6725 78ba 2e39 0339 6865 18ba 704c fdb9
000002e0: 34d9 2fb9 5058 0fba 6577 413a 44ef 8639
000002f0: bef8 6eba f442 993a 4129 723a 9e63 3eba
00000300: 9dab c4b9 525f 703a d111 bbb9 6268 333a
00000310: 0a8f a5b7 5169 03ba b5ee a6b8 579d ccb8
00000320: 93cb 36ba 7818 8a3a bedf 88ba 8203 82ba
00000330: e2d8 49b8 7575 883a 8b6d eab9 e274 643a
00000340: a6d1 00ba cd23 8aba a0e4 04ba d2af b8b9
00000350: 3d7f 93b8 f2c2 5cb9 1769 6ab9 4bd9 aeb9
00000360: e3fb 8039 08b6 a839 a25a 48ba ff3c 4639
00000370: c99f 9a39 a0e4 0aba 7780 24b9 c1d8 df39
00000380: 5b71 50b8 9b80 bd38 3513 40b8 4adb 33b9
00000390: 49a4 6439 3376 01b9 fc1d 6e39 38d3 a239
000003a0: b1b7 34b9 2227 1db9 b6d0 8437 f508 103a
000003b0: f7e2 ab39 4966 0539 a005 9eb8 a7cb 0aba
000003c0: eb2f bcb9 cc07 c139 76ac 84ba cef8 36ba
000003d0: 3a57 c1b9 522a f8b9 f63c 803a 8b4c 97b8
000003e0: 6835 79ba 7262 eb39 2398 573a 289e 85b9
000003f0: 972b 92b9 3dc1 d739 7647 1aba d676 2d3a
-8.705504e-05 7.993238e-05 0.00097497227 6.9524795e-05 0.00084262417 -0.00030428937 -0.00046271228 0.00047415437
0.00015710437 -0.00056564255 -0.00038290946 0.00043560102 0.00024563097 0.00010723009 0.0007464206 -0.00012712488
0.00023046287 0.00014892397 -0.00082965696 0.0003378199 -0.00025164886 0.0010073723 -0.0009174914 -0.0012584421
1.3039175e-05 0.0008151624 0.0006609282 0.0005136902 8.921924e-05 -0.0009666829 0.00020214808 -9.958086e-05
0.00061757845 5.2623313e-05 0.0004195642 -0.00014172406 -0.0007769309 0.000304934 0.00023069224 -1.2243744e-05
-0.00022679014 0.0003316843 0.00048720936 0.0003488405 0.00027440122 -0.00055462896 9.92228e-05 -0.00028222927
-0.00042728396 0.00022903256 -0.00032036498 0.00020325721 -0.00033242468 0.00023136301 5.4414653e-05 0.00042624265
0.00012144297 -0.00021144818 5.64246e-06 -0.00020662206 -0.0001084018 0.00026221736 0.000120926394 -6.013328e-06
-2.7202528e-05 -0.0005252338 0.0001721015 0.00029029348 -4.902945e-05 0.00031025807 0.00040382682 0.00010953456
0.00026522903 0.0008993904 0.00032086103 -0.00014868195 0.0002865566 0.00010708207 -0.00012282313 8.3932595e-05
-2.3919267e-07 0.00025282288 -0.0005729879 8.01795e-05 1.2520806e-05 0.0009954248 0.0004442032 9.1448484e-05
0.00010089393 -0.0002328136 -0.0003050221 -6.7686604e-05 -0.00045800777 -0.00011280594 -0.00016657624 -0.00010793514
0.00018163574 -0.00015354062 -5.0609327e-05 8.956988e-07 0.00032295464 -0.0002935084 -9.610274e-05 -1.3397209e-05
-0.00034670936 0.00031698402 -9.245801e-05 -0.00025753333 5.7263544e-05 0.00027675452 -0.00029867757 2.7591286e-05
-3.8657756e-05 2.9069333e-05 4.124888e-05 4.0216386e-05 -0.0005327569 0.00033173515 -7.93712e-05 8.371043e-05
-0.00011682676 -0.00057974644 1.31018705e-05 -0.00026132513 1.1507681e-05 0.00018058637 -0.00015192624 -0.00020947785
2.873374e-05 -0.00053731666 -0.0003191357 0.0003492079 -0.0001341436 -0.0003132932 -0.00039271297 0.00024399573
-5.4814474e-05 -0.00029064924 0.0002017104 0.0006229806 -0.00032642364 0.00034144882 0.00022567897 8.018193e-06
-4.631094e-06 5.8005582e-05 -0.00044704525 0.0003843188 0.00016100587 -6.950332e-05 0.00017802436 4.5265413e-05
0.0005183613 4.40391e-05 0.00038354317 -0.00019675406 -0.0003848184 0.00041528704 -0.00025102418 -7.329331e-05
0.00023203256 -0.0005208331 -0.0002860798 -0.00071261893 -0.00015927512 0.0004306783 -5.998036e-05 7.1722636e-05
0.00060345413 -0.0005432184 0.00054797996 -0.0002569959 0.000443699 0.000111591304 5.4664484e-05 -0.00079335226
0.00032095332 -0.00010616909 -4.5209472e-05 2.1345804e-05 -0.00094660226 0.00012514435 -0.00058134506 -0.0004831287
-0.00016770215 -0.00054681767 0.0007380157 0.00025736738 -0.0009116045 0.0011692927 0.00092377147 -0.0007262769
-0.00037511895 0.0009169477 -0.00035680694 0.00068438624 -1.973614e-05 -0.0005012947 -7.9599595e-05 -9.756785e-05
-0.0006973084 0.0010535857 -0.0010442657 -0.0009919258 -4.8124122e-05 0.0010410981 -0.00044713574 0.00087149267
-0.00049140526 -0.0010539234 -0.0005069468 -0.0003522621 -7.033206e-05 -0.00021053458 -0.00022355128 -0.00033349762
0.00024601733 0.0003217908 -0.00076429 0.00018905474 0.00029492218 -0.000529835 -0.00015688116 0.0004269537
-4.9696635e-05 9.036177e-05 -4.5794255e-05 -0.00017152462 0.00021804975 -0.00012346431 0.00022708619 0.00031056418
-0.00017234568 -0.00014987265 1.5832815e-05 0.0005494499 0.00032784764 0.00012721973 -7.535075e-05 -0.0005294629
-0.00035893856 0.00036817638 -0.0010122198 -0.0006979824 -0.00036876817 -0.00047333777 0.0009783793 -7.214498e-05
-0.00095065543 0.0004489604 0.0008224269 -0.00025485572 -0.00027879767 0.0004115197 -0.00058852823 0.0006617134
