IsaacGymEnvs/isaacgymenvs/runs/Bolt_10-15-31-40/nn/Bolt.pth (torch, 609246 bytes, 36 tensors)

value_mean_std.running_mean f8 [1]
00000000: 3af2 d0c3 9780 ac3f
0.05566858544668603

value_mean_std.running_var f8 [1]
00000000: 0dea 55b3 8c31 563f
0.0013545869854555443

value_mean_std.count f8 []
00000000: 0000 0000 10ec f040
69313.0

running_mean_std.running_mean f8 [30]
00000000: becc 3c59 1354 b0bf a634 c961 b8a2 c23f
00000010: d594 0605 7595 d8bf 1658 ecdc 92d5 e0bf
00000020: f751 8bb3 8a88 acbf f957 530d 6ed3 993f
00000030: 0815 223a 0513 983f abdf 59e5 3949 c0bf
00000040: f975 b52a b2df ccbf 33cc a955 3317 c1bf
00000050: 6ece 3cd8 b697 8abf 9527 524e f7ec 933f
00000060: c045 3d79 a57e 90bf a7ae c5a6 3567 a7bf
00000070: 988a d57b 4af7 b03f f126 aae5 d3f9 ba3f
00000080: 6062 004c d3d1 a2bf a44c 5b78 76c7 afbf
00000090: 3e19 c5e5 9831 6d3f 0f43 ca8a 7ce0 66bf
000000a0: a9e3 1c59 6270 523f 1ced a046 93b2 893f
000000b0: a970 8db4 e740 69bf 2be3 d80e cbfc 64bf
000000c0: de16 8921 6eff 97bf 3260 62ba 7931 b9bf
000000d0: 6572 c28c 32aa c13f af3b 53fc fa2c ce3f
000000e0: 747a a70f cc8f b6bf e998 a455 c4f7 c0bf
-0.06378289154672509 0.14559082770066317 -0.38412213793556066 -0.52607100628916 -0.05572923127843759 0.02522060352642794 0.02351005713764656 -0.1272346849325435
-0.22557665906326443 -0.13352052386071164 -0.01298468444256359 0.01945864120037973 -0.01610811760412445 -0.045709301574644194 0.0662733604745348 0.10537456852957995
-0.03675709059479426 -0.06206865519711727 0.003563688877110809 -0.0027925903762667857 0.0011254272871623428 0.012547636597551697 -0.0030827069753468117 -0.002561947438860198
-0.023435326382489012 -0.09841118622205228 0.13800651429200453 0.2357476932579323 -0.08813166982825199 -0.13256124669823713

running_mean_std.running_var f8 [30]
00000000: d75b ff95 783d f23f 107f 44f3 88c5 f43f
00000010: 50c7 cf35 32f2 f53f a0d5 df5a c36f fd3f
00000020: bcb5 5ba5 4a22 f13f 73d8 50c9 e7f1 d33f
00000030: 6a55 9b74 477d c63f 86de 71a8 f256 cf3f
00000040: b56b 7bb8 0523 e13f 58c0 84d6 0f4e 1540
00000050: 6c8b 80d9 25a7 f53f 3682 3cc5 17e7 943f
00000060: fe47 eb9f d67a b53f dd5b 3118 cc03 b33f
00000070: ede8 23cf 0b8b b63f f8b3 ed4a cc57 c13f
00000080: 1575 042d b2d6 ba3f 5fe1 fb32 0893 bd3f
00000090: f733 e283 676e c73f 3e6c 785a 0e72 cc3f
000000a0: 4649 72a6 55e8 c63f ee05 7cc0 0045 be3f
000000b0: aa8b b312 979e c73f 510d 7b7b 44e8 bd3f
000000c0: 0329 9221 eb7e e63f 32ba 6eb2 5a21 e53f
000000d0: e578 57ee a06e e63f 446c 6369 4522 e83f
000000e0: 7483 f449 b27a e73f 678c 39b5 5540 e83f
1.140007577827182 1.2982263090743267 1.3716299154297822 1.8397859144000464 1.070871969156868 0.3116397348379742 0.1756982154244427 0.24484093880504448
0.5355251887480025 5.326232292034625 1.3533075805832722 0.020412799275734105 0.0839056148936663 0.07427669134754873 0.0880591755593831 0.13549188288325786
0.10483850096757792 0.11552478069996173 0.1830567735636632 0.2222307149648674 0.17896528842227094 0.11824040126159449 0.18452728665496682 0.11682537092842905
0.7029929786379231 0.6603215680132222 0.7010044722663024 0.7541834886900536 0.7337275928913258 0.7578533687159393

running_mean_std.count f8 []
00000000: 0000 0000 20ec e040
34657.0

a2c_network.sigma f4 [6]
00000000: f6da 72be 7f0f f9bd 48a7 e5bd 993d 07be
00000010: db99 30be 5480 6dbd
-0.2371634 -0.12161159 -0.11213547 -0.13207091 -0.17246191 -0.05798371

a2c_network.actor_mlp.0.weight f4 [256, 30]
00000000: 94b5 fd3d b143 05be 92ce 063e 558c 72bc
00000010: 3064 96bd 5d3c 7c3d ecc1 0f3b 5b30 243e
00000020: 24c2 eb3d 32a9 2ebe 2b8d 893d ae01 8fbd
00000030: c671 9e3d fbc6 ec3d 7c25 f73d bd9c 7cbd
00000040: a15d df3d a272 2c3d f9ff bd3d 93be 4ebd
00000050: 59ca 2ebe a171 22bd 89a1 3abe c51c 073e
00000060: dd4c 563d 8888 873d 0601 593c ed78 203d
00000070: 0bf1 e13d ec1e 10be 1e90 b63c 9a23 bdbd
00000080: 050a 463d 382b e0bd f84d e73d 9358 89bd
00000090: 1a12 143e c083 e9bd 115e 97bd fff1 57be
000000a0: d8ae 2d3e b2f2 0c3c 0f51 3a3e b331 0cbe
000000b0: 5e92 06be f345 2ebe bdb9 aebd 2d0c c13d
000000c0: 5e14 4e3d 8890 2c3e c8ab 7ebd 35d6 f9bd
000000d0: 00cc ef3d 2d73 abbd b7c0 ab3d f6b5 39bd
000000e0: 7859 f43d 7d91 17be 395e 7dbd 7cbf cd3d
000000f0: 8b7a 713c 9b23 57bd b24f c73d d931 fa3d
00000100: 71db 1bbe ed8a f1bd f9a1 223e 8f6f 9e3c
00000110: 89fc 39bc ba0b 75be d9a4 91bd acdd 4c3d
00000120: c48a 09bd 55d3 2bbe 6462 56bd f1ab e1bd
00000130: 4d21 e8bd 9ffa 78bd d999 06be d67f 9dbd
00000140: fd14 193e 938a 703d 44f1 a83d ceb4 f6bd
00000150: eb7c bebd 846f 86bd 325c ae3c 4adf 22be
00000160: c21d 1cbd c8fc bcbd f726 103d cd5c 78bd
00000170: 4a80 70bd 100f fbbd 9154 d4bd e0a6 f1bd
00000180: 775c 95bd 9d3b 70be 52e3 3a3e b64b 63bd
00000190: 67dc d63d 1055 e23d b6e9 56be 73e1 f23d
000001a0: 17fc b9bd 9f16 cdbc a409 21be 4298 05be
000001b0: 8cd5 b53d c9e9 c8bd 6dec 333d ef8c 44be
000001c0: 6af8 133e 0482 a7bd c416 9bbc e001 8dbc
000001d0: d5fc 603d 5ea7 0b3e e62f 493e 6901 c1bd
000001e0: 80b8 633d 78b8 f3bd ae26 c03b 04f7 3ebe
000001f0: d1c6 7d3e 31cd 23be 2a70 293d 0788 bb3d
00000200: 0a1b fd3d 5dfc 38be 3d2c 0c3e c214 6bbc
00000210: 87e8 083c 175f 2dbe 8265 0a3e d031 9bbd
00000220: 1d59 95bd b2c5 1e3e a213 773d 2652 39bd
00000230: 22c8 b2bc 6518 debc 4c09 9f3d 8e49 26bd
00000240: 3432 aabd afeb 05bd 1fed f6bd 749c d23c
00000250: ca3e 103e 45ea 28be 4d73 673d ae16 223e
00000260: 1dd1 8f3c bf33 d2bd c0af 283e 6fcc 9e3d
00000270: edaa 333d dca7 b4bd f199 adbd 74b4 4b3d
00000280: 153d 3dbd 4669 40bd 59c1 0d3e 72f8 073e
00000290: cc44 1c3d fd8b a1bd d151 483c 5328 05bd
000002a0: 12b4 85bb 331f 373d da77 0ebe de4c 8dbd
000002b0: eb97 003e 55ca a33d 2341 6dbd 782a d7bd
000002c0: 71d8 95bd 3180 21be 7cc6 94bd 4304 c93d
000002d0: 486a 593d 250e 873d f9bb 22be fcbe 24bd
000002e0: 2c1f 85bd 7341 093e 5eb1 2a3d 6f4c a8bd
000002f0: e86f db3d b238 44bd 23e2 aabd 0c57 3a3e
00000300: 837d 8fbd e903 07bd 3c69 60be ee52 0b3e
00000310: 0371 213e 0674 693d 2d75 24be ecdb 2ebe
00000320: 7745 ffbd 9f1d db3d a815 563d 37da 173e
00000330: f7fe df3d b277 543d 4ea0 993c 3e6c 15be
00000340: d4e4 23be 1e61 4fbe c6bf c43d cbfc c7bd
00000350: 7884 0cbc 94b2 18be 4b4c 8abc 1632 0bbe
00000360: 78dc 0fbe 2e27 363d d3b0 2b3c 0129 d93d
00000370: 0978 0bbe 770f d2bd da38 8dbd 8ead a2bd
00000380: e6a8 84bc 1470 4ebe cff4 013e 9571 a9bd
00000390: ab64 acbc 050d c73d 23fc ab3d 496f 03be
000003a0: 0cea d63d 6c7f d1bd af50 48bc 50d2 1a3e
000003b0: ca2c 45bd 605e 82bc 95f8 32bd 6191 07be
000003c0: d85a 023e ad1b 71be 3a11 ff3d 98e4 033e
000003d0: 4574 273e 7eaa 83bc 21d2 39be a8d5 b53c
000003e0: 4639 863d 13e3 8cbe 46ba 75bc 8f25 1cbe
000003f0: 013b 0c3c 3e93 fcbd 9f97 cabc 9aea 7fbd
0.12388149 -0.13014103 0.13164738 -0.014803966 -0.07343328 0.061581004 0.0021935655 0.16034071
0.11511639 -0.1705673 0.06716379 -0.06982742 0.07736544 0.1156139 0.120676965 -0.061672915
0.1090653 0.04210151 0.092773385 -0.050474714 -0.17069377 -0.039659146 -0.18225683 0.13194568
0.052319396 0.06617838 0.013244873 0.039177824 0.110323034 -0.14074296 0.022285517 -0.09235306
0.0483494 -0.10945743 0.11294168 -0.06706347 0.1446003 -0.114020824 -0.073909886 -0.21088408
0.16961229 0.008602785 0.18194984 -0.13690834 -0.13141772 -0.17018871 -0.085315205 0.094261505
0.050312392 0.1685201 -0.062175542 -0.1219906 0.11708832 -0.083715774 0.08386367 -0.045339547
0.11931127 -0.14801593 -0.061857436 0.10046288 0.014738689 -0.05252419 0.097319975 0.12216539
-0.15220429 -0.11794076 0.158821 0.019340305 -0.011351713 -0.23930255 -0.0711152 0.05001609
-0.033579603 -0.16779836 -0.052339926 -0.11019123 -0.113344766 -0.060785886 -0.13144626 -0.076903984
0.14949413 0.058725905 0.08249143 -0.120462045 -0.0930117 -0.06564239 0.021284197 -0.1590549
-0.038114317 -0.09227902 0.03519341 -0.060635377 -0.058716096 -0.12258732 -0.10367692 -0.11799407
-0.07293027 -0.2346024 0.18250778 -0.055492125 0.10491257 0.11051381 -0.20987591 0.11859407
-0.090812854 -0.0250352 -0.15726334 -0.13046363 0.088786215 -0.09810216 0.043926645 -0.19194387
0.14450231 -0.081790954 -0.018931754 -0.017212808 0.05492862 0.13638064 0.19647178 -0.09424097
0.055595875 -0.11900419 0.005863986 -0.18648916 0.24782874 -0.15996243 0.041366734 0.091568045
0.12358673 -0.18065019 0.1368875 -0.014348211 0.00835622 -0.16930805 0.13515285 -0.0757786
-0.07292388 0.15505102 0.060321458 -0.04524436 -0.021823946 -0.027111242 0.07765445 -0.04059749
-0.08310357 -0.03269547 -0.12056946 0.025709368 0.14086452 -0.16495617 0.056506444 0.15828964
0.017555768 -0.10263776 0.16473293 0.07753836 0.04386418 -0.08821079 -0.084766276 0.04973264
-0.04620083 -0.046975397 0.13843288 0.13278368 0.038151547 -0.07888029 0.012226538 -0.03250916
-0.004080304 0.04470749 -0.13912907 -0.06899427 0.12557952 0.07997576 -0.057923447 -0.10506147
-0.073166735 -0.15771557 -0.072644204 0.09815266 0.053079873 0.06594495 -0.15892018 -0.0402212
-0.06500086 0.13403873 0.041673057 -0.082177036 0.10714704 -0.04790563 -0.083439134 0.18197268
-0.07006361 -0.032962713 -0.21915144 0.13605854 0.15765767 0.056995414 -0.16060324 -0.17076081
-0.12464421 0.10699009 0.052266747 0.14829336 0.109373026 0.051871963 0.018753197 -0.14592072
-0.1600526 -0.20251891 0.096068904 -0.09765013 -0.008576505 -0.14911872 -0.016882082 -0.13593325
-0.14048946 0.04447096 0.01047917 0.10603524 -0.13620009 -0.10256856 -0.06895609 -0.07943259
-0.016193818 -0.20159942 0.12691043 -0.08273617 -0.021044096 0.0971928 0.08397701 -0.1283542
0.1049386 -0.10229382 -0.012226268 0.1511929 -0.048138417 -0.015914142 -0.043694098 -0.13239051
0.12729967 -0.23545714 0.124544576 0.1288017 0.16352947 -0.016072508 -0.18146564 0.022196606
0.06553893 -0.27516994 -0.014998024 -0.15248702 0.0085589895 -0.12332772 -0.024730502 -0.062479593

a2c_network.actor_mlp.0.bias f4 [256]
00000000: c36b 5c3d 59cb fcbc 13b6 023c b515 4e3d
00000010: dfe4 7abc 1d2b c3bd ea9d 983d ca70 5abd
00000020: 91f8 353d aeb9 a5bd 8303 6abd 0062 d3bd
00000030: a062 1abc 7c55 04be 2d0b d9bc 0b21 ddbc
00000040: 3f1c 433d 72c6 e23a 989d 97bd 4413 9ebd
00000050: 44a0 3cbd 8ef9 3ebd 3f49 a5bc 2341 ca3c
00000060: 17c5 c9bd ec7e 04ba 3a59 abbc 565d c6bd
00000070: 5e9b 343d c063 013e a0dd 05be 3c4b 17bc
00000080: 50f6 3bbd 1dc8 5fbd 124d a63d 2a23 003e
00000090: 3290 1fbc 795a 493d edd6 3b3a 6589 d0bc
000000a0: 031c 1abd eaf5 163b aa30 903d c575 b1bc
000000b0: 8cd8 fb3d 974d 733c 9b81 8b3d 1aba acbc
000000c0: 66cc 04bc 0617 2f3c fd33 403c 33e0 9b3d
000000d0: 81e1 5e3c 70dd 5bbd b973 aeba 22e9 6a3d
000000e0: 1c6c 553a 2ae1 f13c fc17 e1bd a5e5 d03b
000000f0: d407 11bd 61a3 a83d eea5 64bb 72c4 99bd
00000100: 78b3 8fbc 7a2f 3b3c 10c0 aebd 42b3 bfbd
00000110: 53cc 1cbc 0407 283d bc8e 5ebd c122 263d
00000120: 433c adbd 0c2b 41bd 7c05 b13c b119 afbd
00000130: ff5d 633d 522b 46bc b3f6 9fbd 4a4d eabd
00000140: 58cb d5bc e8c0 023d 37d8 773d 7b1c 85bd
00000150: 749f f03d c1b1 da3d d843 fb3c ffdd c43d
00000160: 112e 2abd 5105 22bb cbeb 8f3d 59fd 3a3d
00000170: 71fe 303d 44c7 d93d baa6 13bd ed97 bbbd
00000180: ce10 74bc 78dc 0abe 78ce 3abb 8e39 c83d
00000190: 4607 ab3d 8581 b43d 19d3 20bc 11ef 5dbd
000001a0: 0d3c 4b3d 81d2 513d 022c 1f3d e193 3b3d
000001b0: cd7e 84bc 5fb2 a1bd 83d8 1cbe c9bf 4b3d
000001c0: dc49 09bd 7edf 553d 1c51 bdbc 23a5 0fbd
000001d0: a316 8d3c b3d1 80bc bcd5 d6bc 018f 34bd
000001e0: 0cdb 70bc ec28 82bd c874 48bc bd26 6cbd
000001f0: 4a36 b3bd 4295 dcbc fbb9 1abe b137 063e
00000200: e103 423d de7c 69bd 2331 1abc 34e6 c23b
00000210: 4186 0f3d 8839 68bd 97ac 2dbd 2fc1 813d
00000220: 5c23 bbbb 5367 70bc 52db fabd bb00 023d
00000230: 7111 b63d 747d 8ebd 22dd b8bb 0abc e3bd
00000240: 93a8 1a3d 28fb 9ebd 1fda 0d3c f6c3 a0bc
00000250: 7a20 bdbd 56eb b3bc 1ac2 c43c 91ba 8c3d
00000260: c422 80bd 8daf 2ebe e133 9abd 641d 3cbd
00000270: 5f07 f0bb ce92 14bc 09d4 7fbd 5534 93bc
00000280: f97e 43bc 4cd3 6abd 4de0 06bd 51ef e6bc
00000290: 46ff 463d 7eeb 8b3c 80e8 573d 1e0d a4bc
000002a0: 8711 22bd 5e09 873d ac2b 72bd 8966 83bb
000002b0: e53d 82bb 9f1f 803d c494 6bbc 5077 9a3c
000002c0: e7c3 8dbc d974 05bd 9c31 163a 2bd9 eabd
000002d0: c84a 4e3c df3d a03c bb46 4e3c da59 84bd
000002e0: 6dd2 98bc b3e0 b23c c8d4 7b3d 5d84 bd3d
000002f0: 5e6f 1abe 5f97 b53d 5841 a0bd c3be 583d
00000300: 26f8 9abd f18e 2bbd a897 de3b 8f88 ac3d
00000310: 973f 85bc 7860 ba3d 9e57 d2bc cacc c03c
00000320: 8723 9f3d 8f46 2a3b 9336 4cbd a9ac 113d
00000330: 1ab3 eb3b e669 aa3c 33f9 213c ca23 a23d
00000340: 261c 2cbb 640c fcbc 8398 7cbd f2a1 b8bd
00000350: 9a59 96bd b585 bb3d de4c 803d f030 7bbd
00000360: 029b dc3b 128f cfbc a77c a73b d851 a7bd
00000370: f2f1 3e3d d1b6 78bd 8991 a93b e4c8 743d
00000380: ffdd c23d 9189 99bc 19ff c139 cb55 15bd
00000390: 0176 1ebd 798b 9fbd 969f d3bc d4b2 94bd
000003a0: 252d 99bc 77d8 13bd 6276 71bc df14 47bd
000003b0: aebe 5abd 7c7d 883b 0bd9 66bd f3e4 17bd
000003c0: ff90 cf3d 9912 e33d 15a3 1a3d 102b 0abe
000003d0: 72a4 8f3c 8593 04be 93f7 26bd 23bd 01be
000003e0: c840 883b 4009 8a3d 7cd1 11bc 256a 7bbc
000003f0: c381 1abd 973a 43bd cd4e 0cb9 294e 35bd
0.053813707 -0.030858682 0.00797798 0.05031367 -0.015313356 -0.095297076 0.07451995 -0.05333022
0.044426505 -0.08092056 -0.057132255 -0.103214264 -0.009422928 -0.12923235 -0.026494587 -0.026993295
0.04763436 0.0017301573 -0.074031055 -0.077185184 -0.04605128 -0.046624713 -0.020176528 0.024689263
-0.09852045 -0.0005054313 -0.02091657 -0.09685771 0.044093482 0.12635708 -0.13072824 -0.009234246
-0.0458892 -0.054634202 0.08120169 0.12513414 -0.009738969 0.049158547 0.00071655103 -0.02545614
-0.03762437 0.002303476 0.07040532 -0.021662602 0.122971624 0.014850042 0.0681183 -0.021084834
-0.008105373 0.010686642 0.011731145 0.07611122 0.013603569 -0.053677976 -0.0013309635 0.05735124
0.0008141415 0.029526312 -0.10990903 0.006375032 -0.035407856 0.08234287 -0.003488894 -0.07508172
-0.017541632 0.0114248935 -0.08532727 -0.093603626 -0.009570199 0.041022316 -0.05433534 0.040560488
-0.0845876 -0.047160193 0.02160906 -0.08549822 0.055509564 -0.012095289 -0.07810726 -0.11440523
-0.026097938 0.03192225 0.060508933 -0.06499573 0.11749163 0.10678435 0.030671999 0.09612655
-0.04154784 -0.0024722407 0.07027396 0.045651767 0.043211404 0.1063371 -0.036047675 -0.09159837
-0.014896585 -0.13560665 -0.0028504413 0.09776603 0.08350997 0.088137664 -0.009815955 -0.05418307
0.049617816 0.051226143 0.03886033 0.045795325 -0.016173745 -0.0789535 -0.15316968 0.049743447
-0.033517703 0.052215092 -0.023109965 -0.035069596 0.017222708 -0.015724992 -0.026224963 -0.04408169
-0.014700662 -0.063554615 -0.012234874 -0.05765413 -0.08750589 -0.02692664 -0.15110008 0.13107182
0.04736698 -0.05700385 -0.009411129 0.0059478525 0.035040144 -0.05669549 -0.042400923 0.06335675
-0.0057110023 -0.014673072 -0.12248863 0.031738978 0.088900454 -0.06957522 -0.0056415955 -0.1111985
0.03775842 -0.07762748 0.008657961 -0.019624691 -0.0923471 -0.021962803 0.024018336 0.06871522
-0.06256631 -0.17059155 -0.07529426 -0.045926467 -0.0073250975 -0.009068204 -0.06245807 -0.01796929
-0.011932128 -0.057330415 -0.032928754 -0.028190287 0.04858329 0.017080065 0.052711964 -0.020025786
-0.039567497 0.065935835 -0.05912368 -0.004010026 -0.0039746636 0.06256031 -0.01437873 0.01885572
-0.017305328 -0.032582138 0.0005729438 -0.11467203 0.012591071 0.019560752 0.012590106 -0.0646245
-0.018655026 0.02183566 0.06148222 0.09253762 -0.15081546 0.08866762 -0.07824963 0.0529163
-0.07566862 -0.041884366 0.006792981 0.08424484 -0.016265674 0.09100431 -0.025676545 0.023535151
0.07770448 0.0025981998 -0.049856734 0.035565052 0.0071929814 0.02080245 0.009886074 0.079169825
-0.0026261895 -0.030767627 -0.061668884 -0.090152636 -0.07341309 0.09156362 0.06264661 -0.061325967
0.0067323456 -0.025336776 0.0051112953 -0.08169907 0.046617456 -0.060721222 0.00517482 0.059761897
0.09514999 -0.018742355 0.0003700189 -0.03645877 -0.038686756 -0.07790274 -0.025832932 -0.07260671
-0.018698284 -0.03609511 -0.014737697 -0.04860389 -0.053404503 0.0041653495 -0.056359332 -0.037083577
0.10135078 0.110875316 0.037753183 -0.1349299 0.017534468 -0.12946899 -0.04076345 -0.12669806
0.004158113 0.067400455 -0.008900043 -0.015345131 -0.037721407 -0.047663298 -0.00013380796 -0.044263992

a2c_network.actor_mlp.2.weight f4 [128, 256]
00000000: a4e0 6a3c 5fcf f5bc 8eb0 acbd 68c0 223d
00000010: cc2b 21bd 71ce b0bc d997 623c 12ad 0cbd
00000020: b989 b5bc 3681 f83d 3ec8 afbd fd99 2a3d
00000030: 29d4 3e3d 4944 8b3d 5912 c5bd 4f0d 443d
00000040: 22f7 12bd ae3c 033d 9b2b 8a3c 86f8 703d
00000050: c10b 08bd c93d 1ebd a199 98bd 9fbe 0ebd
00000060: 3d62 53bd 9d28 f6bd 9474 b53c 26ee e8bb
00000070: 7af8 f1bd d74f 41bd 3d9d 7b3d 0dde 313d
00000080: 228a 91bd c9c4 90bb 0e5d 46bd be3f c5bc
00000090: e3ee 29bd 6c80 8a3d ed58 143d a5b2 a4bc
000000a0: 98d2 1ebd eadc 9bbd 9eee a1bc 9006 a83d
000000b0: 2468 23bd b4c2 8a3c 87a6 34bd 15c7 b73b
000000c0: 122c 7cbc 41e2 22bd 689c edbd d7c0 073d
000000d0: 0185 923d 50ec f33d dc3c b03d 2f91 6c3d
000000e0: 5d10 85bd c443 8fbd caf3 d83b 2880 253d
000000f0: a247 b93c a1df 8dbb b8b9 4fbd cddb c53d
00000100: d0f1 853d 9054 68bc ce98 30bc 4b73 113c
00000110: 93b6 c13c fc36 893c 304d 0bbe faca 9a3c
00000120: de2e 283e 61ba 10bd ee0a dbbc c908 063e
00000130: 8cb9 27bd 8d15 f1bd 56d6 20bd 6b31 053c
00000140: 8c8b 42bd 0144 7bbd f633 1dbc 6e46 c53d
00000150: 68b2 30bd decf 90bd 52ed 653d f92b 2c3d
00000160: d194 d9bd bb11 afbd 0fd1 88ba 4ecb 2b3d
00000170: 2ee0 5fbc 6339 103d f2f1 903d 7645 0c3e
00000180: de3b a53b 65e1 cf3c 4265 d93d bcbe 43bb
00000190: 23cc 8fbd 66e0 643d e3a6 ce3d 7089 0bbd
000001a0: ace5 d2bb 689d 2abb 3811 d9bd bf78 b03d
000001b0: 7573 4b3c 8984 f63b 1495 173d 6206 323e
000001c0: 6410 b13d c84f 35bd d96b ddbc 1963 83bd
000001d0: 48ff 7dbc 6fa6 b73c 3859 083e 713f bd3c
000001e0: 6fac 6d3d 7f1a 97bd c222 d9bd cb45 1d3d
000001f0: 79ba f9bb 5810 57bd bc40 303d 9bfb b5bc
00000200: 7690 31bc 8e8f 10bd 41fa eebc 87ea b9bc
00000210: 2ca7 f73c 498e c6bd 99f7 9abd 7d05 b83d
00000220: 0615 18bd a12b 28bd 0f47 3d3c 2ab9 8abd
00000230: a0dd dabc 3207 2ebd 329a 34bc 8be3 623d
00000240: 5a50 d5bd 68b6 7cbd 53d9 463d 374d 803d
00000250: 882e bfbc a5f6 e03c fd1c c4bc 6e22 52bd
00000260: 5dfe 1f3d 1d4a 753d 8dcd b9bc 7637 66bd
00000270: f608 4b3d 68d0 a83d 852b 4c3d 11be 0bbc
00000280: b986 9bbd 88e7 32bc f276 e13a be82 463d
00000290: 5e53 81bd fe3e 433d 7cec 7abb 9f03 82bc
000002a0: df69 843d 93eb cf3c 69b8 543d c30c bd3d
000002b0: 55bb c6bc c481 553d e3cc dabd 4751 2e3d
000002c0: 1eec 003d 05ea ff3d 73a9 c3bd 28dd c43c
000002d0: 8250 dcbd a022 d8bd e794 d2bb e126 b7bc
000002e0: 7c02 3abc e364 54bc e8f5 7e3c 2c7f 033e
000002f0: f4a4 c73d b060 10bd bebf 723c b31f 963d
00000300: fadf 0d3b 1c83 493c f2fd ea3b c2a1 6fbd
00000310: c832 6bbd cb24 013d 0956 88bd 9128 d73c
00000320: 610d d7bd 4192 04bc 7048 08bd 6f9d 31bc
00000330: 300f 58bd ca4e fb3c 70f1 f0bd 04de 90bc
00000340: fa32 03be e904 bbbc 84bb 70bc 99b9 f73c
00000350: ea92 a63d 9f95 1fbd 02fa 423d 2ae7 c93c
00000360: fbdb 04bd ae06 b6bc 05a5 ecbc b3c1 533a
00000370: 32ee 863d dd07 89bd 679b 74b9 4320 0cbd
00000380: 72c6 8abc 252c 92bd dc61 8fbc f2de 4cbc
00000390: c7eb 4e3d 4c31 b53c 867b 09bc 34cc ba3c
000003a0: 2d7c 8b3c 2086 1cbc ab48 4cbc c37e 83bd
000003b0: fcbc cabd 40dc 93bc 0157 e23c 8af3 253d
000003c0: 3279 00bd 2ebb 7abd 99d8 1b3d 2ffd 33bb
000003d0: e43d ba3d 573e 88bc 6cef 26bc b70d 04bd
000003e0: f8a6 923d 4fcd 903c 63b3 d73d b885 af3c
000003f0: 0571 063d 72d4 733d 53dc e7bd f0ee 26bd
0.014335785 -0.030006109 -0.08432113 0.039734274 -0.03934841 -0.021582814 0.013830149 -0.03434474
-0.022160398 0.1213402 -0.08583115 0.04165076 0.04658905 0.06800134 -0.0962264 0.047864255
-0.035880215 0.03204029 0.016866496 0.05883076 -0.033214334 -0.03863314 -0.074511774 -0.03484976
-0.05160736 -0.12019465 0.022150315 -0.0071084676 -0.11814971 -0.04719528 0.06142925 0.043424655
-0.07106425 -0.00441799 -0.048428588 -0.024078246 -0.041487586 0.06762776 0.03621762 -0.020104716
-0.038775057 -0.076104954 -0.019767102 0.08204377 -0.039894238 0.016938545 -0.044104125 0.005608449
-0.015391367 -0.039766554 -0.11602098 0.03314289 0.07154275 0.119103074 0.08605358 0.057755645
-0.06497262 -0.06995347 0.006620859 0.040405422 0.022617165 -0.004329637 -0.050714225 0.09661064
0.06540263 -0.0141803175 -0.010778619 0.008877586 0.023646628 0.016749851 -0.13603663 0.018895615
0.16424128 -0.035333995 -0.02673861 0.13089289 -0.040948436 -0.117716886 -0.039266907 0.008129458
-0.047496364 -0.06134415 -0.009594908 0.09632574 -0.04313889 -0.070708975 0.05613453 0.042034123
-0.106240876 -0.08548304 -0.0010438281 0.041941933 -0.013664288 0.03521098 0.070773974 0.13698372
0.005042537 0.025376031 0.106150165 -0.0029868325 -0.07021358 0.055878066 0.10090425 -0.034066617
-0.0064360704 -0.0026033763 -0.10598987 0.086167805 0.012417664 0.0075231236 0.037007406 0.17385247
0.086457044 -0.04426554 -0.027028965 -0.06415386 -0.015502758 0.022418229 0.13315284 0.02310154
0.058025774 -0.073781006 -0.10602333 0.038396638 -0.007621106 -0.05250582 0.043030486 -0.022214701
-0.010837665 -0.035293154 -0.029172065 -0.02269484 0.030231081 -0.096951075 -0.07566757 0.08985422
-0.037129425 -0.041057233 0.011552586 -0.067735985 -0.026717007 -0.04248733 -0.011023091 0.055392783
-0.104157165 -0.061697394 0.0485471 0.062647276 -0.023337618 0.02746136 -0.023939604 -0.051302366
0.03906094 0.059885133 -0.022681022 -0.056205235 0.049569093 0.08242875 0.04984619 -0.008529202
-0.07594056 -0.010919459 0.0017201586 0.04846453 -0.06314729 0.047667496 -0.0038287928 -0.015870867
0.06465506 0.025380885 0.05193368 0.0923095 -0.024259249 0.052125707 -0.1068361 0.04255798
0.03147518 0.124958076 -0.09553804 0.024031237 -0.10757543 -0.10553479 -0.006426442 -0.022357406
-0.011353131 -0.012963506 0.015561558 0.12841481 0.09748259 -0.03524846 0.014816223 0.07330265
0.0021648393 0.012299325 0.007171386 -0.058503874 -0.057421476 0.03152923 -0.06657035 0.02626446
-0.10500599 -0.00809151 -0.033272207 -0.010840758 -0.05274886 0.030677218 -0.117648005 -0.01768399
-0.12812415 -0.02282949 -0.014693145 0.030239867 0.081334904 -0.03896105 0.047601707 0.02464636
-0.032436352 -0.022219982 -0.028887281 0.00080778747 0.06588401 -0.06690953 -0.00023327545 -0.034210455
-0.01694033 -0.07137326 -0.017502718 -0.012504326 0.050517824 0.022118233 -0.008391267 0.02280245
0.017026985 -0.009553462 -0.012468497 -0.06420662 -0.09899327 -0.01804936 0.027629377 0.04051546
-0.03136558 -0.061213665 0.03804836 -0.0027464142 0.09093836 -0.016631288 -0.010188919 -0.032239642
0.07160753 0.017676024 0.10532262 0.021426067 0.032822628 0.059528776 -0.113213204 -0.040755212

a2c_network.actor_mlp.2.bias f4 [128]
00000000: 60f6 0bbd 3f99 ac3c f259 13bc 0887 f9bc
00000010: 7d41 fcbc 18ff 433d 133a 05be 6d1f 363d
00000020: 7d9c c13a b916 1c3d ab5e 5f3d 6dfc 2ebc
00000030: ea76 0abe 73f0 623d 4b0a 67bd b810 53bc
00000040: 5f1e 16bd e815 a53d 7839 063d a2b4 e0bc
00000050: 41c7 4dbc 2572 8a3b 8d0c c53c 2987 cebb
00000060: b0cd 91bd 6830 c53d 2ef9 9abc bcdc 4d3d
00000070: 0b83 563d fa4c 43bd 8e34 a2bc 1086 5fbd
00000080: aafd d03c 3e1b a33b 13a4 a1bd c5db 17bd
00000090: 5485 353c da6e 2bbb 9d86 19be 105f 88bc
000000a0: 6233 a73c 472b b1bc 83d5 8bbd ee3d 083c
000000b0: b7ba c9bc de9e 3cbc 8598 513d 87a8 84bd
000000c0: 2746 05bc f322 00be 469b 47bd 7dde d0bd
000000d0: efaf 2ebd e662 9ebd 4ef8 24bd c9b0 cebc
000000e0: 2397 22bd 3b9a fcba e2bf fa3c 849e 5a3d
000000f0: b40a 8fbd 30e1 783c f87d 89bc 285f 19bd
00000100: 1576 3d3d f90e c53d e0ca 07bb d77e 88bc
00000110: 8240 2c3d 1738 94bd a462 b0bd 19ae 0a3c
00000120: 6342 f33b 0b32 313d a46b b1bd 7578 7f3c
00000130: ab7a 86bd d004 21bc 5dad 00bd 6213 7b3d
00000140: f1df 8f3d e2a3 45bc 5422 223d 2b7f 16bd
00000150: 9373 1c3d 984b 95bd a387 07be 4967 08bd
00000160: 96fc 213c 33fc 8c3d 0165 58bd 7d15 a53c
00000170: d4bf 67bd 65ca 93bd 7042 54bd 3bce acbd
00000180: 39da 51bc 6eed 243d c4a7 143c 593a a4bd
00000190: 7dc3 9b3c b8ec 82bc 5401 32bd 7cc2 54bd
000001a0: 9710 e83c 1c5a a13d 9f1a 643d 4160 bdbc
000001b0: bf95 bbbd a9c5 77bd 351c 1e3b 7bee 423d
000001c0: a292 9f3d 42b3 22be 9f18 523c 3f19 0ebd
000001d0: f6f2 6abd 5d97 a23c 0210 2fbd 2152 12bd
000001e0: 1a3a 503c 15b2 d4bc faea 29bd c8c2 813d
000001f0: ae98 16bd d9fc 29ba c98b 5ebd c2ac 7c3d
-0.03417051 0.021069167 -0.008993613 -0.030459896 -0.030792946 0.0478507 -0.13010435 0.044463564
0.0014771369 0.038107608 0.05453364 -0.0106803 -0.13521925 0.05540509 -0.0564063 -0.012882404
-0.036650058 0.08060819 0.03276965 -0.027429882 -0.012559713 0.004225033 0.024053836 -0.0063027334
-0.0711931 0.096283734 -0.018917646 0.050259337 0.052371066 -0.047680832 -0.01980045 -0.05457121
0.025511581 0.0049776128 -0.07892623 -0.037074823 0.011079151 -0.0026158602 -0.14992757 -0.016646892
0.020410243 -0.021627082 -0.068278335 0.008315546 -0.024625165 -0.011512486 0.051170845 -0.064774565
-0.008134401 -0.12513332 -0.048732065 -0.10198686 -0.042648252 -0.07733707 -0.040275864 -0.025230782
-0.039694916 -0.0019272038 0.030609075 0.05337383 -0.06984463 0.015190408 -0.0167837 -0.037444264
0.04625519 0.096219964 -0.0020720288 -0.016662044 0.042053707 -0.07237261 -0.08612564 0.00846436
0.0074236854 0.043260615 -0.08663109 0.015592684 -0.06566366 -0.009827808 -0.031415332 0.06129778
0.07025135 -0.0120629985 0.03958352 -0.03674237 0.038196158 -0.07289809 -0.13235335 -0.033301625
0.009886881 0.06884041 -0.0528307 0.020151848 -0.056579426 -0.07216338 -0.051821172 -0.08437773
-0.012808376 0.040265493 0.009073202 -0.080189414 0.019014115 -0.015982017 -0.043458298 -0.051943287
0.028328223 0.07878515 0.05568945 -0.023117187 -0.09159421 -0.060491238 0.00241257 0.047590714
0.0779164 -0.15888694 0.012823253 -0.034692045 -0.05736061 0.019847566 -0.042739876 -0.035722855
0.012709165 -0.025963822 -0.041483857 0.0633598 -0.0367667 -0.00064845156 -0.05433253 0.061688192

a2c_network.actor_mlp.4.weight f4 [64, 128]
00000000: 1831 aabd 15df 63bd 52cf 0e3e f820 23bc
00000010: 5870 99bd 70bb 113d e969 d73d 45f6 6dbd
00000020: 943f a3bd 5fbe 553d 9aa7 ad3d c6c9 493d
00000030: 459c 613d a22b f03d 42e8 20bd 791a edbc
00000040: c6c5 1d3d 2fb9 9cbc 33bd c4bd 8a19 fe3b
00000050: 0495 593d d258 b13b bd0f 87bd 1fd7 afbd
00000060: 1174 f33c a85a 73bc 7560 e33b 184f 30bc
00000070: bcb0 33bd 61b8 dc3d 0d47 8dbc 3d34 07be
00000080: 9def 4e3d 8882 09bd 07d7 ad3b 6755 81bd
00000090: 09e5 fdbd f465 f2bd 3af1 b6bd 27d2 11bd
000000a0: 0992 e3bd ba6d 1ebd 8b6b 973d 60c7 f73c
000000b0: 479a 0bbe 4310 d2bc a676 97bd f97f 4abd
000000c0: a9ec 04bc 17c5 d1bd f3af 05bd c319 88bd
000000d0: 778c 82bd ac40 dabb 543f ab3c 54e6 b13c
000000e0: 9eec 22bd 6566 5abd 5477 bfbd e5c8 903d
000000f0: 0fd4 703d 0c28 963c 81bc cfbd e268 6b3d
00000100: 709d b0bd 349f c2bd 8698 3f3d b6fb 343d
00000110: ce46 47bd 5186 513d 43f9 02bd 30dd c8bd
00000120: 813e a6bc a5ee 1e3c 5c1a aabc d404 5bbd
00000130: a3ca 4f3c 6a5d 8ebd 10b4 da3c 30f0 03be
00000140: eb86 833c 0bc9 073d 1a32 74bd b2d5 da3d
00000150: d2c8 a9bd dcca 663d e929 80bc 07f7 eeba
00000160: 0e3d 98bb bb53 a63c aa05 d6bd b8d7 1a3d
00000170: 89c4 77bd f3f4 35bd 2a8e 74bd c7eb 2ebd
00000180: 9f16 f1bd 4257 a7bc f690 2dbd 6c7e 353d
00000190: 380f 3d3b 48ed fe3c a78c 00bc 7fc5 b93d
000001a0: d6a0 c13b 8563 023d 79e2 23bd 61a7 a03c
000001b0: 7110 25bc 49d8 973d 7fef d13c 6c73 a4bd
000001c0: 7587 4cbd 7f7d 3d3d 2b99 d63d 75ac 6a3d
000001d0: 7087 a83c db47 3abd cfa0 bdbd d107 84bb
000001e0: 5bad 813c 7d34 793d ddc8 96bc 0cea b3bc
000001f0: 79d3 9b39 cb25 6ebd b411 05be 3c3e dcbc
00000200: 162a c83d 864a 743c ce2f f43c 50a3 713b
00000210: 4933 023d ed3c 4f3d 366d 56bd 35f7 86bd
00000220: b23f 3cbd 1d71 8dbd b176 703d 85f2 b7bb
00000230: 244d eabd 3890 5f3d 2fdb 5c3c 8ead 7cbc
00000240: b353 07bd fa84 4fbd 2ee8 3bbd 87f6 d038
00000250: 398e 87bb 641f 8d3d 90d7 f8bc a7b0 16bb
00000260: 942c 4bbc ad86 a23a 18c9 053d ab75 1abd
00000270: 09c1 4abd 7114 12bc 56f7 5a3d ad53 c43b
00000280: c69c edbb 0e70 223d f5fd 633c c7cb 873c
00000290: 181f 883d e8a5 dd3c 908e 52bd 6169 753d
000002a0: b357 8b3d 87a0 2d3d 7bf5 62bd 175a b3bc
000002b0: 06c2 6bbd a89a 1fbd 0f3b 8dbd 1c02 213d
000002c0: 8095 71bd a626 943c 32dc 92bc 9ffa e0bb
000002d0: 0ee4 6dbd 0056 213d 9a3c d43d 3e72 44bd
000002e0: 2320 843d 08c9 9fbd 0f30 a63b 75e2 753b
000002f0: 696b e43d 39f6 79bc 9290 4ebd 18e7 113d
00000300: 95d9 2dbd 27eb 50bd 2f94 713c 8498 053d
00000310: 101a a93d 2cb9 0dbc 4822 8e3d cd9b 203d
00000320: 0582 283d 6f03 943d 262c 903c 6af9 213d
00000330: 68bf 223d a708 993c b166 a03c ce8c dabc
00000340: 0ef0 803d a26e bdbd 0da9 81bd b943 7a3c
00000350: 3e0f dabc 908a 2c3c 7b71 34bd 3352 04bd
00000360: 0626 4c3d 6b46 663c cdab ebbd 680f a53d
00000370: c4eb 92bd a6b1 0cbd aba9 d23c 938c 323d
00000380: 1ec0 c43d fc95 2dbd 3d90 1fbd 67cf 5cbd
00000390: dc03 5e3d 71ab f93c f41b 893c 7cb6 1c3c
000003a0: 9ec0 043d 742d a83d 62f1 cebd b257 73bd
000003b0: effa e3bd 3946 a4bd 7809 523d 9e62 433d
000003c0: 7805 04bd 1607 6abc 9383 f5bc 2df9 90bd
000003d0: ee09 213d 0ecc b93c fa01 653c 8548 db3d
000003e0: a8f6 ee3c 6e3b 01bc 8fce f63c 558f 82bd
000003f0: 3146 f53d 37d0 42bd a6c5 9e3d 676f d3bd
-0.08310145 -0.05563267 0.13946274 -0.009956591 -0.07492131 0.035579145 0.10518248 -0.05809619
-0.07971111 0.052183505 0.08479233 0.04926469 0.05508067 0.11727072 -0.039284 -0.028943287
0.03851869 -0.019131271 -0.096063994 0.0077545093 0.053120628 0.0054121995 -0.06594799 -0.08585953
0.02971843 -0.014853157 0.006938989 -0.010761045 -0.04386972 0.10777355 -0.017245794 -0.13203521
0.05052148 -0.03357175 0.0053051743 -0.06315117 -0.123972006 -0.11835852 -0.08932729 -0.035600808
-0.11111838 -0.038678862 0.07393559 0.030246437 -0.13633071 -0.02564252 -0.07395677 -0.04943845
-0.008113065 -0.1024267 -0.0326385 -0.06645539 -0.06374448 -0.0066605415 0.02090422 0.021716274
-0.039776437 -0.053320307 -0.09348932 0.070695676 0.058795985 0.018329643 -0.10143376 0.05747307
-0.08623779 -0.09503022 0.046776317 0.044185363 -0.04865151 0.051153485 -0.031975996 -0.09807813
-0.020293476 0.009700452 -0.020764522 -0.0534714 0.01268259 -0.06951411 0.026697189 -0.12884593
0.016055545 0.033150714 -0.059618093 0.106852904 -0.082902566 0.056345806 -0.015644984 -0.0018231579
-0.00464595 0.020303598 -0.10450299 0.03780338 -0.060490165 -0.044423055 -0.05970589 -0.042705324
-0.11771893 -0.02042735 -0.042374574 0.04431002 0.0028848182 0.031119004 -0.007846034 0.090708725
0.0059090657 0.03183319 -0.040010903 0.019611062 -0.010074721 0.074143 0.025626896 -0.080298275
-0.04993387 0.04626226 0.10478433 0.057293374 0.020572394 -0.045478683 -0.092591874 -0.004029252
0.015829733 0.060841072 -0.018406326 -0.021962188 0.00029721463 -0.05814151 -0.12995034 -0.026885144
0.09773652 0.014910346 0.029807951 0.0036871023 0.03178719 0.050595213 -0.052350245 -0.0659012
-0.045959182 -0.0690634 0.058706943 -0.0056136274 -0.11440495 0.054580897 0.013479992 -0.015422238
-0.033038806 -0.050663926 -0.04587572 9.964132e-05 -0.0041368273 0.06890753 -0.030376226 -0.0022993477
-0.012400765 0.0012399756 0.03266248 -0.037709873 -0.0495005 -0.008916006 0.053458534 0.0059914202
-0.007251355 0.039657645 0.013915529 0.01657666 0.06646556 0.02705665 -0.05140549 0.05991495
0.06803837 0.04238942 -0.05540989 -0.021893544 -0.057558082 -0.03896585 -0.0689603 0.039308652
-0.058980465 0.018084835 -0.017927263 -0.006865814 -0.058078818 0.039388657 0.10363121 -0.047960512
0.06451442 -0.078020155 0.005071647 0.0037519012 0.11153299 -0.015256458 -0.05043084 0.03562078
-0.04244383 -0.05100551 0.014744802 0.032616153 0.08256924 -0.008650105 0.069401324 0.039211083
0.04113962 0.072272174 0.017599177 0.0395445 0.03973332 0.018680884 0.019580217 -0.026678469
0.06295787 -0.09249617 -0.06331072 0.015274935 -0.026618596 0.010531083 -0.044053536 -0.032304954
0.04984095 0.014054875 -0.11507378 0.08059579 -0.07173875 -0.034349106 0.02571567 0.043591093
0.09606956 -0.042379364 -0.038955916 -0.05390873 0.0542029 0.030477257 0.016736962 0.009564992
0.032410257 0.082117945 -0.10104634 -0.059409805 -0.11131846 -0.080212064 0.05127856 0.04770147
-0.032231778 -0.014283916 -0.029969966 -0.070787765 0.03931611 0.022680309 0.013977522 0.107071914
0.02917035 -0.007887704 0.030127792 -0.06374995 0.119762786 -0.04756185 0.07752542 -0.10323983

a2c_network.actor_mlp.4.bias f4 [64]
00000000: 60e0 943d e26c b03c 9746 f6bd 3dee 843c
00000010: 0784 723d 7485 be3d b3b1 d4bd 6bf8 c8bd
00000020: c995 0b3b 54d3 683d c6e9 b43d 91d0 8bbc
00000030: 357a 2a3d e1dd 0fbe 862c 81bd 4083 30bd
00000040: b5e3 1d3d d4a6 34bd 92de a13c 7758 db3d
00000050: 4503 c9bd 5f9f 493d 8888 fabd 0050 8e3d
00000060: 104b 0c3b 5baa b93d 5044 793d 82f0 8d3d
00000070: f24b ba3d a7ca 963d beee 79bd 1e2b 83bd
00000080: 0e7e 92bd c5bc c5bc 2904 113d ac61 833d
00000090: 222d 2ebc a356 21bd 30fa 523d 45ea a33d
000000a0: 540d 733c 5897 c33d 2083 a2bd 06cd 5c3d
000000b0: 37d6 01be e792 8dbd 0ea5 a2bd eedb 4ebd
000000c0: 017b 313c 4210 333c b079 7b3d 284e 8e3a
000000d0: 98d1 3a3d ba9a 40bd a451 1cbd aa4f 13be
000000e0: 397c 46bd 6e8b 273d f93c e43c 933c 19be
000000f0: ee43 4d3d 4683 473d 5307 923d 90f8 f4bd
0.07269359 0.021536294 -0.12025183 0.016226882 0.059207942 0.09302798 -0.10385456 -0.09813007
0.0021298996 0.056842163 0.08833651 -0.017067226 0.041620452 -0.14049484 -0.0630732 -0.04309392
0.038547236 -0.044104412 0.01975945 0.10710233 -0.09815077 0.049224254 -0.122330725 0.069488525
0.0021407045 0.09065696 0.060856164 0.06930639 0.09096517 0.073628716 -0.061018698 -0.06404708
-0.07152949 -0.024137864 0.035404358 0.06415114 -0.010630878 -0.039389264 0.05150813 0.08003668
0.014834721 0.09550351 -0.07935166 0.053906463 -0.12679373 -0.06912785 -0.07941638 -0.05050271
0.010832549 0.010929169 0.061395347 0.0010857033 0.04561004 -0.04702256 -0.038163796 -0.14385858
-0.04845831 0.040904455 0.027861105 -0.14964513 0.05011361 0.048709176 0.07130303 -0.11961472

a2c_network.value.weight f4 [1, 64]
00000000: d9a0 6c3d c727 3f3b 5621 4cbd c6e7 1fbc
00000010: b13f 863d d872 e23d 9a9f 8ebd 276b f0bd
00000020: 39ec 6a3b ec8b 433c 7151 e83c ac5f 303c
00000030: 982f 293d 5140 96bd d0f2 e4bc bf06 bdbc
00000040: 8aef 213d 9fc6 c8bc 1fbf 1f3d aa6b 083e
00000050: 5c41 4fbd 81aa 8b3d d667 01be 4cfd d93d
00000060: 89a0 99bc 155f 483d 2feb 5f3d 2ab0 023d
00000070: c57c ac3d 7040 eb3c bcbe 38bc 939f bfbb
00000080: bc04 463b e3f6 383c bd04 1c3c 33ab 3b3d
00000090: 8d1f 5c3c 0590 75bc dde8 033e 8324 2e3d
000000a0: 5f21 8f3c 6a52 9e3d 2aa4 7fbd ae98 ac3c
000000b0: 2a17 0cbd 5478 78bd ae3d aebc 4746 a2bc
000000c0: 99fe e33b 6f03 6c3c 1fc0 e33c 94f5 4c3b
000000d0: 3509 7f3d 615a a63c c281 3cbc 0f28 aabd
000000e0: 64bc eabc 4a7f 113d a714 c93c d64c 80bd
000000f0: 2f71 963c b61d ce3c fb43 423d a78b bdbd
0.057770584 0.0029167996 -0.04983648 -0.009759849 0.06555117 0.11057061 -0.06964035 -0.11739188
0.0035846366 0.011935215 0.028359147 0.010764997 0.041305155 -0.07336486 -0.027947813 -0.023074506
0.039535083 -0.024508772 0.039000627 0.1332232 -0.05059944 0.068196304 -0.12637267 0.10644016
-0.018753307 0.048918802 0.054667648 0.031906284 0.084222354 0.02871725 -0.011275943 -0.00584788
0.0030215224 0.011289331 0.009522614 0.045817565 0.013435257 -0.01498795 0.12881799 0.04251529
0.017471967 0.07730563 -0.06241242 0.021068897 -0.03420178 -0.06066163 -0.021269646 -0.019808901
0.0069578406 0.0144051155 0.027801571 0.0031274306 0.06226464 0.020306768 -0.011505546 -0.08308422
-0.028654285 0.035521783 0.02454598 -0.06264655 0.018364517 0.025160652 0.047428112 -0.09255152

a2c_network.mu.weight f4 [6, 64]
00000000: cb74 28bc c3e2 9c3a b563 b33c b1f5 b4bd
00000010: 3973 4bbd d705 4c3d e5f8 923d a20d 0b3d
00000020: 14ab 05be 56f2 09bd fc18 aabd 13bd 2d3e
00000030: da21 b2bd b0b2 f8bc e8d2 b73d 58d1 2d3d
00000040: 4e4b d43d 2069 aa3d f1e5 4d3d 6933 e63d
00000050: 13dc a43d b309 c43c 5e77 14be 0d00 153e
00000060: ea3c a1bd 92a8 d8bd c594 9b3d 9320 eabd
00000070: 6df9 6f3d fbf9 9f3c f933 58bd c50f 003e
00000080: 6aa5 0a3d 14a6 92bd 5806 63bd 1c58 99bd
00000090: fc34 4fbd c5e0 92bd 1698 bbbd 54dc 05be
000000a0: 230c 323c 2380 f5bd 0d11 e0bc 4c7a 783b
000000b0: 9e30 cc3d f653 093e 7fd5 4ebd b3b9 983d
000000c0: 5848 9bbd f1ff 3d3c 6361 45bc 74f0 f13c
000000d0: 5d14 8d3d 81bc 29bb 8d0d eb3d 7f6d 6cbc
000000e0: c229 bcbd 244d cb3d 359f ec3d 5c2c 183c
000000f0: 804b 973d a668 c8bd 4892 aebd b0a7 b83d
00000100: f428 07be d9e2 ad3c 88c8 eb3c a919 b63c
00000110: 2b3d 2bbd d7f2 67bd 9dfd 5dbd a632 c6bd
00000120: 87bb f4bd e9c1 063e a44b 9ebd d4d8 983c
00000130: cd65 9fbd 9036 db3c bf68 06bc dd5a 48bd
00000140: f71c 903c 58d6 62bd 687d 03be 9dcf ad3d
00000150: 5ae0 0cbe 95fb 18bd 43bf 7f3d 81a4 c6bc
00000160: 38cb e33c a694 24bc 8127 d73c 0477 1fbc
00000170: ea78 47bd 6f3f b5bd 88ca 15be 964c 9dbc
00000180: 9f65 63bc c9a3 4d3d 9859 c9bc 955b b1bd
00000190: b798 4abd 11f6 183d 9486 9ebd a868 37bd
000001a0: 6e1b 25bd 3363 0cbd 3468 ccbc 8b14 ecbd
000001b0: a138 1b3d 4d06 4fbb 4857 9c3d fa9a a93d
000001c0: 157b 693d 4b18 073e 49c3 99bd 1d3e 7a3d
000001d0: 4cf2 4bbd 12d7 6dbd 07b0 6bbd 0375 9a3c
000001e0: f2a5 583d e58f 5bbd f61a d73d 050f 923d
000001f0: 8362 683c 4d4d 97bd efe6 c53d 8752 03be
00000200: de39 03be dedc f23c 8c2e 88bb 335b 103e
00000210: d423 f3ba 8d3e b93d cfc4 a23d a310 ef3d
00000220: c8ad b23d 17ec 13bc 47c9 56bd b07b b9bc
00000230: bd9f 94bd 4aae f6bc d57b e43d 8f68 b23d
00000240: 3c26 bc3d 0ca1 b43d bb45 183d c444 113d
00000250: 4b8e 3f3d 84a4 0cbe 4c75 edbd baa6 1dbd
00000260: 9afe d2bc c19c eebd 8c68 cdbd 78e6 3bbd
00000270: 104c 8cbb a2ab 9ebd 4a47 ae3d 6a10 c83a
00000280: 5f5e 983d b83d a23d 950f 9eba 2cc7 8bbc
00000290: 0f94 4a3d be87 4b3d 0f58 013d 9d0c 4bbd
000002a0: 5b89 2a3d 4612 e3bd 6cf8 783d cd0e 1d3d
000002b0: 0183 ca3d 9171 1ebe 7ccf 7d3d c4a5 c53d
000002c0: 9d09 14bd 114a 8ebb 099f 823c 7c0d eb3d
000002d0: 3454 363d 9dde 2abc 47bf 40be 2862 c93c
000002e0: 0d0d bb3d 6c2e c53d 5858 143e aa87 8ebd
000002f0: 4f8b c5bd 0c8f cc3d 127a 77bd e7c0 f63d
00000300: 1595 133d 10f5 92bc 0fce 863d b0b1 043e
00000310: 59ea 7e3c de84 7d3d 5056 0e3d c6f5 dc3d
00000320: 5d84 ec3d 79be e1bc 6bbe f53d 7776 883d
00000330: de98 583c 4ef0 9ebd 308f 913d 1bba 073c
00000340: 0854 66bd 4386 f13d 7635 bcbd 86e6 163e
00000350: e5d1 4b3c 2a23 553c 53dd 423c 812f 423d
00000360: b2ff 013e 4f05 cc3c dd95 90bd 39b5 c73d
00000370: 9b3b 693d 75dd e73d 9b93 3f3a d9a9 4e3c
00000380: 1ec8 3e3c ee32 053c b6a9 923d f1ad 313e
00000390: da55 e1bd b22a 1bbe 8700 9ebb 50de f3bc
000003a0: aa20 1abd e5cc 643d bd88 093e 6fa0 c1bb
000003b0: 968c b7bb bfd1 d03d c3ab 24bd 8d0b 0dbe
000003c0: 0f76 d3bc b5b5 9bbd 81a2 db3c 63ec 163e
000003d0: d181 f6bb 525a 11bd 6628 8f3c 17a2 95bb
000003e0: 94e9 cebd 7c99 f73d d7ad 523c 3b97 d6bd
000003f0: cc6e 023d 03ba fa3d df6c 733d ce84 4f3d
-0.010281752 0.0011969436 0.02189813 -0.088359244 -0.04967043 0.049810257 0.07176379 0.03394855
-0.13053542 -0.033678375 -0.08305547 0.16966657 -0.08697863 -0.030358642 0.08975774 0.042435974
0.10365926 0.08320832 0.050268117 0.112402745 0.08049788 0.023930406 -0.1449866 0.145508
-0.078729466 -0.10579027 0.07596735 -0.11431994 0.05858748 0.01952838 -0.05278394 0.12506016
0.033849157 -0.07160583 -0.05542597 -0.07487509 -0.05058764 -0.07171778 -0.091598675 -0.1307233
0.010867151 -0.11987331 -0.02735188 0.0037914691 0.099702105 0.13410935 -0.050496574 0.07457294
-0.07582158 0.011596666 -0.012047145 0.029533602 0.068886496 -0.002589971 0.11477194 -0.014430403
-0.09187652 0.09926823 0.11553804 0.00928792 0.07387447 -0.09785585 -0.08523995 0.09016359
-0.13199216 0.021226333 0.028782144 0.022229033 -0.04180638 -0.056628074 -0.054196943 -0.09677629
-0.119498305 0.13159908 -0.07729271 0.01865808 -0.07783089 0.026759416 -0.008203684 -0.04891478
0.017591937 -0.055380195 -0.12840807 0.08486865 -0.13757458 -0.037349302 0.06243826 -0.024248363
0.027806863 -0.010045206 0.026263954 -0.009732965 -0.048699297 -0.088499896 -0.14628041 -0.019201558
-0.013879209 0.050205026 -0.024578854 -0.08660046 -0.049462046 0.037344042 -0.077405125 -0.044777542
-0.040309362 -0.03427429 -0.024952032 -0.11527356 0.037895802 -0.003158945 0.07633835 0.082815126
0.057002146 0.13192861 -0.07507951 0.061094392 -0.04979162 -0.058066435 -0.05754092 0.018854624
0.052892633 -0.053604025 0.10503189 0.07131771 0.014183643 -0.07387791 0.09663188 -0.1282445
-0.12815043 0.029646333 -0.0041559394 0.1409729 -0.0018550106 0.09045134 0.079476945 0.11673095
0.087245524 -0.009028456 -0.052438047 -0.022641987 -0.0725703 -0.030112404 0.111564316 0.08711349
0.0918698 0.0881978 0.037175875 0.03546597 0.04676656 -0.13734633 -0.11594638 -0.03848908
-0.02575617 -0.11650992 -0.10029706 -0.04587409 -0.0042815283 -0.0774758 0.08509691 0.0015263681
0.07439875 0.07921928 -0.0012059087 -0.017062746 0.049457606 0.04969 0.03157812 -0.049572576
0.0416349 -0.1108747 0.06078379 0.038344193 0.09888268 -0.1547301 0.06196545 0.09650758
-0.03614198 -0.0043423255 0.015944974 0.11477181 0.044513896 -0.010429052 -0.18822967 0.024582937
0.091333486 0.09627995 0.14486825 -0.069594696 -0.09645712 0.099882215 -0.06041915 0.12048512
0.036030848 -0.01793912 0.06582271 0.12958407 0.0155588025 0.06189429 0.034750283 0.10789065
0.11548684 -0.027556645 0.1199921 0.066632204 0.01322004 -0.07760678 0.07107389 0.008284117
-0.056232482 0.117931865 -0.09189884 0.14736375 0.0124401795 0.013008872 0.011893588 0.047408585
0.12695196 0.024904875 -0.07059834 0.09751362 0.05694161 0.113215365 0.00073080667 0.012613737
0.011644391 0.008129818 0.07161276 0.1735151 -0.11002703 -0.15153006 -0.00482184 -0.029769093
-0.037628807 0.055859465 0.13431068 -0.0059090178 -0.005601476 0.10196256 -0.040202867 -0.13773938
-0.02581313 -0.07603017 0.026810886 0.14738612 -0.0075227995 -0.035486527 0.017475318 -0.0045664418
-0.10103145 0.12089822 0.012858829 -0.10478064 0.031843945 0.1224251 0.05943 0.05066376

a2c_network.mu.bias f4 [6]
00000000: a65c 57bc 318c c63b e0d3 68bc 4735 973d
00000010: 77d0 cc3c 5b3c 23bc
-0.013144648 0.0060591926 -0.014210671 0.07383209 0.025001748 -0.00996312

exp_avg f4 [6]
00000000: 83c0 823b 5287 543a b149 5f3c 5945 933c
00000010: f512 8cbc d03f 02bb
0.0039902343 0.00081073225 0.013628409 0.017977403 -0.017098883 -0.001987446

exp_avg_sq f4 [6]
00000000: e25f a93a 2f82 a23a 33f8 983a 55b8 853a
00000010: 71e0 973a 947b 883a
0.0012922252 0.0012398417 0.0011670649 0.001020203 0.0011587274 0.0010412806

exp_avg f4 [256, 30]
00000000: 51f7 733a a793 f6b9 5675 afb8 ee8c 023a
00000010: 43d2 9939 e8ba a5b8 8a99 de37 3331 0e3a
00000020: c298 8f39 68a8 59b9 64a4 e8b9 63cf 03b7
00000030: aa7c 143a c615 01ba 0f7b 91b9 0701 383a
00000040: 4e70 9138 927b 123a 2f2e 3039 47a6 d138
00000050: ea38 d3b7 7bff 64b9 30c1 5039 db2c 75b9
00000060: 4126 f439 acf2 86b9 7f32 24b9 a83d 0a3a
00000070: 0b16 c638 e2e6 b439 9670 afb7 d8d6 e838
00000080: 5e8a 6339 143e ac39 f618 e739 09ac 9e37
00000090: 2a9b 98b9 2c99 253a 3afb 2237 e2d9 2f39
000000a0: e8a2 4d3a 07c7 fab8 c01f aab9 89ad 28b9
000000b0: 20b5 f5b6 5394 8d39 4681 39ba a35f cb38
000000c0: bdbf c938 fec4 a5b9 ed5f 04b9 8730 8ab7
000000d0: 232d 6c39 1386 31ba fdfb 32b9 9de4 bcb9
000000e0: 2f09 b9b9 16d6 6439 02a7 d0b9 cb67 47b9
000000f0: 66e6 003a e10a 04b8 f598 3339 241c 103a
00000100: aa85 d139 9134 0d39 eb45 41ba ee41 a939
00000110: 9439 0639 1ec3 c637 b1bb a53a 74d3 3639
00000120: 5e11 c8b9 9443 8b39 8058 cf39 20ae 293a
00000130: 9546 80ba e738 ad39 2329 8939 7c5c 2939
00000140: 7d6a 2db8 c767 adb9 b9bf 103a 5bc1 0638
00000150: 95c1 1d39 bb1e a139 a9c4 93b9 bd0c da39
00000160: 732c d4b9 f60b c039 b7be 91ba 4715 823a
00000170: 93f4 183a 5b16 12ba 83f1 ad38 a7ec 9f38
00000180: a33c ea37 5a48 3bba 16d0 9e39 033d 6db9
00000190: 680e 013b 369d 183a 8e16 c5b9 bc94 c63a
000001a0: 4484 41b6 7585 6bba b87a 07ba 19b5 273a
000001b0: 2df7 99b9 aea1 f6b9 e9f1 63b9 5c7e 5b39
000001c0: 7989 b539 aed4 1a3a c5d9 7a39 f7e2 803a
000001d0: 379f 73ba 66ff 30ba 88f8 8e38 8743 8c3a
000001e0: 4b2d ad3a 10e7 aab9 47f6 6db9 adfb 103b
000001f0: 4a01 733a 2d96 2eb8 2ff8 a4ba 836d 833a
00000200: 6679 103a 62ff 49ba 1670 b83a 0385 a539
00000210: abce 1839 4d8c d2b9 97ce a439 cf23 cf3a
00000220: 5c3a e3ba 85de 903a 606d a2b6 ca7f 65b9
00000230: 7dbb 3439 1539 13ba fe37 b23a 283f 8aba
00000240: 9f43 d539 d758 9db9 24f9 c4b9 978a 963a
00000250: b931 25ba 552e fb39 bf84 31ba f803 ce39
00000260: 0d87 20b9 c668 23ba b240 1bba 9c68 67b9
00000270: 5c49 003a c756 2cba 4384 23ba 5dee 22b9
00000280: 9c62 58b9 7ab8 f639 4c9b 6bba ed2f 9337
00000290: 3193 413a 2f53 3eba 7d38 bf39 8272 7dba
000002a0: ff1e 9c38 ef63 ef38 71b3 68b9 4dff c737
000002b0: fe98 aeb8 7e7e 1739 68c0 12ba ad80 e238
000002c0: 073c b239 ba55 2bba 3ced 9239 43e3 30ba
000002d0: ed27 4cba 2a7f b639 87b2 0238 24c3 8fba
000002e0: 1a7e 7e38 7b89 0838 cc94 013a 2b26 5fba
000002f0: d3d4 063a fdb8 7f38 f5d8 2539 c221 29b9
00000300: 138f 713a c526 6e3a dd00 6bba c739 3dba
00000310: c0f6 b039 12fc 0f3a a49d 17b8 0434 91b9
00000320: 77b3 f3b8 48ae 6b39 9a66 59ba 3edd 003a
00000330: 4ddb 2f3a a0bb 1e3a e2f1 7bb9 273a 0eba
00000340: 92b6 c1b8 6e64 323a e10a 1f3a cd0e 9eb9
00000350: 04fb 9039 94c2 9139 0235 8439 c5c6 2b38
00000360: 1aa3 5eb9 49e9 ac38 d5d7 5d39 4780 e139
00000370: cea2 133a 1ac4 2d38 939b 62b9 287d e539
00000380: 18a4 7739 d68f 9938 c204 92b8 24ef a239
00000390: cb40 0a3a 290d bc39 525b 04b8 85fe 82ba
000003a0: 4a39 8cb9 68ea 043a 4e5b 6039 5d3e da39
000003b0: db06 d6b7 be4d 87b9 08c7 43b9 399b 033a
000003c0: bd12 f639 718e 1939 dfa5 d5b9 2ca7 1f3a
000003d0: ca68 1e3a 749a 2639 f4eb afb9 578a 6f3a
000003e0: b0d2 6339 ca20 16b9 7ff7 a53a 1cff 9939
000003f0: fd5a 143a 0430 15ba 7725 efb9 313f f539
0.00093065674 -0.00047030786 -8.366506e-05 0.00049801066 0.0002933909 -7.902627e-05 2.653596e-05 0.00054242014
0.000273889 -0.00020757469 -0.0004437297 -7.856494e-06 0.00056643283 -0.0004924204 -0.0002774824 0.0007019196
6.935057e-05 0.00055878714 0.00016801873 9.996868e-05 -2.5179663e-05 -0.00021838948 0.00019908394 -0.0002338173
0.00046567808 -0.00025739276 -0.0001565907 0.000527347 9.4454816e-05 0.00034504296 -2.0914053e-05 0.0001110264
0.00021699953 0.00032852648 0.0004407835 1.8915178e-05 -0.00029107305 0.0006317075 9.714446e-06 0.00016770468
0.00078444043 -0.00011958001 -0.00032448582 -0.00016086375 -7.3226547e-06 0.00027004126 -0.0007076453 9.697608e-05
9.620141e-05 -0.00031618023 -0.00012624236 -1.647348e-05 0.00022523529 -0.0006771993 -0.00017069276 -0.00036028484
-0.00035292792 0.00021823528 -0.00039797282 -0.00019016785 0.00049171445 -3.1481384e-05 0.00017127751 0.00054973573
0.00039963174 0.0001346639 -0.00073727843 0.00032283313 0.00012800685 2.3694298e-05 0.0012644437 0.00017435645
-0.00038159912 0.00026562496 0.00039548054 0.0006472785 -0.000978666 0.00033039527 0.00026161326 0.00016151549
-4.134559e-05 -0.00033074451 0.0005521733 3.2128166e-05 0.00015044802 0.0003073121 -0.00028184548 0.0004158969
-0.00040468908 0.00036630005 -0.001111946 0.0009924554 0.0005834784 -0.0005572789 8.294268e-05 7.625791e-05
2.792321e-05 -0.0007144265 0.00030291145 -0.0002262481 0.0019692425 0.0005821766 -0.00037591573 0.0015150527
-2.883623e-06 -0.0008984425 -0.0005168128 0.000639753 -0.00029366594 -0.00047041237 -0.00021738526 0.0002093254
0.00034625435 0.00059063255 0.00023922983 0.0009833266 -0.0009293439 -0.00067519245 6.81738e-05 0.0010701277
0.0013212351 -0.00032597082 -0.00022693827 0.0022122667 0.00092699064 -4.1624695e-05 -0.0012586172 0.0010027144
0.0005511254 -0.00077055965 0.001407149 0.00031570354 0.0001457284 -0.00040158854 0.0003143444 0.0015803518
-0.0017336118 0.0011052644 -4.840709e-06 -0.00021886747 0.00017235983 -0.0005616111 0.0013597009 -0.0010547386
0.00040676908 -0.00030011564 -0.00037569657 0.0011485395 -0.000630166 0.0004790897 -0.0006771795 0.0003929434
-0.000153091 -0.0006233569 -0.0005922421 -0.00022068847 0.0004893744 -0.000657421 -0.0006237665 -0.00015538321
-0.000206361 0.00047058222 -0.00089876796 1.7546083e-05 0.0007384299 -0.000726032 0.00036472446 -0.0009668247
7.444433e-05 0.00011415022 -0.00022192091 2.3841532e-05 -8.3254636e-05 0.00014447604 -0.0005598129 0.000108004875
0.0003399553 -0.00065359066 0.00028024043 -0.0006747732 -0.0007787932 0.0003480849 3.1160682e-05 -0.0010968191
6.067576e-05 3.2552965e-05 0.0004943132 -0.00085124624 0.00051434076 6.096902e-05 0.00015816449 -0.00016129672
0.000921474 0.00090847566 -0.0008964667 -0.00072183873 0.0003375318 0.00054925785 -3.614802e-05 -0.0002769531
-0.00011620571 0.00022476271 -0.0008293182 0.000491578 0.00067083986 0.000605518 -0.00024027334 -0.00054255355
-9.2369635e-05 0.00068051263 0.000606699 -0.00030147136 0.00027652842 0.00027801527 0.00025216496 4.0954696e-05
-0.0002123233 8.245052e-05 0.00021156606 0.00043010918 0.0005631865 4.1429048e-05 -0.00021610995 0.00043771532
0.00023616885 7.3224e-05 -6.962709e-05 0.00031077222 0.0005273937 0.0003586796 -3.15563e-05 -0.0009994066
-0.00026745565 0.00050703296 0.00021396318 0.00041626664 -2.551398e-05 -0.0002580713 -0.00018670794 0.00050203834
0.00046934737 0.0001464428 -0.0004075011 0.0006090279 0.00060428365 0.00015888532 -0.000335544 0.00091377407
0.00021726894 -0.0001431733 0.001266226 0.00029372505 0.000565931 -0.0005691054 -0.00045613546 0.00046777123
