IsaacGymEnvs/isaacgymenvs/runs/Bolt_10-15-31-40/nn/last_Bolt_ep_150_rew_0.07362892.pth (torch, 612240 bytes, 36 tensors)

value_mean_std.running_mean f8 [1]
0.05104366492254071
00000000: 5a45 052f 6522 aa3f

value_mean_std.running_var f8 [1]
0.0013930214343813978
00000000: b5fc 3560 c1d2 563f

value_mean_std.count f8 []
28801.0
00000000: 0000 0000 4020 dc40

running_mean_std.running_mean f8 [30]
-0.04739242906725975 0.14582681223029942 -0.47576108991656885 -0.378315264377095 -0.003843551826149257 0.01972559647751421 0.04082819064872791 -0.13805248932863137
-0.3190481384283436 -0.13884428272428756 -0.2213550664825445 0.030777037809039325 -0.05647711508981292 -0.05973063056045431 0.025462145507299472 0.1561348388068139
-0.11347161128555155 -0.053729405133217285 -0.0005459642945337717 -0.005915329487847252 0.0007239496167890159 0.012467924266708 -0.008489538787084024 -0.002482737838584557
-0.10758897289659611 -0.1329506423959929 0.06369695206059658 0.34163310740376635 -0.24886914703400798 -0.11068089749529812
00000000: b600 d809 d243 a8bf 5e5c b4f6 73aa c23f
00000010: a2a9 79a4 de72 debf 1ff1 043a 5136 d8bf
00000020: f7f1 992c 837c 6fbf 7160 0f5f f232 943f
00000030: d3a9 2ebf 6ee7 a43f 4d20 6637 b4ab c1bf
00000040: 0b90 19e2 486b d4bf 4ac9 c442 a6c5 c1bf
00000050: f657 ace1 5c55 ccbf 4b29 6e0b 0484 9f3f
00000060: 43fc 9084 91ea acbf 5939 a761 0395 aebf
00000070: d099 f5a8 bf12 9a3f fc82 38f5 39fc c33f
00000080: 3cf1 7ebb 790c bdbf 79eb c2ab 6b82 abbf
00000090: 1f5f 1865 e1e3 41bf 973a 202b ac3a 78bf
000000a0: 34b0 caf6 edb8 473f dbce cb77 c888 893f
000000b0: 7ed5 969b f662 81bf 15c8 47ba ad56 64bf
000000c0: ca48 0070 f38a bbbf 6e57 89d2 8604 c1bf
000000d0: 3284 f485 714e b03f 0bec e11b 51dd d53f
000000e0: 1c4b bfb7 f1da cfbf 8bc3 0853 9555 bcbf

running_mean_std.running_var f8 [30]
1.000008753494189 1.2227865021211246 1.2013792799115885 1.7263524845668423 0.93051642020308 0.2932958140813461 0.15722248973689917 0.20723404275663646
0.533822557563953 5.321873414279632 1.307714483300131 0.02102715443725936 0.07685843418832027 0.05405228128354884 0.06948079385875809 0.10973867060411548
0.1011845490690176 0.09046261511835882 0.17616823901442039 0.24194458391191281 0.20039374207928132 0.1264699598088115 0.16381720520050827 0.14964481093002693
0.6736842512202729 0.6248594656016445 0.6633277761235766 0.6709200522303461 0.6919871911662148 0.7168498398624762
00000000: 508a bf2d 0900 f03f 819b 4994 8890 f33f
00000010: 31ff d47a d938 f33f b153 69c8 239f fb3f
00000020: 1e39 255f cac6 ed3f f21d 62ce 5bc5 d23f
00000030: 86ce ced5 dd1f c43f abf9 2026 a586 ca3f
00000040: 1056 530b 1315 e13f ab21 2f2f 9949 1540
00000050: 3f79 a405 66ec f43f c83b 8b72 2488 953f
00000060: efb6 428d feac b33f 7929 c698 bdac ab3f
00000070: d3cf 5249 7ec9 b13f c1e7 5961 d517 bc3f
00000080: f5a7 1c09 3be7 b93f 16a9 71d5 8e28 b73f
00000090: a196 944c ae8c c63f 8249 ac45 0af8 ce3f
000000a0: 75db 468c 80a6 c93f 6913 a7ea 2a30 c03f
000000b0: e9dc 6d51 f6f7 c43f edf3 7aa8 8f27 c33f
000000c0: 4148 5a46 d28e e53f fb5c 2b47 d9fe e33f
000000d0: 5f55 1f2c fb39 e53f 19eb 5154 2d78 e53f
000000e0: d2e9 6952 c224 e63f ff44 4b13 6ff0 e63f

running_mean_std.count f8 []
14401.0
00000000: 0000 0000 8020 cc40

a2c_network.sigma f4 [6]
-0.120106794 -0.0886736 0.0044243475 -0.08972264 -0.052527454 -0.033768266
00000000: 8dfa f5bd 819a b5bd 1efa 903b 81c0 b7bd
00000010: 0727 57bd 9850 0abd

a2c_network.actor_mlp.0.weight f4 [256, 30]
0.15443248 -0.12976189 0.1405967 -0.0004341379 -0.07048901 0.07804507 0.01564995 0.14511058
0.058620546 -0.07288237 0.07152444 -0.047827974 0.061951507 0.13614674 0.12713096 -0.080135606
0.104125895 0.05871169 0.08067832 -0.10591247 -0.1875429 -0.08248204 -0.15875252 0.16102362
0.027908428 0.046023756 0.04739634 -0.011669117 0.12321263 -0.1187315 0.055202313 -0.091573365
0.019318353 -0.0973072 0.0681374 -0.056392126 0.14675489 -0.1332837 -0.075108424 -0.15239775
0.18807742 0.018281752 0.20643806 -0.13016644 -0.15344526 -0.17751399 -0.09529163 0.09698828
0.040909246 0.17776069 -0.09811024 -0.13720998 0.13880974 -0.07980525 0.084857784 -0.04307179
0.10339737 -0.17405877 -0.07185393 0.098636046 0.034281034 -0.05498948 0.092868835 0.13967744
-0.18727565 -0.09384154 0.188503 -0.031425472 -0.061827973 -0.14648597 -0.0810812 0.06428093
-0.006131108 -0.13271292 -0.05025424 -0.119445086 -0.13365763 -0.06901013 -0.1495975 -0.11141118
0.16738325 0.042563822 0.096540384 -0.14563216 -0.091212556 -0.057170127 0.04260408 -0.17219648
-0.049090598 -0.098870575 0.021857157 -0.07091993 -0.040269233 -0.15452516 -0.12031157 -0.09252702
-0.069675826 -0.21835013 0.14547631 -0.05012981 0.13510683 0.09233413 -0.17541577 0.104567334
-0.066780634 -0.045307215 -0.1600079 -0.15208298 0.09772518 -0.075699076 0.046527542 -0.19480038
0.1682353 -0.082424365 -0.0076237237 -0.004188756 0.07088187 0.1273993 0.19804096 -0.12688507
0.06767125 -0.0966513 -0.040125553 -0.15603472 0.20337746 -0.14408445 0.06365822 0.046588864
0.087796815 -0.09211745 0.16886179 -0.038686212 0.02524101 -0.17313278 0.12344759 -0.07500759
-0.07509741 0.1589775 0.04917638 -0.0881609 -0.07451907 -0.027966077 0.096427806 -0.034625646
-0.084931284 -0.045917064 -0.115604006 0.00817595 0.14616276 -0.17197074 0.05963345 0.13550828
-0.034731053 -0.11390698 0.12726423 0.07116099 0.04743071 -0.038662225 -0.05534735 0.009422915
-0.016758228 -0.11053996 0.14392757 0.10722893 0.020566393 -0.0976549 0.044973176 -0.024470543
-0.013051615 0.08744839 -0.16205765 -0.060671203 0.12351131 0.082963884 -0.058300205 -0.09942897
-0.09072917 -0.18064222 -0.05131913 0.08122057 0.041868266 0.06714151 -0.16393833 -0.06378123
-0.04468674 0.13871461 0.03467374 -0.08141078 0.078153625 -0.052558906 -0.12791467 0.2082938
-0.053288773 -0.026280748 -0.22066884 0.12397236 0.13701935 0.07289352 -0.15090643 -0.18338905
-0.12470613 0.12547937 0.055022337 0.1608609 0.11464919 0.06499402 0.018302336 -0.14904135
-0.16904104 -0.2002135 0.09282051 -0.096784376 0.007951257 -0.12418302 -0.01981322 -0.13577183
-0.105347775 0.040217098 -0.0018604135 0.11166725 -0.08627914 -0.13863866 -0.05407522 -0.089779735
-0.005677139 -0.19888741 0.14659277 -0.09714058 -0.0032903499 0.11555996 0.103750356 -0.14711194
0.117362574 -0.11471928 0.009139698 0.15022336 -0.023889735 -0.020673046 -0.03096735 -0.14399683
0.15440817 -0.24340144 0.1114744 0.12626015 0.16709399 -0.005748374 -0.14977998 0.014868829
0.0347387 -0.17299059 -0.02065873 -0.11284779 0.010349443 -0.08870104 -0.061526883 -0.044208307
00000000: 8c23 1e3e 4de0 04be 95f8 0f3e 019d e3b9
00000010: 8b5c 90bd 18d6 9f3d 5334 803c de97 143e
00000020: 191c 703d 5a43 95bd 687b 923d 44e7 43bd
00000030: ddc0 7d3d 0d6a 0b3e 9e2e 023e 231e a4bd
00000040: f53f d53d ab7b 703d ad3a a53d a3e8 d8bd
00000050: 3f0b 40be 58ec a8bd 0590 22be 60e3 243e
00000060: 37a0 e43c 6883 3c3d aa22 423d d32f 3fbc
00000070: e756 fc3d 8029 f3bd d21b 623d d18a bbbd
00000080: 8641 9e3c ff48 c7bd 9f8b 8b3d 6efb 66bd
00000090: ea46 163e 867b 08be 72d2 99bd 280e 1cbe
000000a0: 5e97 403e 9dc3 953c 8064 533e 5a4a 05be
000000b0: c120 1dbe 3ac6 35be 4228 c3bd cba1 c63d
000000c0: 7490 273d e606 363e 06ee c8bd c680 0cbe
000000d0: 2424 0e3e ef70 a3bd ebc9 ad3d 0c6c 30bd
000000e0: 00c2 d33d 763c 32be 2728 93bd b201 ca3d
000000f0: 456a 0c3d a63c 61bd 0432 be3d 9a07 0f3e
00000100: 30c5 3fbe fe2f c0bd ee06 413e ffb7 00bd
00000110: 543f 7dbd 6b00 16be e60d a6bd b8a5 833d
00000120: 76e7 c8bb e5e5 07be 64d7 4dbd a09f f4bd
00000130: 8cdd 08be 2f55 8dbd 1630 19be 8b2b e4bd
00000140: 8466 2b3e 6757 2e3d f7b6 c53d 9920 15be
00000150: a6cd babd 392b 6abd 9e81 2e3d 4654 30be
00000160: 3913 49bd a87c cabd c80d b33c 783e 91bd
00000170: 5af1 24bd d83b 1ebe ea65 f6bd ce7e bdbd
00000180: 33b2 8ebd 2d97 5fbe bef7 143e ea54 4dbd
00000190: 7259 0a3e ad19 bd3d 31a0 33be 6627 d63d
000001a0: 49c4 88bd 0f94 39bd 1cd9 23be a4bb 1bbe
000001b0: 2424 c83d 1e08 9bbd aa93 3e3d c079 47be
000001c0: e045 2c3e 1bce a8bd 6ed0 f9bb d541 89bb
000001d0: 842a 913d f674 023e 40cb 4a3e 29ee 01be
000001e0: 3997 8a3d 1ef1 c5bd b15a 24bd 91c7 1fbe
000001f0: 2e42 503e e08a 13be 3e5f 823d f7d3 3e3d
00000200: d1ce b33d 13a8 bcbd 1bea 2c3e 6f75 1ebd
00000210: 3cc6 ce3c b849 31be 17d2 fc3d 949d 99bd
00000220: accc 99bd ffca 223e 2c6d 493d b48d b4bd
00000230: 749d 98bd 1d19 e5bc f17b c53d 9fd3 0dbd
00000240: 74f0 adbd 8813 3cbd cbc1 ecbd 6bf4 053c
00000250: b1ab 153e 1919 30be 3442 743d afc2 0a3e
00000260: 2642 0ebd 1048 e9bd 8e51 023e dabc 913d
00000270: b446 423d 485c 1ebd e7b3 62bd 9262 1a3c
00000280: 8d48 89bc c662 e2bd c061 133e d79a db3d
00000290: da7a a83c 4bff c7bd cb35 383d 7376 c8bc
000002a0: 71d6 55bc 2418 b33d 71f2 25be 5e82 78bd
000002b0: 7ff3 fc3d f8e8 a93d 32cc 6ebd 6aa1 cbbd
000002c0: 37d0 b9bd 46fa 38be 0234 52bd f856 a63d
000002d0: 0f7e 2b3d 7d81 893d 73df 27be bc9f 82bd
000002e0: 7109 37bd 340b 0e3e 0d06 0e3d b2ba a6bd
000002f0: 020f a03d 0248 57bd 10fc 02be f84a 553e
00000300: 5445 5abd b94a d7bc 03f7 61be 38e5 fd3d
00000310: cd4e 0c3e 3349 953d 3787 1abe 57ca 3bbe
00000320: ed65 ffbd aa7d 003e 1a5f 613d b8b8 243e
00000330: 32cd ea3d 961b 853d c8ee 953c 4c9e 18be
00000340: 1819 2dbe c504 4dbe ae18 be3d e336 c6bd
00000350: fd45 023c ab53 febd 554f a2bc c507 0bbe
00000360: 93c0 d7bd afba 243d 1ed9 f3ba cdb1 e43d
00000370: 1eb3 b0bd 4bf7 0dbe fa7d 5dbd 70de b7bd
00000380: 4b07 babb 24a9 4bbe 6a1c 163e a4f1 c6bd
00000390: e9a2 57bb b3aa ec3d 117b d43d 83a4 16be
000003a0: ca5b f03d f1f1 eabd acbe 153c 27d4 193e
000003b0: 68b4 c3bc 855a a9bc 3daf fdbc e873 13be
000003c0: 2d1d 1e3e 3a3e 79be b14c e43d 574a 013e
000003d0: b01a 2b3e db5c bcbb ec5f 19be 649c 733c
000003e0: 2b4a 0e3d 7224 31be 7f3c a9bc be1c e7bd
000003f0: b690 293c e4a8 b5bd 9d03 7cbd c513 35bd

a2c_network.actor_mlp.0.bias f4 [256]
0.012938301 -0.047256496 0.019122282 0.059530552 -0.026620181 -0.0853564 0.07808473 -0.04459147
0.032315962 -0.040227517 -0.06460692 -0.09767577 0.025863614 -0.0875208 -0.043034967 -0.010807452
0.05421618 -0.01694811 -0.07830134 -0.074955165 -0.045708574 -0.066737235 -0.020374572 -0.0009034134
-0.09521172 0.02017087 0.00932252 -0.07953405 0.02413006 0.12925394 -0.11326047 0.00038027274
-0.055147905 -0.052872244 0.088762134 0.11862151 -0.021347713 0.040710196 0.0017794283 -0.03252205
-0.017503979 0.0016812045 0.06476467 -0.008236622 0.098218866 0.019393712 0.08031364 -0.038097885
-0.016507095 0.03809675 0.033834472 0.09228324 0.03690395 -0.04873876 -0.022346407 0.060377385
-0.01208148 0.028384527 -0.110560305 -0.011050178 -0.03631991 0.07759078 -0.007773861 -0.070299424
-0.016238417 0.04323811 -0.07384404 -0.08248191 0.025428433 0.011599066 -0.07585633 0.054378193
-0.06497084 -0.061923694 -0.0016218777 -0.061749633 0.035298057 -0.00758295 -0.06718297 -0.07475675
-0.056169227 0.0071409703 0.027466994 -0.041744713 0.093324095 0.06734476 0.0228219 0.07005197
-0.05991177 -0.015516838 0.046395063 0.055452686 0.04553225 0.060739152 -0.060376238 -0.07169685
-0.020458177 -0.11307228 0.009272179 0.08322864 0.07016724 0.082127675 0.01421254 -0.031952247
0.059882853 0.06220353 0.060634058 0.03740984 -0.01623688 -0.07814407 -0.10096227 0.06444038
-0.02244364 0.045042828 -0.015973944 -0.033756603 0.0029642077 0.004539788 -0.016173275 -0.048421513
-0.014392614 -0.06805705 -0.0034859732 -0.04984496 -0.084005795 -0.04053153 -0.10469526 0.11947191
0.023147816 -0.026743101 -0.014501588 0.022147203 0.018950019 -0.04449711 -0.033915807 0.05379632
-0.026421882 -0.003356082 -0.09873654 0.018951705 0.057679117 -0.054730494 -0.0028016644 -0.068431094
0.020942973 -0.07632491 -0.012154909 -0.020203132 -0.08407136 0.0027239362 0.04500461 0.05453368
-0.070342004 -0.13222685 -0.0499513 -0.039788138 0.01575306 0.018053742 -0.035363376 0.009929419
-0.02828096 -0.029026998 -0.050026454 -0.06321657 0.05648123 0.032694466 0.06515073 -0.03006858
-0.0238577 0.09059963 -0.055811252 0.03112598 0.010658083 0.048438463 -0.03692386 0.03610073
-0.023609249 -0.025811763 0.0045637265 -0.07695329 -0.02538008 0.014777861 -0.0011292894 -0.04076584
0.0053551076 -0.0052948403 0.041536007 0.104393035 -0.1196321 0.07074825 -0.09693044 0.047692236
-0.07704045 -0.053376786 0.009389406 0.08110009 -0.035486728 0.06381842 -0.049588393 0.042377025
0.043358676 0.0018771009 -0.062854044 0.047639225 0.0030218537 0.029502682 -0.024193645 0.053569164
-0.016741399 -0.0030453885 -0.03316726 -0.084023595 -0.0638691 0.07888993 0.051788535 -0.039112017
0.027253715 -0.021807764 0.015385436 -0.06310091 0.022083953 -0.07650496 -0.0008623491 0.047094017
0.08525391 0.005064454 0.012806819 -0.016839286 -0.027581885 -0.044884093 -0.008429274 -0.066309825
-0.010233465 -0.04007414 0.013908671 -0.042608425 -0.066916235 -0.0029213615 -0.044866495 -0.042304248
0.057409063 0.10148195 0.026593396 -0.10266011 0.022510242 -0.10552089 -0.010080604 -0.08705122
0.00039992903 0.09583787 0.004106073 0.02034413 -0.025156228 -0.025186796 0.014369901 -0.043392982
00000000: 2bfb 533c 0790 41bd 55a6 9c3c 4fd6 733d
00000010: 9112 dabc 56cf aebd e3ea 9f3d 8ca5 36bd
00000020: be5d 043d 9cc5 24bd a250 84bd 3c0a c8bd
00000030: eedf d33c 1b3e b3bd 6f45 30bd bd11 31bc
00000040: c911 5e3d c3d6 8abc 745c a0bd 1882 99bd
00000050: ea38 3bbd 88ad 88bd 93e8 a6bc 0cd3 6cba
00000060: 5dfe c2bd 613d a53c 7cbd 183c bfe2 a2bd
00000070: 67ac c53c 255b 043e 1bf5 e7bd 585f c739
00000080: c5e2 61bd 9190 58bd ecc8 b53d d6ef f23d
00000090: 66e1 aebc bcbf 263d b53b e93a d735 05bd
000000a0: 8164 8fbc dd5b dc3a 57a3 843d e6f2 06bc
000000b0: f926 c93d 90df 9e3c 7a7b a43d 870c 1cbd
000000c0: e339 87bc 560b 1c3d 0496 0a3d fffe bc3d
000000d0: 9928 173d 4ba2 47bd d00f b7bc 474e 773d
000000e0: 66f1 45bc ab86 e83c 716d e2bd ce0b 35bc
000000f0: 30c4 14bd eae7 9e3d dfbb febb 25f9 8fbd
00000100: 6e06 85bc 721a 313d 8b3b 97bd 47ec a8bd
00000110: 4a4f d03c 020a 3e3c 905a 9bbd abbb 5e3d
00000120: 6f0f 85bd b3a3 7dbd 2f95 d4ba 2fed 7cbd
00000130: b294 103d 657a f8bb 3a97 89bd 111a 99bd
00000140: b411 66bd cdfe e93b 7602 e13c 81fc 2abd
00000150: b420 bf3d 0dec 893d fef4 ba3c 6877 8f3d
00000160: 0b66 75bd 563a 7ebc c008 3e3d 5b22 633d
00000170: 0680 3a3d 9ec9 783d 134d 77bd ccd5 92bd
00000180: e897 a7bc 7192 e7bd 56ea 173c c773 aa3d
00000190: d8b3 8f3d 8e32 a83d b7db 683c 5ce0 02bd
000001a0: b947 753d 21c9 7e3d 6b5b 783d 0f3b 193d
000001b0: 3503 85bc 000a a0bd 4ec5 cebd 51f9 833d
000001c0: b9db b7bc d47e 383d cadb 82bc 5d44 0abd
000001d0: 2743 423b 80c2 943b d17d 84bc a355 46bd
000001e0: 00cf 6bbc 7f61 8bbd ed74 64bb 3b2a 4cbd
000001f0: 3b0b acbd 6404 26bd 786a d6bd b0ad f43d
00000200: 7da0 bd3c 5914 dbbc 1298 6dbc 0d6e b53c
00000210: 123d 9b3c 9a42 36bd 4deb 0abd 8859 5c3d
00000220: b472 d8bc b6f1 5bbb 6236 cabd 9b40 9b3c
00000230: f040 6c3d 152d 60bd 219c 37bb 9a25 8cbd
00000240: 9990 ab3c 3c50 9cbd 6225 47bc 0a81 a5bc
00000250: 9b2d acbd 1184 323b c156 383d b55e 5f3d
00000260: 780f 90bd 7a66 07be bc99 4cbd e3f8 22bd
00000270: 900c 813c 71e5 933c 30d9 10bd 00af 223c
00000280: 79ad e7bc 07ca edbc 8ae8 4cbd b077 81bd
00000290: dd58 673d a2ea 053d bf6d 853d 6252 f6bc
000002a0: 3971 c3bc 4c8c b93d 579a 64bd e9fb fe3c
000002b0: 3d9f 2e3c 6967 463d 793d 17bd 5cde 133d
000002c0: 2f68 c1bc 3173 d3bc 508b 953b b099 9dbd
000002d0: e3e9 cfbc d71e 723c aa04 94ba 15fa 26bd
000002e0: e679 af3b 5780 adbb a921 2a3d 04cc d53d
000002f0: ad01 f5bd 75e4 903d 7783 c6bd ef58 433d
00000300: 62c7 9dbd 9ea1 5abd 06d6 193c ce17 a63d
00000310: 885a 11bd 3bb3 823d 331d 4bbd 8893 2d3d
00000320: de98 313d 0e09 f63a 9fb9 80bd 5921 433d
00000330: 4b0a 463b 9caf f13c c031 c6bc 576b 5b3d
00000340: 4225 89bc 2495 47bb 65da 07bd 9014 acbd
00000350: cdcd 82bd 0b91 a13d 3720 543d ec33 20bd
00000360: 2f43 df3c 32a6 b2bc 3213 7c3c 0d3b 81bd
00000370: 68e9 b43c a2ae 9cbd 450f 62ba a8e5 403d
00000380: 9a99 ae3d b8f3 a53b b1d3 513c 8bf2 89bc
00000390: 68f3 e1bc 62d8 37bd f01a 0abc 72cd 87bd
000003a0: 43aa 27bc c824 24bd 32e1 633c 2c86 2ebd
000003b0: 610b 89bd 5074 3fbb eec5 37bd 3847 2dbd
000003c0: c425 6b3d c5d5 cf3d 65da d93c 773f d2bd
000003d0: 6667 b83c 561b d8bd 1e29 25bc e947 b2bd
000003e0: 91ad d139 a546 c43d 3d8c 863b bca8 a63c
000003f0: 6f14 cebc 8a54 cebc bc6f 6b3c d7bc 31bd

a2c_network.actor_mlp.2.weight f4 [128, 256]
-0.0007526318 -0.031064533 -0.07974362 0.01784138 -0.049926527 -0.064423665 -0.005890904 -0.030404503
-0.0024970893 0.044590026 -0.065471604 0.0050978963 0.04777566 0.043234505 -0.062303875 0.023147985
-0.05972612 0.03537036 0.01160839 0.06510875 -0.05051056 0.005176654 -0.09343998 -0.017128374
-0.0462995 -0.11022302 0.01275291 -0.018969433 -0.11199031 -0.028233942 0.050659522 0.029181892
-0.04036947 0.013519041 -0.0128805535 -0.019778518 -0.033227507 0.05970884 0.025096435 -0.008046355
-0.022275547 -0.078169875 -0.022517892 0.08234665 0.003999217 0.016047414 -0.035509724 -0.019313337
-0.013436765 -0.047920283 -0.1500585 0.055489402 0.072232515 0.09738734 0.0777099 0.028143018
-0.027274458 -0.07513421 -0.016986294 0.055337366 0.028773023 -0.032994892 -0.04319307 0.06565117
0.047928587 -0.019568773 0.001082689 -0.008117992 0.022972485 0.0046937466 -0.087636605 0.01789483
0.1378624 -0.045879915 -0.028830618 0.09314106 -0.021575065 -0.10814084 -0.023608612 0.00976276
-0.028176107 -0.08294726 0.0013452641 0.062816754 -0.037439752 -0.07456924 0.056355286 0.04912829
-0.08393615 -0.099405766 0.025649345 0.046452872 -0.030497137 0.031383555 0.0776989 0.100144915
0.0028417327 0.015676485 0.064369425 -0.030487046 -0.06689995 0.05222261 0.07892019 -0.054458674
-0.01801846 -0.014425407 -0.09409518 0.065592654 0.015995989 -0.02995742 0.003950024 0.1492825
0.083780795 -0.009464581 -0.019049134 -0.08107516 -0.024378074 0.004538312 0.12703583 0.0053143688
0.04036019 -0.0501706 -0.08282995 -0.0015371675 -0.014666615 -0.05082128 0.03365475 -0.015066169
-0.02086265 -0.06581574 -0.008998078 -0.049888868 0.015950542 -0.068627484 -0.087316975 0.08986236
-0.05737608 -0.033796303 0.0077338284 -0.057266213 -0.024122499 -0.037979614 0.004899786 0.015097812
-0.07987842 -0.030567823 0.028110133 0.06861625 -0.03705116 0.019548912 -0.026369438 -0.06926748
0.041556373 0.04037351 -0.05866323 -0.019275686 0.03491183 0.039131716 0.05013665 -0.033895846
-0.05908867 -0.050999552 0.0022698115 0.032959078 -0.08379012 0.059956726 -0.031633936 -0.0048477487
0.0326999 0.033648968 0.023107167 0.05253707 -0.034114674 0.031555507 -0.09532494 0.038867198
0.0014778508 0.077591345 -0.09045251 -0.006026177 -0.059312634 -0.10001655 0.01993667 -0.0048958967
0.010814966 0.025606746 0.03509228 0.08230038 0.09330253 0.0076431464 0.019941306 0.03554905
0.035273418 0.015391689 0.0034562484 -0.05759127 -0.047693186 0.050381016 -0.06733587 -0.015124078
-0.042104896 0.0046297004 -0.005297842 0.0049804514 -0.053138424 0.028471982 -0.09946329 -0.02357412
-0.10516602 -0.037946347 -0.028320672 0.030084737 0.03606975 -0.043608963 0.051674448 0.02189164
0.0026162863 0.009733709 -0.054185655 -0.032611903 0.03861827 -0.05318197 0.020265495 -0.04101707
-0.013430265 -0.058706284 -0.006548614 -0.021941407 0.032974813 0.007335828 -0.031141551 0.03508289
0.024885245 -0.0027975382 0.00022906436 -0.075722784 -0.06555363 -0.020214349 0.015782444 0.050011903
-0.0052818763 -0.06372193 0.05130642 -0.007817944 0.07454366 -0.011863794 -0.010675189 -0.01135385
0.041118935 0.019357372 0.07151605 0.015653 0.03400381 0.03676592 -0.11513705 -0.043457236
00000000: 444c 45ba 0c7b febc 9f50 a3bd 1628 923c
00000010: c27f 4cbd 8ef0 83bd 7c08 c1bb dd12 f9bc
00000020: 35a6 23bb 08a4 363d fa15 86bd 410c a73b
00000030: 69b0 433d aa16 313d 5932 7fbd d8a0 bd3c
00000040: 60a3 74bd 83e0 103d 1e31 3e3c bc57 853d
00000050: 29e4 4ebd eca0 a93b 765d bfbd ce50 8cbc
00000060: 8ba4 3dbd 9bbc e1bd 95f1 503c c965 9bbc
00000070: 2d5b e5bd de4a e7bc 5c80 4f3d dd0e ef3c
00000080: 755a 25bd f87e 5d3c f508 53bc 8f06 a2bc
00000090: 9119 08bd 4291 743d 0a97 cd3c dcd4 03bc
000000a0: 357b b6bc 8717 a0bd 7177 b8bc 5ca5 a83d
000000b0: dd0b 833b de75 833c a572 11bd 0137 9ebc
000000c0: e125 5cbc 0f48 44bd efa8 19be db48 633d
000000d0: a4ee 933d 0473 c73d 5e26 9f3d 308c e63c
000000e0: af6e dfbc f7df 99bd d726 8bbc 6fa9 623d
000000f0: 67b5 eb3c a725 07bd 37eb 30bd 1f74 863d
00000100: c450 443d b14e a0bc 04e9 8d3a 5401 05bc
00000110: cb30 bc3c 00ce 993b d27a b3bd 2e98 923c
00000120: cd2b 0d3e 94ec 3bbd 302e ecbc bdc0 be3d
00000130: 31be b0bc f278 ddbd d966 c1bc fcf3 1f3c
00000140: 94d1 e6bc 41e0 a9bd 9353 b03a 12a6 803d
00000150: 6d5a 19bd c2b7 98bd cdd4 663d bf3a 493d
00000160: b7e6 abbd 4095 cbbd 931e d23c 5e45 3e3d
00000170: 22d5 f9bc 0b8c 003d 9a20 9f3d c718 cd3d
00000180: 5d3c 3a3b f96b 803c 1ed4 833d f8bf f9bc
00000190: d702 89bd 60e7 553d e9a0 a13d 0f10 5fbd
000001a0: 739b 93bc 8b58 6cbc f9b4 c0bd 7155 863d
000001b0: 050a 833c 4369 f5bc 346f 813b 83dd 183e
000001c0: 4495 ab3d 5411 1bbc ee0c 9cbc bc0a a6bd
000001d0: 87b4 c7bc 1fb6 943b ae15 023e 2824 ae3b
000001e0: ba50 253d b07f 4dbd c0a2 a9bd c87a c9ba
000001f0: 3e4c 70bc f929 50bd 90d9 093d 18d8 76bc
00000200: 26e8 aabc 67ca 86bd ad6c 13bc 4558 4cbd
00000210: b6aa 823c 918c 8cbd 3ed3 b2bd c209 b83d
00000220: 2e03 6bbd fe6d 0abd 0e6c fd3b fa8f 6abd
00000230: 8c9c c5bc 8390 1bbd 628e a03b d05c 773c
00000240: 4c97 a3bd 5f69 fabc 3947 e63c ad86 8c3d
00000250: f5c2 17bd 0a25 a03c b804 d8bc 1cdc 8dbd
00000260: 0437 2a3d b25e 253d db48 70bd 0be8 9dbc
00000270: b5ff 0e3d 9448 203d 175c 4d3d 5fd6 0abd
00000280: f606 72bd e8e4 50bd 1ec1 143b 1900 073d
00000290: 289a abbd 2f95 753d 9692 01bd ddd9 9ebb
000002a0: 55f0 053d 80d3 093d 3e4b bd3c 1c31 573d
000002b0: d4bb 0bbd 5940 013d b939 c3bd 3633 1f3d
000002c0: 72b4 c13a 36e8 9e3d 2a3f b9bd 3d77 c5bb
000002d0: cef1 72bd 7ad5 ccbd 3a52 a33c c26d a0bb
000002e0: 4131 313c 3dc5 d13c ecbc 0f3d 1a8d a83d
000002f0: 6615 bf3d 5c73 fa3b f35b a33c e19b 113d
00000300: dc7a 103d 6c2d 7c3c 3a82 623b d3e4 6bbd
00000310: ee59 43bd 535c 4e3d 63e7 89bd fbca 77bc
00000320: 2f76 2cbd beb4 973b 8599 adbb 0e33 a33b
00000330: ada7 59bd 133e e93c 69b3 cbbd 831e c1bc
00000340: 4861 d7bd a16d 1bbd c100 e8bc 4474 f63c
00000350: e0bd 133d 509f 32bd 96a8 533d 1956 b33c
00000360: 0076 2b3b 227a 1f3c c7f1 5dbd 0f94 05bd
00000370: 312e 1e3d 56d5 59bd d303 a63c 8401 28bd
00000380: 9d0a 5cbc 0076 70bd c195 d6bb 77be b3bc
00000390: 9910 073d 6361 f03b 911c ffbc 14b3 0f3d
000003a0: 24dc cb3c e756 37bb ff30 7039 8c14 9bbd
000003b0: fb40 86bd 9098 a5bc 2f4a 813c 48d9 4c3d
000003c0: 9713 adbb a580 82bd ae26 523d d516 00bc
000003d0: 59aa 983d 5c60 42bc fde6 2ebc 8005 3abc
000003e0: 546c 283d 5a93 9e3c 0277 923d b83a 803c
000003f0: 9447 0b3d dd97 163d f9cc ebbd 3700 32bd

a2c_network.actor_mlp.2.bias f4 [128]
-0.025358446 0.027918553 0.01099029 -0.0038559202 -0.014846553 0.05137436 -0.110560805 0.03146518
0.039589196 0.040694576 0.066772126 -0.05009352 -0.10045901 0.07292295 -0.05141618 0.010582508
-0.0216487 0.10350218 0.03934897 -0.03610396 -0.008120308 0.030791717 0.009843398 0.0317237
-0.024912989 0.09260153 -0.009761638 0.010879822 0.060644444 -0.010695584 -0.014080142 -0.045152377
-0.016047282 0.012287027 -0.037416935 -0.030643398 0.006709933 0.015416715 -0.12508509 -0.012240391
0.04104417 0.0040740916 -0.059561975 0.010107934 -0.010683436 0.0021399893 0.03139767 -0.06529371
-0.0014285791 -0.093832694 -0.035393506 -0.11400512 -0.035177365 -0.07160183 -0.02663384 0.0040479335
-0.030876942 -0.0012794515 0.040533848 0.047084507 -0.06434614 -0.0096634915 -0.004851148 -0.04031317
0.07082141 0.07533653 0.063771404 0.011207746 0.03959708 -0.08912448 -0.05950666 0.0071080704
0.009494186 0.04717764 -0.05452928 0.015645668 -0.06145679 0.01363266 -0.01749517 0.027765762
0.050179455 -0.0014105684 0.051046573 -0.015075278 0.020852074 -0.058521535 -0.10928586 0.0055220667
0.037550293 0.0630042 -0.0174105 0.026579829 -0.02982148 -0.066332065 -0.040738694 -0.07945787
0.017805992 -0.042128783 0.0065447446 -0.056141645 -0.01889235 -0.0053972253 -0.06087752 -0.04963392
0.007674835 0.098444186 0.06162243 -0.026340812 -0.07435003 -0.034746554 -0.050767135 0.019101763
0.081525005 -0.119351 0.030688217 -0.040639162 -0.019654078 0.030566754 -0.05344243 -0.010347436
0.0019468962 0.028210312 -0.028600702 0.06305128 -0.0214832 -0.0015628211 -0.056151915 0.049276866
00000000: 84bc cfbc 73b5 e43c 9e10 343c 9bb3 7cbb
00000010: f53e 73bc ec6d 523d b46d e2bd a2e1 003d
00000020: 4828 223d 5baf 263d d3bf 883d dd2e 4dbd
00000030: 74bd cdbd a158 953d c699 52bd 4162 2d3c
00000040: 9d58 b1bc f3f8 d33d 632c 213d bfe1 13bd
00000050: 0a0b 05bc e93e fc3c 3446 213c b6f0 013d
00000060: 5316 ccbc dfa5 bd3d 47ef 1fbc 4841 323c
00000070: 4f66 783d 883c 2fbc 65b0 66bc b3f1 38bd
00000080: 9775 83bc 874f 493c 8042 19bd dd07 fbbc
00000090: ffde db3b 6496 7c3c 4e16 00be ec8b 48bc
000000a0: ee1d 283d f57f 853b 42f7 73bd bf9b 253c
000000b0: 9409 2fbc 103f 0c3b d89a 003d b5b8 85bd
000000c0: 293f bbba 5b2b c0bd c8f8 10bd 847b e9bd
000000d0: 2416 10bd fba3 92bd 362f dabc 87a4 843b
000000e0: a4f1 fcbc 45b3 a7ba d206 263d afdb 403d
000000f0: e9c7 83bd 9f53 1ebc 61f6 9ebb 6c1f 25bd
00000100: d10a 913d 0a4a 9a3d 959a 823d b2a0 373c
00000110: 8c30 223d e586 b6bd 41bd 73bd d1ea e83b
00000120: 818d 1b3c 573d 413d 185a 5fbd 582b 803c
00000130: 1dba 7bbd 855b 5f3c 0852 8fbc 0675 e33c
00000140: f988 4d3d d2e2 b8ba 3616 513d 4cfe 76bc
00000150: f8d1 aa3c 47b4 6fbd 44d1 dfbd 74f2 b43b
00000160: 56ce 193d 5908 813d 77a0 8ebc f1bd d93c
00000170: 2d4c f4bc 1bd9 87bd 9edd 26bd cfba a2bd
00000180: dfdd 913c 3b8f 2cbd 4c75 d63b c8f4 65bd
00000190: 21c4 9abc 35db b0bb b55a 79bd f04c 4bbd
000001a0: 2f7d fb3b 1b9d c93d cd67 7c3d b0c8 d7bc
000001b0: d444 98bd 6752 0ebd 33f1 4fbd 4d7b 9c3c
000001c0: 95f6 a63d 4c6e f4bd db65 fb3c 4075 26bd
000001d0: 9701 a1bc 2167 fa3c 73e6 5abd 4b88 29bc
000001e0: ff2e ff3a 5019 e73c 054c eabc 0821 813d
000001f0: 89fd afbc 93d7 ccba 8dff 65bd 8ad6 493d

a2c_network.actor_mlp.4.weight f4 [64, 128]
-0.07744366 -0.018100344 0.098936975 -0.03296193 -0.042556446 0.062066667 0.073267624 -0.049048524
-0.10092628 0.05605579 0.08862376 0.04765646 -0.020107908 0.12069319 0.0016642753 -0.01191411
0.02589838 -0.022467693 -0.08016867 0.027260272 0.012651881 0.03273082 -0.09214417 -0.06355462
0.021560218 0.028686462 0.03886425 0.022112839 -0.032543004 0.07759305 -0.021159735 -0.104745425
0.039098796 -0.022731533 -0.025041992 -0.05368383 -0.09714851 -0.07353296 -0.08173763 -0.05707407
-0.091982305 -0.0029505154 0.05362398 0.060443215 -0.11921736 -0.03643788 -0.052493475 -0.05756001
0.019189281 -0.10665547 -0.03130378 -0.08825968 -0.043846358 -0.045093715 0.015839256 0.032574173
-0.047540434 -0.05723574 -0.119666465 0.06330376 0.04442928 0.010008705 -0.1041629 0.054766998
-0.0428046 -0.04723424 0.034608096 0.06992806 -0.02178055 0.015078949 -0.049569868 -0.09877236
-0.052939538 0.025072424 -0.010661441 -0.039778296 0.011015313 -0.083302796 0.017860627 -0.069009766
0.038456257 0.0172887 -0.03735818 0.07887516 -0.0861037 0.027263742 -0.07701866 -0.010687524
-0.009291712 0.06368402 -0.11836247 0.059883464 -0.08776981 -0.0649408 -0.039949782 -0.031909067
-0.08357544 0.010406853 -0.0044171675 0.00020052578 -0.009441591 0.026464207 0.021868072 0.079727955
0.03922674 0.044420153 -0.046109326 0.014770704 -0.016002094 0.074286446 0.012227299 -0.053429138
-0.0053611463 0.020607267 0.08610708 0.01887674 0.0031666898 -0.012088875 -0.079888515 0.0023383666
0.022620028 0.055792205 -0.017471418 0.022797925 -0.026987487 -0.032619502 -0.11322136 -0.03179202
0.08663236 0.0035337445 0.023429642 0.004533837 0.021355296 0.04451093 -0.014881117 -0.050644156
-0.045482077 -0.083218396 0.04277775 0.01082447 -0.0888363 0.032736998 0.019278428 -0.023738239
-0.0137559725 -0.06621396 -0.04552342 0.020775633 -0.0012675736 0.05389305 -0.021801487 -0.0103511615
-0.007582186 -0.04296385 0.037039246 -0.042449594 -0.068309896 -0.008801405 0.05394856 0.006516481
-0.0070492653 0.024791257 0.015939193 0.011632471 0.083672754 0.047680847 -0.025867486 0.055376828
0.08354405 0.03325137 -0.09728291 0.0024019026 -0.04870794 -0.05346795 -0.08844624 0.02882136
-0.062076095 0.020746557 -0.023281828 0.02127738 -0.046321385 0.075682476 0.09949501 -0.047548156
0.065929286 -0.08129832 0.000246371 -0.042250138 0.088361956 -0.014191305 -0.05522854 0.031133339
-0.05622197 -0.04104556 0.030321863 0.049065426 0.0806462 0.00525986 0.06842619 0.04159966
0.050588347 0.073529184 0.0034307085 0.049915403 0.032635584 0.015080418 -0.022259781 -0.048450556
0.05675506 -0.08728464 -0.09035398 0.018790865 -0.027344655 0.030347563 -0.009715455 -0.031012814
0.04907413 0.014237271 -0.09996687 0.08242358 -0.085160755 -0.022924246 0.05702292 0.046066515
0.07191576 -0.033735465 -0.05950527 -0.04816755 0.055380393 0.071887076 0.021903126 0.020255756
0.043484837 0.053096913 -0.102783345 -0.03954531 -0.09264339 -0.07816644 0.053623613 0.068331845
-0.039162967 0.0058111087 -0.018042184 -0.054969326 0.056100167 -0.009826663 0.015372426 0.10254656
0.041623708 -0.0025231661 0.016825633 -0.04426949 0.10163467 -0.03442993 0.08215108 -0.10052031
00000000: c89a 9ebd 2c47 94bc 789f ca3d 1703 07bd
00000010: ab4f 2ebd 9e39 7e3d 560d 963d 1be7 48bd
00000020: 70b2 cebd c29a 653d 6080 b53d 6c33 433d
00000030: 57b9 a4bc fe2d f73d d023 da3a 6633 43bc
00000040: d728 d43c 2b0e b8bc 792f a4bd ef50 df3c
00000050: d649 4f3c c110 063d 15b6 bcbd ed28 82bd
00000060: 0e9f b03c dfff ea3c 1f30 1f3d fc25 b53c
00000070: d04b 05bd 1be9 9e3d 2e57 adbc c584 d6bd
00000080: 0f26 203d 7b37 babc dd24 cdbc 93e3 5bbd
00000090: ccf5 c6bd 7398 96bd 0f66 a7bd 80c6 69bd
000000a0: 3861 bcbd 6f5d 41bb d2a4 5b3d 4e93 773d
000000b0: 3b28 f4bd e33f 15bd 6603 57bd 0cc4 6bbd
000000c0: d732 9d3c 2f6e dabd 6438 00bd 7ec1 b4bd
000000d0: 3d98 33bd 30b4 38bd 54c1 813c 7f6c 053d
000000e0: c2b9 42bd 0670 6abd b113 f5bd 67a5 813d
000000f0: 7afb 353d 8dfb 233c 5c53 d5bd 5c53 603d
00000100: e053 2fbd b178 41bd 38c1 0d3d 7136 8f3d
00000110: 206d b2bc b20d 773c c609 4bbd 2a49 cabd
00000120: 21d7 58bd af64 cd3c 53ad 2ebc 91ee 22bd
00000130: 9279 343c a89a aabd 7350 923c fe54 8dbd
00000140: 4f84 1d3d 08a1 8d3c e404 19bd 4d89 a13d
00000150: 2357 b0bd 3658 df3c f6bb 9dbd ba1a 2fbc
00000160: 443c 18bc c46c 823d 0668 f2bd 5d48 753d
00000170: a8c0 b3bd afff 84bd 62a2 23bd 15b3 02bd
00000180: 9a29 abbd 8181 2a3c e3bd 90bb 3b44 5239
00000190: e7b0 1abc 77cb d83c ac24 b33c 6948 a33d
000001a0: 38ac 203d e8f1 353d 22dd 3cbd d300 723c
000001b0: d316 83bc 7e23 983d 0255 483c 83d8 5abd
000001c0: 8eac afbb 92d0 a83c e958 b03d 65a3 9a3c
000001d0: 3d88 4f3b 6b10 46bc 979c a3bd 483f 193b
000001e0: a34d b93c 5e86 643d 3820 8fbc b7c2 ba3c
000001f0: dd14 ddbc 079c 05bd 9ae0 e7bd 5938 02bd
00000200: 4f6c b13d 6596 673b 85ef bf3c 9590 943b
00000210: 4df1 ae3c 1851 363d eecf 73bc 3f70 4fbd
00000220: 6a4b 3abd 686e aabd b937 2f3d 1e59 313c
00000230: ceef b5bd 3b17 063d cbed 9d3c b276 c2bc
00000240: bb60 61bc 2f9b 87bd c476 3abd a931 aa3c
00000250: b624 a6ba f5be 5c3d 0899 b2bc eb97 29bc
00000260: fc73 f8bb ddfa 2fbd 77b6 173d a0df 2dbd
00000270: 0fe6 8bbd c533 10bc 2af9 5c3d 3488 d53b
00000280: 86fd e6bb 0917 cb3c e992 823c 1f96 3e3c
00000290: 9f5c ab3d fe4c 433d 0de8 d3bc d0d2 623d
000002a0: 2519 ab3d 9732 083d 433c c7bd 3d69 1d3b
000002b0: fa81 47bd 3601 5bbd 4d23 b5bd c61a ec3c
000002c0: 8143 7ebd aff4 a93c 88b9 bebc e64d ae3c
000002d0: 7ebb 3dbd 6aff 9a3d 0ac4 cb3d dbc1 42bd
000002e0: ef05 873d bc7f a6bd 5b2b 8139 7b0e 2dbd
000002f0: 1df7 b43d a682 68bc 5237 62bd 580b ff3c
00000300: 0249 66bd 641f 28bd 8e65 f83c d4f8 483d
00000310: d629 a53d e75a ac3b 0823 8c3d 6864 2a3d
00000320: ba35 4f3d 7896 963d bdd5 603b 1874 4c3d
00000330: e4ac 053d dc13 773c 255a b6bc 1774 46bd
00000340: fe77 683d 4ac2 b2bd 820b b9bd 4def 993c
00000350: e601 e0bc 749b f83c 922d 1fbc 960e febc
00000360: f401 493d 7143 693c 6ebb ccbd b2cd a83d
00000370: c368 aebd a1cb bbbc de90 693d 3eb0 3c3d
00000380: 9248 933d 332e 0abd ccbb 73bd 564b 45bd
00000390: 8dd6 623d 8839 933d 2f6e b33c 66ef a53c
000003a0: 281d 323d 267c 593d 1380 d2bd 43fa 21bd
000003b0: d1bb bdbd ba15 a0bd 6fa4 5b3d 91f1 8b3d
000003c0: 5969 20bd 1d6b be3b 34cd 93bc 8427 61bd
000003d0: 4ac9 653d 0300 21bc a1dc 7b3c ee03 d23d
000003e0: 9f7d 2a3d b45b 25bb e9d5 893c ed53 35bd
000003f0: d625 d03d 6606 0dbd d33e a83d 98dd cdbd

a2c_network.actor_mlp.4.bias f4 [64]
0.07431408 0.023960885 -0.059993576 0.022075767 0.070243016 0.067434765 -0.10005719 -0.07920841
-0.00040664515 0.06719787 0.06395876 0.005948534 0.04193573 -0.09823096 -0.04026551 -0.06055055
0.028953854 -0.054175217 0.018894399 0.09154571 -0.07722744 0.06072952 -0.059212554 0.06531381
0.0340863 0.068731 0.041389637 0.06287563 0.06118572 0.05458072 -0.025197322 -0.04953079
-0.09159062 -0.0012470288 0.03314436 0.07433756 -0.0017998973 -0.04133493 0.057950057 0.049266588
0.02180665 0.08282245 -0.061694045 0.03398064 -0.09210604 -0.047359318 -0.026372358 -0.059701126
0.026648534 0.027721347 0.055563536 0.011723782 0.028170263 -0.02666473 -0.03918868 -0.0908942
-0.035103332 0.042676624 0.017230898 -0.09946097 0.06316767 0.03195045 0.080570064 -0.09415985
00000000: fb31 983d 9e49 c43c d3bb 75bd 3dd8 b43c
00000010: 92db 8f3d 3d1b 8a3d c9ea ccbd 0538 a2bd
00000020: fd32 d5b9 099f 893d cffc 823d ebeb c23b
00000030: cdc4 2b3d 502d c9bd 73ed 24bd db03 78bd
00000040: a230 ed3c d5e6 5dbd 6dc8 9a3c 517c bb3d
00000050: 6c29 9ebd 84bf 783d dd88 72bd 3fc3 853d
00000060: 139e 0b3d d7c2 8c3d 2e88 293d f0c4 803d
00000070: e19d 7a3d 0890 5f3d 9d6a cebc cce0 4abd
00000080: dd93 bbbd 5873 a3ba 61c2 073d 4a3e 983d
00000090: 88ea ebba d14e 29bd 0a5d 6d3d c3cb 493d
000000a0: dca3 b23c d19e a93d e5b2 7cbd 492f 0b3d
000000b0: 17a2 bcbd d8fb 41bd d80a d8bc 2b89 74bd
000000c0: 074e da3c e117 e33c 9796 633d 1b15 403c
000000d0: 53c5 e63c fe6f dabc 4f84 20bd bd26 babd
000000e0: 83c8 0fbd afcd 2e3d d027 8d3c 31b2 cbbd
000000f0: 0d5e 813d 7ade 023d eb01 a53d e1d6 c0bd

a2c_network.value.weight f4 [1, 64]
0.038955502 0.0132778315 -0.07363384 -0.011956071 0.046345875 0.09749702 -0.08625728 -0.1187271
-0.006578633 0.047255393 0.012934317 0.0037022033 0.030231237 -0.06729629 -0.03295465 -0.014907894
0.05653361 -0.059849136 0.042079847 0.11175838 -0.09057932 0.062009495 -0.102507696 0.09709835
-0.0124458 0.08416851 0.086484514 0.02594658 0.08903953 0.03692004 -0.026103465 -0.013546247
-0.015860744 0.0053500384 0.027720988 0.028702866 0.01759693 -0.007890687 0.095427014 0.07366863
0.02940202 0.078622356 -0.0641813 0.048538834 -0.04692584 -0.08014924 -0.013904608 0.010248603
0.001259441 0.030423788 0.05486269 0.0001738265 0.04537996 -0.0037614678 -0.0063170525 -0.07576485
-0.017215727 0.01945408 0.028188072 -0.064230025 0.0378842 0.016304642 0.06497857 -0.12391889
00000000: ce8f 1f3d 438b 593c 57cd 96bd 65e3 43bc
00000010: 2cd5 3d3d 85ac c73d a8a7 b0bd 3227 f3bd
00000020: 9391 d7bb df8e 413d 75ea 533c aaa0 723b
00000030: 80a7 f73c a3d2 89bd 75fb 06bd 3d40 74bc
00000040: c98f 673d 5e24 75bd eb5b 2c3d 94e1 e43d
00000050: a781 b9bd abfd 7d3d 8eef d1bd 80db c63d
00000060: 78e9 4bbc 8a60 ac3d cb1e b13d ec8d d43c
00000070: 5b5a b63d 7839 173d efd6 d5bc 14f1 5dbc
00000080: 64ee 81bc 604f af3b 2017 e33c 4622 eb3c
00000090: 7027 903c f147 01bc 3d6f c33d 94df 963d
000000a0: 81dc f03c c204 a13d 7c71 83bd a8d0 463d
000000b0: 4f35 40bd 4925 a4bd 27d0 63bc c2e9 273c
000000c0: d413 a53a 4f3b f93c b3b7 603d 3245 3639
000000d0: 56e0 393d f582 76bb 47ff cebb 9a2a 9bbd
000000e0: ff07 8dbc 2a5e 9f3c acea e63c 088b 83bd
000000f0: 772c 1b3d 5091 853c 7c13 853d 30c9 fdbd

a2c_network.mu.weight f4 [6, 64]
-0.023294812 0.0038793457 0.026547225 -0.10966077 -0.04848327 0.035028238 0.09603619 0.06577913
-0.11495115 -0.047690812 -0.07492897 0.14230756 -0.07921941 -0.009624943 0.085396685 0.07286592
0.09274068 0.093954556 0.06950118 0.10109855 0.09094154 0.015000506 -0.13355267 0.13213974
-0.09003678 -0.106119744 0.09476603 -0.11683775 0.028677126 0.027120061 -0.03296342 0.10895038
0.011779406 -0.10992468 -0.02863555 -0.051098928 -0.045275684 -0.06446637 -0.09108466 -0.1181639
0.06579665 -0.15990041 -0.047204383 0.038768306 0.11194288 0.09725373 -0.043409746 0.09347978
-0.10438528 -0.024601733 -0.012027526 0.012969736 0.03217569 0.008538869 0.10542861 -0.009515503
-0.098777 0.07894172 0.0909833 0.027256059 0.0600862 -0.08446454 -0.107023574 0.10628595
-0.11729094 0.030302273 0.034789152 0.03806454 -0.04240534 -0.045862418 -0.037907105 -0.06255892
-0.12303216 0.12224881 -0.05267059 0.010569548 -0.06736004 0.04659491 -0.03277207 -0.082793005
0.0060367035 -0.039334476 -0.11895973 0.0910682 -0.13319518 -0.019350529 0.08291344 -0.0019076639
0.052300736 -0.0044622654 0.030348958 0.004608528 -0.050511926 -0.08565709 -0.14944367 -0.033645295
-0.053184714 0.061739862 -0.0047208015 -0.06835025 -0.064565 0.019700566 -0.059595603 -0.035133183
-0.00670111 -0.017536867 -0.017539838 -0.10165107 0.07023314 -0.0018581302 0.067828245 0.06696318
0.049984053 0.09703198 -0.09152034 0.07239805 -0.07265281 -0.06970423 -0.0564786 0.020641334
0.029411938 -0.076136254 0.108275 0.08395223 0.015689552 -0.05979117 0.11034959 -0.11221434
-0.1378355 0.005594016 0.012876463 0.13753733 -0.026554523 0.09433192 0.112156965 0.10493255
0.08225153 0.011426187 -0.053308655 0.0027484403 -0.09423067 -0.01065932 0.11569085 0.09950371
0.10934709 0.09277098 0.034808353 0.008396289 0.046501447 -0.15568435 -0.106928006 -0.01211261
-0.023931067 -0.117491454 -0.08704148 -0.05233163 0.01689746 -0.05256725 0.061001863 -0.00031715745
0.06754915 0.08432404 0.0019337316 -0.024530925 0.020064378 0.03723357 0.025401283 -0.039150696
0.026633022 -0.11921617 0.078172535 0.03144008 0.10819131 -0.12836203 0.044306766 0.09933808
-0.04358014 -0.0033651427 0.017292608 0.108717196 0.05638947 -0.027253706 -0.16417706 0.02386624
0.08740972 0.111775994 0.15811867 -0.062452782 -0.106406786 0.089270204 -0.07362034 0.108220935
0.04722829 -0.035137687 0.044663083 0.13454613 0.021200582 0.070422284 0.012274585 0.064306185
0.14749172 -0.021227788 0.13479969 0.08271992 0.00951981 -0.092460416 0.08171284 0.0041459603
-0.0553152 0.08194823 -0.0781066 0.15461215 -0.026102338 0.031750992 0.011093447 0.039584454
0.1384848 0.038460128 -0.07647938 0.12233411 0.066988245 0.103487544 0.009067197 0.005029004
0.016253646 0.029220823 0.0720208 0.18546203 -0.08761881 -0.14436735 0.018799057 -0.011809709
-0.037349507 0.06016323 0.10299572 0.047555324 -0.04486186 0.08949797 -0.029196719 -0.1375088
-0.034417782 -0.08105704 0.03852334 0.14015411 0.028326022 -0.026077302 0.00017243286 -0.009156701
-0.094670944 0.13580379 0.010043174 -0.11550045 0.05086415 0.12429671 0.061998975 -0.008302812
00000000: c3d4 bebc 9f3c 7e3b 9179 d93c d395 e0bd
00000010: 6596 46bd c579 0f3d 9fae c43d 35b7 863d
00000020: 826b ebbd 7157 43bd 5c74 99bd 13b9 113e
00000030: c93d a2bd f0b1 1dbc 75e4 ae3d ba3a 953d
00000040: d3ee bd3d 3f6b c03d a256 8e3d c20c cf3d
00000050: 8f3f ba3d afc4 753c 08c2 08be a44f 073e
00000060: 3465 b8bd 4f55 d9bd b114 c23d a148 efbd
00000070: 4bec ea3c e42a de3c a704 07bd 6021 df3d
00000080: 69fe 403c 3120 e1bd 1a95 eabc 1c4d 51bd
00000090: ff72 39bd f206 84bd 988a babd eaff f1bd
000000a0: 65c0 863d efbc 23be 6259 41bd 84cb 1e3d
000000b0: 4f42 e53d f72c c73d 6bce 31bd 5472 bf3d
000000c0: f3c7 d5bd 9389 c9bc 1a0f 45bc 047f 543c
000000d0: a8ca 033d 9de6 0b3c f5ea d73d eae6 1bbc
000000e0: 994b cabd 32ac a13d 7455 ba3d 1948 df3c
000000f0: f21c 763d bffb acbd 2d2f dbbd 73ac d93d
00000100: 3b36 f0bd 793c f83c 127f 0e3d 90e9 1b3d
00000110: 39b1 2dbd 3bda 3bbd 7b44 1bbd e41e 80bd
00000120: 49f8 fbbd 965d fa3d 1ebd 57bd e62b 2d3c
00000130: 10f4 89bd 4eda 3e3d 023c 06bd 618f a9bd
00000140: 8acf c53b 301d 21bd 29a1 f3bd f781 ba3d
00000150: 5164 08be 0085 9ebc 86ce a93d 940a faba
00000160: 4c39 563d 3238 92bb 619e f83c 2303 973b
00000170: 98e5 4ebd fc6c afbd c307 19be a6cf 09bd
00000180: 37d8 59bd f0e2 7c3d f4b0 9abb 37fb 8bbd
00000190: a83a 84bd 1563 a13c 851a 74bd d0e7 0fbd
000001a0: fc94 dbbb 7aa9 8fbc b5af 8fbc 702e d0bd
000001b0: 64d6 8f3d 818c f3ba 89e9 8a3d fe23 893d
000001c0: 14bc 4c3d b4b8 c63d 046f bbbd 6e45 943d
000001d0: ffca 94bd 17c1 8ebd 1b56 67bd 0418 a93c
000001e0: 4ef1 f03c 53ed 9bbd 48bf dd3d 26ef ab3d
000001f0: 6087 803c 96e7 74bd f7fe e13d a2d0 e5bd
00000200: c024 0dbe 024e b73b cdf7 523c 96d6 0c3e
00000210: df88 d9bc 1831 c13d 8db2 e53d e0e6 d63d
00000220: 7d73 a83d e734 3b3c 2d5a 5abd 2d1f 343b
00000230: 02fc c0bd 6ea4 2ebc 53ef ec3d 9ac8 cb3d
00000240: 5ef1 df3d b6fe bd3d 3493 0e3d 9790 093c
00000250: 4d78 3e3d b86b 1fbe 12fd dabd f873 46bc
00000260: 160b c4bc 5c9f f0bd ce42 b2bd b159 56bd
00000270: 8b6c 8a3c c250 57bd 17dd 793d 2748 a6b9
00000280: 3557 8a3d 15b2 ac3d 4475 fd3a 14f5 c8bc
00000290: 0d5e a43c 3a82 183d 5a16 d03c 7b5c 20bd
000002a0: 7f2d da3c 9b27 f4bd ec18 a03d 50c7 003d
000002b0: 6893 dd3d 5671 03be 037b 353d c371 cb3d
000002c0: 1781 32bd ba89 5cbb 3aa9 8d3c 1fa7 de3d
000002d0: a5f8 663d 2a43 dfbc 081e 28be 2283 c33c
000002e0: de03 b33d d0ea e43d dce9 213e 7dce 7fbd
000002f0: cdeb d9bd 4cd3 b63d 43c6 96bd f0a2 dd3d
00000300: 7472 413d 89ec 0fbd a3f0 363d 76c6 093e
00000310: d8ac ad3c 8f39 903d 571b 493c f6b2 833d
00000320: 1208 173e e6e5 adbc ee08 0a3e 1069 a93d
00000330: faf8 1b3c e35b bdbd 1059 a73d d6da 873b
00000340: 3192 62bd 79d4 a73d 5af6 9fbd a652 1e3e
00000350: 92d4 d5bc 540d 023d 4ac1 353c 4f23 223d
00000360: f6ce 0d3e 5e88 1d3d 39a1 9cbd 4e8a fa3d
00000370: 2231 893d 47f1 d33d 958e 143c 58ca a43b
00000380: 5e26 853c 8260 ef3c a47f 933d c2e9 3d3e
00000390: 7e71 b3bd 09d5 13be 7b00 9a3c 827d 41bc
000003a0: ccfb 18bd b86d 763d 6cef d23d 5fc9 423d
000003b0: 12c1 37bd b64a b73d f52d efbc 1bcf 0cbe
000003c0: a9f9 0cbd 3c01 a6bd a6ca 1d3d 8f84 0f3e
000003d0: f90b e83c 11a0 d5bc 18cf 3439 fd05 16bc
000003e0: d7e2 c1bd 2610 0b3e 208c 243c 808b ecbd
000003f0: ed56 503d 468f fe3d a3f2 7d3d 8508 08bc

a2c_network.mu.bias f4 [6]
-0.02017183 0.023939505 -0.031396765 0.06570215 -0.012597708 -0.033789854
00000000: 653f a5bc c81c c43c e599 00bd d98e 863d
00000010: 9e66 4ebc 3b67 0abd

exp_avg f4 [6]
-0.0036487326 0.0071501536 -0.005921147 0.018640846 0.03006246 0.023136703
00000000: 931f 6fbb d64b ea3b 2e06 c2bb b0b4 983c
00000010: 8c45 f63c 2f89 bd3c

exp_avg_sq f4 [6]
0.0014268894 0.0015877936 0.0015295536 0.001791006 0.0016213927 0.0015281438
00000000: 7706 bb3a 831d d03a 4d7b c83a 30c0 ea3a
00000010: e984 d43a ff4b c83a

exp_avg f4 [256, 30]
0.0002552088 -9.546327e-05 -0.00015088022 -0.00019375618 -0.00014397291 -0.00014795129 -0.0004960519 -0.00013656136
-4.2779837e-05 -0.00013952909 -0.00031137903 -0.00032809546 -6.553201e-05 0.00011769893 0.00017270014 -0.00040780284
0.00018850257 4.3341233e-06 0.0003913342 0.00022333373 0.00023595153 -0.0001252283 7.312395e-05 0.00040484438
0.0002926093 6.32569e-05 0.0003590371 -0.00034503356 8.56331e-05 0.00010450612 0.0006166537 0.0010877143
-0.00033882988 0.00141893 -0.00018115525 0.00081069674 -7.843998e-05 0.0008827956 -0.00053001003 0.000581228
5.2648447e-05 0.00014246625 -0.0016830284 -0.0006048938 -0.0007866197 0.00039705855 -0.0008991745 9.59259e-05
-0.0011446051 0.0005606669 -0.0007027476 -0.0005731389 0.00037683046 1.5724165e-05 -0.0017815364 -0.000110688554
-0.0010723973 -0.00012197928 -0.0009182719 -0.0002961229 -6.074269e-05 -0.0001875533 0.00015111153 -0.00019957447
5.7946247e-05 0.00012448781 0.00032682985 0.00031744948 0.00038587963 -0.0003156663 -0.00044944213 -0.00016811314
0.0004610645 0.000303787 6.956457e-05 -0.00016766225 0.00041719544 -8.347645e-06 -0.00030478588 -0.00018768014
-0.00014300882 0.00053538335 0.00045647647 8.743532e-05 0.0001142301 6.5377266e-05 -1.68292e-05 0.00011665878
0.0007056744 0.00014460523 8.716795e-05 0.0006304093 0.0016694445 0.00021770183 0.00023582508 -7.542938e-05
0.0009648005 0.0005817178 0.0014596541 0.00062590046 0.000801267 0.0012555644 0.00019127518 8.341935e-05
7.802274e-06 -1.1801449e-06 -0.00047968506 0.00049727544 -0.0011572599 0.000524188 -7.181871e-05 0.00091694825
-0.00021435114 -0.0005902143 -0.00044178494 0.00051185646 0.0001446192 0.00033295108 -0.0004406678 0.00013699217
0.00030189572 0.000709067 -0.0012234183 0.0010017987 -7.017557e-05 0.0010503165 -0.0008067436 0.0003854854
-0.0023764903 0.00012748736 0.00018718604 -0.0005293433 -0.0011413966 -0.0015212796 4.6049772e-05 0.0009381844
-0.0009535329 -0.0006552864 -7.997765e-05 -0.0005356832 -0.00048437263 -0.0009087621 0.00017667566 -0.00010172954
-0.0011419426 -0.0013568419 -0.00070947764 0.0004203429 -0.0009334723 -0.00061497226 0.0007141136 0.0007856453
0.0004738451 0.00014082587 -0.0013697577 -0.0005646853 -0.00032610123 -0.00038894804 -0.0003710067 0.00025738613
0.0003007754 9.535392e-05 -0.0010351856 3.792978e-05 -0.0005695733 0.0007535163 -0.0006444761 0.0003101771
-0.00018625449 0.0022151032 -6.258808e-05 -1.9390416e-05 0.00048734227 0.0005463165 -0.00022731643 0.0010931127
-0.00017741567 0.00032912625 -0.0007790702 -2.3499673e-05 -0.00014059084 -2.699919e-05 0.0016946443 -8.580098e-05
0.0010184961 0.0001326081 0.001120946 -0.0006904962 0.0021301168 0.00088368624 0.0011021317 0.0015196721
0.00090655586 0.00066597277 0.00041422367 -0.000812148 0.00043641494 0.00037737816 -0.0009362103 -0.0007708929
-0.0003213944 0.0011524485 -0.000694723 -0.0011486469 0.0002995725 0.00048502142 0.0009947476 -7.588789e-05
0.00043487977 8.636484e-05 0.00044539076 0.0006538571 -5.4197062e-05 0.00031890592 -0.0010953514 0.00037366216
0.0003387169 -0.00016005451 -0.0006382207 -5.1242936e-05 0.00013522679 -3.3330212e-05 -0.00070994464 0.0007076808
-0.00055831164 0.001218309 -0.00031358653 0.0008186011 -0.00044930627 0.0014037415 -0.00084608886 0.00056930026
0.0012596855 0.0011851275 -0.0005459743 0.0010718564 -0.00089268584 0.0011009941 4.9432805e-05 0.00091393274
-0.00019160184 0.00029481118 -7.453676e-05 0.00014977797 -0.00017579157 0.0007506152 0.0002804015 -1.3718342e-05
-0.00054531335 5.62173e-05 0.0003797281 0.0002213931 -0.00040677618 -0.00016576596 -0.00053892407 0.0008847118
00000000: 8ccd 8539 7433 c8b8 9a35 1eb9 072b 4bb9
00000010: 6ff7 16b9 5f23 1bb9 7b09 02ba e931 0fb9
00000020: 806e 33b8 8e4e 12b9 9640 a3b9 3a04 acb9
00000030: 3b6e 89b8 22d5 f638 d716 3539 5fce d5b9
00000040: c6a8 4539 d66d 9136 fd2b cd39 b12e 6a39
00000050: c269 7739 b74f 03b9 1f5a 9938 4b41 d439
00000060: 5b69 9939 caa8 8438 253d bc39 9fe5 b4b9
00000070: ec95 b338 4c2a db38 eea6 213a a391 8e3a
00000080: faa4 b1b9 64fb b93a 7ef4 3db9 f084 543a
00000090: 2580 a4b8 696b 673a 5ff0 0aba 8d5d 183a
000000a0: d7d2 5c38 fe62 1539 1099 dcba bc91 1eba
000000b0: 2835 4eba 4c2c d039 94b6 6bba d32b c938
000000c0: 9306 96ba b8f9 123a 9838 38ba b33e 16ba
000000d0: 5491 c539 63e7 8337 7182 e9ba 7721 e8b8
000000e0: af8f 8cba 21cf ffb8 2fb8 70ba f140 9bb9
000000f0: f7c5 7eb8 f5a9 44b9 b173 1e39 dd44 51b9
00000100: 4f0b 7338 f188 0239 5c5a ab39 596f a639
00000110: e34f ca39 0380 a5b9 1aa3 ebb9 8747 30b9
00000120: 08bb f139 9a45 9f39 32e3 9138 7ece 2fb9
00000130: 06bb da39 dd0c 0cb7 abcb 9fb9 01cc 44b9
00000140: a3f4 15b9 f858 0c3a 3c53 ef39 7b5d b738
00000150: d18e ef38 271b 8938 6f2c 8db7 b5a6 f438
00000160: 02fd 383a 2ca1 1739 f0cd b638 0d42 253a
00000170: 43d1 da3a e446 6439 d047 7739 d72f 9eb8
00000180: aaea 7c3a 6c7e 183a dd51 bf3a 7813 243a
00000190: 1e0c 523a c091 a43a 0a91 4839 6cf1 ae38
000001a0: 83e6 0237 7865 9eb5 3d7e fbb9 975b 023a
000001b0: 33af 97ba a969 093a 609d 96b8 5b5f 703a
000001c0: 72c3 60b9 9cb8 1aba 5f9f e7b9 1b2e 063a
000001d0: eca4 1739 f08f ae39 6e09 e7b9 8ea5 0f39
000001e0: c247 9e39 aee0 393a 1b5b a0ba c94e 833a
000001f0: 392b 93b8 c6aa 893a a67b 53ba f91a ca39
00000200: e4be 1bbb 21ae 0539 5f47 4439 a1c3 0aba
00000210: ea9a 95ba ac65 c7ba 9125 4138 7df0 753a
00000220: 82f6 79ba 87c7 2bba adb9 a7b8 176d 0cba
00000230: 65f3 fdb9 fe39 6eba 0342 3939 a257 d5b8
00000240: 3cad 95ba 0fd8 b1ba 3dfc 39ba 7861 dc39
00000250: 44b4 74ba 1736 21ba 5a33 3b3a c3f3 4d3a
00000260: 6a6e f839 a8aa 1339 7189 b3ba 6407 14ba
00000270: 91f8 aab9 b9eb cbb9 ad83 c2b9 c8f1 8639
00000280: 64b1 9d39 bff8 c738 11af 87ba cb16 1f38
00000290: 6b4f 15ba 9f87 453a 0ff2 28ba 449f a239
000002a0: 4f4d 43b9 442b 113b b841 83b8 9aa8 a2b7
000002b0: f981 ff39 ae36 0f3a ca5b 6eb9 c746 8f3a
000002c0: a808 3ab9 948e ac39 843a 4cba 2a21 c5b7
000002d0: 916b 13b9 527c e2b7 d41e de3a 0df0 b3b8
000002e0: 0f7f 853a b70c 0b39 b5ec 923a 6a02 35ba
000002f0: 6e99 0b3b 2ea7 673a 6775 903a bc2f c73a
00000300: efa5 6d3a ad94 2e3a 292c d939 54e6 54ba
00000310: 9fce e439 d7da c539 026c 75ba bf15 4aba
00000320: d380 a8b9 c10d 973a 121e 36ba 328e 96ba
00000330: f10f 9d39 794a fe39 3162 823a 0026 9fb8
00000340: 9300 e439 c51e b538 5683 e939 9b67 2b3a
00000350: a751 63b8 d432 a739 e591 8fba 16e8 c339
00000360: d095 b139 4ed4 27b9 444e 27ba afed 56b8
00000370: aacb 0d39 0bcc 0bb8 941b 3aba a883 393a
00000380: a95b 12ba abaf 9f3a df68 a4b9 6497 563a
00000390: de90 ebb9 c0fd b73a 10cc 5dba 183d 153a
000003a0: 081c a53a 4856 9b3a b71f 0fba 887d 8c3a
000003b0: 2203 6aba 3b4f 903a 1256 4f38 fd94 6f3a
000003c0: bae8 48b9 e390 9a39 9e50 9cb8 b80d 1d39
000003d0: b154 38b9 efc4 443a da02 9339 d527 66b7
000003e0: 5cf3 0eba deca 6b38 3e16 c739 c225 6839
000003f0: 9344 d5b9 76d1 2db9 9546 0dba 01ec 673a
