IsaacGymEnvs/isaacgymenvs/runs/Bolt_18-17-24-24/nn/last_Bolt_ep_150_rew_0.08510608.pth (torch, 612240 bytes, 36 tensors)

value_mean_std.running_mean f8 [1]
0	0x3f9fb0d6c5bc151f	0.030948024576919694

value_mean_std.running_var f8 [1]
0	0x3f435f094f6eb82c	0.0005911632023207817

value_mean_std.count f8 []
0	0x410c200800000000	230401.0

running_mean_std.running_mean f8 [30]
0	0x3fa6d5c0d459fb3f	0.04459955780202173
1	0x3f97ef7044342fb1	0.023374323046524818
2	0xbfa20b6550f5947f	-0.035243192799307536
3	0xbf9c0f93284dd918	-0.027403163275686898
4	0x3fbf650d3673eea9	0.12263567523398912
5	0x3fa29d51502f9bc2	0.036356488264395206
6	0xbf767dd05e9df0e4	-0.005491079276790798
7	0xbf75cea5a66a032f	-0.005324027128722971
8	0xbfd98ad8a79587a4	-0.3990995060504423
9	0x3ffffda742303557	1.9994270883065235
10	0x0000000000000000	0.0
11	0x3f99a7b8510c55da	0.025053863474644313
12	0xbfb2bccce6f08dac	-0.07319336546111427
13	0x3fbb4de92f46a686	0.10665757564734166
14	0x3f96040a05eb81c0	0.021499783145260798
15	0x3fc2a9aa96fdbe99	0.14580280659310033
16	0x3fb2825d99c2c989	0.07230172161033556
17	0x3f9874b46223e807	0.023882692804342322
18	0x3f86a0dd0d89127d	0.011049010253495023
19	0x3f7a857ceb12d1dd	0.0064749602908489
20	0x3f84e3c3e82f4552	0.01020005276032757
21	0x3f7cf756ce29a3bb	0.007071818431179484
22	0x3f4d73af8aeaa486	0.0008988005773363928
23	0x3f78ecd6eea4728f	0.006085242823499328
24	0xbfc114808b863b71	-0.13343817532264837
25	0x3fcda9ed9c40818b	0.23174829606524514
26	0x3fab8fc514261225	0.05383125182109819
27	0x3fd3040f073c9210	0.29712272364329895
28	0x3fc3b47fc3e56558	0.15394589486349264
29	0x3fad9b03175dd092	0.057823273279525314

running_mean_std.running_var f8 [30]
0	0x3fe1b3d334bd2113	0.5532012968115246
1	0x3fdca9103197dfb7	0.44781880229083576
2	0x3fdcec0c58772941	0.4519072402878415
3	0x40082d3e4cea2319	3.022091484923646
4	0x3ff884afdc919e82	1.5323942771882746
5	0x3fd843c4df501472	0.3791362934865169
6	0x3fc79bd9e3dac02e	0.18444369912822495
7	0x3fccd07c3d979cd6	0.2251124668830246
8	0x3fdbf95ffaa9df3a	0.43709563711989896
9	0x3f530c1e38f7bf33	0.0011625571386239652
10	0x3ee2344c1d69bf76	8.680480204164886e-06
11	0x3f2cfde3caf9cc94	0.0002211895530198389
12	0x3fb78e125265b765	0.09201159011510425
13	0x3fa8d02e12cbe143	0.048463287157519484
14	0x3fb217a4da75fe1c	0.07067327817457464
15	0x3fad61a4d3e058a9	0.057385588516056636
16	0x3fb0980289ad729d	0.0648194872023375
17	0x3fb8f5db6e3e9377	0.09750148240580168
18	0x3fc11af9aa69ce97	0.13363571949922878
19	0x3fc613be0908f9fc	0.1724774879566694
20	0x3fc403b571b6b3a3	0.15636318256784162
21	0x3fc63f46b43b1f18	0.17380603599871658
22	0x3fc5ef4dce2df296	0.1713654762969738
23	0x3fbf6f37fa264ea3	0.12279081208390123
24	0x3fe42321e115d0ba	0.6292886158176068
25	0x3fe129f12ccba478	0.5363698840057074
26	0x3fe3ab855bdcc790	0.6146876138866322
27	0x3fe0c0db7b02fbc0	0.5235421564647069
28	0x3fe2dd0d1c7b864e	0.5894837909983808
29	0x3fe534914750b6fb	0.6626669304730223

running_mean_std.count f8 []
0	0x40fc201000000000	115201.0

a2c_network.sigma f4 [6]
0	0xbe85be1f	-0.26121613
1	0xbe86d288	-0.26332498
2	0xbe2447bf	-0.16042994
3	0xbe447641	-0.19185735
4	0xbe2bb5c1	-0.16768552
5	0xbe13c7e9	-0.14431728

a2c_network.actor_mlp.0.weight f4 [256, 30]
0	0x3e51174c	0.20419043
1	0xbea4d33d	-0.32192412
2	0x3de64771	0.11244095
3	0x3e5b4969	0.21414723
4	0x3ca549dd	0.020176822
5	0x3e0759a5	0.1321779
6	0x3d8d2137	0.06891101
7	0x3e8b9ed4	0.27269614
8	0xbd790e84	-0.06080486
9	0xbd9d6fea	-0.076873615
10	0x3d48ed95	0.0490547
11	0x3b3d9b4e	0.002893168
12	0x3d1a5316	0.037676893
13	0x3e320406	0.17384347
14	0x3dbaf45a	0.091286376
15	0xbd15107f	-0.036392685
16	0x3db98dd3	0.09060254
17	0x3bddaad9	0.0067647514
18	0x3dae15a9	0.08500225
19	0xbde12926	-0.109941766
20	0xbe2c11bf	-0.16803645
21	0xbc5cfd0a	-0.013488064
22	0xbe2a8b52	-0.16654709
23	0x3e31375b	0.17306273
24	0xbba91b0c	-0.005160695
25	0x3d9c69d0	0.0763737
26	0x3d7c7b5e	0.06164109
27	0x3c9beb76	0.019033175
28	0x3ded3044	0.115814716
29	0xbdfdc858	-0.12391728
30	0x3cb55b8b	0.022138378
31	0xbe3eae1a	-0.18621102
32	0xbbc8d5c1	-0.006128997
33	0xbdd32dc2	-0.10311462
34	0x3e10835d	0.14112611
35	0xbe02e0fc	-0.12781137
36	0x3dd95455	0.10611788
37	0xbe29294f	-0.16519664
38	0xbd8ef3f0	-0.06980121
39	0xbdd1a3d3	-0.10236325
40	0x3e2827fc	0.16421503
41	0x3dc0db36	0.09416811
42	0x3e39c550	0.18141675
43	0xbe1b1eda	-0.15148488
44	0xbe2a045a	-0.16603222
45	0xbe14af73	-0.14520054
46	0xbde88d3e	-0.11355065
47	0x3e081b2a	0.13291612
48	0x39e97e9f	0.00044535563
49	0x3e2907ca	0.16506878
50	0xbe08db40	-0.13364887
51	0xbdff522e	-0.124668464
52	0x3de2f0a1	0.110810526
53	0xbd0137b7	-0.031547274
54	0x3d7dab1e	0.06193077
55	0x3d1a9307	0.037737872
56	0x3e0be653	0.1366208
57	0xbdd59d19	-0.104303546
58	0xbd5218ee	-0.051293306
59	0x3da931be	0.08261441
60	0x3d9a45d6	0.075328514
61	0xbda31a36	-0.07963984
62	0x3e10d419	0.14143409
63	0x3e30faaf	0.17283128
64	0xbe3ad2c1	-0.18244459
65	0xbe0c83db	-0.13722174
66	0x3e73dac3	0.2381392
67	0xbd5a0761	-0.053229693
68	0xbd024d08	-0.031811744
69	0xbe5a7c40	-0.2133646
70	0xbdd620d3	-0.104554795
71	0x3b279211	0.002556924
72	0xbb875afa	-0.0041307183
73	0xbe0404fa	-0.12892523
74	0x3c941232	0.018075082
75	0xbd8599fc	-0.06523511
76	0xbe06554d	-0.13118477
77	0xbdfe8561	-0.12427784
78	0xbdd3b067	-0.103363805
79	0xbe0827c9	-0.13296427
80	0x3e067b93	0.13133077
81	0x3d051a44	0.032495752
82	0x3db8aa46	0.09016852
83	0xbddcc9de	-0.107806906
84	0xbda3b225	-0.07992963
85	0xbd778eb3	-0.060438823
86	0xbbcd8663	-0.0062721237
87	0xbe0f1329	-0.13972153
88	0xbd3acdb3	-0.045606326
89	0xbd890842	-0.06691028
90	0x3ceceafe	0.028920647
91	0xbd241b3c	-0.040065035
92	0xbd2e62b5	-0.042574603
93	0xbea16074	-0.315189
94	0xbdae7bbc	-0.08519694
95	0xbe65b28d	-0.22431393
96	0xbd906643	-0.07050755
97	0xbe9819bb	-0.2970713
98	0x3e6a281a	0.2286686
99	0xbd750373	-0.059817743
100	0x3e20db37	0.15708624
101	0x3dcdc828	0.100479424
102	0xbe552357	-0.20814262
103	0x3dcaf539	0.09910054
104	0xbd7085d3	-0.058721375
105	0xbdc0edcc	-0.09420356
106	0xbe27c21e	-0.16382644
107	0xbe3c5be6	-0.18394431
108	0xbaa9f75c	-0.0012967396
109	0xbd28c1f4	-0.041200593
110	0x3d45e1d9	0.04831109
111	0xbe4327d4	-0.19058162
112	0x3e14c067	0.1452652
113	0xbda210a6	-0.07913332
114	0xbd6a1277	-0.057146516
115	0x3d0aaec8	0.03385809
116	0x3db53bf8	0.08849329
117	0x3de541c1	0.11194182
118	0x3dee7ea4	0.116452485
119	0xbd95324a	-0.072849825
120	0xbc4bcec2	-0.012439432
121	0xbd893076	-0.06698696
122	0xbdf1efc5	-0.118133105
123	0xbdc71812	-0.09721388
124	0x3e0e3646	0.13887891
125	0xbe717782	-0.23580745
126	0x3d6cf281	0.057848457
127	0x3d8d8dbe	0.06911801
128	0x3e18e2fd	0.14930339
129	0xbd8434c4	-0.06455377
130	0x3e29ef15	0.16595109
131	0x3da2d66c	0.07951054
132	0x3ccdf0e7	0.025139285
133	0xbe194270	-0.1496675
134	0x3de77c86	0.11303048
135	0xbdcd25f0	-0.10017002
136	0xbdfdbb08	-0.12389189
137	0x3e285c8b	0.16441552
138	0xbc672a93	-0.014109272
139	0xbd846b16	-0.064657375
140	0xbdcb18a8	-0.09916812
141	0xbd6adb95	-0.057338316
142	0x3d1bc17b	0.038026314
143	0xbd00c9a2	-0.031442292
144	0xbdfa541c	-0.12223074
145	0xbc0c62bb	-0.008568461
146	0xbd9f408c	-0.07775983
147	0x3c9bb581	0.019007446
148	0x3deb990c	0.11503801
149	0xbe1d1fd1	-0.15344168
150	0x3d8695b3	0.065715216
151	0x3de94637	0.113903455
152	0x3dbf1956	0.09331004
153	0xbd601cbd	-0.054714907
154	0x3e2f24d1	0.17103888
155	0x3db905d7	0.09034317
156	0x3ca33a22	0.01992518
157	0xbcd00949	-0.025395053
158	0xbe1a659f	-0.15077828
159	0x3c846d2a	0.016165335
160	0xbd041b2d	-0.03225248
161	0xbd8866fa	-0.06660266
162	0x3de5a75b	0.11213561
163	0x3e1016dc	0.1407122
164	0xbbe64de0	-0.0070283264
165	0xbd198653	-0.037481617
166	0xbd1d0c3b	-0.038341742
167	0xbd596224	-0.05307211
168	0x3d883a49	0.06651742
169	0x3d27ab00	0.040934563
170	0xbe0fc144	-0.14038569
171	0xbd9dad5b	-0.076990806
172	0x3e059af2	0.13047388
173	0x3d925c11	0.071464665
174	0x3ceadf6d	0.02867099
175	0xbe06f409	-0.1317903
176	0xbdeec6fc	-0.11659047
177	0xbe2a693d	-0.16641708
178	0xbdf937dc	-0.121688575
179	0x3d5418f0	0.051781595
180	0x3dae6a8d	0.08516417
181	0x3d9d1415	0.07669846
182	0xbe60467c	-0.21901888
183	0xbe11a28a	-0.1422216
184	0xb9ac7b97	-0.00032898478
185	0x3e717122	0.23578313
186	0xbbdc4a4a	-0.006722723
187	0xbe2208ee	-0.15823719
188	0x3df78f58	0.120878875
189	0xbcd56d00	-0.026052952
190	0xbdf20441	-0.118172176
191	0x3dec7092	0.115449086
192	0xbe08ae4d	-0.1334774
193	0xbd054f19	-0.032546137
194	0xbe3609ed	-0.17777224
195	0x3d8e0fae	0.069365844
196	0x3dcb785b	0.09935065
197	0x3dece81b	0.11567708
198	0xbe0de5c4	-0.1385718
199	0xbe435346	-0.19074735
200	0xbe2bb2e2	-0.16767457
201	0x3d8f21e5	0.06988887
202	0x3c2638e9	0.010145404
203	0x3e099ebb	0.13439457
204	0x3d5b048a	0.053471126
205	0x3d3e4c61	0.04645956
206	0x3d29763e	0.04137253
207	0xbe35aaa1	-0.17740871
208	0xbe4e749a	-0.20161667
209	0xbe20a9b9	-0.15689744
210	0x3e04d56d	0.1297204
211	0xbe66fdeb	-0.225578
212	0x3d729672	0.059225507
213	0xbd2d6806	-0.042335533
214	0x3a9cc9e5	0.0011962025
215	0xbe50b8cd	-0.20382996
216	0xbd4c1f99	-0.04983482
217	0x3e2b9237	0.16754995
218	0xbe40f865	-0.18844755
219	0x3ddad7f8	0.10685724
220	0xbd6fe890	-0.0585714
221	0xbd793844	-0.060844675
222	0xbbe397d8	-0.0069455914
223	0xbd4358b1	-0.047692005
224	0xbc314f88	-0.010822184
225	0xbda4cd9d	-0.0804703
226	0x3d9bdd5f	0.076105826
227	0xbd9a6314	-0.07538429
228	0x3dc53467	0.096291356
229	0x3cc30057	0.023803873
230	0x3dec7701	0.11546136
231	0xbde949fc	-0.113910645
232	0x3daffe4d	0.08593426
233	0x3cc960c9	0.024582284
234	0x3d8b7c81	0.068108566
235	0x3e44bdf6	0.1921309
236	0xbcc056dc	-0.023478918
237	0x3d917635	0.07102624
238	0xbd91e422	-0.07123591
239	0xbd6e6da0	-0.058210015
240	0x3df5b117	0.11996668
241	0xbea33687	-0.3187754
242	0x3e5a1b0e	0.21299383
243	0x3e991cbd	0.29904738
244	0x3e59d516	0.21272692
245	0xbd932dc1	-0.07186461
246	0xbe07cff8	-0.13262928
247	0x3e47a9bd	0.19498344
248	0x3e2f8065	0.17138822
249	0xbe547778	-0.20748699
250	0xbd29be6a	-0.04144136
251	0xbd2670d9	-0.040634964
252	0xbd0e32fd	-0.034716595
253	0xbdb4b778	-0.088240564
254	0xbd9aa777	-0.07551473
255	0xba965d5a	-0.0011471913

a2c_network.actor_mlp.0.bias f4 [256]
0	0xbd55ed57	-0.052228298
1	0x3b1453c5	0.0022632938
2	0xbd9fa47a	-0.07795043
3	0xbd2b3c70	-0.041805685
4	0x3d4df52f	0.050282653
5	0xbc8afb90	-0.016965657
6	0x3dccb566	0.099955365
7	0xbc6682b4	-0.014069248
8	0xbd37afe1	-0.044845466
9	0xbe3980ff	-0.18115614
10	0xbd982272	-0.07428445
11	0x3d2abd43	0.0416844
12	0xbdd23c51	-0.10265411
13	0x3b4d03f0	0.0031282865
14	0xbbd31e80	-0.006442845
15	0x3d99961d	0.07499335
16	0xbd375988	-0.044763118
17	0xbd0853a9	-0.03328291
18	0xbe378e0a	-0.17925277
19	0x3a8d1d10	0.0010766108
20	0x3bd3f708	0.0064686574
21	0xbcb7045a	-0.022340942
22	0x3c9ebfee	0.019378629
23	0xbd5c9a34	-0.053857997
24	0x3d0930a4	0.033493653
25	0xbbf838bd	-0.007575123
26	0xbcbc8f06	-0.023017418
27	0xbd44faf0	-0.048090875
28	0xbb6eb96c	-0.0036426438
29	0xb8798dce	-5.9498292e-05
30	0xbc0d76d4	-0.008634288
31	0x3c579194	0.013157267
32	0xbd023e77	-0.031797852
33	0xbdec3cd0	-0.115350366
34	0xbd0ad7a0	-0.033897042
35	0x3bc5f9a1	0.006041721
36	0xbd1d1bfa	-0.03835676
37	0x3be63ed2	0.0070265317
38	0xbd062330	-0.0327484
39	0xbca4bd5e	-0.020109829
40	0x3d1a226d	0.037630487
41	0x3b99f33d	0.0046981857
42	0xbd8ee7b4	-0.069777876
43	0xbd67b35a	-0.056567527
44	0xbd51b569	-0.051198397
45	0xbe08e0e9	-0.13367046
46	0x3c814975	0.015782097
47	0xbcf519f1	-0.029919596
48	0x3d76af56	0.060225807
49	0xbd94f3a5	-0.07273034
50	0x3d3d06e5	0.046149153
51	0xbd2efd08	-0.04272178
52	0xbd0386ef	-0.032111105
53	0x3d983f77	0.0743398
54	0x3c2983b1	0.010346339
55	0x3d780bd9	0.060558174
56	0xbd296e25	-0.041364808
57	0x3d6795f2	0.056539483
58	0x3d5f7cd1	0.054562394
59	0xbcec33b3	-0.028833246
60	0xbc86b896	-0.01644544
61	0x3c86fcab	0.016477903
62	0x3d12ad5b	0.035809856
63	0xbd29b8a1	-0.04143584
64	0xbce30996	-0.027714532
65	0x3d3f9a5e	0.046778075
66	0xbd1fe6ce	-0.039038472
67	0x3c8fa3d7	0.01753418
68	0xbce7e1eb	-0.028305968
69	0xbcd730a4	-0.02626831
70	0x3d67a9c7	0.056558397
71	0x3c5f8984	0.013643626
72	0xbcd7f03f	-0.026359675
73	0xbbec41d6	-0.0072099967
74	0xbd143c0d	-0.03619008
75	0xbc895ef0	-0.016768903
76	0xbd476cc1	-0.0486877
77	0x3d190c6d	0.037365366
78	0xbb684d60	-0.003544651
79	0x3d471563	0.04860438
80	0x3d84faf4	0.06493178
81	0xbd203f9d	-0.039123166
82	0x3c75fb50	0.015013531
83	0xbcddd815	-0.027080575
84	0xbd784e6e	-0.06062167
85	0xbb87dca8	-0.0041461773
86	0xbd8a978c	-0.067671865
87	0xbd8032da	-0.06259699
88	0xbc69ac9d	-0.014262346
89	0xbca611f8	-0.02027224
90	0xbbaa00b6	-0.005188073
91	0x3db582fa	0.088628724
92	0x3d4699e3	0.0484866
93	0xbcecf246	-0.028924119
94	0xbce1f9b3	-0.027584886
95	0xbbb44a7f	-0.0055020447
96	0x3d46cba0	0.048534036
97	0x3c80023a	0.015626062
98	0x35f7b6e8	1.8456167e-06
99	0xbd33a762	-0.0438608
100	0xbcba8428	-0.022768095
101	0x3c5135db	0.012769188
102	0x3d54d7a6	0.05196347
103	0x3d1acdf0	0.037794054
104	0x3be3e3de	0.006954654
105	0xbddfae62	-0.10921933
106	0x3d5d1aad	0.053980518
107	0x3be63c7d	0.0070262537
108	0x3dcd7095	0.10031239
109	0x3d095d2d	0.033536125
110	0xbdffea37	-0.12495845
111	0xbcdf16f9	-0.027232634
112	0x3c282188	0.010261901
113	0xbc9d0dfd	-0.01917171
114	0xbd050046	-0.032470964
115	0xbe21473f	-0.15749834
116	0x3d221649	0.039572034
117	0xbd9889ca	-0.07448156
118	0xbc8d7adf	-0.017270504
119	0xbd0346cf	-0.03204995
120	0x3ccc4a2f	0.024937717
121	0x3d563ca4	0.052303925
122	0x3d545ee2	0.0518483
123	0xbd6827b6	-0.056678496
124	0x3946e213	0.0001896697
125	0xbd518595	-0.051152784
126	0xbd2dfed8	-0.042479366
127	0xbdd06fbb	-0.10177561
128	0xbd8a80dd	-0.0676286
129	0xbd98fe69	-0.074704
130	0x3dab25f1	0.08356846
131	0xbc51278b	-0.012765775
132	0xbe17c015	-0.14819367
133	0x3d88bda4	0.06676796
134	0xbd3ee060	-0.0466007
135	0x3c382019	0.011238121
136	0xbc46ae26	-0.012126481
137	0xbd400db7	-0.04688808
138	0xbd7f0f48	-0.062270433
139	0xbd7a330e	-0.061083846
140	0xbcc2dae2	-0.023786012
141	0x3afc00b3	0.0019226283
142	0xbde69939	-0.11259694
143	0xbdde546a	-0.108559445
144	0xbc6887ec	-0.014192563
145	0x3ddaaa55	0.106770195
146	0x3a75e6e4	0.00093804137
147	0x3ce73b0b	0.028226396
148	0xbc688847	-0.014192647
149	0xbdd321b2	-0.10309161
150	0x3d130092	0.035889216
151	0xbd752936	-0.059853755
152	0xbc044faa	-0.008075634
153	0xbb388984	-0.0028158138
154	0x3c21ff8a	0.009887585
155	0xbdb2a9d0	-0.087237954
156	0xbc52bb4b	-0.012862037
157	0xbd5e11ac	-0.054216072
158	0xbd912203	-0.07086565
159	0xbc9cd930	-0.019146532
160	0x3d82f87e	0.063950524
161	0x3c690942	0.014223399
162	0xbcdd0c3c	-0.026983373
163	0xbd792707	-0.060828235
164	0x3cbe1ebe	0.023208018
165	0xbd4b09bd	-0.049569834
166	0xbbd07725	-0.0063618594
167	0x3ccfac6a	0.025350768
168	0xbd810338	-0.06299442
169	0x3d14cb3d	0.036326636
170	0xbda4dd59	-0.08050031
171	0xbd60e4fe	-0.054905884
172	0xbc4f056e	-0.012635572
173	0xbd501758	-0.050803512
174	0xbd747b06	-0.059687637
175	0x3bd67b6b	0.0065454743
176	0x3cd54639	0.026034461
177	0xbcf090b1	-0.02936587
178	0xbd7a24e2	-0.06107033
179	0xbd959026	-0.07302885
180	0x3c44196e	0.011968954
181	0xbd028ebe	-0.03187441
182	0x3d8f9100	0.070100784
183	0xbcaaf9d9	-0.02087109
184	0x3df6a9a7	0.12044077
185	0xb80f2229	-3.412567e-05
186	0xbd2d2369	-0.042270098
187	0xbbe41dfc	-0.006961582
188	0xbc8ace14	-0.016943969
189	0xbc2d33e1	-0.010571451
190	0xbd900767	-0.07032662
191	0xbdb72d75	-0.08944217
192	0xbad03f87	-0.0015888073
193	0xbc204e0d	-0.009784234
194	0x3d2a1f51	0.041533772
195	0xbd002137	-0.031281676
196	0xbd6a5d6d	-0.057218004
197	0xbcd00db5	-0.025397161
198	0x3d91ffc1	0.07128859
199	0xbcda20a3	-0.02662689
200	0x3be082db	0.0068515367
201	0x3d33e8a1	0.043923024
202	0xbc8fb284	-0.017541178
203	0xbdbcd14e	-0.09219609
204	0xba7404bd	-0.00093085674
205	0xbdb8c33b	-0.09021612
206	0xbc699874	-0.014257539
207	0xbd3f1cd1	-0.04665834
208	0xbc8e9c5d	-0.017408544
209	0xbd45d107	-0.048295047
210	0x3c9cfe55	0.019164244
211	0xbc0fcca4	-0.0087768175
212	0xbd94d896	-0.07267873
213	0xbd464d63	-0.048413645
214	0xbd59b487	-0.05315068
215	0xbd9627b1	-0.07331789
216	0x3da56959	0.08076734
217	0xbd0094fa	-0.031392075
218	0xbd549fdd	-0.05191027
219	0xbd406fc4	-0.046981588
220	0xbd1fc085	-0.03900196
221	0x3baaae4c	0.005208766
222	0x3d7015ac	0.058614418
223	0xbd5b139f	-0.05348551
224	0xbae7c135	-0.0017681482
225	0xbd2a4082	-0.041565426
226	0x39f34dfb	0.00046406672
227	0x3d320195	0.04345854
228	0xbd2716aa	-0.0407931
229	0x3c2d151c	0.010564115
230	0xbd6150da	-0.055008747
231	0xbbb29ee4	-0.00545107
232	0x3c07387f	0.008253216
233	0x3deaac98	0.11458701
234	0x3d5343d5	0.05157836
235	0x3e14ec55	0.14543279
236	0x3d6953e5	0.056964774
237	0xbad9e135	-0.0016622903
238	0xbcc500c4	-0.024048217
239	0x3d08d1fb	0.033403378
240	0x3da74ba5	0.08168725
241	0xbdaa61b8	-0.083194196
242	0x3cda364c	0.026637219
243	0xbc273785	-0.010206108
244	0xbd1c78e5	-0.03820123
245	0xbd8ff9a6	-0.070300385
246	0x3c3417ed	0.0109920325
247	0x3c3835fd	0.011243341
248	0xbc25e314	-0.01012494
249	0xbd50c47b	-0.05096863
250	0xbc822ea7	-0.015891386
251	0x3d067271	0.032823984
252	0xbbeeeaef	-0.00729119
253	0xbdb0757a	-0.08616157
254	0xbc8aa93d	-0.016926402
255	0xbe047b44	-0.12937647

a2c_network.actor_mlp.2.weight f4 [128, 256]
0	0x3d561915	0.052270014
1	0x3d907f88	0.07055575
2	0xbdcae4dc	-0.09906933
3	0xbcbf9ad8	-0.023389265
4	0x3d572312	0.05252368
5	0xbbf12f0a	-0.007360344
6	0xbdf40601	-0.11915208
7	0x3d767e88	0.060179263
8	0x3cea25c7	0.028582467
9	0x3bebaf70	0.0071925446
10	0x3ce144d1	0.027498635
11	0xbd305aad	-0.043055225
12	0x3e12ac31	0.14323498
13	0xbbf3391b	-0.007422579
14	0x3c22f1d3	0.009945351
15	0xbb934cb0	-0.004495226
16	0xbd88a3b7	-0.06671851
17	0x3cf7f8ee	0.030270066
18	0x3dae52b9	0.08511872
19	0xbcbaf7da	-0.022823263
20	0xbc6d8794	-0.014497656
21	0xbc989878	-0.01862739
22	0xbdb8ad33	-0.0901741
23	0xbd143d1c	-0.03619109
24	0xbc7b47b5	-0.0153369205
25	0xbd16a9e0	-0.0367831
26	0x3d29b38f	0.041431006
27	0xbd9140a0	-0.07092404
28	0xbd568e42	-0.05238176
29	0x3d09a23d	0.033601988
30	0x3c91d0eb	0.017799815
31	0xbdc17905	-0.09446911
32	0xbcc46fac	-0.02397903
33	0x3b8c5954	0.0042831097
34	0x3ce939a9	0.028469877
35	0xbd9d77cd	-0.07688866
36	0xbd736395	-0.05942114
37	0x3bf1e501	0.0073820357
38	0x3b828ce4	0.0039840806
39	0xbce40d82	-0.027838472
40	0x3ddd9350	0.10819113
41	0xbd31ac75	-0.04337736
42	0xbd752560	-0.059850097
43	0x3cedd3e5	0.029031703
44	0x3db91084	0.09036353
45	0x3dd1c04c	0.10241756
46	0xbd458859	-0.048225734
47	0xbd38da21	-0.0451299
48	0xbdd2440b	-0.102668844
49	0x3d125524	0.035725728
50	0xbd40b3c4	-0.047046438
51	0x3dc949f3	0.09828558
52	0x3cea27f3	0.028583502
53	0x3dd8dd35	0.10589067
54	0x3dc7f067	0.0976265
55	0x3d2ccb54	0.042186096
56	0x3d4380b7	0.047730174
57	0xbbffefe9	-0.007810582
58	0xbd3cab07	-0.046061542
59	0xbc192859	-0.009347999
60	0x3d22087f	0.039558884
61	0xbdd25ff3	-0.10272207
62	0xbd47eaa9	-0.048807774
63	0x3caf02b8	0.021363601
64	0xbe023cce	-0.12718508
65	0x3d17968f	0.03700882
66	0x3d60eb9f	0.054912206
67	0xbc74e0da	-0.014946187
68	0xbd048855	-0.03235658
69	0x3d7a5ba5	0.061122555
70	0xbd68e5fc	-0.056859955
71	0xbbe5520e	-0.006998307
72	0x3da9c4d1	0.08289493
73	0xbcc5bbbf	-0.024137376
74	0xbd002d5e	-0.031293266
75	0x3ca592cc	0.0202116
76	0x3d743a91	0.059626166
77	0xbcd5b049	-0.026085036
78	0xbd4c8a98	-0.04993686
79	0x3c54df8a	0.012992749
80	0xbd767689	-0.060171638
81	0x3bafe69e	0.005368068
82	0xbd74b1b2	-0.059739776
83	0xbd0b0511	-0.03394038
84	0x3bfae6e0	0.007656917
85	0xba6a6abc	-0.0008942296
86	0xbbde3420	-0.006781116
87	0xbd0b7f6e	-0.034057073
88	0xbe388de4	-0.18022877
89	0xbd9aba90	-0.07555115
90	0x3db11ecb	0.086484514
91	0x3d3a02cd	0.045412827
92	0xbccdb84e	-0.025112297
93	0xbd106781	-0.03525496
94	0x3d08d683	0.0334077
95	0xbd373d74	-0.04473634
96	0xbe143d9d	-0.14476629
97	0xbbb91cf4	-0.0056492034
98	0xbd6aa5ba	-0.057286955
99	0x3d393abf	0.04522204
100	0xbcdaa14e	-0.026688244
101	0xbc9aac70	-0.018881053
102	0x3d922abb	0.071370564
103	0x3b990f81	0.0046710377
104	0xbe31fac7	-0.1738082
105	0xbcd629b8	-0.02614294
106	0xbd6c88ad	-0.05774753
107	0xbd9234ad	-0.07138953
108	0xbd4fc8d3	-0.05072863
109	0xbdbbffe6	-0.09179668
110	0xb9240e74	-0.00015645643
111	0xbb951d32	-0.0045505995
112	0x3d458243	0.04821993
113	0x3db9f09d	0.090790965
114	0xbc64c3b6	-0.013962677
115	0x3cb361b1	0.021897169
116	0xbd39790c	-0.045281455
117	0xbcbdd37a	-0.023172129
118	0xbbc270ed	-0.005933872
119	0xbbfb7c50	-0.0076747313
120	0x3dabbb58	0.08385342
121	0xbdaf20d3	-0.085511826
122	0xbdda0c07	-0.10646825
123	0xbd2f6533	-0.04282112
124	0xbccef282	-0.025262121
125	0xbbe3faf4	-0.006957406
126	0xbd71da9b	-0.05904637
127	0xbbf9604e	-0.0076103574
128	0xbcf74022	-0.030181948
129	0xbd207e46	-0.039182924
130	0x3d0a754f	0.03380328
131	0xbe1b4986	-0.15164766
132	0x3d3484bc	0.044071898
133	0xbe505f4b	-0.20348851
134	0xbddab763	-0.106795095
135	0x3e03503b	0.12823574
136	0xbdccf7e4	-0.10008219
137	0x3d34962b	0.044088524
138	0xbba5b015	-0.005056391
139	0xbd3a2974	-0.04544969
140	0xbd4fe79f	-0.050758
141	0xbcc83d16	-0.02444319
142	0x3d604c62	0.054760344
143	0xbdc92f8f	-0.09823524
144	0xbd2bb4ee	-0.041920595
145	0x3c921f7c	0.017837279
146	0x3cc4e99c	0.024037175
147	0x3d8220c4	0.06353906
148	0xbd79250e	-0.060826354
149	0xbd270d3d	-0.04078411
150	0x3d321a97	0.04348239
151	0xbd7fc2b6	-0.06244155
152	0x3d78bb27	0.060725357
153	0x3be69ea7	0.007037956
154	0xbdd89f4b	-0.10577258
155	0x3dad2d64	0.08455923
156	0x3c75257c	0.01496255
157	0x3dc92124	0.09820774
158	0x3e03b9c7	0.12863837
159	0x3d619959	0.055077884
160	0x3d80b64d	0.06284771
161	0xbd00c7d6	-0.03144058
162	0x3d926e9c	0.07150003
163	0x3d4b2931	0.04959983
164	0xbd7e01aa	-0.062013306
165	0xbdc54789	-0.09632785
166	0xbde3411e	-0.110964045
167	0xbcc69096	-0.024238866
168	0x3d4e5079	0.050369713
169	0x3d421d1d	0.047391046
170	0x3ce2cd49	0.027685778
171	0x3a76d6d7	0.0009416169
172	0xbcd2cf44	-0.025733598
173	0xbd84f49f	-0.0649197
174	0xbd5f9587	-0.05458596
175	0xbc698a99	-0.014254236
176	0xbd386334	-0.045016482
177	0xbd94bc49	-0.07262475
178	0x3da7a13f	0.08185052
179	0x3c4b3fb9	0.012405329
180	0x3d4c3386	0.049853824
181	0x3ca1bc72	0.019743178
182	0x3cc54335	0.024079898
183	0xbda2f2d7	-0.07956474
184	0x3d268210	0.04065138
185	0x3cfa850a	0.030581016
186	0x3cef0322	0.029176299
187	0xbc65e214	-0.014030952
188	0x3cafb7a1	0.021449866
189	0xbc9ffb40	-0.019528985
190	0xbde1626f	-0.11005103
191	0x3d81f387	0.06345277
192	0x3bee1579	0.0072657433
193	0x3cea8cb7	0.028631551
194	0xbda9274a	-0.08259447
195	0x3d60d9a6	0.054895066
196	0x3d8c50fa	0.068513826
197	0x3d82bfd3	0.06384244
198	0xbd93185b	-0.0718238
199	0xbd7a0877	-0.06104323
200	0x3da50d93	0.0805923
201	0x3d2f9e25	0.042875428
202	0x3d954afb	0.07289692
203	0xbd8ba7f4	-0.06819144
204	0xbe0ef8e4	-0.13962132
205	0xbd63b0e8	-0.055588633
206	0xbc147100	-0.009060144
207	0xbdb69a21	-0.089161165
208	0xbce09205	-0.027413378
209	0x3bf34996	0.0074245436
210	0xbd016c81	-0.031597618
211	0xbdda4eea	-0.10659583
212	0x3c2fb6c8	0.010724731
213	0xbdb7fbd5	-0.0898358
214	0x3d1d750e	0.03844171
215	0xbd85e104	-0.06537059
216	0x3cf7e616	0.03026108
217	0x3d2a503a	0.041580416
218	0x3c6bb300	0.014385939
219	0xbdfe3ef2	-0.124143496
220	0x3c2ec2b6	0.01066654
221	0xbdacd393	-0.08438792
222	0x3d6d0728	0.057868153
223	0x3b9b6d8e	0.0047432845
224	0xbd1c68b8	-0.038185805
225	0xbcf42312	-0.02980188
226	0x3d283e49	0.041075025
227	0xbd2d89fb	-0.042367917
228	0x3d31c814	0.0434037
229	0x3d8efe53	0.06982102
230	0xbd7a335c	-0.061084136
231	0x3b5319e6	0.0032211482
232	0xbd65c515	-0.056096155
233	0x3d238de0	0.039930224
234	0xbd0685a3	-0.03284229
235	0xbe2d8fd3	-0.16949396
236	0xbc2fb4d9	-0.01072427
237	0xbd8c2e21	-0.06844736
238	0xbdd959f6	-0.10612862
239	0xbd004b9c	-0.031322107
240	0xbba34b12	-0.0049833143
241	0xbe15ef97	-0.14642178
242	0x3c215360	0.009846538
243	0x3d29be69	0.041441355
244	0x3d68775b	0.05675445
245	0xbc074f37	-0.008258632
246	0xbe1afbc7	-0.15135108
247	0x3e12b12f	0.14325403
248	0x3c8e2ebb	0.017356267
249	0xbc531b33	-0.012884903
250	0xbd3b2317	-0.04568776
251	0xbbdf2589	-0.0068098945
252	0x3cf893f6	0.03034399
253	0x3d6b4022	0.05743421
254	0xbc744f4f	-0.014911487
255	0xbba9c71e	-0.0051812073

a2c_network.actor_mlp.2.bias f4 [128]
0	0xbe0675a2	-0.13130811
1	0xbd9723fb	-0.073799096
2	0xbc2c1bcd	-0.010504675
3	0x3d6a1fde	0.057159297
4	0xbd1ee100	-0.038788795
5	0xbd131dfe	-0.035917275
6	0xbd8a28c3	-0.06746056
7	0x3cabd72c	0.020976625
8	0xbda9719a	-0.08273621
9	0xbe1f49c8	-0.15555489
10	0x3cf4356c	0.02981063
11	0xbd9a54a1	-0.07535673
12	0xbd768061	-0.060181025
13	0x3d3dcf26	0.04634013
14	0x3d442fd0	0.04789716
15	0x3ba243fd	0.0049519525
16	0xbd54f26f	-0.051989015
17	0x3c1121d2	0.008858161
18	0xbe08fb91	-0.13377215
19	0xbd98693e	-0.07441948
20	0xbd852731	-0.06501616
21	0x3ccd8586	0.025088083
22	0xbe10fe8b	-0.141596
23	0x3c067fde	0.008209197
24	0xbdbee91b	-0.09321805
25	0x3c010bcb	0.007876347
26	0xbbee7b19	-0.007277858
27	0x3d4a94fb	0.049458485
28	0x3b61ddfe	0.0034464593
29	0xbd9bf0ad	-0.07614265
30	0x3e093d52	0.13402298
31	0x3d002a55	0.03129037
32	0x3c82ef52	0.015983257
33	0xbcb8ba79	-0.022549855
34	0x3d93a9c9	0.07210118
35	0x3ba829a5	0.0051319175
36	0x3df0f3a5	0.117652215
37	0xbc8a2c38	-0.016866788
38	0x3d0b6bf4	0.0340385
39	0xbcfae425	-0.030626366
40	0xbdaf428e	-0.08557616
41	0xbdae665a	-0.08515616
42	0xbd8aa586	-0.06769852
43	0xbdf4ecf4	-0.11959258
44	0x3cd58ba4	0.026067562
45	0xbda22ead	-0.07919059
46	0x3d4b1f76	0.04959055
47	0x3c2c069e	0.010499625
48	0x3d38051f	0.04492676
49	0x3d0edb6a	0.03487722
50	0x3dcd2d51	0.10018409
51	0xbe43938d	-0.19099255
52	0x3dc3ea4e	0.095661744
53	0x3e0cbe72	0.13744524
54	0xbe05252c	-0.13002461
55	0xbd8ba6c3	-0.06818917
56	0xbd225616	-0.03963288
57	0x3e3f43af	0.18678163
58	0x3cde626b	0.027146539
59	0x3be1afe0	0.006887421
60	0xbdd6dc0c	-0.10491189
61	0xbe16ce93	-0.1472724
62	0xbdee930f	-0.11649143
63	0xbe0314f8	-0.12800968
64	0x3c97a5ee	0.018511739
65	0xbbc3428d	-0.005958861
66	0xbd5c9a88	-0.05385831
67	0xbd4e5997	-0.05037841
68	0xbda25b3c	-0.07927558
69	0xbdc87c26	-0.097893044
70	0xbd9ab128	-0.07553321
71	0xbccefe82	-0.025267843
72	0xbd302af1	-0.043009702
73	0x3c065387	0.008198625
74	0xbd7cf256	-0.061754547
75	0xbcc57aa9	-0.02410634
76	0x3c52246b	0.0128260655
77	0xbc92498b	-0.017857334
78	0xbcd02b88	-0.025411382
79	0xbceb209f	-0.028702078
80	0x3dbb07bd	0.09132335
81	0xbdcc7975	-0.099841036
82	0xbdb567e1	-0.08857704
83	0xbe0af79a	-0.13571015
84	0x3daa1802	0.083053604
85	0xbcc3595f	-0.023846326
86	0x3ccd04ea	0.025026757
87	0xbd62ac63	-0.055340182
88	0xbd646a9a	-0.055765726
89	0x3d2fb1f7	0.04289433
90	0xbdc7971c	-0.09745619
91	0x3d26569d	0.040609945
92	0xbdfd6877	-0.12373441
93	0x3d8262e0	0.06366515
94	0xbda45244	-0.080235034
95	0xb9317b25	-0.0001692591
96	0x3db53c6e	0.08849417
97	0x3d3af458	0.04564318
98	0x3c984c94	0.018591203
99	0xbe2b8324	-0.16749245
100	0xbd5fbbc3	-0.054622423
101	0xbd390db4	-0.045179084
102	0xbc853cc9	-0.016264336
103	0xbd334ac7	-0.043772485
104	0x3b6fd1f9	0.003659366
105	0x3d211fbd	0.03933691
106	0xbc612643	-0.013742032
107	0x3cd01503	0.025400644
108	0xbe029254	-0.12751132
109	0xbd9b7c65	-0.07592086
110	0x3c1bbd08	0.009505518
111	0x3e0b9d31	0.13634183
112	0xbccb4e45	-0.024817595
113	0xbdbe4cf6	-0.09292023
114	0x3cba3a42	0.022732858
115	0xbda4f270	-0.08054054
116	0xbdabb619	-0.08384342
117	0x3d42af56	0.047530495
118	0xbe0e5631	-0.13900067
119	0xbc1af6cd	-0.009458256
120	0xbc0cbbca	-0.008589694
121	0x3bf11c89	0.007358138
122	0xbc849ebb	-0.01618897
123	0xbd8ad700	-0.06779289
124	0x3d4df309	0.050280605
125	0x3db3098b	0.087420546
126	0x3cb5a9af	0.022175638
127	0x3d70ca5f	0.058786746

a2c_network.actor_mlp.4.weight f4 [64, 128]
0	0xbd459391	-0.048236433
1	0xbd792904	-0.06083013
2	0x3d9333e6	0.07187633
3	0xbd692843	-0.056923162
4	0xbd53b99e	-0.05169069
5	0x3d9a9404	0.07547763
6	0x3c801c12	0.015638385
7	0xbd6d6f5b	-0.057967525
8	0xbe3dd98c	-0.18540019
9	0x3d48194f	0.04885226
10	0x3da35206	0.07974629
11	0xbc8c4f5f	-0.01712769
12	0xbd1f8664	-0.038946524
13	0x3d83b78f	0.064314954
14	0x3cf35015	0.029701272
15	0x3bcf64d1	0.006329157
16	0xbc9d54c1	-0.019205453
17	0xbc855ab2	-0.016278598
18	0xbdb82784	-0.08991912
19	0x3d8ae5d3	0.06782117
20	0xbd06c010	-0.03289801
21	0xbc171404	-0.009221081
22	0xbdfb7fc5	-0.122802295
23	0xbcd7863d	-0.026309127
24	0x3c64f9a7	0.013975537
25	0xba2ec9ce	-0.00066676445
26	0x3d4bed31	0.04978675
27	0x3ca745a3	0.020418948
28	0x3c50c2ce	0.012741758
29	0x3d94a2a6	0.07257585
30	0xbd1f2d1a	-0.03886137
31	0xbc21e0e9	-0.009880283
32	0x3d483994	0.048883036
33	0xbd472952	-0.04862339
34	0xbd6be1f9	-0.05758855
35	0xbd345b29	-0.04403225
36	0xbc878560	-0.01654309
37	0xbda6cdf1	-0.08144749
38	0xbb0c34d4	-0.0021393793
39	0xbe0f27d4	-0.13980037
40	0xbde9c52d	-0.114145614
41	0xbc314bc2	-0.010821285
42	0xbb026d28	-0.0019901488
43	0x3d15582d	0.036461044
44	0xbd995384	-0.074866325
45	0xbdbeba3b	-0.093128644
46	0xbdb67b2b	-0.08910211
47	0xbd01f7b1	-0.031730358
48	0xbc349adc	-0.0110232495
49	0xbd99a9d5	-0.07503096
50	0x3d993ec6	0.07482676
51	0xbe0d4ef8	-0.13799655
52	0xbbd098ba	-0.0063658627
53	0xbc4c88da	-0.0124838
54	0xbcd16d2f	-0.025564758
55	0xbd4bd073	-0.04975934
56	0xbd8ea26d	-0.06964574
57	0xbc38d8f9	-0.011282199
58	0xbe0743ec	-0.13209504
59	0x3b9dce92	0.004815885
60	0x3e062f60	0.1310401
61	0xbb683dd2	-0.0035437238
62	0xbe1b0095	-0.15136941
63	0xbc16e38c	-0.009209525
64	0xbd9a38f7	-0.075303964
65	0xbd1403a4	-0.036136284
66	0x3caae56c	0.02086135
67	0x3cdf39b7	0.0272492
68	0xbddf0e9c	-0.108914584
69	0xbd38c259	-0.04510722
70	0xbd9a6d77	-0.0754041
71	0xbdfb6d46	-0.12276702
72	0xbd6d9fbd	-0.058013666
73	0xbadc2998	-0.0016797064
74	0xbc72429a	-0.014786387
75	0xbd297c34	-0.041378215
76	0x3dac8bc7	0.08425098
77	0xbd8e078d	-0.06935034
78	0xbac5c22b	-0.0015087774
79	0xbdc52fb0	-0.09628236
80	0x3d4e72bd	0.05040239
81	0x3c7e5076	0.015522113
82	0xbded9c3c	-0.11602065
83	0x3d284ac6	0.041086935
84	0xbc1c1de9	-0.0095286155
85	0xbcd2574a	-0.025676388
86	0xbcd723da	-0.026262213
87	0xbe03a016	-0.12854037
88	0xbce32cf2	-0.027731393
89	0xbbe1774d	-0.006880677
90	0xbdb026e1	-0.086011656
91	0x3dfe62c0	0.12421179
92	0xbe1307e5	-0.1435848
93	0xbcf4dfea	-0.029891927
94	0xbe1f5383	-0.15559201
95	0xbcb6805e	-0.022278007
96	0xbe0fbd82	-0.14037135
97	0xbbf964a0	-0.0076108724
98	0xbd536e3f	-0.05161881
99	0xbd84f19b	-0.06491395
100	0xbd8c6058	-0.068543136
101	0xbdb8578a	-0.09001072
102	0x3c372e64	0.011180494
103	0x3dc888b4	0.09791699
104	0x3da5e3eb	0.081001125
105	0x3d0dfa4a	0.034662522
106	0xbd7e36ed	-0.0620641
107	0x3da920da	0.08258219
108	0xbd9b81ed	-0.07593141
109	0x3d0ac82d	0.03388231
110	0x3d53ddb4	0.051725104
111	0x3af9783a	0.0019033023
112	0xbdaa5cfc	-0.083185166
113	0xbc899770	-0.016795844
114	0x3d92e407	0.07172399
115	0x3b9f5514	0.004862437
116	0x3cff28e1	0.031147422
117	0xbd74ec6b	-0.05979578
118	0xbdf1433f	-0.11780404
119	0x3d603c28	0.05474487
120	0x3c0bd7a3	0.0085352985
121	0xbc88b185	-0.01668621
122	0xbc8788f8	-0.016544804
123	0x3d374466	0.044742964
124	0x3d8b2824	0.067947656
125	0xbd1824c4	-0.037144437
126	0xbd8a7317	-0.06760233
127	0xbcd96346	-0.026536595
128	0x3cda70bb	0.026665082
129	0x3c50533c	0.012715157
130	0x3b7ed383	0.0038883395
131	0xbc36e5a4	-0.011163149
132	0xbd1cf646	-0.038320802
133	0x3cec689e	0.02885848
134	0xbdd2ef12	-0.10299505
135	0x3d448c7d	0.047985543
136	0xbdb64528	-0.08899909
137	0xbd71fe91	-0.059080664
138	0x3d5d94b2	0.054096885
139	0xbdb48433	-0.088142775
140	0xbdd82a4e	-0.10554944
141	0x3dae991e	0.085252985
142	0x3d314fb4	0.0432889
143	0x3cf702db	0.030152729
144	0xbd0e2e80	-0.034712315
145	0xbd8203b0	-0.063483596
146	0xbdc1e17f	-0.09466838
147	0xbc811b3a	-0.015760053
148	0xba199539	-0.0005858723
149	0x3dbccbef	0.09218585
150	0xbd837f5a	-0.06420775
151	0xbc6390fc	-0.013889547
152	0xbd645a5f	-0.055750247
153	0xbd867efe	-0.065671906
154	0x3d354ea4	0.04426445
155	0xbd3a6ce5	-0.045514006
156	0xbd09d97a	-0.033654667
157	0xbd8e3e95	-0.0694553
158	0x3dd0126f	0.10159766
159	0xbc8d0c0e	-0.017217662
160	0xbb8e21f9	-0.004337546
161	0x3c33a5ec	0.010964852
162	0x3d302591	0.043004576
163	0x3d2b14b1	0.04176778
164	0x3d9eb213	0.07748809
165	0x3ac0de2c	0.001471465
166	0x3d130581	0.03589392
167	0x3d9c36e1	0.07627655
168	0x3d6fee03	0.058576595
169	0x3d16ff97	0.036864843
170	0xbd59fee5	-0.053221602
171	0xbd1200e4	-0.03564538
172	0xbd9def18	-0.07711619
173	0xbd981b68	-0.07427102
174	0xbdab8509	-0.08374984
175	0x3d5ce835	0.053932387
176	0xbd3b203b	-0.045685034
177	0x3cef5084	0.029213198
178	0xbd7a2b07	-0.06107619
179	0x3ba1bfc7	0.0049361917
180	0xbda5a523	-0.08088138
181	0x3d7f57e2	0.06233967
182	0x3d18a8b2	0.037270255
183	0xbdb5e409	-0.08881385
184	0x3d481fe0	0.048858523
185	0xbd982046	-0.07428031
186	0xb9ecf983	-0.00045199328
187	0xbd02f1b6	-0.031968795
188	0x3dd4a951	0.10383857
189	0xbc8f9d03	-0.017530924
190	0xbe1d7088	-0.15374959
191	0xbd87d245	-0.066319026
192	0xbdb37c9a	-0.08764
193	0xbd8f95ab	-0.07010969
194	0x3d8e8f99	0.06960983
195	0x3cca82ad	0.024720514
196	0x3e0cba32	0.13742903
197	0xbcc1d9b3	-0.023663377
198	0x3d4a4d52	0.049390145
199	0xbab7b152	-0.0014014638
200	0x3d405dc3	0.04696442
201	0x3d47ede4	0.048810855
202	0xbd16077a	-0.036628224
203	0x3a1d6a71	0.0006004936
204	0x3dbda7d4	0.09260526
205	0x3cc60ff6	0.024177533
206	0x3c546e70	0.0129657835
207	0xbd867cf5	-0.065668024
208	0x3d8dedfd	0.06930158
209	0xbd9040f9	-0.070436426
210	0xbdf74fb7	-0.12075751
211	0x3b967e91	0.0045927246
212	0xbd61bf18	-0.05511388
213	0x3d7c30aa	0.061569847
214	0x3c944aa6	0.018102001
215	0xbdef6361	-0.11688877
216	0xbd307e15	-0.04308899
217	0xbc84911b	-0.016182473
218	0xbdf5fc7d	-0.12011049
219	0x3dedbea3	0.11608627
220	0xbe29d52e	-0.16585228
221	0x3cd69804	0.026195534
222	0x3c9de1ae	0.019272652
223	0x3d9ba7d4	0.0760037
224	0x3d14eb4f	0.03635722
225	0xbca879e7	-0.02056594
226	0xbd605d0c	-0.054776236
227	0xbdafa508	-0.08576399
228	0x3b1ec7e0	0.0024228022
229	0x3d89f197	0.06735533
230	0x3d60dc4d	0.054897595
231	0x3c014f1c	0.007892396
232	0x3d4e2b2a	0.050334133
233	0x3d88355d	0.06650803
234	0xbe222eee	-0.15838215
235	0xbd72ddc0	-0.05929351
236	0xbd9a08ae	-0.07521187
237	0xbd979858	-0.07402104
238	0x3d9c4a3a	0.07631345
239	0x3da0786e	0.0783547
240	0xbcd1a43e	-0.025591012
241	0xbdb809c7	-0.0898624
242	0xbd079ba3	-0.03310741
243	0xbe050c6b	-0.12993018
244	0x3d97bdda	0.07409258
245	0xbbd6d0ed	-0.0065556676
246	0x3c17de79	0.00926935
247	0x3da039ce	0.07823525
248	0x3d0e009c	0.03466855
249	0x3d6c8365	0.057742495
250	0xbce823f3	-0.028337454
251	0xbd1944d9	-0.037419174
252	0x3db8892d	0.09010539
253	0xbc867a83	-0.01641584
254	0x3d7830a4	0.060593262
255	0xbde67499	-0.11252708

a2c_network.actor_mlp.4.bias f4 [64]
0	0x3bde1bd5	0.00677822
1	0x3d0997ed	0.033592153
2	0xbdd594b8	-0.104287565
3	0x3cacbd5d	0.02108639
4	0xbd680a41	-0.056650404
5	0x3c81fd4d	0.015867854
6	0xbd88dd7b	-0.06682869
7	0xbde3bcbb	-0.11119982
8	0x3cc0e977	0.023548825
9	0x3da39969	0.07988245
10	0x3c1aab98	0.009440325
11	0x3cd5adad	0.026083792
12	0x3c3c2ded	0.011485559
13	0xbd455b0d	-0.048182536
14	0xbda0eeb7	-0.07858031
15	0xbcd6eef1	-0.026236983
16	0x3cb95f4d	0.02262845
17	0xbdb3c590	-0.087779164
18	0xbd4e8f4c	-0.050429627
19	0x3c579494	0.013157982
20	0xbe1f590f	-0.15561317
21	0x3d0dd661	0.034628276
22	0xbda3400c	-0.079712
23	0x3c817fce	0.015808012
24	0xbd22d3d2	-0.03975279
25	0x3de33307	0.11093717
26	0x3d290bd7	0.041271057
27	0x3cc28959	0.023747133
28	0x3cf78c83	0.030218368
29	0x3d26e22c	0.040743038
30	0xbdcf28c4	-0.10115197
31	0xbdf24713	-0.118299626
32	0xbdbab9a9	-0.09117443
33	0x3d7176ec	0.058951303
34	0xbd21f070	-0.03953594
35	0xbc584dbe	-0.013202129
36	0xbd96e370	-0.07367599
37	0xbd06ffdb	-0.032958847
38	0x3d719246	0.058977388
39	0x3d1da8fa	0.038491227
40	0xbcec4863	-0.02884311
41	0x3bd72108	0.006565217
42	0xbc9a8fcd	-0.018867398
43	0x3d55d576	0.052205525
44	0xbda5d08e	-0.08096419
45	0xbda957b9	-0.08268685
46	0xbd1ced99	-0.03831253
47	0xbc963f81	-0.018340828
48	0xbb8a4cac	-0.004220566
49	0x3d47aed4	0.048750713
50	0x3d046f89	0.03233293
51	0x3d5a3e59	0.053282116
52	0x3d12ea1b	0.03586779
53	0xbe1341e3	-0.14380603
54	0xbd2d37a8	-0.042289406
55	0xbd7a0977	-0.061044183
56	0xbda255d0	-0.07926524
57	0xbd64b286	-0.055834316
58	0xbc34dabb	-0.0110384775
59	0xbd982af4	-0.07430068
60	0xbd151210	-0.03639418
61	0x3d770eab	0.060316723
62	0x3dc380c7	0.09546047
63	0xbe00b896	-0.12570414

a2c_network.value.weight f4 [1, 64]
0	0x3da64a96	0.08119695
1	0x3d6454b4	0.05574484
2	0xbdde2b65	-0.108481206
3	0xbcf8652a	-0.030321676
4	0x3bd11c46	0.0063815443
5	0x3dbdf389	0.09274966
6	0xbdbffbf5	-0.09374229
7	0xbe2c42e6	-0.16822395
8	0xbcbcc69c	-0.023043923
9	0x3da07081	0.078339584
10	0x3b40b6a9	0.002940575
11	0x3d52ef13	0.05149753
12	0x3d0b0d76	0.033948384
13	0xbd59d456	-0.053181015
14	0xbd9e3e4d	-0.07726727
15	0x3c041aaa	0.008062998
16	0x3dad4aa3	0.084615014
17	0xbdb62e84	-0.08895591
18	0x3da8d63a	0.082439855
19	0x3e104c70	0.14091659
20	0xbe0110aa	-0.12604013
21	0x3df7ffc8	0.12109333
22	0xbe3c6e59	-0.1840147
23	0x3d5e0d75	0.054212052
24	0xbd654ee4	-0.05598344
25	0x3d4db509	0.050221477
26	0x3e30baec	0.17258805
27	0xbc7a6ba0	-0.015284449
28	0x3da81b93	0.08208384
29	0x3db090c6	0.08621363
30	0xbd429622	-0.04750646
31	0xbd9de6d3	-0.07710042
32	0xbd9f3865	-0.07774428
33	0x3b5a14ca	0.0033276551
34	0xbd53012f	-0.0515148
35	0xbcb2711b	-0.021782449
36	0xbc78942e	-0.015172048
37	0xbcae82d2	-0.021302614
38	0x3dc361d4	0.095401436
39	0x3df8ee2a	0.12154801
40	0x3ccfd334	0.025369264
41	0x3e133970	0.1437738
42	0xbd91f038	-0.07125896
43	0x3d94c502	0.07264139
44	0xbd471226	-0.048601292
45	0xbdd75b14	-0.10515419
46	0xbb8f54f1	-0.0043741395
47	0x3aee98a0	0.0018203445
48	0x3b8e7182	0.0043470273
49	0x3d9e39a2	0.07725836
50	0x3d0a8d35	0.03382607
51	0xbbcbf169	-0.0062238467
52	0x3de34151	0.110964425
53	0xbd0f2ee6	-0.034956835
54	0x3cf5aa42	0.029988412
55	0xbdabac45	-0.08382467
56	0xbd2567a3	-0.04038204
57	0xbcd39a81	-0.02583051
58	0xbc9c25cd	-0.019060994
59	0xbda048d3	-0.0782639
60	0x3c89ef38	0.016837701
61	0xbc352f0a	-0.011058578
62	0x3ca19efe	0.019729134
63	0xbe1cd479	-0.15315427

a2c_network.mu.weight f4 [6, 64]
0	0xbd71c076	-0.059021436
1	0xbd8fd47c	-0.0702295
2	0x3cacc7e2	0.021091405
3	0xbd9200b4	-0.0712904
4	0xbd34fdcc	-0.044187352
5	0xbc952986	-0.018208276
6	0x3dec802e	0.11547886
7	0x3d42305c	0.0474094
8	0xbe09c4a9	-0.13453926
9	0xbc8852b7	-0.016641004
10	0xbd465cf3	-0.048428487
11	0x3d93d4aa	0.07218297
12	0xbdc34bf8	-0.09535974
13	0x3d3bdc51	0.045864407
14	0x3d9610b6	0.07327406
15	0x3d8967a0	0.06709218
16	0x3d35995e	0.044335715
17	0x3de2d0cb	0.1107498
18	0x3ceeccc4	0.029150374
19	0x3d7e14b7	0.062031474
20	0x3e021291	0.12702395
21	0xbc75f029	-0.015010872
22	0xbd8addfb	-0.06780621
23	0x3dedd339	0.11612553
24	0xbd0a6ca7	-0.033795025
25	0xbe27761c	-0.16353649
26	0x3d02c1cb	0.031923097
27	0xbdb4fbc6	-0.088370845
28	0x3b96217d	0.004581629
29	0x3bfc3209	0.0076963943
30	0xbd1790f8	-0.037003487
31	0x3e0407c0	0.12893581
32	0xbb7bba4f	-0.003841061
33	0xbde275ba	-0.11057611
34	0xbc8aa264	-0.016923137
35	0xbd14d49c	-0.036335573
36	0xbd2bd3ae	-0.04194992
37	0xbd1f0c10	-0.038829863
38	0xbdd72ba3	-0.1050637
39	0xbe4b6742	-0.19863608
40	0x3cd75018	0.026283309
41	0xbe3693c6	-0.17829809
42	0xbb4d491f	-0.00313241
43	0xbd2f76f2	-0.042838044
44	0x3e10d65f	0.14144276
45	0x3dab735e	0.08371614
46	0xbd22cb2d	-0.039744545
47	0x3d9d5196	0.07681577
48	0xbd57396e	-0.052545004
49	0xba293710	-0.00064550433
50	0xbd312d4f	-0.0432561
51	0xbcd1f451	-0.025629194
52	0x3d682a44	0.056680933
53	0x3cc01fcf	0.023452668
54	0x3d3f1b2d	0.046656776
55	0xbd129d27	-0.035794403
56	0xbc8f0964	-0.017460532
57	0x3d7d9b52	0.061915703
58	0x3db83a6e	0.089955196
59	0x3d05b0b2	0.032639213
60	0x3d3e0262	0.04638899
61	0xbdc2a374	-0.095038325
62	0xbdc004d8	-0.09375924
63	0x3e06c80b	0.13162248
64	0xbd9a23cc	-0.07526359
65	0xbcfd5c44	-0.030927785
66	0x3cb556c5	0.022136101
67	0x3d495ec4	0.04916264
68	0xbb2af9b1	-0.002608877
69	0xbc46d80c	-0.0121364705
70	0x3c377617	0.011197588
71	0xbd676ac7	-0.056498315
72	0xbdc02495	-0.093819775
73	0x3dbda65a	0.09260245
74	0xbd46de0b	-0.0485516
75	0x3b68c20f	0.0035516059
76	0xbc20054c	-0.009766888
77	0x3d4042b7	0.046938624
78	0x3bb7ed99	0.0056130406
79	0xbcbfe342	-0.023423795
80	0x3d13efe2	0.036117442
81	0xbbfc9d91	-0.007709213
82	0xbda4c379	-0.08045096
83	0x3e49a9ea	0.19693723
84	0xbdd9a492	-0.106270924
85	0xbb6f3e95	-0.0036505808
86	0x3d2e28cf	0.042519387
87	0xbc2602b5	-0.010132481
88	0x3d9d76fb	0.07688709
89	0x3cc58a5b	0.024113825
90	0x3cd94a04	0.026524551
91	0x392dc02f	0.0001657016
92	0xbcae7c77	-0.021299584
93	0xbd8d0133	-0.06884994
94	0xbe06d73c	-0.13168043
95	0xbc9e2ca1	-0.01930839
96	0xbd8ae9d7	-0.06782883
97	0x3d1e1274	0.038591817
98	0x3d2da908	0.04239753
99	0xbd559a0b	-0.05214886
100	0xbda13574	-0.078715235
101	0xbd35d2e5	-0.044390578
102	0xbc0120ce	-0.007881356
103	0x3cf33b7f	0.029691456
104	0x3cb8db1e	0.02256542
105	0x3a768149	0.000940342
106	0x3a91b07c	0.0011115219
107	0xbdf55e81	-0.11980916
108	0x3df6cab7	0.120503835
109	0xbc7e0d83	-0.015506151
110	0x3dc27dce	0.094966516
111	0x3d9269fa	0.0714912
112	0x3d5719ce	0.052514844
113	0x3dd54020	0.104126215
114	0xbddd80af	-0.1081556
115	0x3de1e44c	0.11029872
116	0xbd306fd4	-0.043075398
117	0xbd9a36cd	-0.07529984
118	0xbd887d3d	-0.06664512
119	0x3cface6f	0.030616013
120	0x3b8fdf2d	0.0043906183
121	0xbd1f9a66	-0.038965605
122	0x3e2ac9ca	0.16678539
123	0x3ce5250b	0.027971765
124	0x3b04b665	0.0020250317
125	0xbca4ee25	-0.020133087
126	0x3e2a058b	0.16603677
127	0xbdb4b469	-0.08823473
128	0xbd1b0e56	-0.03785547
129	0x3c8fbef2	0.017547105
130	0xbd1c1748	-0.03810814
131	0x3de4cec8	0.11172253
132	0xbda9a80b	-0.08284005
133	0x3e0e47f7	0.1389464
134	0x3de665d9	0.11249895
135	0x3d47baac	0.04876201
136	0x3dc3db16	0.09563272
137	0xbd33b0ce	-0.043869786
138	0xbcfa965f	-0.03058928
139	0x3ce07078	0.02739738
140	0x3d545c5a	0.051845886
141	0xbd3bc79e	-0.045844667
142	0x3de1705c	0.11007759
143	0x3d6abadb	0.057307106
144	0x3dd9894b	0.1062189
145	0x3ce4bd27	0.027922226
146	0x3db15563	0.08658864
147	0x3d9c9879	0.07646269
148	0x3cb12e37	0.021628482
149	0xbdd74728	-0.10511619
150	0xbd83041d	-0.06397269
151	0xbafef853	-0.0019452668
152	0xbd1758dc	-0.036949977
153	0xbdf432e4	-0.11923769
154	0xbda885a0	-0.08228612
155	0xbd34e8e8	-0.04416743
156	0x3d1b839e	0.037967317
157	0x3d2db5b3	0.04240961
158	0x3dba44f4	0.09095183
159	0x3ca5277c	0.02016043
160	0x3d45b7df	0.048271056
161	0x3d87d1f0	0.06631839
162	0xbb3b8577	-0.0028613487
163	0xbbb5b099	-0.0055447337
164	0x3d9d8bb7	0.07692664
165	0x3d9d5867	0.07682877
166	0x3d8d4e04	0.06899646
167	0x3cae02d6	0.021241587
168	0x3d5b82d2	0.053591557
169	0xbdb7a31f	-0.0896666
170	0x3d8bf67f	0.06834125
171	0x3ddf9954	0.10917917
172	0x3d6af376	0.05736109
173	0xbe161f41	-0.1466036
174	0xbbd03c4a	-0.0063548433
175	0x3d726ec0	0.05918765
176	0xbdfa189e	-0.122117266
177	0xbc97bd30	-0.018522829
178	0x3c5ba850	0.013406828
179	0x3dc0c62e	0.094128
180	0x3d184e83	0.03718425
181	0xbd641b25	-0.05568995
182	0xbdcd4598	-0.100230396
183	0x3d0432aa	0.03227488
184	0x3cab271d	0.020892674
185	0x3d38c015	0.04510506
186	0x3da5964c	0.080853075
187	0xbd2c8de1	-0.042127494
188	0xbd6af528	-0.057362705
189	0x3d089adf	0.03335082
190	0xbdd7dda8	-0.105403244
191	0x3d1a9023	0.037735116
192	0x3db45753	0.08805718
193	0xbcc1932c	-0.023629747
194	0xbd0cb744	-0.034354463
195	0x3e0a289d	0.13492055
196	0xbca978be	-0.020687457
197	0x3d06b880	0.032890797
198	0x3d0f92cf	0.035052117
199	0x3df374f3	0.11887541
200	0x3e166990	0.14688706
201	0x3d8289ae	0.063739166
202	0x3d9523d1	0.07282222
203	0x3dc66734	0.09687653
204	0xbdae7e49	-0.08520181
205	0xbd1da31e	-0.03848564
206	0x3d69947b	0.057026368
207	0x3d69506b	0.05696146
208	0xbd64a840	-0.05582452
209	0x3dbeed29	0.093225785
210	0xbde5f0d2	-0.112275735
211	0x3e119089	0.14215292
212	0xbda4d106	-0.080476806
213	0x3c52cf4f	0.012866809
214	0xbb134e35	-0.0022477035
215	0x3d7048f8	0.05866334
216	0x3da451c5	0.08023409
217	0x3d9f5fdc	0.077819556
218	0x3c9056bf	0.017619489
219	0x3cb37230	0.021905035
220	0x3d9e6a90	0.07735169
221	0x3df9d0ff	0.12198066
222	0xbcd6df2f	-0.02622947
223	0xbc6fafc2	-0.014629306
224	0x3ce3799f	0.027767954
225	0x3d3dc349	0.046328817
226	0xbc4ebcbc	-0.01261824
227	0x3df80b31	0.121115096
228	0xbd56caa4	-0.052439347
229	0xbdf62ba1	-0.1202004
230	0x3c89c603	0.016818052
231	0x3cb867c0	0.02251041
232	0xbd89171c	-0.06693861
233	0x3da59e7a	0.08086868
234	0x3df9fb54	0.1220614
235	0x3decbd1a	0.11559506
236	0xbd76bece	-0.06024056
237	0x3deaa436	0.11457102
238	0xbd2d64ac	-0.042332336
239	0xbd0cc540	-0.0343678
240	0xbce57386	-0.028009187
241	0xbd91a2a8	-0.07111102
242	0x3d69cb96	0.05707892
243	0x3d99d8e9	0.075120755
244	0x3dbf8437	0.0935139
245	0xbca88f14	-0.020576037
246	0x3d9c62d7	0.0763604
247	0xbc0174b9	-0.007901364
248	0xbd542eaf	-0.051802333
249	0x3dc6b6de	0.09702848
250	0x3dd54fde	0.10415624
251	0xbdcda336	-0.10040896
252	0xbd0b4a23	-0.03400625
253	0x3de956f8	0.11393541
254	0x3cd88a72	0.026433203
255	0xbaf11f83	-0.0018396232

a2c_network.mu.bias f4 [6]
0	0xbdc3de90	-0.09563935
1	0x3d990b44	0.07472852
2	0x3c4a62d3	0.012352663
3	0x3db43e63	0.08800962
4	0x3d50e935	0.051003654
5	0x3d5a1413	0.0532418

exp_avg f4 [6]
0	0x3c5b0141	0.013366998
1	0x3c8525d1	0.016253384
2	0x3cad12e6	0.021127176
3	0x3c805aa3	0.015668219
4	0x3a0795f2	0.0005172185
5	0x3bff5e1b	0.0077932007

exp_avg_sq f4 [6]
0	0x3a957558	0.0011402769
1	0x3a880c60	0.0010379665
2	0x3a92b3b4	0.0011192472
3	0x3a8ebd58	0.0010890169
4	0x3a931071	0.001122011
5	0x3a933b8b	0.0011232955
