IsaacGymEnvs/isaacgymenvs/runs/Bolt_18-17-24-24/nn/last_Bolt_ep_1000_rew_0.2335514.pth (torch, 612432 bytes, 36 tensors)

value_mean_std.running_mean f8 [1]
00000000: dd53 5da1 545c b83f
0.09515885295452571

value_mean_std.running_var f8 [1]
00000000: d8e9 626c 0f20 783f
0.0058899500347089

value_mean_std.count f8 []
00000000: 0000 0000 0170 3741
1536001.0

running_mean_std.running_mean f8 [30]
00000000: c9d6 8a1b b3cb d83f cd61 3065 781d a33f
00000010: ac54 0040 61cc dabf 8622 3f23 6fa6 bb3f
00000020: 7caf bcb6 ab0e ea3f 12e1 1639 5333 c5bf
00000030: 4a19 7d7f 5722 9a3f 382e 8482 a759 93bf
00000040: a327 e06f c7f2 e0bf 4ca8 5be3 a5ff ff3f
00000050: 0000 0000 0000 0000 7b75 f3f7 9a9c 993f
00000060: b33d 6b44 350f c3bf 7244 c8f6 df5a d53f
00000070: cdae 8166 d3f7 d13f b9d2 5eec 84df cd3f
00000080: 0904 60d0 a377 ce3f ba36 c9b6 9233 ca3f
00000090: 0df6 8eac 5393 923f a1be 452e 21e7 943f
000000a0: 085a c822 e44f 143f c1e2 daef 4a97 65bf
000000b0: 6c44 989e 2d90 75bf 944d a6e2 2bde 95bf
000000c0: ccce 0e39 4ba4 d0bf d8d0 a309 ae79 e63f
000000d0: b524 f681 6799 e13f 6375 ce91 6077 dc3f
000000e0: d6f6 5d9c 3581 dc3f 6f6d cd46 8416 d73f
0.38743283929521205 0.03733421550004188 -0.4187243580830209 0.10800833330643841 0.8142908639033375 -0.16562881743971808 0.02552162852887222 -0.018896691647610292
-0.529636114604035 1.9999140626118956 0.0 0.025011464484909745 -0.148901613624259 0.33367156123956143 0.2807510853806264 0.2333837656166418
0.2380261199432712 0.20469888615700943 0.01814013233864924 0.02041293950008927 7.748441630215524e-05 -0.002635618554304692 -0.005264452172483929 -0.021355329235644385
-0.26002770015768983 0.7023534954337505 0.549976114111948 0.44478620757020887 0.4453863169691038 0.36074931062986243

running_mean_std.running_var f8 [30]
00000000: db97 6272 a233 e73f fa88 9651 666c c13f
00000010: f03b acd6 69c5 d83f b4ee 83a9 35b0 ef3f
00000020: 11e3 56cf 387a 0540 9e2c 2b7d a384 e23f
00000030: c16a edf7 64e7 ce3f 7d54 107b 15e0 b43f
00000040: e3bb 4f0f 58a1 d93f f20d 9700 cadc 263f
00000050: e615 b5e6 65d8 b53e 8cb4 1481 70be 2b3f
00000060: 59ae 3d50 8724 c53f a0a0 ca45 6ac0 ae3f
00000070: 6010 fb4d 9cf3 b63f 9b24 e9ea 19fc bd3f
00000080: 0cd9 98c5 5cc9 bb3f 8045 2ed1 ba17 c03f
00000090: 6acf 49f6 f895 ad3f c50d 6289 bf49 af3f
000000a0: e307 8e99 8f25 b03f 8f85 8212 16c9 b53f
000000b0: 78de 0fb2 0119 b53f 03e9 2312 38ac b03f
000000c0: 3b8d 07b0 b550 ea3f d4cd 9604 fa00 d73f
000000d0: 4aaa 6261 ff7e df3f d92c 0126 2996 e43f
000000e0: f66a 3b6b d860 e43f 5b8c b92e 9485 e63f
0.7250530466160358 0.13612059577742014 0.38704915966167075 0.9902599631163498 2.684678668822365 0.578691238851565 0.24143659692602706 0.08154424910056153
0.4004726552511199 0.00017442670677612866 1.3020816379145309e-06 0.00021166919081264492 0.1651772634316895 0.060061760920974594 0.08965470222307337 0.11712800965428231
0.10854129623553294 0.12572417463210783 0.057784824432842566 0.06110952903784609 0.06307313441178013 0.08509958221340795 0.08241282078949463 0.06512785380246915
0.8223522604061267 0.3594346089186875 0.4921263171224025 0.6433301679875526 0.6368219465615244 0.7038060104936322

running_mean_std.count f8 []
00000000: 0000 0000 0270 2741
768001.0

a2c_network.sigma f4 [6]
00000000: 835f 35bf 0103 48bf 14ff 23bf c336 32bf
00000010: 2adf 1cbf f98f 33bf
-0.70848864 -0.78129584 -0.64061093 -0.6961481 -0.6127802 -0.7014156

a2c_network.actor_mlp.0.weight f4 [256, 30]
00000000: a9d6 863e 7b23 bbbe cc00 ba3d f86f 443e
00000010: b87f 043d a2d4 0d3e 0540 1e3d 7fba 873e
00000020: 5018 30bd dcbb fcbd 95ed 483d 5abc 363b
00000030: f391 173d 4312 103e 4ad9 9f3d 0ecc 41bd
00000040: 86fd 9e3d e229 c5bc 7087 283d 8aaa dcbd
00000050: c625 4ebe 25a5 15bd fd23 17be 248c 2e3e
00000060: 0fa8 6fbc 7f91 0d3d fb40 3f3d 83f1 0e3d
00000070: daac 1e3e 57a1 d8bd f17a cbbc eb85 31be
00000080: e015 f03c df8e d1bd cd83 2a3e eb96 0dbe
00000090: 62b8 e03d 3bc1 2bbe 8ef8 4bbc dc3a b1bd
000000a0: fc27 283e 6414 793d 45d6 5f3e ac9a 1bbe
000000b0: 72ac 54be 8f08 41be d8ad 18be 2b3d fb3d
000000c0: b041 53bd 6670 6e3e ac04 f4bd 0851 ddbd
000000d0: de7a 1c3e 5a5e 53bd 4f12 c83d 16e0 193d
000000e0: 269a e53d db35 c1bd 9bfd 0fbd f556 e63d
000000f0: 895b 913d 9510 13be 4ecd 6c3e 674a 1f3e
00000100: f4a7 d7bd 50d9 8ebd 6b64 7c3e 0da7 95bd
00000110: ccd8 b8bb d033 38be d320 d6bd bdc4 743d
00000120: c5b8 df3c 09d3 2ebe 69d0 c33c d0e8 b7bd
00000130: 2f24 18be 8292 b8bd 38d5 f0bd aeff 77be
00000140: 2a06 da3d c1ff 3f3d e231 4e3d 80d9 1fbe
00000150: 30b7 06bd 9a31 2bbe 2f16 dd3c d507 07be
00000160: 4274 87bc 5e56 2abc 4032 063d ba0e dcbc
00000170: 4100 03bd 611e 95be d395 75bd 4a4d 5abe
00000180: 0b4a fdbd 6fa1 9abe a105 813e 6a42 9bbd
00000190: 37db 203e 9d19 df3d 4e50 5bbe 33dd e63d
000001a0: e7f0 97bd 0ab9 b7bd 02d9 3cbe 4ca7 36be
000001b0: 7113 8d3b 1e18 bebd b973 293d 401c 34be
000001c0: 4707 093e 210b cebd b95c 8abd ffd9 283d
000001d0: 86b7 8a3d 5d75 ea3d 1c12 af3d b5ad a8bd
000001e0: c79a 07bd 77ba 0cbe 145b e9bd 2dab c5bd
000001f0: b724 583e 27b2 73be 7951 c83d 8318 3d3d
00000200: 7bca 083e fc8f 87bd 15ef 293e 98d5 af3c
00000210: 7268 393c 7572 2fbe 1c3b c23d 2d36 8ebd
00000220: fd58 cebd c1b9 393e 7396 7d3c 895e d4bd
00000230: 1617 0dbd 56f4 32bd 9b52 e63c b389 00bd
00000240: 9263 e9bd e9fb 37bd c80d b5bd ad5e a63d
00000250: b760 0c3e 4601 d2bd ec27 8a3d 8a1e 173e
00000260: 261f 953d 3dbe 5abd 9ad7 4c3e a115 3e3d
00000270: 4814 0e3d 3d77 f0bb bf84 13be b078 633c
00000280: 2d1b 04bd 75df b7bd 143e d33d b2fa 043e
00000290: 5333 4e3c 3ff4 41bd 8778 f6bc 1ba0 52bd
000002a0: 8d1e 593d 7755 0f3e 4760 06be 0dca a8bd
000002b0: ac07 fe3d a0cf 033e df47 f93c cd69 08be
000002c0: 9699 b5bd 8ff2 3fbe cea7 f7bd 0c61 7a3d
000002d0: 60ee 053e a142 ea3d 1b30 9dbe 87f8 9ebd
000002e0: a1a9 3ebc 2880 853e c38b 0ebd 709f 22be
000002f0: e3eb cc3d 429d 4abc 4104 f2bd e174 ad3d
00000300: eb95 21be d7c5 82bd e89e 40be c48e 803d
00000310: 03a8 ab3d 9c48 d13d dfd8 e1bd fabf 3fbe
00000320: 7843 34be 0682 b639 91f2 cc3c 4583 1e3e
00000330: ba26 9b3c d1c8 203d 0765 423c 7b24 39be
00000340: 0c65 5dbe 39c9 44be ae1c 4e3e a22c 92be
00000350: 440b 533d d9d5 ebbd 69ae c23b e727 76be
00000360: b49b 3fbc b486 183e 52f1 4ebe b5b1 ef3d
00000370: 90e8 6fbd 43f3 96bd 0211 c83b db47 0dbd
00000380: be64 9cbb 2ad6 b3bd b7a8 983d b775 adbd
00000390: 4a39 c93d 4f99 903d f236 e93d ae9a d9bd
000003a0: e3c8 9d3d 47ec 953d 3c07 a83d d466 583e
000003b0: 5f61 a6bb 01f5 553d 406e 30bd 8e83 cebc
000003c0: f61b 2f3e 0386 a4be 7337 333e f2fe a73e
000003d0: a1af 7a3e 540c 28bd c0f5 05be aaac 2b3e
000003e0: 6ba2 673e c830 7abe 6abe 29bd 5e9d 55bd
000003f0: ffd9 5cbd 6b80 04be f2db dabd a086 49bc
0.26335648 -0.36550507 0.09082183 0.19183338 0.032348365 0.13850644 0.038635273 0.26509473
-0.042991936 -0.12340519 0.0490547 0.0027883262 0.037004422 0.14069466 0.078051165 -0.047313742
0.077631995 -0.024067823 0.04114479 -0.10774715 -0.20131597 -0.036534447 -0.14759822 0.17045647
-0.014627471 0.034562584 0.04669283 0.034898292 0.15495625 -0.10577648 -0.024838896 -0.17336242
0.029307306 -0.102323286 0.1665184 -0.13827102 0.10972668 -0.1677293 -0.012449397 -0.08653805
0.16421503 0.06081046 0.21859081 -0.15195721 -0.20768908 -0.18850921 -0.14910066 0.12267526
-0.051576316 0.23285064 -0.119149536 -0.10806471 0.15281245 -0.051603653 0.09769117 0.03756722
0.11211042 -0.094341 -0.035153966 0.112470545 0.07097537 -0.14361794 0.23125193 0.15555726
-0.105300814 -0.06975043 0.24647681 -0.07307253 -0.0056410786 -0.17988515 -0.104554795 0.059757937
0.027309785 -0.17072691 0.023903089 -0.08979952 -0.14857553 -0.09012319 -0.11759418 -0.24218628
0.10645707 0.046874765 0.05034054 -0.15610313 -0.032889545 -0.1671814 0.026988117 -0.13186581
-0.016534928 -0.010396568 0.032762766 -0.02686249 -0.031982664 -0.2912474 -0.059957337 -0.21318546
-0.12367638 -0.3020129 0.25199607 -0.07581027 0.15708624 0.10893557 -0.21417353 0.11272659
-0.07418995 -0.0897084 -0.18442157 -0.17837256 0.004305296 -0.09281944 0.041370127 -0.17588902
0.13381682 -0.100607164 -0.06755967 0.041223522 0.067732856 0.114481665 0.08548376 -0.08236257
-0.03310659 -0.13743006 -0.11394325 -0.0965179 0.21107756 -0.23798428 0.09781165 0.046165954
0.1335849 -0.0661926 0.16595109 0.021464154 0.011316406 -0.17133506 0.094839305 -0.06943927
-0.10075567 0.18137266 0.015477764 -0.10369594 -0.034445845 -0.04369005 0.028115561 -0.03138132
-0.11395945 -0.044917975 -0.08840519 0.08123527 0.13708769 -0.10254149 0.06745896 0.14757743
0.07281332 -0.05340408 0.2000412 0.046407346 0.03468731 -0.007338433 -0.14406107 0.013883755
-0.03225248 -0.08978168 0.10314575 0.12986258 0.012585479 -0.04735207 -0.030086769 -0.05142222
0.05300765 0.13997446 -0.13122664 -0.08241663 0.12403807 0.12872171 0.030429779 -0.1332161
-0.08867185 -0.18744873 -0.12092553 0.061127707 0.13079214 0.1143849 -0.30700764 -0.077622466
-0.011637122 0.26074338 -0.034801256 -0.15881133 0.10005929 -0.012366595 -0.118172176 0.084695585
-0.15779845 -0.06385391 -0.18810618 0.062772304 0.08381655 0.10218927 -0.11027693 -0.18725577
-0.17603862 0.0003481062 0.025018008 0.15479763 0.018939365 0.039254013 0.011864907 -0.18080322
-0.21620578 -0.19217385 0.20128128 -0.28549677 0.051524416 -0.115153976 0.0059412015 -0.24038659
-0.011694837 0.14895135 -0.20209244 0.11703817 -0.0585714 -0.07370617 0.006105543 -0.034492355
-0.0047727516 -0.08781083 0.07454055 -0.08469718 0.0982538 0.07060491 0.11387433 -0.10625206
0.07704332 0.07320457 0.08204505 0.21132976 -0.0050775255 0.052235607 -0.043073893 -0.025209215
0.1710051 -0.32133493 0.17501621 0.32811695 0.2448106 -0.041027382 -0.13082027 0.16765085
0.22620551 -0.24432671 -0.04144136 -0.05215203 -0.053918835 -0.12939613 -0.106864825 -0.0123001635

a2c_network.actor_mlp.0.bias f4 [256]
00000000: 314c d2bd 1702 923c ebb2 40bd f15b 74bd
00000010: 14cc 473d f34d 85bc b309 ee3d e28e 54bb
00000020: bee0 abbd f71f 37be 5845 9c3c 3008 de3d
00000030: 9da7 20be dbfa 583b 2571 5d3a cbdd 923d
00000040: aa5d 39bd 17c7 acbd 677a 34be 82a7 81bc
00000050: ef60 633d db65 94bd b3ea 883d 2d1b 0e3c
00000060: ce49 c63d 985b 16bc a5e2 b4bd ae97 2b3c
00000070: f417 f8bc 1ef3 64bd f2d9 303c 1edb 2c3d
00000080: 9ac1 633c b672 27be f21f 703b 9be9 d13d
00000090: 7002 96bd f9c4 9b3c 60b6 bebd fa21 87bd
000000a0: 1c42 db3c 63c7 763d 6947 ffbd b16e 85bd
000000b0: 3746 efbd 3f81 2fbe a3ea 923d eedd 0e3c
000000c0: faac 943d 6082 c0bd 8c34 103e 668c 79bd
000000d0: 2fd2 6dbc f874 7a3d 1138 403a 711d c13d
000000e0: 071a 9abd ce4b 793d 7453 f53d 7f09 b8bd
000000f0: 8c80 5cbd 96ad 3cbc 8534 8b3d 36c7 8bbd
00000100: e447 31bd cf0d 5f3d 7dbf 2c3d e4a2 95bc
00000110: f044 91bd f898 583d f62b db3c 63ce 1ebd
00000120: 2c6a 3e3c fa0a c2bc 15ee b6bd b8e9 3f3c
00000130: 5cb3 8ebd 2977 953d bf85 da3c f7b6 c83d
00000140: 1824 2d3d 8193 3fbd f523 b3bc af8a a2bd
00000150: 2afd e3bd 595a 3abd 0dab 7dbd 3c22 05be
00000160: 6ce9 10bc a629 df3c 5305 3c3d 6ce6 1d3e
00000170: 4177 0a3d bd43 a6bb a9c0 edbc fdd4 223c
00000180: 4c59 473d c832 0ebd a1d1 1bbd 0347 43bc
00000190: c886 c13b 7fbc 653c b6df 963d 5016 c9bd
000001a0: f300 eebc ba2c 0bbe f94d c13d af50 82bc
000001b0: a95b c83d e247 e63c 6374 0ebe 48f2 6abd
000001c0: 524b ecbd 7807 13bd 893b 64bd c37a 32be
000001d0: ede6 f83c 7bf4 51bd f656 06bd f698 01bd
000001e0: dc89 c83c 19ed 203d 0ae8 1f3d 5890 81bd
000001f0: a634 3dbc ff79 b7bd 37c3 d3bc e9b2 05be
00000200: 2ced adbd fdea d0bd 6dd8 0b3d ecb3 093d
00000210: 28d7 3dbe 561b b03d 8008 7fbd 2e81 1d3d
00000220: 5248 d3bc 586d 94bd 8d0c ebbd 5c35 86bd
00000230: fba6 8abd 0029 e63c 65c6 0dbe 84c0 e1bd
00000240: d9a5 0b3d ad84 083e 937e 7c3d 9627 d03d
00000250: fc4b 1abc e7a4 a9bd 77cd 9a3d f92f 9fbd
00000260: 227d 9bbc 08f1 ee3a 9af8 6f3d 21ec 9cbc
00000270: 52e4 10bd 372c 13bd e22a 8fbd cbd4 a5bc
00000280: b752 f83d f836 6e3d d23f 44bd 496b 7fbd
00000290: 7efd 413d c458 8fbd b438 6dbc d55b 14bc
000002a0: 4667 65bd f121 5c3c cc52 efbd 71b3 d5bd
000002b0: 4e8d 173c 8eb9 babd 2e0f e7bd 1edb e43b
000002c0: 7e5b ee3c f02e 23bd 3e02 f2bd 0de8 67bd
000002d0: 0baf be3d e209 29bc bdd1 7f3c 6e38 14bc
000002e0: e9ab 263e a742 ed3c 5e57 d3bd 54bf 223d
000002f0: a950 ab3c ef28 19bc 0a4e d8bd 59f4 c3bd
00000300: e827 513d e1f4 dcbb 42bd 803d 5e07 84bd
00000310: f444 afbd 90f2 a53c e294 603d b07d 113c
00000320: c809 663c 9318 a63d 7b78 06bd 66d1 93bc
00000330: 82b5 f7bc ff27 76bd 87b7 913d a1db 87bd
00000340: e655 77bd bd61 a2bd 1c44 c1bc 4bc9 08bc
00000350: 0302 e5bd 6851 c6bd d583 91bd b5fa babd
00000360: 3c75 a13d dec1 50bd f01b 9abd 4ffe 4bbd
00000370: 6e0a 93bd 2ada 0fbd 3fac 303c 06af 69bd
00000380: 8b54 4dbd ebb3 eabd b5a2 7dbc a599 d33d
00000390: 921d cfbc 4c69 033d 13c2 69bd 5020 ffbc
000003a0: 2fee 2ebd 7d6f a83d 2b5b 9f3d 207a 4d3e
000003b0: f85b 203d 1e6f aebb db4a b73c 6144 d23b
000003c0: 9f59 0f3d 2bbb 19bd 4a2b 04bd 9340 cb3c
000003d0: c9fc 2e3c 09bf 8fbd a2f8 debc 969c 5d3d
000003e0: 8186 23b9 8566 21bc 1a29 e4bc 2ac5 c73d
000003f0: 7277 aa3a db4f c4bd 6a7c 77bd 673e 3dbe
-0.102684386 0.017823262 -0.04704563 -0.059657995 0.04877861 -0.01627252 0.11622944 -0.0032433798
-0.083924755 -0.17883287 0.019076034 0.108414054 -0.1568894 0.0033108506 0.0008447341 0.0717121
-0.04525534 -0.08436411 -0.17624818 -0.015826944 0.055512365 -0.0724599 0.0668539 0.008673471
0.09682046 -0.009177111 -0.088322915 0.010473175 -0.03028486 -0.055895917 0.01079415 0.042201154
0.013901139 -0.16352352 0.0036640135 0.10249635 -0.07324684 0.019014822 -0.09312129 -0.065982774
0.026764922 0.060248744 -0.12464792 -0.06515253 -0.11683314 -0.17139147 0.0717366 0.008719904
0.07259555 -0.09399867 0.14082545 -0.06092491 -0.014515444 0.061146706 0.00073325733 0.09429444
-0.075244956 0.06086331 0.11978808 -0.08986186 -0.05383353 -0.0115159955 0.06797127 -0.06825106
-0.04328145 0.05445653 0.042174805 -0.018266149 -0.07093227 0.052880257 0.02675436 -0.038771044
0.011621993 -0.023686875 -0.08932129 0.011713438 -0.06967804 0.072981186 0.026675103 0.09800523
0.04227075 -0.04677153 -0.021867732 -0.07936608 -0.111322716 -0.04549632 -0.061930705 -0.1300134
-0.008844715 0.02724154 0.045903515 0.1541993 0.033805136 -0.005073993 -0.029022532 0.009938476
0.048669145 -0.034716398 -0.038041715 -0.011918786 0.0059059598 0.014021992 0.07366888 -0.09818709
-0.029053187 -0.1359128 0.094387 -0.015907614 0.09783108 0.028110448 -0.13911586 -0.057359964
-0.11537804 -0.035895795 -0.05572084 -0.17429642 0.030383551 -0.051258545 -0.032797776 -0.031640016
0.024479799 0.039288614 0.03903965 -0.063263595 -0.011548197 -0.08958816 -0.025849922 -0.1305653
-0.084925026 -0.102010705 0.034141947 0.033618852 -0.18539107 0.08598964 -0.062263966 0.038453273
-0.025791321 -0.07247418 -0.11477003 -0.06553146 -0.0677013 0.028095722 -0.13845213 -0.110230476
0.03409371 0.13331862 0.061644148 0.101638004 -0.00941753 -0.08283406 0.075587206 -0.07772822
-0.018980566 0.0018229792 0.058586694 -0.019155564 -0.035373993 -0.03593084 -0.06990601 -0.02024307
0.121251516 0.05815789 -0.047912426 -0.062358174 0.04736089 -0.069993526 -0.014478851 -0.009055098
-0.056006692 0.013435827 -0.11685714 -0.10434616 0.009249998 -0.09117423 -0.11282192 0.0069841286
0.029096361 -0.039839685 -0.11816834 -0.056617785 0.093107305 -0.010317298 0.01561397 -0.009046657
0.16276516 0.028962446 -0.10319398 0.039733246 0.020912485 -0.009348138 -0.1056176 -0.0956809
0.05106345 -0.006743059 0.06286098 -0.06446718 -0.08558074 0.020257264 0.054829486 0.008880064
0.014040418 0.08110156 -0.032829743 -0.018044185 -0.030237917 -0.060096737 0.07115083 -0.06633688
-0.060384654 -0.07928798 -0.023592047 -0.008348773 -0.11182024 -0.09683496 -0.07105223 -0.0912985
0.07883689 -0.050966136 -0.0752486 -0.049803074 -0.07179724 -0.035120167 0.010783254 -0.05705168
-0.050129455 -0.11460098 -0.015480687 0.1033204 -0.025282655 0.03208284 -0.05706985 -0.031143337
-0.04270762 0.0822439 0.07781061 0.20066118 0.03915021 -0.005323305 0.022374561 0.006416843
0.03499758 -0.037532013 -0.032267846 0.024811065 0.010680386 -0.07018859 -0.027218167 0.05410441
-0.00015594998 -0.009851103 -0.02785163 0.09754403 0.0013005568 -0.09585544 -0.060421385 -0.18480836

a2c_network.actor_mlp.2.weight f4 [128, 256]
00000000: 9f42 a43d 8c89 813d 58c4 d1bd f46e 60bb
00000010: fc09 a33c 8585 efbc 2c55 0cbe 285c 823d
00000020: 439a b03d 9dab 79bd 8a62 373d 9ec7 68bd
00000030: 5221 0d3e 3b97 153d 1fe1 263d 0069 c2bc
00000040: 5c22 d1bd 5455 3a3d f491 ca3d cc01 8bbd
00000050: 7afe 08bc 3301 a8bc e767 8abd f5d9 5bbd
00000060: dcae 973c b62b 5cbd ec07 ff3c ba6f 80bd
00000070: f184 ddbd 7bab 823d 129a 0dbb d42b 0cbe
00000080: fe5c 22bc a118 d83a d5da 0b3c 017e b8bd
00000090: 3365 673b 4249 9d3c 162e 3f3c c8ab 913c
000000a0: 8ff5 f53d fdea 35bd 96b0 4f3c 2ec2 b3ba
000000b0: 7ce9 103e 744d f53d d3ea aebd 18a7 e5bd
000000c0: 8128 0cbe 5280 e33c 365e c9bd b08f af3d
000000d0: 6f2b f83b 4772 bb3d 26ca a33d d104 dd3d
000000e0: abb4 733d ac94 0d3c d61c 5dbd 2faf 863c
000000f0: 0517 463c 7b37 30bd b905 91bd dc52 6f3b
00000100: cc31 28be 8979 963d d7df 0e3d 3a30 74bb
00000110: add7 2ebd 0bda 903d 146a 62bc af89 033d
00000120: edaf bf3c 9442 10bd a406 75bd cafa 6dbb
00000130: 103d 933d 3078 983c bf4f 19bb 69de 2f3c
00000140: 0f41 89bc 020c b73d 8f43 c2bd d3e0 b03b
00000150: 10b5 90bc 2602 8abc 4874 9cbc edc9 a1bc
00000160: 9c89 3bbe ab0d 36bd 6737 a93d f868 463d
00000170: 9a4b 85bd e47f 063c 4d50 f839 3bb5 67bd
00000180: 12bc 82be bda7 bcbc 2955 2ebc a33b 043d
00000190: be0c d5bb e86f a5bc f8b4 a23d 8263 d9bc
000001a0: 34a6 07be 7074 89bc 0a09 a8bd ef7d 793c
000001b0: 3e33 08be bce5 17be 351f 3a3d d968 9d3c
000001c0: 5619 d43d 8720 db3d b572 1cbb 1238 183d
000001d0: 9b23 b5bd acc1 00bc 3110 e9bb d4f4 513c
000001e0: 040a e13d 5efb 00bd 65ab c3bd 4d19 113d
000001f0: 4bbe 0f3c a095 0cbd c5fa 28bd 1997 a9bc
00000200: 3f1f 0dbd 21a1 c2bd 1ec5 733d 358c 29be
00000210: 3dda eaba 1585 65be d7e7 32be 86d5 e03d
00000220: d2d8 30be 873b b13d 14b6 4a3c fe6f a2bd
00000230: 98f2 063c 7ac8 203c 8475 ad3c 603c 0dbc
00000240: a4f8 f2bd 162a b43c a949 543c 24f3 573c
00000250: 9769 72bc 510c fdbc 54c1 b3bb a658 51bd
00000260: b0f3 2b3d dbcf b13c 36aa e9bd cc2d 913d
00000270: cb1f 22bc 0239 a63d ad45 a33d b62f d23a
00000280: 6b0f 4c3d 163f 52bd bd43 253d 0598 9c3d
00000290: 9971 5cbd 21c9 fbbd 0311 38bd dd88 08bd
000002a0: c07a 6a3d 4375 5c3d c85b 5f3d 252d 813d
000002b0: 87dd 6cbc cc22 3bbd 977a 8eba cce8 2bbc
000002c0: 147c 163d 6655 8abd ca2a fc3d 009d 4dbd
000002d0: 8742 5b3c df4d 983c dd93 ee3b 0c29 10bd
000002e0: aa3a c23c ee35 2abc ab20 523d ef2d 3dbd
000002f0: f4a6 383c 71b5 02be 2bd4 9fbd 3968 a53d
00000300: a162 c9bc 0312 993d 8898 8bbd c48c e83d
00000310: 3a0c e83d f99f 063e bd02 a8bd 46b4 96bd
00000320: 1284 003e f597 373d d401 cc3d e15f d6bd
00000330: 6373 6cbd efd6 a6bd f00e 41bd 6b2f 09be
00000340: a16c 833c db02 60bd 7daa 573d 7a34 e6bd
00000350: 6e14 f43c 84d3 10be 649a 0d3b 8604 85bd
00000360: 3502 0f3d 2977 f83d 2b4d 3b3d 72a1 d9bd
00000370: 8b8d 4d3c d946 92bd 61e2 c23d 63a8 913c
00000380: 1f58 373c 15f2 3bbc b2bd 3cbd 77f3 7abd
00000390: 65e4 a23d 3d41 a03d 3e79 e5bc ce2d 143d
000003a0: 25b4 0dbd 38b8 283b 94a0 b6bd 1a4e 11be
000003b0: 3980 65bc f27d 9cbd afac 1bbe ee76 8abd
000003c0: 0db6 0abd b3d1 07be 211e bc3c effa 043d
000003d0: bcae 8a3d f6f8 583c fb17 23be 7c61 983d
000003e0: dd7f fc3c d4ba 1fbd 02ba c1bc 1443 02bc
000003f0: bf3c 883d fb2e dc3d a0f0 e83c a5f1 3b3d
0.080205195 0.06325063 -0.10242528 -0.003424582 0.019902222 -0.029238472 -0.13704365 0.06365234
0.08623173 -0.06095468 0.04477171 -0.056830995 0.13782242 0.036521178 0.040742036 -0.023731709
-0.10211632 0.04549153 0.098911196 -0.06787452 -0.008361453 -0.020508384 -0.06758099 -0.053674657
0.018515997 -0.053752623 0.031131707 -0.0627131 -0.10816372 0.063803636 -0.0021606726 -0.13688594
-0.009909866 0.0016486832 0.00853606 -0.09008408 0.0035308122 0.019199971 0.011668703 0.017782107
0.12009727 -0.044413555 0.012676379 -0.0013714486 0.14151567 0.11977664 -0.08540883 -0.11213511
-0.13687326 0.027771149 -0.098324224 0.08572328 0.007573537 0.09152656 0.07997541 0.10791934
0.05949847 0.008641403 -0.05398258 0.016440956 0.012090449 -0.04302166 -0.0708117 0.0036517894
-0.16425246 0.073474 0.03488144 -0.003726019 -0.042686153 0.070728384 -0.013819236 0.032113727
0.023399318 -0.035219744 -0.059820786 -0.0036312812 0.07189381 0.018611997 -0.002339348 0.010734179
-0.016754655 0.08937837 -0.09485542 0.005397895 -0.017664462 -0.016846728 -0.019098416 -0.019749606
-0.18314213 -0.04444663 0.0826252 0.04843995 -0.065085605 0.008209202 0.00047362075 -0.05656932
-0.2553411 -0.023029203 -0.010640421 0.032283437 -0.006501763 -0.020194963 0.07944673 -0.026536707
-0.13246995 -0.016779155 -0.08204849 0.015227779 -0.13300797 -0.1483373 0.045439918 0.019215034
0.10356395 0.106995635 -0.0023872082 0.037162848 -0.08844682 -0.007858675 -0.007112526 0.012814719
0.109882385 -0.031489722 -0.09554175 0.03542452 0.008773397 -0.03432238 -0.041254777 -0.020701932
-0.034453627 -0.09503389 0.059514157 -0.16557391 -0.0017917823 -0.22414048 -0.17471252 0.10978226
-0.1727021 0.08653932 0.012372512 -0.07931517 0.00823655 0.009813422 0.0211742 -0.008620352
-0.11863831 0.021992724 0.012957015 0.013180528 -0.014795682 -0.030889662 -0.005485693 -0.051109932
0.041980445 0.021705559 -0.11409418 0.07088813 -0.009895275 0.08116342 0.07972274 0.0016035947
0.04981939 -0.051329695 0.040347803 0.07646183 -0.053819273 -0.12294222 -0.0449381 -0.033333648
0.05724597 0.053822767 0.05453089 0.06307439 -0.014457113 -0.04568748 -0.0010870275 -0.010492515
0.036739424 -0.0675457 0.12312849 -0.050198555 0.013382561 0.01859182 0.0072808103 -0.035195395
0.023709614 -0.010388834 0.051300686 -0.046186384 0.0112702735 -0.12764527 -0.0780414 0.080765195
-0.024583163 0.074741386 -0.068162024 0.11354974 0.11330457 0.13146962 -0.08203647 -0.07358603
0.12550381 0.044822652 0.09961286 -0.10467506 -0.05772723 -0.08146464 -0.047133386 -0.13396995
0.01604301 -0.054690223 0.052652825 -0.11240478 0.029794898 -0.14143187 0.0021606917 -0.064950034
0.034914214 0.12132103 0.04572789 -0.106264964 0.0125459535 -0.07142419 0.095158346 0.017780488
0.011190443 -0.011471291 -0.046079345 -0.061267342 0.07953719 0.07824943 -0.028011914 0.036176495
-0.034595627 0.0025744569 -0.089173466 -0.1418995 -0.014007621 -0.0764121 -0.15202592 -0.06760965
-0.033865023 -0.13263588 0.022963585 0.03246587 0.06771609 0.013242951 -0.15927117 0.07440469
0.030822689 -0.038996533 -0.023648266 -0.007950563 0.066522114 0.10751148 0.028435051 0.045884747

a2c_network.actor_mlp.2.bias f4 [128]
00000000: 148f 02be 5030 7dbd de11 9f3c b0da 953d
00000010: c3c9 89bc dd0c abbd 28f0 e6bd d0e5 60bc
00000020: 740f 14be 900b 0dbe e21a f93c 8304 d8bd
00000030: 4019 1abe f4a6 b33d 2919 0e3d ee83 03bd
00000040: fde0 9bbd 9acf f7bc e2c2 2cbe 0828 ffbd
00000050: 39c9 6fbd 4776 aebc 1fda 14be 90ea 01bc
00000060: 30e4 04be 12e6 e83c ff5d 07bd e7b8 513c
00000070: e7e6 98bd 55c5 00be a6bd 103e 5efa 833c
00000080: 1e28 24bc 9358 a8bc 7edc 263d ac6e f5bc
00000090: 7b1a d23d f4ae 763b d471 c2bc 2150 9abc
000000a0: fb45 0abe a907 f2bd 5c9c 9fbd 6e8e 07be
000000b0: dbdc 28bc 0e5b c2bd 50fe 273d 0d91 b0bc
000000c0: 70e7 733d 9a21 563d cd19 ad3d 3a20 5bbe
000000d0: 9482 bc3d 6720 133e 98c5 0cbe 1b14 8bbd
000000e0: c795 f7bc 8b1f 4c3e 167f 2e3d 107f 8eb9
000000f0: 0f6a 38be 961f f7bd 6b23 01be 1781 3bbe
00000100: 734a f03c 8dc5 08bc ea95 d7bd 4c21 8bbd
00000110: 467b acbd 7e90 0dbe 7d49 bdbc 1072 acba
00000120: f7ca 0cbd 3d0c 303d f83d d4bd 2c9d 46bd
00000130: d72c 50bb 69fa 33bc 80f1 b6bd 8580 8f3c
00000140: d188 e23d e0c7 f1bd 7ca4 a0bd 1461 5fbe
00000150: 989c 893d 93bf 16bc 31f8 f9bc f4b8 a8bd
00000160: b4b3 72bd 5b42 823d 3288 18be 8f84 f1bc
00000170: db6a 9bbd a9f8 103c 1fec 00be 3716 1abd
00000180: e8c6 c93d 045c 8d3d cbf8 b5ba 56d7 30be
00000190: 1408 8ebd 2601 a0bd 7b30 343b ee04 bfbd
000001a0: 4a46 233c 67e0 873d f3c5 623d cd0d 88ba
000001b0: 505f dabd ed94 ebbd b18b 24bc 9cb2 893d
000001c0: da78 ba3d 2783 a7bd 32fa b73c 15f0 0dbe
000001d0: 6a48 e3bd 0b44 913d 320a 03be 369b 37bd
000001e0: a3f6 6abd 2a5c fa3c c14e b8bc 2a18 dbbd
000001f0: 38b3 b93c d6ab ef3d 815a 05bd a303 893d
-0.12749892 -0.061813653 0.0194177 0.07317102 -0.01681984 -0.08352063 -0.11276275 -0.013726667
-0.1445902 -0.13773942 0.030408327 -0.105477355 -0.15048695 0.08772078 0.034691963 -0.03210824
-0.076112725 -0.03025036 -0.16871217 -0.12458807 -0.05854151 -0.021296633 -0.14536332 -0.007929459
-0.12977672 0.028430019 -0.033048626 0.012800432 -0.07465916 -0.12575276 0.14134845 0.016110595
-0.01001933 -0.020550048 0.04073762 -0.029959999 0.10258957 0.0037640901 -0.023735918 -0.018837037
-0.13503258 -0.11817867 -0.07793495 -0.13237926 -0.010306562 -0.094900236 0.041014016 -0.02155354
0.059546888 0.05227814 0.08452187 -0.21399012 0.09204593 0.1436783 -0.13747251 -0.06790944
-0.030222787 0.19933908 0.042601667 -0.0002717902 -0.18009208 -0.120665714 -0.12611167 -0.18310963
0.029332375 -0.008347881 -0.10526641 -0.0679346 -0.0842195 -0.1382465 -0.023106331 -0.0013156552
-0.03437325 0.04298042 -0.10363382 -0.048489735 -0.0031765008 -0.010984995 -0.08932781 0.017517338
0.11061252 -0.11805701 -0.07843873 -0.21814376 0.06719321 -0.009200948 -0.030513855 -0.08238402
-0.05925341 0.063603126 -0.14895704 -0.029482154 -0.075887404 0.008848348 -0.12590073 -0.037618842
0.098523915 0.06902316 -0.001388335 -0.17269644 -0.069351345 -0.07812719 0.0027494717 -0.09327112
0.009965489 0.06634598 0.05536456 -0.001038009 -0.10662711 -0.11503015 -0.010043071 0.0672352
0.09105082 -0.08179312 0.02245817 -0.13861115 -0.11097796 0.07093056 -0.12796858 -0.044825755
-0.057364117 0.030561525 -0.02249849 -0.10697968 0.022668466 0.11702697 -0.032557014 0.06690147

a2c_network.actor_mlp.4.weight f4 [64, 128]
00000000: 3d2d 88bd e9e7 0cbe 93fd 06bc 0cfe e8bd
00000010: 7aa0 a6bd b84d ba3d 0951 54bd 8a19 c9bd
00000020: 2c8a 52be 9eda 773c 0503 8e3d 29b7 abbd
00000030: 7da8 5dbd d772 76bd bac4 e43d e071 01bc
00000040: 6b7d ffba 27be 94bd e3ae e8bd b7f7 8b3d
00000050: 2e24 a4bd 3db4 323c e847 e8bd c256 0a3c
00000060: 981f 5cbd e739 e2bc 84fb a23c 153f e13d
00000070: 05b3 493c 378d ce3d 2f36 d3bd 3b41 d3bd
00000080: 2f9b ad3d 5687 5abd 6ef8 13bd dc4f 1cbc
00000090: a907 1ebd f2c7 92bd 7974 a93b 9de3 80be
000000a0: 78b4 07be 7797 68bc 450a f33d 0142 bd3c
000000b0: ba01 d1bc f208 debc abed e1bd 6569 aebd
000000c0: ea44 8cbd 45f5 e6bd c58f e43c d36a a0be
000000d0: 17a4 bebd e01d 80bd 39ca 40bd ff84 c0bc
000000e0: c370 6bbc 8a23 0fbe 12a0 fdbd db4a 0b3d
000000f0: 2287 553e 50b7 d8bd c065 5ebe 25c3 55bd
00000100: 0764 0fbe 59c5 49bc d822 723c 2d82 193d
00000110: 4a70 eebd 9a78 13be bb02 ddbd a63a 56be
00000120: 0575 f6bd 4cea 46bd 9bbb 0d3d 14ab a5bc
00000130: b210 2f3e 7fbe bfbd e37d 04bd 801a 52be
00000140: 7157 083a c7f1 e73d 2e6c 31be 2c27 e33b
00000150: 5ee7 e1bd ae44 08bd e4d4 97bd 4f20 62be
00000160: db24 adbd ba6e 24bd 1a78 96bd 8c67 033e
00000170: db1d c2bd 60ca 8ebd d63c 55be 2572 68bd
00000180: feaa 78be 7667 ffbd eddd 85bd d4bb 4abe
00000190: 6873 36be 1179 52be c101 cb3c 1e21 d13d
000001a0: b51c fd3d 215e 273d f95f f1bd 0ce8 953d
000001b0: fdbd 6fbe 8dbb c43d 456f 943d c537 dbba
000001c0: d36c 75be f0ba 1d3d 2d06 0c3d 37f3 d7bc
000001d0: da5d 183d e62f c4bd 4fbb 4dbe b87a 753d
000001e0: d33c 05b9 6e76 bfbd bcf1 5d3b 9be6 2c3d
000001f0: 4190 c13d f021 83bb 903d ecbd 8d95 f8bc
00000200: 4dcf ce3c 1e47 813a 3000 ad3a 158e 9ebc
00000210: abb3 90bd 1b68 5b3d 02bf cdbd 5982 a13d
00000220: b519 a7bd 49c4 b4bd d222 a33d b40e e6bc
00000230: 3ca0 92bd e4fb 483d fdf4 0c3d d6e6 f33c
00000240: 2770 fc3b 9b07 76bc b85b a5bd 26b6 a3bb
00000250: f6b7 bebc fa42 0a3e c344 c7bd e4fa f0bc
00000260: 183d f4bc 3aee f8bc ea38 913c 8416 abbd
00000270: 8396 483b 72b5 96bc 3148 d43c 862a 7bbd
00000280: 3a0a 0ebd c7bc 913a edff 8c3c 538c 0b3d
00000290: 9850 cc3d 3fc8 423d fd67 f3ba 0281 8a3d
000002a0: 3c81 cb3d a2ab 2a3d 3077 89bd d645 80bd
000002b0: 92bf a1bd 8cf3 bcbd cce5 b4bd 7503 b33c
000002c0: c4fb 35bd 9074 583d 1d77 b1bc de8e 05bd
000002d0: 6d59 41bd a9c2 4f3d 2672 90bc 2b1c f5bd
000002e0: 2143 713d a03f a9bd 15b5 d03c f0df 03bd
000002f0: c5c8 2e3e a4b9 34bd 8721 50be 16d7 bbbd
00000300: 2afe 3fbd 1983 d4bd 7c94 973d a38d 38bc
00000310: 2464 f73d c02e b9bc 1784 873d 02ef 03bd
00000320: 086d 903d 9fe8 3f3d 494d 59bd e34d 073d
00000330: 60fa ca3d 0f98 5e3d e37f 2a3d 9d33 9cbd
00000340: 2c73 963d c2b6 2abd b86d fdbd a0f6 953c
00000350: 1693 22bd 348e 833d 9863 403d 7030 0cbe
00000360: 9c4c ffbc fd8a 55bd 3a15 d4bd ee40 1e3e
00000370: d9ff 3dbe cca0 4c3d 0eb1 d93c 6a5c d93d
00000380: bca7 32bb a50a 78bd 1009 4dbd dfc3 1bbe
00000390: 73c2 11bd 248a 943d 5085 e93c efc7 cebb
000003a0: b494 fa3b 3d4f a13d fccc 75be 4209 0abd
000003b0: 1b3f 00be 24be 8abd 023b a63d 7f15 873d
000003c0: 827b 46bd 0f4c cbbd b69a 4abc 93f5 e6bd
000003d0: e6f4 883d 9726 e33b 09ee 41bc 0174 b33d
000003e0: 1f8e 193d 3a24 6f3d e56f 9bbd 397b 05bd
000003f0: 5047 9f3d 32c4 933b 4015 ef3d 9fc1 edbd
-0.066492535 -0.13760342 -0.008239168 -0.113765806 -0.08136077 0.09096855 -0.051835094 -0.09819324
-0.20560521 0.015127806 0.0693417 -0.083845444 -0.05411576 -0.060168114 0.11170335 -0.007900685
-0.0019492334 -0.07262831 -0.11361482 0.06834357 -0.08014713 0.01090723 -0.1134184 0.008443536
-0.053741068 -0.0276155 0.019895323 0.1099836 0.012310748 0.10085528 -0.10313069 -0.10315176
0.084768645 -0.053351723 -0.036125593 -0.009540524 -0.038581524 -0.07167043 0.0051713553 -0.25173655
-0.13252437 -0.014196268 0.11867193 0.023102762 -0.025513519 -0.027103875 -0.1103166 -0.08516196
-0.06849082 -0.1127725 0.027900586 -0.313315 -0.093086414 -0.06255698 -0.047067855 -0.023500917
-0.014370146 -0.13978401 -0.123840466 0.034006935 0.2085233 -0.10581839 -0.21718502 -0.052188057
-0.14003001 -0.012315118 0.014778815 0.03747766 -0.11642511 -0.14401475 -0.107915364 -0.2092081
-0.120340385 -0.048563287 0.034602743 -0.020223178 0.17096213 -0.09362506 -0.032346617 -0.20517921
0.0005201018 0.11325412 -0.17326424 0.00693216 -0.11030458 -0.033268623 -0.074136525 -0.22082637
-0.08454295 -0.04014466 -0.07347126 0.12832469 -0.09478351 -0.06972194 -0.20823988 -0.05674948
-0.24283978 -0.124709055 -0.065364696 -0.19798213 -0.17817461 -0.20553996 0.02478111 0.10211395
0.12358991 0.040861253 -0.117858835 0.0731965 -0.23412319 0.09606085 0.072477855 -0.0016724995
-0.23967294 0.038508356 0.034185577 -0.026361091 0.03719888 -0.095794484 -0.20090984 0.059931487
-0.00012706527 -0.093487605 0.0033866009 0.04221211 0.094513424 -0.0040018484 -0.115351796 -0.030344749
0.025245333 0.0009863114 0.0013198908 -0.01935486 -0.07065519 0.05356608 -0.100461975 0.0788619
-0.081592 -0.08826501 0.07965626 -0.028083183 -0.071594685 0.049068347 0.034413327 0.029773157
0.0077037993 -0.015016462 -0.080741346 -0.004996079 -0.023281079 0.13502112 -0.09729912 -0.029416509
-0.029814288 -0.030387033 0.017727334 -0.08353904 0.003060729 -0.018397067 0.02591333 -0.06131985
-0.03467772 0.0011118882 0.017211879 0.03406937 0.099763095 0.04755425 -0.001857042 0.067628875
0.09936759 0.041667588 -0.06712186 -0.0626332 -0.07897867 -0.092261404 -0.08832893 0.021852234
-0.044429556 0.052845538 -0.021663243 -0.032606952 -0.047204424 0.05072275 -0.017632555 -0.11968263
0.05890191 -0.08264089 0.025476972 -0.032195985 0.17068775 -0.044122353 -0.2032529 -0.09171884
-0.04687325 -0.103765674 0.07401368 -0.011264238 0.12079647 -0.0226053 0.06616991 -0.032210357
0.07052046 0.046852704 -0.05305222 0.033033263 0.099110365 0.054344233 0.04162587 -0.07627032
0.07346186 -0.041678198 -0.12374443 0.018306077 -0.039691053 0.064236075 0.04696998 -0.13690352
-0.03116446 -0.052134503 -0.10355611 0.15454456 -0.1855463 0.049958035 0.026573684 0.1061333
-0.0027260622 -0.060557026 -0.05005747 -0.15211438 -0.03558583 0.07252911 0.028505951 -0.006310455
0.0076471213 0.07876442 -0.24003977 -0.033700235 -0.12524073 -0.06774548 0.081167236 0.06595897
-0.04845763 -0.099266164 -0.0123659875 -0.11277308 0.06687336 0.0069320905 -0.011836537 0.0876236
0.037489053 0.058384158 -0.075897016 -0.032588217 0.07777274 0.0045094723 0.11673975 -0.11609196

a2c_network.actor_mlp.4.bias f4 [64]
00000000: 93ae 68bd 0ef5 bb3c 32b6 a7bd 1b26 ed3c
00000010: 4d81 89bd a1a4 993c 0664 a1bd 3455 dcbd
00000020: 79b8 ad3c 9008 8c3d 756f 23bd 2de1 ec3c
00000030: 24ea d6bc 4b1f 22bd 5f7b f4bd c1bf 22bd
00000040: 62c9 4dbc 6195 d2bd ad79 1bbd 3c2a b33c
00000050: f1d0 19be a821 093d 627d dcbd ef41 82bc
00000060: 43be ccbc 78a1 cb3d 1207 163d 0e38 ca3b
00000070: 1a3f 313d eec4 213d 4ad1 1ebe 7e02 ffbd
00000080: a83f 05be 0134 203d e073 47bd 6070 18bd
00000090: 2df1 01be 5419 90bc 607c e33b 0d91 803d
000000a0: f9cc a9bd 0308 a0bc 0a0e f5bc f7e1 863c
000000b0: d388 5bbd 22f4 bebd becc 4dbd 31fa dfbb
000000c0: 2429 f6bc e2df 903d 5a00 6cbc a0e8 6d3d
000000d0: c3a9 503d cf6c 34be 1f2e cfbd fd07 a3bd
000000e0: cbdd 4dbd f955 9dbd 89ba 47ba cebc 9cbd
000000f0: 3b41 5cbd 82d1 523d fc37 d63d a5e3 0bbe
-0.056807112 0.022944 -0.08189048 0.028948834 -0.06714115 0.018755259 -0.07880406 -0.10758439
0.021206127 0.06837571 -0.039901216 0.028915966 -0.026234694 -0.039580625 -0.11937594 -0.039733652
-0.01256022 -0.10282398 -0.037957836 0.021870725 -0.15021111 0.033479363 -0.107661024 -0.01590058
-0.024993068 0.09942907 0.036627837 0.006171233 0.04327307 0.039494447 -0.15509525 -0.12451647
-0.13012564 0.039112095 -0.04869449 -0.037216544 -0.12689658 -0.017590202 0.006942317 0.06277666
-0.082910486 -0.01953507 -0.02991392 0.01646517 -0.053597283 -0.093239084 -0.050244085 -0.006835245
-0.030048914 0.07073952 -0.014404381 0.058083177 0.050943147 -0.17619632 -0.10116219 -0.07960508
-0.050260346 -0.076824136 -0.00076190435 -0.07653199 -0.053773146 0.051469333 0.10459897 -0.13661058

a2c_network.value.weight f4 [1, 64]
00000000: 1eec 693e 2f50 b73d 686b 05be 12b7 13bd
00000010: 4557 9b3d 0182 d43d 63bb 9ebd 264b 0abe
00000020: 1052 93bd 6968 9a3d 832e 1a3d 4dab 5c3d
00000030: fc48 da3d eb29 14bd 9405 c1bd b60c d83b
00000040: f723 963d ef9c a0bd 3236 193e 0083 df3d
00000050: da14 b9bd b200 f73d 3300 20be 4300 a43b
00000060: 310d 9bbd 3204 da3c eb78 483e 3d81 30bd
00000070: 2a41 d13d d323 613d 36ad 7dbd 3bff d3bc
00000080: 93da 49bd 5c7c 1dbd 97ea e1bd 2894 27bd
00000090: f520 11bd a1f9 3abd e1b4 a93d 389e d63d
000000a0: 02a2 12bc 68ae 1e3e dc1f aebd 76dd f03c
000000b0: f0c9 953b ed06 5cbd 6507 533d 908f 26bc
000000c0: 2dc4 113c 26af 923d 79ee 673c 98e0 c73c
000000d0: e862 003e a97f 8cbd f7bc 6b3d e470 dbbd
000000e0: f362 88bd 9709 74bc 84bc 933c 169f 05bd
000000f0: 3bd9 f53c c4c9 fbbc 61ff 953c 8c9d 1abe
0.22843978 0.08950841 -0.13029253 -0.03606326 0.07585005 0.10376359 -0.07750585 -0.1350523
-0.071933866 0.07539446 0.037642013 0.053874303 0.10658452 -0.03617279 -0.09424892 0.006593312
0.073310785 -0.07842433 0.1496208 0.10913658 -0.0903718 0.120606795 -0.15625076 0.005004914
-0.075708754 0.026613329 0.19577377 -0.043092 0.10217507 0.054965805 -0.061932765 -0.02587854
-0.049280714 -0.038448676 -0.110310726 -0.040912777 -0.03543182 -0.04564822 0.08286453 0.104793966
-0.0089497585 0.15496218 -0.085021704 0.029402476 0.004571192 -0.053717542 0.051520724 -0.010166064
0.00889687 0.07162313 0.014155977 0.024399087 0.1253773 -0.06860287 0.057553258 -0.107148916
-0.06659498 -0.0148948645 0.018034227 -0.03262242 0.03001081 -0.030735858 0.01831025 -0.15099162

a2c_network.mu.weight f4 [6, 64]
00000000: fa8b 92bd c5b4 33bd 6fbe 0a3b ad63 9cbd
00000010: d648 95ba fcff 70bc bab3 ee3d f974 a13d
00000020: a594 00be 29aa 74bc 917f bfbc 8aa0 113d
00000030: edb8 88bd f966 763d 53a5 e73b 8c1d dc3c
00000040: ba70 1f3d 739f f83d afd1 543d ba3d 7a3d
00000050: dfd4 353e 174b ee3c e19d c0bd e00c b93d
00000060: 64e5 d0bc 3c3d 39be 6b16 0b3d 213d b6bd
00000070: e3df 563c a38d 823c 5d26 21bc 1b10 d93d
00000080: a472 a43b 7542 d2bd 077c a73c 1043 e3ba
00000090: d47b 95bc a8fd 85bd af65 edbd b6bc 51be
000000a0: 223f 203d ce5d 1ebe 1fe3 74bc 9105 c1bd
000000b0: 0b51 4e3e d382 ba3d 873a 57bc f46b 623d
000000c0: fb1a 20bd cf8c a63c 0bc1 62bd e003 00bd
000000d0: 009f 9a3c 18bd 473d 05fa 7b3d bfd4 8dbb
000000e0: 5b67 aabc 06f4 8a3d cb72 d33d d82f 1c3d
000000f0: 52ab 793d 1a29 06be f28c fabd a1cc b53d
00000100: c2e9 01be 4f3f 0bbb 7b1d 32bd f6aa c13d
00000110: 2a13 59bd b968 15bc ea1b 7f3d 8f54 e73b
00000120: 7099 c8bd e55d 303d e351 8dbd cd3e f13b
00000130: 3404 4abd e568 df3c eb8f b13c 99cf 183c
00000140: 39bf 47ba 1606 41bd 0447 54bc 0167 3b3e
00000150: 6d3c 2ebe 4788 46bc dfaf 70bc 7523 84bd
00000160: e867 783d 24e1 b93b cc06 013d 4b44 5d3c
00000170: 39bb 903b 0a18 b3bd ec6b 07be c46a 903c
00000180: 2d73 aabd d3d9 ce3c 672d 7b3d a1e5 5cbd
00000190: f7e5 84bd c271 e8bc a2b1 34bd 10b2 653d
000001a0: 20ca c13b 357d 21bb cbf5 ef3a 419d d4bd
000001b0: 07da 473e 5a57 5ebd e6d5 a2bc 6fd8 f03c
000001c0: 817d 1c3d 38c4 053e f4e7 e7bd ab9a 093e
000001d0: 4aa8 65bd 4ae1 e3bd f1b6 13be 178c 8f3d
000001e0: 42fd f63c 9f3d d2bc 9cf0 1d3e 0f0e 053d
000001f0: 654c 60bd 6591 b73c 915f 173e 61d0 9cbd
00000200: 8070 fb3c cd98 6d3d f2da e3bc 1fb5 c43d
00000210: 08b4 9cbd a5f6 053e 5ed9 c43d 5747 4d3d
00000220: e63f e83d 7d16 553b a442 11bc 5868 5f3d
00000230: 33a6 0fbb a23b d53b bae5 1d3e 48c2 863d
00000240: 4079 d83d 4689 963d ca6f b53d fb91 113e
00000250: f312 a8bb daab 70bd c1c8 cebd 0d99 e23c
00000260: 31be d8bc 4f46 91bd cf5d 4fbd 2d08 b43c
00000270: d3c3 143d e672 9d3d 5c10 943d 6ea5 8a3c
00000280: c4f7 6d3d eb2a 7e3d 6d41 73bd 1caf 8dbc
00000290: c5a6 8a3d 9930 bb3d 4049 c03d 1678 183d
000002a0: c7cf 173d e2ab 4c3c 531b 513d 1ff3 0b3e
000002b0: 624b ac3c 5f85 19be a1aa 23bc 2233 bf3d
000002c0: d15e 05be eb33 3ebd d45a 363d 149d ee3d
000002d0: 28f4 6a3d 2465 7abd 8773 f0bc a2b5 a83d
000002e0: 88de 833a 6b3d 0f3d 6b97 0d3e d06a 69bd
000002f0: 429d e4bd 5c80 523d feb4 bcbc 4192 0d3c
00000300: 085f 413d f601 24bd e6bb 4abd 6ba4 183e
00000310: 5215 f0bc badb 273c 9c6d cb3d e536 e73d
00000320: 31b8 f23d 051c 5e3c 9919 953d 6a61 8f3d
00000330: 0596 e1bd ba09 dabd 5f2a 5d3d 1448 003d
00000340: e554 98bc 4a8c df3d e043 00be b279 013e
00000350: cae1 f1bd 15c7 8e3d 8027 b43c 1bd5 3d3c
00000360: 840e e33d ba34 d83c 69d6 90bc 4353 1cbd
00000370: b56d c63d bdcb 103e 4c54 3cbd 3201 203c
00000380: 568b 2dbc 04f6 1d3d 0fca 1f3c 8e93 013e
00000390: 879f 0dbd 86f5 0fbe 3ee9 a23b be8c b13c
000003a0: 0921 ddbc fe6e 2c3d 85f8 d33d f433 783d
000003b0: 4167 9bbd 677b 143e 7ca1 15bc 0270 93bd
000003c0: bd01 a9bc 88a1 98bd 2f88 443d dbd3 7e3d
000003d0: 730b b93d bb74 2ebd 86a6 493d dee7 17bd
000003e0: 93b4 24bd fbb9 dc3d ba5b 9c3d c51b ebbd
000003f0: 2a3a cdbc e9d1 a23d f5e1 433c 9995 08bc
-0.07155605 -0.043873567 0.0021170636 -0.07636199 -0.0011389505 -0.014709469 0.11655374 0.07883639
-0.12556703 -0.0149331475 -0.023376258 0.035553493 -0.06675897 0.060156796 0.0070692687 0.026869558
0.038925864 0.121397875 0.051957782 0.061094023 0.17756985 0.02908854 -0.09405113 0.09035659
-0.025500007 -0.18089765 0.033956926 -0.08898378 0.013114902 0.015936678 -0.009835807 0.10598775
0.005018549 -0.10266582 0.020444883 -0.0017338712 -0.018247522 -0.06542522 -0.1159166 -0.20482144
0.03912271 -0.15465471 -0.014946728 -0.0942489 0.20148103 0.09106984 -0.013136513 0.055278733
-0.03908823 0.020330815 -0.05535988 -0.031253695 0.018874645 0.04876432 0.061517734 -0.00432834
-0.020801237 0.06784825 0.103246294 0.038131565 0.0609544 -0.13101617 -0.122339144 0.088769205
-0.12686828 -0.0021247452 -0.043485146 0.09456436 -0.052996792 -0.009119206 0.06228248 0.0070596407
-0.09794891 0.043058295 -0.06900384 0.0073622228 -0.049320415 0.027271697 0.02167507 0.009326839
-0.0007619742 -0.047124945 -0.012956385 0.18301012 -0.17015238 -0.012117452 -0.014690368 -0.064520754
0.060645968 0.005672591 0.031500623 0.013505052 0.00441685 -0.087448195 -0.13224763 0.017629035
-0.08322749 0.025250351 0.061322596 -0.05392993 -0.06489175 -0.028374556 -0.044114716 0.056078017
0.0059139878 -0.002464128 0.0018307505 -0.10381556 0.19516765 -0.054282524 -0.019877385 0.029400079
0.038205627 0.13063133 -0.113235384 0.13437907 -0.056068696 -0.11126955 -0.14425255 0.07009142
0.03015006 -0.025664149 0.15423816 0.03248411 -0.054760356 0.022408197 0.1478255 -0.076569326
0.030693293 0.05800705 -0.027814362 0.096048586 -0.07651526 0.13082369 0.09611772 0.050116863
0.11340313 0.0032514625 -0.008865986 0.05454287 -0.002191913 0.006507353 0.15419665 0.06580025
0.105700016 0.073504016 0.08859213 0.14215843 -0.005129212 -0.05875764 -0.100968845 0.02766087
-0.026457878 -0.070934884 -0.050626572 0.021976555 0.036319565 0.07687931 0.07229683 0.016924586
0.058097616 0.06205265 -0.059388567 -0.017295413 0.0677009 0.09140129 0.09388971 0.037223898
0.037063386 0.012492152 0.05105145 0.13666962 0.02103204 -0.14992283 -0.009989412 0.09335925
-0.13024451 -0.04643623 0.044520214 0.11651054 0.05736175 -0.06113161 -0.029351963 0.08237769
0.0010060826 0.034970682 0.13827293 -0.05698663 -0.11162807 0.051391944 -0.023035523 0.008640827
0.04720977 -0.040040933 -0.0494956 0.1490647 -0.029307041 0.010245258 0.09933016 0.11289767
0.11851538 0.013556485 0.07280273 0.07001002 -0.11014942 -0.106463864 0.053995486 0.03131874
-0.018595168 0.1091543 -0.12525892 0.1264408 -0.11810644 0.06971566 0.021991491 0.011586453
0.11086753 0.02639233 -0.017680364 -0.038165342 0.09688894 0.1414022 -0.04597883 0.00976591
-0.010592302 0.038564697 0.009752764 0.12653944 -0.034575965 -0.14058504 0.0049716523 0.021673556
-0.026993291 0.042098038 0.10350136 0.06059642 -0.075880535 0.145002 -0.009132739 -0.07199098
-0.020630712 -0.07452685 0.047981437 0.06221376 0.09035387 -0.04259179 0.049231075 -0.03708636
-0.04021127 0.107776605 0.07634683 -0.11479906 -0.025052149 0.079501934 0.011955728 -0.008336448

a2c_network.mu.bias f4 [6]
00000000: 6cbe a7bd 77c0 003e c43a 983c 83c6 913d
00000010: 1981 8e3d e448 d33c
-0.08190617 0.1257342 0.01858271 0.07117941 0.06958217 0.025791593

exp_avg f4 [6]
00000000: e8fd 8d3b e2e6 023c 3a46 223c ef0b 0839
00000010: c7dd 593b 41c4 90bb
0.0043332465 0.007989617 0.009904439 0.00012974416 0.0033243762 -0.0044179265

exp_avg_sq f4 [6]
00000000: 0c95 9039 2610 8a39 0024 8839 6ea6 7f39
00000010: 1275 8239 cd2d 8039
0.0002757687 0.00026333443 0.00025966763 0.00024380695 0.00024882756 0.00024448187

exp_avg f4 [256, 30]
00000000: 9c57 98b9 a49c 363a 7ab3 1139 c3eb 7cb7
00000010: fb90 bbb9 2197 01ba ac8c 5d3a 9908 3138
00000020: 366e 07ba 3bc0 f335 0000 0000 e7ef 79ba
00000030: c1f0 24ba a3e9 b4b9 6b87 47b9 df8e f138
00000040: 8039 623a 598d 9e3a 54c5 87b9 1246 fbb9
00000050: 63a6 4e39 c5c6 453a 5c51 8d3a 8752 9d39
00000060: c06a e2b9 6335 10ba 64a3 5c38 915f 2939
00000070: c14e 9e3a 15f1 9a3a 7170 fbb9 2b71 0a3a
00000080: 20fa 6ab9 9675 df38 8acb 5439 bad1 5338
00000090: f17c 2e3a a4d0 7d39 2323 4b3a 0588 d235
000000a0: 0000 0000 b942 a039 aed9 ff39 2e20 77ba
000000b0: 9d88 58ba 210e b9b9 7e2e 11ba 5328 fcb8
000000c0: aab5 89b8 f792 9dba eb82 ab3a 137b a8b9
000000d0: 59ad 75b9 faac b739 d2ac ed39 a6cf 9dba
000000e0: 131f 2ab9 1f42 d5b9 3bec abb9 338d 0e39
000000f0: de53 80b9 7c3a acb7 9b35 81ba 773b 9838
00000100: 8f3a 1fb9 7f3b 89b9 1426 8b3a b1d2 0eb9
00000110: 3117 e839 2106 2bb3 0000 0000 223a 8eb9
00000120: 756c 3e39 c70a 8438 ec0a b0b9 0928 34ba
00000130: a017 e3b8 8d8f 92b9 4efb dbb9 52e4 d2b7
00000140: cbcd 323a 91a1 b539 fbc7 233a 71fa 4739
00000150: 4789 7bb8 6d79 9c38 bb3d e6b8 4d23 e0b9
00000160: ed13 6e39 fa8d aeb8 c048 ae3a cba7 16ba
00000170: e09c 08b8 1dbc 2939 6670 3b3a d9e0 513a
00000180: 66d1 abba f191 7f39 5374 f5b9 0633 d2b6
00000190: 0000 0000 5500 c53a a209 07ba 8c0f 383a
000001a0: 9412 733a 967d 983a 818c 643a 8ddb d1b9
000001b0: 0c2d e039 ead8 423a 0de8 ffb8 f19c 513a
000001c0: f18b eb39 17d4 c7ba 5454 32ba aad9 7c3a
000001d0: df4c ea39 c29c c43a 4504 693a 93a3 58ba
000001e0: a581 27b9 7c59 a339 2232 d9b9 3d33 adb7
000001f0: 0398 2038 dd38 a2b8 d963 ec39 88eb 8739
00000200: b110 ae39 164e 2e36 0000 0000 c9b7 c3b7
00000210: 0243 29b8 fff8 c0b7 8e40 a5b9 b359 99b9
00000220: d37d b339 ff63 ceb7 2900 b9b8 e85b 02b6
00000230: fb15 b239 3935 ed39 02ac 073a 8553 39b9
00000240: 3dc0 acb8 ffc9 71b8 e705 d0b8 9261 d6b8
00000250: 212a fe39 e8b1 46b8 a2f6 06ba c34e 9039
00000260: c245 f239 8831 0b39 f029 b8b8 0a0c 21b9
00000270: 7138 9739 2376 c2b8 8fff 083a 3845 9436
00000280: 0000 0000 e73d abb9 89f1 353a 7bce 86ba
00000290: 3dca 32ba 47fc 07ba 7539 96ba fd02 1638
000002a0: d753 5939 c302 99ba bc23 2f38 1da5 83ba
000002b0: 0a4e 81ba 8277 8f3a d4fb 663a ba96 b5ba
000002c0: dfc9 b5b9 ae67 8bba 1f48 a5ba fdc1 e839
000002d0: 3c19 63b8 883c 5aba 8e47 bdb9 5077 60ba
000002e0: 0871 efba 89e1 cfba 6c14 a23a 709f a9ba
000002f0: 7b47 af39 d114 9eb6 0000 0000 fea2 d93a
00000300: 1ea2 8539 97d5 a8b9 333e 2dba 07e7 7cba
00000310: 13de bcb7 4352 46b9 eeab 9cba 33ae dbb8
00000320: 0a3b 72ba f2f4 1a3a ef05 923a a4d8 b73a
00000330: 24b6 aeb9 b61a 51b9 8705 89ba 8553 ecb9
00000340: f24a 253a 3fe8 403a 5576 ddb9 6e84 4c3a
00000350: f6b9 1eb9 c5df 7439 7787 2538 0e35 e0b9
00000360: 7e12 a939 979c df39 6aa2 f8b9 a93d 5636
00000370: 0000 0000 2403 d7ba d845 68ba 0456 f5b9
00000380: 24bd 5ab7 b25b 033a ec4e 273a 9e8a 573a
00000390: 5cb1 09ba 86cd 20ba 85df 863a aac4 8ab9
000003a0: eae3 1d3a e7f3 0fba d20a 1fba 32d9 69ba
000003b0: a3b7 1f3a 70ef 0139 aaf3 383a c136 df39
000003c0: 31c9 4eba 5f4a 2e3a 52c1 2eb9 4878 1e39
000003d0: 8f55 cd39 d3dc 1cba e8ef 843a 4492 af39
000003e0: d2b4 9739 8f10 b6b5 0000 0000 014f 953a
000003f0: f4f6 9239 91ca 0bba d602 90ba 01b4 1cba
-0.00029056973 0.00069660903 0.00013895138 -1.5075263e-05 -0.00035775438 -0.00049434794 0.00084514427 4.2208096e-05
-0.0005166264 1.8160857e-06 0.0 -0.00095343444 -0.00062919786 -0.00034506348 -0.00019028566 0.00011518387
0.0008629784 0.0012096568 -0.00025896227 -0.00047926657 0.00019707675 0.00075445726 0.0010781693 0.0003000686
-0.00043185614 -0.00055011193 5.2604257e-05 0.00016152697 0.0012077914 0.0011821116 -0.00047958226 0.00052811456
-0.00022409158 0.00010655371 0.0002029372 5.0501643e-05 0.0006656191 0.00024205685 0.0007749071 1.5685806e-06
0.0 0.0003056729 0.00048799574 -0.00094270974 -0.0008260103 -0.00035296477 -0.0005538239 -0.00012023807
-6.5665066e-05 -0.0012021948 0.0013085281 -0.00032135154 -0.00023429598 0.00035033358 0.00045332924 -0.0012040033
-0.0001622404 -0.0004067579 -0.00032791667 0.00013594776 -0.00024476548 -2.0531232e-05 -0.0009857895 7.259001e-05
-0.00015185236 -0.00026175004 0.0010616207 -0.00013620664 0.00044267767 -3.9819614e-08 0.0 -0.00027127663
0.00018160215 6.296258e-05 -0.00033577473 -0.0006872421 -0.00010828604 -0.00027954244 -0.00041958172 -2.514027e-05
0.00068208267 0.00034643387 0.0006247756 0.00019071416 -5.9970913e-05 7.461277e-05 -0.00010978753 -0.0004275091
0.00022704872 -8.323412e-05 0.0013296828 -0.0005747049 -3.2571028e-05 0.00016187174 0.00071502326 0.0008006222
-0.001310867 0.00024373062 -0.0004681671 -6.2644276e-06 0.0 0.0015030006 -0.0005151277 0.00070213596
0.0009272483 0.0011634107 0.00087184465 -0.00040027165 0.00042758172 0.00074328354 -0.0001220257 0.00079961034
0.00044926957 -0.0015245703 -0.0006802727 0.00096454716 0.0004468923 0.0015000331 0.0008888881 -0.00082641206
-0.00015974657 0.00031156454 -0.00041426817 -2.0647067e-05 3.8288545e-05 -7.7353536e-05 0.0004508782 0.0002592469
0.00033200302 2.5973472e-06 0.0 -2.3331393e-05 -4.0355146e-05 -2.3004131e-05 -0.0003151935 -0.00029249265
0.00034235287 -2.4603678e-05 -8.821517e-05 -1.9425006e-06 0.00033967182 0.00045243817 0.00051754725 -0.00017674088
-8.237406e-05 -5.7647e-05 -9.919312e-05 -0.00010222489 0.00048478044 -4.7372567e-05 -0.00051484455 0.00027524502
0.0004620981 0.00013274525 -8.781615e-05 -0.00015358641 0.00028843016 -9.2726455e-05 0.00052260695 4.418802e-06
0.0 -0.00032661782 0.00069405936 -0.0010284925 -0.0006820297 -0.00051874336 -0.0011461215 3.576557e-05
0.00020725965 -0.0011673797 4.175653e-05 -0.0010043714 -0.0009865176 0.001094565 0.0008811329 -0.0013854124
-0.00034673416 -0.0010635757 -0.0012609995 0.0004439502 -5.414452e-05 -0.000832506 -0.00036102202 -0.0008562701
-0.0018267939 -0.0015860061 0.0012365705 -0.0012941193 0.00033431858 -4.7111903e-06 0.0 0.0016604362
0.00025488524 -0.00032202594 -0.00066086947 -0.0009647463 -2.2514758e-05 -0.00018913396 -0.0011953095 -0.00010475181
-0.0009240365 0.00059111335 0.0011140684 0.0014026356 -0.00033323572 -0.00019941744 -0.0010453918 -0.00045075655
0.0006305418 0.0007358826 -0.0004224057 0.0007801716 -0.0001513733 0.00023353014 3.9465227e-05 -0.00042764138
0.0003224797 0.00042650543 -0.00047423254 3.1924376e-06 0.0 -0.0016404134 -0.0008860505 -0.00046794128
-1.303785e-05 0.0005010917 0.0006382305 0.00082222547 -0.0005252564 -0.0006134141 0.0010290003 -0.00026467937
0.00060230365 -0.00054913614 -0.0006066981 -0.0008920609 0.00060927327 0.00012391596 0.0007055352 0.0004257467
-0.0007888256 0.00066486554 -0.0001666595 0.00015112862 0.00039164393 -0.0005983833 0.0010142298 0.00033487577
0.00028935686 -1.3564876e-06 0.0 0.0011391343 0.00028031284 -0.0005332614 -0.0010987173 -0.00059777504
