IsaacGymEnvs/isaacgymenvs/runs/Bolt_18-17-24-24/nn/last_Bolt_ep_400_rew_0.22271864.pth (torch, 612432 bytes, 36 tensors)

value_mean_std.running_mean f8 [1]
0	0x3fb538871b1c415a	0.08289379512667008

value_mean_std.running_var f8 [1]
0	0x3f71e89be1b2d67b	0.004372223770749191

value_mean_std.count f8 []
0	0x4122c00200000000	614401.0

running_mean_std.running_mean f8 [30]
0	0x3fdb6b7c27387954	0.42843536214959
1	0x3fa2ff2aeaca93e6	0.037103024636316026
2	0xbfd4c425e5f74d3f	-0.32447192628497484
3	0x3faa202c306f3691	0.05102670756569439
4	0x3fe20201ec6322e6	0.5627450577677251
5	0xbf912297ce3c227e	-0.016733524286822725
6	0xbfaf4ca41848c793	-0.06113159939231063
7	0x3f76f2f689ad534f	0.00560280135944853
8	0xbfe5118c74cb952f	-0.6583921700627452
9	0x3fffff1eb881fac6	1.999785156949359
10	0x0000000000000000	0.0
11	0x3f99c9a2c67894d4	0.025183242191037916
12	0xbfce1ad95043f5bf	-0.23519436282360393
13	0x3fd2370c4c6ac87a	0.2846098657856896
14	0x3fd059a2ac18d7e0	0.25547091299392655
15	0x3fd29f263fc52234	0.29096370914024594
16	0x3fd0a04543ab91fd	0.2597821389047395
17	0x3fcdaa40032add26	0.23175811915073402
18	0x3f896f87232b46fe	0.012419753800176899
19	0x3f94fe6e11b8bb5e	0.02050182326473348
20	0x3f7babe7a85abd67	0.006755738175044135
21	0x3f7381e8668b6f28	0.00476256162138692
22	0x3f8057af306d2fc0	0.007979744592056082
23	0xbf6cf63f103b8192	-0.003535388155668958
24	0xbfdd17d44a6589b3	-0.45457942261978274
25	0x3fe3023a18672dfd	0.5940218426343901
26	0x3fe0000c62eea33d	0.5000059063214405
27	0x3fe29e873f1b6a0a	0.5818515999374665
28	0x3fe09cfebc29ec50	0.5191644358705023
29	0x3fdc9c7207a6c462	0.44704867121897085

running_mean_std.running_var f8 [30]
0	0x3fe59ea8b650d582	0.6756175576071402
1	0x3fc9672c4e1a6f62	0.1984610921252808
2	0x3fd8e7c142cf710a	0.3891451981014745
3	0x3ff778cda5a1f2de	1.4669929952644263
4	0x3ff9c5f63b2e5d4d	1.6108305274736552
5	0x3fd3ddb5ad19b6a7	0.3104070845064179
6	0x3fc5313bd71d33e9	0.1655649948465048
7	0x3fba5a4dca5e3611	0.10294042769074731
8	0x3fd312aa37cfc2ac	0.29801421594951694
9	0x3f3c9381e5e29dff	0.0004360382207644064
10	0x3ecb4e7be19a7a77	3.2551977369865253e-06
11	0x3f2c8ba5ec19a43b	0.0002177848855809144
12	0x3fba56dfe847cd0f	0.10288810177717188
13	0x3faeddcb243c443e	0.0602859002812086
14	0x3fb711581a8695f7	0.09010840079880454
15	0x3faf954a9b81280d	0.061685878260121375
16	0x3fb5680055006903	0.08361818385347779
17	0x3fb907bcb6752266	0.0977743096783655
18	0x3fb49edd5e213ede	0.08054908321468754
19	0x3fb6cb133b794604	0.08903618051524381
20	0x3fb4fb1f1e4682b6	0.08195681084772385
21	0x3fbada26693ce037	0.1048912054947103
22	0x3fb74d815878139e	0.09102638635529423
23	0x3fb37ac2b303a7e2	0.07609192724672156
24	0x3fe30cc497824994	0.595308586040391
25	0x3fdb731b9f6f10c3	0.42890062875472895
26	0x3fe0e2c991fe8059	0.5276840068290866
27	0x3fdc0f8cd1212070	0.4384491007117566
28	0x3fe1146c717053cf	0.533743115959277
29	0x3fe2a7d509273379	0.5829873255512289

running_mean_std.count f8 []
0	0x4112c00400000000	307201.0

a2c_network.sigma f4 [6]
0	0xbeff11e9	-0.49818352
1	0xbf1d1786	-0.6136402
2	0xbebd4faf	-0.36974856
3	0xbef3d5ea	-0.4762414
4	0xbedcff78	-0.43163657
5	0xbed513d1	-0.4161668

a2c_network.actor_mlp.0.weight f4 [256, 30]
0	0x3e7d1198	0.24713743
1	0xbebe4184	-0.3715936
2	0x3dc012f5	0.09378616
3	0x3e52115f	0.20514439
4	0x3cfd1581	0.030894043
5	0x3e196f4b	0.14983861
6	0x3d42caba	0.047556616
7	0x3e872e11	0.26402333
8	0xbd42de4e	-0.047575288
9	0xbdb7bff3	-0.08972158
10	0x3d48ed95	0.0490547
11	0xbbdc79f3	-0.0067284047
12	0x3d1df637	0.038564887
13	0x3e1ed1da	0.1550974
14	0x3d98cf1c	0.07461378
15	0xbd089ac7	-0.033350732
16	0x3da6f28f	0.08151733
17	0xbc4dee3d	-0.012569007
18	0x3cc4f68a	0.02404334
19	0xbdcab0d5	-0.09897009
20	0xbe3a73a9	-0.18208183
21	0xbbad9d6a	-0.0052983062
22	0xbe2c3594	-0.16817313
23	0x3e3735b2	0.17891577
24	0xbca6fa8d	-0.020383144
25	0x3d83c2a0	0.06433606
26	0x3d5eed8e	0.05442577
27	0x3d2af211	0.04173476
28	0x3e05cc3b	0.13066189
29	0xbdd21797	-0.10258406
30	0x3b4dcc42	0.0031402265
31	0xbe36074d	-0.17776223
32	0x3bca7703	0.006178738
33	0xbdebc752	-0.11512627
34	0x3e179a39	0.14804925
35	0xbde5e04b	-0.11224421
36	0x3dee9d45	0.116510905
37	0xbe2a7d77	-0.16649424
38	0xbd13f64b	-0.036123555
39	0xbdd1cb74	-0.10243884
40	0x3e2827fc	0.16421503
41	0x3d8f75a8	0.07004863
42	0x3e4c75f2	0.19966868
43	0xbe124add	-0.1428637
44	0xbe4d73de	-0.20063731
45	0xbe3125e4	-0.1729961
46	0xbe0f92b5	-0.14020808
47	0x3e0039a9	0.12521996
48	0xbd4e47d2	-0.050361462
49	0x3e58820d	0.2114336
50	0xbe0e0af7	-0.1387137
51	0xbde898cd	-0.113572694
52	0x3e19b02c	0.1500861
53	0xbc8e5ef6	-0.017379265
54	0x3d94a5b3	0.07258167
55	0x3cfd92af	0.030953733
56	0x3de14df3	0.11001196
57	0xbdca1191	-0.09866632
58	0xbd4d1f69	-0.050078783
59	0x3dc71bed	0.09722123
60	0x3dece2ee	0.11566721
61	0xbda60eb4	-0.08108273
62	0x3e388426	0.1801916
63	0x3e309c27	0.17247067
64	0xbe274f96	-0.16338953
65	0xbe036833	-0.12832718
66	0x3e8130c3	0.25232515
67	0xbd831a40	-0.06401491
68	0xbc9b8bb1	-0.018987508
69	0xbe5b9dc6	-0.21446905
70	0xbdd620d3	-0.104554795
71	0x3d41ba60	0.04729688
72	0x3c449c24	0.012000117
73	0xbe0cca22	-0.13748983
74	0x3cbeaa0f	0.02327445
75	0xbd9f523b	-0.07779356
76	0xbe1b6e3b	-0.15178768
77	0xbdd01c15	-0.10161606
78	0xbdd2a4db	-0.1028535
79	0xbe49b78c	-0.19698924
80	0x3d8b7cb9	0.06810898
81	0x3cd489f6	0.025944691
82	0x3d9edfc6	0.07757525
83	0xbe18c007	-0.14917003
84	0xbd6aa37b	-0.057284813
85	0xbdd7249e	-0.10505031
86	0x3c834df8	0.01602839
87	0xbe112c66	-0.14177093
88	0xbca931d0	-0.020653635
89	0xbc9bda80	-0.019025087
90	0x3d098eb0	0.033583343
91	0xbcfee50c	-0.031115077
92	0xbd05004e	-0.032470994
93	0xbe9ff00d	-0.31237832
94	0xbdaa66f0	-0.08320415
95	0xbe5dd9df	-0.21665142
96	0xbdb43def	-0.088008754
97	0xbe9d611d	-0.30738154
98	0x3e6e2579	0.23256482
99	0xbd8d95a8	-0.0691331
100	0x3e20db37	0.15708624
101	0x3df54ddd	0.11977742
102	0xbe4c5241	-0.19953252
103	0x3ddf7fa5	0.10913018
104	0xbd7b07a3	-0.06128658
105	0xbdc496fa	-0.09599109
106	0xbe2de20e	-0.16980764
107	0xbe2fefa1	-0.17181255
108	0x3b12d3b0	0.0022404008
109	0xbdb5c8b3	-0.08876171
110	0x3d2e8a8c	0.042612597
111	0xbe3b7635	-0.18306811
112	0x3e185842	0.14877418
113	0xbdb0f59f	-0.086405985
114	0xbd5a07b6	-0.05323001
115	0x3d322bea	0.04349891
116	0x3dafd7be	0.085860714
117	0x3dda3ecf	0.10656511
118	0x3de79762	0.11308171
119	0xbd8bc93e	-0.06825493
120	0xbcf920b4	-0.030411102
121	0xbdee66c1	-0.116406925
122	0xbde4773d	-0.111555554
123	0xbd527b96	-0.051387392
124	0x3e2867d9	0.16445865
125	0xbe7f937c	-0.24958605
126	0x3dcfa1c6	0.10138278
127	0x3d6edde1	0.05831707
128	0x3e095001	0.13409425
129	0xbd864917	-0.065569095
130	0x3e29ef15	0.16595109
131	0x3d3ac92c	0.04560201
132	0x3c7d773b	0.015470321
133	0xbe140524	-0.14455086
134	0x3dcef61d	0.10105536
135	0xbdafcac8	-0.08583599
136	0xbdf915df	-0.12162375
137	0x3e2872d1	0.16450049
138	0xbc1bb047	-0.009502477
139	0xbdd9ab00	-0.10628319
140	0xbdcd1751	-0.10014213
141	0xbd859f60	-0.06524539
142	0x3d55353c	0.05205272
143	0xbc5ab876	-0.013349643
144	0xbe0001b3	-0.12500648
145	0xbcef5ba5	-0.029218504
146	0xbdd2de3d	-0.10296295
147	0x3d23a511	0.03995234
148	0x3e0c72eb	0.13715713
149	0xbdfc589f	-0.12321591
150	0x3d6b4613	0.057439875
151	0x3e021a74	0.12705404
152	0x3da0a9f4	0.07844916
153	0xbd41028f	-0.04712158
154	0x3e4e5629	0.20150055
155	0x3d5e2036	0.054229937
156	0x3cc20fd7	0.023689194
157	0xbc3cd2dc	-0.011524882
158	0xbe0f644a	-0.14003101
159	0x3ce611db	0.028084686
160	0xbd041b2d	-0.03225248
161	0xbdb7459d	-0.089488246
162	0x3dd5034a	0.10401018
163	0x3e176ffe	0.14788815
164	0x3b3ec6d4	0.002911021
165	0xbd4f8d31	-0.05067176
166	0xbcbb3c7f	-0.022855995
167	0xbd109434	-0.035297588
168	0x3d5c4d8d	0.053784896
169	0x3ddd1a71	0.10796059
170	0xbe04c6bf	-0.1296644
171	0xbdb75143	-0.08951046
172	0x3df8ba56	0.12144916
173	0x3dc817b3	0.09770145
174	0x3ce12c95	0.027487079
175	0xbe00dd01	-0.12584306
176	0xbdbe2bd1	-0.09285701
177	0xbe3c75f3	-0.18404369
178	0xbe0504c0	-0.12990093
179	0x3d84746a	0.06467517
180	0x3dc505a4	0.096202165
181	0x3dc55d61	0.09636951
182	0xbe8c7c3e	-0.2743854
183	0xbddf288a	-0.10896404
184	0xbce6809c	-0.028137498
185	0x3e6fe44e	0.23426935
186	0xbb0b5c52	-0.0021264744
187	0xbe43f5eb	-0.19136779
188	0x3dda2047	0.10650688
189	0xbbd40ba1	-0.006471113
190	0xbdf20441	-0.118172176
191	0x3de0bcf7	0.10973542
192	0xbe080ad4	-0.1328538
193	0xbd530916	-0.051522337
194	0xbe3a4e52	-0.1819394
195	0x3d8ad8a9	0.06779606
196	0x3dbc11ce	0.091830835
197	0x3dd0ba91	0.10191835
198	0xbdf4b2b6	-0.11948149
199	0xbe3538ed	-0.17697497
200	0xbe2e4c77	-0.17021357
201	0x3d0fc1f7	0.03509709
202	0x3c4e9739	0.0126092965
203	0x3e290ccc	0.16508788
204	0x3d531503	0.05153371
205	0x3d535326	0.05159297
206	0x3c666d16	0.014064094
207	0xbe338355	-0.17530568
208	0xbe628f6f	-0.22125028
209	0xbe44a9ec	-0.19205445
210	0x3e2255a9	0.1585299
211	0xbe8627db	-0.26202282
212	0x3d9b6c91	0.07589067
213	0xbda30abd	-0.079610325
214	0x3c9d18c3	0.019176846
215	0xbe73a6b0	-0.23794055
216	0xbd37b569	-0.04485074
217	0x3e3bc1ea	0.18335691
218	0xbe4d4658	-0.20046365
219	0x3de78f7c	0.11306664
220	0xbd6fe890	-0.0585714
221	0xbcf2cf3e	-0.029639836
222	0xbc1879a9	-0.00930635
223	0xbd22d383	-0.039752495
224	0xbcc4ed3c	-0.024038903
225	0xbd6cc8f1	-0.05780882
226	0x3dad02d5	0.08447806
227	0xbda26cd3	-0.07930913
228	0x3da3a7b8	0.07990974
229	0x3d7d6d24	0.061871663
230	0x3de6b954	0.11265817
231	0xbd9cdee9	-0.07659704
232	0x3d896fcb	0.06710776
233	0x3c82c9b1	0.015965315
234	0x3d8f4a86	0.06996636
235	0x3e448eae	0.19195053
236	0xbd032cea	-0.032025255
237	0x3da981b9	0.08276696
238	0xbd44e990	-0.048074305
239	0xbd116760	-0.035498977
240	0x3e320052	0.17382935
241	0xbeaffe1c	-0.34373558
242	0x3e331cff	0.1749153
243	0x3e97ae29	0.2962506
244	0x3e72c9ef	0.23709844
245	0xbd2e3308	-0.042529136
246	0xbe04e972	-0.12979677
247	0x3e4044ca	0.18776241
248	0x3e41fea1	0.1894479
249	0xbe5dd1b9	-0.21662034
250	0xbd29be6a	-0.04144136
251	0xbd321fad	-0.04348724
252	0xbd6a74f7	-0.057240453
253	0xbda98657	-0.082775764
254	0xbdac14e5	-0.08402423
255	0x3c5a476b	0.013322691

a2c_network.actor_mlp.0.bias f4 [256]
0	0xbd8bc2df	-0.06824278
1	0x3abc2610	0.0014354605
2	0xbda9ded4	-0.08294454
3	0xbd57f0c7	-0.052719858
4	0x3d49c8da	0.049263813
5	0xbac09301	-0.0014692248
6	0x3dfaa421	0.12238336
7	0xbbf7a73d	-0.007557778
8	0xbd629ae7	-0.055323508
9	0xbe47e685	-0.1952153
10	0xbd4e9723	-0.050437104
11	0x3da1638d	0.07880316
12	0xbe0ac438	-0.13551414
13	0x3c7cb996	0.0154251065
14	0xbb9c3ec3	-0.004768224
15	0x3d932f00	0.07186699
16	0xbd4856ad	-0.048910785
17	0xbd691fd4	-0.05691512
18	0xbe3a916e	-0.1821954
19	0xbcacd36c	-0.021096908
20	0x3caefe4a	0.021361489
21	0xbd5172e7	-0.05113497
22	0x3d3013e3	0.042987715
23	0xbd02135c	-0.031756744
24	0x3d5d89cf	0.054086503
25	0xbd1c7aa5	-0.0382029
26	0xbd8d18f5	-0.06889526
27	0xbd11f70d	-0.035635997
28	0xbcb546fc	-0.022128575
29	0xbbe1fd4f	-0.006896652
30	0xbc1d752b	-0.009610455
31	0x3caa92dd	0.020821983
32	0xbcc9d1ee	-0.024636235
33	0xbe1c9b9e	-0.15293738
34	0x3bdd270b	0.006749039
35	0x3d29a857	0.041420307
36	0xbd9537e1	-0.07286049
37	0x3c25fed4	0.010131557
38	0xbd9035d2	-0.070415154
39	0xbd4986cf	-0.04920083
40	0x3d2760e2	0.04086388
41	0x3d16797a	0.036736943
42	0xbd9b8096	-0.07592885
43	0xbda34c43	-0.0797353
44	0xbdaf9149	-0.08572633
45	0xbe1c99ff	-0.1529312
46	0x3d20b6c4	0.0392368
47	0xbd244b50	-0.040110886
48	0x3d7166a0	0.05893576
49	0xbda887d3	-0.082290314
50	0x3dc863a8	0.09784633
51	0xbd6cfa8f	-0.05785614
52	0xbd100dba	-0.03516934
53	0x3d889ec2	0.06670906
54	0xbb9de77e	-0.004818856
55	0x3db9830f	0.090582006
56	0xbd737f04	-0.059447303
57	0x3d8eebd2	0.06978573
58	0x3db80314	0.08984962
59	0xbd967130	-0.073458076
60	0xbcd7ba5d	-0.026333982
61	0xbb85ec09	-0.0040869755
62	0x3d2f8dbc	0.042859778
63	0xbd8204b0	-0.0634855
64	0xbd62e7a5	-0.055396695
65	0x3d85c8f4	0.065324694
66	0xbc02716f	-0.007961615
67	0xbb8e8f3b	-0.0043505705
68	0xbd8777ba	-0.06614633
69	0x3cc74a4d	0.024327422
70	0x3d7de965	0.06199016
71	0xbc3f2572	-0.0116666425
72	0xbd39b909	-0.04534248
73	0xbc7c8bac	-0.01541416
74	0xbdaaebed	-0.083457805
75	0xbc492959	-0.012277924
76	0xbd810e42	-0.063015476
77	0x3dad8da8	0.084742844
78	0x3c7163a9	0.0147332335
79	0x3d80ba97	0.06285589
80	0x3d7372d0	0.059435666
81	0xbd03618d	-0.032075454
82	0xbcfa6da6	-0.030569863
83	0xbd24bb22	-0.040217526
84	0xbdb8b730	-0.09019315
85	0xbcc2a9a7	-0.023762537
86	0xbd9c3e99	-0.07629127
87	0xbdec76f1	-0.11546124
88	0xbc49fcca	-0.012328336
89	0x3cf1b187	0.029503597
90	0x3c1ab536	0.009442618
91	0x3e020279	0.12696256
92	0x3caff561	0.02147931
93	0xbc83ce27	-0.016089512
94	0xbd00344e	-0.03129988
95	0xbaa4e1ca	-0.0012579497
96	0x3d4a81bd	0.049440134
97	0xbc667d0c	-0.014067899
98	0xbc9a1d57	-0.018812818
99	0xbc4a7c3b	-0.01235872
100	0x3c1a02d2	0.0094000865
101	0x3c2da4f6	0.010598412
102	0x3d9d11a9	0.07669384
103	0xbcb3e613	-0.021960294
104	0xbc1e6f5a	-0.009670103
105	0xbe071df4	-0.1319502
106	0x3dadb498	0.08481711
107	0xbc11ff61	-0.008910985
108	0x3dd5acd3	0.10433354
109	0x3cd429e4	0.025898881
110	0xbdf18543	-0.11792996
111	0xbd4f330f	-0.050585803
112	0xbd406fa0	-0.046981454
113	0xbc9c2012	-0.019058261
114	0xbd0ba73b	-0.03409503
115	0xbe2aca85	-0.16678818
116	0x3d048772	0.032355733
117	0xbdb55442	-0.088539615
118	0xbcc13f13	-0.023589646
119	0xbd0e6136	-0.034760676
120	0x3c9eaf2b	0.019370636
121	0x3d652cbc	0.055950865
122	0x3d842e75	0.064541735
123	0xbd6e7a36	-0.05822202
124	0xbb1f5fee	-0.0024318653
125	0xbd939195	-0.07205502
126	0xbd1b4f41	-0.03791738
127	0xbddc3bbf	-0.10753583
128	0xbdaf82e4	-0.08569887
129	0xbde7fe46	-0.11327796
130	0x3d95aaef	0.073079936
131	0x3bf0aa14	0.0073444936
132	0xbe4076b2	-0.18795279
133	0x3d970bc2	0.073752895
134	0xbd8efcb3	-0.06981792
135	0x3d0d536c	0.034503385
136	0xbcf7dcc7	-0.030256642
137	0xbd7a5add	-0.06112181
138	0xbdaed940	-0.08537531
139	0xbd6a3fc0	-0.057189703
140	0xbcc90ca1	-0.024542155
141	0x3cb6e532	0.022326086
142	0xbe055936	-0.13022313
143	0xbddd3b8f	-0.108023755
144	0xba2c144c	-0.0006564304
145	0x3ddbc0f8	0.10730165
146	0x3d11fd6e	0.03564208
147	0x3d589dd9	0.05288491
148	0xbb9eb3b1	-0.004843198
149	0xbddfc74f	-0.10926687
150	0x3d94dc96	0.07268636
151	0xbda370b6	-0.07980482
152	0xbc59943f	-0.0132799735
153	0x3be525c4	0.0069930274
154	0x3cfaa643	0.030596858
155	0xbd847b5a	-0.0646884
156	0xbcd965b0	-0.026537746
157	0xbd5f4dfa	-0.054517724
158	0xbda340f1	-0.07971371
159	0xbce01334	-0.027352907
160	0x3dbf5896	0.09343068
161	0x3d3d9e15	0.046293337
162	0xbd34aac5	-0.04410817
163	0xbd930e6d	-0.07180486
164	0x3d1c263e	0.038122408
165	0xbd8c9b7e	-0.06865595
166	0x3c3da308	0.011574514
167	0x3b879d78	0.004138645
168	0xbd75c845	-0.060005445
169	0x3ce0e211	0.027451547
170	0xbdcd2e2a	-0.10018571
171	0xbd98e4b9	-0.074655004
172	0xbb3e2fb6	-0.0029020137
173	0xbd8d6085	-0.06903175
174	0xbd89719b	-0.06711122
175	0xbc60cf94	-0.0137213655
176	0x3d068a40	0.03284669
177	0xbd14b4e8	-0.03630534
178	0xbd998111	-0.074953206
179	0xbd9b8211	-0.075931676
180	0x3d1234b3	0.03569479
181	0xbca6b130	-0.020348161
182	0x3cf1fd31	0.029539676
183	0x3c2853b1	0.01027386
184	0x3e1c68f3	0.1527441
185	0xbb8ffe43	-0.004394324
186	0xbdac6a0a	-0.08418663
187	0x3c194f7d	0.00935733
188	0xbb91e1be	-0.0044519594
189	0xbccdcdf4	-0.02512262
190	0xbdd6acfb	-0.10482212
191	0xbdb4427a	-0.08801742
192	0xbc81719e	-0.015801247
193	0x3c859888	0.016308084
194	0x3d541011	0.051773135
195	0xbd3ff6dd	-0.046866287
196	0xbd91e6e6	-0.071241185
197	0x3bb31016	0.005464564
198	0x3d82b4f5	0.06382171
199	0xbce22b02	-0.027608398
200	0xba915927	-0.0011089192
201	0x3db912a5	0.09036759
202	0xbd3f0c22	-0.04664243
203	0xbd906da5	-0.07052163
204	0xbc2cdf46	-0.010551279
205	0xbde791e5	-0.11307124
206	0x3c23e140	0.010002434
207	0xbdac4839	-0.08412213
208	0xbcc3e45d	-0.023912603
209	0xbd98b718	-0.07456797
210	0x3c09ea5a	0.00841769
211	0xbd2ffa3f	-0.042963263
212	0xbdc8a0b2	-0.09796275
213	0xbdb5428a	-0.08850582
214	0xbd9c242f	-0.07624089
215	0xbda6e450	-0.08149016
216	0x3daf27d1	0.08552516
217	0xbcc8dde0	-0.02451986
218	0xbd713b4d	-0.058894444
219	0xbd102b1f	-0.035197373
220	0xbd738249	-0.05945042
221	0xbc8a87cc	-0.016910456
222	0x3d2b8ed8	0.041884273
223	0xbd57de1e	-0.05270206
224	0xbd23d0a8	-0.039993912
225	0xbda80f1a	-0.082060054
226	0xbcc3f4c1	-0.023920419
227	0x3d7066a8	0.05869165
228	0xbd3c0a09	-0.045908008
229	0x3caf631f	0.02140957
230	0xbd48508b	-0.048904937
231	0xbc90a2c3	-0.017655736
232	0xbc80d23f	-0.015725253
233	0x3dd945a6	0.106089875
234	0x3d4caaf3	0.049967717
235	0x3e3c3979	0.18381299
236	0x3d4710aa	0.048599876
237	0xbcc0c856	-0.023533028
238	0xbc6378df	-0.013883798
239	0xbba2151e	-0.004946365
240	0x3d615fe4	0.05502309
241	0xbd81e168	-0.06341821
242	0xbc43b1cc	-0.011944246
243	0x3bd08d02	0.0063644657
244	0xbc4654e2	-0.012105199
245	0xbd705b62	-0.0586809
246	0xbc9ff5a8	-0.019526318
247	0x3d014f8b	0.03157
248	0x3a4a47a4	0.0007716364
249	0xbd2b0570	-0.041753232
250	0xbc4d19b3	-0.012518334
251	0x3d912716	0.07087533
252	0xbcb9f0db	-0.022697857
253	0xbdb6c449	-0.08924157
254	0xbca1be15	-0.019743958
255	0xbe2c0ff8	-0.16802967

a2c_network.actor_mlp.2.weight f4 [128, 256]
0	0x3d7b0cbf	0.061291452
1	0x3d63813b	0.055543166
2	0xbdb935ad	-0.09043441
3	0xbcf8d434	-0.030374624
4	0x3d1980ea	0.037476458
5	0xbc9d7bb7	-0.01922403
6	0xbdeeb086	-0.11654763
7	0x3d1953c8	0.037433416
8	0x3d40949e	0.047016732
9	0xbd1c54aa	-0.03816668
10	0x3c8cca5b	0.017186334
11	0xbd874b77	-0.06606191
12	0x3e014e48	0.12627518
13	0x3d248d56	0.04017385
14	0x3d0528c4	0.03250958
15	0xbc907557	-0.017634077
16	0xbdc5ae47	-0.096523814
17	0x3d47d900	0.04879093
18	0x3def942f	0.11698186
19	0xbc8d07b7	-0.017215593
20	0xbd26bb3d	-0.040705908
21	0x3c212ec6	0.009837812
22	0xbdb1e6a8	-0.08686572
23	0xbd0a7a89	-0.033808265
24	0x3ceb0a4b	0.028691432
25	0xbd5eedc5	-0.054425973
26	0x3cd7b11f	0.026329575
27	0xbd976f59	-0.07394285
28	0xbd8d3c74	-0.06896296
29	0x3d4d9f55	0.05020078
30	0x3c66cf71	0.014087544
31	0xbdfca6b8	-0.123364866
32	0xbc36c156	-0.011154493
33	0x3ca64b07	0.020299448
34	0x3ce544e4	0.027986951
35	0xbdaf5b3b	-0.08562323
36	0xbcd76c84	-0.026296861
37	0xbc20790c	-0.009794485
38	0x3c858ed6	0.016303461
39	0x3af2172d	0.0018470042
40	0x3dec14de	0.115274176
41	0xbd609cb8	-0.05483696
42	0xbc17e9fb	-0.009272094
43	0x3c06df6f	0.008231982
44	0x3dc0aebb	0.09408327
45	0x3dd4a8a8	0.10383731
46	0xbd95a637	-0.073070936
47	0xbda6fa91	-0.081532605
48	0xbe07c4d8	-0.13258684
49	0x3ceb6488	0.02873446
50	0xbd93052c	-0.07178721
51	0x3d988296	0.07446782
52	0xbc111edc	-0.008857455
53	0x3ddd2a45	0.10799078
54	0x3dcbbdec	0.09948334
55	0x3d327b0b	0.043574374
56	0x3d5edc87	0.05440953
57	0xbabad4f5	-0.001425414
58	0xbd2b1d2b	-0.041775864
59	0x3bbff5e5	0.0058581703
60	0x3c465833	0.012105989
61	0xbdb18078	-0.086670816
62	0xbd056b3c	-0.03257297
63	0xbb4839de	-0.003055207
64	0xbe1f0bc4	-0.15531832
65	0x3d1d8a47	0.03846195
66	0x3d324194	0.04351957
67	0x3bb1dcb9	0.0054279235
68	0xbbdbe3bd	-0.006710498
69	0x3d41f570	0.047353208
70	0xbca2371f	-0.019801674
71	0xba8ac45e	-0.0010587086
72	0x3d41210f	0.047150668
73	0xbc8c5c0d	-0.017133737
74	0xbd32086a	-0.043465056
75	0x3cb3b825	0.021938393
76	0x3d6a29ab	0.057168644
77	0xbb7dcbe6	-0.003872627
78	0xbcc660e1	-0.024216117
79	0x3bd24773	0.006417209
80	0xbcf66964	-0.030079551
81	0x3ce40fe3	0.027839607
82	0xbd655422	-0.05598844
83	0x3cc58c49	0.024114745
84	0xbbfba097	-0.007679056
85	0xbd2dbb2f	-0.04241484
86	0x3a26251f	0.0006337929
87	0xbd138202	-0.036012657
88	0xbe000da0	-0.12505198
89	0xbd73fd74	-0.059567884
90	0x3dd71d9e	0.10503696
91	0x3d09c5cd	0.033635903
92	0xbcfd9015	-0.030952493
93	0xbc944cd5	-0.018103043
94	0x3cfcd1e6	0.030861806
95	0xbd39109b	-0.04518185
96	0xbe4a9880	-0.19784737
97	0xbb065121	-0.0020495134
98	0xbcdee2b7	-0.027207715
99	0x3cc37436	0.023859125
100	0xbcb670eb	-0.02227064
101	0xbbd8ef20	-0.006620303
102	0x3d8ef880	0.06980991
103	0xbcbfb3b5	-0.02340112
104	0xbe1a739f	-0.15083168
105	0xbd30a0c7	-0.04312208
106	0xbd66c535	-0.056340415
107	0xbd3eb384	-0.04655792
108	0xbdcd61cf	-0.10028421
109	0xbdf2ab5d	-0.11849091
110	0x3ce6480d	0.028110528
111	0x3bcde2d1	0.006283142
112	0x3db39fd9	0.08770723
113	0x3de5fecd	0.1123024
114	0x3c8832a7	0.016625715
115	0x3d7668b6	0.060158454
116	0xbdd682bb	-0.104741536
117	0xbcf27ad1	-0.029599579
118	0x3b6161a0	0.0034390464
119	0x3cb78874	0.022403933
120	0x3db9ba43	0.0906873
121	0xbcdf2ce6	-0.027243089
122	0xbdc56b13	-0.096395634
123	0xbc8053b4	-0.015664913
124	0xbc325c60	-0.010886282
125	0xbca51b70	-0.020154685
126	0xbcc71042	-0.024299745
127	0xbcfe604f	-0.031051783
128	0xbcbaef2c	-0.022819124
129	0xbd99a8ca	-0.07502897
130	0x3d6f2a2c	0.058389828
131	0xbe2b7f4a	-0.16747776
132	0x39d4ce45	0.00040589474
133	0xbe44263d	-0.19155212
134	0xbe164e46	-0.14678296
135	0x3dd178be	0.10228108
136	0xbdfd131d	-0.12357161
137	0x3d3859d7	0.045007553
138	0x3be53949	0.0069953543
139	0xbd82cd72	-0.06386842
140	0xbc715088	-0.014728673
141	0xbcc88792	-0.024478707
142	0x3d4e6130	0.050385654
143	0xbd33fa79	-0.04394004
144	0xbd856a45	-0.0651441
145	0x3c10fc01	0.008849145
146	0x3cb2c04b	0.021820208
147	0x3cadbf38	0.021209344
148	0xbc87e4f9	-0.016588675
149	0xbd548242	-0.051882036
150	0x3c8fc8ab	0.01755174
151	0xbd446c88	-0.047955066
152	0x3d8d4483	0.06897833
153	0x3c448fd2	0.01199718
154	0xbdeaa384	-0.114569694
155	0x3db28e4c	0.08718547
156	0xbc4aacf9	-0.012370341
157	0x3d62c58f	0.055364188
158	0x3dc31b8b	0.09526738
159	0x3c22ea85	0.009943609
160	0x3da51292	0.08060183
161	0xbd69f238	-0.057115763
162	0x3d94f700	0.07273674
163	0x3d92c1ba	0.07165857
164	0xbd81ba12	-0.06334318
165	0xbdba71d3	-0.091037415
166	0xbd9f8f83	-0.077910446
167	0xbc86af6b	-0.016441068
168	0x3d51e4d4	0.051243618
169	0x3d56fcbe	0.052487127
170	0x3d5cbf0e	0.05389314
171	0x3ca1e76f	0.019763676
172	0x3b99d910	0.0046950653
173	0xbd8126e6	-0.063062474
174	0xbcbe89f3	-0.023259139
175	0xbcba598e	-0.022747781
176	0xbc007287	-0.007839805
177	0xbd652650	-0.05594474
178	0x3d9597fd	0.0730438
179	0xbcb930e1	-0.022606315
180	0x3cb80f13	0.022468125
181	0xbbb393f8	-0.0054802857
182	0x3c96004f	0.018310694
183	0xbd4defe2	-0.0502776
184	0x3cd3d79a	0.025859643
185	0x3c72d987	0.01482237
186	0x3cc011b3	0.02344594
187	0xbd130b96	-0.03589972
188	0x3caacc08	0.020849243
189	0xbddbc332	-0.1073059
190	0xbdb89bec	-0.09014115
191	0x3d8494bd	0.06473682
192	0x3bed6075	0.0072441646
193	0x3d9ade91	0.075619824
194	0xbdd17f5f	-0.10229372
195	0x3dc3c175	0.095583834
196	0x3dbc37d4	0.09190336
197	0x3d97d69f	0.074139826
198	0xbd61f489	-0.055164848
199	0xbd905a94	-0.070485264
200	0x3dcf7971	0.10130585
201	0x3d3d593f	0.04622769
202	0x3ddeb33e	0.108740315
203	0xbd8dacfd	-0.069177605
204	0xbdbc67f5	-0.09199516
205	0xbd7a8da7	-0.061170246
206	0xbcafece6	-0.021475267
207	0xbded5d27	-0.11590033
208	0xbb5729c8	-0.00328313
209	0xbcf10782	-0.029422525
210	0x3d3a546a	0.04549066
211	0xbd9ca025	-0.07647733
212	0x3baee4da	0.00533734
213	0xbddd0e3c	-0.107937306
214	0x3d24c312	0.040225096
215	0xbd496526	-0.04916873
216	0x3cc28cb8	0.02374874
217	0x3d9ccbd3	0.07656064
218	0x3d122da0	0.035688043
219	0xbde1f80a	-0.11033638
220	0x3caa93ee	0.020822491
221	0xbd59311c	-0.05302535
222	0x3dae5be2	0.08513619
223	0xbb34c221	-0.002758153
224	0xbcf81638	-0.030284032
225	0xbcba8da4	-0.022772618
226	0xbc3d2df6	-0.0115466025
227	0xbd59c7b3	-0.053168964
228	0x3cf0dce9	0.029402213
229	0x3d5df081	0.05418444
230	0xbd33c55c	-0.04388939
231	0x3d24a1ad	0.04019325
232	0xbd832a17	-0.064045124
233	0x3cf69563	0.03010053
234	0xbd6f7073	-0.05845685
235	0xbe20304b	-0.15643422
236	0xba04f24a	-0.0005071504
237	0xbd90af2c	-0.070646614
238	0xbe08f056	-0.13372931
239	0xbd14b747	-0.0363076
240	0xbd0010f3	-0.031266164
241	0xbe1fd851	-0.15609862
242	0x3cb713e2	0.022348348
243	0x3c9e8444	0.019350179
244	0x3d61ab03	0.05509473
245	0xbc1468fa	-0.0090582315
246	0xbe251214	-0.16120178
247	0x3d9c77b6	0.076400205
248	0x3ca2326d	0.019799436
249	0xbcf1443a	-0.029451478
250	0xbd2dd19a	-0.04243622
251	0xbbab5df9	-0.0052297083
252	0x3ce48152	0.027893696
253	0x3dc30c56	0.09523837
254	0x3b9fab88	0.004872743
255	0x3c6813c0	0.014164865

a2c_network.actor_mlp.2.bias f4 [128]
0	0xbe02b85a	-0.12765637
1	0xbda192cb	-0.07889327
2	0x3bc10d99	0.0058915135
3	0x3d8e117c	0.06936929
4	0xbd0c4b71	-0.034251634
5	0xbd7f50a4	-0.062332764
6	0xbdbd5d61	-0.09246326
7	0x3b9173a3	0.004438834
8	0xbdde34f9	-0.108499475
9	0xbe26e657	-0.16298805
10	0x3d3897fd	0.045066822
11	0xbdc5dd9d	-0.0966141
12	0xbdd8cd20	-0.105859995
13	0x3d864e21	0.06557871
14	0x3d4acd72	0.049512334
15	0xbc83d74f	-0.016093878
16	0xbd9bb4e0	-0.076028585
17	0xbcb39684	-0.021922357
18	0xbe211ce0	-0.15733671
19	0xbdc692e9	-0.0969599
20	0xbd5c633e	-0.053805582
21	0x3ce08d74	0.0274112
22	0xbe1c913e	-0.1528978
23	0x3c8739db	0.01650708
24	0xbdf454d3	-0.119302414
25	0x3c83637b	0.016038647
26	0xbc12a771	-0.008951054
27	0x3d459c12	0.048244543
28	0xbc9a32b8	-0.018823013
29	0xbe0a36f5	-0.13497527
30	0x3e13c554	0.14430743
31	0x3d436bc8	0.04771021
32	0xbc27c5ab	-0.010239999
33	0xbb9f0b71	-0.004853659
34	0x3d64d34a	0.055865563
35	0xb961e871	-0.00021544263
36	0x3de63a05	0.11241535
37	0xbc171c68	-0.009223081
38	0x3cd12b95	0.025533477
39	0xbcd2d1b5	-0.025734762
40	0xbe1fd89f	-0.15609978
41	0xbdce7105	-0.100801505
42	0xbda641d8	-0.081180274
43	0xbdf4c233	-0.11951103
44	0x3c065fdb	0.008201565
45	0xbde8b4ea	-0.113626316
46	0x3d5995ee	0.0531215
47	0xba38a517	-0.0007043643
48	0x3d5fe545	0.054662008
49	0x3d44f833	0.048088264
50	0x3d8e66e0	0.069532156
51	0xbe40c3a2	-0.18824628
52	0x3da009cb	0.07814368
53	0x3e109454	0.14119083
54	0xbe00ada2	-0.12566236
55	0xbd9e1e78	-0.07720655
56	0xbd523a7d	-0.05132531
57	0x3e4f0a57	0.20218788
58	0x3cf1bfdc	0.029510431
59	0x3c5f378c	0.013624083
60	0xbe18c95b	-0.14920561
61	0xbe2bad19	-0.1676525
62	0xbe155f7d	-0.14587207
63	0xbe359bed	-0.17735262
64	0x3ce85b99	0.02836399
65	0xbc1148e8	-0.00886748
66	0xbdb35260	-0.08755946
67	0xbd58ff0c	-0.052977607
68	0xbd93c658	-0.072155654
69	0xbded5cd0	-0.11589968
70	0xbd7f5d0e	-0.062344603
71	0xbce17401	-0.027521135
72	0xbd814d86	-0.063136145
73	0x3d1f6bfd	0.038921345
74	0xbdb837ed	-0.08995042
75	0xbd2d7ae9	-0.042353544
76	0x3c342903	0.010996106
77	0xbb01deb8	-0.0019816589
78	0xbd7bb3a0	-0.0614506
79	0xbccb8d63	-0.024847692
80	0x3db35a17	0.08757418
81	0xbdf666cf	-0.12031328
82	0xbda8a1b7	-0.0823397
83	0xbe42fc26	-0.190415
84	0x3d821b60	0.063528776
85	0xbc864991	-0.016392501
86	0xbcb32e3b	-0.02187263
87	0xbd86baab	-0.06578573
88	0xbd538809	-0.051643405
89	0x3d4d8cc4	0.050183073
90	0xbe090d34	-0.13383943
91	0x3c3585ba	0.011079246
92	0xbe064088	-0.13110554
93	0x3cad2551	0.021135958
94	0xbdd7805f	-0.10522532
95	0xbcbb9120	-0.02289635
96	0x3dde3ac0	0.108510494
97	0x3d7e74d4	0.062123135
98	0x3c2e8fc8	0.010654397
99	0xbe4b5993	-0.19858389
100	0xbd849978	-0.06474584
101	0xbd774d48	-0.060376436
102	0xbc65f273	-0.014034855
103	0xbd77f73b	-0.06053851
104	0x3bea744e	0.007154978
105	0x3d7df754	0.06200345
106	0xbc5ec272	-0.013596164
107	0xbb13c7ec	-0.0022549583
108	0xbde9283a	-0.11384626
109	0xbde1e5be	-0.11030148
110	0xb90b8763	-0.00013306508
111	0x3de2eac2	0.11079933
112	0x3d2eab47	0.04264381
113	0xbdf16330	-0.11786497
114	0x3d055725	0.03255381
115	0xbe0e3c4d	-0.1389019
116	0xbdc03697	-0.09385412
117	0x3d740426	0.05957427
118	0xbe0ab494	-0.13545448
119	0xbcfb1479	-0.03064941
120	0xbd1f7e45	-0.03893878
121	0x3d0179ed	0.031610418
122	0xbcc2bffe	-0.02377319
123	0xbdbc435f	-0.091925375
124	0x3d2c4035	0.04205342
125	0x3dc9e8ec	0.098588794
126	0xb928e368	-0.00016106444
127	0x3d9dc075	0.07702724

a2c_network.actor_mlp.4.weight f4 [64, 128]
0	0xbd27e7a1	-0.040992383
1	0xbd9baa23	-0.076008104
2	0x3d15630a	0.036471404
3	0xbd81a125	-0.06329564
4	0xbd8113f1	-0.06302632
5	0x3dac8de4	0.08425501
6	0x3bd1e9e4	0.0064060558
7	0xbd533074	-0.05155988
8	0xbe31017b	-0.17285721
9	0xbb50787a	-0.003181009
10	0x3d984bb9	0.07436318
11	0xbcf95933	-0.030438041
12	0xbd38b373	-0.04509301
13	0x3c858d90	0.016302854
14	0x3d1fa522	0.038975842
15	0x3ba37b32	0.0049890513
16	0x3c87cffd	0.016578669
17	0xbd443f34	-0.047911838
18	0xbdab5d24	-0.083673745
19	0x3d8937e9	0.06700117
20	0xbc0a9001	-0.008457185
21	0x3c94bc01	0.018156053
22	0xbde080ce	-0.109620675
23	0xbcb21b99	-0.021741675
24	0x3b3b3ab7	0.0028568932
25	0xbc7eca45	-0.0155511545
26	0x3d2bbf69	0.04193059
27	0x3cd7c57f	0.02633929
28	0x3cdf5029	0.027259903
29	0x3db1649e	0.08661769
30	0xbdc8f147	-0.09811645
31	0xbd5b6d7c	-0.05357121
32	0x3d443eab	0.047911327
33	0xbd50374f	-0.050833996
34	0xbd5e7a83	-0.054316055
35	0xbcdef84b	-0.027218005
36	0xbd3b6db1	-0.045758907
37	0xbdab49a5	-0.08363656
38	0x3930a893	0.00016847467
39	0xbe15f64c	-0.14644736
40	0xbdcc015a	-0.09961195
41	0x3c6b4c9b	0.014361526
42	0x3d3dd81a	0.04634867
43	0x3cd78804	0.026309974
44	0xbd0b2cc4	-0.03397824
45	0xbd9610c1	-0.07327414
46	0xbd94a1f6	-0.07257454
47	0xbd7ebca6	-0.062191628
48	0xbd446379	-0.047946427
49	0xbdaad496	-0.08341329
50	0x3d46f706	0.048575424
51	0xbe427e5d	-0.18993516
52	0xbd497e57	-0.049192753
53	0xbd164768	-0.036689192
54	0xbd343878	-0.043999165
55	0xbd69c859	-0.057075832
56	0xbd7c2e74	-0.06156774
57	0xbd5b46fb	-0.05353449
58	0xbdefa8dd	-0.1170213
59	0x3cc3e36c	0.023912154
60	0x3e3dd405	0.1853791
61	0xbd0f0772	-0.03491921
62	0xbdec38c5	-0.115342654
63	0xbc197d12	-0.009368198
64	0xbdd9e4fb	-0.10639378
65	0xbcf74cda	-0.030188013
66	0x3cc711fa	0.024300564
67	0x3d0d36e1	0.034476165
68	0xbdc45697	-0.09586828
69	0xbda48f0c	-0.080350965
70	0xbdbc3a43	-0.091908
71	0xbe24b382	-0.16084102
72	0xbdaf762a	-0.0856746
73	0xbccbbe03	-0.024870878
74	0x3b9254fc	0.0044656973
75	0xbd07c896	-0.033150278
76	0x3dc73de1	0.09728599
77	0xbd5c821c	-0.05383502
78	0xbba136e0	-0.0049198717
79	0xbe08382f	-0.13302682
80	0x3c8d53e4	0.017251916
81	0x3d59abe0	0.05314243
82	0xbe0c4777	-0.13699137
83	0x3d837a37	0.06419795
84	0xbcf5cd2b	-0.030005058
85	0xbc82a2c1	-0.015946748
86	0xbd3f2fa8	-0.046676308
87	0xbe2aad58	-0.16667688
88	0xbd71d9a7	-0.05904546
89	0xbd52c0dd	-0.05145346
90	0xbd5ec0f6	-0.05438324
91	0x3e0d86eb	0.13820998
92	0xbddacf79	-0.106841035
93	0xbcf6f75e	-0.03014725
94	0xbe179127	-0.14801465
95	0xbd090845	-0.033455152
96	0xbe34fe17	-0.17675053
97	0xbd5e0a19	-0.05420885
98	0xbd7a59bf	-0.061120745
99	0xbdbcaa27	-0.092121415
100	0xbdbf438a	-0.09339054
101	0xbdac89e2	-0.084247366
102	0x38e53bfa	0.000109307424
103	0x3db573bd	0.08859966
104	0x3d977665	0.07395629
105	0x3d288a49	0.041147504
106	0xbd70f6eb	-0.05882923
107	0x3d30ea1c	0.043192014
108	0xbe1524bd	-0.14564796
109	0x3da69df2	0.081355944
110	0x3d512d14	0.05106838
111	0xbcca539f	-0.024698077
112	0xbe178c6c	-0.1479966
113	0x3bd38b8a	0.0064558433
114	0x3d929272	0.071568385
115	0xbba5d757	-0.005061071
116	0x3d0e5295	0.034746725
117	0xbd945449	-0.072426386
118	0xbe17b7b9	-0.14816178
119	0x3d92a015	0.071594395
120	0x3d0a0a77	0.033701386
121	0xbd1b7cb7	-0.037960734
122	0xbd3a1b0a	-0.045435943
123	0x3d16f165	0.036851306
124	0x3d8a6c39	0.06758923
125	0xbd257624	-0.04039587
126	0xbd2dcd49	-0.042432103
127	0xbcbd121e	-0.023079928
128	0x3c738bb8	0.0148648545
129	0x3ce46bea	0.027883489
130	0x3ce5b8af	0.028042166
131	0xbc59ca33	-0.013292837
132	0xbd36d36d	-0.044635225
133	0x3d14e33c	0.03634952
134	0xbdbeba7c	-0.09312913
135	0x3d8d0523	0.068857454
136	0xbdae1257	-0.08499592
137	0xbda84954	-0.08217111
138	0x3d87e23a	0.06634946
139	0xbda05d61	-0.078303106
140	0xbdd9b445	-0.10630087
141	0x3db1b2fd	0.086767174
142	0x3d8235eb	0.0635794
143	0x3d3e2f2e	0.046431713
144	0xbc89ebb2	-0.016836021
145	0xbd6664a4	-0.056248322
146	0xbdd0f530	-0.10203016
147	0x3c22835e	0.009919016
148	0xbc8ada44	-0.01694978
149	0x3df1b8eb	0.118028484
150	0xbdb3770e	-0.08762942
151	0xbc437b6d	-0.0119312825
152	0xbdaa7c95	-0.083245434
153	0xbd9f6fa3	-0.07784965
154	0x3d02917c	0.031877026
155	0xbd72a092	-0.059235163
156	0xbca38b9d	-0.019964034
157	0xbcf659e5	-0.030072162
158	0x3d5feb10	0.054667532
159	0xbd31ba91	-0.043390814
160	0x3c82771c	0.015925936
161	0xbac8c7ba	-0.0015318312
162	0x3c5142c7	0.012772269
163	0x3d9150f5	0.070955195
164	0x3df5d2a3	0.120030664
165	0xb9a489bf	-0.00031383146
166	0x3cfb5035	0.030677894
167	0x3d6ab8ad	0.057305027
168	0x3dad3ae2	0.08458497
169	0x3ccb3dc2	0.024809722
170	0xbd187b6a	-0.03722707
171	0xbd91806f	-0.07104575
172	0xbd77ecb2	-0.060528465
173	0xbd70f98b	-0.058831733
174	0xbdc443fd	-0.0958328
175	0x3d029e22	0.03188909
176	0xbd1bf375	-0.038073976
177	0x3d6555ba	0.05598996
178	0xbd02069d	-0.03174459
179	0xbc93c0bc	-0.018036239
180	0xbd85df88	-0.06536776
181	0x3d66835b	0.056277614
182	0x3bc79065	0.006090211
183	0xbde84f2d	-0.113432266
184	0x3d877eae	0.06615959
185	0xbd8ee9b4	-0.06978169
186	0x3ca623c3	0.020280724
187	0xbd228ec2	-0.039686926
188	0x3dfddb47	0.123953395
189	0xbcf8a276	-0.030350905
190	0xbe1f1850	-0.15536618
191	0xbd5a0622	-0.053228505
192	0xbd807c5c	-0.0627372
193	0xbd85a55b	-0.0652568
194	0x3d8707e9	0.065933056
195	0x3cd07ecf	0.025451092
196	0x3e13097e	0.1435909
197	0xbb2f338c	-0.0026733605
198	0x3dac863f	0.08424043
199	0x3b9e3f93	0.004829356
200	0x3d8b4609	0.068004675
201	0x3d78ecd1	0.06077272
202	0xbd3ed649	-0.046591077
203	0x3d056576	0.032567464
204	0x3df90806	0.121597335
205	0x3d5e4e19	0.0542737
206	0x3d188ffd	0.037246693
207	0xbdb4aa3e	-0.088215336
208	0x3d902620	0.07038522
209	0xbcf3e62e	-0.029772844
210	0xbdd3c936	-0.10341112
211	0x3c794513	0.0152142225
212	0xbd224648	-0.039617807
213	0x3d042e34	0.032270625
214	0x3cf6afbe	0.030113097
215	0xbdfe2fc2	-0.12411453
216	0xbcaf8e7f	-0.021430252
217	0xbd0294b2	-0.03188009
218	0xbdd5f38b	-0.10446843
219	0x3e18ff88	0.14941227
220	0xbe1c60cd	-0.15271302
221	0x3d4c5d6f	0.049893793
222	0x3d0e4a07	0.034738567
223	0x3e066ec5	0.13128193
224	0x3cc26f93	0.023734843
225	0xbd6351e3	-0.055498015
226	0xbcc3e3ba	-0.0239123
227	0xbdcb16ab	-0.09916433
228	0xbcf0fadc	-0.029416494
229	0x3d961002	0.07327272
230	0x3cda9dfe	0.026686665
231	0x3b80cb8d	0.003930515
232	0x3da4e8f4	0.08052245
233	0x3da8bc90	0.082390904
234	0xbe30c697	-0.17263256
235	0xbd842306	-0.06451993
236	0xbddbe99d	-0.107379176
237	0xbda9e59b	-0.08295747
238	0x3d6dc53b	0.05804942
239	0x3dc34b67	0.09535866
240	0xbce36a67	-0.027760698
241	0xbd6c2d3a	-0.05766032
242	0xbcdf0ed5	-0.027228752
243	0xbdf6301f	-0.12020897
244	0x3d3962c9	0.045260224
245	0x3b936d9e	0.0044991514
246	0xbc626534	-0.013818074
247	0x3dba726a	0.09103854
248	0x3d20df98	0.039275736
249	0x3d8e1da5	0.06939248
250	0xbd7ffb71	-0.062495653
251	0xbcb83bbe	-0.022489425
252	0x3dc30224	0.09521893
253	0x3a4bf241	0.0007779934
254	0x3d8135aa	0.06309064
255	0xbde2496b	-0.110491596

a2c_network.actor_mlp.4.bias f4 [64]
0	0xbca16a0c	-0.019703887
1	0x3d52a5e5	0.05142774
2	0xbdfb677a	-0.12275596
3	0x3d38acf2	0.04508681
4	0xbd926279	-0.071476884
5	0x3cbbba69	0.022916036
6	0xbd85384b	-0.06504878
7	0xbde1ab37	-0.11018985
8	0x3d0dfcfb	0.03466509
9	0x3d8f2f9e	0.06991504
10	0xbc9d3c1c	-0.019193701
11	0x3c9154de	0.017740663
12	0xbbc62f08	-0.006048087
13	0xbd3e66bd	-0.046484698
14	0xbdac30b0	-0.08407724
15	0xbcc59f03	-0.024123674
16	0x3b088dfd	0.0020836585
17	0xbdcb5e4e	-0.099300966
18	0xbd0be030	-0.03414935
19	0x3cad97ed	0.021190608
20	0xbe28afb8	-0.16473281
21	0x3d1716d1	0.036886994
22	0xbdd5a70f	-0.104322545
23	0x3c4edfc3	0.012626591
24	0xbce43191	-0.027855666
25	0x3de6620b	0.11249169
26	0x3d489a4a	0.048975267
27	0x3c66d789	0.0140894735
28	0x3cd0eb44	0.025502808
29	0x3d3b2753	0.0456918
30	0xbdfed384	-0.12442687
31	0xbe01cdb0	-0.1267612
32	0xbddbc084	-0.10730079
33	0x3d93fcc8	0.072259486
34	0xbd2511cb	-0.04030017
35	0xbd2ec9df	-0.042672988
36	0xbdc0d5fa	-0.09415813
37	0xb9e48439	-0.00043586062
38	0x3d82c363	0.06384923
39	0x3d848622	0.06470896
40	0xbd66a1fe	-0.05630683
41	0xbb9acd5f	-0.004724189
42	0xbcb98e64	-0.022650905
43	0x3d46316e	0.048386984
44	0xbd973dea	-0.07384856
45	0xbdd42b98	-0.10359877
46	0xbd2b8f07	-0.04188445
47	0xbb04df0e	-0.0020274553
48	0xbcbb5785	-0.022868881
49	0x3d9c3f55	0.07629267
50	0x3c8236af	0.015895216
51	0x3d9a3188	0.075289786
52	0x3c985c3d	0.01859867
53	0xbe30c492	-0.17262486
54	0xbdc2e0ef	-0.09515559
55	0xbd5537a2	-0.05205501
56	0xbd7bd7ff	-0.061485287
57	0xbd976899	-0.07392997
58	0x3b3ff5b1	0.002929073
59	0xbd997af3	-0.07494154
60	0xbd509e46	-0.05093219
61	0x3d81b968	0.063341916
62	0x3dc1bd62	0.0945995
63	0xbe04764d	-0.12935753

a2c_network.value.weight f4 [1, 64]
0	0x3dd5f7ec	0.10447678
1	0x3d7bda80	0.061487675
2	0xbddedcba	-0.10881944
3	0xbcd8c2b4	-0.02646003
4	0x3d5bc1ae	0.053651504
5	0x3dbe5e3e	0.09295319
6	0xbda02d78	-0.078211725
7	0xbe23f610	-0.16011834
8	0xbd32a3ac	-0.04361312
9	0x3daff029	0.08590729
10	0x3c83e34e	0.016099598
11	0x3d61d401	0.055133823
12	0x3d4bc71d	0.049750436
13	0xbd603f36	-0.054747783
14	0xbda158ad	-0.07878242
15	0x3b029da8	0.0019930396
16	0x3d95c92e	0.073137626
17	0xbda80ac4	-0.082051784
18	0x3e0871ef	0.13324712
19	0x3df28c18	0.11843127
20	0xbdba425d	-0.09094689
21	0x3dc50bd7	0.09621399
22	0xbe409be5	-0.18809469
23	0x3d1af31a	0.037829496
24	0xbda881fe	-0.08227919
25	0x3d4ea33c	0.05044864
26	0x3e36ebe4	0.17863423
27	0xbd003037	-0.03129598
28	0x3d92afef	0.07162463
29	0x3d8d3ffa	0.06896968
30	0xbd2d5d53	-0.04232533
31	0xbd3e4143	-0.046448957
32	0xbd59c29f	-0.05316412
33	0x3a612020	0.0008587856
34	0xbd69da20	-0.057092786
35	0xbcc02e3d	-0.023459548
36	0xbc8ba9ff	-0.017048834
37	0xbcdd2faa	-0.027000267
38	0x3da49900	0.08036995
39	0x3de12c67	0.10994797
40	0x3cbc7923	0.023006981
41	0x3e19bbbc	0.15013021
42	0xbd7aa29a	-0.061190225
43	0x3d84642e	0.0646442
44	0xbd06d26d	-0.03291552
45	0xbd945988	-0.07243639
46	0x3c93eb8c	0.018056653
47	0xbc637996	-0.013883969
48	0x3b0400f6	0.0020142174
49	0x3d71d1a7	0.05903783
50	0x3cea151d	0.02857452
51	0xba6becd3	-0.0008999828
52	0x3dd64da6	0.10464029
53	0xbc9a9e03	-0.018874174
54	0x3d70f4a1	0.058827046
55	0xbdb7174d	-0.08939991
56	0xbd52f83d	-0.05150627
57	0xbc63493e	-0.013872443
58	0xbaf3d8f5	-0.0018604087
59	0xbd47100d	-0.04859929
60	0x3bfb6810	0.0076723173
61	0xbc9e7f9d	-0.01934796
62	0x3c8e4084	0.017364748
63	0xbe0f4d99	-0.13994445

a2c_network.mu.weight f4 [6, 64]
0	0xbd9456a3	-0.07243087
1	0xbda483bd	-0.080329396
2	0x3cd1e83b	0.025623431
3	0xbd9988a8	-0.07496768
4	0xbcb88a9b	-0.02252703
5	0xbcec5f60	-0.028854072
6	0x3dd79a4c	0.10527477
7	0x3d60ac52	0.054851837
8	0xbe0b6e7e	-0.13616368
9	0xbc941819	-0.018077897
10	0xbce48246	-0.02789415
11	0x3d3693de	0.04457461
12	0xbda76070	-0.08172691
13	0x3d0b7caf	0.034054454
14	0x3d5ab021	0.053390626
15	0x3cfd3019	0.030906724
16	0x3d6a8437	0.057254996
17	0x3ded7d14	0.115961224
18	0x3d0c0ba4	0.03419079
19	0x3d6329d1	0.0554598
20	0x3e28d5bf	0.16487788
21	0x3c12cdfb	0.008960242
22	0xbda63acb	-0.081166826
23	0x3dde636a	0.108588055
24	0xbc8fa6df	-0.017535625
25	0xbe2d3409	-0.16914381
26	0x3bdfe6f4	0.0068329517
27	0xbda6ce69	-0.08144838
28	0xbc2477eb	-0.010038356
29	0x3cadb476	0.021204215
30	0xbcb15849	-0.021648543
31	0x3dcf24d9	0.1011445
32	0x3cae0de7	0.021246864
33	0xbdc8ad40	-0.0979867
34	0xbcc149ea	-0.023594815
35	0xbc1b679e	-0.0094851535
36	0xbcc5b74b	-0.024135252
37	0xbd706fd5	-0.0587004
38	0xbdccaa57	-0.09993427
39	0xbe5a2ec2	-0.21306899
40	0x3d2bad68	0.04191342
41	0xbe133c05	-0.14378364
42	0xbc3b7001	-0.011440278
43	0xbdac95bb	-0.08426996
44	0x3e2cefa3	0.16888289
45	0x3dcbff91	0.09960855
46	0xbca116fd	-0.019664282
47	0x3d45c5bd	0.04828428
48	0xbd4973a4	-0.04918255
49	0xba3cca40	-0.00072017685
50	0xbd51a342	-0.051181085
51	0xbcee88cb	-0.029117962
52	0x3cbaea0b	0.022816679
53	0x3d3518fc	0.04421328
54	0x3d30ae8a	0.043135203
55	0xbcace261	-0.02110404
56	0xbc27cda8	-0.010241903
57	0x3d64f419	0.055896852
58	0x3dea55fb	0.11442181
59	0x3cd7659d	0.02629357
60	0x3d49b472	0.04924435
61	0xbdd7c3d5	-0.10535399
62	0xbdd6d0a3	-0.10489013
63	0x3e005c62	0.12535241
64	0xbdb1d715	-0.08683602
65	0x3a92c5cf	0.0011197868
66	0x3bb3d4d7	0.005488019
67	0x3da46fa5	0.08029107
68	0xbd3dbda3	-0.04632343
69	0x3c932b8e	0.017965104
70	0x3d5d982e	0.054100208
71	0xbccd6689	-0.025073307
72	0xbdb586af	-0.088635795
73	0x3dade94e	0.08491765
74	0xbd484f85	-0.04890396
75	0x3c30a2b9	0.010780984
76	0xbcd45419	-0.025919007
77	0x3d14e18e	0.03634792
78	0x3ce07d9f	0.02740365
79	0x3c084825	0.008317982
80	0x3cc7bf57	0.02438323
81	0xbcd12836	-0.02553187
82	0xbd43d962	-0.047814734
83	0x3e519c91	0.20469882
84	0xbe1c3564	-0.15254742
85	0xbbe52620	-0.0069930702
86	0x3d10dd11	0.035367075
87	0xbd05633d	-0.032565344
88	0x3d82e2ae	0.06390892
89	0x3cad099a	0.021122742
90	0x3cc49235	0.023995498
91	0x3c38806c	0.011261087
92	0x3c71c425	0.014756237
93	0xbd87aefa	-0.06625171
94	0xbded4084	-0.11584571
95	0x3bc17321	0.005903617
96	0xbda83c75	-0.08214656
97	0x3d415e04	0.0472088
98	0x3d82dce1	0.063897856
99	0xbd6f71e2	-0.058458216
100	0xbd91b01f	-0.071136706
101	0xbcb4ab9b	-0.022054484
102	0xbc9f3ba8	-0.019437626
103	0x3d83e739	0.064405866
104	0x3c363786	0.011121636
105	0x3cad84c6	0.021181475
106	0x3c58c4b9	0.013230496
107	0xbdcfa940	-0.10139704
108	0x3e1eb19e	0.15497443
109	0xbd16ebda	-0.03684602
110	0x3c9d63b9	0.01921259
111	0x3d5224c1	0.051304583
112	0x3c9442a9	0.018098192
113	0x3dfc40a1	0.123170145
114	0xbde97b40	-0.11400461
115	0x3e08554a	0.13313785
116	0xbd2ed7bd	-0.042686213
117	0xbddc1cc4	-0.10747674
118	0xbdf47203	-0.119358085
119	0x3d9ec3e6	0.077522084
120	0x3c547dec	0.012969475
121	0xbd03b77f	-0.032157417
122	0x3e2a9cc2	0.16661361
123	0x3c9f699b	0.019459536
124	0xbd12598b	-0.035729926
125	0x3cebd42c	0.028787695
126	0x3e2358d7	0.15951858
127	0xbda4f7d7	-0.08055084
128	0xbce4c616	-0.027926486
129	0x3d3c7d26	0.04601779
130	0xbd30c14e	-0.0431531
131	0x3e0135ad	0.12618132
132	0xbdc385ef	-0.0954703
133	0x3e129f9b	0.14318697
134	0x3dd9079c	0.105971545
135	0x3d833609	0.06406791
136	0x3dd82365	0.10553626
137	0xbc87edea	-0.016592938
138	0xbc8992d9	-0.016793655
139	0x3d27ea60	0.040995
140	0x3cac5a6d	0.021039212
141	0xbbd1a5df	-0.006397947
142	0x3df0ce25	0.11758069
143	0x3d870845	0.06593374
144	0x3d9a2837	0.075272016
145	0x3d19e655	0.037573177
146	0x3da63ef0	0.08117473
147	0x3de7e2be	0.113225445
148	0x3bb6e379	0.005581316
149	0xbd95a384	-0.07306579
150	0xbda2845c	-0.07935402
151	0x3b482f23	0.0030545674
152	0xbc5f1c03	-0.013617518
153	0xbd8b61a3	-0.06805732
154	0xbd579dfa	-0.052640893
155	0xbc34a956	-0.011026701
156	0x3d4c3795	0.049857695
157	0x3d9561e9	0.072940655
158	0x3d6be5d4	0.057592228
159	0x3c22cad6	0.009936055
160	0x3d33139c	0.043719873
161	0x3db12f37	0.08651584
162	0xbc05d3a1	-0.008168132
163	0xbcb0f130	-0.021599382
164	0x3d3fc288	0.04681638
165	0x3dd540b9	0.104127355
166	0x3d8467cf	0.064651124
167	0x3d44cba0	0.048045754
168	0x3d01eb9e	0.031718843
169	0xbc9e0271	-0.019288274
170	0x3d984537	0.07435077
171	0x3dea350a	0.11435898
172	0x3d02e43b	0.03195594
173	0xbe26f05f	-0.16302632
174	0xbc920117	-0.017822785
175	0x3d798b5b	0.060923915
176	0xbdcbb98a	-0.09947498
177	0x3c5dddc7	0.013541645
178	0x3c4c7657	0.012479386
179	0x3deffe89	0.117184706
180	0x3d66c6f1	0.05634207
181	0xbda969fe	-0.082721695
182	0xbda32ea2	-0.07967879
183	0x3d8b45e6	0.068004414
184	0x3b36367f	0.0027803478
185	0x3cd09cca	0.025465388
186	0x3dcb9c71	0.09941948
187	0xbcf2a8f6	-0.029621582
188	0xbdcd9a77	-0.100392275
189	0x3d8f368b	0.06992825
190	0xbd327763	-0.043570887
191	0x3c01b145	0.0079157995
192	0x3d9273de	0.07151006
193	0xbd710d9e	-0.058850877
194	0xbd16d868	-0.036827475
195	0x3e058483	0.1303883
196	0xbc770a18	-0.01507809
197	0x3cd2d075	0.025734166
198	0x3d89602d	0.06707797
199	0x3d651082	0.055923946
200	0x3e08165b	0.13289778
201	0x3d216b2b	0.039408844
202	0x3d8dc0db	0.0692155
203	0x3dc82d6b	0.09774288
204	0xbdbe206e	-0.09283529
205	0xbd85e90e	-0.06538592
206	0x3d0cd2e6	0.034380816
207	0x3d33a59d	0.043859113
208	0xbce6ddc7	-0.028181924
209	0x3dc0d534	0.09415665
210	0xbdf6dc55	-0.12053744
211	0x3e15b9fc	0.14621729
212	0xbdd6b201	-0.1048317
213	0x3d662557	0.056187954
214	0xbc95483b	-0.018222919
215	0x3d224529	0.039616738
216	0x3de3e66b	0.11127933
217	0x3d7e45c0	0.062078238
218	0xbcf3f2f9	-0.029778944
219	0xbb28bfc3	-0.0025749065
220	0x3d9c93ef	0.076454036
221	0x3dfd1495	0.12357441
222	0xbccf17bb	-0.02527987
223	0x3c079b6f	0.008276804
224	0xbb9e2679	-0.0048263636
225	0x3d463c6a	0.04839746
226	0xbc055545	-0.008138006
227	0x3dfa4815	0.1222078
228	0xbd24fc3e	-0.04027962
229	0xbe16b40f	-0.14717124
230	0x3c8989ba	0.016789306
231	0x3cb5052b	0.02209719
232	0xbd340dd7	-0.04395851
233	0x3d875157	0.06607311
234	0x3de4a2f3	0.111638926
235	0x3d7f616f	0.06234878
236	0xbdba32d5	-0.09091727
237	0x3df92333	0.12164917
238	0xbc69a475	-0.014260401
239	0xbd181930	-0.037133396
240	0xbd23a895	-0.039955694
241	0xbdd93fd7	-0.106078796
242	0x3d790c5d	0.060802806
243	0x3d99f851	0.07518066
244	0x3d8f11d2	0.06985821
245	0xbcbe0d43	-0.023199683
246	0x3d617dd7	0.05505165
247	0x3a8ae01e	0.0010595357
248	0xbd1d0be6	-0.038341425
249	0x3dec5d5a	0.11541243
250	0x3dbcd3a5	0.092200555
251	0xbdfe1475	-0.124062456
252	0xbc2e941f	-0.010655432
253	0x3db5ee88	0.08883387
254	0x3c260a34	0.010134269
255	0x3cf356f7	0.029704554

a2c_network.mu.bias f4 [6]
0	0xbde022ca	-0.109441355
1	0x3dd50715	0.104017414
2	0x3d305f02	0.043059357
3	0x3d986ab7	0.07442229
4	0x3d7cfc5d	0.06176411
5	0x3d308566	0.04309597

exp_avg f4 [6]
0	0x3b21f3ee	0.0024712044
1	0xbb1352b7	-0.0022479722
2	0xbc303e5a	-0.010757053
3	0x3ca13881	0.019680263
4	0xbb055709	-0.0020346066
5	0x3c1885db	0.009309257

exp_avg_sq f4 [6]
0	0x39c9f68c	0.000385214
1	0x39dfd1e7	0.00042690264
2	0x3a009276	0.0004904637
3	0x39eafecc	0.00044821796
4	0x39e00995	0.00042731749
5	0x39c8c623	0.00038294596
