IsaacGymEnvs/isaacgymenvs/runs/Bolt_13-21-30-35/nn/last_Bolt_ep_550_rew_10.10428.pth (torch, 612324 bytes, 36 tensors)

value_mean_std.running_mean f8 [1]
000000 6a cc 8c aa 52 67 e5 3f
       0.6688626605085919

value_mean_std.running_var f8 [1]
000000 8b 7e 6f 42 e2 16 cd 3f
       0.2272608589546404

value_mean_std.count f8 []
000000 00 00 00 04 00 c8 99 41
       108134401.0

running_mean_std.running_mean f8 [30]
000000 25 25 91 3d 3f 01 6c bf 71 b1 8a 38 8a 99 92 3f
       -0.003418563381761291 0.018163833333049554
000010 b9 9d 83 af d8 ec ab bf 3b a4 5b f1 2b e8 a4 bf
       -0.05454136984354414 -0.04083382912887897
000020 bc 0a d9 5d 8c 9f 74 bf 63 0b 10 7f 4b f8 67 3f
       -0.0050349696226159 0.002926013425623196
000030 0f 3c 7c 59 42 bf c8 bf 02 95 3a da b5 ec 96 3f
       -0.19333676690482135 0.022387353367453684
000040 29 95 ce 72 21 4d d9 3f 81 8d c5 d4 5a fd bd bf
       0.3953326817666772 -0.11714713759061192
000050 b3 2b c3 47 08 65 98 3f 4f ce d7 01 89 2f 20 bf
       0.02382290781023828 -0.0001234869713894076
000060 9d dd 3d f0 20 93 d5 bf 6c 66 73 e1 ea 97 b3 3f
       -0.3371050211057652 0.07653682712716553
000070 54 8a 71 3e b9 2b ad bf 39 17 ec 0d 89 d1 d6 3f
       -0.0569742096638676 0.3565390239676734
000080 6b 1c 0c 67 a8 96 d2 3f 8e 46 ec 86 a0 c2 cc 3f
       0.29044542372907384 0.22468954647097344
000090 09 a1 96 e8 92 63 3d bf f5 26 9d 7b 0d 45 55 3f
       -0.0004484399474571498 0.0012982017201061378
0000a0 ce 57 57 f4 85 07 60 3f 9f 3d 51 16 30 fd 66 3f
       0.0019567123697283645 0.002806276245372621
0000b0 14 13 28 6a da f4 35 bf aa dd dc 9a 39 d6 3b 3f
       -0.00033502895726682355 0.00042475611086297915
0000c0 b0 33 50 8c 89 99 e5 bf 41 19 91 8b 95 a1 c2 3f
       -0.6749923458570404 0.1455561572531199
0000d0 54 74 59 0a f8 c9 c0 bf de 27 5d aa 4a f7 e6 3f
       -0.13116360192626308 0.7176869704646796
0000e0 98 07 95 8d 92 a0 e2 3f 7b c7 5a 00 33 c3 dc 3f
       0.5821011319423972 0.44941401514653706

running_mean_std.running_var f8 [30]
000000 ea 3a 23 e0 e5 ed c3 3f 41 d3 1e ff 9d 06 bd 3f
       0.15569756931514372 0.11338222006345423
000010 93 6b e9 26 64 a6 c4 3f 98 f5 2a a8 d0 cb c9 3f
       0.1613278570174229 0.20153244220084043
000020 cc 6c 99 ee e7 40 d4 3f b7 8f 68 59 ae 8c a2 3f
       0.3164615469047021 0.036229561246983115
000030 73 72 f8 e6 59 3d d3 3f 6c ad b7 49 2e dc c4 3f
       0.30061957889282737 0.1629693851422006
000040 fc ea 1d c6 61 e6 d5 3f 7e 73 4f e8 0e e8 13 40
       0.34218639705038334 4.976619367455781
000050 84 c1 56 cd 2c 38 f4 3f 50 ee 16 11 8b 9d 91 3f
       1.2637146016168979 0.01720254222685319
000060 5b a2 e4 75 49 28 b2 3f 1e 24 c0 a0 c0 c2 a4 3f
       0.0709272301506955 0.04054834329878808
000070 53 fe 72 75 c2 a5 b6 3f 30 3a 39 e9 06 12 b0 3f
       0.08846679084217017 0.06277507013258155
000080 e9 da 3b b4 e0 19 b7 3f e3 f2 82 21 66 61 c1 3f
       0.09023861313094596 0.1357848800306761
000090 66 82 86 da 56 15 9a 3f b0 7f 6b 41 7e 86 a7 3f
       0.025472027862294765 0.04594797657568905
0000a0 88 c0 33 c8 25 39 a6 3f 05 fc 99 d7 b6 bf 95 3f
       0.04340475148080808 0.021239144238730762
0000b0 28 a1 db c3 76 28 a1 3f c2 05 03 9f 79 4e 9b 3f
       0.033511840256155445 0.026666546182928526
0000c0 d3 c3 8e af 73 34 d5 3f 88 ea 6b 06 fa 13 ce 3f
       0.33132640976242306 0.23498463929702873
0000d0 21 1d 02 0c 51 1f de 3f 1d 6f 8b 51 71 26 d2 3f
       0.470661412932218 0.2835963531813251
0000e0 e1 85 a8 fa 08 af da 3f 14 aa 35 81 df 57 e3 3f
       0.41693329313610944 0.6044766925454632

running_mean_std.count f8 []
000000 00 00 00 08 00 c8 89 41
       54067201.0

a2c_network.sigma f4 [6]
000000 bd 52 00 c0 2e 3e 0e c0 ef 37 bd bf d0 3f e5 bf
       -2.00505 -2.2225451 -1.4782695 -1.7910099
000010 de f9 dd bf 61 27 93 bf
       -1.7341878 -1.1496392

a2c_network.actor_mlp.0.weight f4 [256, 30]
000000 30 38 a6 3e 25 ea 81 be 7b bd 08 3e 6b 22 7c bc
       0.32464743 -0.2537395 0.13353531 -0.015389065
000010 18 15 ce 3d f6 3d 2c 3e ff 29 4d bd eb a3 90 3d
       0.10062617 0.16820511 -0.05008888 0.07062515
000020 ea ba ab 3d 77 22 4f be 64 7b 9b 3d 9a 88 ea bd
       0.083852604 -0.20227991 0.07591894 -0.11451836
000030 20 b2 25 3d 66 85 78 3b f8 0e 71 3d 26 ff e4 3d
       0.040453076 0.0037921309 0.058852166 0.11181478
000040 f9 63 28 3e 85 fb a9 3d 46 f9 f3 3b e9 91 31 be
       0.16444387 0.08299927 0.007445487 -0.17340817
000050 30 c2 0f be bc 20 f3 bd e0 6c c2 bd 1b 8b 17 3e
       -0.1403892 -0.11871478 -0.094934225 0.14799158
000060 4d a5 0a bd 59 50 ea bc 22 e6 d7 3d 1e 15 33 3e
       -0.03384905 -0.028602766 0.10541941 0.17488524
000070 27 73 de 3d 37 47 39 be 96 18 0e bb 26 ed 72 bd
       0.10861807 -0.18093573 -0.0021682135 -0.059308194
000080 8b 27 06 3e e2 ae 19 be d8 4b a2 bc 69 70 a2 3b
       0.13101022 -0.15008119 -0.019811556 0.004957248
000090 46 4d 25 3e 6f 96 23 be e2 9b 9e bd 89 32 12 be
       0.16142759 -0.15975355 -0.07744576 -0.1427709
0000a0 d6 60 d5 3d 69 aa f8 bc ef 6d 79 3e e2 e7 fe bd
       0.104188606 -0.030354695 0.24358343 -0.12446572
0000b0 36 af 69 be f2 6f 7b be c7 09 0f be 8b 5e 24 3d
       -0.22820744 -0.24554422 -0.13968574 0.040129226
0000c0 c6 f9 d5 3d 68 8e 0b 3e 75 a1 00 bd 31 11 7c be
       0.10448031 0.13628542 -0.031403977 -0.24615933
0000d0 78 6e 1a 3d ad c7 af bc ff 6d 07 3e 33 3e 54 3c
       0.037703007 -0.021457518 0.13225554 0.012954283
0000e0 ed 64 42 3e 76 f7 45 be 3a ad 1d be d6 2a 12 3d
       0.18983813 -0.1933268 -0.15398112 0.035685383
0000f0 14 86 30 3e 30 08 81 bd 53 f1 44 3e c5 6d 39 3e
       0.17238647 -0.0630039 0.19232683 0.1810828
000100 51 6e e6 bd 68 92 1e bd 3b 36 3b 3e 55 92 9b bd
       -0.1125151 -0.038713843 0.18282406 -0.0759627
000110 7d 58 bf bd 78 87 c4 be e3 df 4b be 04 ce 5b bd
       -0.0934305 -0.38384604 -0.19909625 -0.05366327
000120 2b 25 93 3d 6e 7b 55 bd ad da f7 bc 01 bb 5e be
       0.071848236 -0.052119665 -0.03025564 -0.21751024
000130 59 56 ad bd 35 8d b9 3c f1 20 20 be 2b 25 88 be
       -0.08463735 0.02265034 -0.15637566 -0.26590857
000140 0b c1 8e 3d 53 24 dc 3d 8e 85 60 3e 9a 48 66 bd
       0.06970414 0.10749116 0.21925947 -0.056221582
000150 f4 84 c9 bc 59 3f 2b bc c5 c6 62 bd 5c db 67 be
       -0.02459953 -0.010452115 -0.055365343 -0.22642273
000160 5c 8b b4 3c 67 56 9f 3d 89 e4 22 3d 9e c9 82 bd
       0.022039108 0.07780152 0.03976873 -0.06386112
000170 b1 95 b0 3d ad 9d 29 be e6 60 33 be c2 05 8c bd
       0.08622301 -0.16564055 -0.17517433 -0.06837036
000180 ff a5 14 be c4 b3 57 be fa 5b 8d 3e 94 9b 2d bd
       -0.14516447 -0.21064669 0.27609235 -0.0423847
000190 05 41 94 3e 78 12 79 3e d5 ae b3 bd bc e4 05 3e
       0.28955856 0.24323452 -0.08773581 0.13075536
0001a0 fd c4 1b bd c5 06 ef bd 1a 60 35 be f5 a3 19 be
       -0.03802966 -0.11671213 -0.17712441 -0.15003951
0001b0 53 a9 3a bc 56 1b 2a bd 3d 9a 56 3b c5 d0 6b be
       -0.011392909 -0.041529976 0.0032745742 -0.23028858
0001c0 0f 7f 85 3d 3b 37 6f 39 e7 3b f0 bc 31 ea 98 3d
       0.06518375 0.00022813391 -0.029325439 0.074665435
0001d0 4c 48 97 3d 62 a6 c0 3d b5 01 e9 3d ac 47 c9 bd
       0.073868364 0.09406735 0.11377279 -0.098281235
0001e0 c2 e4 be 3c 97 ad 97 bd 55 52 72 3d f1 54 44 be
       0.02330244 -0.074061565 0.05916055 -0.19173028
0001f0 62 a8 0a 3e e3 c5 55 be 4f 6c f2 3d af 40 41 3d
       0.13540795 -0.20876269 0.118370645 0.047180828
000200 3a 29 50 3e ca 20 62 be 9a 21 85 3e 87 68 5e 3e
       0.20328227 -0.2208282 0.26002198 0.21719562
000210 3c 0e 9c bc 11 ae a5 bd 5f 7b 78 3d bd e8 f8 3c
       -0.019049756 -0.08089841 0.06066453 0.030384416
000220 e3 45 a0 bd 2c 2e 5b 3e 16 08 14 bd 91 4b 18 3e
       -0.0782583 0.21404332 -0.036140524 0.14872576
000230 20 ea 0b bd ee 43 fa bd 6e 87 b4 3c 9e f1 d9 ba
       -0.034158826 -0.12219988 0.022037234 -0.0016627794
000240 b1 00 45 be 85 8e 7b 3d f8 30 cf bd 1e 29 cf 3d
       -0.19238545 0.061415214 -0.10116762 0.10115264
000250 33 47 e8 3d bc d9 34 be ea 52 60 3d 5e 48 1f 3e
       0.11341705 -0.17661184 0.054766573 0.1555495
000260 36 69 58 3d 01 9f 18 bd 97 52 d4 3d 6a 32 9b bd
       0.052834712 -0.037261013 0.10367315 -0.07577975
000270 0d d5 8c 3c af 68 14 bd a5 a5 aa bd 8f 83 93 bb
       0.017191434 -0.036232647 -0.083323754 -0.004501767
000280 a5 6b a7 bd 6a 07 9f bd 9e f4 0c 3e b7 ee 19 3e
       -0.081748284 -0.07765086 0.13765189 0.15032469
000290 ef 3b 56 bd 9a 1e 3b bd 14 ce 78 bb 4d 34 bc 3c
       -0.05230325 -0.04568348 -0.003796463 0.022974158
0002a0 3b 0c ad bd 4f a8 99 3d d7 a9 bf bd bd c1 24 be
       -0.084495984 0.075028054 -0.09358566 -0.1608953
0002b0 bd be 14 3e c6 62 3f 3d 07 06 0c bd 6d e0 12 be
       0.14525886 0.046725057 -0.034185436 -0.14343424
0002c0 85 8e 2b be 29 39 2c be 87 35 96 bd 32 01 9a 3d
       -0.16753586 -0.1681868 -0.07334428 0.07519759
0002d0 aa 1d d6 3d d8 77 c3 3d 97 5a 0a be c6 8f c7 3d
       0.10454877 0.09544343 -0.1351112 0.097442195
0002e0 0d 00 b6 3b 5c 65 c2 3d e7 d5 55 3b 0a 03 f9 3c
       0.0055542053 0.09491989 0.0032628716 0.030396957
0002f0 19 a5 87 3d 0c 4a 4c be c0 58 7a be 74 e4 35 3d
       0.06623287 -0.19950122 -0.24447918 0.044407323
000300 66 d5 20 be bc ee 9d bd 0b d0 36 be d7 65 5b 3e
       -0.15706405 -0.077115506 -0.178528 0.21425568
000310 5a e2 c1 3d 9c b1 b2 3d dd af 64 3c 93 81 0b be
       0.09467001 0.087252825 0.013957945 -0.13623647
000320 18 70 39 bd b1 78 ce 3d 16 d8 99 3d c2 15 3b 3e
       -0.045272917 0.10081614 0.07511918 0.18270019
000330 a1 7f ce 3d 5a de 3e bc b6 d9 07 bc 44 74 04 be
       0.10082937 -0.011649692 -0.008291652 -0.12934977
000340 01 51 3e be e2 fe 20 be ef b6 ce 3d a0 f7 fa bd
       -0.18585588 -0.1572223 0.100934856 -0.12254262
000350 bb d4 29 bb cb e2 52 be 71 d2 75 3c 6d 6f 02 bd
       -0.002591415 -0.20594327 0.015003786 -0.031844545
000360 4c 12 ea bd ed 7c 83 3d 9d 13 77 bd dd 25 f2 3e
       -0.11429271 0.06420312 -0.06032144 0.47294512
000370 11 05 f4 bd 84 fd 9d bd 6d 6c b9 bc 7a 73 e8 bd
       -0.11915029 -0.0771437 -0.02263471 -0.113501504
000380 66 64 59 bd 11 d4 e7 bd 40 f1 36 3d d8 d7 b6 3c
       -0.053074263 -0.11319745 0.044663668 0.02231972
000390 93 85 3b 3a 56 d7 1a bc 19 bf 24 3c 30 b3 f5 bd
       0.0007153388 -0.009450754 0.010055327 -0.11997068
0003a0 0f 99 a3 3c 9e 96 65 3c a6 0d 9f 3c 52 eb f0 3d
       0.019970445 0.014012961 0.019415688 0.11763634
0003b0 27 15 9a 3c 5b fe c4 3d 71 fe b4 bd 55 89 73 bd
       0.018808914 0.09618827 -0.08837593 -0.059457142
0003c0 fc fb 2c 3e 8a 0e 97 be 7c ed 83 3e 15 a2 06 3e
       0.16893 -0.2950328 0.25767124 0.13147767
0003d0 a8 ce 86 3e 23 f1 47 3d 1e 64 18 bd 0c 58 bb bc
       0.2632954 0.04881395 -0.037204854 -0.022869132
0003e0 57 ff 02 bd 90 ac c7 be 0c d5 1a 3d 60 be b2 bd
       -0.031981792 -0.38998842 0.037800834 -0.087277174
0003f0 ca 24 93 b9 e2 3a 13 bd 3c c0 ec 3c 5f 20 00 bc
       -0.00028065435 -0.035944827 0.028900258 -0.007820218

a2c_network.actor_mlp.0.bias f4 [256]
000000 70 a8 29 3e 65 87 91 3d 7b e3 b5 bd b1 d0 ad 3d
       0.1656816 0.071059026 -0.08881279 0.0848707
000010 d1 ed 1e 3e 04 ae 33 3e 2b 87 a1 3e 7a 04 04 3e
       0.15520407 0.1754685 0.31548437 0.12892333
000020 ef 98 00 3e 91 b4 b9 bc 00 4a 1c be b5 b6 77 bd
       0.1255834 -0.022669109 -0.15262604 -0.060476977
000030 ec 01 0d be 60 b9 14 3e e0 12 6b be 6d f7 e8 3d
       -0.13770264 0.1452384 -0.22956419 0.11375318
000040 7e 7a 13 3d 4e 49 0d 3c 8a 76 03 be 6e 6b d5 3c
       0.03600549 0.008623434 -0.12838188 0.026052203
000050 39 70 ab bd 94 2f f5 3d ab 6c 75 bd a1 a5 16 be
       -0.08371014 0.119719654 -0.059918087 -0.1471162
000060 43 ef c0 3c b6 e8 21 be f3 f2 fe bc 98 47 c3 3d
       0.023551589 -0.15811428 -0.031121707 0.0953514
000070 b6 b9 5e 3e c8 04 10 3e 12 7d 33 be 82 c8 8d bb
       0.2175053 0.14064324 -0.1752818 -0.004326881
000080 e5 09 2c be 12 b8 1a be 08 b1 2c 3e 89 5c 48 3e
       -0.1680065 -0.1510928 0.16864407 0.1956655
000090 fe 91 9a 3e a0 b1 a8 bd 1c bf f1 3d be e2 2a 3e
       0.30189508 -0.08237004 0.11804029 0.16688058
0000a0 15 b1 6c 3b 17 87 46 3e 54 b5 d7 3c 65 f7 64 bd
       0.0036116291 0.1938747 0.026331581 -0.055899996
0000b0 b7 0c 1a 3e d2 88 00 bc dd 71 2c 3d 8b 06 9a bd
       0.15043913 -0.0078451205 0.042100776 -0.07520779
0000c0 93 61 5f bd 8c 86 28 bd 14 ac 7b bd c2 7f 36 3e
       -0.054536413 -0.04114394 -0.061443403 0.17822173
0000d0 f2 70 35 be f2 b6 00 3e d8 f3 7f 3d 4f ad c5 3d
       -0.17718866 0.12569788 0.062488407 0.096521966
0000e0 f9 94 8c bd b9 71 44 3e 97 8a 6f 3d ce 64 99 bd
       -0.06864352 0.19184007 0.05848178 -0.0748993
0000f0 ca 31 47 bd 77 30 20 3e e2 87 a8 3d 1e 8c 52 be
       -0.048631467 0.15643488 0.082290426 -0.20561263
000100 a3 dc 60 3d 05 14 ba bd 29 e4 46 3e ba 01 6c bc
       0.054897916 -0.0908585 0.19422974 -0.0144047085
000110 b2 57 21 be ce 70 1a 3e 7d eb b2 bd 74 47 ac 3d
       -0.1575611 0.15082094 -0.08736322 0.08412066
000120 37 11 fa 3d 52 76 99 3d 2e c6 2f 3e f8 fa 04 3d
       0.12210315 0.07493271 0.17165443 0.032465905
000130 15 0e f5 bd b4 5d 02 3e 2d 9a 6e 3d 33 f4 51 be
       -0.119655766 0.12731057 0.058252502 -0.20503311
000140 2b 14 23 3e 82 48 65 bd 38 4f 43 3e 0e 6c d3 3d
       0.15925662 -0.055977352 0.19073188 0.10323344
000150 ca 53 3f 3e 0d 9e 36 be 81 5e 82 be 81 0d 0c 3d
       0.18684307 -0.17833729 -0.25462726 0.034192566
000160 51 ab 7c bd b3 a0 2c 3e d1 e4 29 bd ad f8 1a bd
       -0.061686818 0.16858177 -0.041477982 -0.037834812
000170 34 9c 36 3e c7 22 5f 3d 02 d3 00 3c 61 18 52 3e
       0.17833024 0.054476526 0.007862808 0.20517112
000180 08 77 db 3c d4 78 32 bd 12 c6 c6 3d 67 60 13 be
       0.026790157 -0.043572262 0.09705748 -0.14392243
000190 50 59 c7 3d 1e e7 62 bb 60 a2 b6 3d fb 43 33 3e
       0.09733832 -0.003462262 0.08917689 0.17506401
0001a0 a5 7e 12 bd b5 41 e1 bd 3c c2 97 3c 1d 2e 29 3e
       -0.03576531 -0.10998861 0.018525235 0.16521497
0001b0 7d 86 38 be c0 92 54 3d 1b ea 19 be 89 26 dd 3d
       -0.18020053 0.051897764 -0.1503071 0.107983656
0001c0 cb bf 80 3e 6e c0 1c 3e 24 11 49 3e 99 d7 5f 3d
       0.25146326 0.15307781 0.19635445 0.05464897
0001d0 ee 1a 30 bc cc ea 63 bd 0f c8 23 3e 31 69 05 3e
       -0.010748608 -0.05564384 0.15994285 0.13028409
0001e0 d8 00 03 3e ef e7 4f 3d b7 53 e4 bd f6 4b 1f 3e
       0.1279329 0.0507583 -0.1114878 0.1555632
0001f0 89 4b 37 3e a8 27 ce bc fb ba 12 be 8e ab f0 bc
       0.17899908 -0.025165394 -0.1432914 -0.029378679
000200 04 6a 66 be fa 2f 50 3d d2 3e a6 bd be 64 01 3d
       -0.22501379 0.050827004 -0.08117451 0.031590216
000210 94 51 b4 bd 1f e6 20 be 8f 4a 03 3e e4 05 8f bd
       -0.08804622 -0.15712784 0.1282141 -0.069835454
000220 3f 6d c3 bd 12 f2 8a bd 84 32 e7 3d 7e 72 4b bd
       -0.095423214 -0.067844525 0.11288932 -0.049669735
000230 1d 2f 3a 3e 3b 1d b9 3c a3 f5 0b be 1a 33 bc 3d
       0.18182035 0.022596946 -0.13667922 0.09189434
000240 44 ed dd 3d 57 87 08 3d d8 0d d9 bd 1a d9 32 bc
       0.108362705 0.033332195 -0.105983436 -0.010916019
000250 da 43 13 bd 97 ba 08 be b6 9d d5 3d ab 52 47 3e
       -0.03595338 -0.13352428 0.104304716 0.19465129
000260 c4 2c 80 be 53 c2 51 3e ce 9a 1a bc 27 6f 8c bd
       -0.25034153 0.20484285 -0.009436322 -0.06857138
000270 c9 d5 0a 3e 9c 79 9a bc 64 0e 0d be ec 0b 96 3d
       0.13558115 -0.018856816 -0.13775021 0.07326493
000280 de a9 ae bd ce 6d 89 3d ba ee dd 3d f3 9f 1c 3e
       -0.08528493 0.06710397 0.10836549 0.15295391
000290 b6 9b 04 be d9 91 cd 38 de 1b 45 3e 93 87 02 be
       -0.12950024 9.802328e-05 0.19248912 -0.1274703
0002a0 c5 6f 20 be 77 23 f2 3d 46 2b 2d 3e 3c a4 5e 3e
       -0.15667637 0.11823171 0.16911039 0.21742338
0002b0 85 43 32 be 04 6b 42 be 86 7a cb 3d c8 08 06 be
       -0.17408569 -0.18986136 0.09935479 -0.13089287
0002c0 44 83 50 3d ef 6c 05 3e a8 6a f6 bd 52 3f 3f bd
       0.050906435 0.13029836 -0.12032062 -0.046691246
0002d0 4e 2f ef 3a af f2 26 bd f0 c0 47 bd b5 7c e3 3d
       0.0018248351 -0.040758785 -0.048767984 0.1110777
0002e0 b2 a1 14 3e 4b 20 10 be 3e fc 38 bd 8e 02 b4 3d
       0.14514807 -0.14074819 -0.045162432 0.0878955
0002f0 cb bb 4f be 88 41 1d 3c 6a be 8e be 42 2c 56 3e
       -0.20286481 0.009598143 -0.2787965 0.2091532
000300 8d 17 03 be e2 91 e1 3c 73 d9 23 be 58 c6 0b be
       -0.12801953 0.027535383 -0.16000919 -0.13649881
000310 d1 19 c5 bd ce 6d 94 3b 35 8c e0 bc e6 40 10 be
       -0.09624065 0.0045296913 -0.027410606 -0.14087257
000320 7e e9 15 bb b0 8c cc 3c 30 30 67 3d d2 d5 cf bd
       -0.0022874768 0.024969429 0.05644244 -0.10148205
000330 cf 54 46 3e 75 55 8e bd 62 0d 4d be de 2a bf bd
       0.1936829 -0.069498934 -0.20024636 -0.09334348
000340 7b 2a 38 be 0a 52 46 be 9c 1e 73 bc 11 97 85 bb
       -0.17984955 -0.19367233 -0.014838841 -0.0040768464
000350 7d 68 98 ba c3 4c 85 3e 85 7f 33 3e 32 53 e6 3d
       -0.001162782 0.26035127 0.17529114 0.11246337
000360 22 64 0f be 21 a0 ee bd 10 9f 59 be c3 ac 77 bd
       -0.14003041 -0.11651636 -0.21252084 -0.060467493
000370 20 b4 81 3e 45 1d 4c be 16 9e 0d 3e 48 be 21 3c
       0.25332737 -0.1993304 0.13829836 0.009872027
000380 29 be a6 3d 12 89 1b be a3 db 90 3d f6 ac 4b 3e
       0.08141739 -0.15189007 0.070731424 0.19890198
000390 2f 91 ef bc 1e b6 27 3d 30 0f 0f 3e 82 77 ee 3d
       -0.029244034 0.040945165 0.13970637 0.11643888
0003a0 41 44 17 bd 71 30 7d be 89 3c 23 3e c6 5e 88 3e
       -0.036930326 -0.2472551 0.15941061 0.26634806
0003b0 c6 14 30 3d 91 55 c1 bc f6 4a 5d be 0d e3 cf 3d
       0.04298856 -0.023600372 -0.21610627 0.101507284
0003c0 fc fa 88 3d bf 80 54 3c 47 6a 05 3e 56 cd 29 be
       0.066884965 0.012970149 0.13028823 -0.16582236
0003d0 38 20 71 3d 92 49 11 be c3 d9 88 bd 74 db 01 be
       0.058868617 -0.14188221 -0.0668216 -0.12681371
0003e0 8a e7 13 3d bd fd d7 3d eb c6 41 3e 50 8f 2c 3e
       0.036109485 0.105464436 0.18923537 0.16851544
0003f0 13 70 fa bd 46 18 b1 bd c0 8f 17 3d fb 0d 63 bd
       -0.12228408 -0.08647208 0.037002325 -0.055433255

a2c_network.actor_mlp.2.weight f4 [128, 256]
000000 e1 03 da 3d a2 3c 4b 3e d8 8c 85 3b f0 ba 67 3d
       0.10645271 0.19847348 0.004075628 0.056574762
000010 a2 cc 64 3d 55 08 48 3c b2 2c 81 bd 71 38 ae ba
       0.055859216 0.012209018 -0.06307353 -0.0013291967
000020 61 d5 e2 3b 6e cd 16 3e dd f6 9a 3d 0c eb df 3d
       0.0069224094 0.14726803 0.07566617 0.109335035
000030 cf de 55 3d 0a 4f 7a bd 55 c2 09 bd de dd b8 3c
       0.05221444 -0.061110534 -0.033632595 0.022566732
000040 79 8c 5d bc 7a ab 9a 3d 27 c8 e6 3d 83 10 86 3c
       -0.013522261 0.07552238 0.11268645 0.016365295
000050 c8 86 64 bc 8f 5a 01 3e 47 b1 13 bd 60 4a 82 3d
       -0.01394815 0.12632202 -0.036057737 0.06361842
000060 35 e9 e0 bd d9 67 f3 bc b0 eb 22 3d e0 c6 57 bd
       -0.10981981 -0.029712604 0.03977555 -0.052679896
000070 ab 89 f6 bd 3e ce 3d 3d a1 2e e2 3c cc 99 df 39
       -0.12037977 0.046339266 0.027610125 0.00042648462
000080 42 72 d6 3c e4 b5 ad 3d 0a c6 5e 3d 33 8f 0e 3d
       0.02617753 0.084819585 0.054388084 0.034804534
000090 00 1f de bd ea f5 18 3e 2e 55 0d 3d 6d ae ba bd
       -0.108457565 0.14937559 0.03450506 -0.091153
0000a0 9b 4b b7 bb 0b 2f e7 3c 05 6a 02 3b 77 19 93 3d
       -0.0055937297 0.028220674 0.0019899618 0.071825914
0000b0 a4 f0 97 bd 1d af 23 3e c6 38 0d bc c9 a1 f5 bb
       -0.074189454 0.15984769 -0.008619493 -0.007496093
0000c0 89 c9 19 bc ce ba c3 bd fe 13 6a bd c3 8c af 3b
       -0.009386429 -0.095571145 -0.057147972 0.0053573563
0000d0 79 df e3 bd fc 70 c5 3d 16 37 16 3e 9a 94 e5 bc
       -0.111266084 0.09640691 0.14669451 -0.02802496
0000e0 dd c9 29 be 3e 51 f8 3b 2e 8d b8 3d 5a 6c 69 bb
       -0.16580911 0.007578044 0.09011303 -0.003561756
0000f0 ab 2f 13 3d 8a 54 e6 bc ef d1 02 bb aa e2 0b 3d
       0.03593413 -0.028116483 -0.0019961556 0.03415171
000100 82 cc b2 3d 9f 96 91 3d 89 a9 9b 3d 17 42 a9 bc
       0.08730413 0.07108807 0.07600696 -0.020661397
000110 ed da 2f be b2 78 95 3d e7 9d bb 3c 15 ea 08 bd
       -0.17173357 0.072984114 0.022902442 -0.033426363
000120 37 1b 8e 39 32 9c d4 3c 31 d8 9a bd 97 56 36 3d
       0.00027104627 0.025953386 -0.075607665 0.044516172
000130 ad b8 8f bc 89 b2 00 3c 2f 98 cf bc 9c 74 41 3d
       -0.017544115 0.007855066 -0.025341121 0.047230348
000140 6c 4f 8f 3d 7c 8f 5f bd 55 b7 bf bd 59 45 4f bd
       0.069975704 -0.054580197 -0.0936114 -0.050603244
000150 42 03 4a bd 59 c0 47 bd 98 62 50 3d 49 c6 47 3c
       -0.049319513 -0.04876742 0.050875276 0.012193271
000160 34 dc b4 3d f4 08 75 bc b1 f5 8e bd 90 33 0f 3d
       0.08831063 -0.014955748 -0.06980456 0.034961283
000170 f9 b8 27 3d 63 a3 36 3d 31 f1 b2 bc 55 27 ad 3d
       0.040947888 0.04458941 -0.021843525 0.084547676
000180 87 74 d2 3d 44 07 8a bd 90 04 8e 3d 7c eb 3e bc
       0.10276132 -0.06739667 0.06934464 -0.011652824
000190 af d5 b4 bc 1c da 6c bd f0 53 c3 3d b3 2d 4c bc
       -0.022074549 -0.057825193 0.09537494 -0.012462067
0001a0 74 19 66 be 4e 97 08 3d e6 99 05 3c 69 5e 35 bd
       -0.22470647 0.03334742 0.008154368 -0.04427949
0001b0 c1 03 7c bd 95 d5 31 3d 51 07 45 3e 0c e4 c2 3d
       -0.061527018 0.04341658 0.19241072 0.09516153
0001c0 56 bd 5a 3c a9 71 b0 3d 58 85 10 3e 0c 9d 99 3d
       0.013350805 0.08615429 0.14113367 0.075006574
0001d0 4e b6 c3 bd ad 85 b5 bd cf 25 25 3e 46 ca 22 3d
       -0.09556256 -0.08863387 0.16127704 0.039743684
0001e0 4a 6d b6 bc d5 39 a0 bd 40 d4 84 3c 27 55 ee bb
       -0.02226891 -0.078235306 0.01621449 -0.0072733345
0001f0 3c 33 64 bb 9a 0f ef 3c fe 0c 7b bd d7 3b ae 3d
       -0.0034820577 0.029182244 -0.061291687 0.08507507
000200 d4 fd 08 bd b0 8d b7 3c 7c d2 20 bd b3 28 8b bc
       -0.033445194 0.022406429 -0.039263234 -0.01698718
000210 70 a6 7a 3e 2f b4 1c be f7 42 02 3d 31 38 9b 3d
       0.24477553 -0.1530311 0.031802144 0.07579077
000220 3b 21 36 bd b0 95 eb 3d 7a ef 72 3d 05 ea 2a be
       -0.044465285 0.1150316 0.059310414 -0.16690834
000230 d3 5d a6 3c 15 e8 87 3d b8 e3 55 3d 11 fb 8a bd
       0.02030841 0.06636063 0.052219123 -0.06786168
000240 bb 7f 0a bd a2 6e 09 be 95 0a 18 bd 0d 7a 4d 3c
       -0.03381322 -0.1342111 -0.037119467 0.012541306
000250 71 fb 32 3d b2 59 b2 3d 8b 89 78 3d f4 e6 72 3c
       0.043696824 0.08708514 0.060678046 0.014825571
000260 2b 5f 2a 3d 03 cf cf 3d c1 9f ae bc e3 75 95 bd
       0.041594665 0.10146906 -0.021316411 -0.07297876
000270 ab ad 59 3d c1 b9 90 3d e4 91 c5 3d 7c 9f e7 bd
       0.05314414 0.0706668 0.09646967 -0.11309716
000280 11 0e ae 3d 84 ee 76 3d 5b d8 b8 bd d4 62 0c 3d
       0.08498777 0.06028606 -0.090256415 0.034273937
000290 42 d3 91 3d e6 4f 00 3e 72 1b 5a 3d 8c 16 9c bd
       0.07120372 0.12530479 0.05324883 -0.07621488
0002a0 fb 21 b8 3c 45 bb d8 3c 24 5f 02 3d 69 a8 9a 3d
       0.02247714 0.026456485 0.031829014 0.07551653
0002b0 a4 bc d0 bc bd ef fd 3d 14 ff 41 bc e9 19 94 bb
       -0.025480576 0.12399242 -0.0118406005 -0.0045196903
0002c0 d6 12 bb bd d6 f1 6a bd d7 70 e7 bc 22 5f 66 3d
       -0.09134452 -0.05735954 -0.028252048 0.05624307
0002d0 3a d1 8e 3a 5e 5e 98 bd 48 7e a3 bd 58 24 fd bc
       0.0010896095 -0.07439874 -0.079830706 -0.03090112
0002e0 b9 85 5a bc 6b 23 4b be fc cb 87 bd 32 7d 1b 3d
       -0.013337546 -0.1983773 -0.06630704 0.037961192
0002f0 0b 8a 08 3d f5 ff e2 3c 38 eb 08 3e 90 10 21 3e
       0.033334773 0.02770994 0.13370979 0.15728974
000300 ca 57 be 3d 5b 77 a5 3d 49 64 27 be e8 73 e1 3c
       0.09294088 0.08079406 -0.1634685 0.027521089
000310 d9 89 06 3c d6 ed 08 bd 78 51 b1 3d 80 d0 6e 3c
       0.008211576 -0.033429943 0.08658117 0.014576077
000320 4d 53 34 bd d8 f0 f7 3d 91 bb b4 3d 73 3c 96 bc
       -0.044024754 0.12106484 0.08824838 -0.018339371
000330 da 92 26 be 9b e5 7b 3d ba d3 8b 3c cf 04 de 3c
       -0.16266957 0.061498266 0.017068733 0.027101902
000340 b7 b3 9d bc 17 fc 9a bd 11 1f 91 bb 2b 8b 3d 3b
       -0.019250734 -0.075676136 -0.004428752 0.0028922062
000350 bd 3c 2f 3d ce 3d 9d bd 35 89 4d 3d 41 d7 86 bd
       0.042782534 -0.07677804 0.05017968 -0.06584025
000360 72 7a af bd 6d d1 c2 3d fa 76 8c bd b3 1f 40 bd
       -0.085682765 0.09512601 -0.068586305 -0.04690523
000370 5e a3 80 3c 19 60 59 3d c7 a8 dc bd 5e 9b 51 3c
       0.0157029 0.05307016 -0.10774379 0.01279339
000380 e4 76 ce bd 3e 6c b8 bd b6 32 51 bd 29 d7 c2 3b
       -0.1008127 -0.090050206 -0.051073752 0.0059460592
000390 30 e5 21 3e 27 f3 d1 3d 07 ef 47 bd e6 a2 db 3b
       0.15810084 0.10251456 -0.04881194 0.0067027686
0003a0 17 71 05 bc 8d af 4e bd d7 0c 2e bc 3b 29 76 bd
       -0.0081446385 -0.050460387 -0.010623178 -0.060097914
0003b0 48 6a 76 bd 5e f0 29 be f7 a1 76 bd 88 d8 15 bd
       -0.06015995 -0.16595599 -0.060213055 -0.036583453
0003c0 b1 52 97 3b 18 3c 46 3d 4a 7b ab 3a 9f b7 4b 3d
       0.004618012 0.048397154 0.0013083008 0.04973566
0003d0 cc f1 82 3d 08 73 99 bd 79 fb 26 bd da a2 bb 3d
       0.06393775 -0.074926436 -0.040767167 0.09161921
0003e0 34 fd 8e bd 81 72 60 3d 1e 58 db 3d a6 d4 1e 3d
       -0.069818884 0.0547967 0.107101664 0.038777016
0003f0 6e 01 ca 3d 20 cc 60 3d ec 0e 94 bd 5f 3e 5c bd
       0.09863554 0.05488217 -0.072294086 -0.05377042

a2c_network.actor_mlp.2.bias f4 [128]
000000 12 97 a1 bc a6 a9 5b bc 2e 3a 9f bd 4d 05 50 3a
       -0.019725356 -0.013407147 -0.07774769 0.000793536
000010 82 f3 5d be fa 35 8e 3d 32 94 97 bd c0 60 d8 3d
       -0.21674922 0.06943889 -0.07401313 0.105653286
000020 bd 0c 3d be 43 95 a7 bd ae bb 5f 3d 41 5b 1a be
       -0.1846189 -0.08182766 0.054622345 -0.15073873
000030 49 2f 04 be f3 66 8a 3c 5b f1 4d be fc cf 2a be
       -0.12908663 0.016894793 -0.20111601 -0.16680902
000040 98 b8 5b bd e0 1d a1 3d bd 85 ac bd b0 36 27 be
       -0.05364284 0.07867026 -0.08423946 -0.16329455
000050 09 7e 3f 3c 10 e5 0a 3e d9 b3 15 3d e3 a4 98 3d
       0.011687764 0.13563943 0.03654847 0.07453325
000060 4e 65 dd bc 25 7f 6f 3d 0e e8 dd 3d 7c b6 39 3d
       -0.027025845 0.058470864 0.108352765 0.045340046
000070 27 cc 0e 3e cb ea e4 bd 16 c1 96 3d ab 57 80 bc
       0.13945065 -0.11177596 0.07361047 -0.015666803
000080 b6 ee ff bd fd 06 e0 bd d7 d5 eb bd 77 cb d0 bc
       -0.124967024 -0.10938833 -0.11515396 -0.025487645
000090 b0 e0 97 3d 9b fe c3 bb 3b 01 93 bd bd 25 26 3d
       0.074159026 -0.005981279 -0.07177969 0.040563334
0000a0 70 f5 0a bd 76 0a 5a 3d 8d 64 2c be e8 4a 1e be
       -0.033925474 0.053232633 -0.16835232 -0.15458262
0000b0 73 ad c5 3c 40 17 ea bd 78 8a 8a 3d 82 df 15 be
       0.024130559 -0.11430216 0.06764692 -0.14636043
0000c0 e2 50 60 bd 82 92 c2 bd c7 2f 38 be 61 b0 c1 bb
       -0.054764636 -0.095006004 -0.17986976 -0.0059109186
0000d0 26 2b 73 bc 05 83 4a bd 20 82 54 be 2b 9e 2e be
       -0.01484183 -0.049441356 -0.20752764 -0.17052524
0000e0 56 c3 e0 bd 26 5f ff 3d da c5 b3 3c d9 29 e6 3c
       -0.109747574 0.1246932 0.021944929 0.028096126
0000f0 dd 60 37 be a5 c3 de bd b5 e1 48 bd 21 6b 4e be
       -0.17908044 -0.1087716 -0.049043376 -0.20158054
000100 e1 ab 2d bc cf c8 04 3d f8 a1 d7 3c ed 1f 87 3d
       -0.010600061 0.03241807 0.02632235 0.06597886
000110 b7 05 30 be cc 2c d2 3c 6c 86 16 be 6c b2 4c bd
       -0.1718968 0.025656126 -0.14699715 -0.049974844
000120 3b 8b 30 be d0 b8 00 3d 78 88 d8 bd 21 11 4f 3d
       -0.17240612 0.03142625 -0.10572904 0.050553445
000130 70 6b 92 bd c4 db cd bd 0f 69 cf bd 8d 24 e6 bd
       -0.07149398 -0.100516826 -0.1012746 -0.1123744
000140 26 3c 28 3e c2 d7 18 be 96 d2 d2 bd 82 dd 14 bd
       0.16429195 -0.14926055 -0.10294072 -0.03634406
000150 b3 d3 ff 3d b9 78 03 be 3c 2b 30 be 3b 84 b2 bd
       0.1249155 -0.12839021 -0.17203993 -0.08716627
000160 70 d1 25 bc 2c 19 4b 3e 03 44 0b bd 5c 56 06 3d
       -0.010120735 0.19833821 -0.034000408 0.032797202
000170 ee 3d c8 3d 31 c2 f8 bd ec 4a cf bd 7b f4 29 be
       0.09777437 -0.12146414 -0.10121712 -0.16597168
000180 94 2d 8e bd 1f 65 33 be 42 52 4e be 19 e7 31 be
       -0.06942287 -0.17519043 -0.20148566 -0.17373313
000190 90 74 98 3d a3 a6 31 bd 47 37 94 3c 6e 21 d4 bd
       0.074441075 -0.043371808 0.018092765 -0.10357939
0001a0 3c 19 95 bd 3c 61 b2 bd 03 a3 8e 3d a6 c8 9a bd
       -0.07280204 -0.08709952 0.06964686 -0.07557802
0001b0 3b e9 89 be 5b 04 aa bd 20 4b 80 be 7e 23 81 be
       -0.26935753 -0.08301612 -0.25057316 -0.2522239
0001c0 9d 36 13 bc d6 73 13 be ef 7d a6 ba c7 3a 86 bc
       -0.008985189 -0.14399657 -0.0012702326 -0.01638545
0001d0 43 9e ee bd 72 76 fe 3c 68 6a 20 bd 4b a7 d7 3c
       -0.1165128 0.031062339 -0.039163977 0.026324889
0001e0 49 b6 63 be fd 1d 86 3d f4 72 b3 3c 36 e7 26 3d
       -0.22237505 0.065486886 0.0219054 0.040747844
0001f0 a2 ee d8 bd d6 87 45 3e 55 f1 c9 bd ed 93 06 3e
       -0.105923906 0.19290099 -0.098604836 0.13142367

a2c_network.actor_mlp.4.weight f4 [64, 128]
000000 cd 78 7f bc 95 ee 9e bc df d2 a5 3d d4 80 95 bc
       -0.015592766 -0.019400874 0.08096861 -0.018249907
000010 47 bb d9 bd 81 75 06 3d 5d c2 18 3d be 53 92 bd
       -0.106314234 0.032826904 0.037294734 -0.07144879
000020 30 65 ea bd b8 54 bc 3d 0d 57 69 3d 84 08 e4 bc
       -0.11445081 0.09195846 0.056967784 -0.027836092
000030 59 06 c7 bd f6 9b 05 3e 91 25 23 bd 23 2a 16 bc
       -0.097180076 0.13047776 -0.039830748 -0.00916532
000040 08 c0 16 bb b8 c1 be 3c 87 55 17 be a9 4d 90 3c
       -0.0023002643 0.023285732 -0.1477872 0.017615156
000050 2a c8 62 3c bd d9 4a bd ba 8b 00 be 82 44 5c bd
       0.013841668 -0.049524058 -0.12553301 -0.05377627
000060 f0 17 d8 3c 5e b8 63 bd b4 46 93 3d 7b ab 3b bd
       0.026378602 -0.055595748 0.0719122 -0.045817833
000070 fd 65 29 bd fa d6 0f 3e e1 5e b1 3c d2 6b 47 bc
       -0.04135703 0.14046851 0.021651687 -0.012171702
000080 2a ed 33 3d 4a 48 4a bd b1 80 a5 bd ca 45 cc bd
       0.04392735 -0.049385346 -0.080811866 -0.09974249
000090 ab e2 95 bd c1 06 d6 bd 2c 88 8b bd 3a 3d fd bd
       -0.07318624 -0.10450507 -0.06813082 -0.12365194
0000a0 21 5b 0e be 00 b7 2f bc b2 ad 3a 3d 75 54 11 bb
       -0.1390195 -0.010724783 0.045575805 -0.0022175584
0000b0 97 df 05 be 79 4e 17 bd 7a 90 c3 bd 8c 2a 3f bc
       -0.13073574 -0.03694007 -0.09549041 -0.011667859
0000c0 1d 22 bf bd 01 c0 ca bd 9d 51 4b 3d 9f ee cd bd
       -0.093326785 -0.09899903 0.04963838 -0.10055279
0000d0 05 a5 d9 bc 25 ac e1 bb e2 3a 72 3c a3 16 12 3d
       -0.026567945 -0.0068869763 0.014784547 0.03566612
0000e0 7b 0b 44 bd 44 04 8d bd dc 50 55 bd 17 4c 96 bc
       -0.04786251 -0.06885579 -0.052079067 -0.01834683
0000f0 0f 60 e0 3d 04 17 0f 3b e9 b5 1b bd 71 5b 86 b9
       0.10955822 0.0021833787 -0.03801528 -0.000256266
000100 5e 75 98 3c 88 a9 2d bd 14 f2 b6 3d 3f 95 b4 3d
       0.018610653 -0.042398006 0.089328915 0.08817529
000110 85 40 63 bd 21 8a 38 3d fb dc 07 be 74 f9 88 bd
       -0.055481452 0.045053605 -0.13267891 -0.066882044
000120 4a fe 9a bd 41 2d ab 3d 77 08 cb 3d 4f 96 24 bd
       -0.07568033 0.08358241 0.09913724 -0.040182408
000130 fd 46 ee bb c4 de dd bd af 4d 5b bd d2 6f 3c be
       -0.007271646 -0.10833505 -0.05354088 -0.18402031
000140 e4 4b 25 3d f7 a4 a9 3c ba 48 eb bd 35 7f 10 3e
       0.040355578 0.020708544 -0.11488481 0.14111026
000150 9f c2 ba bc 79 39 56 bd ef 1e 4d bc fa 52 7c bd
       -0.02279788 -0.052300904 -0.012519582 -0.06160257
000160 f3 dd e5 bc 97 da b3 bb 0c 04 90 bd 03 9c 07 3d
       -0.028059935 -0.0054887044 -0.07032022 0.03310777
000170 80 5f e6 bc 91 82 af bd 75 82 ad bd c3 9e a0 bc
       -0.02812171 -0.085698254 -0.08472148 -0.019606953
000180 22 d5 2f be d8 3d 1b bc 69 1c 42 3d 59 6f 06 3d
       -0.17171147 -0.009475194 0.047390375 0.032821033
000190 66 13 d9 bc 02 6e b8 bd 7a fd 8d 3d 98 e6 20 3d
       -0.026498508 -0.09005357 0.069331124 0.03928241
0001a0 b5 5a 84 3d 35 31 b0 3c 1a 7d ac 3b a7 d7 0a bd
       0.064626135 0.021507839 0.0052639367 -0.03389707
0001b0 93 30 1d bd 56 a5 48 3d 85 91 7a bd b1 1e 25 be
       -0.038376402 0.0489858 -0.061173934 -0.16124989
0001c0 4d 3c 81 bd 6a 2c 92 bc fe a9 c6 3d 7f 66 54 3d
       -0.063103296 -0.017843444 0.09700392 0.05185556
0001d0 ba 3e e7 3b 7e b6 51 3d fa 51 7b bd 8b 30 c3 bc
       0.007057038 0.05119943 -0.061357476 -0.023826858
0001e0 31 e9 6a bc ba 64 39 bc f7 7b a5 bc a7 18 87 3d
       -0.014337824 -0.011315519 -0.020200713 0.06596499
0001f0 b0 3a 9f bd fe ce 9f bd eb c7 6e be 2d 22 58 bd
       -0.077748656 -0.078031525 -0.2331845 -0.052766968
000200 4a 3e 15 3d f9 d9 4b 3b 28 da f6 3d 00 c4 72 3c
       0.036436357 0.0031105264 0.12053329 0.014817238
000210 4e 0b 00 3c 2c c6 9e 3b 4e dc a5 bd c7 cd af bc
       0.007815195 0.0048454013 -0.080986604 -0.021460427
000220 b7 53 a3 3c c0 a5 0c bd 84 ef fa bc a4 5e 46 3b
       0.01993738 -0.03433776 -0.030631788 0.0030268813
000230 e7 e2 87 be aa e9 b7 3d a6 dd 5e 3d c0 64 fe 3c
       -0.265403 0.08980115 0.0544106 0.0310539
000240 20 1e ca 3c f5 25 a3 bd cf 9e 7b bd 7b d7 bd bd
       0.024672568 -0.07966224 -0.06143075 -0.09269615
000250 cf a3 c1 39 67 cc f9 3b 5c fd b2 bd 5f 4b 80 bd
       0.00036933876 0.0076232436 -0.08739731 -0.06264376
000260 5a ba 12 3e b4 0d b8 bd 1e 62 38 3c 6c 9d 16 bd
       0.143289 -0.08986989 0.011253862 -0.036771223
000270 65 52 1a be de 91 9f be dd 79 a9 3d 61 59 ba 3d
       -0.15070494 -0.31165975 0.08275197 0.09099079
000280 9b 09 3e bd 37 19 7f bc 51 a6 5d 3d 89 b9 a1 3d
       -0.04639588 -0.0155699765 0.05411369 0.07896716
000290 de 74 9d 3d 15 3f 96 3d 7b 7e ea bd f7 cb 96 3d
       0.07688306 0.07336251 -0.114499055 0.07363122
0002a0 72 eb d4 3d ad 11 38 3d ec a4 fd bd 92 62 06 bb
       0.1039647 0.044938732 -0.12384972 -0.002050553
0002b0 c0 74 fb bc a7 63 ab bd 3b c9 f2 bd b7 de 0c be
       -0.03069532 -0.083686166 -0.11854788 -0.13756834
0002c0 41 b6 c3 bd 39 f4 0e bc 47 d8 66 bb 7e 1b 98 3d
       -0.095562465 -0.008725219 -0.0035224126 0.07427119
0002d0 2e fd a4 bd 88 42 08 3e 12 fd ec 3d bb 12 31 bd
       -0.08056103 0.1330663 0.11571707 -0.043230753
0002e0 0e b1 80 bd e5 fd 4c be c7 1a 2c bd d8 16 ea bd
       -0.062837705 -0.20018728 -0.042017724 -0.11430138
0002f0 0f 67 5b 3e 19 ed 09 3d 77 cf 8c bd 69 0f 8c 3d
       0.21426032 0.03367338 -0.06875508 0.06838877
000300 b3 31 65 be 16 fc c9 bc ba ce 92 3d 0e 7a eb 3d
       -0.2238224 -0.024656337 0.07168336 0.114978895
000310 bd 87 18 3c c9 4d 27 3d 88 64 f0 3d 85 1c dc 3d
       0.009309706 0.040845666 0.11737925 0.10747627
000320 a6 d3 17 3e b6 d2 92 3d 98 26 96 3b 1b c5 c6 3c
       0.14826831 0.07169096 0.0045822375 0.02426391
000330 06 36 1e 3d 59 a7 e2 3c 34 df f2 bb 92 7c 73 be
       0.03862574 0.027667688 -0.007411862 -0.23777989
000340 cb 22 a9 3d de 28 0f bd 73 bb b0 bd 7c 9a 24 3d
       0.08258589 -0.034951083 -0.08629503 0.04018639
000350 07 69 29 bd da db 05 3c 11 4d 63 3d e7 36 1a 3d
       -0.041359928 0.0081700925 0.055493418 0.037650015
000360 10 c8 ca 3d 06 b7 aa bb 7a f2 14 be ff bf 77 3d
       0.0990144 -0.0052098064 -0.14545622 0.060485836
000370 37 22 85 bd 7d ce 6a bd 14 d9 c4 3d 03 e4 00 3e
       -0.065006666 -0.05732583 0.09611717 0.1258698
000380 a6 bf 81 3b bf cf 84 3c 3c ea 4e bd f8 ea 6d bb
       0.003959614 0.016212342 -0.050516352 -0.0036303382
000390 93 6c 21 3d 31 35 12 3d 23 56 e2 3c b5 26 cc bc
       0.039410185 0.03569526 0.027628964 -0.0249208
0003a0 38 ee 17 3d d4 d4 32 3d f9 0a 9c bd f9 e9 19 be
       0.037092417 0.04366 -0.0761928 -0.1503066
0003b0 cb 44 90 bd 9a 2e ce bd 76 a8 4a 3d a2 3c 83 3d
       -0.07044371 -0.10067482 0.049477063 0.06408049
0003c0 5f f3 7d be 18 50 99 be 5e a3 69 3d 38 41 bd bd
       -0.2479987 -0.2994392 0.057040565 -0.09240955
0003d0 03 d8 33 bb 65 ff ac bd 5a b5 38 3d db 4a b8 3d
       -0.0027441985 -0.0844715 0.045094825 0.089986525
0003e0 d9 af b1 3d 8e d7 65 3d 5c 9e 1c 3c be d5 8f bd
       0.086761184 0.056113772 0.00955924 -0.0702319
0003f0 ff 9d 06 3e f6 e0 b6 bc d3 23 fc 3d 9e e4 37 bd
       0.13146208 -0.022324067 0.123115204 -0.04489576

a2c_network.actor_mlp.4.bias f4 [64]
000000 81 12 c2 3d 23 2e 5c 3d af a8 2b be 87 02 df 3c
       0.094761856 0.053754937 -0.16763566 0.027222885
000010 62 57 da 3d 80 0b 35 3c 67 ab 19 be 78 0f 25 be
       0.10661198 0.011050105 -0.15006791 -0.16119182
000020 52 f2 3e 3e 62 57 ae 3d a8 ce ea 3c 49 fb 77 bd
       0.18647125 0.08512761 0.028662995 -0.06054238
000030 7e 6d d2 3d 3f c5 32 be 75 fa 1a be 33 94 92 bd
       0.1027479 -0.17458056 -0.15134604 -0.07157173
000040 fd fe aa 3d c7 46 ec bd 4d b5 a4 3d 85 30 24 3e
       0.083494164 -0.11536937 0.08042393 0.16034134
000050 34 47 30 be d2 22 6b 3d 3f b5 00 be 24 78 b5 3d
       -0.17214662 0.057406254 -0.1256914 0.08860806
000060 21 76 47 3d c8 ac 1f 3e ef bd 63 3c bf c7 1f 3e
       0.04869664 0.15593255 0.013900264 0.15603541
000070 bc de 1b 3e 4c 36 f4 3d c4 1a 50 bc 31 fa 43 be
       0.15221685 0.11924419 -0.012701694 -0.19138409
000080 9e eb 14 be d5 3f 9b bd ed 8d 1f 3d df 33 23 3e
       -0.14543006 -0.07580534 0.03895371 0.15937756
000090 84 f1 bb bd b5 0a 15 be 04 18 cc 3d b0 7d df 3d
       -0.09176925 -0.14554866 0.09965518 0.10912645
0000a0 67 2b 12 3d af 6d 49 3d 41 d7 c0 bd df 9a 10 3e
       0.035685923 0.049176868 -0.094160564 0.14121579
0000b0 de 47 1a be 42 7d d0 bd 03 f8 6e bd df 78 91 be
       -0.15066478 -0.10180141 -0.05834199 -0.2841253
0000c0 ee 4a ef 3c 64 18 bf 3d 88 f8 ec 3d 5b 2e 9a 3d
       0.029210534 0.09330824 0.11570841 0.07528373
0000d0 9d e7 13 3e 37 99 28 be 4d bb a2 bc 87 ac 44 be
       0.14443822 -0.16464697 -0.019864703 -0.19206439
0000e0 4a 85 b6 bd a7 ff 37 3e 68 00 41 be f8 af 46 be
       -0.089121416 0.17968617 -0.18847811 -0.19403064
0000f0 35 a6 f1 bd 16 39 02 3e a5 44 0f 3e 16 c2 3b be
       -0.117992796 0.12717089 0.1399103 -0.18335757

a2c_network.value.weight f4 [1, 64]
000000 a4 55 58 3d e4 d1 6e 3d 75 4f a8 bd 3e b8 7a bc
       0.05281605 0.058305636 -0.0821828 -0.015302716
000010 56 85 0c 3d 80 33 d7 3d 0a 72 8a bd 59 9c 43 be
       0.034306847 0.1050787 -0.067600325 -0.1910261
000020 06 e6 8a 3c 86 bb 05 3d 11 05 25 3c bd 4b 15 3d
       0.016955387 0.03264954 0.010072009 0.036449183
000030 a8 c8 bf 3d 64 a4 c8 bd f9 49 b0 bc 51 90 b8 bc
       0.09364444 -0.0979698 -0.021519648 -0.022529753
000040 7c 32 6d 3d d2 86 80 bd d9 10 11 3f 8f a7 ae 3d
       0.057909474 -0.06275715 0.5666633 0.08528053
000050 d9 65 04 be 64 1c 70 3c cd 43 28 be a4 1e c9 3d
       -0.12929477 0.014655206 -0.16432114 0.09820297
000060 91 be af 3b 17 4c e6 3d 38 9e 33 3d e2 b4 a0 3d
       0.0053632935 0.11244982 0.04385206 0.07847001
000070 f4 f1 a0 3d 4e 1e ed 3d ba e6 a9 3c 1a 07 e0 3b
       0.07858649 0.11578046 0.020739902 0.006836784
000080 2e 4c de 38 a9 4e b5 3b 90 da b6 3c 78 05 82 3d
       0.000105999745 0.0055330587 0.022321016 0.06348699
000090 ef f5 97 bc 21 8b 7c bd 1a 27 8f 3d c9 29 ec 3d
       -0.018549887 -0.06165612 0.0698988 0.115314074
0000a0 e5 84 46 3c 62 67 40 3e d8 d2 92 bd d5 62 15 3d
       0.012116645 0.18789437 -0.071691215 0.036471207
0000b0 1e ac 87 3b da 42 2d bd f3 e7 8a bc f9 f8 49 3c
       0.004140391 -0.042300083 -0.016956305 0.012327426
0000c0 d9 4f 29 bd 42 90 8b 3d 32 5a 2a 3d 0a 3d 94 3c
       -0.041335914 0.06814624 0.041589923 0.018095512
0000d0 06 ad 63 3d 2e 06 28 bd 0a 52 ef 3c df 5b ae bd
       0.05558493 -0.04102152 0.029213924 -0.08513617
0000e0 a3 7e 53 bd f7 27 53 3e 12 38 c2 bb d0 bb 8e bd
       -0.051634442 0.20620714 -0.0059270943 -0.06969416
0000f0 5b ea cd 3c 82 67 13 bd 30 ef 39 3e 37 1b ee bd
       0.025136163 -0.035987385 0.18157649 -0.116262846

a2c_network.mu.weight f4 [6, 64]
000000 e9 a7 8f bc 34 c1 a7 bd 3b 05 70 3d 04 56 04 be
       -0.01753612 -0.081911474 0.05859874 -0.12923437
000010 b8 ac 44 bd b6 6b b7 bb 4e 8c 09 3d 4b 7a 28 3d
       -0.04801628 -0.005597557 0.03358107 0.041132253
000020 ed 56 06 be 3d 46 41 bd 2f a7 0c be 0a f7 b9 3d
       -0.13119097 -0.047186125 -0.1373565 0.09080322
000030 22 04 18 3d c5 d7 b6 3c af b7 45 3e b9 44 62 bd
       0.037113316 0.022319684 0.19308351 -0.05524132
000040 2e ba cb 3c af 39 36 3d d5 e7 56 3d 8d ab 5b 3d
       0.02486905 0.044488605 0.052467186 0.0536304
000050 9e a1 71 3c a7 a5 8e 3c 4d 32 a4 bd be fa cc 3c
       0.014748005 0.017412974 -0.080174066 0.025021907
000060 5c 3f 93 bd 4a 01 c1 bd 1f 61 ab 3d ba 1f 0b bd
       -0.07189819 -0.09424074 0.08368134 -0.033965804
000070 66 63 31 bb 65 05 73 3d 34 ec 83 3d 48 6e 72 3e
       -0.0027067303 0.059331317 0.064415365 0.23674881
000080 d9 a3 c9 3d a9 22 11 bc 12 32 25 bd 82 33 62 bd
       0.098457046 -0.008858361 -0.040330954 -0.055224903
000090 1e 0c c1 3c 55 89 bb ba 6c 87 92 bd f5 14 5f be
       0.023565348 -0.0014307896 -0.07154736 -0.21785338
0000a0 ac cc 8f bd d0 b0 b6 bc 40 0b e9 bc a1 84 95 bc
       -0.0702146 -0.022301108 -0.028447747 -0.018251719
0000b0 ba fe 1c 3e 70 8d 86 3d 1c 3a 0d 3d e7 0a d4 3d
       0.15331545 0.06569946 0.034479246 0.10353642
0000c0 dc 4a 98 bd 86 0a d4 3c 56 8c 25 bd 6d 2d 07 be
       -0.07436153 0.025883924 -0.040417038 -0.13200922
0000d0 72 0b be bc fb 18 16 3e 51 21 1a 3e be 33 68 3b
       -0.023198817 0.14657967 0.15051772 0.0035431231
0000e0 79 63 e9 bd a9 1c 2b 3d 3b a0 31 bd 86 ca 31 3d
       -0.11395926 0.04177538 -0.0433657 0.043406032
0000f0 92 a4 01 3e 1d 53 47 bc 1a 37 05 be 27 64 bd 3d
       0.12660435 -0.012165812 -0.13009301 0.09247618
000100 d3 6c 04 bd dd 7a 89 bc 95 ca 8a 3d 79 e7 94 3c
       -0.032330345 -0.016782219 0.06776921 0.018176781
000110 e2 a9 71 bb db d6 37 3e 3f 41 c6 bc 6b 78 88 bd
       -0.003687494 0.17953055 -0.024201034 -0.06663593
000120 1c a8 bb bd 48 56 06 3c 85 e5 16 be 1f c3 85 3d
       -0.09162924 0.008199282 -0.14735992 0.06531357
000130 12 e3 46 3d 65 7f ba bc 84 ca 25 3e 45 02 72 be
       0.048556395 -0.022765825 0.16190535 -0.23633678
000140 34 68 06 bd 55 14 c8 3c 38 cc 0b 3d 5e 5e 90 3d
       -0.03281422 0.024423758 0.034130305 0.07049249
000150 f0 e8 eb bd aa 78 c5 bd d5 a1 18 3d cb e9 a6 bd
       -0.11519039 -0.096421555 0.03726371 -0.08150061
000160 55 ec 01 3e 74 52 a3 39 6b c3 ee bd 64 4a cd 3d
       0.1268781 0.00031151215 -0.11658367 0.100239545
000170 24 23 86 bd 7d f0 64 bd cd b5 a8 bd e3 46 07 be
       -0.06549671 -0.05589341 -0.08237801 -0.13210635
000180 20 fe ce bd c7 f2 bc 3d 78 84 1c 3d 20 da d9 bd
       -0.10107064 0.092259936 0.03821227 -0.10637307
000190 45 da b5 bd 47 89 8e 3d 0f 8b 13 3d 00 ba 15 3c
       -0.08879522 0.06959777 0.03602129 0.009138584
0001a0 c7 96 4a be 01 50 32 bd ca a9 85 3c ca 30 b4 bd
       -0.1978408 -0.04353333 0.016316313 -0.08798368
0001b0 a8 cb 29 3d a3 b6 3e be f5 bb f2 3d 1f 94 c2 3d
       0.041453987 -0.18624358 0.11852256 0.09500908
0001c0 c7 41 d8 39 df 5e b7 3d 79 66 7e bd 07 b4 03 3d
       0.00041247738 0.08953642 -0.062109444 0.03215411
0001d0 d8 89 8f bd 65 c7 27 be 17 98 87 3b 9b 0f fa bc
       -0.070087135 -0.16384657 0.0041380036 -0.03052502
0001e0 c7 76 b9 3d b3 4a 5e bd 8d 50 74 bd 76 19 cb 3d
       0.09055858 -0.054270457 -0.05964713 0.09916966
0001f0 cf fa 4c bb 30 6f 8c bd d7 9d 63 bc da 08 47 bd
       -0.0031277423 -0.06857145 -0.013892612 -0.048592426
000200 e5 c7 3e bd e6 ea 1f 3e 7e f6 50 bd 21 ea 6b 3d
       -0.046577353 0.1561695 -0.051016323 0.05759633
000210 c6 43 aa 3c 9d 4e 57 3e 58 6e 37 bd 0e 96 88 3d
       0.02078427 0.21026082 -0.044782966 0.06669246
000220 dc 50 a6 3d 38 9b b0 3b 1c 6d 93 bd e8 b8 af bd
       0.081208915 0.0053895973 -0.07198545 -0.0858019
000230 60 2a 38 3d 0c b2 fe bb c0 b3 6a 3d a0 a4 f8 bd
       0.044962287 -0.0077726897 0.05730033 -0.12140775
000240 54 c5 17 3e 2c 9b 3a 3d db 31 aa 3c 18 b6 6f bb
       0.14821368 0.04555814 0.020775726 -0.0036577042
000250 bf f5 c5 3c 16 54 35 be 66 22 5c bd de 14 95 3d
       0.024165032 -0.17707857 -0.053743742 0.07279371
000260 03 84 f2 3a 39 49 0b be e8 70 dc bd 1f 33 1e 3e
       0.0018502477 -0.13602151 -0.10763723 0.15449189
000270 97 a5 6c bc a1 1b 99 bc ed fc fd 3d d2 25 d6 bc
       -0.014443777 -0.018689932 0.124017574 -0.026141081
000280 c8 7a 93 3d a7 05 e1 3d ac c2 4f bd a4 36 fc bd
       0.07201153 0.10987406 -0.050722763 -0.12315109
000290 20 d1 2e bd 14 65 c9 3d 6b 72 50 3d f0 1f 08 3d
       -0.042679906 0.09833732 0.050890367 0.033233583
0002a0 35 4c dc 3d 68 9e ac bc b0 2e c2 3b 42 00 63 3d
       0.10756723 -0.021071628 0.0059259757 0.055420168
0002b0 d0 c1 2d 3e ba 7e 11 be 89 76 88 3e a5 1a f2 3d
       0.16968465 -0.14208499 0.26652935 0.11821488
0002c0 80 b0 7f bd a4 b1 98 bc 1b 75 9c 3d d3 ee 85 3d
       -0.062424183 -0.018639393 0.076395236 0.06539693
0002d0 8e 4b 78 3c 25 32 87 bd 83 2c c4 bd 67 05 c2 3a
       0.015154732 -0.06601361 -0.095788024 0.0014802635
0002e0 79 95 b6 3d c2 ce e0 bc 4c 6a 72 bd 7f c2 d6 bc
       0.089152284 -0.02744234 -0.059183404 -0.02621579
0002f0 04 0e 66 be c9 bf 8a 3d 68 a3 7e bc d2 f5 26 bc
       -0.22466284 0.06774861 -0.015541889 -0.010190444
000300 5a 26 98 3d de 01 10 3e 9c 8d 01 bd f5 17 f4 3d
       0.0742919 0.14063212 -0.03162919 0.11918632
000310 d5 43 17 bd f3 b7 0e 3e c2 61 3a 3d 13 b7 c3 3c
       -0.036929924 0.13937359 0.045503385 0.023891008
000320 9d 53 a9 3d ac 02 23 bd 82 d7 ee 3d 16 f3 6a 3d
       0.08267901 -0.03979747 0.116621986 0.05736073
000330 9e ff 00 3d ef 7e a6 bd 71 e8 68 3d f7 b8 86 3c
       0.031493776 -0.081296794 0.0568623 0.01644562
000340 2d e7 c8 bd 25 7e a4 3d 71 10 89 bd 3d 07 02 3e
       -0.09809718 0.08031873 -0.06692589 0.12698074
000350 56 61 b5 bc 7c 10 18 bd e5 7f 3d bc b4 a1 cd 3d
       -0.02214114 -0.037125096 -0.011566137 0.10040608
000360 b6 35 af 3d 0c 1b 23 3d cc 55 3e be 4d 3e 35 3d
       0.085551664 0.039820716 -0.18587416 0.044248868
000370 a7 84 84 3d d4 1c 46 3d 34 b2 fa bc e2 24 0b bd
       0.06470614 0.048367336 -0.030602552 -0.03397072
000380 fe d2 10 3d 8a 8c 08 be a8 a4 27 bd 1a a3 64 3d
       0.035357468 -0.13334861 -0.040928513 0.05581961
000390 71 a8 bd bd 56 31 40 be 77 ad 33 bd 57 5c 3e bd
       -0.09260643 -0.1876882 -0.0438666 -0.04647478
0003a0 00 0c cd 3b 59 08 8f 3d 3a 66 41 3b b2 55 2f 3d
       0.006257534 0.06984014 0.0029510395 0.042806335
0003b0 91 ea d1 bd 80 05 c2 3c 61 72 52 bd 4d 9e 81 be
       -0.10249818 0.023684263 -0.05137861 -0.25316086
0003c0 3e a7 67 3d 6c e1 3f bd 29 fe 9b 3b 92 76 3c 3c
       0.05655598 -0.04684584 0.004760523 0.011502879
0003d0 63 ae 9f 3c ed 9c 8e bd 8f 29 81 3d 05 89 4e bd
       0.019492334 -0.06963525 0.06306755 -0.05042364
0003e0 71 c5 27 be ac 86 dc 3c 4d 2d 2c bd 89 f6 05 be
       -0.16383912 0.026919685 -0.04203539 -0.13082327
0003f0 f1 6c 0e be c6 25 e5 3d 04 03 13 3e 61 13 af bc
       -0.13908745 0.11188845 0.14356619 -0.021371545

a2c_network.mu.bias f4 [6]
000000 03 4d 22 be ae 2c 61 3d b7 79 36 3d 66 cc 87 3e
       -0.1584969 0.05497425 0.04454967 0.2652313
000010 68 a0 6f 3d 00 ec 68 3d
       0.058502585 0.056865692

exp_avg f4 [6]
000000 85 63 74 3a 76 33 b8 3a d7 cb 91 3b fd 38 89 3b
       0.0009322691 0.0014053422 0.0044493484 0.0041877017
000010 3b 06 d4 39 bb 12 0c 3b
       0.00040440433 0.002137347

exp_avg_sq f4 [6]
000000 eb 03 bf 37 e1 0c 07 38 ed 40 e8 37 e2 4c b4 37
       2.2770799e-05 3.2198503e-05 2.7686789e-05 2.1493473e-05
000010 ab 11 bd 37 bd 74 a3 37
       2.2538783e-05 1.9485475e-05
