IsaacGymEnvs/isaacgymenvs/runs/Bolt_13-21-30-35/nn/last_Bolt_ep_500_rew_10.056804.pth (torch, 612378 bytes, 36 tensors)

value_mean_std.running_mean f8 [1]
00000000: 8946 8edd 2a09 e53f
0.6573690726529132

value_mean_std.running_var f8 [1]
00000000: c1a6 4dc4 3b96 cc3f
0.22333476147769285

value_mean_std.count f8 []
00000000: 0000 0004 0070 9741
98304001.0

running_mean_std.running_mean f8 [30]
00000000: 65c7 c6b7 a37d 6dbf c836 9e99 fb62 933f
00000010: 1eb2 f429 1e01 aebf 3ee3 7e6a c25c a6bf
00000020: 4bd6 682e dc52 77bf 9221 0ddf 87bc 6d3f
00000030: 5fe2 0abb bca6 c4bf 2ea6 8c3e 71c5 963f
00000040: 1aa4 bf50 6d77 db3f 78ec eb11 d1cc bcbf
00000050: dcc1 f818 3824 973f faec d79c 597f e03e
00000060: 5c3d f94c 4e48 d5bf 76cf 7b19 164c b23f
00000070: 75d7 6ccb c0ae a8bf 7f23 04ee 3f8f d63f
00000080: f8bc 3166 f8a6 d13f ee5b 129c 4694 c93f
00000090: 1c31 7ef5 4b9f 3fbf 5bf8 016a ba50 523f
000000a0: 8efb 41f1 b0b3 613f 9ca8 04c1 5995 673f
000000b0: 4139 633c 4e1d 3abf 08a5 a27b 80f1 353f
000000c0: 9f7b d1de 474e e5bf 65d5 19d4 8094 c13f
000000d0: 6d18 3c61 70ea bbbf 4ab5 d5ed 66b5 e63f
000000e0: 0d19 2a91 82ac e13f b6e3 63d1 1a95 d93f
-0.0035999486555845944 0.018932276965236722 -0.05860227834850583 -0.043676448345144156 -0.005694255908158373 0.003629937528249091 -0.16133841641364463 0.022237557833397918
0.429164246421864 -0.11250025451220036 0.02259910252013407 7.866602483189232e-06 -0.3325381995864143 0.07147348520430605 -0.04820826037614171 0.3524932693840625
0.27581605892096617 0.19983751888932438 -0.00048251728502958654 0.0011178799104807544 0.0021608787447457483 0.002878833103882773 -0.00039847526603588665 0.00033482920447143504
-0.6658057548446442 0.1373444591187464 -0.10904600500006874 0.7096438069544686 0.5523083529704153 0.3997256321741206

running_mean_std.running_var f8 [30]
00000000: bde9 74a9 dc13 c53f d922 9511 f05a bf3f
00000010: 91a2 2c8f 41d3 c53f f334 5a5f cdcf cb3f
00000020: b89a 023f 78e2 d43f 7f8a 229b 6ec2 a33f
00000030: 1f6f f95d 0ce2 d23f 8379 d2f8 744c c43f
00000040: 199a 9648 747a d53f 85ba 94df f9f8 1340
00000050: e4f7 0f79 ca34 f43f 96bb e725 03ce 913f
00000060: 7244 b498 f3f2 b13f 273f a363 52ba a33f
00000070: d466 7d05 6c1e b73f 1be9 c79f 4df8 af3f
00000080: 56b7 2d7f 30b5 b73f 7555 4efd 9a06 c23f
00000090: cda8 9442 84e6 9b3f c616 34e0 4933 a93f
000000a0: 3158 1838 a6c0 a73f e46a 3faf 4e42 973f
000000b0: 5608 0a0d 1db6 a23f e0df 6b70 c6d5 9d3f
000000c0: bc5a 9ad8 0937 d53f 627f f2bf 6cdd cd3f
000000d0: 28be 1858 f3ff de3f cfef 20e8 d236 d23f
000000e0: e89f bd87 f093 db3f c7b2 f3a6 7c2c e43f
0.1646686389374973 0.12248135022413055 0.17050952425895052 0.21727912097814048 0.32632261422478903 0.03859277385460746 0.2950468938558845 0.1585832800819383
0.33559901322078783 4.99314069123523 1.2628884057044099 0.017387437046575714 0.07011339643601547 0.03853089777260115 0.09030795225171612 0.062441278223518824
0.09260848145433206 0.1408265816541349 0.027246538699878187 0.04921942579134746 0.046391672465844976 0.02271388001086451 0.03654566558999821 0.029135799991280353
0.3314842810881762 0.2333198487513029 0.484371982604872 0.28459618252577185 0.43090451484613235 0.6304305325298508

running_mean_std.count f8 []
00000000: 0000 0008 0070 8741
49152001.0

a2c_network.sigma f4 [6]
00000000: d135 fcbf 5f7f 08c0 fec9 b2bf 8d00 e2bf
00000010: ae2d d9bf 8590 91bf
-1.9703923 -2.132774 -1.3967893 -1.7656418 -1.6967065 -1.1372229

a2c_network.actor_mlp.0.weight f4 [256, 30]
00000000: 0039 ac3e c9e0 82be 6a1d 133e 868b f6bc
00000010: efde cc3d 6c70 243e ad43 61bd ae7a 8b3d
00000020: 819d ae3d cbbc 4cbe 4314 983d ac8d fbbd
00000030: cbe1 1c3d 637a dc3b 7ce6 853d c141 e83d
00000040: b5ae 253e 7fbb a83d 2971 823c 21e1 2ebe
00000050: 1cc4 1abe f2ce f8bd 3e73 a8bd de13 263e
00000060: 26bd ffbc 4dd8 d9bc ad91 d93d 8e8b 2f3e
00000070: f059 db3d bae7 3abe 15f8 2fbb c9fc 58bd
00000080: 0447 083e 0b46 23be 38f0 9fbc aea7 013c
00000090: dcd8 2a3e e976 1ebe cfc8 97bd 5182 14be
000000a0: 9938 ce3d 9bfc 06bd 217e 773e 9e9d e7bd
000000b0: dd57 67be b134 7dbe a795 0ebe 5b12 243d
000000c0: 5f23 c63d 35f1 073e ff48 23bd b958 81be
000000d0: 54c2 213d 24cb 8cbc bbce 053e b81b be3c
000000e0: fc89 443e b0b5 4abe 39cb 1bbe 14ac 1d3d
000000f0: 958d 383e ccd6 84bd 9726 403e 7d7d 373e
00000100: 3928 edbd 76ee 03bd dd77 3d3e ed67 90bd
00000110: 22c9 bdbd edc6 c2be 2024 4fbe b342 66bd
00000120: 1345 973d 765e 4cbd 0a93 1dbd 4e2f 5dbe
00000130: c4b4 abbd 7af7 a73c 1493 21be 17d1 80be
00000140: 13a5 8e3d 3407 e33d 05f4 613e 3822 82bd
00000150: 2270 d8bc cbf4 dabb 738d 7ebd d4cd 62be
00000160: 5f43 c93c 4546 9e3d 5926 1c3d 0b63 7dbd
00000170: 4791 a73d bf9b 30be f67f 36be 9acc 95bd
00000180: 0f3a 12be 6484 60be bb42 8a3e 1090 36bd
00000190: 309d 923e fa72 793e 5bff bfbd e82f 013e
000001a0: bd1e 16bd 9a9a f0bd d161 3bbe 1822 1dbe
000001b0: 9bc9 84bc 8d83 24bd f310 9c3b 8ed4 69be
000001c0: 274b 433d b70e a7bb 4053 0abd f509 943d
000001d0: 2303 9c3d 23b1 bd3d 0cbd db3d 7f9e d3bd
000001e0: ec8e b63c 3ab3 8fbd 59f4 793d c110 4cbe
000001f0: f3c8 0e3e 89df 57be 0ab3 ee3d a3c9 233d
00000200: 9346 513e f5e1 62be 0d8c 823e cc94 5d3e
00000210: b362 a0bc b5ce a5bd 73c9 8c3d a981 db3c
00000220: 3f8f a0bd 28c1 583e 774f 11bd 960d 193e
00000230: 2432 25bd 6c0d fabd c6a1 5d3c 7239 263b
00000240: 97ff 42be e0e1 803d 94b8 bebd b5a6 c23d
00000250: 4f31 e23d 537b 38be 8729 833d 8146 213e
00000260: 143e 5f3d 3dd1 3bbd 9e0a d73d df8b 97bd
00000270: 8e56 893c 51a6 06bd 4906 a3bd 1b91 12bc
00000280: e392 b1bd c675 a0bd 0830 0f3e 4fe8 183e
00000290: 9e78 47bd c901 3abd 4b97 27bb 0c42 c43c
000002a0: 998e b0bd 89d8 9c3d a335 cbbd 662e 27be
000002b0: b980 173e d596 473d 5b12 00bd 3735 0fbe
000002c0: 9298 26be f242 2ebe e272 97bd 543e 9b3d
000002d0: ac40 de3d 6e0b ad3d 2215 09be a084 c83d
000002e0: 0a42 7f3b 1f46 cb3d 51c5 4e3b 2c62 153d
000002f0: 2a40 8a3d 76e6 50be 55e0 78be 063e 343d
00000300: 9edb 20be 277d 9dbd 0f93 34be fefc 5c3e
00000310: ecb1 bb3d 2800 b03d 0529 173c d8ee 09be
00000320: eaae 3ebd 8618 d83d dda0 973d 84bd 3c3e
00000330: a3e8 ce3d 6506 30bc b26b c0bb 95da 02be
00000340: ad4c 43be e928 24be 7bb5 c93d 570d 03be
00000350: cbaf a63a 0ba0 53be edb7 813c e23e 0ebd
00000360: d346 eebd 454e 843d 728e 82bd fe2f f13e
00000370: 839b fdbd 319f 9fbd af9c cebc 2732 ddbd
00000380: f0b9 5bbd 1617 ecbd 38a5 3f3d 60d8 bb3c
00000390: fded 1cbc f245 5dbc 16ad 16bb 73a5 efbd
000003a0: b891 bd3c 3f4d 3d3c 178c 963c 4395 fd3d
000003b0: 8e33 913c 1a12 bc3d 7eaf b2bd 3f24 76bd
000003c0: cad6 323e eafb 96be c42b 843e 59a6 133e
000003d0: a029 893e c749 3a3d 3fc4 3ebd 3f7b 9cbc
000003e0: a843 f4bc 135a c8be df1c 2a3d 9c58 c8bd
000003f0: 4787 84bb da06 e0bc c898 0d3d a5d8 a039
0.33637238 -0.25562122 0.1436669 -0.030095827 0.10003459 0.1605851 -0.05499618 0.06810509
0.08526135 -0.19993894 0.074257396 -0.12282881 0.03830127 0.006728457 0.06538102 0.113406666
0.16179927 0.08238887 0.0159231 -0.17078067 -0.15113872 -0.12148847 -0.08225106 0.16218516
-0.031218123 -0.026592398 0.106234886 0.1714308 0.107105136 -0.18252459 -0.002685075 -0.05297545
0.1330834 -0.15944688 -0.019523725 0.007913513 0.16684288 -0.15475048 -0.07411348 -0.14502837
0.10069389 -0.032955747 0.24169208 -0.1130936 -0.22592111 -0.24727131 -0.13924275 0.040056568
0.09674715 0.13275607 -0.039864536 -0.25263003 0.039491966 -0.017186709 0.13067143 0.023206577
0.19193262 -0.19795871 -0.15214242 0.038494185 0.1802276 -0.06486282 0.18764721 0.17918964
-0.115799375 -0.032209836 0.18502755 -0.07051072 -0.09266879 -0.38042393 -0.20228624 -0.056215953
0.07386222 -0.049894772 -0.038470306 -0.21600077 -0.08384088 0.020503748 -0.15778762 -0.25159523
0.06965079 0.11085358 0.22065742 -0.06354183 -0.026420657 -0.0066820136 -0.062146615 -0.2214883
0.024568258 0.077282466 0.03812251 -0.061862033 0.08182006 -0.17246912 -0.1782225 -0.07314415
-0.1427996 -0.21925503 0.27004036 -0.044570982 0.2863555 0.24360266 -0.09374877 0.12615931
-0.036650408 -0.11748238 -0.18299033 -0.15345037 -0.016209414 -0.04016452 0.0047627627 -0.2283499
0.047679093 -0.0050981897 -0.0337708 0.07228462 0.07617786 0.09262302 0.10729417 -0.10332965
0.022284947 -0.07016607 0.061024044 -0.19928266 0.13943844 -0.21081366 0.11655243 0.039987218
0.20437078 -0.22156508 0.25497475 0.21638793 -0.019578313 -0.08096067 0.06874361 0.026795225
-0.07839822 0.21167433 -0.035476174 0.14946589 -0.04033102 -0.12209591 0.013527339 0.002536383
-0.19042812 0.06293082 -0.09312549 0.09504453 0.11044561 -0.18015794 0.06404405 0.15749551
0.05450256 -0.045853842 0.10500072 -0.07399725 0.016764905 -0.032873455 -0.07960183 -0.008945729
-0.086705945 -0.078349635 0.13983166 0.14932369 -0.048699014 -0.04541186 -0.0025572355 0.023957275
-0.08620948 0.07658488 -0.0992234 -0.16326293 0.14795198 0.04872783 -0.031267505 -0.13985144
-0.16269138 -0.17017725 -0.07394959 0.075802475 0.10852179 0.08449446 -0.13386968 0.09790921
0.0038949274 0.09925484 0.0031550715 0.036470577 0.067505196 -0.20400414 -0.24304326 0.044004463
-0.15708777 -0.076898865 -0.17634223 0.21580884 0.09164795 0.0859378 0.009226088 -0.13470018
-0.04655353 0.105515525 0.07403729 0.1843167 0.10102966 -0.010743712 -0.0058722133 -0.12778695
-0.19072218 -0.16031231 0.09849068 -0.12798057 0.0012717185 -0.2066652 0.015834773 -0.03472794
-0.116346024 0.06460241 -0.063748255 0.47106928 -0.12383177 -0.07794035 -0.025221197 -0.108005814
-0.05364412 -0.11527841 0.046788424 0.022930324 -0.009578225 -0.013505446 -0.002299135 -0.11701479
0.023140773 0.011554061 0.018377347 0.12381985 0.017724779 0.0918314 -0.08724879 -0.06009316
0.17464748 -0.2948907 0.2581464 0.14418925 0.2678957 0.045480516 -0.046573874 -0.019101737
-0.029817417 -0.3913122 0.04153144 -0.09782526 -0.0040444466 -0.027347017 0.03456953 0.0003067899

a2c_network.actor_mlp.0.bias f4 [256]
00000000: c272 253e 4cca 8b3d 998d b4bd 8f9a bc3d
00000010: fd1a 1e3e 8aec 313e 44aa a03e 99b7 fc3d
00000020: dc3e f33d 8846 c1bc 1b59 19be a6ec 6cbd
00000030: 610e 0ebe e978 173e c921 69be e458 ec3d
00000040: 74ea 143d 5d3b 263c 0dd1 00be a50b ea3c
00000050: 4c73 b0bd 195c fa3d f8fa 68bd 0ca8 13be
00000060: 81ae d43c 52e1 1bbe 17f3 0abd 2a02 c43d
00000070: 21a9 5d3e 9924 093e 28fa 31be 9be4 beba
00000080: a0a2 2abe c98e 15be 0069 293e 831f 483e
00000090: 88b3 993e c64e b0bd e0ae f83d 4077 2e3e
000000a0: cd4c 2a3b 8e12 3f3e dcee b83c 8b03 68bd
000000b0: 8579 1a3e f260 83bc ff23 243d 5d55 97bd
000000c0: 13a5 81bd 669a 24bd 93cc 81bd 090d 343e
000000d0: 6e78 32be 6ff7 063e fe81 853d a153 bc3d
000000e0: afb7 7ebd 7cd2 3e3e d7b6 513d 03c0 9bbd
000000f0: 75e0 48bd 813a 213e b605 b33d 34f3 4abe
00000100: 80bf 433d 70ff cbbd 668c 493e 2330 2cbc
00000110: 3577 1bbe 9163 153e 295e a8bd f54a ac3d
00000120: 91de 003e 3770 8e3d dde8 313e 1441 0a3d
00000130: 85db f6bd e67b f53d c4d5 5c3d 881b 4ebe
00000140: 2aee 243e da8c 66bd 9a85 463e b4dc d83d
00000150: 1a0c 3a3e e029 37be bdf6 7dbe 7ff4 0b3d
00000160: 6bea 76bd 46eb 2c3e 8292 ebbc c26e 2fbd
00000170: 0ffd 393e 9ec5 673d c40e 1c3c 0fe5 4e3e
00000180: 83c6 bd3c fae8 26bd 6336 c73d 2f4f 19be
00000190: 532f b63d 9391 0c3b d830 a63d bc81 343e
000001a0: edb6 03bd e02e debd 56d1 b83c d3a6 2a3e
000001b0: 4399 3abe a570 453d 797b 16be 559d e13d
000001c0: 66c3 803e 0368 243e 019c 423e f3d6 613d
000001d0: 62dc 42bc 65db 59bd cc27 243e 06be 0a3e
000001e0: e1a2 033e cc92 663d 2f4c ebbd 8e7e 153e
000001f0: 7b0f 353e dd8b f3bc dc6a 10be 571a 08bd
00000200: 8c9e 60be 3c01 4e3d 1032 a4bd 8de9 e43c
00000210: 10a0 b2bd 788d 20be cd0b 053e 71d0 93bd
00000220: f879 b9bd a5aa 87bd cbd7 dc3d 22ac 58bd
00000230: b8e9 343e fea4 733c 8007 0cbe 31b4 bd3d
00000240: 35bf db3d ceb5 033d b1d8 c7bd 338d 2fbc
00000250: fe0c 10bd ae81 09be d307 cf3d e75b 493e
00000260: 3663 7abe 6f32 493e 9795 febb 34fd 6fbd
00000270: f796 0a3e 1463 d5bc f14a 0abe c2dd 8e3d
00000280: c2be aebd 1bc7 853d 65e3 e23d 4a76 1c3e
00000290: a6dd 03be 89a0 f03b 2a6c 443e 6c78 f7bd
000002a0: cba7 17be 4792 eb3d dacb 273e 0fed 5b3e
000002b0: b142 2cbe 0b70 42be 2d9e ca3d f844 09be
000002c0: e7a8 3e3d cbcd 0b3e e9dc f7bd c1ac 3cbd
000002d0: 4cfc 9e3b cee3 2fbd b114 3ebd ca35 e23d
000002e0: 4ae7 133e 9c41 09be d239 3dbd 3426 ac3d
000002f0: f75b 49be 39ee d73b 2ec9 8dbe b385 553e
00000300: ba05 fabd 4c93 f33c 7079 1fbe a159 07be
00000310: f16a b7bd 9be7 c93a b768 aabc d6e4 09be
00000320: 77ae 55ba 69f6 df3c a0fa 683d f261 cfbd
00000330: 3a19 473e 8028 85bd 35b9 4abe 2b69 bfbd
00000340: 4a48 34be e191 44be 6a3e 04bc 357e 813b
00000350: 7228 96bb bb5b 833e f805 3d3e 4025 eb3d
00000360: 6c1f 12be 52e1 f3bd 264d 53be 2df1 84bd
00000370: 3d70 833e f358 46be 05a0 0a3e a52b 193c
00000380: 46d6 a83d 10f8 1abe f039 973d ba77 4f3e
00000390: c1c7 d6bc 86ac 0f3d 8d96 0d3e d35b f53d
000003a0: 2ba8 0abd 73fc 78be 97f3 203e a333 863e
000003b0: ed10 453d 13b2 eebc 4746 5bbe a06a da3d
000003c0: d97f 903d dd45 1a3c ff49 023e 243d 22be
000003d0: 6b49 593d bf6e 13be 4ebe 8ebd 2b3b ffbd
000003e0: 8c8e 333d 427c e03d f289 3e3e 47fc 253e
000003f0: 9ea5 f9bd d4c8 adbd 8e30 243d ea58 70bd
0.16157058 0.068256944 -0.0881607 0.09209167 0.15439983 0.17375389 0.31379902 0.12339706
0.11877224 -0.023593202 -0.14975397 -0.057842873 -0.13872673 0.14792217 -0.22766794 0.11540392
0.036356404 0.010145989 -0.12579747 0.028570006 -0.08615741 0.122245975 -0.056879967 -0.14419574
0.025962116 -0.15222672 -0.033923235 0.09570725 0.21646549 0.13392867 -0.17380583 -0.0014563979
-0.16663599 -0.1460525 0.1654396 0.19543271 0.30019784 -0.08608775 0.1214273 0.17037678
0.0025985718 0.18659422 0.022574835 -0.056644004 0.15085419 -0.016037438 0.04007339 -0.07389329
-0.063303135 -0.04018631 -0.063378476 0.17583098 -0.17428753 0.13180326 0.06518935 0.091956384
-0.062186893 0.18634981 0.05119976 -0.07604983 -0.049042184 0.15744974 0.08741324 -0.19819337
0.04779005 -0.0996083 0.19682464 -0.010509524 -0.15182193 0.14588763 -0.082210846 0.084127344
0.12584902 0.06954997 0.17373987 0.03375347 -0.12053589 0.119865224 0.0539148 -0.2012769
0.16106477 -0.05628667 0.19386902 0.10588971 0.18168679 -0.17887068 -0.24801154 0.034168717
-0.060282152 0.16886625 -0.028756384 -0.042830236 0.1816294 0.056584947 0.009525005 0.20204566
0.023165947 -0.040749528 0.0972717 -0.14971612 0.08895745 0.0021449074 0.08114785 0.17627615
-0.032156873 -0.108487844 0.022560757 0.16665201 -0.18222527 0.04820313 -0.14695539 0.11016337
0.25149077 0.16055302 0.19004823 0.055136632 -0.011893364 -0.053187747 0.16030806 0.1354905
0.12855102 0.05629234 -0.1148914 0.14599058 0.17681687 -0.029729778 -0.14103264 -0.033228245
-0.21935481 0.050294146 -0.08017361 0.027943397 -0.08721936 -0.15678966 0.12992783 -0.072174914
-0.09056467 -0.06624345 0.10783347 -0.052898534 0.17667282 0.01487088 -0.13674736 0.092628844
0.10729829 0.032155804 -0.097581275 -0.010714817 -0.03516864 -0.13428375 0.10108914 0.19663964
-0.24451908 0.19648145 -0.0077692973 -0.058591083 0.13534151 -0.02604822 -0.1350515 0.06975891
-0.08532478 0.06532117 0.11078528 0.15279499 -0.12877521 0.007343356 0.19181886 -0.120835155
-0.14810102 0.115025096 0.16386357 0.2147715 -0.16822316 -0.18988054 0.09893451 -0.13405216
0.046547797 0.13652723 -0.12102682 -0.04606319 0.0048518535 -0.04294186 -0.04640645 0.11045416
0.14443699 -0.13403934 -0.04619772 0.08405724 -0.19663988 0.0065896777 -0.2769255 0.20851783
-0.122081235 0.029733323 -0.15573668 -0.13217784 -0.08955944 0.0015404107 -0.020801885 -0.134662
-0.00081513025 0.027339177 0.05687964 -0.101261035 0.19443217 -0.065018654 -0.19797213 -0.09346231
-0.17605701 -0.19196273 -0.008071521 0.0039518126 -0.004582458 0.25655922 0.18459308 0.11481714
-0.14269799 -0.11908211 -0.20634899 -0.06491313 0.2567157 -0.19369869 0.13537605 0.009348785
0.082439944 -0.15133691 0.073840976 0.20260516 -0.026218297 0.03507664 0.13826962 0.11980405
-0.033851784 -0.24315052 0.15717922 0.2621127 0.048111845 -0.029137647 -0.21413527 0.10664868
0.07055635 0.009416071 0.1272354 -0.15843636 0.053048532 -0.14397715 -0.069698915 -0.12462457
0.043837115 0.109612 0.1860731 0.16209517 -0.12189792 -0.084855705 0.040085368 -0.058678545

a2c_network.actor_mlp.2.weight f4 [128, 256]
00000000: 46f7 de3d ed68 4b3e 895e 013c 1d7b 463d
00000010: da94 5a3d 0df1 8e3c a7f6 87bd d853 acbb
00000020: 5149 1f3c 9d90 0f3e 73c3 983d 54c3 e33d
00000030: 3c87 3f3d e50b 83bd ffe7 07bd f7c0 863c
00000040: 94a5 96bc 9084 a03d 25a3 e73d f873 993b
00000050: 972a a3bb 6721 043e 857e 13bd 7c04 8a3d
00000060: 098c e0bd 90e3 19bd fbfb 2e3d e351 6bbd
00000070: e12f f9bd 79fb 343d 0552 d53c 25dd d23a
00000080: 6770 003d 1d52 ac3d 685d 543d b3df 153d
00000090: 113b e4bd 5e6d 103e 30d0 043d 17ab c2bd
000000a0: d2fe 1abc ef80 133d 5fec 53bb 4c6c 8d3d
000000b0: 4cdf 8dbd 81aa 293e 8f21 9ebc 70fb f6bb
000000c0: 4d77 6abc 8400 e0bd 1194 7ebd 08e5 933b
000000d0: 3451 efbd fbe0 cf3d e00a 153e 3d08 b1bc
000000e0: aadf 2dbe d5a7 413c 8f78 ca3d 9a50 b1bb
000000f0: cb5e 0d3d 30fd 0fbd 6f83 71bb 7b84 193d
00000100: dd54 b23d 4109 923d 01e0 9a3d 02a2 cabc
00000110: 4eff 35be ba38 993d 38a8 833c 840a 04bd
00000120: 42a9 dfbb ac96 e13c 3009 a6bd 2263 253d
00000130: bcbd 65bc 8e6d 8f3c 07d1 d4bc e136 333d
00000140: 4bf9 893d 192c 5abd 13f3 cabd 8627 3dbd
00000150: 2bc5 5bbd 2ff9 52bd 08a1 3d3d 883f 8d3b
00000160: f012 b13d 5826 19bc e437 8ebd 39dd 003d
00000170: 5952 1f3d cb18 2f3d 9f47 79bc 777e a73d
00000180: f118 cd3d ac8d 87bd 2434 5a3d faeb 59bc
00000190: ba50 cebc 3015 7abd 17f6 c13d 7da5 5bbc
000001a0: ab04 68be c0e0 103d 599e 503c 8452 1abd
000001b0: 39a7 8bbd d147 443d 018a 493e d3a7 b73d
000001c0: 9e4c e03b 5012 be3d b49f 0c3e 6a2e a93d
000001d0: b5b5 b4bd ff02 c2bd fa44 2a3e d210 373d
000001e0: 34e7 c3bc c8ad a7bd 8f88 b83c 5d87 36bb
000001f0: 6275 e1ba d240 fa3c 8141 81bd eca6 ad3d
00000200: 52c1 02bd 8a47 353c ff0d 0fbd 8c25 74bc
00000210: 4963 7d3e d46d 1ebe 986d 143d 07d7 963d
00000220: 0369 1fbd 8490 f43d 8cae 4c3d 0358 27be
00000230: b698 b43c b9d5 8a3d d57e 683d 7d6c 90bd
00000240: 8672 bebc 65ed 04be 10e5 13bd ed3d bf3c
00000250: 1430 3c3d 5b59 b43d c6f6 7f3d 05dc b43c
00000260: 22c9 233d 4192 d13d 57a9 bebc 75c7 87bd
00000270: 995f 3e3d 8971 773d a516 c23d cda8 e7bd
00000280: 0840 bf3d d608 863d dbea acbd 736f 213d
00000290: d558 883d dfe2 f33d 8d52 4d3d 3876 94bd
000002a0: 6489 c53c 18e0 fe3c 09bd 0f3d afe1 933d
000002b0: d5e2 c9bc cb68 e53d 4dd8 0dbb 0a3b 1bbc
000002c0: faaa b4bd 9271 64bd 770c 02bd 226d 673d
000002d0: d8b6 663b 39d2 84bd cfc8 a9bd df44 e0bc
000002e0: 3f90 a4bc 97f3 46be c6e4 8cbd 73ef 2a3d
000002f0: 77e3 043d c820 e33c 8ad3 0e3e 7b50 203e
00000300: 0dd2 b03d 994a bc3d c81a 2ebe 5fbd d13c
00000310: 3784 423c 66de f6bc 6d5b aa3d 996b 403c
00000320: 3752 39bd fb21 e13d 0797 b33d b04d 3fbc
00000330: 488f 27be b947 733d 3316 ac3c 3482 ba3c
00000340: 41a5 54bc 6b63 a6bd e460 31bb ce72 a43a
00000350: 83ef 393d e57b 96bd adc2 5a3d 6f85 8bbd
00000360: 8f30 bcbd 24df be3d e499 88bd 7adf 60bd
00000370: a39d 843c c865 553d b900 d2bd 8824 1c3b
00000380: aaff dabd 7b7e c6bd d170 71bd 1e5e 2eb9
00000390: 47ea 243e b9c0 d53d 020b 3abd 5448 a73b
000003a0: 89a5 11bb 624a 40bd 3c27 30bc 6294 57bd
000003b0: a690 6fbd bd04 2ebe 1b99 86bd 5f76 09bd
000003c0: aad1 ab3b 2318 703d d676 97b9 bddf 413d
000003d0: 8635 803d 88bd 8ebd 703b 34bd 9a80 ab3d
000003e0: 6869 89bd 3395 553d 9269 e13d eea3 2f3d
000003f0: 9800 bb3d 5f5c 593d 88e2 9bbd 34fc 46bd
0.108870074 0.19864245 0.007896074 0.048457254 0.053364612 0.017448926 -0.06638842 -0.0052590184
0.00972207 0.1402001 0.07459154 0.1112124 0.04675983 -0.06398753 -0.033180233 0.016449435
-0.0183895 0.07837784 0.11310414 0.004683014 -0.0049794423 0.12903367 -0.03600933 0.067391366
-0.109642096 -0.037570536 0.042720776 -0.05745114 -0.12167335 0.044185136 0.026040087 0.0016087635
0.031357195 0.08414099 0.05184689 0.03659029 -0.111440785 0.1410422 0.032425106 -0.09505289
-0.009460168 0.036011633 -0.0032336933 0.069054216 -0.06927356 0.16568948 -0.019303111 -0.007537298
-0.01431067 -0.10937598 -0.062152926 0.0045133866 -0.1168541 0.101503335 0.1455493 -0.021610374
-0.16979852 0.011819799 0.09886276 -0.00541122 0.03451423 -0.035153568 -0.0036852022 0.03747986
0.08707593 0.07130671 0.075622566 -0.024735454 -0.17773172 0.07481523 0.016071424 -0.03223659
-0.006825597 0.027537666 -0.08107221 0.040377744 -0.014022287 0.017508294 -0.025978578 0.04375351
0.06737002 -0.05326471 -0.09909644 -0.04618027 -0.05365483 -0.05150717 0.04629615 0.004310552
0.0864619 -0.009347521 -0.06944254 0.031460974 0.038896892 0.042748254 -0.01521483 0.08178418
0.10014523 -0.06618819 0.05327238 -0.01330089 -0.025184978 -0.061055362 0.09470766 -0.013406155
-0.2265803 0.03537059 0.0127330655 -0.03767635 -0.068190046 0.047920052 0.1968155 0.08967557
0.006845071 0.092808366 0.13732797 0.08260806 -0.0882372 -0.09473228 0.16627875 0.044693775
-0.023913957 -0.08187443 0.022526054 -0.002785168 -0.001720112 0.030548487 -0.06311322 0.084791034
-0.031922646 0.0110644195 -0.034925457 -0.01490153 0.24744906 -0.15471584 0.03623733 0.07365232
-0.038918506 0.11941627 0.04997115 -0.16342168 0.022045474 0.067790456 0.05676158 -0.070519425
-0.023247968 -0.12981184 -0.036107123 0.023344958 0.04594429 0.08806106 0.0624912 0.02207757
0.039986737 0.10232974 -0.023274107 -0.0662984 0.046477888 0.06041101 0.09476975 -0.11311493
0.09338385 0.06544654 -0.084432326 0.039412927 0.06657568 0.119085066 0.050127555 -0.07249111
0.024113365 0.031112716 0.035092387 0.0722078 -0.024644295 0.11201628 -0.0021643818 -0.009474525
-0.08821674 -0.05577237 -0.03175017 0.05650056 0.0035204198 -0.06485409 -0.08290254 -0.02737659
-0.020088313 -0.1942886 -0.068795726 0.041732263 0.03244349 0.027725592 0.13947883 0.15655701
0.08633814 0.09193916 -0.17002404 0.025602994 0.011872343 -0.030135345 0.08318219 0.011744403
-0.04524442 0.109928094 0.087690406 -0.011676237 -0.16363251 0.059394572 0.02100668 0.022767164
-0.012978853 -0.08124431 -0.0027065808 0.0012546421 0.04539443 -0.0734785 0.053408314 -0.0681256
-0.09188949 0.093199044 -0.06669977 -0.054900624 0.016188448 0.05209902 -0.10254044 0.0023825485
-0.10693295 -0.09692093 -0.05894548 -0.00016628994 0.16104995 0.104371496 -0.045420654 0.0051050577
-0.002222391 -0.046945937 -0.010751542 -0.052631743 -0.058487557 -0.16993995 -0.06572171 -0.033560153
0.0052434998 0.05861677 -0.00028889504 0.047332514 0.06260209 -0.06969744 -0.044001997 0.08374138
-0.06709558 0.05214424 0.11006464 0.042880945 0.091309726 0.053066608 -0.07611567 -0.048580363

a2c_network.actor_mlp.2.bias f4 [128]
00000000: 6bef 90bc 7594 6cbc 509b 93bd 4f6b 713b
00000010: 2852 5dbe 2d4d 913d efb3 93bd ba94 d33d
00000020: 5ffe 3ebe 9653 a9bd be42 5b3d 63e5 15be
00000030: 700f 03be cb74 953c 6088 4cbe e593 2abe
00000040: 1c45 5dbd 6d3e a43d 2a86 a3bd 2f8c 26be
00000050: 771b 2b3c 5f60 093e 4825 193d 7dfd 973d
00000060: 92bd a9bc af50 723d d63b db3d 6d22 403d
00000070: 5bf9 0a3e 81ed e5bd f407 9f3d 2fab 7dbc
00000080: 98e9 f9bd 8c86 debd 8754 e2bd 5295 c4bc
00000090: 44c8 943d 5870 c0bb 1236 8ebd a35e 273d
000000a0: 60a0 08bd fbfd 623d 3ba9 2ebe e768 1abe
000000b0: 272f a63c 8ab5 f0bd ee2f 823d a6fc 11be
000000c0: 2284 65bd 7645 c0bd 7db0 37be c908 87ba
000000d0: ff91 73bc 7f1b 4dbd 6cfc 51be 5188 27be
000000e0: b91a dbbd a43c fd3d 0b18 f43c 3773 e23c
000000f0: c7e7 37be 8b56 ddbd dd28 37bd 6652 4dbe
00000100: afdd 41bc 2238 f23c 7c25 d93c e006 8d3d
00000110: 0061 37be e6e0 ce3c 46a2 10be d196 50bd
00000120: f25c 2abe 2fcc 073d 14b3 e0bd ef23 4c3d
00000130: 4fc2 87bd 2fd6 c8bd 7e1d cabd 5346 efbd
00000140: fe13 263e 1e20 17be 1962 d8bd 8230 1cbd
00000150: e490 ff3d cb6e 05be ac9c 2bbe e91b aabd
00000160: 5763 59bc 6430 4a3e 8712 1bbd e7f3 0d3d
00000170: 78c2 cf3d 66e8 f6bd f20b d5bd 9241 27be
00000180: f345 82bd ebfd 35be a326 4abe 50ff 2fbe
00000190: c6c8 a03d fb12 28bd 0065 a03c f61c c5bd
000001a0: 73cf 93bd 4895 adbd 2340 903d 0fe7 92bd
000001b0: b36f 89be f87f a7bd 7b0b 78be 099e 80be
000001c0: c3da b5bb 9b93 13be 8c9f a5bb cf0c fbbb
000001d0: 3768 f5bd 2ee6 f93c ffab 25bd 5063 df3c
000001e0: 9250 64be 0cd6 8b3d c623 023d 4b21 0c3d
000001f0: 8e07 ddbd 5268 433e 9739 c3bd ac6a 063e
-0.017692288 -0.014439692 -0.07207358 0.0036837643 -0.21613371 0.07094798 -0.07212054 0.10331102
-0.18651722 -0.08267896 0.053530447 -0.14638285 -0.12798858 0.018244168 -0.19973898 -0.1665798
-0.054020986 0.08019719 -0.07984574 -0.16264413 0.01044356 0.13415669 0.03738907 0.07421396
-0.020720277 0.059158977 0.10704772 0.04690783 0.13571684 -0.11226941 0.07765189 -0.015482708
-0.122027576 -0.108655065 -0.110512786 -0.023996983 0.0726476 -0.0058727674 -0.06943907 0.040861737
-0.03335607 0.055417996 -0.17056744 -0.1507908 0.020286156 -0.11753376 0.06356798 -0.14256534
-0.056034215 -0.093882486 -0.17938419 -0.0010302301 -0.014866351 -0.05007505 -0.20506448 -0.16360594
-0.10698456 0.12365082 0.02979662 0.02764283 -0.1795951 -0.108075224 -0.044716705 -0.20050964
-0.011832639 0.029567782 0.026507132 0.06886077 -0.17908096 0.025253724 -0.14124402 -0.05092508
-0.16637018 0.03315371 -0.109716564 0.049838956 -0.06628858 -0.09806477 -0.098689064 -0.11683335
0.16218564 -0.14758345 -0.10565586 -0.0381322 0.124788076 -0.13030545 -0.16758984 -0.08306105
-0.013268313 0.19745022 -0.037859466 0.03465643 0.10144514 -0.12056045 -0.10402669 -0.16333607
-0.06360998 -0.17772643 -0.19741301 -0.17187238 0.078507945 -0.041033726 0.01957941 -0.096246645
-0.07217302 -0.08475739 0.07043483 -0.07172977 -0.26843032 -0.08178705 -0.2422313 -0.2512057
-0.00554976 -0.14411776 -0.00505442 -0.007661439 -0.11982768 0.030505266 -0.04044723 0.027269036
-0.2229636 0.068279356 0.031772397 0.03421144 -0.107924566 0.19082764 -0.09532469 0.1312663

a2c_network.actor_mlp.4.weight f4 [64, 128]
00000000: 0a97 8fbc 383c 75bc eba9 a83d 52ff e9bb
00000010: 576b ddbd 8e57 2a3d dd0a 133d 81ab 8dbd
00000020: 6d9f ddbd 8d41 c23d a940 743d ea4b cabc
00000030: 9ba8 b8bd 3a8b 0c3e f99b 1ebd 4439 2cbc
00000040: 1c0e a33b eda4 c93c 798b 0ebe fe8c a93c
00000050: dd71 8d3c 747e 54bd b083 f7bd f09a 49bd
00000060: eae8 b13c f38d 59bd 2186 9c3d 3f94 17bd
00000070: c08d 1ebd a3a9 0a3e a5c9 e73c bf28 80bc
00000080: fc3b 0c3d e52f 72bd 2536 b3bd 34c0 d0bd
00000090: 5384 94bd 374d d4bd 2de8 87bd 0814 02be
000000a0: 73f7 07be 3ac5 e9bb 58e4 3e3d 0c08 e9bb
000000b0: 0e11 01be 6a3a ffbc 95cb b8bd 0888 11bc
000000c0: 0cd7 c2bd 85f3 dbbd ae10 713d e03a d6bd
000000d0: 06c7 12bd 3aed e6bb 7620 5e3c 6c47 113d
000000e0: 4614 38bd 8256 88bd bbd3 86bd ec1b 5bbc
000000f0: cedf d83d b546 7039 4ecb 02bd 5702 903a
00000100: fde5 b53c bca2 1dbd 02bc ab3d 4062 ba3d
00000110: bdb8 95bd d1e7 473d d2df 05be f0c8 90bd
00000120: 583e 9ebd 7987 b73d 553a dc3d 2171 18bd
00000130: 5515 0cbc e01b c6bd f885 81bd 7668 37be
00000140: 97b8 113d 848b 643c a52a f3bd d6de 163e
00000150: 3735 b4bc a822 38bd 6711 6ebc ab7c 92bd
00000160: 1d76 e2bc f2df 8fbb 37ed 87bd 65c2 e23c
00000170: 3f5b 94bc 2053 c2bd 3c4d b5bd 15a4 89bc
00000180: aa0b 2ebe 4c8c 67bc 542f 433d 53cc 283d
00000190: 3171 a7bc 48c9 aabd f6d8 873d a7d5 2d3d
000001a0: 3f90 7c3d 2a83 8e3c 58aa fb3b de36 1abd
000001b0: 80cc 22bd 674e 543d 16c7 7fbd 8d90 1bbe
000001c0: 2ce1 7cbd 6a8d 98bc 9076 c83d 2870 283d
000001d0: 7c04 193c bbb5 3c3d 5cbc 79bd 3707 abbc
000001e0: 912f 06bc 400c 32bc 8cf6 83bc a275 8e3d
000001f0: 91ad a1bd 9084 8dbd 66bf 64be 1fd0 50bd
00000200: 64fc 173d 91cb 4a3c b88e f03d 8201 8b3c
00000210: a041 cc3b c356 eb3b ea6b b9bd 196d bfbc
00000220: 3645 ac3c 8339 1ebd 197c d2bc c744 c73b
00000230: 17e5 86be a6eb b13d 1e7f 4f3d 7249 0d3d
00000240: b78e c43c ca14 a3bd ba7c 66bd 0a7c cabd
00000250: 7fdc c23b da6b 593c ebab aebd 723b 84bd
00000260: 86fb 0e3e e9ed b6bd 2c60 473c d3e0 1abd
00000270: a9bc 14be 4c9b 9ebe 1813 b73d 8687 c23d
00000280: 5fcb 34bd 5976 84bc 10e4 5a3d 4fc4 9f3d
00000290: bb60 a33d 2506 a13d 1c0a e4bd 98f0 943d
000002a0: 408f e63d fd01 303d 8073 06be 3d9a 4b39
000002b0: 74ca 04bd 2e69 b5bd 3dde f0bd b54b 0fbe
000002c0: a630 adbd f1e1 72bb 7133 adbb 0b71 983d
000002d0: 7fbd 9abd cfa8 0a3e fc0f e73d d2ac 28bd
000002e0: 30aa 83bd e246 4cbe 96bc 11bd 3484 ebbd
000002f0: 83a5 563e 47db ec3c b97f a8bd 5ef7 843d
00000300: 1324 62be 9e84 ddbc 9a0b 973d 9fe9 e03d
00000310: 3c6a 863c d860 0b3d 8fa1 ed3d 2229 c23d
00000320: 401d 143e 2fa2 8a3d b68b 9ebb 427a 073d
00000330: 4a94 103d d243 d03c a0e3 e4bb b64b 80be
00000340: 4493 af3d 0e7c 27bd edf3 a9bd 39b9 3e3d
00000350: 94ba 09bd e199 043c 3529 573d 24ee c03c
00000360: 274f cc3d b9fc 5dbb 6543 12be 94f0 5a3d
00000370: 4197 91bd de04 81bd 5927 c63d d622 003e
00000380: ea14 bf3a deb3 8c3c 337d 80bd d745 68bc
00000390: 05ca 153d fbff 093d 1e28 0c3d 2498 f3bc
000003a0: e9ed 323d 3105 353d 40bf 8cbd fa60 12be
000003b0: 233f 95bd b530 dbbd 4a2d 303d ffd8 833d
000003c0: 2206 82be c771 98be 3b1c 7c3d a806 b6bd
000003d0: e02a 983b 8249 98bd c8b9 3e3d 716b c63d
000003e0: eb1b b93d 3b16 6c3d c895 143c cb9f afbd
000003f0: 82ea 043e 0fcc 98bc 331d 003e ab06 1cbd
-0.017528076 -0.014967971 0.08235534 -0.0071410323 -0.10811489 0.041587405 0.035899032 -0.069174774
-0.10821424 0.09485159 0.059631977 -0.024694402 -0.09016534 0.13724986 -0.038722966 -0.0105117
0.004976047 0.024614776 -0.13920392 0.020697113 0.017266208 -0.051878408 -0.12085664 -0.049220026
0.021717507 -0.05311389 0.076427706 -0.037006613 -0.038709402 0.13541274 0.028294394 -0.01564443
0.034236893 -0.059127707 -0.087505616 -0.1019291 -0.07251801 -0.1036629 -0.06636081 -0.12702954
-0.13277988 -0.007134107 0.046604484 -0.007111555 -0.12604162 -0.031155784 -0.09023205 -0.00888253
-0.09513673 -0.10739807 0.058853798 -0.10460448 -0.035834335 -0.0070473226 0.013557544 0.035468504
-0.04494121 -0.06657125 -0.06583353 -0.013373356 0.10589562 0.00022914524 -0.031932168 0.0010987025
0.022204394 -0.038485274 0.08385469 0.09100771 -0.07310627 0.04880506 -0.13073662 -0.07069576
-0.07726735 0.08961386 0.107533135 -0.037217263 -0.008550008 -0.096732855 -0.06324381 -0.17910942
0.03557643 0.013949279 -0.11873368 0.14733443 -0.021998031 -0.044954926 -0.014530516 -0.07152685
-0.027644211 -0.00439071 -0.06637042 0.027680585 -0.018109916 -0.09488511 -0.08852622 -0.016801873
-0.16996637 -0.0141325705 0.047652557 0.041210484 -0.020439716 -0.083391726 0.06633179 0.042440083
0.061661 0.017396528 0.0076802187 -0.03764998 -0.039745808 0.051832583 -0.062445723 -0.1519186
-0.061738178 -0.018622119 0.09788239 0.041122586 0.009339448 0.04607175 -0.06097065 -0.020877464
-0.008190052 -0.010867178 -0.016108774 0.069560304 -0.07894433 -0.0691005 -0.22338638 -0.05097973
0.037105933 0.012377636 0.117459714 0.016968492 0.006233409 0.0071819737 -0.09053786 -0.023367452
0.021029096 -0.038629066 -0.02569394 0.006081197 -0.26346657 0.086875245 0.050658338 0.03449387
0.023993833 -0.079629496 -0.056271292 -0.0988694 0.0059466953 0.013270343 -0.085288845 -0.06456651
0.13963136 -0.089320965 0.012168925 -0.037812065 -0.14525093 -0.30977857 0.08939189 0.09498505
-0.044139262 -0.016169714 0.053440154 0.07801115 0.07977434 0.078625 -0.11134741 0.07272452
0.112577915 0.042970646 -0.13129997 0.00019417047 -0.032419637 -0.08857952 -0.117611386 -0.13993724
-0.084565446 -0.003706094 -0.0052856733 0.07443436 -0.07555675 0.13540958 0.11282346 -0.04118044
-0.06428945 -0.19948915 -0.03558024 -0.11499825 0.20961575 0.028913153 -0.08227486 0.06492494
-0.22084074 -0.027040776 0.0737526 0.1098206 0.016408078 0.034027904 0.116030805 0.09480502
0.14464283 0.06769215 -0.004838432 0.03307558 0.03529767 0.025422964 -0.006985143 -0.25057763
0.085730106 -0.040889792 -0.08298478 0.04656336 -0.0336252 0.008093328 0.052529532 0.023551054
0.099760346 -0.0033872558 -0.14283521 0.05345209 -0.071089275 -0.062997565 0.09675474 0.12513289
0.0014578376 0.017175611 -0.0627388 -0.014176807 0.036569614 0.033691388 0.034217946 -0.029735632
0.04368392 0.044194404 -0.068724155 -0.14294806 -0.07287433 -0.107026495 0.04301194 0.06437873
-0.25395304 -0.29774305 0.06155036 -0.08887988 0.004643783 -0.074358955 0.046563894 0.096884616
0.09038528 0.057638388 0.009068914 -0.085754 0.12980083 -0.01865199 0.12511139 -0.038092297

a2c_network.actor_mlp.4.bias f4 [64]
00000000: 6c4a c53d d544 683d e1cc 2fbe 7939 d73c
00000010: b9b6 de3d 8153 663c a784 17be df70 1cbe
00000020: f07e 3d3e d4ce a93d a064 e03c 8d39 7abd
00000030: 88b4 d93d 99a3 30be b40f 18be 6f56 93bd
00000040: c61c ac3d 5a39 ecbd f28f a33d 333a 243e
00000050: f534 32be 6af6 643d 65b1 f9bd ddad b13d
00000060: a523 433d 5feb 1c3e ff48 533c a5bc 1f3e
00000070: fc0b 1c3e 8f18 ed3d 3044 43bc f57f 43be
00000080: 791b 14be 48c3 94bd ec16 303d 7a9e 233e
00000090: 9413 bcbd d638 0dbe 7ea3 c93d 4028 db3d
000000a0: 7ce9 113d 9ba2 5c3d 9551 babd 92d3 0f3e
000000b0: e192 17be f4a7 cebd 8c71 6ebd 0ec1 91be
000000c0: bf05 e13c 3d5a bf3d fb1a f53d b74d 983d
000000d0: 5488 133e 6487 2bbe c33a adbc 722e 42be
000000e0: 2564 b5bd 0dbc 313e e5c1 3ebe 08a5 44be
000000f0: e60f f3bd a1c7 023e d307 0e3e 69b0 38be
0.096333355 0.05670627 -0.17167999 0.026272522 0.10874695 0.014057995 -0.14796697 -0.15277432
0.18505454 0.082914025 0.027391732 -0.06109004 0.10630137 -0.17249908 -0.1484974 -0.0719422
0.084039256 -0.115343764 0.0798644 0.16037826 -0.17403014 0.05589906 -0.121920384 0.0867574
0.047641415 0.15324162 0.012895822 0.15599306 0.15238947 0.1157695 -0.011918113 -0.1909178
-0.14463605 -0.072638094 0.04299061 0.15978423 -0.09183422 -0.13791212 0.09845637 0.107010365
0.03562306 0.05386601 -0.09097592 0.14045551 -0.14802124 -0.10090628 -0.058213755 -0.28467602
0.02746856 0.093433835 0.11968037 0.07436698 0.14407474 -0.16750866 -0.021146184 -0.1896303
-0.08856992 0.17356892 -0.18628652 -0.1920358 -0.11868267 0.12771465 0.13870172 -0.18036045

a2c_network.value.weight f4 [1, 64]
00000000: d117 4c3d 67d6 623d 2a2a b9bd b466 93bc
00000010: fe89 183d a4a6 e63d 9885 a1bd 7647 41be
00000020: afe4 733c d6cd 0e3d 1366 e53b 8ac4 213d
00000030: 78f8 b83d 9b72 cebd 6b90 d1bc c288 8abc
00000040: e13e 913d 832c 7ebd 1682 113f c0f3 be3d
00000050: 26ed 0bbe a1e4 be3c a83d 2cbe 706b d23d
00000060: 8cba 173c cc45 f13d 225f 5f3d 0511 ab3d
00000070: 2596 a83d d5f2 ec3d 943b a63c fadb e939
00000080: 91e2 333b 3fec dbbb fa7d e93c d192 7b3d
00000090: 7ea3 08bc 11c7 6abd d881 953d 9cd4 fc3d
000000a0: 80c8 633c 4861 353e 7034 9dbd 7732 0d3d
000000b0: 3aa4 043b 1053 71bd 16ff 93bc fe9c cd3b
000000c0: ce52 21bd 5f1d 913d 547c 283d f987 703c
000000d0: 4666 6b3d 5076 44bd 5dbd d73c f6f9 b8bd
000000e0: bbe7 51bd cba2 4c3e e68f d4b9 05d3 94bd
000000f0: 6ff9 b83c 167c 10bd 7534 3a3e 2517 02be
0.0498274 0.05538025 -0.09041245 -0.017993309 0.037240975 0.11262253 -0.07886809 -0.18874916
0.014886065 0.03486427 0.0070006936 0.039494075 0.09031767 -0.10080453 -0.02558156 -0.016910914
0.07092071 -0.06205417 0.5683912 0.093238354 -0.13664684 0.023302378 -0.16820395 0.10274398
0.009260785 0.11780891 0.054534085 0.083528556 0.08231763 0.11569754 0.020292081 0.00044605118
0.0027448277 -0.0067115123 0.028502453 0.061419312 -0.008339761 -0.05731875 0.07300156 0.123452395
0.013902783 0.17712891 -0.07676017 0.034471955 0.0020239488 -0.058917105 -0.01806597 0.0062748184
-0.03938561 0.0708568 0.041134194 0.014680856 0.057470582 -0.047964394 0.026335413 -0.09032051
-0.051246386 0.19983976 -0.00040543004 -0.07266811 0.022579877 -0.035274588 0.18184073 -0.12704141

a2c_network.mu.weight f4 [6, 64]
00000000: a701 92bc 760e a5bd 5a73 673d 264a 06be
00000010: 7553 4bbd 9ff2 46bb a6de 0e3d 939d 263d
00000020: 0a54 05be e199 46bd c3a4 0fbe eb69 c03d
00000030: 337c 1f3d 0a17 a33c c063 453e 6e8d 6cbd
00000040: f4d2 c23c 4e1f 413d 8deb 583d 46e5 673d
00000050: 7dac 833c ea8f 9a3c f65f a2bd 5e96 dc3c
00000060: d3a9 93bd e7ea c5bd 501b a13d f61b 04bd
00000070: ce3d 9639 6105 7a3d 863f 833d 0348 763e
00000080: 19b1 c63d 2f81 cabb 0ba0 2dbd d504 60bd
00000090: ff6e b33c 3a82 bbba 9bb4 96bd ad30 61be
000000a0: a79d 91bd a97f b5bc 36af cbbc 08e9 9ebc
000000b0: 16bd 1d3e 5912 8e3d b300 103d eba9 d43d
000000c0: f032 9abd 6a37 e63c 2a47 2bbd c48c 0abe
000000d0: bd94 adbc a64e 183e b796 1b3e ce29 c63b
000000e0: 5807 dfbd d936 313d 160a 28bd 11ce 353d
000000f0: fa7c 033e 2716 2fbc ee57 01be 8cde c43d
00000100: 8330 08bd e718 88bc d6e1 823d d683 983c
00000110: df39 88bb 48a0 383e 1641 b5bc 2786 8dbd
00000120: d7e1 bcbd cf25 063c bc0b 18be 87b8 783d
00000130: b318 4d3d ce50 c8bc 72a8 223e 17d9 71be
00000140: 9395 ffbc 8131 db3c fc10 dc3c b221 8d3d
00000150: 46d2 e8bd b6b5 c4bd cd30 163d e903 aabd
00000160: d181 043e 1291 4abb 212d e8bd ac83 ce3d
00000170: 8a4b 84bd 57a4 66bd 0159 acbd 9a8d 06be
00000180: b2ee d8bd 6d1b c13d 8611 1b3d d6c0 dcbd
00000190: 0dad b5bd ef7b 8c3d 0b1a 103d 2c30 203c
000001a0: dad1 49be 30ae 4abd daac 9e3c a6bc b3bd
000001b0: 1da2 1e3d f614 3cbe 03de f73d c64d c03d
000001c0: 295d 8aba 2458 bb3d b8e0 82bd f087 053d
000001d0: 0666 8ebd 5d6b 26be 1175 1f3b 778c ecbc
000001e0: b6fa bc3d 8890 5cbd fd87 65bd 55ed c63d
000001f0: 3f32 20bc 426a 94bd 6666 98bc 54e9 51bd
00000200: 573e 31bd b905 203e 25de 5cbd 9619 643d
00000210: b037 933c b435 543e 453f 31bd 8a13 853d
00000220: 9a0e aa3d 301a 363b 5508 96bd 897a abbd
00000230: 1f58 323d 7398 14bc 92a3 733d 77c3 f0bd
00000240: 9f45 153e d58e 303d 4d61 393c 3f88 13bb
00000250: 1ef4 a93c ccf2 30be 8dd8 69bd 04a5 a43d
00000260: e886 33bb 5d30 fabd 1f1c e3bd 9f62 223e
00000270: 2f19 a5bc c9dd 84bc 85d6 fa3d 4a03 ecbc
00000280: 8779 933d 59b9 d63d 2771 40bd d728 fcbd
00000290: 4b6c 35bd 7a17 c93d b126 343d a8d3 233d
000002a0: 2191 d73d 9c91 93bc 5d73 0b3c 8707 633d
000002b0: 6d7a 313e 62f2 0fbe 3563 833e 0690 ea3d
000002c0: 0356 7bbd 172a 87bc 74e0 9d3d 8918 7e3d
000002d0: 0a0d 4d3c 1c8b 97bd 9301 c5bd 4019 213b
000002e0: d55c c03d 2301 2fbc 9b69 87bd beb6 d2bc
000002f0: 3ab4 65be b6e0 853d ef03 8fbc efc4 a7bc
00000300: a453 9b3d b713 113e 3635 04bd d2b6 f33d
00000310: 20d3 14bd 78aa 0b3e 255b 3f3d 89af bb3c
00000320: 4aef a93d bbac 31bd 6466 ec3d c9ea 5d3d
00000330: 0512 173d 38a4 a7bd 9a7f 743d 2d73 933c
00000340: fb00 bfbd 8372 a13d b493 a0bd 5826 043e
00000350: a514 b0bc 122a 25bd 0f6e 3cbc ab1a d23d
00000360: bf85 b43d 5346 163d 8c45 40be 6bd4 2a3d
00000370: ed86 883d cfdd 3d3d 848f edbc 4083 12bd
00000380: 92b4 0e3d 7aae 04be 6188 21bd ef49 633d
00000390: 0b71 c0bd 93d7 41be 17be 2cbd a0b6 28bd
000003a0: 4ca2 d73b 9a1e 8e3d 320b cd3b ca64 3d3d
000003b0: 7d19 d4bd 2565 a53c a5c5 54bd 8f9e 83be
000003c0: 6bd2 643d a233 3abd 7cb2 79ba 211f 363c
000003d0: 4cb0 9f3c a357 88bd 5c3c 7c3d 9f77 50bd
000003e0: fd08 28be e1ba 0e3d 6299 22bd 8140 08be
000003f0: 6f5b 0ebe 4780 e23d 9eac 073e 4279 aabc
-0.017823054 -0.08059399 0.056506492 -0.13114223 -0.049640138 -0.0030357016 0.034880303 0.04067762
-0.1302034 -0.048486594 -0.14027695 0.09395202 0.038936805 0.019908447 0.19276333 -0.057752065
0.02378223 0.047148995 0.052959014 0.056615137 0.01607346 0.018867452 -0.07928459 0.02692717
-0.07210126 -0.09663945 0.078665376 -0.032253228 0.00028656278 0.061040286 0.064086005 0.24050908
0.097017474 -0.0061799507 -0.042388957 -0.05469211 0.021903513 -0.0014305778 -0.073586665 -0.21991225
-0.07110148 -0.0221556 -0.02486382 -0.019398227 0.15404162 0.06937093 0.035156917 0.10383972
-0.07529247 0.028102595 -0.041815914 -0.1353026 -0.021189088 0.14873752 0.15194212 0.006047464
-0.108900726 0.043265197 -0.041025244 0.044385973 0.12840644 -0.010686434 -0.12631199 0.0961276
-0.03324939 -0.016613437 0.06390731 0.018617552 -0.0041572894 0.18029892 -0.022125762 -0.06910353
-0.09222763 0.008187725 -0.14848226 0.060722854 0.050072383 -0.024452593 0.1588457 -0.2361797
-0.031199252 0.026757004 0.026863568 0.068911925 -0.113682315 -0.09604971 0.036667634 -0.08301527
0.12940146 -0.0030909223 -0.11336733 0.10083708 -0.064597204 -0.05630907 -0.08415414 -0.13139954
-0.105924025 0.09429059 0.03785851 -0.10778968 -0.088708974 0.06859576 0.035181087 0.00977711
-0.19708958 -0.049482524 0.019369531 -0.08776216 0.038728822 -0.18367371 0.12102892 0.09389834
-0.0010556328 0.09147671 -0.06390518 0.032600343 -0.06953053 -0.16251893 0.0024331252 -0.028875573
0.09227507 -0.053848773 -0.05603789 0.09713236 -0.009777605 -0.072468296 -0.018603515 -0.05124791
-0.043272343 0.15627183 -0.05392279 0.055688463 0.01797089 0.20723611 -0.04327323 0.064978674
0.08303566 0.0027786605 -0.07325808 -0.08372981 0.04354107 -0.00906955 0.059482165 -0.11756032
0.1457734 0.043104965 0.011314702 -0.002251163 0.020746287 -0.1728012 -0.057091285 0.08039287
-0.0027393643 -0.12216256 -0.11089348 0.15857933 -0.02015361 -0.016219037 0.122479476 -0.028810162
0.07200914 0.10484571 -0.04698291 -0.12312477 -0.04429273 0.09818931 0.04398221 0.039996773
0.10525728 -0.018013768 0.0085113915 0.0554271 0.17331858 -0.14057305 0.25661626 0.114532515
-0.061361324 -0.016499562 0.07708827 0.062035117 0.012515316 -0.0739958 -0.09619441 0.00245817
0.09392706 -0.010681423 -0.066119395 -0.025721904 -0.22432032 0.06537001 -0.01745793 -0.020479647
0.075843126 0.14167677 -0.03227731 0.119001046 -0.036334157 0.13639247 0.04671778 0.02291085
0.08297594 -0.04337762 0.11542967 0.054178987 0.03688242 -0.08185619 0.059692003 0.017999256
-0.09326359 0.078831695 -0.07840672 0.12905252 -0.02149422 -0.040323325 -0.011500849 0.10258993
0.088145725 0.03668816 -0.1877653 0.041706484 0.0666636 0.04635411 -0.028999098 -0.0357697
0.034840174 -0.12957183 -0.0394367 0.05549043 -0.09396561 -0.18929891 -0.04217347 -0.04118979
0.0065806266 0.069394305 0.006257438 0.046238698 -0.10356424 0.020189831 -0.0519463 -0.25706908
0.055864733 -0.045459397 -0.00095251924 0.01111582 0.019493245 -0.066573404 0.061581 -0.05089533
-0.16409679 0.03484619 -0.03969706 -0.13305856 -0.13902067 0.11059623 0.13249442 -0.020809773

a2c_network.mu.bias f4 [6]
00000000: 727d 22be 8c8b 653d e4cc 3b3d 6a7b 873e
00000010: b952 6c3d f3d3 663d
-0.15868166 0.056041285 0.045849696 0.26461345 0.057696078 0.056354474

exp_avg f4 [6]
00000000: c2a4 f73a 75ad 713b c6fa 323a fed5 033b
00000010: 9010 9d3b a4cd b6b9
0.0018893706 0.003687707 0.0006827529 0.0020116563 0.004793234 -0.0003486696

exp_avg_sq f4 [6]
00000000: 61a6 d937 249c 1d38 6517 e637 9f66 cc37
00000010: 78f0 d937 aa11 b537
2.5945892e-05 3.7577134e-05 2.742903e-05 2.4366482e-05 2.5980393e-05 2.1585107e-05

exp_avg f4 [256, 30]
00000000: 39b5 0c38 ace4 da39 a122 4bb9 5dec 343a
00000010: 46ef 13b9 ebee cbb9 4726 7eb9 d098 52b9
00000020: fff0 34ba a596 0039 7503 ebb9 fcde f238
00000030: 0775 68b9 d8f1 7f38 d4fd e4b8 755e 2739
00000040: f415 bd38 a3ef 0738 3976 beb9 0d73 5039
00000050: d7a0 90b9 b50a 0eba 0dae c6b8 a214 0bb9
00000060: e49a 03ba 37aa 8c39 ef50 f9b8 f309 6839
00000070: 59cd 8239 f75b 3b39 710d 25ba a2db 9639
00000080: 9f8f edb9 1f2e ca37 f35d 6739 f72f acba
00000090: 5927 bcb9 1403 c437 ea86 19ba 7501 c3b9
000000a0: 228e e0b7 0f65 25ba 1785 29b9 da48 45b8
000000b0: 2c8d 33b8 8c37 86b9 5362 30ba 0a76 a5b9
000000c0: b883 9a39 05d7 8e38 d328 27b7 3ae8 6bba
000000d0: ef5d 99b9 d5a0 8d38 acc1 9db9 2434 8a37
000000e0: 9a54 efb8 8fcd 75b9 e256 d8b9 0487 dab8
000000f0: b059 b6b9 0924 2cba e585 d6b9 e6e2 4db9
00000100: 22d0 9239 6462 613a 5e31 3e39 cb9c a8b8
00000110: 9f19 d339 86ac d537 388e 5439 6530 25b8
00000120: 5172 30b9 9d85 ecb9 edaf af38 172c 063a
00000130: 8cdd 3937 0afd 41b9 238c e0b8 eed0 42ba
00000140: f522 13ba db97 ad3a f441 a639 39fb 2038
00000150: a8d0 9838 d40c 5eba cd2d dab6 478e 1b3a
00000160: 6ad9 0bb9 205d d7b9 6f9f a739 3364 75b9
00000170: 5880 d339 0095 47b6 ef83 03ba 7a0f 873a
00000180: 8e11 fe38 7a9b e239 21e8 3e39 2dce c0b9
00000190: 9e69 e4b9 279a 04b7 eb50 a339 bdf2 99b9
000001a0: ba5f d939 4737 5db9 a790 28ba 99af 0cba
000001b0: c7f0 eb39 9b9c 2739 9369 063a 1f96 41b9
000001c0: 4ba1 29b9 e10c 1939 eafc d039 e45b 0038
000001d0: a77c 313a c2fe 57b9 64d6 28ba 182c ecb9
000001e0: 9db0 613a 394c ec38 6271 2039 ad2a 4839
000001f0: f9f5 d439 f5c1 4139 627f 8839 2675 b438
00000200: f777 66ba 0dfa 03ba ebb4 8bb9 bc17 3cb9
00000210: 6369 8539 fa69 0cb9 9ab3 01b8 4b2f 87b9
00000220: 712b a4b9 fba2 8839 1b58 50b9 90ee 0039
00000230: f1dd 0539 d129 76ba 697e 0dba 977a 89b9
00000240: 716e 97b8 272d 1439 a619 3039 e012 6ab9
00000250: 5bfc 64b9 6480 c739 7f90 8839 a6f0 2038
00000260: d57a f938 96e8 f839 3b30 a5b9 2a07 0eba
00000270: 7758 8db9 4a94 4c39 a7c4 e5b8 9cca 5bb9
00000280: a094 8fb9 c8d3 1138 4302 02b9 cd67 1f3a
00000290: 0815 4939 fc11 4039 ee70 99b9 1da7 3ab7
000002a0: 1fa6 0eb8 fd7e 7cb9 8311 63b9 d5ae 6aba
000002b0: 40ae 1c38 0223 19b8 193d 2bb8 3d16 c439
000002c0: ce0f 2e39 9e76 27b9 4126 94b9 f2c7 8cb8
000002d0: 075e 4638 f487 fc39 92fd 6bba 4e5f fc38
000002e0: 0952 95b9 99b4 20ba 7b19 96ba 138b 7939
000002f0: 5fa3 9db9 c8ce 2339 7010 d5b9 4674 f436
00000300: 21cf 23b9 9314 a139 682a a438 07e6 ce39
00000310: 5aa7 8436 f9ef afb9 2d98 90b9 158d cf39
00000320: 3eca 483a dd34 57ba aa60 1cb9 7b84 ccb9
00000330: 10f6 17b9 39f8 0b3a c0a9 ec39 46ec f338
00000340: 562c 81b8 c0d8 b6b9 b9a5 f238 f59d 2c3a
00000350: d7ec 8cb9 c715 1f39 3990 44ba 1b66 97b9
00000360: b2d9 03ba b462 f6b8 ae1b 1aba deef be38
00000370: 617f 5838 d46b dd37 d169 4537 5619 b139
00000380: 63b4 4939 7fcd d538 da2a 21ba 3860 fdb9
00000390: 5d1f 42b9 efc8 403a b24b 0b3a a74f 90ba
000003a0: 1870 29b8 9fd4 a0b8 a8b5 2db9 9aa9 543a
000003b0: 7f16 003a a632 abb8 7965 e3b9 56a8 a4b9
000003c0: 4bdc 23ba aff7 80b9 d2cd 49b9 7fb3 a139
000003d0: 5006 b139 9dae 45ba 961b 153a 7f00 9e39
000003e0: bed7 71b9 0feb 16b9 ffe0 3739 6299 d638
000003f0: 647d b2b9 4f91 3f39 2bb9 8db9 fa4a fd39
3.3547378e-05 0.00041750574 -0.00019372489 0.0006901676 -0.00014108149 -0.00038897185 -0.00024237587 -0.00020084088
-0.00069023663 0.0001226315 -0.0004482527 0.00011580993 -0.0002216884 6.1021972e-05 -0.000109191664 0.00015961549
9.0163114e-05 3.2409687e-05 -0.00036327707 0.00019879286 -0.00027585655 -0.00054184656 -9.473795e-05 -0.0001326376
-0.0005020334 0.000268297 -0.0001188832 0.0002212895 0.00024948528 0.0001786797 -0.00062962534 0.0002877387
-0.0004531117 2.4101753e-05 0.00022064876 -0.0013136853 -0.0003588747 2.3366454e-05 -0.00058565906 -0.00037194384
-2.6769067e-05 -0.00063093094 -0.00016166676 -4.703631e-05 -4.2808402e-05 -0.00025599857 -0.00067285186 -0.00031559198
0.00029471307 6.811138e-05 -9.963481e-06 -0.0008999143 -0.0002925242 6.753361e-05 -0.0003008967 1.6475162e-05
-0.00011412166 -0.00023441597 -0.00041263463 -0.00010420199 -0.00034780568 -0.0006566649 -0.0004091702 -0.0001963485
0.0002800236 0.000859773 0.00018138203 -8.040069e-05 0.00040264145 2.5471916e-05 0.00020270876 -3.9384136e-05
-0.00016827254 -0.00045112977 8.377419e-05 0.0005118264 1.1078442e-05 -0.00018500179 -0.00010707255 -0.00074316456
-0.0005612814 0.0013244109 0.00031711126 3.8380942e-05 7.28679e-05 -0.00084705395 -6.502238e-06 0.0005933982
-0.00013337066 -0.0004107738 0.0003197151 -0.00023402348 0.0004034068 -2.974004e-06 -0.0005016913 0.0010304295
0.000121149336 0.00043221918 0.00018206287 -0.00036774707 -0.0004356624 -7.9037045e-06 0.0003115007 -0.00029363288
0.00041460787 -0.00021096795 -0.0006430246 -0.0005366742 0.00045002086 0.00015984701 0.0005127426 -0.00018461839
-0.00016177182 0.00014596015 0.00039861287 3.0603158e-05 0.0006770589 -0.00020598902 -0.0006440638 -0.0004504628
0.0008609386 0.000112675545 0.00015301027 0.00019089384 0.00040619055 0.00018478169 0.0002603485 8.6048894e-05
-0.000879168 -0.0005034514 -0.0002664694 -0.00017937919 0.00025446256 -0.0001339092 -3.0923264e-05 -0.00025784443
-0.00031312884 0.0002606137 -0.00019869248 0.00012295903 0.00012766548 -0.00093903864 -0.000539756 -0.00026222013
-7.2208124e-05 0.000141312 0.00016794223 -0.0002232301 -0.00021837784 0.00038051896 0.000260476 3.8371094e-05
0.000118961245 0.00047475536 -0.00031507187 -0.00054179376 -0.00026959527 0.00019510198 -0.000109562 -0.00020960945
-0.0002738582 3.476793e-05 -0.00012398609 0.0006080836 0.00019176689 0.00018317247 -0.00029266573 -1.1125373e-05
-3.401015e-05 -0.000240799 -0.0002165493 -0.00089524436 3.735558e-05 -3.6510646e-05 -4.082648e-05 0.00037400602
0.00016599821 -0.0001597055 -0.0002825726 -6.712963e-05 4.729445e-05 0.00048166479 -0.00090023235 0.00012034048
-0.00028480616 -0.0006130427 -0.0011451686 0.000237983 -0.00030067094 0.00015621923 -0.00040638773 7.2853027e-06
-0.00015622053 0.00030723642 7.828028e-05 0.00039462766 3.953389e-06 -0.00033557395 -0.000275792 0.0003958723
0.0007659531 -0.00082094764 -0.0001491333 -0.00039008618 -0.00014492148 0.0005339417 0.000451399 0.00011631152
-6.1594576e-05 -0.00034875236 0.000115703275 0.0006584817 -0.0002687934 0.00015171534 -0.00074982975 -0.0002887704
-0.00050296925 -0.00011748579 -0.00058787584 9.104585e-05 5.1617044e-05 2.6395464e-05 1.1766752e-05 0.00033778948
0.00019236053 0.00010194908 -0.0006148048 -0.0004832761 -0.00018512965 0.000735416 0.00053137087 -0.0011010066
-4.0397135e-05 -7.668998e-05 -0.00016566238 0.0008112431 0.00048861647 -8.1633494e-05 -0.00043372417 -0.00031405938
-0.0006250783 -0.000245986 -0.00019245528 0.00030842048 0.00033764774 -0.0007540973 0.00056880096 0.00030136478
-0.00023063921 -0.00014392681 0.00017536058 0.00010232885 -0.0003404423 0.00018269311 -0.00027031577 0.00048311782
