IsaacGymEnvs/isaacgymenvs/runs/Bolt_18-15-35-23/nn/last_Bolt_ep_50_rew_0.058370054.pth (torch, 612240 bytes, 36 tensors)

value_mean_std.running_mean f8 [1]
0	0x3faa56c089d683eb	0.051443116022035294

value_mean_std.running_var f8 [1]
0	0x3f62ff9dc1f8384e	0.0023191529469448807

value_mean_std.count f8 []
0	0x40b2c10000000000	4801.0

running_mean_std.running_mean f8 [30]
0	0xbfb254cc3dae53ce	-0.07160641199000325
1	0xbfb3d24cfbcd3f6f	-0.07742768428329126
2	0xbfe4f28ce18d7cd9	-0.6546081929517654
3	0xbfca84e4e54a876c	-0.20718060680251982
4	0xbfa40c5fee839263	-0.039156911721680364
5	0x3f808bbe7326eace	0.00807904042163923
6	0x3f8e11ad1448edfb	0.014682151967568826
7	0xbfbaec4b60d6f352	-0.10516806711434626
8	0xbfe36a36296565d5	-0.60671527943776
9	0x3f391b5c3a6dd3e0	0.00038310052553153055
10	0x3fafd6f185cf97f2	0.06218676336702335
11	0xbf7f05774abe0038	-0.007573572143769573
12	0xbf8ce5988e2e462b	-0.014109794463169475
13	0xbf51f6930835bcdd	-0.0010963855609949426
14	0xbf5b3939bc66c8b1	-0.0016615928485462057
15	0x3f8c44a5c687d636	0.013802809830831025
16	0xbfa87e09c8a2eb38	-0.04783659528899026
17	0x3fa5803a02b807ac	0.04199391635121627
18	0xbf267132cacba5e3	-0.0001712202551041173
19	0xbf8807f99ca0c94e	-0.011733961193475164
20	0xbf810afb2ffae1d4	-0.008321726228459982
21	0x3f4916da1885eaef	0.0007656636162630385
22	0xbf5e6d92c5ad796d	-0.0018571790048650075
23	0xbf7a1c4a52bd25dd	-0.006374636006350323
24	0xbfa53737a27e0708	-0.041436899743542865
25	0xbf9d9e9ad6bcb8a6	-0.02892534194614229
26	0xbf97c0978db37203	-0.02319561769842161
27	0x3f8e6a52595974be	0.014851230003097956
28	0xbfb08f8c74532a53	-0.06469037857019914
29	0x3fb313a3bdbbf997	0.07451842672523977

running_mean_std.running_var f8 [30]
0	0x3fe8f0ca0ff8b7d5	0.7793932258552966
1	0x3ff1760d0e545814	1.091321044897545
2	0x3ff250da496c38c6	1.1447394245220024
3	0x3ffc45d1f7234de3	1.767045941717577
4	0x3fe685b589d3380c	0.7038219158073402
5	0x3fd3a760a60a4d5a	0.30709091391437016
6	0x3fbc51af74f3ea6e	0.11062141995709293
7	0x3fc1b945c13e7204	0.13846656738031993
8	0x3fd8c8c1bdbdd7a6	0.38725322274637575
9	0x401262af13edc18c	4.59637099398277
10	0x3ff625233fb15886	1.384066819000084
11	0x3f95232a49071527	0.020641957003836666
12	0x3fb0f9685c9fd3d7	0.06630565892540062
13	0x3fad8db17017b3e9	0.05772165768926369
14	0x3fb0061820d99df2	0.06259299089435169
15	0x3fb17395ddcbe2de	0.0681699434752647
16	0x3fb79bc102de3d33	0.09222036666891568
17	0x3fb43822b4e87237	0.07898156086634676
18	0x3fc631fe343ec301	0.17340066481622077
19	0x3fc861828a46815a	0.1904757666752726
20	0x3fcca6adff421059	0.22383666003964
21	0x3fc632c475a600ff	0.1734242987113319
22	0x3fc6d5178018a2ea	0.17837804560374276
23	0x3fc5e0a3016db9d1	0.17091786927944821
24	0x3fe6d45f0dd536c8	0.7134242315457522
25	0x3fe48b33066c98f8	0.6419921040985903
26	0x3fe4d458c5ad2cd0	0.6509212361210306
27	0x3fe552f0d217f65d	0.6663745978727992
28	0x3fe8b347983c079e	0.771884724934569
29	0x3fe4d018b959f144	0.6504024143355669

running_mean_std.count f8 []
0	0x40a2c20000000000	2401.0

a2c_network.sigma f4 [6]
0	0xbd3c74d9	-0.046009872
1	0xbd17ad52	-0.037030526
2	0xbd6ac58e	-0.05731731
3	0x3b4dd5b9	0.0031407906
4	0xbcb5bcc5	-0.022184739
5	0xbd40a122	-0.04702867

a2c_network.actor_mlp.0.weight f4 [256, 30]
0	0x3e4cbb5e	0.1999335
1	0xbe24cddb	-0.16094153
2	0x3df55a83	0.11980154
3	0x3d2d5d39	0.042325232
4	0xbc4dd0ad	-0.012561959
5	0x3dd1f362	0.102515
6	0x3c275f88	0.0102156475
7	0x3e4252ad	0.18976851
8	0x3d4b8a14	0.04969223
9	0xbc8f8af1	-0.017522307
10	0x3cf6e80d	0.030139947
11	0xbd8e1d47	-0.06939178
12	0x3d6dbd43	0.058041822
13	0x3e0f942d	0.14021368
14	0x3e062776	0.1310099
15	0xbd88e245	-0.066837825
16	0x3dad0330	0.084478736
17	0x3d0137d1	0.03154737
18	0x3d9b10a0	0.0757153
19	0xbdf08483	-0.117440246
20	0xbe1904ec	-0.14943284
21	0xbccf9f69	-0.025344567
22	0xbe1b3f81	-0.15160944
23	0x3e122c9b	0.14274828
24	0x3daf18ae	0.08549629
25	0x3d2d268a	0.04227308
26	0x3da91e53	0.08257737
27	0x3ce86c48	0.028371945
28	0x3dc8f98a	0.09813221
29	0xbdb5113a	-0.08841176
30	0x3c8cb7ab	0.017177423
31	0xbddf5204	-0.10904315
32	0x3d304085	0.04303028
33	0xbdeca1b1	-0.11554278
34	0x3d02ddb3	0.03194971
35	0xbdc67b6b	-0.09691509
36	0x3e1c59de	0.15268657
37	0xbdd6268a	-0.104565695
38	0xbdd98d33	-0.10622635
39	0xbe10d56d	-0.14143915
40	0x3e1bbf96	0.15209803
41	0x3c57f3bb	0.0131806685
42	0x3df721bf	0.120669834
43	0xbe00bb9e	-0.1257157
44	0xbe4300f6	-0.19043335
45	0xbe275414	-0.16340667
46	0xbe045935	-0.12924655
47	0x3da29653	0.07938828
48	0x3da94596	0.082652256
49	0x3e60b3fd	0.2194366
50	0xbdc501b4	-0.096194655
51	0xbde87642	-0.11350681
52	0x3d483b44	0.048884645
53	0xbdbfd978	-0.09367651
54	0x3db1bdbf	0.08678769
55	0x3cb09517	0.021555467
56	0x3dcb266b	0.09919437
57	0xbe14bace	-0.14524385
58	0xbdac6d7e	-0.084193215
59	0x3d92a881	0.07161046
60	0xbccca454	-0.024980702
61	0xbc4ef927	-0.012632645
62	0x3e319965	0.17343672
63	0x3d44d912	0.048058577
64	0xbe231bf0	-0.15928626
65	0xbd913d5c	-0.070917815
66	0x3e4d2d9c	0.2003693
67	0xbdf7d259	-0.121006675
68	0xbdccae65	-0.099942006
69	0xbe1e2db9	-0.1544713
70	0xbdad15c3	-0.08451416
71	0x3ce6ff62	0.028197948
72	0x3c8d1334	0.01722107
73	0xbde8cbc4	-0.1136699
74	0xbca0b89c	-0.019619279
75	0xbda17d36	-0.0788521
76	0xbe3959a2	-0.18100598
77	0xbdb1b6c3	-0.08677437
78	0xbdd52885	-0.10408119
79	0xbe0b7adb	-0.13621084
80	0x3df625f3	0.12018957
81	0x3ccb26f8	0.024798855
82	0x3d67fcd3	0.056637596
83	0xbe1d51df	-0.15363263
84	0xbda48d21	-0.08034731
85	0xbd562179	-0.052278016
86	0x3cacf432	0.021112535
87	0xbe164930	-0.14676356
88	0xbdcd2f69	-0.100188084
89	0xbdd0d7b9	-0.10197396
90	0x3d394059	0.045227382
91	0xbd269a08	-0.04067424
92	0x3d2cd6de	0.0421971
93	0xbe42df4c	-0.19030493
94	0xbe3eb8b8	-0.18625152
95	0xbdd2ac90	-0.1028682
96	0xbd090be5	-0.03345861
97	0xbe396540	-0.1810503
98	0x3e2f5205	0.17121132
99	0xbd2833d4	-0.041065052
100	0x3e0e8d49	0.13921084
101	0x3c9ea381	0.019365074
102	0xbe31f3ec	-0.17378205
103	0x3df09e59	0.117489524
104	0xbd898d45	-0.06716398
105	0xbd4f2c79	-0.05057952
106	0xbdeb6b84	-0.11495116
107	0xbdcebd24	-0.100946695
108	0x3da72c5a	0.08162756
109	0x3ce4e168	0.027939513
110	0x3d8cd232	0.06876029
111	0xbe1f7065	-0.15570219
112	0x3defdaba	0.11711641
113	0xbdbbdcf7	-0.09173005
114	0xbca80fbf	-0.02051532
115	0x3d000fa6	0.031264924
116	0x3de4e3b7	0.11176246
117	0x3e01eeaa	0.126887
118	0x3e642bbe	0.22282311
119	0xbdc5c3d0	-0.09656489
120	0x3d9aa0b9	0.07550187
121	0xbd3d4b76	-0.046214543
122	0xbcd876ad	-0.026423777
123	0xbe0fd19f	-0.14044808
124	0x3e078586	0.13234529
125	0xbdec9838	-0.11552471
126	0x3d986dd1	0.07442821
127	0x3d433640	0.04765916
128	0x3d68dc12	0.0568505
129	0xbcafd82d	-0.021465385
130	0x3def385f	0.11680674
131	0x3ca99596	0.020701211
132	0x3d148ef2	0.036269136
133	0xbe20980c	-0.15683001
134	0x3db089d3	0.08620038
135	0xbd455b1d	-0.048182596
136	0xbd9985a7	-0.07496195
137	0x3e1b0d8e	0.1514189
138	0x3d9a26ef	0.07526957
139	0xbd8f6421	-0.0700152
140	0xbdb22473	-0.086983584
141	0xbd3bc25e	-0.04583966
142	0x3dcc0431	0.09961737
143	0xbd4c9505	-0.049946804
144	0xbda2300f	-0.07919323
145	0xbda450ff	-0.08023261
146	0xbdf35307	-0.118810706
147	0x3d5c979f	0.053855535
148	0x3e1f735e	0.15571353
149	0xbe470392	-0.19434956
150	0x3cfc7f62	0.03082246
151	0x3dcdbc5c	0.10045692
152	0x3c876dc9	0.016531842
153	0xbdc6d018	-0.097076595
154	0x3e07ced2	0.1326249
155	0x3e159b0c	0.14609927
156	0x3daa56ed	0.08317361
157	0xbcb79abc	-0.02241265
158	0xbda2da63	-0.0795181
159	0x3d614247	0.054994848
160	0xbd4281a6	-0.047486924
161	0xbd45e754	-0.048316315
162	0x3e119387	0.14216433
163	0x3de3fd99	0.11132354
164	0x3cd2bf48	0.025725976
165	0xbc452b66	-0.012034273
166	0x3aa1ef52	0.0012354648
167	0xbd76de0f	-0.060270365
168	0x3d562d6a	0.052289404
169	0xbc9a2878	-0.018818125
170	0xbdcd6e4b	-0.10030802
171	0xbd5d826e	-0.054079466
172	0x3e140054	0.1445325
173	0x3da1cf41	0.07900859
174	0x3d058253	0.03259499
175	0xbe2eba20	-0.17063189
176	0xbd70ce72	-0.05879063
177	0xbe0de3fe	-0.13856503
178	0xbd6964e3	-0.05698098
179	0x3d5d7cc4	0.054074064
180	0x3e0b1e6e	0.13585827
181	0x3ddf6bcf	0.10909235
182	0xbe10da1e	-0.14145705
183	0xbdbb9b5b	-0.09160491
184	0xbd28b0c8	-0.041184217
185	0x3e2d364f	0.16915248
186	0x3c91df08	0.017806545
187	0xbda3af38	-0.07992405
188	0x3e12cd7a	0.14336196
189	0xbc1f50c4	-0.009723846
190	0xbdad1ea7	-0.08453112
191	0x3e1f5a00	0.15561676
192	0xbdf19e3b	-0.11797758
193	0xbd028e1a	-0.0318738
194	0xbe418a15	-0.1890033
195	0x3e0bff53	0.13671617
196	0x3e1a8ed9	0.15093555
197	0x3da8dcc0	0.0824523
198	0xbdd3dc30	-0.10344732
199	0xbe3845d4	-0.17995387
200	0xbe155472	-0.14582995
201	0x3daa7027	0.083221726
202	0x3d49e424	0.049289837
203	0x3e4afacd	0.19822235
204	0x3d9fa6c8	0.07795483
205	0x3cb4f6bd	0.02209031
206	0x3cbea2a8	0.02327092
207	0xbe1d4d6e	-0.15361568
208	0xbe02eeb3	-0.12786369
209	0xbe1f8487	-0.15577899
210	0x3dae5705	0.085126914
211	0xbda5ed8e	-0.081019506
212	0xbd636061	-0.055511836
213	0xbd04b025	-0.032394547
214	0xbd8ec32c	-0.0697082
215	0xbdde2d5b	-0.108484946
216	0xbe03d4bc	-0.1287412
217	0x3dfefd8d	0.12450705
218	0x3c92e81f	0.01793295
219	0x3e028c05	0.12748726
220	0xbda92828	-0.08259612
221	0xbdf3ec07	-0.11910253
222	0xbd1e7377	-0.038684335
223	0xbda64056	-0.0811774
224	0xbcd9cc73	-0.026586747
225	0xbe21d1e8	-0.15802729
226	0x3e037827	0.12838803
227	0xbdd85239	-0.10562558
228	0x3d807a38	0.062733114
229	0x3dde22d1	0.108464845
230	0x3e2a06af	0.16604112
231	0xbdfff34e	-0.124975786
232	0x3e07259d	0.13197942
233	0xbd55d3d0	-0.052203953
234	0x3d7b60fe	0.061371796
235	0x3e10023d	0.14063354
236	0xbc9567ae	-0.018237915
237	0x3bc5abea	0.0060324566
238	0xbd1c04cc	-0.038090512
239	0xbe0b7c75	-0.13621695
240	0x3e0104ce	0.12599489
241	0xbe39c4e5	-0.18141516
242	0x3dfad055	0.122467674
243	0x3e2df8e5	0.16989477
244	0x3e108680	0.14113808
245	0xba35e953	-0.000693937
246	0xbdf0a8d9	-0.11750955
247	0x3d9950c0	0.07486105
248	0x3d9dbb60	0.077017546
249	0xbe405b10	-0.18784738
250	0xbd6d7dae	-0.057981186
251	0xbddddff7	-0.108337335
252	0x3ccdbfa0	0.025115788
253	0xbd8e80c4	-0.06958154
254	0xbd3c53d2	-0.045978375
255	0xbda18562	-0.07886769

a2c_network.actor_mlp.0.bias f4 [256]
0	0xbd45544d	-0.0481761
1	0xbc6a0b0c	-0.01428486
2	0xbc13b257	-0.0090146875
3	0x3d0c4c4e	0.034252457
4	0x3cf20519	0.029543446
5	0x3a914ee7	0.0011086137
6	0x3d658482	0.056034572
7	0xbd0405cb	-0.032232087
8	0xbd219806	-0.03945162
9	0xbca1df76	-0.019759875
10	0xbd457451	-0.04820663
11	0xbcfb4bdc	-0.030675821
12	0x3b15bd2b	0.0022848349
13	0xbc9c0c73	-0.019048905
14	0xbc432683	-0.011911037
15	0x3bebbb66	0.0071939705
16	0xbcc406a6	-0.023928951
17	0xbd03cb90	-0.032176554
18	0xbd77c7ef	-0.060493406
19	0xbd1c5536	-0.0381672
20	0xbd03cd01	-0.03217793
21	0xba81b535	-0.0009895923
22	0xbcb079a8	-0.021542385
23	0xbd0853de	-0.033283107
24	0xbb8ebb60	-0.004355833
25	0x3b15b9ad	0.0022846267
26	0xbd09e04a	-0.033661164
27	0x3d084de1	0.033277396
28	0x3d381654	0.04494317
29	0x3c84bf7a	0.016204584
30	0x3b40ec02	0.0029437547
31	0x3c81bd58	0.015837356
32	0xbd8481d8	-0.06470078
33	0xbc7c95f4	-0.015416611
34	0xbcc08bf0	-0.023504227
35	0x3c05df3e	0.008170901
36	0xbc758c26	-0.014987027
37	0x3c3a166c	0.011357885
38	0x3a3d7d3e	0.00072284404
39	0x3d0e50a1	0.034744862
40	0x3c558606	0.013032442
41	0x3ca46636	0.02006827
42	0x3d15bf88	0.03655961
43	0xbc3ff1f1	-0.011715398
44	0xbc47997d	-0.012182591
45	0xbc480d9a	-0.012210274
46	0xbd527926	-0.051385067
47	0xbca554aa	-0.020181973
48	0x3b96af42	0.004598529
49	0xbc368e12	-0.011142271
50	0xbc88b533	-0.016687965
51	0xbc7fa219	-0.015602612
52	0x3c487c43	0.012236658
53	0x3c3987c5	0.011323874
54	0xbc319480	-0.010838628
55	0x3a097eaa	0.00052450097
56	0xbc1fdd88	-0.009757407
57	0x3beb7d53	0.0071865707
58	0xbd2d67dc	-0.042335376
59	0x3ce9ba60	0.028531253
60	0xbd483e4e	-0.048887543
61	0x3d57f034	0.05271931
62	0xbccb80c8	-0.024841681
63	0xbd4198d4	-0.04726489
64	0xbcb715a5	-0.022349188
65	0xbc27f2b3	-0.010250735
66	0xbcd5e7cf	-0.026111512
67	0x3aebfe5e	0.0018004884
68	0x3da2e6f9	0.07954211
69	0xbb9fc317	-0.0048755514
70	0xbc81265b	-0.01576536
71	0xbaffe998	-0.0019524572
72	0x3af53ecb	0.001871073
73	0xbd781ea0	-0.06057608
74	0x3c2a4482	0.01039231
75	0xbc819e1c	-0.015822463
76	0xbd5f2212	-0.05447585
77	0xbd0b9b8c	-0.034083888
78	0x3d045683	0.032309067
79	0xbcd89ba4	-0.026441403
80	0x3c2ec604	0.010667328
81	0xbcd180b0	-0.025574058
82	0xbc710ee3	-0.014713022
83	0xbc9717fe	-0.018444058
84	0x3c8f7192	0.01751021
85	0x3c22fbf5	0.009947767
86	0xbc0daf4e	-0.008647753
87	0x3cbc6b87	0.023000492
88	0xbc567e76	-0.013091674
89	0x3b76586a	0.003758932
90	0xbcc2c527	-0.02377565
91	0xbbd21c1f	-0.0064120437
92	0x3c007e15	0.00784256
93	0x3c3bf636	0.0114722755
94	0x3d1906da	0.03736005
95	0xbc626817	-0.013818762
96	0x3c130094	0.008972306
97	0xbbee8b64	-0.0072798003
98	0x3cc5b1a7	0.024132563
99	0xbcbccbef	-0.023046462
100	0xbc98047c	-0.018556826
101	0xbbe08fda	-0.006853086
102	0xbd1a14f4	-0.03761764
103	0x3cb35229	0.021889763
104	0x3d0efc79	0.034908745
105	0x3cd874a0	0.026422799
106	0xbbee1a83	-0.007266344
107	0x3cde24a9	0.02711709
108	0x3c365d22	0.011130603
109	0xbcc520f7	-0.02406357
110	0x3c3c0cee	0.011477692
111	0x3cf626a2	0.030047718
112	0x3c7ce2a1	0.015434892
113	0xbb8c1b4c	-0.004275715
114	0xbd5cd4f8	-0.05391404
115	0xbcf09071	-0.02936575
116	0x3ca7289a	0.020405103
117	0xbd171281	-0.03688288
118	0x3cfb4a90	0.030675203
119	0x3c676b88	0.014124759
120	0xbbe188e0	-0.006882772
121	0x3d12e320	0.035861135
122	0xbbc1beb2	-0.005912625
123	0xbc94a6bf	-0.018145917
124	0xbbc3a323	-0.005970375
125	0xbce0071f	-0.027347146
126	0x3ad10086	0.001594559
127	0x3d16ed96	0.036847673
128	0xbce4b541	-0.02791846
129	0x3bc081cf	0.0058748494
130	0x3bf4b5f6	0.0074679805
131	0x3d2b2254	0.041780785
132	0xbd03aea6	-0.03214898
133	0xb90760f8	-0.00012910727
134	0xbc651d91	-0.0139841
135	0xbd006708	-0.03134826
136	0xbc96ce5f	-0.018408952
137	0xbd2e830b	-0.04260544
138	0x3d0727e2	0.03299702
139	0x3d0ffa5f	0.03515088
140	0xbc6a080a	-0.014284143
141	0xbca79a53	-0.02045933
142	0xbce3bd53	-0.027800238
143	0xbd47fca6	-0.04882493
144	0xbc7f819e	-0.015594868
145	0xbc793f61	-0.015212865
146	0xbc1650bf	-0.009174525
147	0xbbd3e97e	-0.0064670434
148	0x3c615e10	0.013755336
149	0xbd04b02e	-0.03239458
150	0xbc47c57b	-0.012193079
151	0xbc815215	-0.01578621
152	0xbd0197fd	-0.031639088
153	0x3c8fb699	0.017543124
154	0xbd0c41f5	-0.03424259
155	0xbc380e10	-0.0112338215
156	0x3d0ca4e7	0.03433695
157	0xbd45140d	-0.048114825
158	0xbd3be3ac	-0.04587142
159	0x3bda3293	0.006658861
160	0xbd3167be	-0.043311827
161	0x3c960dd1	0.018317135
162	0xbcfde429	-0.030992584
163	0xbcd4752a	-0.025934774
164	0xbd1d03b0	-0.038333595
165	0x3d2649e8	0.040597826
166	0x3cc84cf5	0.024450758
167	0x3b0e5c90	0.0021722652
168	0xbd8f308e	-0.06991683
169	0xbcf35348	-0.029702798
170	0xbb61abcb	-0.0034434672
171	0xbafd293a	-0.0019314655
172	0x3c8c7c62	0.017149154
173	0x3d708a14	0.05872543
174	0xbc545506	-0.012959724
175	0xbc03c221	-0.008041889
176	0x3cb3ca07	0.02194692
177	0x3d267245	0.04063632
178	0xbd226952	-0.039651223
179	0xbd1f6350	-0.03891307
180	0x3cb562f5	0.022141913
181	0xbd61c51b	-0.055119615
182	0xbd075994	-0.033044413
183	0xbd0ee239	-0.03488371
184	0xbc6fd7c7	-0.014638848
185	0xbce49618	-0.027903602
186	0xbc9c751b	-0.019098809
187	0x3d550f42	0.052016504
188	0xbba0242f	-0.004887126
189	0xbc62f4ae	-0.0138522815
190	0xbd7daff3	-0.061935376
191	0x3cc8808a	0.024475355
192	0xbc19da82	-0.009390475
193	0xbc59c2d0	-0.013291076
194	0x3b1f8407	0.002434017
195	0x3cb82209	0.022477167
196	0xbd820af4	-0.063497454
197	0xbb8aba49	-0.0042336327
198	0xbc3520fc	-0.011055227
199	0x3c513875	0.012769808
200	0xbc5d257a	-0.013497705
201	0x3cd118a2	0.025524441
202	0xbcd53df9	-0.026030527
203	0xbc15d812	-0.009145753
204	0x3d1b1095	0.03785761
205	0x3d28207f	0.041046616
206	0xbc983552	-0.018580113
207	0x3c9b234a	0.018937726
208	0xbbcf261c	-0.0063216817
209	0xbb7e1122	-0.0038767536
210	0xbce77190	-0.028252393
211	0x3d15e0a4	0.036591187
212	0xbc2b1f1a	-0.010444427
213	0x3d17eda7	0.037091877
214	0x3cbe0acb	0.023198506
215	0xbd977a1b	-0.07396337
216	0xbcfb5d3c	-0.030684106
217	0xbc47287b	-0.012155647
218	0x3d08c74c	0.03339319
219	0xbc94cdcb	-0.018164536
220	0x3d65818b	0.056031745
221	0xbcf88c5b	-0.030340364
222	0xba20eefc	-0.0006139127
223	0xbcd34e6f	-0.025794236
224	0x3d07c01e	0.0331422
225	0x3d18b0ef	0.037278112
226	0xbcc3c642	-0.023898248
227	0xbd6ddb2f	-0.058070358
228	0x3ca0bc8a	0.019621152
229	0xbc41c6ec	-0.011827212
230	0x3c002515	0.007821341
231	0x39e94351	0.00044491378
232	0x3c5db31b	0.013531472
233	0xbcef731a	-0.02922969
234	0x3d396747	0.04526451
235	0xbcd876fc	-0.026423924
236	0x3ad8af07	0.0016531654
237	0xbcd78d42	-0.026312474
238	0xbc0f83bf	-0.008759438
239	0x3b883191	0.0041562994
240	0xbbc55279	-0.0060217944
241	0x3ccfb773	0.02535603
242	0xbd3f8c6d	-0.04676478
243	0xbc7d0863	-0.015443894
244	0x3c853b03	0.01626349
245	0xbbc0c22c	-0.005882522
246	0xbd615e27	-0.05502143
247	0xbcc1a312	-0.023637328
248	0xbc656380	-0.014000773
249	0x3b235e29	0.002492795
250	0x3c848163	0.016174978
251	0xbcc8bf55	-0.024505297
252	0x3c981036	0.018562417
253	0xbb8d0eaf	-0.004304729
254	0xbd444d23	-0.047925126
255	0xbc0155d4	-0.007893998

a2c_network.actor_mlp.2.weight f4 [128, 256]
0	0x3d066ed1	0.032820527
1	0x3b9b044a	0.004730736
2	0xbd60e8b8	-0.054909438
3	0xbc3a66a6	-0.011377012
4	0xbcc9c456	-0.024629753
5	0xbd78fa7c	-0.060785756
6	0xbd872234	-0.065983206
7	0xbc9ae2f9	-0.018907057
8	0xbcdcbd61	-0.026945772
9	0x3cd2fe00	0.025755882
10	0x3bc1bcb5	0.005912388
11	0x3b45a1dd	0.0030156292
12	0x3cdab8db	0.026699474
13	0x39ed4500	0.00045255572
14	0x3d0c6f3f	0.03428578
15	0xbcebb3ff	-0.028772352
16	0xbd52a0bb	-0.051422816
17	0x3d47527d	0.04866265
18	0x3d84eab3	0.06490078
19	0x3c1783f2	0.009247767
20	0xbca8f903	-0.02062655
21	0x3d51bf04	0.051207557
22	0xbda3d3f9	-0.07999415
23	0x3a9c5e41	0.0011929945
24	0xbd697079	-0.056992028
25	0xbd7afc9a	-0.061276056
26	0x3bf0e79a	0.007351828
27	0xbdc7c696	-0.09754674
28	0xbddc34a5	-0.10752229
29	0x3c89cfe0	0.016822755
30	0xbb723192	-0.0036955816
31	0x3c22e8b2	0.009943174
32	0x3d691c36	0.05691167
33	0xbcac54b7	-0.021036489
34	0x3d078930	0.033089817
35	0x3cd85476	0.026407462
36	0xbd8392ef	-0.0642451
37	0x3d1bcf1a	0.038039304
38	0xbcaade9e	-0.020858105
39	0xbdc05a95	-0.09392277
40	0xbc9f6eef	-0.019462077
41	0xbd60bf02	-0.05486966
42	0xbd878238	-0.06616634
43	0x3cb6a305	0.02229453
44	0x3d3b99c1	0.045800928
45	0x3d0cf549	0.03441361
46	0x3c3def68	0.011592723
47	0x3c291b4f	0.010321452
48	0xbc3cfa6d	-0.0115343155
49	0xbd85d08e	-0.06533919
50	0xbd8fe2cb	-0.07025679
51	0x3db75445	0.0895162
52	0xbc513802	-0.012769701
53	0x3b1c9f0f	0.0023898517
54	0x3d8394ad	0.06424842
55	0x3d2bd7c2	0.04195381
56	0xbd196dc0	-0.03745818
57	0xbd40b69b	-0.047049146
58	0xbc860da8	-0.016363934
59	0xbc25297a	-0.01008069
60	0x3c4ddade	0.012564389
61	0xbe02a61b	-0.12758677
62	0xbcf6108b	-0.030037185
63	0x3bf02530	0.007328652
64	0x3d1a7a6d	0.03771441
65	0xbd462d9b	-0.048383337
66	0x3dcf923e	0.10135315
67	0xbd8ca915	-0.06868187
68	0xbdc7aee9	-0.09750158
69	0x3d11d320	0.035601735
70	0xbd74d2e6	-0.05977144
71	0xbd88065e	-0.066418394
72	0x3d3743fd	0.044742573
73	0xbce0512d	-0.027382458
74	0xbd209191	-0.039201323
75	0x3d03f7bc	0.03221868
76	0x3cda61cd	0.026657963
77	0xbcfe8fc3	-0.03107441
78	0xbdad9fe6	-0.08477764
79	0xbcc35bc0	-0.02384746
80	0xbd244228	-0.040102154
81	0xbd96c44f	-0.07361662
82	0xbc01d180	-0.007923484
83	0xbb80296e	-0.003911189
84	0xbd998885	-0.07496742
85	0xbd4a0dcb	-0.04932956
86	0x3cb0b89b	0.021572402
87	0xbd13148b	-0.035908263
88	0xbd5b9cc2	-0.053616293
89	0xbd868185	-0.06567673
90	0x3d460f55	0.048354466
91	0x3d9fa6eb	0.07795509
92	0xbd54b222	-0.051927693
93	0x3bba64b5	0.0056882747
94	0x3d8a8a02	0.06764604
95	0x3d867558	0.0656535
96	0xbd53b874	-0.05168958
97	0xbd70ce29	-0.05879036
98	0xbbb7ce96	-0.0056093438
99	0x3d328188	0.043580562
100	0xbccb87f2	-0.024845097
101	0x3bf48f8c	0.007463401
102	0x3da224a1	0.07917143
103	0xbdbd9eef	-0.0925883
104	0xbdba224a	-0.09088571
105	0xbd7f32bd	-0.062304247
106	0xbccbe38a	-0.024888773
107	0xbd7723d5	-0.060336906
108	0xbd51e601	-0.05124474
109	0xbd4cb0c9	-0.049973283
110	0x3cd92b16	0.026509803
111	0xba7c0a3a	-0.0009614561
112	0x3c752b8a	0.014963994
113	0x3ce14753	0.02749983
114	0x3d965798	0.07340926
115	0xbd113e21	-0.03545964
116	0xbdadfc2c	-0.084953636
117	0xbce48ebe	-0.027900096
118	0x3b9b996e	0.004748515
119	0xbc13eed8	-0.009029113
120	0xbcce6016	-0.025192302
121	0xbdf80b38	-0.12111515
122	0xbcfdd491	-0.030985149
123	0xbcce6442	-0.025194291
124	0xbcd70920	-0.026249468
125	0x3c3bb131	0.01145582
126	0x3cbfee8d	0.02342918
127	0xbc5ac104	-0.013351683
128	0x3bdf2d11	0.0068107923
129	0xbda386fc	-0.079847306
130	0x3c2af921	0.0104353735
131	0xbdc041de	-0.09387563
132	0x3c98988d	0.01862743
133	0xbd7f504d	-0.06233244
134	0xbd824c50	-0.06362212
135	0x3da4615e	0.08026384
136	0xbd5a9e5d	-0.053373683
137	0xbbc80506	-0.0061041145
138	0x3bca61ba	0.0061762007
139	0xbdefdb73	-0.117117785
140	0xbc6bb3da	-0.014386142
141	0xbc874ea4	-0.016516991
142	0x3d5a7bdb	0.053340774
143	0xbbc529fa	-0.006016967
144	0xbd96f8c1	-0.07371665
145	0xbd5d4852	-0.05402405
146	0xbc29f495	-0.010373254
147	0x3da175ec	0.0788382
148	0xbd2bc028	-0.0419313
149	0x3c433a98	0.011915825
150	0xbb9db944	-0.004813345
151	0xbd52c44a	-0.051456727
152	0x3d4c655e	0.04990136
153	0x3d73c807	0.059516933
154	0xbca84356	-0.02053992
155	0x3cc591f5	0.02411745
156	0x3c33f270	0.010983095
157	0x3dcf8176	0.101321146
158	0x3d6c4f06	0.05769255
159	0xbcf528d4	-0.029926695
160	0x3dd30678	0.10303968
161	0xbd74dd36	-0.059781276
162	0xbbeff1c8	-0.0073225237
163	0x3c7a15d4	0.015263993
164	0x3cfc1319	0.030770825
165	0xbc35abd6	-0.011088332
166	0xbd2a5876	-0.04158827
167	0xbccacb33	-0.024755096
168	0x3ca97a2b	0.020688137
169	0x3c0a8073	0.008453476
170	0xbc9b3c24	-0.018949576
171	0x3cafe951	0.021473559
172	0x3c7f1ce7	0.015570856
173	0xbd05d473	-0.03267331
174	0xbd7c2beb	-0.06156532
175	0x3c9ed5e1	0.019389095
176	0xbd23adb9	-0.039960597
177	0xbd09956e	-0.033589773
178	0xbd2be2dc	-0.041964397
179	0xbb6abd97	-0.003581857
180	0x3b4c200c	0.003114703
181	0xbc98db52	-0.018659268
182	0x3d168faf	0.03675812
183	0x3cc9a7d0	0.024616152
184	0x3c24d1ce	0.010059787
185	0x3c7bad95	0.015361209
186	0x3d959af3	0.07304945
187	0xbb279dd0	-0.0025576241
188	0x3d00bde8	0.03143111
189	0x3d2b592a	0.04183308
190	0x3d995983	0.07487776
191	0xbc8c4f1f	-0.017127572
192	0x3d2efb8b	0.04272036
193	0x3d181417	0.037128534
194	0xbd2f74b2	-0.0428359
195	0xbcd059e6	-0.025433492
196	0x3d8b19ab	0.06792005
197	0x3de8c815	0.113662876
198	0xbdb5b81d	-0.088730074
199	0xbd88e5bb	-0.066844426
200	0x3c953ab5	0.01821647
201	0x3da2703b	0.079315625
202	0x3dc88185	0.09790329
203	0xbc353c5f	-0.011061757
204	0xbd41e5e6	-0.04733839
205	0xbadf15e0	-0.0017020069
206	0x3c879470	0.016550273
207	0xbc66a61f	-0.014077692
208	0xbd330144	-0.04370238
209	0xbd8fac48	-0.07015282
210	0xbd4bfc68	-0.04980126
211	0xbcbcfb64	-0.023069091
212	0xbd157ebc	-0.036497816
213	0xbdc93f36	-0.0982651
214	0x3d35fe91	0.044432227
215	0xbcb06e3f	-0.021536944
216	0x3c7b3d1e	0.015334396
217	0x3d72f9be	0.059320204
218	0xbc2c0cb9	-0.01050108
219	0xbcdab5a8	-0.026697949
220	0xbd2acc81	-0.041698936
221	0xbd779978	-0.060449094
222	0x3c7f6199	0.015587234
223	0xbcda8042	-0.026672486
224	0xbdbc1e42	-0.09185459
225	0xbdf0f020	-0.1176455
226	0xbbd2847d	-0.0064244852
227	0xbcd28475	-0.025697926
228	0x3c577d38	0.013152413
229	0xbc4589f9	-0.012056821
230	0xbcf45b13	-0.029828584
231	0x3c467c2b	0.012114565
232	0xbdbca88c	-0.09211835
233	0x3c497559	0.012296044
234	0xbc181aaf	-0.009283706
235	0xbd11c8a9	-0.035591755
236	0xbd9362af	-0.07196557
237	0xbcfe3d31	-0.031035038
238	0xbc69ec88	-0.014277585
239	0xbd125035	-0.035721023
240	0xbc0710d5	-0.008243759
241	0xbd7e1a5d	-0.06203686
242	0x3d103f9c	0.035216913
243	0xbcce7b4d	-0.025205279
244	0x3d9ad367	0.07559853
245	0xbd042f69	-0.032271776
246	0xbd6c8770	-0.05774635
247	0x3d3fa953	0.04679234
248	0x3cf5c6a0	0.030001938
249	0xbc1ee5e9	-0.00969837
250	0x3c9f56c4	0.019450553
251	0x3d5fe8da	0.054665424
252	0x3d128168	0.035767943
253	0x3ce4e1ff	0.027939795
254	0x3c077ba7	0.008269227
255	0xbd87248d	-0.065987684

a2c_network.actor_mlp.2.bias f4 [128]
0	0xbd0347af	-0.032050785
1	0xbd161a4b	-0.03664617
2	0x3aaa4640	0.0012990907
3	0x3c3afa41	0.011412204
4	0x3c1fcc28	0.0097532645
5	0x3c94ef1b	0.01818042
6	0xbc20ecc8	-0.009822078
7	0xbd2238b4	-0.039604858
8	0xbd001627	-0.031271126
9	0xbdb5cf55	-0.08877436
10	0xbc7e2047	-0.015510625
11	0xbd05f998	-0.032708734
12	0xbc7de8e5	-0.015497421
13	0xbb5aa0c6	-0.0033359989
14	0xbc3365df	-0.010949581
15	0xbd4c4917	-0.04987439
16	0xbcb02fde	-0.0215072
17	0x3b0707d7	0.0020604038
18	0x3c7cc407	0.015427596
19	0xbd102010	-0.035186827
20	0xbd59a7bf	-0.05313849
21	0x3c7b7125	0.0153468
22	0xbb97cccd	-0.0046325685
23	0x3c1d2316	0.009590885
24	0xbc95463f	-0.018221973
25	0x3cb90bb0	0.02258858
26	0xbc782d73	-0.015147555
27	0x39a15386	0.00030770543
28	0x3c75ebd6	0.015009841
29	0xbd2f4b4a	-0.04279641
30	0xbc1f199e	-0.009710697
31	0x3bb783c6	0.0056004254
32	0x3c6b6db9	0.014369422
33	0xbc8ba31b	-0.017045548
34	0xbce08e97	-0.027411742
35	0xbc137e9c	-0.009002354
36	0xbcb709c7	-0.02234353
37	0xbd839a10	-0.064258695
38	0xbc6f5eb1	-0.0146099785
39	0xbd3bdb9b	-0.04586373
40	0x3b68363d	0.003543272
41	0xbcecfb30	-0.02892837
42	0xbc9ef166	-0.019402217
43	0xbcb170b7	-0.021660192
44	0x3cf10525	0.029421398
45	0xbb372511	-0.0027945677
46	0x3cad1d30	0.021132082
47	0xbb81da99	-0.0039628264
48	0xbcebb21d	-0.028771454
49	0x3cb5241b	0.022111943
50	0xbccae95e	-0.024769481
51	0xbd41e6b9	-0.047339175
52	0xbcd435f4	-0.025904633
53	0xbc181422	-0.009282144
54	0xbd831a0f	-0.06401455
55	0xbc978a4c	-0.018498562
56	0x3d15ca53	0.036569905
57	0x3d0970d0	0.033554852
58	0xbd852a63	-0.06502225
59	0x38a9a23e	8.088768e-05
60	0xbc00c3b0	-0.007859156
61	0x3c232ac4	0.009958927
62	0x3c7d6d4d	0.015467954
63	0xbd296485	-0.04135563
64	0xbc33703a	-0.01095205
65	0xbc9c5372	-0.019082759
66	0xbcb1bc6c	-0.021696292
67	0x3d48ce37	0.049024787
68	0xbb50f154	-0.0031882124
69	0xbca3cd7a	-0.01999544
70	0xbbe250b7	-0.0069065946
71	0x3c965710	0.018352062
72	0xbc46ced9	-0.012134277
73	0xbbb29285	-0.0054495954
74	0xbc5e02da	-0.013550485
75	0xbc157d8d	-0.009124172
76	0x3cd06fa8	0.025443867
77	0xbb947c2f	-0.0045314054
78	0xbb88557d	-0.0041605816
79	0x3c62ea7c	0.013849851
80	0xbca4d8e1	-0.020122947
81	0xbcb64ee3	-0.022254413
82	0xbccf390f	-0.025295762
83	0xbc843343	-0.016137725
84	0x3ccd8a83	0.025090462
85	0x3c48d8a6	0.012258684
86	0xbc4bea97	-0.012446067
87	0xbc507ec0	-0.012725532
88	0x3c975086	0.018471014
89	0xbc6290af	-0.013828441
90	0xb94b6fff	-0.0001940131
91	0x3bbd69c1	0.005780429
92	0x3c8c8832	0.017154787
93	0xbd41ef51	-0.04734737
94	0xbcf577da	-0.029964376
95	0xbba098e7	-0.00490104
96	0xbca8c0ce	-0.020599749
97	0xbc8a0aa1	-0.016850771
98	0xbc89ad86	-0.016806375
99	0xbd1282e0	-0.035769343
100	0xba6e1e82	-0.00090835255
101	0xbd08cf7d	-0.033401
102	0x3c64a168	0.013954498
103	0xbca5979d	-0.020213896
104	0xbd6aee1c	-0.057355985
105	0xbbefb01c	-0.007314695
106	0x3d3c3224	0.045946255
107	0xbc964755	-0.01834456
108	0xbc160ba6	-0.009158051
109	0xbd2a18ca	-0.041527547
110	0xbc5b95b4	-0.013402391
111	0xbd0768be	-0.033058874
112	0x3c64bc46	0.0139609035
113	0xbb18eb5a	-0.002333364
114	0xbc6db94f	-0.014509513
115	0x3ba499d4	0.0050232206
116	0xbc828705	-0.015933523
117	0x3ba11c29	0.004916687
118	0x3b86bf72	0.0041121775
119	0x3b933784	0.004492702
120	0x3cf3c929	0.029759007
121	0xbcfd1514	-0.03089384
122	0x3ce5dedc	0.02806037
123	0xbba373b4	-0.004988158
124	0x3cd21668	0.02564545
125	0x3cbb135f	0.022836385
126	0x3cf0d9d9	0.029400753
127	0xbc9463db	-0.018114021

a2c_network.actor_mlp.4.weight f4 [64, 128]
0	0x3cc61c33	0.024183368
1	0xbd493bc8	-0.049129277
2	0x3e0735b4	0.1320408
3	0xbd0c0b91	-0.034190718
4	0x3c463d73	0.012099612
5	0x3dd1bc94	0.102410465
6	0x3d6d8a24	0.05799307
7	0xbdabd390	-0.08389962
8	0xbdba1191	-0.09085382
9	0x3cf9290a	0.030415077
10	0x3da55dd4	0.08074537
11	0x3d1e04a1	0.038578633
12	0xbbc85548	-0.006113682
13	0x3dcfc4bd	0.10144947
14	0xbc380bfd	-0.011233327
15	0xbd3fb5b2	-0.046804138
16	0x3d773752	0.060355492
17	0xbc967029	-0.018364029
18	0xbd9192fc	-0.07108113
19	0x3d43fb0b	0.047846835
20	0x3bad1dcc	0.005283093
21	0xbc233e31	-0.009963558
22	0xbd5d5a44	-0.054041162
23	0xbd4a1c68	-0.049343497
24	0xbc329859	-0.01090058
25	0x3d4426d6	0.0478886
26	0x3d80f14c	0.06296024
27	0x3dbb6a2d	0.09151111
28	0xbd4af7f4	-0.049552873
29	0x3da61dfa	0.08111186
30	0xbcc38e6a	-0.02387162
31	0xbd020f37	-0.03175279
32	0x3d199ebf	0.037504908
33	0x3b876b2c	0.004132649
34	0xbc69d93a	-0.014272982
35	0xbd6fca29	-0.058542404
36	0xbdd0da31	-0.10197867
37	0xbdac70e9	-0.084199734
38	0xbda66095	-0.0812389
39	0xbd2289ca	-0.039682187
40	0xbd8c795a	-0.068590835
41	0xbc93aab1	-0.018025728
42	0x3c3b8d9c	0.0114473365
43	0x3d2d4140	0.042298555
44	0xbd6af51f	-0.057362672
45	0xbc86b83e	-0.016445275
46	0xbd905dc9	-0.07049138
47	0xbc39b766	-0.0113352295
48	0xbc8c6c26	-0.017141413
49	0xbda7abf6	-0.08187096
50	0x3c3173ea	0.010830859
51	0xbdc2b1ac	-0.095065445
52	0xbd7b0576	-0.061284505
53	0xbd2f1236	-0.042741977
54	0x3d99a57b	0.07502266
55	0x3d1ab568	0.03777066
56	0xbd11c43c	-0.035587534
57	0xbd6ca12a	-0.057770886
58	0xbd858779	-0.0651998
59	0x3d7468de	0.05967032
60	0x3d71f0e1	0.05906761
61	0x3c4e2e95	0.012584348
62	0xbd8b94a2	-0.06815459
63	0x3d9cda57	0.076588325
64	0xbce23fba	-0.027618278
65	0xbd6006cb	-0.05469398
66	0x3d5e182b	0.054222267
67	0x3d995e91	0.0748874
68	0x39971017	0.00028812952
69	0xbc3030a6	-0.010753786
70	0xbd0b6956	-0.034036003
71	0xbd718484	-0.058964267
72	0xbd3b136e	-0.045672826
73	0x3d1d11bc	0.03834699
74	0x3c9f3b74	0.01943753
75	0xbcd0bcf6	-0.025480729
76	0x3d3ce2fe	0.046114914
77	0xbd48d3db	-0.049030166
78	0xbd1e0fde	-0.03858935
79	0xbe01c7f9	-0.1267394
80	0x3cc3afbd	0.02388751
81	0x3ce9a1fd	0.028519625
82	0xbd8241e9	-0.063602276
83	0x3dabb8a3	0.08384826
84	0xbd5c9ac0	-0.05385852
85	0x3c8889a3	0.016667193
86	0xbd7cbb95	-0.06170233
87	0xbd0d45ed	-0.034490515
88	0x3aacd0ba	0.0013184764
89	0x3c452db5	0.012034823
90	0xbd33be89	-0.04388288
91	0x3d6e6f89	0.058211837
92	0xbd0dd2b1	-0.03462476
93	0xbdb08b55	-0.086203255
94	0xbca8389f	-0.020534812
95	0x3c85e057	0.016342325
96	0xbd9376d3	-0.07200398
97	0x3b25c99c	0.002529717
98	0x3b1f3bcd	0.0024297119
99	0xbbf3778c	-0.0074300226
100	0xbca59936	-0.020214658
101	0xbbc2ba47	-0.005942616
102	0xbc02f2ec	-0.007992487
103	0x3d36cb70	0.044627607
104	0x3d110427	0.03540435
105	0x3d6d9db0	0.05801171
106	0xbc445533	-0.011983204
107	0x3d1c8e55	0.038221676
108	0xbc9a1789	-0.01881005
109	0x3d123684	0.03569652
110	0x3c9192eb	0.017770251
111	0xbdb1596f	-0.08659636
112	0x3c539d08	0.012915857
113	0x3d97b0ad	0.07406745
114	0x3d9065dc	0.07050678
115	0x3d2e7ea2	0.042601235
116	0x3d65cf2c	0.056105778
117	0xbc095e40	-0.008384287
118	0xbdb5be09	-0.08874137
119	0x3c85ca2a	0.01633175
120	0x3cef074d	0.029178286
121	0xbbf07ec7	-0.007339332
122	0xbc74b72d	-0.014936251
123	0x3ca2bd61	0.019865694
124	0xbc4dea01	-0.012567998
125	0xbcbc0f9b	-0.02295666
126	0xbd9c250a	-0.07624252
127	0xbb561f82	-0.0032672589
128	0x3d9eac77	0.07747739
129	0x3d460d55	0.04835256
130	0x3d0d23fb	0.03445814
131	0xbc710cb1	-0.0147124985
132	0x3d0e2666	0.03470459
133	0x3da9cd90	0.08291161
134	0xbba2b6ce	-0.0049656397
135	0xbc7862ef	-0.015160306
136	0xbc230132	-0.009949015
137	0xbd7f0ec1	-0.06226993
138	0x3d771c48	0.060329705
139	0x3cfac8fb	0.030613413
140	0xbd5861a8	-0.052827507
141	0x3da7c653	0.08192124
142	0x3c2e6f53	0.010646659
143	0x3c222e18	0.009898685
144	0xbc9a3d3d	-0.018828029
145	0xbd39e1ad	-0.045381237
146	0xbd85b618	-0.06528872
147	0x3c99d020	0.018776
148	0xbc449680	-0.011998773
149	0x3d2b45e4	0.0418147
150	0xbd2eb6a3	-0.042654645
151	0xbc2c7545	-0.010526006
152	0xbc9c0509	-0.01904537
153	0xbcced4c3	-0.025247937
154	0x3d3b21f5	0.04568668
155	0xbd86f72a	-0.065901116
156	0xbd72e403	-0.05929948
157	0xbb2d2799	-0.0026421307
158	0x3d827dc0	0.06371641
159	0x3bb6973a	0.005572227
160	0xbd266aa6	-0.04062905
161	0x3d069cf8	0.03286454
162	0x3d1bc9dd	0.03803431
163	0xbbf28fe0	-0.007402405
164	0x3dadfaaf	0.0849508
165	0x3da42f9d	0.08016894
166	0xbcee92d8	-0.029122755
167	0x3d505b0e	0.050868087
168	0x3de2053a	0.11036153
169	0x3c97195d	0.018444711
170	0xbdc45489	-0.09586436
171	0x3a4a2da7	0.0007712491
172	0xbd54fa63	-0.0519966
173	0xbd41fb2c	-0.047358677
174	0xbdfd0e1f	-0.12356209
175	0x3d0ab27b	0.03386162
176	0xbd6b0d22	-0.05738557
177	0x3c18fc57	0.009337506
178	0xbc9763b8	-0.018480167
179	0x3d8c73d2	0.068580285
180	0xbd1cf674	-0.038320974
181	0x3d8071d6	0.062717125
182	0x3e017f0b	0.1264612
183	0xbd05a745	-0.032630224
184	0x3d8c479d	0.06849597
185	0xbe037060	-0.12835836
186	0x3cf45550	0.029825836
187	0xbd61cb09	-0.05512527
188	0x3dcb198a	0.099169806
189	0x3bebcfb4	0.007196391
190	0xbdade3ed	-0.08490739
191	0x3d1b6ecd	0.037947465
192	0xbd2d28af	-0.042275127
193	0xbc7b46bc	-0.015336689
194	0x3d565ded	0.05233567
195	0x3d64891c	0.05579482
196	0x3db37052	0.08761658
197	0x3c6fe017	0.0146408295
198	0x3db35be6	0.087577626
199	0x3d32a7cd	0.04361706
200	0x3d78591a	0.06063185
201	0x3d87e126	0.066347405
202	0x3a9716bb	0.001152716
203	0x3d8a7c75	0.067620195
204	0x3ce95595	0.028483192
205	0x3d60bae8	0.054865748
206	0xbc245f21	-0.010032446
207	0xbd24b9f7	-0.040216412
208	0x3db2bedb	0.08727809
209	0xbdb8ade4	-0.09017542
210	0xbd499ae5	-0.049219985
211	0x3cdabaea	0.026700456
212	0xbcd167ee	-0.025562253
213	0x3d63ff83	0.055663597
214	0x3c8b44c9	0.017000573
215	0xbd5ec59e	-0.05438768
216	0x3d49d1c0	0.0492723
217	0x3cfed159	0.031105684
218	0xbdb81412	-0.08988203
219	0x3d4f913d	0.05067562
220	0xbdb71ccb	-0.08941039
221	0xbcfa1757	-0.030528707
222	0x3d968285	0.073491134
223	0x3d375d64	0.0447668
224	0x3d1d894c	0.038461015
225	0xbd730af8	-0.059336632
226	0xbd9f1cf7	-0.077691965
227	0xbd12cdd7	-0.035840835
228	0x3d0f7cd3	0.03503115
229	0x3d8d0ad1	0.06886829
230	0x3ceebafa	0.029141892
231	0x3a51cce2	0.0008003247
232	0x3d9f9894	0.07792774
233	0x3d8ab250	0.06772292
234	0xbdc079ce	-0.093982324
235	0xbcc7698e	-0.024342325
236	0xbd55715e	-0.05211007
237	0xbd9e7a62	-0.077381864
238	0x3d3d9b9b	0.046290975
239	0x3da7123e	0.08157776
240	0xbcdf20f7	-0.027237399
241	0xbcab1ff4	-0.02088926
242	0xbcc66ef8	-0.024222836
243	0xbdaa0455	-0.083016075
244	0x3da04a51	0.07826675
245	0xbc386c8a	-0.0112563465
246	0x3d02d93d	0.031945456
247	0x3d9bebe5	0.07613353
248	0x3cec896e	0.028874125
249	0x3d001e63	0.03127898
250	0xbc7e8eb4	-0.015536953
251	0xbc3607f9	-0.011110299
252	0x3d985037	0.07437175
253	0xbd00f871	-0.031486932
254	0x3d82254c	0.0635477
255	0xbd85aaf8	-0.0652675

a2c_network.actor_mlp.4.bias f4 [64]
0	0x3d068d64	0.032849684
1	0x3abd6627	0.001445
2	0xbcdfd5ce	-0.02732363
3	0xbc371c90	-0.011176243
4	0x3c9273c4	0.017877467
5	0x3c2ff036	0.010738423
6	0xbd3bd8fd	-0.045861233
7	0xbd002331	-0.03128356
8	0x3b2336da	0.002490452
9	0x3cadc690	0.021212846
10	0x3c8e7f78	0.017394766
11	0xbc86d984	-0.016461141
12	0x3caa6cc1	0.020803811
13	0xbccd6231	-0.025071235
14	0xbd0da4d2	-0.034581013
15	0xbcfc1731	-0.030772777
16	0xba189fb6	-0.00058221386
17	0xbd170e2e	-0.036878757
18	0xbbdf87f7	-0.006821628
19	0x3c4e0848	0.012575217
20	0xbd31a12e	-0.043366604
21	0x3c8a8eba	0.01691376
22	0xbc6a0718	-0.014283918
23	0x3c04e633	0.008111524
24	0x3b651e55	0.0034960706
25	0x3d159d8f	0.036527213
26	0x3a7870fe	0.00094772864
27	0x3d182dbe	0.037153
28	0x3c8e2426	0.017351221
29	0x3c82d3f4	0.015970208
30	0xbc20014b	-0.009765933
31	0xbd4b8d41	-0.049695257
32	0xbca9c625	-0.020724365
33	0x3bd85ec9	0.006603096
34	0x3c2be4bc	0.010491546
35	0x3ca9ac22	0.020711962
36	0xbc89e309	-0.016831892
37	0x3bce29f5	0.0062916228
38	0x3d01ed87	0.031720664
39	0x3d357ddc	0.044309482
40	0xbca416c5	-0.020030389
41	0x3d346d31	0.044049446
42	0xbc45cdeb	-0.01207302
43	0x3cc16baf	0.023610918
44	0xbd3298d5	-0.043602783
45	0xbc0d23ba	-0.008614475
46	0xbcc857c8	-0.02445592
47	0xbd4f0715	-0.050543863
48	0x3cdbbf90	0.026824743
49	0x3c54f84e	0.012998654
50	0x3ca73bf4	0.02041433
51	0xbc5d230a	-0.0134971235
52	0x3c846af0	0.016164273
53	0xbb212879	-0.0024590774
54	0xbc12f464	-0.0089694
55	0xbd26735f	-0.04063737
56	0xbc0218b9	-0.007940465
57	0xbb557bcc	-0.003257501
58	0xbcbb2023	-0.022842472
59	0xbd1ba454	-0.037998512
60	0x3bbced96	0.005765627
61	0x3c576feb	0.013149242
62	0x3d2539da	0.040338375
63	0xbd3c0e71	-0.04591221

a2c_network.value.weight f4 [1, 64]
0	0x3d141805	0.03615572
1	0x3b83d8a3	0.004023628
2	0xbac855d2	-0.0015284366
3	0xbc96fffa	-0.018432606
4	0x3d16aa50	0.036783516
5	0x3d3b757f	0.04576635
6	0xbda89284	-0.08231071
7	0xbceb7c22	-0.028745715
8	0xbcb9a430	-0.022661299
9	0x3bf03e50	0.007331647
10	0x3c1ea582	0.009683015
11	0xbc4f4389	-0.012650379
12	0x3d20ecae	0.039288215
13	0xbce6ee1b	-0.02818971
14	0xbd477b87	-0.04870179
15	0xbc385ec1	-0.01125306
16	0x3cec14c0	0.028818488
17	0xbd72c6f3	-0.059271764
18	0x3ca58ae5	0.020207832
19	0x3d4246e2	0.04743088
20	0xbd971c91	-0.073784955
21	0x3d3d65bc	0.0462396
22	0xbd1cd634	-0.038290218
23	0x3d6d23f2	0.05789561
24	0xbd192a95	-0.037394125
25	0x3d3302f6	0.043703996
26	0x3c9d823b	0.019227138
27	0x3bdb4afd	0.006692289
28	0x3d1cf05a	0.038315155
29	0x3c4b3de1	0.01240489
30	0xbc17ba40	-0.009260714
31	0xbbd5ec3d	-0.006528406
32	0x3b5179a4	0.0031963373
33	0x3a8a32d2	0.001054371
34	0xbc7e30ca	-0.015514562
35	0x3c8fdebe	0.017562266
36	0xba40b72f	-0.0007351515
37	0x3c9fe287	0.019517196
38	0x3d409bef	0.04702371
39	0x3d60b6a2	0.054861672
40	0x3bf27364	0.0073990095
41	0x3d73ab23	0.05948938
42	0xbd556123	-0.05209459
43	0x3c5b92e2	0.013401719
44	0xbcfbb57d	-0.030726189
45	0xbc3f8d39	-0.011691385
46	0xbc9efcc0	-0.01940763
47	0xbc510f53	-0.012760001
48	0x3c2e0a2b	0.010622541
49	0x3c76e785	0.015069847
50	0x3c4a9a0d	0.01236583
51	0xbcdd7f2b	-0.027038177
52	0x3d12010d	0.035645533
53	0x3b064a49	0.0020491055
54	0xbb340a7c	-0.002747207
55	0xbd47df39	-0.048796866
56	0x3c18eac4	0.009333316
57	0x3c00cac6	0.007860845
58	0x3b644aba	0.003483458
59	0xbc62bb7f	-0.013838648
60	0x3ceb7785	0.028743515
61	0xbc5fc936	-0.013658812
62	0x3d087a49	0.033319745
63	0xbdca3eb4	-0.09875241

a2c_network.mu.weight f4 [6, 64]
0	0xbc6b49d9	-0.014360868
1	0xbd63fec4	-0.055662885
2	0x3c970449	0.01843466
3	0xbd25461a	-0.040350057
4	0xbd1787e5	-0.036994833
5	0x3cc1d6ed	0.023662055
6	0x3dd0f9fe	0.10203932
7	0x3daf7b4f	0.08568441
8	0xbdcbe38f	-0.09955513
9	0xbd47a574	-0.048741773
10	0xbc07d864	-0.008291338
11	0x3e07f61d	0.13277479
12	0xbdc6b130	-0.097017646
13	0xbce62acb	-0.028096577
14	0x3db6062b	0.08887895
15	0x3d194ecc	0.037428662
16	0x3d039381	0.032123093
17	0x3e03ca11	0.12870051
18	0x3c49a555	0.012307485
19	0x3df55ada	0.11980219
20	0x3db53788	0.08848482
21	0x3d177786	0.03697922
22	0xbdeee31e	-0.11664413
23	0x3dae739d	0.08518145
24	0xbc154ef4	-0.009113062
25	0xbdfc014f	-0.12304937
26	0x3d1651ad	0.036698986
27	0xbde0a30a	-0.10968597
28	0x3d2df7f5	0.0424728
29	0x3dd54ae2	0.104146734
30	0xbcebb207	-0.028771413
31	0x3dc05053	0.09390321
32	0x3cb3ce86	0.021949064
33	0xbdf4792e	-0.11937176
34	0xbd88bcc2	-0.06676628
35	0x3b133452	0.0022461605
36	0xbd8b3337	-0.06796878
37	0xbdcf7930	-0.101305366
38	0xbd8b18ac	-0.06791815
39	0xbe20bd64	-0.15697247
40	0x3d53d36a	0.051715292
41	0xbdd90448	-0.1059652
42	0xbd02c0f3	-0.031922292
43	0x3c8af3e1	0.016961994
44	0x3d97fe7a	0.074215844
45	0x3dd15677	0.1022157
46	0xbd748621	-0.059698228
47	0x3d8e2c10	0.06941998
48	0xbd9f8f4f	-0.07791006
49	0xbd325d0c	-0.043545768
50	0xbcc490d7	-0.023994846
51	0x3d27555d	0.040852893
52	0x3c801922	0.015636984
53	0xbc535fe2	-0.012901278
54	0x3dc53b53	0.09630456
55	0x3bd78c6f	0.0065780203
56	0xbdc01939	-0.09379811
57	0x3dda9343	0.10672619
58	0x3db6dc7e	0.08928774
59	0xbc8beea5	-0.017081568
60	0x3dcf5a5e	0.10124658
61	0xbde2ec8c	-0.11080274
62	0xbdf7272f	-0.120680206
63	0x3def040b	0.11670693
64	0xbdb45d1c	-0.08806822
65	0xbcf140cb	-0.029449841
66	0x3d434494	0.047672823
67	0xbc963a5c	-0.018338375
68	0xbd50120c	-0.05079846
69	0x3b7fef3b	0.0039052505
70	0xbd145e59	-0.03622279
71	0x3d15acda	0.036541797
72	0xbdf37071	-0.11886681
73	0x3e286b92	0.16447285
74	0xbda5e8ba	-0.0810103
75	0x3cc65318	0.024209544
76	0xbdc10e8f	-0.09426605
77	0x3d26fb15	0.040766794
78	0xbbe0418e	-0.006843752
79	0xbdb284b8	-0.0871672
80	0x3ca4b07d	0.020103687
81	0xbcf26c36	-0.029592615
82	0xbdeca7b2	-0.11555423
83	0x3dbe3870	0.09288108
84	0xbe1ece78	-0.15508449
85	0xbc56d211	-0.013111607
86	0x3d67911e	0.05653488
87	0x3be67d64	0.0070339907
88	0xbc59f6b1	-0.013303445
89	0xbd4d19f3	-0.050073575
90	0xbcc43466	-0.023950767
91	0xb9ed13cd	-0.00045218915
92	0xbd72fc1b	-0.059322458
93	0xbe1ba9b6	-0.15201458
94	0xbe0e38a6	-0.13888797
95	0xbd599e6e	-0.053129606
96	0xbe019bbe	-0.12657067
97	0x3c5f049a	0.013611937
98	0x3c93e4d2	0.018053446
99	0xbe081125	-0.1328779
100	0xbd95f918	-0.073229015
101	0xbb6bf75d	-0.0036005594
102	0xbd3e27ca	-0.046424665
103	0xbd9d1a4c	-0.07671031
104	0xbbbfb333	-0.0058502196
105	0xbd9036b3	-0.07041683
106	0xbd3e9f02	-0.04653836
107	0xbe117a86	-0.14206895
108	0x3e1165ee	0.1419904
109	0xbd3802f4	-0.04492469
110	0x3dc43996	0.09581296
111	0x3d4a0f1f	0.049330827
112	0x3d25137a	0.040301777
113	0x3e0e8866	0.1391922
114	0xbdbf8dcb	-0.09353217
115	0x3dc27f96	0.09496991
116	0xbce89d79	-0.028395401
117	0xbdcfa633	-0.10139122
118	0xbdbf682a	-0.093460396
119	0xbcb449e7	-0.022007896
120	0x3d0e37bc	0.03472112
121	0xbd528135	-0.051392753
122	0x3e0bb234	0.13642198
123	0x3d2a4828	0.04157272
124	0xbc51c302	-0.012802841
125	0xbc5f9bb6	-0.013647964
126	0x3dd007ba	0.10157724
127	0xbe07005a	-0.13183728
128	0xbd6777e3	-0.056510817
129	0x3b7b6849	0.003836172
130	0xbcba409d	-0.022735888
131	0x3d3280aa	0.043579735
132	0xbd870b05	-0.06593899
133	0x3e075a98	0.13218153
134	0x3df701e2	0.12060906
135	0x3e1a53fb	0.15071099
136	0x3d74a1c6	0.05972459
137	0x3cea38ff	0.028591631
138	0xbd2e0759	-0.042487476
139	0x3d147593	0.03624494
140	0xbd22f9be	-0.039788954
141	0xbbf4ed30	-0.007474564
142	0x3de905da	0.11378069
143	0x3db1164d	0.08646832
144	0x3e17a271	0.1480806
145	0x3d840e03	0.06447985
146	0x3d4a2c6c	0.04935877
147	0x3d5fb263	0.054613482
148	0xbc44f801	-0.012022019
149	0xbdc7f9a1	-0.0976441
150	0xbdb69229	-0.089145966
151	0x3d5b8df3	0.05360217
152	0xbd8ae021	-0.067810304
153	0xbdce5c5c	-0.1007621
154	0xbd3462e7	-0.044039633
155	0xbd683a3f	-0.056696173
156	0x3cb3cf00	0.021949291
157	0xbd1d1a1d	-0.03835498
158	0x3cee475e	0.029086765
159	0x3d583642	0.05278612
160	0x3c8f7b18	0.01751475
161	0xb93ac93b	-0.00017813306
162	0x3ccd1044	0.02503217
163	0xbd74f28d	-0.059801627
164	0xbc67d9a2	-0.014151009
165	0x3d26eacd	0.040751267
166	0xbb828e3f	-0.003984242
167	0xbd80dcf6	-0.06292145
168	0x3d58dd07	0.052945163
169	0xbe2c7c3d	-0.16844268
170	0x3cac0ee7	0.0210032
171	0x3ca1eef4	0.019767262
172	0x3e087535	0.13325961
173	0xbde913c8	-0.11380726
174	0x3c103de6	0.00880382
175	0x3e0cdaca	0.13755336
176	0xbda12ab4	-0.07869473
177	0x3d0b04f1	0.03394026
178	0x3d0b37e2	0.03398884
179	0x3db854b3	0.0900053
180	0x3dc24c4c	0.09487209
181	0xbd97961f	-0.0740168
182	0xbde62165	-0.11236838
183	0x3c81a0bb	0.015823713
184	0x3da965c7	0.082713656
185	0x3de86e2e	0.1134914
186	0x3e308470	0.17238021
187	0xbd196dfd	-0.03745841
188	0xbd9fe692	-0.0780765
189	0x3da08aee	0.07838999
190	0xbd0f2507	-0.03494742
191	0x3dac22fc	0.0840511
192	0x3d62847a	0.05530212
193	0xbdacf33b	-0.0844483
194	0xbbc1b64e	-0.005911625
195	0x3d6f0559	0.05835471
196	0x3b2586bd	0.0025257312
197	0x3cc0d8b7	0.023540838
198	0xbd09b5b9	-0.03362057
199	0x3d674c9b	0.05646954
200	0x3e0be43c	0.13661283
201	0x3b6755fd	0.0035299056
202	0x3ce42933	0.027851677
203	0x3dd80f8f	0.105498426
204	0xbca5c98a	-0.020237703
205	0xbd992830	-0.07478368
206	0x3d68f354	0.05687268
207	0x3c3c95ae	0.011510296
208	0xbd3992fb	-0.045306187
209	0x3d976040	0.07391405
210	0xbdc13c8f	-0.09435379
211	0x3dc51b6c	0.09624371
212	0xbdab1b22	-0.083547845
213	0xbc460734	-0.012086678
214	0x3d1edf40	0.038787127
215	0x3d3cc467	0.04608574
216	0x3dea10b4	0.11428967
217	0x3ccc1e4d	0.024916792
218	0xbda6e9c0	-0.08150053
219	0x3dd384d6	0.10328071
220	0x3d5bdfee	0.053680353
221	0x3daf1dbd	0.08550594
222	0xbd0e009b	-0.034668546
223	0xbd0f9ef0	-0.035063684
224	0x3c006130	0.007835671
225	0x3d5e7e45	0.05431964
226	0x3d05c505	0.032658596
227	0x3df29898	0.11845511
228	0xbd478310	-0.048708975
229	0xbddc1df3	-0.107479
230	0x3d79332a	0.06083981
231	0xbc817bcd	-0.015806103
232	0xbd83f1d4	-0.064426094
233	0x3d1aa9b8	0.037759513
234	0x3dc946e4	0.098279744
235	0x3d99b0ae	0.07504402
236	0xbd208f09	-0.03919891
237	0x3da5edc3	0.0810199
238	0xbcd043b6	-0.025422912
239	0xbe08d4db	-0.13362448
240	0xbcebdacf	-0.02879086
241	0xbd984fa7	-0.074370675
242	0xbb8d25f3	-0.0043075024
243	0x3dd4b4b3	0.10386028
244	0x3c9f64b2	0.019457195
245	0xbd31379f	-0.043265935
246	0x3d343dae	0.044004135
247	0xbd3203a4	-0.043460503
248	0xbde0676c	-0.10957226
249	0x3deb5dc5	0.114924945
250	0x3b40c4ce	0.002941418
251	0xbdbf3cce	-0.093377694
252	0x3c508315	0.012726565
253	0x3dcdc7ca	0.10047872
254	0x3a97ad3a	0.0011572011
255	0xbd16ed64	-0.036847487

a2c_network.mu.bias f4 [6]
0	0xbd4541e9	-0.04815856
1	0xbb37080d	-0.0027928383
2	0xbc954709	-0.018222349
3	0x3d16d473	0.0368237
4	0x3cb13a9d	0.021634394
5	0x3ba216df	0.004946574

exp_avg f4 [6]
0	0xbb81c9b4	-0.0039608125
1	0x3c4e3657	0.012586198
2	0x3c60a399	0.01371088
3	0x3c633d70	0.013869628
4	0x3c536767	0.012903071
5	0x3d12cc9d	0.035839666

exp_avg_sq f4 [6]
0	0x3ae38949	0.001735964
1	0x3b0791b6	0.0020686216
2	0x3add3b17	0.0016878572
3	0x3b19f71b	0.0023493234
4	0x3af05c1b	0.0018337996
5	0x3adc4efe	0.001680821
