IsaacGymEnvs/isaacgymenvs/runs/Cartpole_11-15-28-03/nn/last_Cartpole_ep_125_rew_493.68546.pth (torch, 29771 bytes, 24 tensors)

value_mean_std.running_mean f8 [1]
000000 65 ef de 46 c9 ef 1a 40
       6.734166247708207

value_mean_std.running_var f8 [1]
000000 9c 15 f9 94 87 4c 18 40
       6.074735954001337

value_mean_std.count f8 []
000000 00 00 00 00 01 40 3f 41
       2048001.0

running_mean_std.running_mean f8 [4]
000000 38 ad 4d 4d 32 33 c8 bf 4a 26 a0 a9 19 d5 af bf
       -0.18906239294606464 -0.06217270084023292
000010 46 37 6a 60 84 7d 5d 3f f2 75 50 cd f6 3f 6f bf
       0.001799945138972929 -0.00381468013303165

running_mean_std.running_var f8 [4]
000000 ad 10 b6 b6 4d 03 d1 3f f7 c5 31 8f a5 0d 05 40
       0.2658266338623985 2.631663435656033
000010 1d a8 e0 12 00 35 9e 3f 75 14 f5 80 93 1d 05 40
       0.02949905505389704 2.639441497306104

running_mean_std.count f8 []
000000 00 00 00 00 02 40 2f 41
       1024001.0

a2c_network.actor_mlp.0.weight f4 [32, 4]
000000 94 73 24 be 5d 49 82 bc f1 8c a0 be 91 c3 02 3e
       -0.16059715 -0.015904123 -0.3135753 0.12769915
000010 7b 5d a2 3e 90 65 a8 be ef a9 00 3f 61 d4 23 3e
       0.31711945 -0.32889986 0.502593 0.15998985
000020 a8 50 5e 3e a7 f4 78 3d 76 8e 92 3e 29 3e d5 bd
       0.21710455 0.060780194 0.28624314 -0.10412247
000030 ea 1a 49 3e 93 16 78 3d 98 f2 1c be f9 6f 4c 3e
       0.19639173 0.060568403 -0.15326917 0.19964589
000040 ec b4 a7 be 9e 0a 01 be 2b 0a b9 be 22 21 3a 3e
       -0.3275522 -0.12601706 -0.3614057 0.18176702
000050 cd 40 ca be 84 17 96 3c ef 64 14 be dd c3 ab bd
       -0.39502564 0.01832176 -0.14491628 -0.08386967
000060 22 87 0f 3e 89 99 cc be c6 e2 df 3e 30 dc b5 be
       0.14016393 -0.39960888 0.43727702 -0.35519552
000070 5e c8 bc 3e 38 cf a9 3d 86 f5 5e be 8e 5b 31 3e
       0.36871618 0.08291477 -0.21773347 0.17320082
000080 fb 05 1a bd f8 e1 a5 3e e9 f9 c7 3c 8d 60 97 be
       -0.03760336 0.32398963 0.024411159 -0.2956585
000090 9e 71 b8 bc f4 87 61 be ac 1f a3 3e 92 21 e2 3e
       -0.022515114 -0.22024518 0.318601 0.44166237
0000a0 09 e3 33 3e 58 8c 4c be 7a 1e b7 3e 51 8b 15 3e
       0.17567076 -0.19975412 0.3576544 0.14603926
0000b0 53 41 93 3e 4e c4 37 bc 55 e3 20 bf 63 bd 8c bd
       0.28760776 -0.011216236 -0.6284688 -0.0687206
0000c0 36 a8 11 bf 8d a6 3f 3e be 5d 63 3e ed 3d 0c ba
       -0.56897295 0.18715878 0.22203729 -0.0005349804
0000d0 ce 5d ba 3d 5e 2d 8a 3c b0 c5 9f 3e 78 57 8e be
       0.09099923 0.016867336 0.3120551 -0.27801108
0000e0 08 9e c7 3d 48 f3 55 be 22 20 63 bc 82 fa 35 be
       0.09746939 -0.20893586 -0.0138626415 -0.17771342
0000f0 ff a7 a2 3c 7d 91 a7 bd 7a 8c fc 3e 3c 0e 11 be
       0.019855497 -0.081820466 0.49325925 -0.14165586
000100 7f bc 28 bf 19 90 a0 be 31 00 19 3f d4 ff 98 3e
       -0.6591262 -0.31359938 0.5976592 0.2988268
000110 98 0d 02 3f ee ce 1d bd 9f 52 42 bf 9d 78 71 be
       0.5080199 -0.03852742 -0.7590732 -0.23581167
000120 39 ae ef be 21 97 5b 3c 6d 41 aa 3e 3f 6e 85 3e
       -0.4681261 0.013402731 0.3325304 0.26060674
000130 fd c3 ca be f5 fc 52 be d4 d3 01 3f bb 1a 69 3e
       -0.39602652 -0.20604308 0.5071385 0.22764103
000140 48 3f da 3e bb 66 2e bb 3a 80 8e 3e 72 77 3e be
       0.42626405 -0.0026611525 0.27832204 -0.18600252
000150 02 e1 ef bd 23 0c 24 3e 34 ee c4 bc dd 35 89 be
       -0.11712839 0.16020255 -0.024039365 -0.26798907
000160 6d 2c b0 3e cf cb d7 3e dd 84 12 bf 58 25 c7 be
       0.34408894 0.4214768 -0.57233983 -0.3889568
000170 59 cd fd 3e a0 99 37 3e 16 6e fd be a0 85 a0 be
       0.4957073 0.17929697 -0.4949805 -0.31351948
000180 ff 02 74 be 73 91 82 3e 3b 0d 00 bd 7f 78 9e be
       -0.23829268 0.25501594 -0.031262618 -0.30951306
000190 48 bf d6 bb b2 ea 94 bd 62 1b fc be d3 53 1c be
       -0.006553564 -0.07271327 -0.4923964 -0.15266351
0001a0 c7 6f 2e bf 1b ef a7 be 50 5f da 3e 95 fd 2b 3e
       -0.6813931 -0.3279961 0.42650843 0.16795953
0001b0 66 d5 1a 3f 0e 89 db 3d 88 a2 f8 be 40 b0 2a bd
       0.6048187 0.107195005 -0.48561502 -0.04167199
0001c0 03 1b 85 bd 88 1b 9a be 67 37 af be e7 11 7e be
       -0.06499293 -0.3009913 -0.34221956 -0.24811517
0001d0 10 80 d8 3e 07 a0 34 3e 90 34 56 be a9 d5 2f be
       0.42285204 0.1763917 -0.20918489 -0.17171349
0001e0 45 a3 f0 be d7 7c 89 bd 11 5c ac be 25 e3 8a be
       -0.46999565 -0.067132644 -0.3366399 -0.27126423
0001f0 99 eb 9f 3e 65 0f 0d be 68 d4 01 3f 04 e0 0a 3e
       0.31234434 -0.13775404 0.5071473 0.13562018

a2c_network.actor_mlp.0.bias f4 [32]
000000 bc bd a0 bd cf 30 db bd 4f 83 c9 bd b7 50 08 be
       -0.07848689 -0.10702669 -0.09839498 -0.1331204
000010 8b 21 4d bd 6c 82 b3 bd 93 8a ab 3c bd b7 a3 bd
       -0.050080817 -0.087651104 0.0209401 -0.0799403
000020 ff 16 38 bd 48 6a f0 bd 7c 4c eb bd 49 e2 72 bd
       -0.044943806 -0.117390215 -0.114891976 -0.059297834
000030 25 6e cd bd 82 91 9f bc 41 43 72 3d 85 e2 85 3d
       -0.10030774 -0.019478563 0.05914617 0.06537346
000040 b9 3f bb bd 39 06 09 be ab 05 09 be b7 8a 02 3d
       -0.091430135 -0.1338128 -0.13381068 0.03187057
000050 57 75 80 3d 7d 9b 71 3c 4e 94 c4 bd 42 08 a5 bd
       0.06272381 0.014746544 -0.095985994 -0.08058216
000060 b1 17 ef 3b 26 94 12 bd e7 67 2d 3e 0e c6 a4 3c
       0.0072965254 -0.035785817 0.16934167 0.020113971
000070 48 41 6b bd 6a a7 85 3d 17 29 a6 bd 3e 76 b6 bd
       -0.057435304 0.06526072 -0.08113306 -0.08909272

a2c_network.actor_mlp.2.weight f4 [32, 32]
000000 20 52 99 3d 9a 03 0c bd e0 d3 99 bd 8f fa f2 3d
       0.07486367 -0.034183122 -0.07511115 0.118641965
000010 b1 ce d6 3d 64 7e c1 bc 4a 5c 20 be 21 4b 51 bd
       0.10488642 -0.023619838 -0.15660205 -0.05109704
000020 e6 bb 1e 3e 34 30 b0 bd 5c 57 f7 bd 90 e3 a8 3c
       0.15501365 -0.08602944 -0.12077209 0.020616323
000030 cf d5 01 be 2b f3 3c bd ae f8 cd 3d 82 21 6f be
       -0.12679218 -0.04613034 0.100571975 -0.23352626
000040 e1 13 9d bb 87 8b 00 3e ef 71 90 bc 36 f4 9c bd
       -0.0047936295 0.12553225 -0.017632453 -0.07663767
000050 7b 08 b1 bc 1e c5 12 3e c5 69 20 3e 92 9e d4 bd
       -0.02161049 0.14333007 0.15665348 -0.103818074
000060 62 59 97 3d f4 a0 c8 3d 0c 9d 4b be 5b 10 24 bd
       0.07390095 0.09796324 -0.19884127 -0.04005466
000070 4e b7 1e 3e 48 52 40 3e c4 69 14 3d 8d c3 e6 bc
       0.15499613 0.18781388 0.03623368 -0.028169418
000080 96 cd af bd 65 4f a9 3d d6 b7 e3 3d 95 bf a8 3d
       -0.08584134 0.082670964 0.11119048 0.082396664
000090 cc dd 78 be 52 f2 3a be 57 61 65 3e 47 93 c0 3d
       -0.24303359 -0.182565 0.22400413 0.09403091
0000a0 98 14 d4 bd 30 24 d5 3c 04 6c 34 bc aa e2 a1 be
       -0.103554904 0.026018232 -0.011012081 -0.31618243
0000b0 1b 35 b7 bd 5e 1d ac 3d 54 73 f4 3d 0a f9 d5 3d
       -0.08945676 0.08404039 0.119360596 0.10447891
0000c0 dc 0a 98 be f5 89 1e be 33 09 e7 3c 39 3c 49 3e
       -0.29695785 -0.15482314 0.028202629 0.1965188
0000d0 48 55 9c 3d 40 99 e9 bd 35 87 1c be 3b 28 11 bd
       0.076334536 -0.11406183 -0.15285952 -0.035438757
0000e0 25 28 90 be a1 a1 25 3d fe 89 48 be ad a3 8c bb
       -0.28155628 0.040437344 -0.1958389 -0.0042919726
0000f0 0a c6 45 be ad 8e a9 3d 48 ec 14 3d b7 ae 2b 3e
       -0.19313827 0.08279166 0.036358148 0.16765867
000100 a8 df 16 be 49 d2 27 be 76 2a b1 bd 3a c6 51 3e
       -0.14733756 -0.16388811 -0.08650677 0.20485774
000110 ba d9 b2 3c 5d b9 bc 3d 61 8d 2e 3e 4b 17 f2 3d
       0.021832336 0.09215043 0.1704612 0.11820849
000120 15 45 8e bc 48 36 0f be eb cc eb bd 2b 12 f2 bd
       -0.017366925 -0.1398555 -0.115136944 -0.118198715
000130 ed d5 f9 3b af 1c f8 3b 1b c4 31 3d 0b 01 5d bd
       0.007624379 0.0075717787 0.04339991 -0.053956073
000140 f6 a8 7b be e3 5f a8 3c 5b 77 1e be 3a a1 b8 bd
       -0.24576172 0.020553535 -0.15475218 -0.090151265
000150 18 7b b0 3d 2d b3 18 3c 08 72 f8 bd 41 25 d9 3d
       0.08617228 0.009320063 -0.12131125 0.10602809
000160 dd 07 04 be 50 fc 9d bd 14 52 ac be 83 76 70 3d
       -0.12893625 -0.077141404 -0.3365637 0.05870677
000170 7e 0e 1f 3e 58 5e 27 bd c4 7a 72 3d 6d d9 ce 3d
       0.15532872 -0.040861458 0.05919911 0.101000644
000180 73 16 ed 3d 6d 24 07 be ab 62 1b 3e aa b2 9a bd
       0.115765475 -0.13197489 0.15174358 -0.07553609
000190 6b 7a d0 3d a5 0b 69 3e a9 8a a4 bd d3 5b 03 bd
       0.101795994 0.22758348 -0.0803426 -0.032069992
0001a0 71 d7 3e 3d 23 ef 49 be 40 f5 a8 3d 08 ff 8c bd
       0.04659218 -0.1972013 0.08249903 -0.06884581
0001b0 a5 f5 c1 3d 8b 71 4f 3d ee 30 05 3e 7f d6 e2 bd
       0.09470681 0.050645392 0.13006946 -0.11076068
0001c0 c3 d1 5a be 70 fa c9 3d 5a f8 ea 3c 3d d1 73 be
       -0.2136908 0.0986222 0.028682876 -0.23810287
0001d0 92 5e 01 be 1c 0a a7 bd 7d 33 d8 3d ad 83 f6 bd
       -0.12633732 -0.08156225 0.105566956 -0.12036834
0001e0 5a 97 22 3d 1b 1d 05 3d e0 0e ca be 6a ae 1e 3e
       0.03969512 0.03249846 -0.39464474 0.15496221
0001f0 05 08 46 3e ad f7 31 3c 89 00 99 3c c4 22 77 bd
       0.19338997 0.010862273 0.018677013 -0.06033589
000200 68 7d 21 be de 97 8f be ab 49 6e 3b 13 33 f2 bd
       -0.15770495 -0.28045553 0.0036359827 -0.11826148
000210 4c 17 28 be 94 9f 72 bd 33 55 be 3d 8f a0 da bd
       -0.16415137 -0.059234217 0.09293594 -0.10675155
000220 01 e9 94 bd 64 d8 de bd 4f 9e 0d be de 27 ff bd
       -0.072710045 -0.10881117 -0.13829921 -0.12458776
000230 cb 39 22 be f1 7e 98 3e 15 41 c2 3c e0 7f 19 3e
       -0.15842359 0.2978435 0.023712674 0.14990187
000240 2e 8c 13 be 21 20 2e 3d b6 12 fe 3d a5 3c 44 3d
       -0.14408943 0.04251111 0.124059126 0.047909398
000250 1d 11 04 bc 0d d0 ce bc 13 34 aa 3d a6 85 5c 3e
       -0.008060721 -0.02524569 0.083107136 0.21535358
000260 72 c1 f1 3c ab 24 b4 3d 9b 5e a9 bd dc a0 11 3d
       0.029511187 0.08796056 -0.08269998 0.035553798
000270 2a 16 00 be b1 d9 cf bc 7b 5e a6 3d 5c 2a a7 bb
       -0.12508455 -0.025372358 0.081234895 -0.005101485
000280 1a 69 00 be 37 c7 03 be d5 3c f4 bd 87 08 8d be
       -0.12540093 -0.12868963 -0.11925665 -0.27545568
000290 56 54 6b bd b0 24 6b 3d e6 7d d3 3d 96 30 41 bd
       -0.057453476 0.057408035 0.103267476 -0.047165476
0002a0 2d 73 ed bd 60 4e 2b be dd 8a a8 3d 68 92 db bd
       -0.11594234 -0.16729116 0.08229611 -0.10721284
0002b0 36 0a b8 3b 60 36 32 3d a9 1a 9d bd 6e ad 8d bc
       0.0056164516 0.043508887 -0.07671101 -0.017294612
0002c0 e3 95 2d 3c 8c 06 6a bd 36 9e eb bd 3d a1 c7 bd
       0.010594818 -0.05713515 -0.11504786 -0.09747551
0002d0 e6 fb 64 be d9 32 64 3c ab 0b 53 3e e0 2c 6e be
       -0.22361717 0.013928139 0.2060992 -0.23259306
0002e0 74 c0 53 3d d9 ec e5 3d e2 46 d5 3b a3 7d 9d 3d
       0.05169721 0.11226816 0.006508694 0.07689979
0002f0 6c 7e 3e 3e 41 0b 08 3e 73 1f b7 bd 3e f9 36 3d
       0.18602914 0.13285543 -0.08941545 0.04467129
000300 ea 82 40 3e 82 b9 bd 3c 77 a9 3a bd 62 39 78 3e
       0.1879994 0.023159746 -0.04557177 0.2424064
000310 d4 40 8f bd 63 47 46 be ed 31 12 be 30 65 e7 3d
       -0.06994787 -0.1936317 -0.14276858 0.11298597
000320 09 64 fa 3d 00 88 a7 3d 3c 4a 7f 3d 51 40 24 bd
       0.122261114 0.08180237 0.062326655 -0.0401004
000330 03 2c 4d be b5 ca dc bc 6d 28 1d 3e 6e 0a d6 3c
       -0.2003632 -0.026952127 0.15347452 0.02612802
000340 0b 1b a3 be 52 73 f9 3d 50 75 01 be 81 cf 45 bd
       -0.3185657 0.12180199 -0.12642407 -0.048293594
000350 ab 14 4d 3d cb 2f f0 3d b9 fd 23 3e 11 0d 0a 3d
       0.05006854 0.11727866 0.16014756 0.033703867
000360 45 df cc 3d 23 13 e0 bd 9b d0 d1 bb 0d 9d b2 3e
       0.10003523 -0.1094115 -0.0064030415 0.34885445
000370 65 b3 1c 3d ac 9e 89 3e 20 27 6a be a8 b3 58 bc
       0.03825702 0.2687887 -0.22866488 -0.013226427
000380 0a a8 32 3d 76 7a 74 bd 46 d4 43 bd 9f 4f 6d bd
       0.043617286 -0.0596871 -0.04780986 -0.05793726
000390 a3 01 11 3d fe c2 0f 3c 88 de 11 3e 4f 57 f1 bd
       0.03540195 0.008774517 0.14245045 -0.11784231
0003a0 ef 47 39 be 6c cf b6 3c 78 87 f8 3c be b4 32 be
       -0.18093847 0.022315703 0.030338034 -0.1745176
0003b0 67 1d 9c bd a7 8e 5d 3e 6a 8b 6a 3d be de d4 3d
       -0.076227956 0.21636449 0.05726186 0.10394047
0003c0 25 07 62 be 8d 75 1f be c9 72 28 be 8a 12 40 be
       -0.22073038 -0.15572186 -0.16450037 -0.18757072
0003d0 5c a0 07 3d ff 55 bf bc 52 11 87 be 34 29 49 bc
       0.033111915 -0.023356436 -0.26380402 -0.01227789
0003e0 40 4a 6c 3d e2 a0 01 3d ef 19 c9 bd 56 a6 ea bc
       0.057687998 0.03164757 -0.098193996 -0.028643768
0003f0 5e 24 4b bd 69 06 0a 3d 00 fb 2a be d7 24 f7 bd
       -0.04959523 0.03369752 -0.16697311 -0.120675735

a2c_network.actor_mlp.2.bias f4 [32]
000000 31 43 0c be 2e 8b 7a 3d 65 d0 c9 3d 3f f5 20 be
       -0.13697506 0.06116789 0.09854201 -0.15718554
000010 97 cf cc 3d fd bc c6 bd 13 89 fd 3d bc 58 d8 3d
       0.10000532 -0.097040154 0.123796605 0.105638
000020 17 5b f6 3d 1f 52 21 be 11 15 bf 3d 19 54 2b 3c
       0.12029093 -0.15753983 0.0933019 0.010457062
000030 5c c8 51 3d f3 17 91 3d dd 71 11 3e 8b 67 e7 bd
       0.05121647 0.07084646 0.14203592 -0.11299046
000040 1d ea e4 bd 2d 55 bc 3d de d7 f2 3d 73 b4 e1 3d
       -0.11177466 0.091959335 0.1185758 0.11020746
000050 e2 c7 0d be c9 eb a2 3d 50 51 a8 3d 0c b8 ec bd
       -0.1384578 0.07955129 0.08218634 -0.11558542
000060 86 04 9e 3d e1 c2 4d 3d bf 19 f1 bd 56 4e b8 bd
       0.077157065 0.05023468 -0.11772489 -0.089993164
000070 38 7e 19 be 32 04 d2 bd c2 2a a3 be 27 a2 56 be
       -0.14989555 -0.102547064 -0.3186856 -0.20960294

a2c_network.value.weight f4 [1, 32]
000000 fa 26 44 bd 54 99 44 3d 78 0e 6b bc 57 69 9e bd
       -0.047888733 0.047997788 -0.014346711 -0.07734936
000010 8d 8a 07 bd d5 89 af 3b c2 c2 9b 3d a1 3b e1 3d
       -0.033091117 0.005357007 0.076055065 0.109977014
000020 46 8f 5b bc 22 47 4f 3c 7b 1d 98 3d f8 c6 c1 3c
       -0.013400858 0.012651237 0.07427498 0.023654446
000030 22 8c 21 bd fc 1a e5 3c 81 28 33 3d b1 4b 6d 3c
       -0.03944028 0.027966969 0.0437398 0.014483378
000040 ff 9d a3 3d 88 b5 bf bd 40 dc d4 3d 26 2f 41 3e
       0.0798912 -0.09360796 0.10393572 0.18865642
000050 27 dd 03 3d e0 d7 d8 3c 29 0b ea bc d9 db 5f bd
       0.03219333 0.026470125 -0.028569775 -0.054653022
000060 12 ff 52 3d a3 5c 88 3c 85 d1 67 bd f0 e6 1b 3d
       0.051512785 0.016645735 -0.056596298 0.038062036
000070 c6 02 e8 3c 09 b2 f2 3d 0c b1 d4 bb de cb f8 bd
       0.028321635 0.11850364 -0.006490832 -0.121482596

a2c_network.mu.weight f4 [1, 32]
000000 fb 7e c0 bc ed 47 e6 bd 8b 23 2c bc 88 d8 c8 bb
       -0.023498049 -0.112441875 -0.010506521 -0.006129328
000010 5e 4d 24 3e 0f ea ec 3b c6 96 9a bd 9c f7 44 be
       0.16045138 0.0072300504 -0.07548289 -0.1923508
000020 c2 4f e1 3c 65 dc c9 bc 90 71 53 be 73 c8 51 3e
       0.027503852 -0.024641225 -0.2064879 0.20486622
000030 14 17 81 bd ec 44 87 be 2a d9 8b 3e 7f 90 ca bd
       -0.0630323 -0.2641977 0.2731412 -0.09890842
000040 53 ae 23 3d 2d 81 80 3c 9f c9 8b 3c 5c 2e ca bd
       0.03996117 0.015686596 0.017063914 -0.098721236
000050 46 06 b7 3b 5f 0d ad bb ca 8e 92 3d 4e b9 5f 3d
       0.0055854646 -0.005281135 0.07156141 0.05462008
000060 38 6c 97 3d a6 d5 d7 bb db 7b 66 3d b0 2b e1 bd
       0.07393688 -0.006586748 0.05627046 -0.10994661
000070 eb a7 92 3b 40 07 87 bb bb c4 a3 be 46 2f 9f be
       0.004475584 -0.0041207373 -0.3198603 -0.31090754

exp_avg f4 [32, 4]
000000 fe 36 09 3b dd 17 f0 39 70 2b 4e b8 19 f5 a7 38
       0.002093732 0.00045794147 -4.915468e-05 8.0088335e-05
000010 7f 0a 0c 3b d7 21 14 3b d6 d2 18 3b 49 55 09 3b
       0.002136856 0.0022603178 0.0023319027 0.0020955375
000020 4e ed 8f 3b 41 e5 09 3b f2 ff 52 3a 93 12 ae 3a
       0.0043923026 0.0021041187 0.0008049003 0.0013280682
000030 09 40 f9 3b 3a 82 92 3a 40 82 9b 3a f7 44 e2 39
       0.0076065105 0.0011177727 0.0011864379 0.00043157462
000040 49 b7 09 3b af 1a ea 38 ee 34 f3 3a 80 b8 0e 3a
       0.0021013787 0.0001116296 0.0018555203 0.0005444363
000050 b0 50 9c ba 21 89 a7 ba 77 a8 9a b9 24 38 57 ba
       -0.0011925902 -0.0012781956 -0.00029498685 -0.0008209965
000060 1c 5b 9e 3a 1f c8 cc 39 75 93 b7 ba e1 24 62 b9
       0.0012081596 0.00039059014 -0.0014005738 -0.00021566778
000070 f1 1f 97 3b b7 96 02 3a e9 a6 f3 39 95 d9 0e 38
       0.004611962 0.00049815647 0.0004647293 3.4058077e-05
000080 cf 3e b9 b9 c0 cc a4 b9 18 bf 98 ba d4 de 26 ba
       -0.00035332746 -0.00031433068 -0.001165363 -0.00063656014
000090 36 eb 4a 3c d7 e1 93 3b b8 ea b4 3a c7 a5 1b 3b
       0.01238518 0.004513006 0.0013802862 0.0023749934
0000a0 c1 7b fc 3b 20 04 56 3b 3e 26 d0 3a 29 d1 08 3b
       0.0077051823 0.0032656267 0.0015880538 0.0020876622
0000b0 90 a2 83 bb e4 1f 50 ba 06 21 ce 39 16 86 41 b9
       -0.0040171817 -0.00079393224 0.00039315986 -0.00018455865
0000c0 b1 ce 1a 3a f7 d0 c4 b9 a5 3d 1c b9 4b 1c 7e b9
       0.0005905433 -0.00037539724 -0.00014900284 -0.00024233868
0000d0 45 76 24 3a 0a 57 6a ba 8a 18 24 39 1a 97 ec b9
       0.0006273727 -0.00089393614 0.000156494 -0.00045126007
0000e0 2e 5c b7 bb 32 18 1d bb cf 9e 14 3a c8 2c 70 ba
       -0.0055957055 -0.002397072 0.0005669416 -0.00091619464
0000f0 50 08 81 bb 7d 55 e9 ba 6d d7 62 ba 49 1e 84 ba
       -0.0039377585 -0.0017801967 -0.0008653317 -0.0010079826
000100 62 7d 80 39 bc d5 66 ba ee af 45 b9 a1 14 02 ba
       0.0002450748 -0.00088056526 -0.00018852923 -0.00049621804
000110 aa d7 43 bc 04 38 29 bb 6b 14 62 3a 97 86 52 ba
       -0.011953274 -0.0025820741 0.00086242583 -0.00080309197
000120 08 19 97 3b 2f 4b 44 3b 0b fe 61 ba 4b 3e 9f 3a
       0.0046111383 0.002995204 -0.0008620924 0.0012149302
000130 c0 b2 72 b9 d0 a7 35 39 52 2d bc ba 59 d8 96 b9
       -0.00023145508 0.0001732402 -0.0014356768 -0.0002877142
000140 84 cf b7 38 c6 df 0a ba 74 72 a8 3a 6e 61 e2 38
       8.764773e-05 -0.0005297627 0.0012851493 0.000107946675
000150 9f 86 99 bb 00 91 e1 ba d0 c2 61 ba be 92 8c ba
       -0.0046852375 -0.0017209351 -0.0008612098 -0.0010724885
000160 f8 74 5c bc 68 5a 12 bb d9 f1 63 3a 95 34 bc b9
       -0.013455622 -0.0022331718 0.0008695401 -0.0003589733
000170 f2 f0 42 bc ba 5d 16 bb dd 96 1d 3a a5 30 23 ba
       -0.011898266 -0.002294405 0.0006011555 -0.0006225205
000180 ac 34 e9 bb 70 1d 64 bb e8 98 8e 39 0c 35 dd ba
       -0.0071168747 -0.0034807585 0.00027198275 -0.0016876771
000190 13 1c 61 bb 27 fa 4f ba 70 ee 5e b9 84 8f e4 b9
       -0.003434901 -0.0007933699 -0.00021260395 -0.00043594476
0001a0 ad 67 6a b9 f1 da 01 bb 9a a7 6b ba 7e 99 a6 ba
       -0.00022354601 -0.0019814337 -0.0008989513 -0.0012710539
0001b0 4d 03 74 bb 32 4b 26 ba a3 d2 be 39 bd bf ae b8
       -0.0037233413 -0.00063436024 0.0003639656 -8.3326806e-05
0001c0 25 ff ba ba b5 ee 94 b9 91 e0 91 39 68 d9 85 b8
       -0.0014266713 -0.0002840661 0.0002782387 -6.382429e-05
0001d0 21 12 8a bb 3f c3 14 ba 88 5c a4 37 2d dd ba b8
       -0.004213587 -0.0005674846 1.9593412e-05 -8.910368e-05
0001e0 a2 63 36 bc 10 a7 2c bb b2 9e 28 bb de f9 f8 ba
       -0.011132153 -0.0026344694 -0.0025729355 -0.0018995365
0001f0 92 90 d8 3a 0b db c7 3a 0c 80 69 39 db f6 62 3a
       0.0016522577 0.0015247775 0.00022268313 0.0008658

exp_avg_sq f4 [32, 4]
000000 46 45 93 38 99 45 72 37 c5 19 7d 37 2f 58 5b 37
       7.0224094e-05 1.44405285e-05 1.5085975e-05 1.3073949e-05
000010 26 4a 2b 39 85 89 49 39 de 33 8b 38 16 77 2d 39
       0.00016335453 0.00019220084 6.6376975e-05 0.00016542929
000020 12 58 d9 38 ab 83 dd 38 15 37 eb 37 f8 a7 be 38
       0.00010363771 0.00010562626 2.8039833e-05 9.0911926e-05
000030 a9 ab 5b 39 3f f3 4a 38 82 d1 3b 37 06 ac 52 38
       0.00020949416 4.8387094e-05 1.1194848e-05 5.022811e-05
000040 e4 5b 8f 38 eb 0f d7 37 f7 fb 3a 37 65 5f db 37
       6.835887e-05 2.563741e-05 1.1145129e-05 2.6151256e-05
000050 13 a3 d2 38 7d 75 ad 38 13 a4 2a 38 62 55 93 38
       0.00010043955 8.271167e-05 4.0683964e-05 7.02541e-05
000060 a8 33 4a 38 fd 75 10 38 43 25 b2 37 cb ea 00 38
       4.820866e-05 3.444216e-05 2.1236605e-05 3.0736246e-05
000070 e8 c5 9f 38 f3 29 6e 38 36 2e 8d 37 9c 0f 42 38
       7.618574e-05 5.678269e-05 1.6830028e-05 4.626774e-05
000080 94 f4 c4 38 57 2c 0b 39 a9 4f 0a 38 e2 ff e7 38
       9.3915645e-05 0.00013272591 3.2975953e-05 0.000110626
000090 d7 cd 02 3a 0c 19 56 39 a2 40 89 38 83 dd 46 39
       0.0004989779 0.00020417961 6.544708e-05 0.00018965271
0000a0 06 9c 98 39 e6 8b 1a 39 cb ac 31 38 af 57 17 39
       0.00029107946 0.000147387 4.2361014e-05 0.00014433147
0000b0 0d c7 18 39 c6 f7 17 39 5b 75 63 38 2b ee 06 39
       0.00014570002 0.00014492785 5.4230313e-05 0.0001286796
0000c0 2e d8 09 38 e6 8f 4b 38 dd cb 3e 37 9e 98 44 38
       3.286468e-05 4.8532987e-05 1.1372348e-05 4.6872177e-05
0000d0 4b 6d ce 37 65 b1 30 37 9b 64 16 37 bc be 0e 37
       2.4608007e-05 1.053172e-05 8.964121e-06 8.508268e-06
0000e0 58 3c 2c 39 58 28 3e 38 d4 9c b7 37 4e 0a 2e 38
       0.00016425678 4.5337103e-05 2.1888329e-05 4.149443e-05
0000f0 04 9c 72 39 b6 4b 03 38 ab 6d a6 37 c8 f1 04 38
       0.00023137039 3.1303345e-05 1.983981e-05 3.169643e-05
000100 d6 68 ae 39 dd 01 e1 39 c2 f2 07 39 83 7a d3 39
       0.00033265975 0.00042916732 0.00012965038 0.00040336334
000110 58 06 f1 39 de d4 6a 39 55 69 83 38 85 9c 83 39
       0.00045971829 0.00022395278 6.2661864e-05 0.00025102883
000120 6e b4 21 39 c8 db e6 38 d0 51 2c 38 75 6b ce 38
       0.00015421372 0.00011008192 4.108419e-05 9.842861e-05
000130 52 74 e8 37 89 49 fd 36 00 ae 01 36 dc eb 19 37
       2.7710721e-05 7.548548e-06 1.932378e-06 9.174426e-06
000140 e4 73 90 38 31 2b 71 38 7c 46 a4 37 95 ae 47 38
       6.8880414e-05 5.7499103e-05 1.9583145e-05 4.760789e-05
000150 6d 83 52 39 15 99 b0 38 22 9d 44 37 33 ac c4 38
       0.0002007612 8.420848e-05 1.1719096e-05 9.378083e-05
000160 6a e1 16 3a 92 95 c1 39 aa f2 c4 38 74 3c b7 39
       0.0005755635 0.00036923267 9.391208e-05 0.0003494952
000170 11 a2 e0 39 5d 0e 4c 39 b2 d3 09 38 6f 4f 67 39
       0.00042845358 0.00019460307 3.2860502e-05 0.00022059468
000180 f6 05 8e 39 c9 e6 1a 39 11 27 45 38 3e 3a 0e 39
       0.00027088792 0.00014772559 4.7004844e-05 0.00013563872
000190 74 67 e0 38 ce cb a1 38 b1 e2 2b 38 3c 40 88 38
       0.00010700422 7.71504e-05 4.09807e-05 6.49695e-05
0001a0 15 64 01 39 df 72 1b 38 df 40 8f 37 80 5a 2d 38
       0.00012339682 3.706186e-05 1.7077136e-05 4.13307e-05
0001b0 b6 98 c4 38 30 d8 ba 38 a8 ff ff 36 35 63 db 38
       9.374453e-05 8.909439e-05 7.6293545e-06 0.000104612125
0001c0 5f 6a 44 38 7e 40 fd 37 38 e8 0c 38 55 05 e3 37
       4.6829107e-05 3.0189982e-05 3.359487e-05 2.7062992e-05
0001d0 34 d1 25 38 b1 49 08 38 e3 6a 7f 36 6d cb 10 38
       3.95339e-05 3.2493557e-05 3.8060177e-06 3.452173e-05
0001e0 95 29 1d 3a 48 49 50 39 37 9d a4 38 65 83 53 39
       0.0005995271 0.00019863725 7.849413e-05 0.00020171476
0001f0 0d e3 91 38 32 56 14 39 8b 2c 3f 38 db d5 f3 38
       6.95643e-05 0.0001414649 4.5579432e-05 0.000116269766

exp_avg f4 [32]
000000 a7 28 48 bb fd 30 1d bc ae 92 1c bc ea bc 67 bc
       -0.0030541809 -0.009594199 -0.009556456 -0.014144162
000010 1d 14 91 bb b5 7b 93 3b 48 99 c2 b8 3d 30 03 bc
       -0.0044274465 0.004500831 -9.279192e-05 -0.008007106
000020 bd 59 35 3b e0 b6 cb bc ed 7f 8e bc 11 e7 ca 3b
       0.0027671896 -0.024867475 -0.017394984 0.006192096
000030 9d 78 0f 3a 1b 15 f1 38 d5 73 1e 3c 7c cf 0a 3c
       0.000547299 0.00011495707 0.009671171 0.00847232
000040 95 d8 df 3a 89 59 95 3c 0b b6 12 bc df 99 f1 3a
       0.0017078096 0.01823117 -0.008954535 0.0018432698
000050 e2 e4 08 bb 67 ca 2f 3c 81 c7 a4 3c f5 8c 96 3c
       -0.0020888378 0.010729409 0.020114662 0.01837776
000060 15 1b 6a 3c 97 16 ce 3b 0a d8 9f 3b 6e 70 ae 3b
       0.014288683 0.006289314 0.004878049 0.0053234613
000070 cf 98 16 3b 2b f3 cc 3b bd eb bd 3c 18 c4 a3 bb
       0.0022979265 0.006254574 0.023183698 -0.0049977414

exp_avg_sq f4 [32]
000000 fb bb 87 39 aa 99 5b 3a 5d 19 10 3a 09 f3 6d 3a
       0.00025889263 0.0008377085 0.00054969435 0.00090770476
000010 34 42 a5 39 a4 b8 2b 3a 14 c7 63 39 4f dc 9e 39
       0.00031520578 0.0006550646 0.0002172257 0.0003030025
000020 8c 38 e2 39 66 a1 07 3b 23 e5 c4 3a f3 61 47 3a
       0.0004314821 0.0020695566 0.0015021901 0.0007605843
000030 13 3d b2 39 32 35 a9 38 5a 16 25 3a eb 9e 41 3a
       0.0003399631 8.0684564e-05 0.0006297581 0.00073860463
000040 71 77 47 3b 5c 4d 43 3b 22 8e 72 3a ba d0 28 39
       0.0030436183 0.0029800748 0.0009252747 0.00016099485
000050 5d 0c b5 39 4e fb 88 3a 78 84 54 3b 75 fd 35 3b
       0.00034532222 0.0010450871 0.003242759 0.002776948
000060 7c c4 9e 3a 17 ae fc 39 d6 42 25 3a f5 a2 80 3a
       0.0012113 0.00048194893 0.000630421 0.000981419
000070 3b 2f 32 39 99 4c a3 39 fc cf 37 3b 13 16 dc 39
       0.00016992998 0.00031146852 0.0028047552 0.00041978116

exp_avg f4 [32, 32]
000000 6e 5f ad b7 a1 fc 53 39 64 f5 0e 39 01 12 f9 38
       -2.0667645e-05 0.0002021664 0.0001363359 0.00011876599
000010 f3 28 90 b8 54 36 0d b8 71 9e 7b 37 49 de 05 39
       -6.8740825e-05 -3.3667617e-05 1.4997656e-05 0.00012766676
000020 5b 30 2f 37 e4 28 4e 39 0b a6 36 39 86 67 18 38
       1.04420715e-05 0.00019660924 0.00017418728 3.6336038e-05
000030 b1 2f 99 38 72 e3 63 38 4f b1 9f b8 d2 2d 4b 38
       7.304492e-05 5.4332842e-05 -7.614737e-05 4.8441645e-05
000040 ad 4a 1e 39 b9 90 0a 39 f1 d6 24 39 32 3c 95 38
       0.00015095873 0.00013214619 0.0001572033 7.116086e-05
000050 14 35 87 38 ae fc 78 b8 24 ce d4 38 48 c1 01 39
       6.447188e-05 -5.9363134e-05 0.000101473444 0.00012374402
000060 76 92 89 b8 ad 2d bb b8 bd 96 b5 b8 85 a9 ff 38
       -6.5599495e-05 -8.9253626e-05 -8.65883e-05 0.00012190923
000070 d3 f8 d3 b8 a3 1b 26 38 6f a8 08 b9 71 1e 53 39
       -0.00010107611 3.9603223e-05 -0.00013032717 0.00020133868
000080 49 2d 81 39 5f 7a 73 3a b1 df 07 3b 97 fd 54 3b
       0.00024638537 0.0009287949 0.0020732696 0.0032499784
000090 8b 4b c1 ba f3 12 01 bb 51 98 1f bb b2 73 75 3b
       -0.0014747245 -0.0019695133 -0.0024352262 0.0037452993
0000a0 b6 7a 71 3a 11 56 bb b9 56 78 77 3a 94 b6 48 3b
       0.0009211706 -0.00035731544 0.00094402337 0.0030626403
0000b0 b7 ac 80 bb 08 98 73 b9 03 bf 42 ba f9 1d 37 bb
       -0.003926839 -0.00023230922 -0.00074289757 -0.002794145
0000c0 8e 54 00 bc a8 ca 9f 3b 1f c5 5f bb 19 08 d1 bb
       -0.007832659 0.0048764534 -0.0034144593 -0.006379139
0000d0 5b 55 ee 3a 83 6a 4f ba fd cb 85 3b d4 2c 93 3b
       0.0018183397 -0.0007912295 0.004083155 0.004491428
0000e0 19 f8 b8 ba 81 d9 2d 3a de df 32 bc b0 d5 89 3b
       -0.0014112025 0.0006631837 -0.010917632 0.0042063817
0000f0 c9 1e de b8 9e 7e 30 3b 05 86 28 bb 6c 46 b4 3a
       -0.00010591519 0.0026930938 -0.0025714647 0.0013753898
000100 34 5f 5a b7 d3 32 39 39 43 90 1f 39 8a 93 33 39
       -1.3015979e-05 0.00017661908 0.00015217163 0.00017125733
000110 24 6c e8 b8 9d 52 e5 b8 06 4b 00 b7 ea ba 54 39
       -0.00011082765 -0.00010934959 -7.646862e-06 0.00020287526
000120 94 1a 00 38 35 4a ae 38 e7 ba 14 39 f5 67 20 39
       3.054233e-05 8.310789e-05 0.00014184006 0.00015297516
000130 91 7c 16 b9 45 9e 37 38 d7 de 09 b8 db 89 33 b8
       -0.0001435152 4.3778e-05 -3.287088e-05 -4.2805314e-05
000140 86 88 5b b9 db bb 87 39 eb e4 a0 b8 ec 08 43 b9
       -0.00020936326 0.0002588917 -7.672034e-05 -0.00018599973
000150 de 03 fc 38 50 5a 7e b8 69 9a 63 39 c6 f7 7b 39
       0.00012017017 -6.064243e-05 0.00021705929 0.00024029528
000160 46 9b d0 b8 f8 d0 90 36 f0 3c dc b9 62 cd 70 39
       -9.947135e-05 4.3158616e-06 -0.00042007072 0.00022964695
000170 68 75 0e b8 79 f5 0f 39 43 26 30 b9 92 f5 3a 39
       -3.396478e-05 0.00013728988 -0.00016798922 0.00017829824
000180 28 7a 90 37 54 e3 88 b9 5b 88 90 b9 4d 4b b6 b9
       1.7223021e-05 -0.00026109314 -0.00027567413 -0.0003476985
000190 f0 2f 83 39 70 a0 98 39 69 b3 ac b4 57 a4 e3 b9
       0.00025021983 0.00029111234 -3.2168035e-07 -0.00043419257
0001a0 1a 5f a4 b8 87 ce 48 38 d0 8f 45 b9 1f 68 e5 b9
       -7.8378434e-05 4.787606e-05 -0.00018840958 -0.0004375586
0001b0 af 90 17 3a 6b f4 97 b8 d6 40 19 b8 d3 32 4b 39
       0.00057817524 -7.2457675e-05 -3.6538426e-05 0.00019378522
0001c0 98 6c 69 3a fc 2c 26 ba f7 ec 02 3a 7d a0 36 3a
       0.00089044264 -0.00063391007 0.0004994417 0.00069666636
0001d0 96 80 97 b9 4e f1 c6 38 48 18 0c ba 39 e2 17 ba
       -0.00028896768 9.486322e-05 -0.00053441944 -0.00057939027
0001e0 31 50 5e 39 c5 13 2f b9 7f 80 9b 3a b9 df 0c ba
       0.00021201443 -0.00016696665 0.0011863856 -0.00053739134
0001f0 1d bd ab b8 ac 76 c3 b9 73 6c a4 39 d1 44 87 b9
       -8.1891405e-05 -0.00037281716 0.00031361319 -0.0002580048
000200 7c 0b dd 39 0d 31 8f bb 4d 9f 82 bb a5 6c 93 bb
       0.0004216096 -0.004369861 -0.0039862753 -0.0044990354
000210 59 00 43 3b 8a 2f 40 3b 89 cc 15 3a ed d1 ad bb
       0.0029754846 0.002932521 0.0005714377 -0.005304566
000220 d3 79 63 ba 5a de 04 bb 9c 35 6b bb 12 c6 87 bb
       -0.0008677516 -0.0020274133 -0.0035890108 -0.004143485
000230 2a 4f 81 3b e7 72 89 ba 35 97 71 3a 07 28 b6 3a
       0.0039462047 -0.0010486514 0.0009215952 0.0013897427
000240 c2 23 c8 3b 28 54 e9 bb c7 9f 12 3b 1e 49 af 3b
       0.0061077783 -0.007120628 0.0022373067 0.0053492924
000250 5c e9 4e bb 92 da cd 3a 89 0a be bb f9 5d d5 bb
       -0.0031572198 0.0015705398 -0.0057995957 -0.0065114466
000260 c9 f6 28 3b 17 d5 2e b9 8d ec 3f 3c 94 7c c8 bb
       0.002578186 -0.00016673315 0.011714113 -0.0061183665
000270 e7 93 48 3a b9 02 6f bb 6f d4 93 3b 3d f7 93 bb
       0.00076514337 -0.0036470129 0.004511408 -0.004515557
000280 f5 ee b8 37 bf 4e 29 b9 39 0a 03 b9 67 2e f8 b8
       2.2045782e-05 -0.00016146431 -0.00012496942 -0.000118342046
000290 36 07 a3 38 cc 3e 55 38 49 6d a1 36 37 a0 08 b9
       7.773789e-05 5.084164e-05 4.8108964e-06 -0.00013029655
0002a0 69 3d a3 b7 05 e0 0f b9 71 d1 13 b9 2a e6 9b b8
       -1.945971e-05 -0.00013720997 -0.00014097035 -7.433847e-05
0002b0 19 d7 d2 35 d8 78 34 b8 9b 2e 6a 38 ce d0 04 b7
       1.5708821e-06 -4.302789e-05 5.5833352e-05 -7.916429e-06
0002c0 a5 bd 40 b7 f9 a4 36 b9 76 0f 8c b8 83 f5 db 37
       -1.1488247e-05 -0.0001741833 -6.6786e-05 2.622116e-05
0002d0 54 78 91 b8 be a4 52 38 6b 00 09 b9 8b e6 22 b9
       -6.936552e-05 5.022133e-05 -0.00013065494 -0.00015535408
0002e0 65 14 89 38 5a 4e 40 38 39 db 4f 39 85 7b 13 b9
       6.536468e-05 4.5849338e-05 0.00019822725 -0.00014065027
0002f0 b9 a7 7c 38 d2 52 82 b8 f2 19 03 39 b7 d5 2d b9
       6.0237686e-05 -6.2143095e-05 0.00012502799 -0.0001657818
000300 b4 76 83 b8 9d 8d cc 3a 30 2e bf 3a f9 d4 e0 3a
       -6.268677e-05 0.0015606169 0.0014585909 0.0017153315
000310 b5 15 8e ba 13 f9 92 ba a0 45 3a b8 72 3d 06 3b
       -0.001084021 -0.0011213146 -4.44107e-05 0.0020483402
000320 ed d8 bd 39 1b 8f da 39 ba a1 a0 3a 48 da e8 3a
       0.00036210511 0.00041686822 0.001225523 0.0017765248
000330 21 d5 f5 ba 92 40 d7 39 a4 40 10 b9 36 c8 2b ba
       -0.0018755534 0.00041056104 -0.0001375699 -0.0006552966
000340 ab 5d 3c bb 20 db 38 3b 93 09 b0 ba 6c e4 1f bb
       -0.0028742354 0.002820678 -0.0013430588 -0.0024397625
000350 8d d6 a0 3a 0a f3 08 ba 0c 02 1b 3b c9 43 29 3b
       0.0012270972 -0.0005224204 0.0023652343 0.0025827757
000360 e2 f9 7b ba 7d 5a cb 39 05 f1 9c bb f0 60 1c 3b
       -0.00096121256 0.00038786596 -0.004789474 0.002386149
000370 03 61 d7 37 38 58 c4 3a 24 e1 c2 ba 47 fa cb 3a
       2.5675172e-05 0.0014979905 -0.0014868123 0.0015562259
000380 5a 1b 29 ba 88 4c d6 3b 37 66 bb 3b 42 23 d0 3b
       -0.0006450914 0.006539885 0.005718972 0.0063518593
000390 9c fd 90 bb 23 1d 91 bb 7e 17 e5 38 cf 0f fa 3b
       -0.004424764 -0.004428522 0.00010923947 0.007631279
0003a0 27 1e 98 3a ca 48 24 3b 0d af a9 3b d0 22 ce 3b
       0.0011605666 0.00250678 0.0051783384 0.006290771
0003b0 25 37 d2 bb 08 0d e8 3a ed 85 48 ba 22 23 e6 ba
       -0.006415265 0.0017704079 -0.0007649351 -0.0017558078
0003c0 03 ad 18 bc 47 77 2a 3c f2 74 84 bb 1f 6a 02 bc
       -0.009318593 0.0104044145 -0.0040422613 -0.007959872
0003d0 49 bc 9d 3b 81 31 10 bb 62 0a 0c 3c 75 24 1c 3c
       0.004813705 -0.0022002163 0.008547397 0.009530176
0003e0 f9 af 7a bb a2 f0 3d 3a 09 2e 8a bc 65 fc 12 3c
       -0.003825186 0.0007245635 -0.016867654 0.008971308
0003f0 a5 09 1a ba 0d fc b4 3b ed fc cf bb 62 34 d6 3b
       -0.0005876071 0.005523211 -0.00634729 0.0065370062

exp_avg_sq f4 [32, 32]
000000 4a 8e 06 36 8a 6e d7 36 eb 01 92 36 c6 0d 3f 36
       2.005038e-06 6.4203678e-06 4.3513623e-06 2.8469235e-06
000010 28 6c 22 36 37 15 18 37 dc 33 e4 36 8e bd ba 36
       2.4202836e-06 9.0648455e-06 6.8009667e-06 5.565299e-06
000020 d9 03 55 35 6e 5f 87 36 65 06 8b 36 f1 7b a8 36
       7.935428e-07 4.034423e-06 4.1432672e-06 5.021219e-06
000030 9a 02 54 36 a6 ec 20 36 bd 7e 50 36 cd c8 43 36
       3.1591976e-06 2.3979605e-06 3.1068187e-06 2.9174146e-06
000040 24 28 9a 36 5e 08 11 37 7d 57 5c 36 9d 92 40 36
       4.5942306e-06 8.644622e-06 3.283348e-06 2.869557e-06
000050 cb 33 82 36 7f 6f f1 35 aa 48 d8 36 aa b0 a5 36
       3.8803314e-06 1.7988349e-06 6.445761e-06 4.9379496e-06
000060 3f 36 1b 36 15 a9 e0 36 be a8 c1 36 1f ee 94 36
       2.3128375e-06 6.695404e-06 5.7714924e-06 4.4384647e-06
000070 cc 6a cb 36 8c 32 7c 36 4c e8 6c 37 b4 8b 06 37
       6.0623042e-06 3.7580348e-06 1.4120782e-05 8.01955e-06
000080 fe 65 21 37 99 93 50 38 3d 03 02 38 18 05 d1 37
       9.620095e-06 4.9728525e-05 3.099743e-05 2.4917113e-05
000090 69 6e 73 37 d9 76 a6 37 69 e3 46 38 aa 0b 10 38
       1.4509636e-05 1.9844085e-05 4.741867e-05 3.434314e-05
0000a0 33 76 ab 36 ab 56 9a 37 4d 47 fe 37 c1 48 be 37
       5.1099573e-06 1.8398589e-05 3.0312362e-05 2.2683644e-05
0000b0 24 ce d3 37 b9 7a 6e 37 cb 32 9e 37 3b ea 9e 37
       2.5249152e-05 1.4214479e-05 1.885872e-05 1.894414e-05
0000c0 50 38 1a 38 73 7b 45 38 d3 6c 9c 37 b1 e7 24 38
       3.6768906e-05 4.708343e-05 1.8647324e-05 3.9316426e-05
0000d0 77 47 cb 37 50 a9 07 37 6d d2 02 38 67 3a 0d 38
       2.4232764e-05 8.086048e-06 3.119039e-05 3.367141e-05
0000e0 16 b5 2b 37 4f e5 2b 37 45 b2 f0 38 40 87 b2 37
       1.0234557e-05 1.0245784e-05 0.00011477297 2.1282234e-05
0000f0 54 4a c1 37 65 af 5e 37 bc 70 04 38 e8 79 3d 38
       2.3042005e-05 1.3273068e-05 3.1576245e-05 4.5174645e-05
000100 d2 24 b2 36 48 92 58 37 8c 46 ec 36 34 eb c0 36
       5.3091e-06 1.2908662e-05 7.041561e-06 5.749427e-06
000110 1f 06 94 36 0e a1 1d 37 fb 43 c6 37 86 48 03 37
       4.4114563e-06 9.395428e-06 2.3635095e-05 7.825094e-06
000120 87 50 1a 36 19 8e ea 36 d4 de 10 37 ff bf b3 36
       2.2994661e-06 6.990286e-06 8.63495e-06 5.356967e-06
000130 d6 87 9a 36 a2 67 db 36 00 38 30 37 3b 73 34 37
       4.605371e-06 6.538773e-06 1.0503456e-05 1.0755665e-05
000140 f9 39 33 37 a5 04 13 37 ec 44 ad 36 b3 af 29 37
       1.0682729e-05 8.762964e-06 5.1638253e-06 1.0114093e-05
000150 a7 e2 05 37 05 0a 58 36 39 d6 ed 36 f5 20 b0 36
       7.980189e-06 3.219234e-06 7.088089e-06 5.2490454e-06
000160 fa db 29 36 56 aa ce 36 b3 b6 92 37 c0 46 47 36
       2.5311006e-06 6.159108e-06 1.7489632e-05 2.9694493e-06
000170 45 e0 34 37 0c 3b 83 36 a3 a8 82 37 91 0a 41 37
       1.0781053e-05 3.910978e-06 1.5575735e-05 1.1506157e-05
000180 39 34 2d 36 92 1b 00 37 27 81 ad 36 0c 74 73 36
       2.5809406e-06 7.635814e-06 5.170837e-06 3.627737e-06
000190 6d 34 37 36 68 8f 0a 37 4a 58 16 37 a2 ea e1 36
       2.729964e-06 8.25883e-06 8.961253e-06 6.7328374e-06
0001a0 11 39 94 35 e6 cc a7 36 17 69 ab 36 c1 8d c0 36
       1.1043468e-06 5.000841e-06 5.108431e-06 5.738548e-06
0001b0 3e 88 79 36 c3 7c 48 36 c4 a8 94 36 4d b7 7b 36
       3.7183195e-06 2.9874943e-06 4.4303906e-06 3.750861e-06
0001c0 e4 dd b3 36 eb f0 2b 37 03 c3 8b 36 d9 44 5b 36
       5.360447e-06 1.0248487e-05 4.165225e-06 3.2673618e-06
0001d0 00 bc 9b 36 56 fb 1b 36 32 37 0d 37 3b a8 c7 36
       4.641246e-06 2.3243097e-06 8.417106e-06 5.9502468e-06
0001e0 c7 8a 20 36 c2 db d5 36 b5 c8 c1 36 94 db 9c 36
       2.3922637e-06 6.373478e-06 5.7752136e-06 4.6747246e-06
0001f0 4a a7 e4 36 43 b5 a2 36 4a 5b 68 37 5b bc 12 37
       6.8144045e-06 4.849078e-06 1.38495325e-05 8.746133e-06
000200 48 a3 31 37 25 9e c3 38 e6 8d 82 38 5e 8c 4f 38
       1.0588039e-05 9.327781e-05 6.225314e-05 4.9483373e-05
000210 f7 f2 04 38 55 39 0d 38 02 0f 3f 38 ca 1e 93 38
       3.169753e-05 3.3670414e-05 4.5551926e-05 7.015241e-05
000220 0e aa ce 36 cc 19 de 37 d5 51 68 38 4f 82 3e 38
       6.1590754e-06 2.6476475e-05 5.5389322e-05 4.542089e-05
000230 e9 c7 85 38 ba 95 8a 37 67 a4 86 37 96 d1 5e 37
       6.3791704e-05 1.6520604e-05 1.60506e-05 1.3281029e-05
000240 84 4a a6 38 5e a2 dc 38 aa 1d 1e 38 ac 78 a3 38
       7.9293764e-05 0.00010520661 3.7697762e-05 7.7949226e-05
000250 5c 3a 30 38 e2 28 5a 37 cd 36 87 38 f1 5c aa 38
       4.201602e-05 1.3003331e-05 6.447509e-05 8.1235434e-05
000260 ef 46 c7 37 3a 36 3d 37 13 3d 94 39 ec f1 74 38
       2.375568e-05 1.12779035e-05 0.00028274264 5.839944e-05
000270 3e ed d7 37 dd 4a e7 37 b6 2c 52 38 5e b5 b5 38
       2.5740472e-05 2.7572207e-05 5.0109542e-05 8.664535e-05
000280 41 2a 76 35 d9 6a 6b 36 3c de 27 36 4d 1a ca 35
       9.170363e-07 3.5079922e-06 2.5014297e-06 1.5057827e-06
000290 33 ba 89 35 e7 35 b0 36 fe 73 91 36 80 dc 54 36
       1.0261487e-06 5.251484e-06 4.33484e-06 3.171881e-06
0002a0 1f be f9 34 fb 7c 32 36 9f 67 09 36 a4 72 36 36
       4.6518196e-07 2.6596815e-06 2.0474906e-06 2.7186843e-06
0002b0 f9 5e e6 35 79 37 ae 35 c4 14 00 36 a4 2c db 35
       1.7163976e-06 1.2980155e-06 1.9085574e-06 1.6329764e-06
0002c0 5a 46 d6 35 1a 0a 9f 36 1a 14 ff 35 18 3c d3 35
       1.5964717e-06 4.7397452e-06 1.9004831e-06 1.5738215e-06
0002d0 72 d5 03 36 4e 42 42 35 4d ec 3b 36 b3 fc 2b 36
       1.9644763e-06 7.236712e-07 2.8002717e-06 2.5628076e-06
0002e0 c1 ed 95 35 7c 0d 8b 36 91 5b 39 36 3a b5 21 36
       1.1170561e-06 4.1440926e-06 2.7620447e-06 2.4096357e-06
0002f0 04 8a 80 36 32 73 e9 35 64 9c 08 37 f0 03 bb 36
       3.8307644e-06 1.7393379e-06 8.142644e-06 5.5734927e-06
000300 e5 d3 84 37 62 93 50 38 27 7a 0c 38 71 1b e0 37
       1.5834297e-05 4.9728325e-05 3.3492364e-05 2.671566e-05
000310 84 0d 84 37 85 20 ec 37 c4 f1 95 38 06 71 27 38
       1.574192e-05 2.8148535e-05 7.149906e-05 3.9921164e-05
000320 b3 4c 17 37 a0 5b dd 37 cf 7d 04 38 d7 a7 d8 37
       9.018159e-06 2.638792e-05 3.158842e-05 2.5827363e-05
000330 7a a4 aa 37 82 2c b3 37 23 c1 08 38 9c 6e 07 38
       2.034217e-05 2.1359188e-05 3.26048e-05 3.228952e-05
000340 05 b2 e3 37 93 46 43 38 da 65 a8 37 4e 74 05 38
       2.7143406e-05 4.655735e-05 2.0074589e-05 3.181799e-05
000350 8d d2 fd 37 e7 78 1f 37 5f f4 1b 38 ca 3c 03 38
       3.0257996e-05 9.505288e-06 3.7182468e-05 3.1289448e-05
000360 43 93 17 37 5d d3 92 37 9c 08 9c 38 7e 24 9b 37
       9.034588e-06 1.750298e-05 7.440263e-05 1.8494433e-05
000370 cd 8a 08 38 93 c3 98 37 7c 44 3b 38 c8 7c 5d 38
       3.2554195e-05 1.8210883e-05 4.4648055e-05 5.2806718e-05
000380 fe 8c dd 37 02 db 29 39 d2 e5 d9 38 c7 39 af 38
       2.6410908e-05 0.00016198683 0.00010390174 8.355412e-05
000390 c6 71 6e 38 37 0c 9e 38 39 48 ef 38 6b 03 f7 38
       5.684958e-05 7.536302e-05 0.000114098606 0.000117785145
0003a0 44 2a 61 37 66 38 57 38 44 78 cc 38 4b 82 a1 38
       1.3420886e-05 5.131252e-05 9.749879e-05 7.701347e-05
0003b0 d9 2e dc 38 90 88 21 38 f9 b2 39 38 5c fa 35 38
       0.000104991435 3.8512575e-05 4.427412e-05 4.3386928e-05
0003c0 cb da 18 39 f1 7a 36 39 67 ed 8a 38 16 2a 0f 39
       0.00014577356 0.00017402672 6.6245724e-05 0.00013653221
0003d0 89 5a a6 38 eb 66 cd 37 c1 e9 e2 38 55 95 08 39
       7.93236e-05 2.448583e-05 0.0001082006 0.00013025601
0003e0 04 22 2b 38 d3 2d 08 38 d8 9e f1 39 8f 9b c5 38
       4.0801257e-05 3.2467604e-05 0.0004608545 9.422667e-05
0003f0 ab f1 80 38 a1 bb 4c 38 ab ee ee 38 e2 ce 1c 39
       6.14853e-05 4.8812133e-05 0.0001139318 0.00014954389

exp_avg f4 [32]
000000 e3 cf 24 ba 36 3d 4d bc 21 dd 3a ba ca 35 ab 3a
       -0.0006287081 -0.012526801 -0.00071282877 0.0013062295
000010 7e 93 9d 3c 7f ad 24 3a 76 d2 ea bb 4e de d9 bc
       0.019235369 0.00062819564 -0.007166202 -0.026595261
000020 d7 87 46 3b 3c 22 46 bb 72 ad ce bc 12 af a7 3c
       0.003029337 -0.0030232808 -0.02522919 0.020469222
000030 dc 85 91 bb 1b c0 ea bc 82 d6 4b 3c 1b 1f 26 bc
       -0.004441006 -0.028656056 0.012441279 -0.010139252
000040 5d 0a 48 3a 96 e1 2b 3b 27 e0 1b bb 77 00 f6 bb
       0.0007630939 0.002622699 -0.0023784728 -0.0075073796
000050 0b a6 5a ba ae bc df ba fe 35 10 3c ca e9 d4 3b
       -0.00083407824 -0.0017069781 0.008801935 0.0064975964
000060 ae fa 83 3b 9c 8a c0 ba b9 3d c1 3b 9c e3 5e bc
       0.004027686 -0.0014689746 0.0058972505 -0.013604071
000070 5d d0 28 ba 86 46 bf bb ab af 7b bc ff 5a 8f bc
       -0.000643974 -0.0058372645 -0.015361707 -0.017499445

exp_avg_sq f4 [32]
000000 17 ff f9 38 76 8c 2f 3a 16 98 30 39 d3 cd f1 38
       0.000119207594 0.00066966505 0.00016841324 0.00011530113
000010 e2 13 a5 3a 29 10 b6 38 04 0e 49 3a f0 70 14 3b
       0.0012594427 8.681446e-05 0.000766963 0.0022650324
000020 c8 b3 50 39 c0 d9 bb 39 0d f2 19 3b 5d 1a e2 3a
       0.000199034 0.00035829656 0.002349022 0.0017250289
000030 d7 89 bb 39 b7 c6 69 3b ff 9a fe 3a ab c4 b0 39
       0.00035770118 0.0035671422 0.0019424855 0.00033715865
000040 c6 89 55 39 ea 20 c3 38 8b ac fd 36 0a 13 4a 3a
       0.00020364588 9.304455e-05 7.560074e-06 0.00077085255
000050 48 d3 2b 39 5e db e3 37 9a d2 ee 39 d3 35 9c 39
       0.00016386539 2.716266e-05 0.00045551808 0.0002979474
000060 e5 0a 22 3a 80 d7 7f 38 91 71 82 39 ca e4 18 3a
       0.0006181433 6.0997438e-05 0.00024880146 0.0005832432
000070 9e ac 2c 39 ff 05 a5 38 5a 04 72 3a 42 cc ff 3a
       0.00016467503 7.86893e-05 0.0009232216 0.001951583

exp_avg f4 [1, 32]
000000 43 18 a8 3c ac fc 4d 3c 58 35 a5 3c 78 fc d2 3c
       0.020519381 0.012572449 0.020167038 0.025755152
000010 41 5a 44 3b ac 86 84 3a 1b 18 df 3c bf c6 26 3a
       0.0029961022 0.0010110936 0.027233174 0.0006362013
000020 32 19 19 3c 45 7f 19 bd 38 cd 27 bc 97 27 ab bc
       0.009344386 -0.03747489 -0.010241799 -0.020892901
000030 27 e8 a3 3c d6 28 b1 bc e3 de 11 3d 66 db 5d 3b
       0.02000816 -0.021625917 0.035612952 0.0033852695
000040 4c d4 f4 bc 9f 78 f5 3c 89 25 d9 bc 28 d8 0f 3d
       -0.029886387 0.029964743 -0.026507156 0.035118252
000050 67 f5 e1 bc 37 25 01 bc 86 f5 8a 3b 22 04 96 3c
       -0.027582837 -0.007882408 0.0042406945 0.018312518
000060 4e b8 d1 3c d2 0e a4 bb 62 2c bb 3c d4 24 59 bc
       0.025600579 -0.0050066495 0.022848312 -0.013253409
000070 4e 8e 08 bd 56 7f 5d bd a2 b1 f0 3c 6e 93 99 3c
       -0.033338837 -0.054076515 0.029381577 0.018747058

exp_avg_sq f4 [1, 32]
000000 d6 ae d0 3a 97 d9 0d 3b b8 28 c0 3a 9a 32 fb 3a
       0.0015921246 0.0021644586 0.0014660573 0.0019164861
000010 80 b5 cf 3a 82 60 af 39 4d 21 cd 3a 51 0d 2d 3b
       0.0015846938 0.00033450505 0.0015650183 0.0026405642
000020 cf 69 12 3a 59 71 ae 3a 18 b6 15 3b ad 9d c3 3a
       0.0005585225 0.0013308927 0.0022844132 0.001492431
000030 9e 8a 9e 3a 68 c0 ba 3a c5 13 8f 3a ee f8 96 3a
       0.0012095755 0.0014248015 0.0010915926 0.0011518279
000040 6b 2e 3d 3a 2e e1 20 3a fa ef c5 39 8a 80 0a 3b
       0.00072166946 0.000613707 0.00037753565 0.0021133744
000050 12 1b 5b 3a 66 b2 8c 39 04 d6 02 3a 00 6f 64 3a
       0.0008358221 0.00026835798 0.0004990997 0.000871405
000060 d8 aa 0c 3b 0e f1 dd 39 b0 0a a3 3a dc df 4d 3a
       0.0021464135 0.00042332005 0.0012439098 0.0007853487
000070 29 be bd 3a 8f 68 af 3a 19 c8 81 3b 9f b5 e3 3a
       0.0014476228 0.0013382601 0.003960621 0.0017372853

exp_avg f4 [1, 32]
000000 b0 16 e4 bc 99 16 61 bc 1a a1 aa bc c8 d9 1c bd
       -0.02784285 -0.013738298 -0.020828772 -0.03829363
000010 5b 8c 02 3c ed 11 8a 3b 34 e8 26 bd 31 2b 70 3c
       0.007968034 0.0042135627 -0.04074879 0.014658735
000020 a3 e6 24 bc dc 66 14 3d c2 d4 b2 3c 30 8f 1c 3d
       -0.010064754 0.036230907 0.021829966 0.03822249
000030 47 14 b6 bc d1 b3 86 3c 1f 93 75 bd 4e 8b 90 bc
       -0.022226466 0.016443165 -0.05995476 -0.01764455
000040 5d 9f 12 3d 12 5b 35 bd b3 43 74 3d 12 68 84 bd
       0.035796512 -0.044276305 0.059634876 -0.06465162
000050 2b 87 06 3d 86 46 20 3c 0f 8c 25 bb f7 b7 7f bc
       0.03284375 0.009782439 -0.0025260483 -0.0156078255
000060 c3 5e 09 bd c1 1a 2e 3c a3 5f d7 bc 4a 2f 89 3b
       -0.033537637 0.010626496 -0.02629072 0.0041865455
000070 d8 18 25 3d 60 67 8c 3d 9e e2 71 bd c4 88 20 bd
       0.040306896 0.06855655 -0.05905401 -0.03919293

exp_avg_sq f4 [1, 32]
000000 c1 c1 3d 3b ca c1 4a 3b cc c1 20 3b 26 54 8a 3b
       0.0028954598 0.0030938261 0.0024529574 0.004221457
000010 57 09 f3 3a de 51 be 39 51 b6 97 3b 92 fa 64 3b
       0.0018542212 0.0003630062 0.004629888 0.003493939
000020 35 bc 91 3a 52 44 c1 3b d9 b3 68 3b 9d ca bd 3b
       0.0011118712 0.005898037 0.0035507588 0.0057919757
000030 39 eb e4 3a 5c ca 52 3b 40 1e e5 3b 61 54 c7 3a
       0.0017465121 0.0032164073 0.0069921315 0.0015207642
000040 f6 90 49 3b ae f5 58 3b 73 1a c7 3a fa 9c 1e 3c
       0.003075657 0.003310542 0.0015190378 0.009680981
000050 78 5b 0a 3b cf 8e 82 3a f5 4a 7c 3a f9 6c 96 3a
       0.0021111649 0.0009960773 0.00096242066 0.0011476568
000060 fe 1f bf 3b aa 72 a4 39 49 e7 3b 3b 75 09 b7 3a
       0.005832671 0.0003136595 0.0028671792 0.001396461
000070 6e 4b 85 3b 41 92 12 3c 4e 70 17 3c 80 d6 73 3b
       0.00406783 0.008946002 0.009243084 0.003720671
